ArmRobot/Assets/Config/results/TFM-Brazo-Mesa-Segundo-2/TouchCubeMoveGail/TouchCubeMoveGail-11839851.onnx (onnx, 147394 bytes, 25 tensors)

discrete_act_size_vector f4 [1, 8]
3.0 3.0 3.0 3.0 3.0 3.0 3.0 3.0
00000000: 0000 4040 0000 4040 0000 4040 0000 4040
00000010: 0000 4040 0000 4040 0000 4040 0000 4040

network_body.observation_encoder.processors.0.normalizer.running_mean f4 [86]
0.0 0.0 0.0 0.0 0.0 0.0 0.9999632 -5.966157e-08
0.08605113 -5.595414e-08 6.9645534e-09 0.11312657 -3.1370828e-08 0.97185963 -0.013768789 0.1518929
-0.05890992 -0.015444375 0.10571574 -0.19768053 0.90389127 0.06591407 0.3293646 -0.07645203
0.012612526 0.092418164 -0.12724362 0.82775635 0.11403592 0.41276598 -0.032999124 -0.121504895
-0.35101086 -0.055158008 0.6989954 0.13615574 0.420534 -0.048461035 -0.032546833 -0.37882823
-0.20023394 0.6300902 0.1568568 0.42405352 -0.05103904 -0.09581383 -0.48765683 -0.16866858
0.5282438 0.18031989 0.4270416 -0.041377403 -0.5039117 -0.25695264 -0.39042714 0.27544323
0.20843382 0.39238405 -0.047618013 -0.5039117 -0.25695264 -0.39042714 0.27544323 0.20452446
0.38697475 -0.05593782 -0.5039117 -0.25695264 -0.39042714 0.27544323 0.2140017 0.9155272
0.3118376 0.7443127 0.15945083 0.82198334 0.34090284 0.7342102 -0.3902296 0.81825024
-0.346944 0.8153694 -0.25912496 0.8729012 0.18096705 -0.31514463
00000000: 0000 0000 0000 0000 0000 0000 0000 0000
00000010: 0000 0000 0000 0000 97fd 7f3f 4c1f 80b3
00000020: 933b b03d 3a52 70b3 dc4c ef31 e7ae e73d
00000030: 97bc 06b3 cbcb 783f 7d96 61bc d089 1b3e
00000040: 874b 71bd 670a 7dbc 7e81 d83d c46c 4abe
00000050: 6b65 673f f5fd 863d 7aa2 a83e e292 9cbd
00000060: c5a4 4e3c bc45 bd3d 274c 02be d7e7 533f
00000070: aa8b e93d 1056 d33e 172a 07bd 8fd7 f8bd
00000080: b2b7 b3be 5ded 61bd 5df1 323f 696c 0b3e
00000090: 3c50 d73e 147f 46bd d44f 05bd c6f5 c1be
000000a0: 200a 4dbe 974d 213f 129f 203e 8b1d d93e
000000b0: 500e 51bd 0b3a c4bd 28ae f9be 75b7 2cbe
000000c0: fc3a 073f c7a5 383e 32a5 da3e 5a7b 29bd
000000d0: 5b00 01bf 4c8f 83be 11e6 c7be e506 8d3e
000000e0: ad6f 553e 90e6 c83e 1b0b 43bd 5b00 01bf
000000f0: 4c8f 83be 11e6 c7be e506 8d3e dc6e 513e
00000100: 8e21 c63e 0e1f 65bd 5b00 01bf 4c8f 83be
00000110: 11e6 c7be e506 8d3e 4323 5b3e fe5f 6a3f
00000120: 2ea9 9f3e 478b 3e3f 1447 233e 806d 523f
00000130: d18a ae3e 33f5 3b3f 2dcc c7be d978 513f
00000140: a5a2 b1be 0dbc 503f 07ac 84be 7476 5f3f
00000150: 6d4f 393e a35a a1be

network_body.observation_encoder.processors.1.normalizer.running_mean f4 [29]
0.4352159 0.3955644 64.16229 127.96032 0.14920011 0.01116813 -0.018033592 0.16777416
0.25189415 -0.022048451 -0.018732658 -0.24017324 0.0040272893 0.0048590545 -0.6653377 0.022875538
-0.01732744 0.2809321 -0.012446565 0.022192257 -0.94631445 0.0353131 0.25859195 0.37957907
0.49290067 0.3068897 0.8097284 0.75105304 0.7747421
00000000: 9ed4 de3e 6b87 ca3e 1853 8042 afeb ff42
00000010: eac7 183e 88fa 363c 2fbb 93bc fdcc 2b3e
00000020: 45f8 803e f49e b4bc 3b75 99bc f9ef 75be
00000030: 5af7 833b b438 9f3b 9253 2abf 7b65 bb3c
00000040: 47f2 8dbc 55d6 8f3e adec 4bbc 89cc b53c
00000050: aa41 72bf 78a4 103d 2a66 843e 3058 c23e
00000060: 7a5d fc3e a620 9d3e 5c4a 4f3f 0345 403f
00000070: 8055 463f

network_body._body_endoder.seq_layers.0.weight f4 [128, 115]
-0.13223635 0.10801433 0.053874362 0.059680324 0.032685243 -0.1596381 0.05180713 -0.03011266
-0.044961695 -0.31361878 0.05118934 0.2922567 0.02847843 0.047464196 -0.11777811 0.22606361
-0.0037522383 0.10627537 0.17065841 -0.0065146526 -0.07546202 0.09407466 0.010796582 -0.13435613
0.072580904 0.04617669 0.04105586 0.22133783 0.16271089 0.06218984 -0.042992584 -0.16440576
-0.11710358 -0.06813044 0.028848212 0.22341178 0.20973964 -0.06395086 -0.032090794 -0.029701121
-0.08636722 0.18153612 0.14825094 -0.071990594 -0.24737903 0.05327061 -0.21738136 -0.0058121625
0.27058136 0.10507572 -0.013841325 0.030749267 -0.20850381 -0.03586784 -0.13797198 0.19798349
0.3862062 0.04691576 -0.07415387 -0.09325572 0.08146654 -0.06340617 0.14777736 0.15539978
-0.13536365 -0.032437384 0.017327452 -0.07422544 -0.21971169 0.10920993 0.23578635 -0.0018321525
0.032648202 0.06773404 -0.007343668 0.022918815 -0.058381364 0.07889071 0.14751081 -0.03293422
0.25839004 0.05008544 0.11720407 0.20459245 0.12033452 -0.18701251 -0.02727152 0.13838024
-0.12148017 0.09148619 0.06915805 -0.05924422 0.03978046 0.11423678 -0.10255472 -0.018949782
-0.18004267 -0.024976825 0.16717635 0.09682159 -0.04199927 -0.007863755 0.115939856 -0.004291607
0.105477974 -0.008610758 -0.027765473 -0.13526021 -0.16447581 -0.13865517 -0.25423664 0.12385168
0.15949373 -0.17782801 -0.0770923 -0.08366158 -0.15459418 -0.082073525 0.034112044 0.08523683
-0.17693426 0.035706628 0.2685441 0.023378365 0.1733106 -0.0103748245 -0.14784606 -0.06949016
-0.07941089 0.18222521 -0.063130714 0.043654647 -0.013873274 0.036309376 -0.025646871 -0.02235617
-0.06807486 0.0618335 0.05853413 0.12999588 -0.063486174 0.2266966 -0.057043146 0.039742876
-0.054200783 0.1177332 0.23614854 0.1507328 -0.08899979 0.026950669 -0.12202907 -0.23333585
-0.018533455 0.30643088 0.14751776 -0.052782565 -0.11149418 0.23567064 -0.036806215 0.07838944
-0.006199311 -0.053372264 -0.064485416 -0.2787353 -0.097990744 -0.13937157 0.101726815 0.060943246
0.3218192 -0.14428616 -0.046400215 -0.26981357 -0.051813286 0.017806413 0.13818729 0.088995285
-0.25719464 0.030355705 -0.047619063 -0.08032746 0.106399626 0.17952439 0.14025342 -0.23370034
0.09722765 -0.21200612 -0.10553843 0.16752549 0.004741493 0.021412404 -0.07908472 0.24359801
-0.112938136 -0.14183493 -0.19422995 -0.099622406 -0.06696739 0.07509109 -0.022615038 0.23710483
0.13805702 -0.067378715 -0.14358929 -0.022634506 0.1144995 0.14621066 0.12488946 -0.28648108
0.09854642 -0.045255546 0.13017651 0.1633864 -0.11553907 -0.25618032 -0.049376167 0.09942163
-0.1637472 0.070099264 -0.11277337 0.016789656 0.07135559 0.021951664 -0.024072565 0.22763996
0.033362255 0.21433921 -0.33610103 -0.10657261 0.046679005 -0.39347374 0.054205097 -0.04663017
-0.05005853 -0.026148576 -0.11431376 -0.08861703 0.08816855 0.40630963 -0.042501982 -0.03332778
0.009815881 -0.023509255 0.035483252 0.034703415 0.1238242 0.1486402 -0.05109014 0.13523903
0.075422175 -0.15647788 0.08101661 0.11328516 0.027597161 -0.105404824 0.08725842 0.007129187
00000000: f768 07be 9e36 dd3d 5dab 5c3d 5b73 743d
00000010: f6e0 053d 2c78 23be b733 543d d3ae f6bc
00000020: c129 38bd a492 a0be eaab 513d aca2 953e
00000030: 994b e93c d169 423d a635 f1bd 387d 673e
00000040: 1de8 75bb e7a6 d93d 14c1 2e3e de78 d5bb
00000050: d58b 9abd 37aa c03d 26e4 303c a794 09be
00000060: 4ca5 943d c523 3d3d 312a 283d 62a6 623e
00000070: af9d 263e c6ba 7e3d fe18 30bd fc59 28be
00000080: 00d4 efbd f987 8bbd 1653 ec3c 0fc6 643e
00000090: fdc5 563e abf8 82bd a371 03bd c44f f3bc
000000a0: 4ce1 b0bd 9be4 393e 18cf 173e ce6f 93bd
000000b0: ee50 7dbe 4832 5a3d 3899 5ebe f473 bebb
000000c0: a489 8a3e f031 d73d bac6 62bc e3e5 fb3c
000000d0: 0682 55be 28ea 12bd 8748 0dbe 2fbc 4a3e
000000e0: d2bc c53e bd2a 403d fcdd 97bd dbfc bebd
000000f0: eed7 a63d 18db 81bd f352 173e 1f21 1f3e
00000100: c59c 0abe 10dd 04bd 4df2 8d3c 8203 98bd
00000110: 1afc 60be 75a9 df3d fa71 713e d624 f0ba
00000120: 1fba 053d 25b8 8a3d 27a3 f0bb 3dc0 bb3c
00000130: 4c21 6fbd 7491 a13d 130d 173e 08e6 06bd
00000140: b34b 843e 6426 4d3d b008 f03d af80 513e
00000150: f271 f63d 3580 3fbe 8668 dfbc 8db3 0d3e
00000160: 98ca f8bd 1d5d bb3d bca2 8d3d 11aa 72bd
00000170: d6f0 223d f9f4 e93d 3608 d2bd 933c 9bbc
00000180: 1b5d 38be 339c ccbc 4730 2b3e 664a c63d
00000190: 6d07 2cbd fbd6 00bc e071 ed3d 9ca0 8cbb
000001a0: d604 d83d 2314 0dbc 6b74 e3bc a781 0abe
000001b0: 596c 28be 9ffb 0dbe 4e2b 82be f3a5 fd3d
000001c0: 5352 233e 8c18 36be 91e2 9dbd c356 abbd
000001d0: f04d 1ebe 2a16 a8bd 12b9 0b3d a690 ae3d
000001e0: 412e 35be 1d41 123d 9d7e 893e fc83 bf3c
000001f0: 5578 313e 2bfb 29bc f564 17be db50 8ebd
00000200: 2da2 a2bd 3f99 3a3e ad4a 81bd 37cf 323d
00000210: bb4c 63bc 24b9 143d 6319 d2bc 4924 b7bc
00000220: d56a 8bbd 2045 7d3d 7cc1 6f3d a41d 053e
00000230: 0a05 82bd 2723 683e 13a6 69bd 6dc9 223d
00000240: a401 5ebd 1b1e f13d ecd0 713e b359 1a3e
00000250: 8645 b6bd a6c7 dc3c 61ea f9bd 98ef 6ebe
00000260: 79d3 97bc 82e4 9c3e e50e 173e 8832 58bd
00000270: 1057 e4bd a553 713e 1dc2 16bd a58a a03d
00000280: 9723 cbbb e09c 5abd ee10 84bd 65b6 8ebe
00000290: 5faf c8bd 6cb7 0ebe 2656 d03d a09f 793d
000002a0: 7cc5 a43e c0bf 13be 270e 3ebd 0125 8abe
000002b0: 2b3a 54bd c1de 913c f880 0d3e 2943 b63d
000002c0: 04af 83be 87ac f83c 350c 43bd b982 a4bd
000002d0: 0ce8 d93d 3ed5 373e 989e 0f3e 244f 6fbe
000002e0: 4a1f c73d 2218 59be 8824 d8bd cd8b 2b3e
000002f0: 875e 9b3b 1169 af3c 2bf7 a1bd c271 793e
00000300: 1c4c e7bd 2d3d 11be 37e4 46be d506 ccbd
00000310: 3326 89bd 5bc9 993d 2c43 b9bc 9ccb 723e
00000320: d25e 0d3e dafd 89bd 1209 13be 006c b9bc
00000330: b77e ea3d 3fb8 153e 0cc6 ff3d a6ad 92be
00000340: b5d2 c93d e15d 39bd fe4c 053e c44e 273e
00000350: bf9f ecbd 112a 83be aa3e 4abd 919d cb3d
00000360: 59ad 27be 3490 8f3d baf5 e6bd 768a 893c
00000370: e122 923d fad3 b33c d433 c5bc 731a 693e
00000380: dca6 083d bd7b 5b3e 6f15 acbe be42 dabd
00000390: 7c32 3f3d 6475 c9be 2a06 5e3d 47ff 3ebd
000003a0: 2c0a 4dbd 8a35 d6bc 551d eabd d87c b5bd
000003b0: b691 b43d d107 d03e 8f16 2ebd b682 08bd
000003c0: cad2 203c 7b96 c0bc e356 113d 2b25 0e3d
000003d0: 8b97 fd3d 2335 183e e543 51bd 1a7c 0a3e
000003e0: f176 9a3d bd3b 20be 09ec a53d 0d02 e83d
000003f0: 7113 e23c 7cde d7bd 8bb4 b23d f59b e93b

network_body._body_endoder.seq_layers.0.bias f4 [128]
0.046793148 0.04659834 0.035407007 0.011563078 0.106681876 0.051307578 0.018528564 0.060142793
0.18974978 -0.015344486 0.029862313 0.25027338 0.043267995 -0.0066702454 0.00946113 0.074234486
0.089412294 0.045235377 0.044636924 0.07904816 -0.023460003 -0.0070117027 0.038205236 0.08670006
0.013247034 0.07168517 0.070255 0.0120877335 0.0072058868 0.023359707 -0.017963909 0.20714249
-0.0124464445 0.08071865 -0.00850982 0.07155961 0.25458762 0.03663514 0.1102048 0.020220727
0.09427635 0.040665336 -0.024664694 0.16999353 0.1676295 -0.016541753 0.1319002 0.13168831
-0.030596334 -0.030112343 0.034030467 0.06922665 0.09542999 -0.06691761 0.09524916 0.08792202
-0.025448008 0.048196077 0.23901053 -0.029516742 0.16128226 0.015094357 0.027885433 0.06375478
0.012380589 0.033427082 0.038838938 0.08481468 0.07976825 0.050547898 0.045122694 0.16048987
-0.031569526 0.19354805 0.09208117 0.025119482 0.1436216 -0.034524664 0.14835699 0.043824863
-0.03601988 0.083761044 0.07454765 -0.025194427 0.17082779 0.23263885 0.32650736 0.01075415
0.101504214 0.106821336 0.10350833 0.063864276 0.19779631 0.08638843 0.07848133 -0.023981478
0.050774943 -0.04551272 0.042175904 0.1574801 0.057347372 -0.026851613 0.112581104 -0.0019552421
0.01325575 0.06003451 0.058660094 0.026377618 0.03169244 0.19051136 0.017145475 0.16242756
0.14101094 0.10674704 0.15323006 -0.01079482 0.18873109 0.07380471 0.16298269 0.03845222
0.24026561 0.1971607 0.0038645698 0.15203059 -0.02960573 0.06331855 0.037985276 0.1259372
00000000: 2caa 3f3d e7dd 3e3d f006 113d 1073 3d3c
00000010: 077c da3d e527 523d 37c9 973c 4a58 763d
00000020: c44d 423e 7067 7bbc cfa1 f43c d523 803e
00000030: c839 313d 1392 dabb db02 1b3c 4008 983d
00000040: cb1d b73d bb48 393d 35d5 363d 00e4 a13d
00000050: 312f c0bc 6dc2 e5bb 187d 1c3d cd8f b13d
00000060: 160a 593c adcf 923d dae1 8f3d a10b 463c
00000070: 5c1f ec3b db5c bf3c 0c29 93bc 291d 543e
00000080: 2cec 4bbc d24f a53d c66c 0bbc d88d 923d
00000090: 4f59 823e bb0e 163d 0eb3 e13d f0a5 a53c
000000a0: f613 c13d b290 263d 9d0d cabc c912 2e3e
000000b0: 11a7 2b3e 9282 87bc d910 073e 4dd9 063e
000000c0: 2aa5 fabc 29ae f6bc 8863 0b3d b4c6 8d3d
000000d0: cc70 c33d 1a0c 89bd fe11 c33d 7610 b43d
000000e0: 5778 d0bc 4069 453d 2dbf 743e 18cd f1bc
000000f0: 2d27 253e 524e 773c fe6f e43c de91 823d
00000100: f4d7 4a3c d6ea 083d 9415 1f3d 52b3 ad3d
00000110: 895d a33d 500b 4f3d 93d2 383d 7557 243e
00000120: 0c4f 01bd 7631 463e 0d95 bc3d 5fc7 cd3c
00000130: 8a11 133e bc69 0dbd e5ea 173e b381 333d
00000140: 9589 13bd e98a ab3d 70ac 983d 8b64 cebc
00000150: 7bed 2e3e e138 6e3e f92b a73e 2d32 303c
00000160: 71e1 cf3d 25c5 da3d 2dfc d33d 46cb 823d
00000170: 1e8b 4a3e 6bec b03d d2ba a03d ce74 c4bc
00000180: 63f9 4f3d 8c6b 3abd a4c0 2c3d 7742 213e
00000190: 14e5 6a3d eaf7 dbbc ec90 e63d 8523 00bb
000001a0: a52e 593c bfe6 753d 9145 703d e015 d83c
000001b0: efcf 013d 6915 433e ab74 8c3c 6953 263e
000001c0: 2c65 103e 319e da3d 57e8 1c3e c2dc 30bc
000001d0: b942 413e ec26 973d efe4 263e 1380 1d3d
000001e0: 3008 763e 7fe4 493e b944 7d3b e8ad 1b3e
000001f0: b787 f2bc 28ad 813d 7396 1b3d aef5 003e

network_body._body_endoder.seq_layers.2.weight f4 [128, 128]
-0.06257422 -0.13360332 -0.002095367 -0.23744272 -0.19598539 -0.3564188 -0.010422549 0.15955473
-0.114023745 0.039350197 -0.45926338 0.0017292062 0.10020298 -0.30035666 -0.06904379 -0.070239566
0.11645577 0.060031105 0.13785031 0.1737927 -0.27963996 -0.05824201 -0.07394822 -0.07626677
-0.0058805095 -0.20018303 0.025924657 0.015399621 0.021140924 -0.117554955 -0.32270494 0.16481356
-0.23480251 0.20428833 0.19980906 -0.1049581 -0.041351818 0.12334134 0.11707437 0.15969431
-0.0594761 0.17742033 -0.14432032 -0.12585808 0.083231084 -0.21333434 -0.18449195 0.102953605
-0.090583965 0.11731678 0.17779079 -0.111064255 -0.0019092521 0.27208292 -0.42226 -0.36515114
-0.22096659 0.00057508243 -0.3001928 0.30607602 0.042029 -0.29317173 0.119309805 0.24926683
-0.05614573 0.0040788692 0.21972959 0.16851535 0.010638852 -0.100527875 -0.123277254 0.029707327
-0.4699855 -0.19406143 0.054733764 -0.39377546 0.07037318 0.063710324 -0.39610752 -0.021020912
0.04424322 -0.009503631 0.072688006 -0.07458782 -0.038022067 -0.106040426 -0.04505243 0.03664062
-0.18295927 -0.15572041 -0.1372201 -0.38815928 0.16086772 -0.35954827 -0.10135654 0.12584709
-0.34067065 -0.15606466 -0.15133867 -0.30458272 0.0628462 -0.17469484 -0.12694965 0.24009936
0.010806606 -0.19059958 -0.16551495 0.0015734239 -0.3336837 0.07366218 -0.3142886 0.058451045
0.016852146 -0.12353255 0.14511503 0.13206257 -0.14729087 0.20966199 -0.09218979 -0.15973788
-0.1021451 0.08436591 -0.14454478 -0.03726136 -0.26158807 -0.12555201 -0.22068793 -0.15205902
0.042385988 -0.079297274 0.28718093 0.124181904 -0.23387632 -0.090627536 0.09732853 0.07717129
-0.2065875 0.021800302 0.009284897 -0.2997767 0.16849746 -0.06619724 -0.0982184 -0.2975471
0.16794482 -0.31076843 -0.2358328 -0.010409126 -0.28920215 -0.046425376 0.030261392 -0.22940992
0.030960377 -0.14931199 0.20533425 0.0026373214 0.027665349 -0.023815453 -0.02686403 0.0075801923
-0.23792504 -0.14460275 0.21265616 0.121025845 -0.23200217 -0.06444509 -0.08370361 -0.008911365
-0.23071426 -0.020857895 -0.030859819 0.071412876 -0.1386468 -0.008046366 -0.27493924 -0.064140104
0.005410176 -0.0048458185 -0.18004696 -0.07295929 -0.12900019 -0.11721654 -0.02028427 -0.03341914
-0.22966138 0.104697056 -0.17499919 -0.26592883 -0.29938003 0.24865398 0.031301193 -0.09663966
-0.09997477 0.028993608 -0.08346142 0.022566352 0.06430164 -0.11601798 -0.18669704 -0.25611717
-0.077765495 -0.101595186 -0.036552243 0.035561647 -0.030654084 0.2580609 0.12689719 -0.145655
0.079565614 -0.2156995 -0.009895837 0.23543125 -0.15931404 0.0035856059 -0.42200816 0.18951891
-0.35255742 -0.11758331 -0.21843512 -0.08663927 -0.28303787 0.05446927 0.24287494 -0.041668832
0.23688814 -0.016539298 0.030971501 -0.16998002 0.048861552 -0.06863032 -0.07858266 -0.06779303
0.28825977 0.058057174 -0.014199304 0.13278314 0.11675765 -0.36018202 0.22634979 -0.03457422
0.063476235 -0.12922916 -0.022616213 -0.024904532 0.04224146 -0.03563524 -0.2830097 -0.05182909
-0.06867766 -0.13920029 0.010909829 -0.30639535 -0.25448164 -0.046105634 0.061818708 0.092841156
00000000: ea26 80bd 4fcf 08be 6d52 09bb 2f24 73be
00000010: 65b0 48be 867c b6be 57c3 2abc 5162 233e
00000020: 4885 e9bd ac2d 213d 9224 ebbe 88a6 e23a
00000030: 3837 cd3d 59c8 99be d566 8dbd c3d9 8fbd
00000040: 5d80 ee3d 2de3 753d a228 0d3e b7f6 313e
00000050: f82c 8fbe 2d8f 6ebd 2a72 97bd c131 9cbd
00000060: 4ab1 c0bb c8fc 4cbe f25f d43c b14e 7c3c
00000070: bb2f ad3c a7c0 f0bd 9539 a5be e3c4 283e
00000080: 1270 70be f630 513e bf9a 4c3e 46f4 d6bd
00000090: 8660 29bd 629a fc3d b0c4 ef3d e886 233e
000000a0: 369d 73bd adad 353e b5c8 13be f1e0 00be
000000b0: 0f75 aa3d 5174 5abe 75eb 3cbe 57d9 d23d
000000c0: 1684 b9bd c843 f03d ca0e 363e a875 e3bd
000000d0: df3f faba 744e 8b3e 7632 d8be 17f5 babe
000000e0: 1145 62be 21c1 163a dfb2 99be ffb5 9c3e
000000f0: 9a26 2c3d 9b1a 96be b358 f43d ce3f 7f3e
00000100: 11f9 65bd 09a8 853b cb00 613e 4a8f 2c3e
00000110: 944e 2e3c 8fe1 cdbd c978 fcbd c85c f33c
00000120: f1a1 f0be 0ab8 46be 8330 603d f09c c9be
00000130: d01f 903d 8f7a 823d 9bce cabe 0c34 acbc
00000140: 6138 353d 1eb5 1bbc 73dd 943d 80c1 98bd
00000150: 07bd 1bbd b92b d9bd e688 38bd 7a14 163d
00000160: ad59 3bbe 2c75 1fbe 6d83 0cbe d0bc c6be
00000170: 82ba 243e b616 b8be 0594 cfbd 0fde 003e
00000180: 626c aebe 6acf 1fbe 86f8 1abe 44f2 9bbe
00000190: 82b5 803d 34e3 32be 17ff 01be 9bdc 753e
000001a0: 310e 313c 892c 43be c07c 29be 583b ce3a
000001b0: 97d8 aabe 32dc 963d 6fea a0be 5d6a 6f3d
000001c0: 830d 8a3c a2fe fcbd 0999 143e 693b 073e
000001d0: 6bd3 16be a2b1 563e 00ce bcbd 5492 23be
000001e0: 7331 d1bd 09c8 ac3d 8c03 14be 5e9f 18bd
000001f0: dfee 85be b590 00be 04fc 61be 5cb5 1bbe
00000200: ee9c 2d3d 9c66 a2bd 6109 933e 1553 fe3d
00000210: 467d 6fbe ee9a b9bd 2e54 c73d fb0b 9e3d
00000220: ac8b 53be 8c96 b23c ae1f 183c 557c 99be
00000230: 998a 2c3e 6b92 87bd ba26 c9bd 1858 98be
00000240: baf9 2b3e 0a1d 9fbe 277e 71be 0a8b 2abc
00000250: 4e12 94be 8928 3ebd bde6 f73c 6fea 6abe
00000260: 9ea0 fd3c 3ee5 18be 2443 523e e9d6 2c3b
00000270: 71a2 e23c a018 c3bc f411 dcbc 4363 f83b
00000280: 9fa2 73be be12 14be 89c2 593e 66dc f73d
00000290: fa91 6dbe cafb 83bd cc6c abbd f900 12bc
000002a0: 5c40 6cbe 2dde aabc bbcd fcbc ea40 923d
000002b0: 6df9 0dbe e8d4 03bc d6c4 8cbe e35b 83bd
000002c0: d847 b13b acc9 9ebb 3b5e 38be ae6b 95bd
000002d0: a018 04be 3a0f f0bd 332b a6bc 82e2 08bd
000002e0: 5a2c 6bbe 696b d63d fd32 33be d327 88be
000002f0: 5748 99be 269f 7e3e ae35 003d 04eb c5bd
00000300: 92bf ccbd 0184 ed3c d2ed aabd 12dd b83c
00000310: 94b0 833d d69a edbd 822d 3fbe ca21 83be
00000320: 8443 9fbd 2311 d0bd ceb7 15bd 17a9 113d
00000330: 461e fbbc 8f20 843e 56f1 013e 9626 15be
00000340: 4cf3 a23d 54e0 5cbe 2622 22bc e414 713e
00000350: 3823 23be 7cfc 6a3b 7411 d8be 3f11 423e
00000360: 6882 b4be 85cf f0bd 75ad 5fbe ee6f b1bd
00000370: 57ea 90be 2b1b 5f3d 35b4 783e f0ac 2abd
00000380: ce92 723e 6c7d 87bc f2b7 fd3c 3e0f 2ebe
00000390: 0d23 483d 0e8e 8cbd f2ef a0bd 12d7 8abd
000003a0: c996 933e 5ccd 6d3d 33a4 68bc 4ef8 073e
000003b0: a31e ef3d c769 b8be 3dc8 673e b39d 0dbd
000003c0: d4ff 813d a654 04be a345 b9bc 9704 ccbc
000003d0: 6205 2d3d 42f6 11bd a6e6 90be bd4a 54bd
000003e0: dfa6 8cbd 858a 0ebe 24bf 323c dadf 9cbe
000003f0: 6b4b 82be 43d9 3cbd 9d35 7d3d 8123 be3d

network_body._body_endoder.seq_layers.2.bias f4 [128]
0.08872256 0.033668518 -0.0057529397 -0.06622581 -0.007760637 -0.0503845 -0.10405337 -0.070772626
0.0122526055 0.016672526 -0.091425195 0.02127044 -0.08065101 0.023411917 0.004924537 -0.012439381
-0.079187885 0.04044532 0.0023838796 0.0048652403 -0.10714843 -0.0812439 0.08784461 0.026648981
-0.074019305 -0.023230234 -0.088342436 0.07208713 -0.060725328 0.096788235 -0.0166914 0.048444342
-0.016472973 0.058002215 0.0289685 0.096967384 -0.013481105 -0.023133304 0.006540744 0.011775506
0.025292074 -0.027769 0.08066331 0.06551048 0.014144174 -0.10296075 0.07290805 -0.004782471
0.030342493 0.04866415 0.02639881 0.04491122 0.054161724 0.051807553 -0.03194937 0.00034416778
-0.046098415 -0.04213249 -0.029954746 0.020501886 -0.0235177 -0.03182253 0.008670611 0.015831474
0.0009182751 0.04419875 0.0035561267 0.047615163 0.03448151 -0.013072487 0.03947987 -0.11023982
-0.038066033 0.04718334 -0.06714733 0.03427989 -0.008709979 -0.022217594 -0.037800178 0.026587503
0.12003705 -0.020336878 -0.06140805 -0.015174233 0.015171381 0.015520583 -0.009390293 -0.012711341
0.022220366 -0.0157432 0.045894105 0.09556986 0.016478945 0.004656075 0.05901291 -0.0041202414
0.033714954 0.041767396 -0.003946925 -0.036027424 -0.01052982 -0.02860526 0.0034096008 0.080008104
0.046732947 0.040369328 0.0016037821 0.0017398341 0.015072147 0.06236553 -0.06286539 0.0031484836
0.009834733 0.011656185 0.04307893 -0.04013116 0.04561426 0.022151113 0.041619346 0.012861106
-0.056827266 0.014815425 0.012748586 -0.015368143 0.08992575 0.081971504 0.015478617 -0.016577292
00000000: 2cb4 b53d 00e8 093d 2883 bcbb 66a1 87bd
00000010: f14c febb fa5f 4ebd ef19 d5bd 3df1 90bd
00000020: 27bf 483c d294 883c 223d bbbd 593f ae3c
00000030: 5b2c a5bd 59ca bf3c 035e a13b 8cce 4bbc
00000040: 422d a2bd fea9 253d dd3a 1c3b 986c 9f3b
00000050: a370 dbbd 3463 a6bd e0e7 b33d f74e da3c
00000060: 6f97 97bd 554d bebc e1ec b4bd 6ba2 933d
00000070: 1fbb 78bd e938 c63d 67bc 88bc 936d 463d
00000080: 54f2 86bc bb93 6d3d 594f ed3c d696 c63d
00000090: dadf 5cbc 0e82 bdbc bd53 d63b 0dee 403c
000000a0: 5331 cf3c d07b e3bc ce32 a53d 5c2a 863d
000000b0: f7bc 673c 16dd d2bd d150 953d 46b6 9cbb
000000c0: d290 f83c 0f54 473d 5142 d83c d4f4 373d
000000d0: afd8 5d3d 2834 543d 58dd 02bd 6b71 b439
000000e0: b1d1 3cbd 1e93 2cbd a863 f5bc 92f3 a73c
000000f0: 31a8 c0bc 5758 02bd 2e0f 0e3c 02b1 813c
00000100: 66b8 703a c009 353d e80d 693b 1e08 433d
00000110: 7c3c 0d3d fc2d 56bc a5b5 213d 6ac5 e1bd
00000120: 21eb 1bbd 5143 413d 8a84 89bd 1269 0c3d
00000130: 4db4 0ebc ac01 b6bc 5cd4 1abd 09ce d93c
00000140: fcd5 f53d 8699 a6bc 0287 7bbd 599d 78bc
00000150: 6291 783c 0b4a 7e3c bed9 19bc 3a43 50bc
00000160: 7c07 b63c e2f7 80bc 75fb 3b3d 21ba c33d
00000170: dafe 863c fd91 983b 85b7 713d 1703 87bb
00000180: b118 0a3d 4a14 2b3d 3555 81bb 7e91 13bd
00000190: 4485 2cbc 9455 eabc 9c73 5f3b 4adb a33d
000001a0: 0c6b 3f3d 4f5a 253d ff35 d23a 250b e43a
000001b0: 2bf1 763c ff72 7f3d 92bf 80bd ca56 4e3b
000001c0: dc21 213c 95f9 3e3c 8873 303d 9260 24bd
000001d0: 05d6 3a3d 4076 b53c 0c79 2a3d 63b7 523c
000001e0: b5c3 68bd 65bc 723c 72df 503c aaca 7bbc
000001f0: fe2a b83d ade0 a73d 069a 7d3c 1acd 87bc

action_model._discrete_distribution.branches.0.weight f4 [3, 128]
-0.06055383 0.06004593 -0.17959188 -0.03625931 -0.10955794 -0.1500427 0.0069924165 -0.0085793445
0.08090648 -0.51419014 0.07273307 0.059356123 0.04234734 -0.20641755 0.04803844 0.13079564
0.058950666 0.12511988 -0.035942227 0.02779216 0.1050842 0.058135662 -0.21747959 0.025992708
-0.046659887 -0.0352963 -0.023454629 0.06273393 0.014969974 0.095074564 -0.108937606 -0.059803054
0.022236725 -0.12580298 0.088067986 0.14070144 -0.054146755 -0.001197851 -0.19718136 -0.28519353
0.17876558 -0.03393219 -0.17584717 0.06748436 -0.12239584 0.029695282 -0.2949913 -0.2532023
0.05679649 -0.06237931 -0.27783045 -0.054002296 -0.33249313 -0.079842426 0.15056519 -0.04330313
0.06542207 -0.0026533625 0.18072179 0.037933897 -0.10509268 -0.07737206 -0.25544912 0.057463843
-0.016696362 0.04304076 0.09359099 0.01645018 0.04190266 -0.09219386 -0.15377873 0.037591733
-0.33962268 0.08055084 0.0085545415 -0.0046485118 0.08603558 -0.09625096 -0.04432492 -0.11995024
-0.0037455575 -0.11134433 -0.030399827 0.11389971 0.04663246 -0.0047107073 0.04526169 0.24070291
0.18981422 -0.102006726 0.040044606 -0.36091223 0.06863222 0.20704123 -0.16499054 0.2936613
0.121100605 0.07098475 -0.14313783 0.28341794 -0.023556432 0.40731657 0.035208996 -0.091556884
0.06046524 0.1335 0.060653854 -0.0039613843 -0.23615116 0.016761882 0.08573911 0.11575421
-0.2401352 0.03277879 -0.089669414 0.15724286 -0.29421237 -0.15029052 0.120867945 -0.20802304
0.11956279 -0.06294814 0.17332342 -0.015969628 -0.017167881 -0.05474269 0.12747101 -0.040606834
0.028695472 0.041703593 0.24950148 0.017949343 -0.09271407 0.00038897753 -0.12097595 -0.28346685
-0.21671945 0.0873931 -0.16224091 0.082178764 -0.12580399 0.032481544 -0.11901507 -0.06305806
-0.003506274 0.04950341 0.035194896 -0.10553726 -0.5789182 -0.14632012 0.16079795 -0.0240223
0.028283421 -0.2574474 -0.02796966 0.075444624 -0.21382557 0.1089949 -0.03702285 0.23691937
-0.021996753 0.09006966 0.05622874 0.11863983 -0.2642341 0.09754255 0.120393485 -0.1627955
-0.06398129 0.074663855 0.055128332 -0.008369869 -0.016847534 -0.28848094 0.15932259 0.09344895
-0.007608984 0.028594662 0.16340518 0.11094451 0.32669097 0.10569395 -0.17561239 -0.06867017
-0.13913095 0.06824897 -0.101595014 -0.04040184 -0.09697989 0.10235151 0.13094847 -0.102812745
0.081520885 0.12110073 0.0045067165 -0.053491637 -0.10069222 -0.06934332 0.18716063 -0.105642825
-0.17872521 0.0039618844 -0.17257485 0.065641195 0.040458966 0.025006266 0.011083746 0.04560999
-0.0026574153 -0.120993994 -0.15322176 -0.002440856 0.077658 -0.10458397 0.065964535 0.081565775
-0.121897236 0.09229146 0.039243188 0.08942403 -0.054595146 -0.12027472 0.2114003 -0.3510641
-0.08660922 0.10677672 0.03743782 -0.25118485 0.07670029 -0.3629901 -0.0385295 0.05041813
0.05802162 -0.032324016 0.00039176695 0.03179639 -0.060247578 0.12536237 -0.1104615 -0.11377502
0.14799754 -0.02615159 0.2079041 -0.10236401 0.13819528 0.09725625 -0.028036686 0.21844159
-0.05608287 0.081044786 -0.016110549 -0.007098399 0.0004196883 0.095336445 -0.3044247 0.0038780512
00000000: 4b07 78bd b9f2 753d efe6 37be a484 14bd
00000010: ea5f e0bd cba4 19be a420 e53b 6190 0cbc
00000020: 4cb2 a53d f7a1 03bf 13f5 943d 681f 733d
00000030: 6874 2d3d 1f5f 53be f5c3 443d 4bef 053e
00000040: 4176 713d 6d1f 003e 2838 13bd 62ac e33c
00000050: 6336 d73d a91f 6e3d f8b2 5ebe a9ee d43c
00000060: 701e 3fbd da92 10bd ec23 c0bc a67a 803d
00000070: 9f44 753c 74b6 c23d ae1a dfbd 0cf4 74bd
00000080: cb29 b63c 7fd2 00be fd5c b43d 0a14 103e
00000090: fdc8 5dbd 3601 9dba e9e9 49be e304 92be
000000a0: 530e 373e 7bfc 0abd 4811 34be 3d35 8a3d
000000b0: acaa fabd 8543 f33c 1a09 97be bba3 81be
000000c0: 70a3 683d 7381 7fbd cb3f 8ebe 8331 5dbd
000000d0: 8a3c aabe 6d84 a3bd c32d 1a3e 9f5e 31bd
000000e0: 02fc 853d 09e4 2dbb 220f 393e 9360 1b3d
000000f0: d53a d7bd 3e75 9ebd 3aca 82be 355f 6b3d
00000100: cfc6 88bc 824b 303d a2ac bf3d 87c2 863c
00000110: 20a2 2b3d 22d0 bcbd 2c78 1dbe caf9 193d
00000120: 06e3 adbe d7f7 a43d 5928 0c3c 8b52 98bb
00000130: 6c33 b03d 391f c5bd 0c8e 35bd 79a8 f5bd
00000140: 0778 75bb 7f08 e4bd 0f09 f9bc 4044 e93d
00000150: ae01 3f3d 475c 9abb 5264 393d d37a 763e
00000160: a95e 423e e7e8 d0bd d005 243d 7dc9 b8be
00000170: 0d8f 8c3d 9e02 543e 48f3 28be c65a 963e
00000180: 9803 f83d 7460 913d b992 12be 281c 913e
00000190: 6bf9 c0bc cc8b d03e 4f37 103d 2d82 bbbd
000001a0: 66aa 773d 39b4 083e 2d70 783d 80ce 81bb
000001b0: 9cd1 71be 3750 893c fd97 af3d 8b10 ed3d
000001c0: 00e6 75be 0d43 063d 99a4 b7bd 4604 213e
000001d0: 01a3 96be c2e5 19be 9d89 f73d fe03 55be
000001e0: 56dd f43d f4ea 80bd b27b 313e bdd2 82bc
000001f0: a8a3 8cbc df39 60bd c387 023e 5a53 26bd
00000200: c412 eb3c 63d1 2a3d 517d 7f3e 800a 933c
00000210: e0e0 bdbd aeef cb39 3dc2 f7bd 9122 91be
00000220: b4eb 5dbe 27fb b23d 7b22 26be 574d a83d
00000230: c3d2 00be 5e0b 053d 2cbe f3bd 9624 81bd
00000240: 84c9 65bb 16c4 4a3d 8628 103d eb23 d8bd
00000250: fc33 14bf f1d4 15be 38a8 243e 6aca c4bc
00000260: a2b2 e73c 25d0 83be a120 e5bc b682 9a3d
00000270: 17f5 5abe b838 df3d 46a5 17bd fe9a 723e
00000280: 8932 b4bc 7176 b83d 1b50 663d 70f9 f23d
00000290: b149 87be 63c4 c73d dc90 f63d ddb3 26be
000002a0: 9f08 83bd 5de9 983d 3fce 613d c621 09bc
000002b0: d703 8abc c6b3 93be 7625 233e 2a62 bf3d
000002c0: c954 f9bb 5a3f ea3c b053 273e e036 e33d
000002d0: 0a44 a73e 1276 d83d bcd3 33be f2a2 8cbd
000002e0: 5878 0ebe 1ec6 8b3d 0c11 d0bd 667c 25bd
000002f0: 649d c6bd ab9d d13d 5b17 063e 7d8f d2bd
00000300: 6cf4 a63d a903 f83d 14ad 933b 0c1a 5bbd
00000310: b937 cebd df03 8ebd 09a7 3f3e 445b d8bd
00000320: be03 37be b2d2 813b 76b7 30be e46e 863d
00000330: 4db8 253d f1d9 cc3c 9a98 353c 8ad1 3a3d
00000340: 0828 2ebb b3cb f7bd 2ae6 1cbe c5f6 1fbb
00000350: 280b 9f3d 1f30 d6bd 6a18 873d f50b a73d
00000360: 42a5 f9bd 4e03 bd3d 77bd 203d f223 b73d
00000370: 299f 5fbd 9852 f6bd 5279 583e acbe b3be
00000380: 2d60 b1bd c1ad da3d 6658 193d 4d9b 80be
00000390: 0b15 9d3d d7d9 b9be 1cd1 1dbd 3e83 4e3d
000003a0: 14a8 6d3d 3066 04bd 1266 cd39 ee3c 023d
000003b0: 2ac6 76bd fe5e 003e a439 e2bd e102 e9bd
000003c0: ab8c 173e dc3b d6bc d0e4 543e 39a4 d1bd
000003d0: 1083 0d3e 492e c73d 31ad e5bc 27af 5f3e
000003e0: 27b7 65bd cffa a53d 45fa 83bc b099 e8bb
000003f0: 9c09 dc39 c13f c33d 8edd 9bbe e726 7e3b

action_model._discrete_distribution.branches.0.bias f4 [3]
-0.011204914 0.082894005 -0.07840285
00000000: d194 37bc 55c4 a93d ac91 a0bd

action_model._discrete_distribution.branches.1.weight f4 [3, 128]
0.19550753 -0.1922047 0.1423882 -0.07869287 0.03630611 -0.29977798 -0.030518418 -0.13551004
-0.1736192 0.045886416 -0.08264494 -0.1468753 -0.17639351 0.013947994 -0.27947775 -0.1499828
-0.07993761 -0.16178387 -0.052824657 -0.23383713 -0.19192037 -0.0776025 0.037173856 -0.01757138
-0.07514105 0.12796594 -0.10647091 -0.57205606 0.033962157 -0.24412619 0.123533905 -0.023479525
-0.08158428 0.23216914 -0.61226374 0.07466473 -0.41166976 -0.058496382 -0.038520414 -0.014149627
-0.28923106 -0.19972762 0.051359247 0.12667835 0.1472708 0.015388867 -0.26853684 -0.14470203
0.18069431 0.08625642 0.0025524395 -0.08275219 0.0029381134 0.08676746 0.044759434 0.18644781
0.18528907 0.014356807 -0.010706746 0.0040877643 -0.17024708 0.016754996 -0.05096674 0.065373726
-0.06027066 -0.3330698 -0.004453873 0.07900677 -0.007426464 -0.039754864 0.10252853 0.13858698
0.072620526 -0.052744184 0.030556893 0.03274801 0.057812035 -0.063001595 0.009137272 0.035577606
-0.15717648 -0.10069475 -0.21279426 -0.12773098 -0.05948053 -0.08276841 -0.083314635 -0.14901134
-0.07707628 0.07358976 0.017150138 0.00027420023 0.051698506 0.04163965 -0.078811444 0.01636407
0.08332593 0.11372511 -0.09714587 0.052522864 0.13199826 0.056443043 0.1939471 0.39763802
-0.31412795 0.09345166 -0.6002308 -0.19493335 0.064231426 -0.6547451 -0.04516984 0.007641917
-0.061521664 -0.2041326 -0.027028484 0.17663386 0.0015734566 -0.09387242 0.13098675 -0.058417723
-0.002343583 0.09088311 0.053695448 -0.3373997 0.0434278 0.098383605 0.10984041 0.14280553
-0.23094867 -0.06738232 -0.03026666 0.0917593 0.009205019 0.14020628 -0.0735602 -0.021835482
0.08173177 0.1033388 0.022562634 -0.1540919 0.14556529 0.015592631 -0.0158774 0.006762365
-0.12631539 0.18989137 0.09817072 -0.035721984 0.0739003 0.1375492 0.08723998 -0.16250624
0.10120794 -0.21606094 0.12566184 0.06356929 -0.017625853 0.06713933 -0.065963686 -0.01728815
0.034427527 -0.12404518 0.28596404 -0.013500857 0.23193885 -0.020700332 -0.11029718 -0.012963913
0.07768248 0.0374202 -0.09397519 -0.060705557 -0.03180628 -0.0041505294 -0.12961744 0.051683165
0.009997771 -0.20947754 -0.03916534 -0.1187107 0.06709693 0.012406554 -0.17016186 -0.1391691
-0.045209084 -0.06321754 0.06500029 -0.06647968 0.0333352 0.030993238 0.04801939 -0.04660238
0.2295374 -0.036001727 -0.032409783 0.024447454 -0.16207114 0.029966263 -0.0016384731 0.069392875
-0.09879747 0.027978318 0.09854612 -0.026504878 -0.045361925 -0.12251792 -0.014687292 0.05178518
0.020770192 -0.037883375 0.0020710907 -0.043389034 -0.03162668 -0.061290074 -0.13628423 0.13064729
0.08011718 -0.06669954 0.10987781 0.024545047 0.020916114 0.022823408 0.023656962 0.046928637
-0.09092151 -0.05802867 0.06480906 0.0489086 -0.00094553555 0.0036536842 -0.1032583 -0.19328684
0.065408535 -0.02226491 -0.002246396 0.109464 -0.07078207 0.05483926 -0.075212784 -0.027338132
-0.043334283 0.019621791 0.15124398 -0.20033133 -0.015596605 0.0015099721 -0.24997999 -0.060975786
-0.012035003 0.061829235 -0.12169 -0.015279871 -0.12489716 0.06724118 -0.027662447 -0.14045759
00000000: 2033 483e 4fd1 44be 36ce 113e ba29 a1bd
00000010: b7b5 143d 807c 99be c301 fabc 25c3 0abe
00000020: 3bc9 31be 65f3 3b3d c041 a9bd 7b66 16be
00000030: 80a0 34be 2186 643c b517 8fbe 1795 19be
00000040: 54b6 a3bd acaa 25be ab5e 58bd 0073 6fbe
00000050: c686 44be 0fee 9ebd 9d43 183d dbf1 8fbc
00000060: 8de3 99bd 8109 033e 6c0d dabd 4472 12bf
00000070: e71b 0b3d 37fc 79be 58ff fc3d 2258 c0bc
00000080: a915 a7bd bfbd 6d3e 51bd 1cbf d2e9 983d
00000090: 61c6 d2be e799 6fbd 95c7 1dbd d6d3 67bc
000000a0: 1816 94be 6685 4cbe 135e 523d f8b7 013e
000000b0: 28ce 163e 9621 7c3c a97d 89be c52c 14be
000000c0: ee07 393e 35a7 b03d d446 273b fb79 a9bd
000000d0: 5d8d 403b 23b3 b13d ab55 373d 2dec 3e3e
000000e0: 6bbc 3d3e d038 6b3c 596b 2fbc a7f2 853b
000000f0: 4055 2ebe c641 893c 80c2 50bd a9e2 853d
00000100: 5ede 76bd 2088 aabe cbf1 91bb 4dce a13d
00000110: b259 f3bb ffd5 22bd 7afa d13d bfe9 0d3e
00000120: 12ba 943d 490a 58bd 7352 fa3c c722 063d
00000130: 50cc 6c3d fb06 81bd 7fb4 153c d3b9 113d
00000140: dff2 20be 0d39 cebd bde6 59be e9cb 02be
00000150: dba1 73bd 7c82 a9bd dda0 aabd 6e96 18be
00000160: 2bda 9dbd 3ab6 963d 727e 8c3c 88c2 8f39
00000170: d0c1 533d 568e 2a3d e567 a1bd f10d 863c
00000180: c9a6 aa3d b6e8 e83d 6af4 c6bd 3722 573d
00000190: 8d2a 073e d230 673d 129a 463e 3697 cb3e
000001a0: 61d5 a0be 9563 bf3d baa8 19bf 9c9c 47be
000001b0: c48b 833d 609d 27bf 0304 39bd 0c69 fa3b
000001c0: 24fe 7bbd 2308 51be d76a ddbc 82df 343e
000001d0: 713c ce3a 2f40 c0bd 6421 063e 6c47 6fbd
000001e0: cc96 19bb ed20 ba3d c2ef 5b3d a7bf acbe
000001f0: 59e1 313d 587d c93d 02f4 e03d 9d3b 123e
00000200: cf7d 6cbe beff 89bd c9f1 f7bc 4dec bb3d
00000210: a6d0 163c 3c92 0f3e bba6 96bd 53e0 b2bc
00000220: fc62 a73d 4ba3 d33d 46d5 b83c 44ca 1dbe
00000230: 110f 153e 3c78 7f3c 5211 82bc d496 dd3b
00000240: d258 01be e272 423e bb0d c93d 3751 12bd
00000250: 0a59 973d b3d9 0c3e e0aa b23d 0968 26be
00000260: 1c46 cf3d 143f 5dbe 7fad 003e 9e30 823d
00000270: 1864 90bc 5880 893d f817 87bd e19f 8dbc
00000280: e103 0d3d 660b febd e169 923e b332 5dbc
00000290: 6181 6d3e be93 a9bc 7de3 e1bd 9866 54bc
000002a0: fe17 9f3d ec45 193d 1076 c0bd 64a6 78bd
000002b0: 4d47 02bd 2a01 88bb 6fba 04be bab1 533d
000002c0: b1cd 233c 4881 56be d66b 20bd 981e f3bd
000002d0: 1e6a 893d dc44 4b3c e93e 2ebe 5882 0ebe
000002e0: 292d 39bd 3378 81bd df1e 853d 8026 88bd
000002f0: 7e8a 083d 88e5 fd3c fbaf 443d 23e2 3ebd
00000300: da0b 6b3e 8c76 13bd 1fc0 04bd 0746 c83c
00000310: faf5 25be cf7b f53c 09c2 d6ba da1d 8e3d
00000320: 5456 cabd c932 e53c 8cd2 c93d c220 d9bc
00000330: 6dcd 39bd adea fabd f8a2 70bc b21c 543d
00000340: 4026 aa3c 992b 1bbd 23bb 073b b3b8 31bd
00000350: fa8a 01bd 4d0b 7bbd 188e 0bbe 67c8 053e
00000360: 7a14 a43d c599 88bd 9e07 e13d b212 c93c
00000370: 4558 ab3c 28f8 ba3c 3fcc c13c 3e38 403d
00000380: 0e35 babd 78af 6dbd 9dba 843d 6254 483d
00000390: d1dd 77ba a672 6f3b 1679 d3bd fcec 45be
000003a0: e9f4 853d e764 b6bc 4538 13bb a92e e03d
000003b0: 31f6 90bd 229f 603d 2909 9abd 38f4 dfbc
000003c0: 4a7f 31bd e1bd a03c b4df 1a3e a823 4dbe
000003d0: e788 7fbc 42ea c53a c1fa 7fbe bfc1 79bd
000003e0: 762e 45bc a740 7d3d 9b38 f9bd 6d58 7abc
000003f0: 15ca ffbd beb5 893d 5b9c e2bc 1dd4 0fbe

action_model._discrete_distribution.branches.1.bias f4 [3]
0.16615902 -0.12138118 -0.06583203
00000000: 9725 2a3e b296 f8bd f1d2 86bd

action_model._discrete_distribution.branches.2.weight f4 [3, 128]
-0.05301936 0.050976235 -0.13179182 -0.13704252 0.121529184 0.11354932 -0.15769725 -0.12760909
0.08420361 -0.12672572 -0.18366832 0.13205129 -0.36765438 -0.13906533 0.085142106 -0.013797819
0.2650367 -0.16746394 -0.067266315 0.01356421 -0.09835837 -0.3956433 -0.15210803 -0.0824961
-0.06131453 0.20725684 -0.12237316 0.019298166 -0.10655225 -0.06372912 0.10113801 0.045237225
-0.1080429 -0.07777047 -0.041548856 -0.0029153253 -0.18531477 0.0929396 0.13113023 0.20358759
-0.101895906 -0.1862285 0.111101456 -0.22487952 -0.1301714 -0.16298984 -0.012935043 0.1382611
-0.294104 -0.10325768 0.098614156 0.17629847 0.07750066 -0.009459645 -0.1289917 -0.056702267
0.036898848 -0.015266859 -0.03633877 0.06958943 -0.031859104 0.111819685 0.19133422 -0.03864671
-0.06556524 0.05098599 0.08292215 -0.19580197 -0.038582906 -0.07811349 0.022942714 -0.16826674
-0.04960879 0.18581639 -0.12901863 -0.033330817 -0.07173245 0.014358324 -0.070631325 -0.12341178
0.042117856 -0.2650372 -0.17242834 0.13535656 0.15658109 -0.03436069 0.22280686 -0.111325294
-0.17608188 0.06048013 0.052421868 0.025045503 -0.18028794 -0.05261636 -0.06189635 0.26192728
0.021754453 -0.079155594 0.08592642 0.043631464 -0.06909619 0.07934401 -0.06552407 0.057836067
0.22915035 -0.112435855 0.022005446 -0.07298606 0.15197676 0.03799829 -0.19210137 0.033294715
0.11484116 -0.012108039 -0.042970687 0.05866596 0.08806633 0.058838006 -0.08035488 0.18653254
0.11765204 -0.1155168 0.14338142 -0.06673123 0.031409744 -0.05044916 0.051979844 0.23048969
-0.027907334 0.054262403 -0.09237032 -0.05195056 -0.031417187 -0.018158033 -0.13510118 -0.05445217
0.00079767697 -0.053852554 -0.13490216 0.007640217 0.008672645 -0.0040208683 0.06131508 -0.0013467338
-0.20067388 0.12069815 0.074514054 -0.24347694 -0.0048872004 0.028659737 0.05936117 0.08754502
-0.43921006 -0.19663988 0.06111799 0.0675922 -0.02300587 -0.0013165978 0.006753148 0.051118355
-0.09219906 0.0035748517 0.053705543 0.04383997 -0.109423436 -0.09674184 -0.3023727 -0.0071678637
0.07983768 0.23371746 0.016728695 0.05040685 0.089917414 -0.047000807 -0.46091598 -0.002850502
-0.03628775 0.07127352 -0.03936855 -0.26562762 -0.015260347 0.022878181 -0.061162163 0.019952508
-0.12361095 -0.21904552 0.008098889 0.029776337 0.20299289 -0.08340206 -0.04756965 -0.09842127
0.039043784 -0.03939965 0.13780756 -0.02232925 0.16786157 -0.03346199 -0.0032375813 0.037108943
-0.027562309 -0.014685947 -0.0636681 0.050009698 0.07698289 0.024810491 -0.20481774 0.08063927
-0.025383864 0.055996303 0.021064766 0.017978411 -0.09281684 0.0076938844 -0.2645066 -0.035490748
0.092706695 -0.0022665085 -0.0084051695 0.022365553 0.027624253 0.07276875 -0.21968745 -0.13939764
0.059363 -0.09593498 -0.0821474 -0.043332633 -0.06728412 -0.07848004 -0.017248044 -0.015553624
-0.013197559 -0.04518474 -0.04089567 -0.0028600828 0.04062407 0.016473968 -0.034745235 0.036846023
-0.0068301507 -0.008086183 0.0327531 0.040422544 0.06633848 -0.064012855 -0.07696799 -0.015813753
0.0055426173 -0.026674904 0.05474509 0.08979809 -0.069970414 0.06958401 0.0030053237 -0.15416922
00000000: d42a 59bd 75cc 503d 6ff4 06be e054 0cbe
00000010: 4be4 f83d 8c8c e83d 637b 21be f5ab 02be
00000020: f172 ac3d 63c4 01be 8c13 3cbe 7438 073e
00000030: 323d bcbe 2467 0ebe fc5e ae3d 3f10 62bc
00000040: e4b2 873e ab7b 2bbe ecc2 89bd 6c3c 5e3c
00000050: 1d70 c9bd c291 cabe 35c2 1bbe b7f3 a8bd
00000060: f224 7bbd 233b 543e c89e fabd 3017 9e3c
00000070: 1138 dabd 6a84 82bd 7221 cf3d ab4a 393d
00000080: 9945 ddbd 2046 9fbd 222f 2abd 0b0f 3fbb
00000090: 28c3 3dbe 1e57 be3d 0147 063e 4479 503e
000000a0: cdae d0bd afb2 3ebe 2989 e33d d146 66be
000000b0: a74b 05be cfe6 26be 81ed 53bc 5194 0d3e
000000c0: cd94 96be c378 d3bd 38f6 c93d 9687 343e
000000d0: abb8 9e3d a0fc 1abc 6616 04be a340 68bd
000000e0: 3f23 173d d921 7abc f6d7 14bd e784 8e3d
000000f0: b17e 02bd b801 e53d 1eed 433e 034c 1ebd
00000100: 1247 86bd afd6 503d 17d3 a93d 5080 48be
00000110: 1c09 1ebd f7f9 9fbd 5cf2 bb3c 1e4e 2cbe
00000120: 9632 4bbd a746 3e3e 761d 04be e585 08bd
00000130: 76e8 92bd 2d3f 6b3c 28a7 90bd 51bf fcbd
00000140: c683 2c3d f5b2 87be 0e91 30be e99a 0a3e
00000150: cb56 203e cbbd 0cbd 7b27 643e 84fe e3bd
00000160: cf4e 34be 03ba 773d 50b8 563d 3a2c cd3c
00000170: 679d 38be 4184 57bd 0787 7dbd 551b 863e
00000180: 6536 b23c 541c a2bd 31fa af3d e8b6 323d
00000190: 4e82 8dbd 1d7f a23d 7c31 86bd 83e5 6c3d
000001a0: 64a6 6a3e c544 e6bd c444 b43c b779 95bd
000001b0: cc9f 1b3e 18a4 1b3d 39b6 44be 0a60 083d
000001c0: d831 eb3d cc60 46bc 0802 30bd b84b 703d
000001d0: 1f5c b43d 1f00 713d 1991 a4bd 6302 3f3e
000001e0: 8ef3 f03d 1294 ecbd 94d2 123e 62aa 88bd
000001f0: 81a7 003d c7a3 4ebd d1e8 543d 7d05 6c3e
00000200: ec9d e4bc 4142 5e3d a62c bdbd 1cca 54bd
00000210: 4faf 00bd 28c0 94bc f757 0abe 3d09 5fbd
00000220: 321b 513a 7f94 5cbd cb23 0abe c95a fa3b
00000230: b617 0e3c 7dc1 83bb 8525 7b3d e384 b0ba
00000240: 747d 4dbe 9730 f73d d39a 983d 0552 79be
00000250: cf24 a0bb d3c7 ea3c b324 733d ce4a b33d
00000260: 24e0 e0be f75b 49be dc56 7a3d c86d 8a3d
00000270: ce76 bcbc b191 acba 8349 dd3b 7b61 513d
00000280: dcd2 bcbd 0f48 6a3b 58fa 5b3d 8a91 333d
00000290: 6519 e0bd 9620 c6bd 98d0 9abe 66e0 eabb
000002a0: f081 a33d a153 6f3e 9e0a 893c 6a77 4e3d
000002b0: 9f26 b83d eb83 40bd 2efd ebbe 7dcf 3abb
000002c0: 77a2 14bd daf7 913d eb40 21bd 5800 88be
000002d0: 8906 7abc 066b bb3c 2d85 7abd 7173 a33c
000002e0: bd27 fdbd 784d 60be 34b1 043c 81ed f33c
000002f0: 5edd 4f3e b3ce aabd 65d8 42bd 1791 c9bd
00000300: 60ec 1f3d 8761 21bd 6d1d 0d3e d5eb b6bc
00000310: e7e3 2b3e 710f 09bd 9a2d 54bb 8cff 173d
00000320: 5aca e1bc 549d 70bc 6c64 82bd f8d6 4c3d
00000330: 35a9 9d3d 5f3f cb3c bebb 51be 3426 a53d
00000340: d2f1 cfbc 615c 653d 0490 ac3c 7647 933c
00000350: c116 bebd fb1c fc3b 696d 87be bf5e 11bd
00000360: 02dd bd3d b489 14bb d6b5 09bc f737 b73c
00000370: 424c e23c c807 953d bff5 60be 41be 0ebe
00000380: 9e26 733d 8f79 c4bd e53c a8bd 8f7d 31bd
00000390: 42cc 89bd 25ba a0bd c54b 8dbc a1d4 7ebc
000003a0: 933a 58bc a213 39bd 3882 27bd 3a70 3bbb
000003b0: 6d65 263d 6af4 863c 0551 0ebd dbeb 163d
000003c0: 75cf dfbb e97b 04bc 1d28 063d 1c92 253d
000003d0: 78dc 873d 2c19 83bd 65a1 9dbd d88b 81bc
000003e0: d89e b53b 5485 dabc 633c 603d 10e8 b73d
000003f0: a64c 8fbd 1082 8e3d f7f4 443b 89de 1dbe

action_model._discrete_distribution.branches.2.bias f4 [3]
-0.04425234 0.024924885 0.0028511588
00000000: f141 35bd 462f cc3c 82da 3a3b

action_model._discrete_distribution.branches.3.weight f4 [3, 128]
0.058234807 -0.124353535 0.094259374 -0.0784885 -0.008889161 0.14592595 0.16832626 -0.010358302
-0.111116335 -0.030884583 0.15031502 -0.0852924 0.14268094 0.019254543 -0.022682281 0.10203265
0.27142695 -0.05352213 -0.1804515 -0.13192639 -0.09055585 0.052147076 -0.12400389 -0.14514805
0.051659863 0.027099304 0.15554014 -0.0010369003 -0.02791478 -0.11395916 -0.13902314 -0.040698566
0.09352066 -0.012889102 -0.024481703 -0.19683762 -0.045194343 -0.087311745 -0.0064649796 0.004949253
-0.010804948 0.1838448 -0.17337273 -0.011347414 0.011268046 -0.03733333 -0.04323719 0.08142873
-0.04511611 0.059188187 0.13241862 0.006148502 0.03711535 0.055018008 -0.027131043 -0.12253502
0.019701237 0.1949818 -0.003049282 0.03533792 -0.017099041 -0.009625148 0.034529526 -0.099672064
-0.30104867 -0.081592575 -0.019498924 -0.08903187 -0.22822098 -0.10652679 -0.010407384 0.056229305
-0.054829806 0.045210004 0.011962009 -0.0019508464 0.0072488682 0.12318849 0.0010647586 0.1369278
0.12838718 -0.09806998 -0.13929658 -0.17625763 -0.16146739 -0.44997686 0.16616033 -0.175832
-0.079567 0.2354053 -0.10977168 -0.31200847 -0.022820156 0.05517346 0.17626005 0.27177188
-0.042455703 0.19416308 -0.14028203 0.25157616 -0.04286288 0.15536977 0.12298191 -0.05490897
0.056223787 -0.0817681 0.066279024 -0.23876138 0.1757312 -0.13112493 0.1352841 0.043439493
0.22926916 0.14219727 0.081339285 0.091090485 0.16638276 -0.040545225 -0.06042919 -0.029201522
0.21465689 -0.020810548 -0.04531956 0.016212752 0.006500917 -0.1921767 -0.06327093 0.18395813
0.010066059 -0.030752465 -0.071599714 0.07293777 -0.02172487 0.059445146 -0.12690933 0.02316161
-0.019276273 0.008338342 -0.071049996 -0.004309739 -0.017579962 0.031076724 -0.14874448 0.009036926
0.0009714075 0.012799566 -0.020841174 -0.007844738 -0.09901151 -0.14479269 0.04899265 0.0149297705
0.112044044 -0.0807468 0.0045094653 -0.142896 0.06708794 -0.11007509 -0.0068305056 -0.0012086405
0.047541115 0.031286884 -0.0014673856 0.014185735 0.032720815 -0.24398334 -0.19319959 0.05428131
-0.0033388713 -0.06997898 -0.03472643 -0.003415127 -0.017992508 -0.061918326 -0.051953975 -0.027439937
0.017787248 -0.0353299 -0.004786233 -0.17492095 -0.034929436 -0.012196874 0.009729574 0.07235672
0.028885918 0.030152837 0.05839957 -0.13223709 0.11058804 0.037786577 -0.037835587 0.08466305
0.08633955 -0.061639424 0.04731953 -0.024492143 -0.06506779 -0.12719049 0.03061676 -0.012404779
0.07713996 0.016771415 -0.035909403 0.025216728 0.008447489 0.009530483 0.12245791 0.04135137
0.016315274 0.023368537 0.055579193 0.023454474 -0.008252393 0.04795839 -0.18767858 0.05649181
0.05236932 -0.110023655 0.07250302 -0.0176066 0.07499897 0.06797913 0.012653813 0.085513085
0.030872688 0.15284708 -0.031938426 0.04550862 0.033958524 0.05500634 0.0051165484 0.08189136
-0.051792122 0.0014807365 -0.020239796 0.008538324 0.048983324 -0.081153415 -0.047147468 0.014631684
0.03181282 -0.08446207 0.087604746 -0.03290227 -0.078053206 -0.08455764 -0.006597713 -0.035786547
-0.06415453 0.03393954 -0.0064191585 -0.09437196 -0.021139057 0.024689524 -0.011256784 0.048063524
00000000: 9f87 6e3d 11ad febd 0f0b c13d 94be a0bd
00000010: d8a3 11bc 9d6d 153e b85d 2c3e deb5 29bc
00000020: f690 e3bd aa01 fdbc 2eec 193e c8ad aebd
00000030: f41a 123e b4bb 9d3c 31d0 b9bc 7ef6 d03d
00000040: 79f8 8a3e 053a 5bbd 47c8 38be b617 07be
00000050: 5875 b9bd 2c98 553d c0f5 fdbd b1a1 14be
00000060: 4b99 533d 5cff dd3c ea45 1f3e 9ae8 87ba
00000070: 89ad e4bc 6c63 e9bd 155c 0ebe 8ab3 26bd
00000080: c387 bf3d d02c 53bc da8d c8bc cd8f 49be
00000090: b41d 39bd 80d0 b2bd 2ed8 d3bb 582d a23b
000000a0: 3d07 31bc d041 3c3e 9f88 31be 81ea 39bc
000000b0: 9c9d 383c d5ea 18bd 7b19 31bd 1bc4 a63d
000000c0: accb 38bd 506f 723d bf98 073e 6079 c93b
000000d0: 4406 183d 905a 613d ec41 debc a4f3 fabd
000000e0: 7d64 a13c 4fa9 473e 76d6 47bb 7fbe 103d
000000f0: 4a13 8cbc ccb2 1dbc d56e 0d3d de20 ccbd
00000100: 0d23 9abe 021a a7bd 35bc 9fbc 5756 b6bd
00000110: c3b2 69be b82a dabd bb83 2abc b350 663d
00000120: 3895 60bd 202e 393d 4dfc 433c 8bb3 ffba
00000130: ea87 ed3b 3f4a fc3d 5f8f 8b3a cd36 0c3e
00000140: ee77 033e ead8 c8bd c3a3 0ebe e17c 34be
00000150: b557 25be 5e63 e6be ef25 2a3e 4e0d 34be
00000160: 06f4 a2bd 160e 713e f9cf e0bd 93bf 9fbe
00000170: 56f1 babc 91fd 613d 847d 343e af25 8b3e
00000180: 08e6 2dbd b0d2 463e 18a6 0fbe 97ce 803e
00000190: fd90 2fbd 4119 1f3e f1dd fb3d 3ae8 60bd
000001a0: ea4a 663d 0976 a7bd 4cbd 873d dd7d 74be
000001b0: e1f2 333e 9d45 06be ea87 0a3e 9ced 313d
000001c0: 89c5 6a3e 299c 113e 3695 a63d a68d ba3d
000001d0: 3e60 2a3e c012 26bd 9984 77bd 0838 efbc
000001e0: 04cf 5b3e e27a aabc 01a1 39bd 9bd0 843c
000001f0: a505 d53b f8c9 44be 3094 81bd 855f 3c3e
00000200: 1dec 243c 98ec fbbc dfa2 92bd 6660 953d
00000210: 5bf8 b1bc c17c 733d 85f4 01be 6bbd bd3c
00000220: 46e9 9dbc 8b9d 083c a982 91bd b638 8dbb
00000230: da03 90bc 9d94 fe3c 7950 18be 9d0f 143c
00000240: 0ea6 7e3a 45b5 513c 1cbb aabc 3787 00bc
00000250: 8cc6 cabd 8944 14be 84ac 483d ff9b 743c
00000260: 5977 e53d 945e a5bd 23c4 933b 5453 12be
00000270: 6765 893d 0c6f e1bd 6fd2 dfbb 3f6b 9eba
00000280: 79ba 423d ad26 003d 4a55 c0ba 496b 683c
00000290: 4306 063d c5d6 79be 1dd6 45be 1456 5e3d
000002a0: f7d0 5abb 2451 8fbd 4d3d 0ebd 53d0 5fbb
000002b0: 0665 93bc 129e 7dbd b1cd 54bd b8c9 e0bc
000002c0: 90b6 913c 16b6 10bd d5d5 9cbb 7a1e 33be
000002d0: 2b12 0fbd 66d5 47bc cb68 1f3c c32f 943d
000002e0: 29a2 ec3c 1503 f73c 6334 6f3d 2969 07be
000002f0: fb7b e23d 19c6 1a3d 7df9 1abd d263 ad3d
00000300: cad2 b03d 9f79 7cbd 20d2 413d bfa3 c8bc
00000310: 4342 85bd 393e 02be 00d0 fa3c 6a3d 4bbc
00000320: 8efb 9d3d 3564 893c bd15 13bd 5093 ce3c
00000330: 5667 0a3c be25 1c3c 36cb fa3d 0e60 293d
00000340: 9ca7 853c 606f bf3c 02a7 633d 9923 c03c
00000350: 0c35 07bc 0470 443d d02e 40be f563 673d
00000360: 3681 563d 1554 e1bd 777c 943d b73b 90bc
00000370: 0f99 993d a438 8b3d f051 4f3c 7c21 af3d
00000380: b8e8 fc3c f283 1c3e ded1 02bd 3f67 3a3d
00000390: 1818 0b3d 544e 613d b8a8 a73b a8b6 a73d
000003a0: fa23 54bd 4615 c23a eecd a5bc 54e4 0b3c
000003b0: bda2 483d c333 a6bd b41d 41bd bbb9 6f3c
000003c0: 294e 023d 73fa acbd 1e6a b33d 88c4 06bd
000003d0: 5cda 9fbd 8e2c adbd a131 d8bb ea94 12bd
000003e0: 7363 83bd 3004 0b3d ce57 d2bb 1646 c1bd
000003f0: d12b adbc af41 ca3c 606e 38bc 42de 443d

action_model._discrete_distribution.branches.3.bias f4 [3]
-0.05230286 -0.0085352715 0.05456326
00000000: 863b 56bd 86d7 0bbc ba7d 5f3d
