ArmRobot/Assets/results/normalizado8/TouchCubeMoveGail/TouchCubeMoveGail-729860.pt (torch, 822407 bytes, 79 tensors)

network_body.vector_processors.0.normalizer.running_mean f4 [114]
000000 00 00 00 00 00 00 00 00 00 00 00 00 00 00 00 00
       0.0 0.0 0.0 0.0
000010 00 00 00 00 00 00 00 00 d4 fd 7f 3f ca c4 88 b3
       0.0 0.0 0.99996686 -6.368789e-08
000020 c3 3b b0 3d 33 24 83 b3 00 df 04 32 4d 5b ec 3d
       0.08605149 -6.1067475e-08 7.734116e-09 0.11540852
000030 79 3f de b2 c1 03 4b 3f c7 57 31 bc 00 8a 1b 3e
       -2.5873065e-08 0.79302603 -0.01082415 0.15189362
000040 ab 9e e1 bc 84 82 ed bd 60 5d 87 3d 21 e2 c2 be
       -0.02754148 -0.115971595 0.06609607 -0.38063148
000050 52 34 29 3f 9b 12 a4 3d 5c d3 82 3e 6f 62 a8 bd
       0.6609546 0.08011361 0.2555188 -0.082219
000060 a8 aa 69 bd b7 7a 30 3d 9a 10 0e bf 90 b6 f1 3e
       -0.057047516 0.04308578 -0.5549408 0.47209597
000070 99 c7 2b 3e b1 cf 74 3e 5c 7e 9e bd 28 4b e4 be
       0.16775359 0.23907353 -0.07738945 -0.4458859
000080 27 01 b6 be 20 1d 4e be fa 86 7d 3e f8 15 43 3e
       -0.35547754 -0.20128298 0.2475852 0.19051349
000090 75 b5 5c 3e 8e 3b 9a bd d7 fe d6 be ce 56 a2 be
       0.21553595 -0.075308904 -0.41991302 -0.31706852
0000a0 81 93 56 be c9 45 61 3e 35 5d 57 3e f5 a7 45 3e
       -0.20954706 0.21999277 0.2103165 0.19302352
0000b0 11 4d 93 bd 91 94 db be e9 58 bb be dd f9 84 bd
       -0.071924336 -0.42886785 -0.3659127 -0.0649297
0000c0 b0 5c 01 3e c4 87 73 3e 88 49 32 3e ca a4 6b bd
       0.12633014 0.23782259 0.17410862 -0.057530202
0000d0 98 d4 d4 be c5 22 00 be 04 7b 4e be 25 4c 70 be
       -0.41568446 -0.12513264 -0.20164114 -0.23466547
0000e0 9e 96 7d 3e 7e 25 17 3e 0a ec 89 bc 99 d4 d4 be
       0.24764487 0.14760396 -0.016836185 -0.4156845
0000f0 c6 22 00 be 04 7b 4e be 25 4c 70 be 29 71 7c 3e
       -0.12513265 -0.20164114 -0.23466547 0.24652542
000100 e7 fe 13 3e 99 da 9b bc 99 d4 d4 be c6 22 00 be
       0.14452706 -0.019025134 -0.4156845 -0.12513265
000110 04 7b 4e be 25 4c 70 be ad 40 2c 3e 59 26 db 3e
       -0.20164114 -0.23466547 0.16821547 0.42802694
000120 10 f6 6a 3e 6c 40 4c 3f 29 95 8a bc 66 3d 18 3f
       0.22945428 0.797858 -0.016916828 0.59468687
000130 f3 2d c4 be d9 c9 e6 3e 16 69 a7 3d 1c 16 0b 3f
       -0.38316306 0.45075873 0.081743404 0.5433061
000140 b2 da c9 be b4 78 da 3e 54 81 87 be 65 81 be 3e
       -0.39424664 0.42670214 -0.26465857 0.37208095
000150 cd bd 3e be a7 d1 e0 3d 00 00 00 00 88 cb 48 3e
       -0.18627091 0.10977488 0.0 0.19608891
000160 ec 77 20 3f cb 95 88 3e d8 42 a5 3c 75 bb f1 bc
       0.62682986 0.26676783 0.020173475 -0.029508332
000170 48 f1 4a 3e 5b 55 2f 3e 6d 5e 44 bd c2 76 8c 3d
       0.19818604 0.17122404 -0.047941614 0.06858589
000180 70 ad 1a be ae 01 97 3c 00 00 00 00 00 00 00 00
       -0.15105224 0.018433418 0.0 0.0
000190 00 00 00 00 00 00 00 00 00 00 00 00 00 00 00 00
       0.0 0.0 0.0 0.0
0001a0 00 00 00 00 00 00 00 00 00 00 00 00 2c 04 c7 3e
       0.0 0.0 0.0 0.3887037
0001b0 16 ac b1 3e ce 3c 03 3f 6a 9e 2c 3f de 62 03 3f
       0.34701604 0.51264656 0.6742922 0.51322734
0001c0 fe 30 37 3f 29 72 2f 3f
       0.7155913 0.6853357

network_body.vector_processors.0.normalizer.running_variance f4 [114]
000000 00 00 80 3f 00 00 80 3f 00 00 80 3f 00 00 80 3f
       1.0 1.0 1.0 1.0
000010 00 00 80 3f 00 00 80 3f a1 fe ff 3f 00 00 80 3f
       1.0 1.0 1.9999582 1.0
000020 88 f2 80 3f 00 00 80 3f 00 00 80 3f ab 55 42 48
       1.0074015 1.0 1.0 198998.67
000030 00 00 80 3f cd af 72 47 05 66 59 44 df f3 82 3f
       1.0 62127.8 869.59406 1.0230674
000040 bd 65 bd 44 12 c9 41 47 2f ab 0e 48 f9 b5 2a 47
       1515.1793 49609.07 146092.73 43701.973
000050 c4 63 4e 47 f3 df 4d 46 74 35 e5 45 4b 05 03 46
       52835.766 13175.987 7334.6816 8385.323
000060 7f 90 cb 47 73 d1 c4 47 1c 1c 85 47 3c 06 80 47
       104224.99 100770.9 68152.22 65548.47
000070 33 5d 01 47 d9 fb 10 46 aa 96 87 46 74 7b ae 47
       33117.2 9278.962 17355.332 89334.91
000080 96 46 a2 47 c0 49 04 48 bd 80 d7 47 54 59 1e 47
       83085.17 135463.0 110337.48 40537.33
000090 7f b6 2e 46 ef 22 9c 46 24 3f d4 47 ea 62 c1 47
       11181.624 19985.467 108670.28 99013.83
0000a0 92 55 16 48 a3 f5 c0 47 26 2e 30 47 de 9b 39 46
       153942.28 98795.27 45102.15 11878.967
0000b0 7a 12 aa 46 d8 dd 0d 48 04 1f dc 47 38 79 09 48
       21769.238 145271.38 112702.03 140772.88
0000c0 2a e8 a4 47 07 75 88 47 bc 64 47 46 4b 70 c2 46
       84432.33 69866.055 12761.184 24888.146
0000d0 e7 d2 0e 48 6c 12 d6 47 68 fe 14 48 04 b4 de 47
       146251.61 109604.84 152569.62 114024.03
0000e0 e1 cb 9b 47 a5 4f 6d 46 69 98 de 46 e7 d2 0e 48
       79767.76 15187.911 28492.205 146251.61
0000f0 6d 12 d6 47 68 fe 14 48 05 b4 de 47 fe d7 9a 47
       109604.85 152569.62 114024.04 79279.984
000100 b5 1f 74 46 d1 64 da 46 e7 d2 0e 48 6d 12 d6 47
       15623.927 27954.408 146251.61 109604.85
000110 68 fe 14 48 05 b4 de 47 5d dc 4c 48 cc 91 b2 48
       152569.62 114024.04 209777.45 365710.38
000120 30 fb 2d 48 bf 1a 3e 47 4d 24 4a 48 22 2d 81 48
       178156.75 48666.746 206993.2 264553.06
000130 9f b0 44 48 ed 4c 85 48 0d f9 4f 48 88 d0 90 48
       201410.48 272999.4 212964.2 296580.25
000140 64 d9 44 48 97 ab 89 48 fe 03 55 48 8b 91 af 48
       201573.56 281948.72 218127.97 359564.34
000150 31 01 95 48 f3 df 98 48 00 00 80 3f b2 d7 c9 47
       305161.53 313087.6 1.0 103343.39
000160 b1 2a 9d 47 71 e6 38 43 bd 58 95 42 2f b0 d3 43
       80469.38 184.90016 74.67332 423.37643
000170 4f 86 3d 47 68 74 cb 46 1f 07 87 46 fb 4e 3a 47
       48518.31 26042.203 17283.56 47694.98
000180 8a f6 cd 46 16 ed 82 46 00 00 80 3f 00 00 80 3f
       26363.27 16758.543 1.0 1.0
000190 00 00 80 3f 00 00 80 3f 00 00 80 3f 00 00 80 3f
       1.0 1.0 1.0 1.0
0001a0 00 00 80 3f 00 00 80 3f 00 00 80 3f 25 f1 b3 47
       1.0 1.0 1.0 92130.29
0001b0 fa 40 d8 47 fd 46 e6 47 6d 87 97 47 6d 5c dc 47
       110721.95 117901.98 77582.85 112824.85
0001c0 7c 41 70 47 7c 7d 89 47
       61505.484 70394.97

network_body.linear_encoder.seq_layers.0.weight f4 [128, 114]
000000 7e eb 49 3c b5 ad b9 bd 1e fe fb bc ad 7d d8 bd
       0.012324212 -0.09066335 -0.030760821 -0.10570846
000010 eb bb ce 3c d4 ae bc bd 24 24 a2 3b 0d 61 c3 bc
       0.02523609 -0.09213033 0.004948156 -0.023849988
000020 c6 16 ec bc 1b cd bc bd 4d fc 17 3d 3c 3a 31 be
       -0.028819453 -0.09218808 0.037105847 -0.17307371
000030 7e 28 c4 3d ce 5d cc bc 1d c3 0f bb 3c 85 95 3d
       0.09578036 -0.024947073 -0.0021936365 0.07300803
000040 df 34 2d bd e4 9e f7 3d 24 d9 64 3d 55 53 df bd
       -0.04228675 0.12090853 0.055871144 -0.10904566
000050 36 32 1e bc dd 9a d5 3c f8 8b 0f bd dc 0f 59 3d
       -0.009655526 0.026074821 -0.035045594 0.05299364
000060 55 5a 9a 3d 39 fd 8b bd aa 44 4f bd b0 db 39 be
       0.07536761 -0.06835408 -0.050602593 -0.1815021
000070 8e 00 06 3e af 0a 1f be e6 da b2 3d 0d 94 aa 3c
       0.13086149 -0.15531419 0.08733158 0.02082255
000080 86 fb 0f 3d c0 2b fb bd 1b 7a 23 be 2e b4 9b bd
       0.03515198 -0.12264204 -0.15964548 -0.07602726
000090 46 37 3b be 39 ed 06 3e 71 b5 1c 3e 3e 29 fd 3d
       -0.18282804 0.13176431 0.1530359 0.12361382
0000a0 31 89 7d 3d f6 db 6d bc a6 f8 c6 bd 64 5f 04 3d
       0.061898414 -0.014517775 -0.09715395 0.032317534
0000b0 2c e5 e2 bc b1 32 10 bd 32 5a 91 3d 23 4c d3 3d
       -0.027697168 -0.035204593 0.070972815 0.10317256
0000c0 d6 c9 d1 3d f2 f3 88 bd dd 0c 27 3d e7 99 56 3e
       0.10243575 -0.06687154 0.04078375 0.20957147
0000d0 18 38 6a 3d b5 9f 0c bb 30 59 c9 bc a9 e2 0e bd
       0.0571824 -0.0021457497 -0.02457866 -0.03488413
0000e0 84 58 a9 bc 78 7d af 3c ca 9b c1 3b 7f d5 0c 3c
       -0.02067209 0.021422133 0.005908464 0.008595823
0000f0 67 4b 3f bc 96 5e 32 bd af d9 49 3d a6 c9 db bd
       -0.011675692 -0.043547235 0.049279865 -0.10731821
000100 42 b9 85 3d 25 ec 41 3d 1b ed 7d 3e 69 e5 3d 3d
       0.06529476 0.047344346 0.2479748 0.04636136
000110 0e 65 19 3d ad fc 24 3e b7 ee a4 3c b0 73 df bd
       0.03744989 0.16112013 0.02013336 -0.109107375
000120 7d cc 97 3d e9 94 2b 3d e7 a6 b5 bc 8b 95 38 3d
       0.0741205 0.04189006 -0.022174312 0.04506449
000130 31 0e 12 bd 6c 0d 23 be 96 18 40 3e 36 43 fc bd
       -0.035658065 -0.15923089 0.18759379 -0.12317507
000140 49 f7 26 3e de 67 3d be ba 7e d1 bd 93 d7 f1 bd
       0.1630527 -0.18496653 -0.10229249 -0.11808696
000150 3f c5 7d 3d d7 14 70 bd 13 e6 3f 3e 23 c9 a2 bd
       0.061955687 -0.058613624 0.1874011 -0.0794852
000160 9f 3e 2e be 41 69 f8 3d bf 94 0b bd 30 73 14 3d
       -0.17016076 0.121294506 -0.034077402 0.036242664
000170 9f 19 51 bb 79 cb e4 bd 32 a6 ac 3d e8 90 eb ba
       -0.003190614 -0.11171622 0.08430137 -0.0017972263
000180 3d 7a f3 bc 81 14 cb bd 59 b7 bb 3c 8c cc 65 bd
       -0.029721374 -0.0991602 0.022914575 -0.056103274
000190 1e 7b b9 3d bc 90 e9 bd 66 88 c8 bb 71 d2 30 3d
       0.09056686 -0.11404559 -0.0061197756 0.043169443
0001a0 0c 98 dd bd b4 6e 74 3d c5 a1 bd 3d 86 49 b9 3d
       -0.10820016 0.059675887 0.09259371 0.090472266
0001b0 c7 60 9e 3d 53 0f 9f bd d8 5e 0f be b5 68 89 3b
       0.077333026 -0.07766595 -0.14001024 0.0041933903
0001c0 05 cb b9 3d 72 34 c4 3b 12 ac b0 bd 5d 20 03 be
       0.09071926 0.0059876973 -0.0862657 -0.12805314
0001d0 cc a2 df bd 73 c5 3f bd 11 97 05 3e 53 66 1b 3e
       -0.10919723 -0.04681916 0.13045909 0.15175752
0001e0 7a bd 85 3e 01 ca fc 3d 12 40 97 3e f4 76 79 3d
       0.26121122 0.12343217 0.2954107 0.06090446
0001f0 1b 49 01 3d 5b e6 0c 3e 01 82 47 bb 94 b1 33 3c
       0.03156386 0.13759749 -0.0030442479 0.010967631
000200 bf db cb bd e7 b2 67 3d 60 0e df 3b d8 5e d5 3d
       -0.099540226 0.0565671 0.0068071336 0.10418481
000210 f4 83 8e 3d a0 f6 3e 3d c6 7c 1e bd e7 70 15 3e
       0.06958762 0.04662192 -0.038693212 0.1459385
000220 aa 74 8d 3e 16 bb 7d bd c6 36 1b bc d9 df 14 3e
       0.2762807 -0.061945997 -0.009473508 0.14538516
000230 71 53 12 be f6 df 01 3e b7 98 e2 3b d0 1a 30 3b
       -0.14289643 0.1268309 0.0069151777 0.002687145
000240 51 5b 08 be cc e7 0b 3d 8d 3b 60 3d fe 0c 92 bd
       -0.13316084 0.034156606 0.054744292 -0.07131384
000250 f0 7b b7 bd b5 e6 81 bc 6d 82 4a bd 0e cb 32 be
       -0.08959186 -0.01585708 -0.04944079 -0.17460272
000260 f1 2b 0e be a7 f8 92 bc 7b b4 aa 3d af d1 ff 3d
       -0.1388395 -0.017940832 0.08335205 0.12491166
000270 4c 96 38 3e dd 62 bb 3c 9d 79 65 3d ad 21 9c bd
       0.18026084 0.02287429 0.056024183 -0.07623611
000280 b8 17 cb 3c 4a 37 03 3e c2 1d 14 be 4d 12 cb 3c
       0.024791583 0.1281406 -0.14464477 0.024789
000290 31 84 d2 bc 98 5f d1 39 e9 fe dc 3d ec 46 5b bd
       -0.0256978 0.0003993481 0.10790808 -0.053534433
0002a0 d5 74 0e 3d 26 21 85 bd 20 ba 5a 3e da d3 39 be
       0.03477939 -0.06500463 0.21360064 -0.18147221
0002b0 c5 68 99 3d 9b 12 49 3e 89 84 12 be 93 3e 9d bd
       0.07490686 0.19636004 -0.1430837 -0.07677951
0002c0 6f 1d f1 3c e6 10 e8 3b 09 82 83 bc 11 2b e5 3d
       0.02943298 0.0070820926 -0.016053217 0.11189855
0002d0 3f 4b cf 3d 9b bf ba bd 77 f9 02 3e 20 ad 81 3d
       0.10121774 -0.09118577 0.12790476 0.06331849
0002e0 c6 8a 08 3e aa 17 ab bd 08 42 17 bd 57 a7 33 bd
       0.13334188 -0.08354123 -0.036928207 -0.04386076
0002f0 23 d2 23 3d 77 c9 e1 3d 24 37 04 be 3e 3d 59 3d
       0.039995324 0.110247545 -0.1291166 0.05303692
000300 54 10 0a be 3f 92 41 bc 34 7b bf bc 70 e2 09 be
       -0.13482791 -0.011814653 -0.023374178 -0.13465285
000310 53 a4 8e bc bc 50 78 bd 94 0f 4f 3b 40 e5 84 bd
       -0.01741234 -0.06062387 0.0031594979 -0.064890385
000320 da e4 bf 3d 86 0b d1 bd cc 08 d1 3d d3 9c 26 bc
       0.09369822 -0.10207276 0.10206756 -0.010169226
000330 80 88 48 bc 6a 17 e5 bd a6 2c 1c bd ce 96 f0 bd
       -0.012239575 -0.111861065 -0.038128518 -0.11747514
000340 e0 c4 fd 3b c8 79 ca 3d db c1 01 3e 6c bc 05 3c
       0.0077444166 0.09886509 0.12671606 0.008162599
000350 4d 12 19 be 1f ef 2d 3d bc 14 25 3e 31 57 15 3e
       -0.14948387 0.04246437 0.16121191 0.14584042
000360 7b 55 ab 3d 46 21 73 bc a4 35 eb 3d 44 d0 91 bd
       0.083659135 -0.014839476 0.114848405 -0.07119802
000370 f7 46 0e 3e a0 eb 23 be 3d a9 30 bd c2 54 53 bc
       0.13894258 -0.16007853 -0.04313015 -0.012898626
000380 2b 05 1c 3d e0 dc 37 bc f4 c5 02 3c a1 63 7c 3d
       0.038090866 -0.011222094 0.007981766 0.06161845
000390 51 f3 47 bc 44 86 34 3d 78 51 a0 3d 09 96 84 3d
       -0.012204007 0.04407336 0.07828039 0.064739294
0003a0 7c 8b 1a bc dd f8 95 bd ab ed ed bd 26 fd 42 bd
       -0.00943267 -0.073228575 -0.11617597 -0.047604702
0003b0 09 42 43 bb cc 07 9f bc 40 bd ad bd 41 cb 89 bd
       -0.0029793999 -0.019412898 -0.08483362 -0.06728221
0003c0 f9 86 72 3d 6b be 0a 3d 22 01 ca 3d a6 ba e5 bd
       0.05921075 0.033873003 0.09863497 -0.11217241
0003d0 3a 99 47 3e 0a 8c 9d 3d 59 ff c7 3c 5b 72 d0 3d
       0.19492045 0.07692726 0.024413751 0.101780616
0003e0 b0 d5 cb 3c 1a aa e3 bd 7d 4a f3 3d 43 5f ca bd
       0.024882168 -0.11116429 0.11879442 -0.09881451
0003f0 40 88 d6 bd f9 67 00 3e 4e bd 00 3d cd bf 0e be
       -0.104752064 0.12539662 0.031430535 -0.13940354

network_body.linear_encoder.seq_layers.0.bias f4 [128]
000000 1e 3c 9c 3b f7 4b 93 3d a2 85 38 bc d1 ed 7f 3b
       0.0047679087 0.071922235 -0.011262329 0.0039051662
000010 5d cd 7b 3d bb 0b b7 3d 3e 41 9a 3d d1 49 a2 3c
       0.061475147 0.08937784 0.07531975 0.019810589
000020 77 c6 80 3d 72 a5 84 3d c1 c3 29 3d 5e 1a f6 3c
       0.06287854 0.06476869 0.04144645 0.03004187
000030 48 bd 8a 3d ef 72 2f 3d 22 8f c9 3c 6e 06 d1 3c
       0.06774384 0.04283422 0.024604384 0.025515761
000040 22 68 c6 3c a9 89 c5 3a 34 f2 89 3d 40 6f 26 3d
       0.024219576 0.0015070933 0.0673565 0.04063344
000050 19 c7 e0 3c 2d 35 85 3d c1 b6 67 3c 61 fb f2 3b
       0.027438687 0.06504283 0.014142693 0.0074152206
000060 21 aa 01 3d 52 1d 50 3d 9a 99 89 3c fb 68 2d 3d
       0.03165639 0.050809212 0.016796876 0.042336445
000070 b7 d2 76 3d c2 11 a8 3d 4e 03 5c 3d 98 13 af bb
       0.060259547 0.08206512 0.05371409 -0.005342912
000080 3d c3 25 bc 0b 2b 20 3c f1 5e 2f 3c 3c d2 18 3d
       -0.010117349 0.009775887 0.010703788 0.03730987
000090 28 08 5c 3d 26 a0 57 3d e2 19 fb 3c 92 d0 9d 3c
       0.053718716 0.052642964 0.03065199 0.019264493
0000a0 42 58 c2 bc 16 45 fa bb 20 c0 46 3c e3 29 03 3c
       -0.023723725 -0.00763763 0.012130767 0.008005592
0000b0 27 f1 37 bb 1d 2b 22 3d 00 90 2b 3d 88 1f 06 3d
       -0.0028067322 0.039591897 0.041885376 0.032744914
0000c0 3c 4a 1c 3d 08 ca 8f 3b 96 d0 c9 3b 7a 83 8a 3c
       0.038156733 0.0043880977 0.0061588986 0.016908396
0000d0 c7 ee 9f 3d e5 58 0f 3d 7f 09 2e 3d 14 67 03 3d
       0.07809215 0.034996886 0.042489525 0.032080725
0000e0 25 ca 8d 3d 6f 0e cf 3c b4 50 23 3d 8c 9e 52 3d
       0.06923322 0.025275437 0.039871886 0.051420733
0000f0 8d 86 4f 3d 57 ee 4a 3d 34 e2 21 bc ea 5c b1 ba
       0.050665427 0.049543705 -0.009880591 -0.0013531719
000100 f4 63 33 3d c6 7e bb 39 06 03 1e 3d 18 37 37 3d
       0.043796495 0.00035761873 0.038577102 0.044730276
000110 d7 9c 41 3c 86 f7 07 3d f5 7e 38 3d 24 bb 72 3d
       0.011817179 0.03319504 0.04504295 0.059260502
000120 e8 48 ec 3c 27 b7 9d 3d 8d 2e 81 3d 7b 26 b8 3c
       0.028843358 0.07700949 0.06307707 0.022479286
000130 a9 b9 8f 3d a0 da fe 3c be 22 06 3d 7e 8b 28 3d
       0.07017834 0.031110108 0.032747976 0.041148655
000140 6b 63 5e 3c 51 3d 6d 3d 96 ff 6f 3d 58 5c e7 3c
       0.013573508 0.057919804 0.058593355 0.028242275
000150 35 69 75 3d 44 ba 8a 3c 62 fb 99 3c 1c 5e 14 3d
       0.059914786 0.016934521 0.018796626 0.036222562
000160 27 02 3d 3d 16 21 33 3d 99 52 1f 3d 67 cc 05 3d
       0.04614463 0.043732725 0.03889713 0.032665636
000170 d7 8e e4 3a ed 32 01 3d 4c 67 13 3d 90 6a 21 3d
       0.0017437589 0.031542707 0.035987183 0.039408267
000180 70 1a c5 3c 8e aa 0d 3d ba 40 4b 3d 63 d0 4e 3d
       0.024060458 0.03458648 0.049622275 0.0504917
000190 f8 66 19 3d 9e 69 9b 3d 95 97 fd 3c 7d 11 4b 3d
       0.037451714 0.07588504 0.030956069 0.049577225
0001a0 a6 4e 90 3c 49 92 a3 3b cf c8 ce 3c dd 9d 11 3b
       0.017615627 0.004991804 0.025242237 0.0022219338
0001b0 9a 71 82 3b e9 26 d3 3c af c7 7e 3d 04 34 b7 bc
       0.0039808275 0.02577539 0.062202152 -0.02236367
0001c0 28 92 ce bb b3 f2 2c 3d 49 ef 1a 3d 20 88 47 3d
       -0.0063040443 0.042223644 0.037825856 0.048713803
0001d0 77 3e 0d 3d b4 58 71 3d 13 c9 b1 bc 88 d1 d1 3b
       0.0344834 0.058922485 -0.021702325 0.006403152
0001e0 fc 4a 78 3c 67 2c 34 3d aa fa 33 3d 27 96 db 3c
       0.015154596 0.043987658 0.043940224 0.026804997
0001f0 b4 12 1e 3d ae 72 b4 bb 39 a8 5c 3c 21 f6 05 3d
       0.038592055 -0.005506835 0.013467842 0.03270543

network_body.linear_encoder.seq_layers.2.weight f4 [128, 128]
000000 d2 c3 f1 3c 0a a7 ff bd 7c 4a b4 3d 96 af 87 3d
       0.02951232 -0.12483032 0.08803269 0.06625287
000010 b1 4b 9d 3e 9b e3 ae bd 33 48 c8 bd a8 bc ea 3d
       0.3072181 -0.08539506 -0.09779396 0.114617646
000020 d7 11 9a 3d 47 cf 25 be a3 c4 52 3d 67 e2 0c 3d
       0.07522934 -0.16192351 0.05145706 0.0343956
000030 1f 7f 05 3d d5 8b e7 3d 5e c8 cf 3d e1 71 21 3c
       0.032591935 0.11305968 0.10145639 0.009853811
000040 a7 75 21 be c9 ef 4d 3d 03 36 2d 3c 9c 90 41 3e
       -0.15767537 0.050277505 0.010571959 0.1890282
000050 cf 87 68 3c 4e 6f f0 bd 80 27 c5 bd 42 ec db bd
       0.014192536 -0.1173998 -0.09626675 -0.10738422
000060 0f 2e 55 bd ff 1c 04 3d 07 d1 29 3e 61 15 bf 3d
       -0.052045878 0.032254215 0.16583644 0.093302496
000070 bf 85 c4 bd da 89 4c bb 6d df 5b 3d d1 72 07 bd
       -0.095958225 -0.0031210096 0.053679872 -0.03306848
000080 6d 71 2d 3e 0c e8 42 bc 0b 7a 1b 3e 63 f0 9e bd
       0.169378 -0.011896145 0.15183274 -0.07760694
000090 53 ab f1 bc c2 da 68 bd 50 ff 12 3e f5 e6 23 bc
       -0.029500639 -0.05684925 0.14355206 -0.010003795
0000a0 e5 08 a3 3d 26 4d 13 be fc df cc bd 52 50 65 3e
       0.07960681 -0.14384899 -0.10003659 0.22393921
0000b0 93 4e 5a 3d 2a 56 1e 3d 8e 55 84 3d 82 13 95 bd
       0.05329759 0.03865639 0.06461631 -0.072791114
0000c0 e6 12 c2 3c aa 09 09 3e 18 a8 a7 3d aa 93 d9 3c
       0.023690652 0.13382593 0.08186358 0.02655967
0000d0 ec 20 cc 3d ed df b3 3d a8 82 9d 3d ef f4 66 3d
       0.09967217 0.08782945 0.07690936 0.05638593
0000e0 46 27 f0 bd a5 8c 0e 3c f9 7c 24 3d 4c 45 86 be
       -0.11726241 0.008700524 0.040158246 -0.26224744
0000f0 75 ca 37 bd 2e eb 87 be d0 dd 02 3e 37 22 1c 3e
       -0.044870812 -0.26546615 0.12779927 0.15247427
000100 4a ae 05 3e 26 53 92 3c 98 22 e3 3d 43 8e 21 3e
       0.13054767 0.017861914 0.110905826 0.15776925
000110 b6 c0 7a 3d d8 24 6c be 9c e5 16 3d e0 10 23 be
       0.06121894 -0.2306093 0.036840066 -0.15924406
000120 0a 38 42 3e 5c 19 a8 bd 80 8f e3 3d d6 ce bb 3d
       0.1896669 -0.08207962 0.11111355 0.0917031
000130 df fa a1 3d bc 50 82 bd f6 d2 3e be d5 65 4b bd
       0.07909178 -0.06363055 -0.18635163 -0.04965766
000140 12 7c 48 3d ed e7 c4 bd 27 a9 df 3d 80 ef 65 bc
       0.048946448 -0.09614549 0.10920935 -0.014034152
000150 3e 12 8b bd 39 e8 26 bd ad 1b c2 3b 9a bf b1 bd
       -0.06790589 -0.04074881 0.0059237094 -0.08679123
000160 12 5a 5c 3d 12 76 7b bb 90 d8 d8 3d f1 67 e3 3d
       0.053796835 -0.0038369936 0.10588181 0.111038096
000170 a2 dd 94 3d 89 a4 7d 3d 40 0c e6 bc 28 34 0d bd
       0.072688356 0.06192449 -0.028082013 -0.03447357
000180 5c 6f 64 bd 6a bd 07 3e 78 8f a1 3d 7e 52 b6 bd
       -0.055770263 0.1325585 0.078886926 -0.08902453
000190 59 d7 74 bd 6e db 41 3e f7 87 5b 3e 46 0b af 3d
       -0.059775684 0.18931362 0.21438585 0.08547072
0001a0 3a c4 a4 bd 2d 0a 54 bd fa 59 d9 3c d9 be 1c be
       -0.0804524 -0.051767517 0.026532162 -0.15307178
0001b0 39 5f 56 bd 11 fc 3f 3d ab 98 ad bd 31 7f b3 3d
       -0.052336905 0.04687125 -0.08476385 0.08764494
0001c0 23 45 0b be 40 bf 11 be b8 65 a9 3c 39 7f 9f 3d
       -0.13600592 -0.14233112 0.020678386 0.07787938
0001d0 a1 f1 4e 3c 2f 38 47 bc fd ab 1a 3c 64 40 fd 3d
       0.012630851 -0.012159391 0.009440419 0.12365797
0001e0 90 3f c8 3d 40 b7 cd bc 36 cd 3b bd dc 96 b9 3d
       0.097777486 -0.025111794 -0.04585 0.09061977
0001f0 d0 7f b1 3d 9c 98 a2 3d 9e 36 bb bd a3 fc 88 3d
       0.086669564 0.07939264 -0.09141277 0.06688812
000200 49 d9 58 3d 13 ea 09 3e 41 3b c7 bd 2b cb 1b bd
       0.052941594 0.13468198 -0.09728099 -0.038035553
000210 b0 4d 36 bc 76 8f a5 3d b4 8f ee 3d 6a c3 cd bd
       -0.011126921 0.080840036 0.11648503 -0.10047038
000220 4d 19 40 be ff 5a b9 bc c2 8e 3c be 45 cc 5f 3d
       -0.18759651 -0.022626398 -0.18413833 0.054638166
000230 d1 36 35 3e f9 7c 13 bd 92 b2 4f 3d 0d af a4 bd
       0.17696692 -0.036007855 0.050707407 -0.08041201
000240 43 1d aa 3d 3f c4 74 bb 9c 44 84 3d 18 8a 10 3e
       0.083063625 -0.0037348417 0.06458399 0.14115179
000250 99 58 b8 3d ee 82 11 be 9a 09 92 3c 9e d4 21 3e
       0.09001274 -0.14210102 0.017826844 0.15803763
000260 e1 80 1d 3d 4b 3d 0a be 3b 8a 63 3d 0c ba 5b 3d
       0.038452987 -0.13499944 0.05555175 0.053644225
000270 f3 7c 35 3e b5 72 c3 3c ca 93 f8 bd a6 66 29 3e
       0.17723446 0.023858408 -0.121375635 0.16543064
000280 98 c0 bf 3d ab 98 1f bd b6 71 f6 bc f2 95 50 be
       0.09362906 -0.038963955 -0.030083518 -0.203697
000290 6b bd 22 be cb e7 9d 3c fb 39 45 3c 82 c4 19 be
       -0.1589257 0.019275567 0.012037749 -0.15016368
0002a0 68 04 2b 3d e2 0f f7 3c 82 4b b4 bd fa 7a 00 bd
       0.04175225 0.03015894 -0.088034645 -0.03136728
0002b0 7b 17 22 bd f4 54 7e 3d 49 5e 7e 3c 47 fc b8 3c
       -0.039573174 0.062092736 0.015525409 0.022581233
0002c0 73 2e 95 3b b9 2e 9d bd a3 20 5f be 97 d3 14 3e
       0.0045526563 -0.07674927 -0.21789794 0.1453384
0002d0 93 38 06 3d dd 3c 14 3e 34 ab 03 be 30 60 07 be
       0.032768797 0.14476342 -0.12858278 -0.13220286
0002e0 2e 86 cb 3c 3a cf 24 bd 31 94 98 bd 80 98 d8 bc
       0.024844255 -0.04023669 -0.0745014 -0.026439905
0002f0 41 62 62 3c 52 94 40 bd 2a 61 53 bd 3a 49 9b bd
       0.013817371 -0.04701645 -0.051606335 -0.07582326
000300 8d d0 15 bd 0d 23 1a 3e 0d 70 40 bd 83 ba e1 bd
       -0.036575843 0.15052433 -0.04698186 -0.110219024
000310 ab df b3 ba e5 53 32 be c4 13 0d bd 77 e7 99 bd
       -0.0013723274 -0.17414816 -0.034442678 -0.075148515
000320 85 14 9f 3d 75 66 da 3d 85 7d 30 bd 95 74 18 3d
       0.07767586 0.106640734 -0.043088455 0.037220556
000330 d2 3a 5c be 00 43 0b 3d 9d 4b 15 3e 45 2a 85 bd
       -0.21506813 0.033999443 0.14579625 -0.06502203
000340 a7 22 35 be ca 02 d8 bc cf a3 30 bd 4e 21 7d bd
       -0.17689 -0.026368517 -0.04312497 -0.06179934
000350 09 27 01 3d 4a eb 02 be 0f c5 ff 3c a5 0e ee 3d
       0.031531367 -0.12785068 0.031221895 0.11623887
000360 68 99 6f 3d ab 21 a7 3c b0 3f 15 be e5 f4 1b be
       0.05849591 0.020401796 -0.14575076 -0.15230139
000370 6b 50 81 3d 4c 4b 15 3e 32 4e 77 3d 8a 69 1d 3d
       0.06314167 0.14579505 0.060377307 0.038430728
000380 72 0c 0c be 1a f6 a9 bd fa 01 0c bc 01 fa 15 3e
       -0.13676623 -0.08298893 -0.008545393 0.1464615
000390 e4 bd 3a be d2 8b eb 3c 7d 14 82 3d a3 5c e2 bd
       -0.182365 0.028753195 0.06351564 -0.11052825
0003a0 6f 6b 9d 3e 7b b4 53 3d a9 37 51 3d dd 8e 04 3d
       0.30746028 0.05168579 0.051078472 0.032362808
0003b0 80 e7 77 bd 84 6e ea 3b 06 e1 3d 3d 5e fc 93 3c
       -0.06052351 0.007154288 0.046357177 0.018064674
0003c0 9e 52 4c bd 22 2c c6 3d 50 85 17 3d 2a 8d ef bd
       -0.049883477 0.096763864 0.03699237 -0.11696847
0003d0 a4 5c 6a bd 40 3a 15 bd f8 6e 81 3d c2 1d 71 bc
       -0.057217255 -0.036432505 0.06319994 -0.0147165675
0003e0 af 1a 34 3e 41 8f 8f 3b 1c 1b 19 3d c6 21 39 bd
       0.17588304 0.004381091 0.03737937 -0.045198224
0003f0 84 03 95 3d 48 17 74 bd d6 fb 6a bd c5 68 1e 3e
       0.07276061 -0.059592515 -0.057369076 0.15469654

network_body.linear_encoder.seq_layers.2.bias f4 [128]
000000 64 a8 e1 3b 0f 46 8a 3c 01 bc 87 3b 8b 58 f0 3b
       0.006886529 0.01687911 0.004142285 0.007334774
000010 60 1d 5c bc fd 75 0c bd b2 ed 84 3c 54 45 4e 3c
       -0.013434738 -0.03429221 0.016226623 0.012589771
000020 be 68 4d bb 12 44 ef 3c 42 60 12 3d c3 3b 11 3d
       -0.0031342949 0.029207263 0.03573633 0.035457384
000030 da 24 20 3d c3 b0 36 3d 41 ef 91 3c b9 a6 14 3c
       0.039097644 0.044602167 0.01781428 0.009072953
000040 72 73 2c 3c 35 26 be 3a ec f4 04 3c e3 8d 21 3d
       0.010525571 0.0014507236 0.008115035 0.039441954
000050 61 21 49 3d 8e 41 7a bb 1b cd 95 3c c4 eb b7 3c
       0.0491041 -0.0038186046 0.018286278 0.022451289
000060 44 cb 37 3c ef 51 f7 ba 39 05 74 3b 54 e0 09 ba
       0.011217896 -0.0018869023 0.0037234558 -0.0005259563
000070 6f 12 02 bb 5c b1 fe 3c bd 63 01 3d db c4 72 3c
       -0.0019847413 0.03109043 0.03158926 0.014817442
000080 32 f3 dd 3c a7 18 6d 3c db ff f5 39 8f 91 d1 3c
       0.027093504 0.01447121 0.0004692067 0.025582103
000090 f4 4a 98 3c 9b 2a 32 3d 94 81 00 3d b5 84 2e 3d
       0.018590428 0.043497663 0.031373575 0.042607028
0000a0 00 51 40 bc fd 0f 91 3b f0 55 66 3b 3f 01 c0 3c
       -0.011738062 0.004426955 0.0035146438 0.023438094
0000b0 70 2a 9e 3c 99 36 31 3c 6d b5 57 bc 8a 1b 56 3c
       0.019307345 0.01081624 -0.013165814 0.013068089
0000c0 aa d0 a6 3b 42 ba 44 3d 19 c4 08 3c ae 8e d9 3c
       0.0050907927 0.04802919 0.008347535 0.026557293
0000d0 0e 5f 2b bb fa 17 44 3b 48 14 64 3c b5 a0 d6 bb
       -0.0026149186 0.0029921518 0.013920851 -0.0065499195
0000e0 3c e0 1c 3d 6d a4 b8 3b 0d 4d 08 3c 54 5f b8 3c
       0.038299784 0.0056348355 0.008319152 0.022506393
0000f0 cc a1 86 3c de 19 24 3d 38 2a 45 3d ee eb c0 3c
       0.016434573 0.04006373 0.048135966 0.02355
000100 d3 61 5a 3d b9 00 6f 3c 5d 32 05 3c 7d 9c 9d 3c
       0.05331595 0.014587575 0.008129683 0.019239658
000110 50 80 26 3c e8 df 40 3d 1b 61 58 3c 66 00 ca bc
       0.010162428 0.047088534 0.0132067455 -0.024658393
000120 b2 59 0f 3d e2 f7 82 3c 12 62 b3 3c 80 a6 f8 3c
       0.03499765 0.01598734 0.02189735 0.03035283
000130 10 23 d1 3c 1e 58 25 bc b4 1f 7b 3c 87 32 a7 3c
       0.025529414 -0.01009181 0.015327383 0.020409836
000140 fa 7d 32 bb 6d e3 06 3d 59 06 5e 3d 72 55 98 3c
       -0.0027235732 0.032931734 0.054205272 0.018595431
000150 8d 22 44 3c 7a fd 50 3d 61 c5 73 3c 96 ca 31 3c
       0.011971128 0.051022984 0.014878602 0.010851523
000160 51 47 e4 3c 5c 44 4a 3c 15 db c8 b9 f0 9b 31 bc
       0.027866038 0.0123454 -0.00038310201 -0.010840401
000170 78 1c 88 3c 30 28 c4 3c 4a 1d 85 3d 0b e0 c9 3c
       0.016615137 0.023944944 0.06499727 0.024642965
000180 db b7 30 3d 58 9c 51 bb a6 7e 29 3d 20 64 ae bc
       0.04314409 -0.0031984057 0.041380547 -0.021287978
000190 df 6a 2a 3d 3b 12 d1 bc 73 ee 1c 3d f6 d3 c2 3c
       0.041605826 -0.025521388 0.03831334 0.023782711
0001a0 aa 70 1f 3c 21 fc e9 3c ae 66 54 3c 1a 85 09 3d
       0.009731451 0.028562607 0.012963934 0.0335742
0001b0 b2 f2 2a 3d ec 42 de 3c a7 77 3e 3d fd 74 68 3a
       0.04173536 0.02713152 0.046500828 0.000886753
0001c0 0a 3c 46 b9 cc ac 00 3d 41 7b 12 bb 0b 57 52 3d
       -0.00018905118 0.031414792 -0.0022351297 0.051352542
0001d0 79 40 56 bc 37 0b 5b 3d 18 d4 49 3d c7 d9 e2 3c
       -0.013076895 0.053477492 0.049274534 0.027691735
0001e0 28 d1 36 3c 05 53 9c bc 16 68 da 3b db 1c 86 3c
       0.011158265 -0.019082556 0.00666524 0.016371181
0001f0 58 80 9b 3b 75 4a e2 3c 88 9a 07 3d bb 20 e8 3c
       0.0047455244 0.027623395 0.033106357 0.02833592

action_model._discrete_distribution.branches.0.weight f4 [3, 128]
000000 11 0e 45 3c b9 ea 42 bd 43 c1 d6 bc 04 d1 72 3b
       0.0120272795 -0.04758713 -0.026215201 0.0037050853
000010 43 b0 9a 3c 56 8e 81 bd e1 0c 95 bc 60 4a 8e ba
       0.018882876 -0.063259766 -0.018194618 -0.0010855906
000020 2b 18 90 3b 92 af 2e 3d 38 ad 6a 3c d4 3a 9a bd
       0.0043974123 0.042647906 0.014323525 -0.07530752
000030 4a d7 6b bc d7 34 e3 3c a3 40 34 bd e4 74 55 bd
       -0.014394591 0.027735157 -0.044006955 -0.05211343
000040 79 cc 67 bc 09 41 2d 3c 07 73 91 3c ad dd 41 bc
       -0.014147871 0.010574588 0.017755045 -0.011832637
000050 06 3e 5d 3c 95 6c 52 3d 0c 54 f8 3c 9e 0b bf bc
       0.013503557 0.051373083 0.030313514 -0.02332097
000060 61 a8 d2 bc 2b f2 00 bd 0e 5a c8 bd 81 77 7d bc
       -0.025715055 -0.03148095 -0.097828016 -0.0154703865
000070 ad 38 77 bd 66 bf 3e bd 03 45 4d 3d 5d 94 2b bc
       -0.060356785 -0.04656925 0.050114643 -0.010472384
000080 bf b3 b4 3c 47 c1 0f 3d a9 13 5b bc 91 3c 8d bc
       0.022058366 0.035096433 -0.013371387 -0.017240794
000090 3b cb 86 bd 0b 8e 4f bc c7 fe 67 bd 71 ac bc bc
       -0.06581732 -0.012668143 -0.05663946 -0.023031445
0000a0 0a a0 f7 bc 99 5a 94 3b d1 8e c9 3c 96 d1 bf bc
       -0.03022768 0.0045274016 0.024604233 -0.023415368
0000b0 0c 60 c6 3c d7 a2 b0 bc 17 81 9f bc 11 9f 34 3d
       0.02421572 -0.021562023 -0.019470735 0.04409701
0000c0 8e 35 6f bd 78 8d 63 3d 1d b8 13 3c bb ed 7a bd
       -0.058400683 0.055554837 0.009016064 -0.061261874
0000d0 11 0c 03 bd 15 6e ef 3a 6a 92 01 3a aa e7 4e bc
       -0.03199393 0.001826706 0.0004942777 -0.012628475
0000e0 ed 4e c2 bb 6e 5c 3d bd e8 af 7f 3c aa 04 28 bc
       -0.005929819 -0.046230726 0.015605904 -0.010255018
0000f0 0b c5 1e bc 52 dc 7a 3d 12 b4 98 3c a1 fe 91 3d
       -0.009690533 0.06124527 0.018640552 0.07128645
000100 cf 49 c9 bc 9b cf 21 3b cf c7 11 bd 57 81 68 3c
       -0.024571327 0.0024690393 -0.035590943 0.014190993
000110 a5 70 9a bc 25 a9 e9 3c 49 73 44 bc 21 08 bb bd
       -0.018852541 0.028523037 -0.011990377 -0.0913241
000120 dd 94 82 3d ac a0 53 3c 0f ec 9c 3b 3a fc 06 3c
       0.0637605 0.012916725 0.0047888826 0.008238846
000130 64 b0 ce bd e1 db 2d bd 46 cb 98 bc e6 97 4d bd
       -0.100922376 -0.04244602 -0.018651616 -0.05019369
000140 8c 5b 08 bc 7f 41 91 bc 8e c7 0a 3d ec c7 58 3c
       -0.008322608 -0.017731426 0.033881716 0.013231259
000150 99 5a 69 bd 0c 79 08 3c 4f d6 d6 bc 92 ed b1 3b
       -0.056971166 0.008329641 -0.026225237 0.005429932
000160 7a 96 fd bc a0 68 3c 3c 2c b4 ba 3b 1d 2d 33 bc
       -0.030955542 0.011499554 0.0056977477 -0.010936049
000170 e9 23 19 bd 5d f8 03 3c 6b c1 03 bc e2 51 b6 bc
       -0.037387762 0.00805482 -0.00804172 -0.022255842
000180 81 1d 7e bd ed a3 59 3c 6d 2c b9 3c 6f 50 6b bc
       -0.062039856 0.013283712 0.022604192 -0.014362439
000190 cb 86 af bd 62 df ce bc aa 33 cc bc fb 06 87 bd
       -0.085706316 -0.025253002 -0.02492698 -0.06593128
0001a0 f2 d1 26 bd 56 47 22 bc 3b 0d d1 bb ff 5d 60 3d
       -0.040727563 -0.009904703 -0.006379751 0.05477714
0001b0 43 a6 9e bd 91 42 39 3d 36 04 87 3d 5d ce ca bc
       -0.07746556 0.0452295 0.065926 -0.024756605
0001c0 e5 8c 0d bc 25 41 0b 3b 11 30 95 bd ed 6b 92 bc
       -0.008639549 0.0021248546 -0.072845586 -0.017873729
0001d0 68 5b da bc f6 d8 79 3c 12 56 bb 3c 43 c8 58 3d
       -0.026654914 0.015249481 0.02286819 0.05292536
0001e0 74 76 c7 bc 66 1e 11 bc 3a 0a f8 3c 09 86 bd 3d
       -0.024348475 -0.008857345 0.030278314 0.09254081
0001f0 a1 b2 a4 3c 2a f9 bf bc 21 79 f8 3c 1c 07 c7 3c
       0.020104708 -0.02343424 0.030331196 0.024295382
000200 15 ea 5d bc 3d 1d 89 bc 77 1e 26 3d 8a 0f 1c bc
       -0.013544579 -0.016737575 0.040556397 -0.009525189
000210 8e 1d 44 3c 07 76 08 bd 08 50 0f bc b7 3d b8 ba
       0.011969937 -0.033315685 -0.008747108 -0.0014056478
000220 cc 3e 99 3b 25 a5 85 3c c9 c0 c6 ba d6 e1 a9 bb
       0.0046766754 0.016314099 -0.0015163656 -0.0051843924
000230 a6 ef c0 bc 4b 75 cb bb 60 de 83 bc f3 7b ad bc
       -0.023551773 -0.006209051 -0.016097248 -0.021177268
000240 63 a1 fd bc d5 5a 7a bc 1a d9 d8 3b 0f c9 fb 3b
       -0.030960744 -0.015280445 0.0066176774 0.00768388
000250 31 50 28 3c bb 90 81 3c 8f ad 84 bc b8 de ad 3c
       0.010273025 0.015816083 -0.01619604 0.021224365
000260 e4 5b 28 bc f7 32 86 3c cc 89 7e ba 94 22 bd 3c
       -0.010275815 0.016381724 -0.00097098644 0.023087777
000270 40 9d c0 3a f3 34 7f ba e8 36 17 ba a7 63 ab bb
       0.0014695302 -0.0009735368 -0.00057683745 -0.0052303853
000280 04 4c ca bc 03 70 a3 3b 84 76 c9 bc 46 22 f9 3b
       -0.02469445 0.004987718 -0.024592645 0.0076029627
000290 a9 f7 18 bb 23 19 a1 bc 87 ea db bc 78 d8 85 b9
       -0.0023340976 -0.019665306 -0.02684523 -0.0002552902
0002a0 3e aa 1c bb 87 ea 44 bc ec 76 9a 3c f5 df fd 3b
       -0.0023905183 -0.012018806 0.018855534 0.007747645
0002b0 c2 04 65 bc ee aa 63 ba 17 2b 8c 3c c7 d5 84 bc
       -0.013978185 -0.00086848333 0.01711039 -0.016215218
0002c0 75 9a a9 3c 4a c2 ad 3c 99 fb 97 3b 5a 5d 0a 3c
       0.020703534 0.021210808 0.004638147 0.008445108
0002d0 56 2c 69 3c f0 f0 c7 3c 74 00 b7 3c 17 ac 4b bb
       0.014231762 0.02440688 0.022339083 -0.0031077915
0002e0 85 14 38 3c 4d ee ae 3b d0 24 bc bc 4f 5b 80 3b
       0.011235361 0.0053384663 -0.022966772 0.003917135
0002f0 08 3c a1 3c ec f7 82 bc 07 53 b0 3c 1c f2 45 bb
       0.019681945 -0.015987359 0.021523966 -0.0030204123
000300 c5 76 77 bc cd 75 14 3c e6 f9 1a bb 1c a7 bc 3c
       -0.015104 0.009061289 -0.0023647486 0.023028903
000310 47 cb 34 3d 91 01 8a 3b 7c 73 0f bd 20 2a 0d 3d
       0.044139173 0.0042116125 -0.035022244 0.034464
000320 8b bb c8 bc bc 19 e0 bc b7 e3 2e 3c 44 f9 ab bc
       -0.02450349 -0.027356021 0.010674409 -0.020992883
000330 08 25 2e 39 41 07 81 ba 1f f2 27 39 eb 54 a8 bb
       0.00016607728 -0.0009844081 0.00016016558 -0.005137076
000340 ed 0d ff 3b 44 c2 30 bd 66 0c 5d 3b 17 c2 c7 bc
       0.0077836425 -0.043154016 0.0033729314 -0.024384541
000350 26 a6 08 bc 00 e3 94 bc ae 0c 2f 3b b6 f5 06 bd
       -0.008340394 -0.018174648 0.0026710439 -0.032949172
000360 83 e7 22 bd 75 b1 58 bc 12 03 4c 3c 0e b1 d7 bc
       -0.039771568 -0.013225903 0.012451904 -0.026329543
000370 da 24 ea 3c c0 37 f0 bc 7b 6f c3 bb 1e 7f 31 3d
       0.028582025 -0.029323459 -0.0059642172 0.04333412
000380 eb a7 8c 3d 1e ac af 39 08 5d b8 3c 20 4d 8f 3c
       0.06867965 0.00033506838 0.022505298 0.01749283
000390 ef fa 8b 3c a4 53 e2 3c a8 7a 01 bd 3d 64 b5 bc
       0.017087428 0.027627774 -0.031611115 -0.022142524
0003a0 a4 e1 d0 bc c4 08 5e bc b2 e8 11 ba 46 9c 1c 3a
       -0.025498219 -0.013551895 -0.00055659853 0.00059742143
0003b0 59 c8 8a bb 62 fc 57 bc 48 30 9a 3b 83 87 ac 3c
       -0.004235309 -0.013182731 0.0047054626 0.02106071
0003c0 62 b1 58 3c 2f ef 1b 3c 2e eb e9 ba fe c9 31 3c
       0.013225885 0.009517475 -0.0017846578 0.010851381
0003d0 d9 82 3a 3d 59 90 16 3d 2d 09 1e bd b0 bf 88 bc
       0.045534942 0.036758754 -0.03858297 -0.016692966
0003e0 70 aa f3 bb de 05 8a 3c 34 86 c7 3c b8 10 19 3b
       -0.007436089 0.0168485 0.024355985 0.0023355912
0003f0 de 2c 9b bc 25 cd 62 3b 7a 06 de bb 1d 63 12 3d
       -0.018942293 0.003460714 -0.0067756744 0.035739053

action_model._discrete_distribution.branches.0.bias f4 [3]
000000 ec a3 fa 3c 2a af 83 bc ff 72 aa bc
       0.030595742 -0.016074736 -0.020806788

action_model._discrete_distribution.branches.1.weight f4 [3, 128]
000000 1a ab be 3b d1 5b c0 ba 07 b4 c7 bc 05 92 f9 3c
       0.0058187367 -0.0014675801 -0.024377836 0.030465135
000010 b8 7c 36 3d 85 24 60 bc 22 07 51 3c 61 b5 19 bd
       0.044552535 -0.013680582 0.012758048 -0.037526492
000020 d2 ce 2b 3c 7f af 9b bc b8 36 ce bc 5f cc 89 bd
       0.0104863215 -0.019004581 -0.025172576 -0.06728434
000030 5f 67 3d 3b bf 15 44 bd 49 53 f9 bc 3b 15 62 bc
       0.0028900725 -0.0478723 -0.030435221 -0.013799007
000040 08 db 61 3d da 28 63 bd e9 30 8b bc d1 86 9c bc
       0.055140525 -0.05545888 -0.016991096 -0.019107254
000050 cd 6c 00 bd 07 d6 87 3c 9e fa 48 3d 78 9d 39 3a
       -0.03135376 0.016581548 0.049067132 0.00070806546
000060 94 0d ec bc ee ef 17 bd 53 d7 21 bd 93 69 09 3d
       -0.028815068 -0.03709405 -0.03951199 0.03354795
000070 7e 0a 88 bd eb ed 24 bd 00 a7 c7 3c 41 15 01 bd
       -0.06642626 -0.04026596 0.024371624 -0.03151441
000080 a2 45 46 bd 5e 2f 1f bb 00 43 fb 3c b3 6c 5f ba
       -0.04840625 -0.0024289708 0.030671597 -0.00085229723
000090 a2 48 3a bd 1b b6 6e bc 5a 6e 05 bd 08 c6 2e bd
       -0.045479424 -0.0145697845 -0.032575943 -0.042669326
0000a0 3d a9 15 bc 44 45 32 3c 20 73 cf ba 75 d7 aa bd
       -0.009134588 0.010880772 -0.0015827157 -0.083418764
0000b0 08 18 56 3d a8 42 2b 3d ca 96 86 3b a5 8b 7f bc
       0.05226901 0.041811615 0.004107331 -0.015597259
0000c0 14 10 58 bd 42 1d 81 bb 61 19 e6 bc ff db e2 bb
       -0.05274971 -0.0039402554 -0.028088273 -0.0069231982
0000d0 b1 29 e5 bc 7f b3 51 3c 9e 94 05 bd 92 be 12 bb
       -0.027973982 0.012799143 -0.032612436 -0.002239142
0000e0 96 06 1b 37 2a 42 be bc c9 6f 98 ba 78 fd 4d bc
       9.240253e-06 -0.023224909 -0.0011629994 -0.012572639
0000f0 3e 60 54 bc d6 92 f5 3c f8 4c f1 bb 18 01 01 3b
       -0.012962399 0.029977243 -0.0073639117 0.001968449
000100 4c 49 c2 bd 96 63 0e 3c 55 00 d7 bc c8 18 f1 3c
       -0.094866365 0.008690735 -0.026245276 0.029430762
000110 3a d6 66 bc 32 d6 93 bc 93 33 80 3b bc 0d 13 bd
       -0.0140891615 -0.018046472 0.003912398 -0.03590177
000120 5c 24 ca bc 7f 12 9c 3c ac 9f f0 bc f0 e2 22 bd
       -0.02467554 0.019051788 -0.029373012 -0.039767206
000130 4f bf 4b bd 63 d8 b3 bc 67 d5 04 bd c2 87 56 3d
       -0.049742993 -0.021953767 -0.03243008 0.052375562
000140 4c f0 2d bc 1c 5e 10 3d 48 91 54 bd 9d 60 c6 bc
       -0.010616373 0.035246 -0.051896363 -0.02421599
000150 f0 18 e3 3c e9 98 5f 3c c1 92 2c 3c 3f e9 6a bc
       0.027721852 0.0136472965 0.010533036 -0.014337837
000160 e9 ca 27 bd 67 13 38 bc 88 b6 90 bc b8 f2 02 3d
       -0.040964995 -0.011235095 -0.017665163 0.031969756
000170 75 7d f7 3a ba 2f bf 3b e2 56 9d bc 95 21 b1 bc
       0.0018881994 0.005834547 -0.019206468 -0.021622458
000180 73 5c 54 bc 4f 88 0d 3d a3 00 9f 3c e7 d4 b6 3c
       -0.012961495 0.034553822 0.019409483 0.022318317
000190 65 78 3e bc 34 32 09 3d 3c 73 34 3d a2 c2 52 bc
       -0.011625384 0.033495143 0.04405521 -0.012863787
0001a0 05 d2 25 bd 1d ba f3 bc 48 13 b0 3a 16 b1 53 bd
       -0.040483493 -0.029751832 0.0013433481 -0.051682554
0001b0 3b d9 b3 3c a3 17 3b bd 05 05 cd bc bf 10 81 3c
       0.02195417 -0.04567684 -0.025026808 0.015755055
0001c0 58 5b 63 bc f9 2f 1c bb 62 92 2a bd df ee 84 bb
       -0.0138767585 -0.0023832305 -0.041643508 -0.004056796
0001d0 84 45 24 bd 6b 96 bf 3c a7 0d f6 bc 93 2f 53 bc
       -0.040105358 0.023387155 -0.030035807 -0.012889761
0001e0 cf ac c0 b9 94 44 ae bb 9f 08 12 3c db 04 89 ba
       -0.00036749846 -0.0053182337 0.008913188 -0.0010453718
0001f0 8b b6 8e 3b 17 f7 45 3c 71 b7 de bc 7c d0 9e bc
       0.004355257 0.012082837 -0.027187081 -0.019386522
000200 61 74 85 bc 7e a3 4d bc 4a e2 22 bc 90 c7 da 3c
       -0.016290845 -0.012551187 -0.009941647 0.026706487
000210 39 e2 1c 3c f2 55 ae bd 09 2f f7 bc 4f 3c 3a 3c
       0.00957542 -0.085124865 -0.030173795 0.011366918
000220 ca 71 00 3d 0b 78 35 3c 56 0d 75 bb 6a fe 57 3c
       0.031358518 0.011075984 -0.0037391982 0.013183216
000230 3d bc 6d 3b 85 3a a6 3b 1c 68 11 bd f5 64 65 bd
       0.003627553 0.005072894 -0.035499677 -0.056004483
000240 40 6c 3d 3c e7 c6 0d bc e0 64 4d bc a3 17 9f 3b
       0.011561453 -0.008653379 -0.0125362575 0.0048551126
000250 d7 d3 06 bc 67 e9 ad 3c c6 54 f1 3b 1a e9 c6 3b
       -0.0082292175 0.021229459 0.007364842 0.0060702683
000260 c2 96 0f bd 42 2a 6c bc 32 af 55 bd 96 5b 0c 3b
       -0.035055883 -0.014414372 -0.052169032 0.0021416894
000270 b5 00 54 bb cf 84 2d bd 20 c7 57 3c 45 73 da 3c
       -0.0032349054 -0.042362984 0.013170034 0.026666293
000280 71 bb 13 3a 98 50 ae 3c 2f 3c 8b bb 1a 33 b9 3c
       0.0005635536 0.021278664 -0.004249118 0.022607375
000290 e5 e7 db 3a d2 23 38 bd 65 00 0f bd a0 e8 6e 3c
       0.0016777484 -0.044956036 -0.034912486 0.014581829
0002a0 45 15 10 bd 97 25 af 3c a5 cd 2e 3b d8 0d 17 3c
       -0.035176534 0.021380229 0.0026672867 0.009219609
0002b0 e7 ed f2 b9 19 a1 f2 bb 9b 0a 39 bc a9 da ac bb
       -0.00046335088 -0.0074044582 -0.011294032 -0.0052750898
0002c0 59 21 54 bd f4 ae 7a ba 77 f8 df 3b d7 e3 ec bc
       -0.051789615 -0.0009562813 0.0068350392 -0.028917236
0002d0 23 9a 54 bc ba 32 83 3c 0e f3 e8 3b a0 dc 9d bc
       -0.012976202 0.0160154 0.0071090525 -0.019270241
0002e0 9d 1e 97 bc 1b 3a 29 bd 8f 96 1f bc 30 f9 79 bc
       -0.018447215 -0.04131518 -0.009740486 -0.015257165
0002f0 9a f7 88 bc f7 57 39 3c ef e3 10 bc 66 80 2a bb
       -0.016719628 0.011312476 -0.008843406 -0.0026016473
000300 1e 8c 9b bc d0 4d b0 bc 81 4f f1 bc 3b d3 98 bb
       -0.018987712 -0.021521479 -0.029456856 -0.0046638525
000310 07 28 72 bc 06 0c cf 3b d4 76 31 ba 54 7c 94 bd
       -0.014780051 0.006318572 -0.0006769721 -0.07250276
000320 0a 8d 80 b9 4b 4e 84 3c a9 7c 49 bc 36 bd ef bb
       -0.00024519145 0.016150614 -0.012297788 -0.007316257
000330 c7 61 67 bd bf 4f 29 bc 09 44 17 bc 5b b7 ad bc
       -0.056489732 -0.010333954 -0.009232529 -0.021205595
000340 cd 0a 1b 3c 10 fd 16 3c a1 e0 e8 3b 84 d4 0d 3c
       0.009463024 0.009215608 0.007106856 0.008656625
000350 5b 35 ad bc 50 1a 28 bc 9d 34 bc bb 5f b6 e1 bc
       -0.021143606 -0.01026018 -0.0057435767 -0.027552782
000360 ca ba e4 bc 17 65 16 3a 09 4d 68 3c 26 44 bc 3b
       -0.0279211 0.00057371095 0.014178523 0.0057454286
000370 aa 94 f1 bb ea d6 3a 3c e2 3c fc 3b 25 65 10 bc
       -0.0073724585 0.011403779 0.0076976875 -0.008813177
000380 f0 56 46 3c 5a 51 ab 3c 6f e3 87 3c 74 ad 6f bc
       0.012105688 0.020912815 0.016587941 -0.014628757
000390 fe 99 0d bc b9 12 20 b8 55 90 0a 3a 49 56 ee ba
       -0.008642672 -3.816441e-05 0.00052857894 -0.0018183674
0003a0 d2 b1 ad bc 88 73 ef bb a9 1c d1 bb ba d0 83 3c
       -0.021202955 -0.0073074736 -0.0063815904 0.01609074
0003b0 c3 62 a3 3c ea 31 d2 bc ba 03 6a 3c 5b 64 e5 bc
       0.019944554 -0.025658567 0.014283115 -0.028001955
0003c0 9f aa 08 bc 00 1d 98 3b 92 f5 b6 bc fb d1 df bb
       -0.0083414605 0.004642129 -0.022333894 -0.0068304515
0003d0 e2 a0 30 bd ce 49 fa bb 94 d4 2d 3a 64 ef 11 3c
       -0.04312218 -0.0076381927 0.0006631103 0.008907173
0003e0 be 6a dd bc 1b ad 9b bc d2 15 02 3c d0 1c cb 3c
       -0.027028438 -0.019003442 0.007939773 0.024794012
0003f0 23 f3 bb 3c 3c 62 c5 3c 22 ba 45 bc 40 86 b8 3c
       0.022943085 0.024094693 -0.012068303 0.022524953

action_model._discrete_distribution.branches.1.bias f4 [3]
000000 d8 c5 0e bd 46 c4 15 3b d2 b6 04 3d
       -0.034856647 0.0022852584 0.032400914

action_model._discrete_distribution.branches.2.weight f4 [3, 128]
000000 a5 ed 0d bd aa 40 03 3d 4f ac 44 bd 32 53 9a 3c
       -0.034650464 0.03204409 -0.04801589 0.018838499
000010 0b 3b a6 bc 91 36 1a bd b6 1b c8 ba 50 b7 ea bc
       -0.020291826 -0.037649695 -0.0015267048 -0.028651863
000020 91 28 24 bb fd 67 d8 bb 7f 3c 8e bc f3 3a 06 bd
       -0.0025048594 -0.0066041932 -0.017362831 -0.032771062
000030 12 e4 3b bd 66 a2 24 bd 55 54 f1 bb f4 8d 4e bc
       -0.0458718 -0.040193938 -0.0073647895 -0.012607086
000040 b7 bc 24 bd 34 07 83 3b 6e 4f 93 bb 36 a6 a2 3c
       -0.040219035 0.0039986614 -0.0044955527 0.019854646
000050 52 f9 93 3b 39 ec 23 bc 19 84 c1 bb a7 7b 51 bb
       0.0045158053 -0.01000505 -0.00590564 -0.0031964572
000060 89 59 04 bd 66 4a 4b bb d3 38 09 3d 2b 96 2f bb
       -0.03231195 -0.0031019687 0.033501457 -0.0026792388
000070 af 59 bb bc ae 86 24 bd c0 dd 1a 3c 89 b8 86 3c
       -0.022869913 -0.040167503 0.009452283 0.016445415
000080 2e 4e 5d bc 6a df 92 bc 83 4c c4 3b 63 7f a7 bc
       -0.013507409 -0.017928798 0.005990566 -0.020446485
000090 27 db a2 bc 6c 50 ee bc 23 bc e0 3a ff 59 01 3e
       -0.01987989 -0.029091083 0.0017145913 0.12631987
0000a0 e7 ad d1 3c 00 79 6b bc f2 b9 17 bd 17 77 cb bc
       0.025595618 -0.01437211 -0.037042566 -0.02483706
0000b0 d1 6a fe bc dc e0 69 bd e6 94 f5 bc 90 87 56 3d
       -0.031056793 -0.05709921 -0.029978227 0.052375376
0000c0 99 99 24 3b d4 ba 32 bd f3 a6 dc bc 99 cd 25 bd
       0.0025115965 -0.043635204 -0.026935076 -0.040479276
0000d0 9b a4 14 bd 4b ad f3 bc 7f d6 a2 3b 73 da fc 3c
       -0.036289793 -0.029745718 0.0049694176 0.030865883
0000e0 66 51 95 bc 5a a1 ef bc c4 dd 0c bb 76 3a 01 bd
       -0.01822729 -0.029251743 -0.0021494487 -0.031549893
0000f0 60 4c 02 3d 87 13 d8 3c 62 80 f0 bc 34 84 82 3d
       0.031811118 0.026376499 -0.029358093 0.06372872
000100 85 60 f8 bc 71 0b 6b bc 21 df 71 3c f8 2a 1a bd
       -0.030319462 -0.01434599 0.014762671 -0.037638634
000110 93 8d 81 3c d6 aa 3c bd 58 72 c3 3c 6f 56 ad bc
       0.015814578 -0.04606136 0.023858234 -0.021159379
000120 27 a0 46 3d ab 5d cc bb df 06 ed 3b c3 a1 2b 3c
       0.048492577 -0.006236752 0.007233485 0.010475579
000130 97 a9 5a bc 34 47 46 bd 3d 89 5f bd cb 55 84 3d
       -0.013346097 -0.04840775 -0.05457424 0.06461676
000140 92 31 ad 39 32 c9 c1 3c 8d d7 e6 bc 84 ef 93 3b
       0.00033034064 0.023655508 -0.028178954 0.0045146365
000150 a2 4c 7b 3d 38 01 da 39 e8 ee f9 3b 3e 52 45 bc
       0.06135238 0.00041581108 0.007627357 -0.012043534
000160 54 74 32 bd 92 63 91 bc 46 50 29 3c b7 4d 29 bd
       -0.04356797 -0.017747674 0.01033408 -0.04133388
000170 51 9a de bc bd d1 2a bd d5 49 91 bd 81 3f 7f bc
       -0.027173193 -0.04170393 -0.070941605 -0.015579105
000180 ad de fa 3c d4 57 f7 ba af 46 05 bd 75 18 91 bb
       0.030623758 -0.0018870779 -0.032538112 -0.0044279643
000190 31 f3 2b 3d 72 e9 99 3c 82 64 04 3b 85 c1 99 3c
       0.041979972 0.018788073 0.002020151 0.018769035
0001a0 de 60 46 bc f1 1e 2c 3d b2 00 60 bc 96 2d 9f bc
       -0.012108056 0.042021696 -0.013672041 -0.019430917
0001b0 c2 98 ae 3d 6a e6 9d 3d 76 87 27 bd f5 fd a1 3c
       0.0852523 0.077099636 -0.04090067 0.019774416
0001c0 10 32 54 bc 00 49 14 bd 91 92 60 bc c7 16 55 3b
       -0.012951389 -0.03620243 -0.013706819 0.0032514797
0001d0 2e 8f 68 bd 96 e5 8b bd 1c 7e 49 bd 29 86 06 bc
       -0.05677717 -0.068308994 -0.049192533 -0.008210697
0001e0 ff 37 66 bd b1 65 56 bc 62 ee 18 bd ad de 32 3c
       -0.056205746 -0.013085769 -0.037336715 0.010917348
0001f0 21 b9 5b bc bd 4a 04 bd 83 eb 8f 3d 12 29 f8 bc
       -0.013410837 -0.03229784 0.07027342 -0.030293021
000200 18 96 97 3c 7f 2c 4b bc 47 38 35 bd 7c 85 e3 ba
       0.018504187 -0.012400745 -0.044243123 -0.0017358507
000210 cd be ec bb b3 99 05 bd 95 bb 24 3d 03 2b 58 3b
       -0.0072248937 -0.032617282 0.040217955 0.0032984621
000220 8a b1 b0 bc 6f 65 cd bb c2 18 12 3c 94 0a 67 bc
       -0.021569032 -0.0062681953 0.008917036 -0.014101643
000230 be bc d8 bc 05 38 a4 bb 8f 15 25 3d 66 96 15 3c
       -0.026457187 -0.005011561 0.040303763 0.009130096
000240 22 a3 0f bc 22 64 29 3a 90 39 df 3c 68 b3 2e bc
       -0.008766921 0.00064617593 0.027249128 -0.010662891
000250 6e bb fc bb 82 95 ad 39 45 5b fd 3a 7a 34 23 3c
       -0.007712773 0.00033108523 0.0019329569 0.009961242
000260 b1 78 d6 3b f8 8d 38 3a af 1f 45 3d fd 4f 2d bb
       0.0065451493 0.0007040198 0.04812592 -0.0026445382
000270 82 4c 15 3c a2 97 13 3a bd 92 1b 3a 2e 26 8e 3c
       0.009112479 0.00056302 0.00059346465 0.01735219
000280 8e 82 27 3d 20 90 f4 bb df ad bd bd ef 6f 5d bd
       0.04089599 -0.00746347 -0.09261679 -0.054061826
000290 95 32 3e bd 2b 17 c0 3c c3 b0 43 3d af 78 0f bc
       -0.046434958 0.023448547 0.047775995 -0.008756801
0002a0 f3 e4 a5 bd 96 06 ef bc 49 60 aa 3c 0b 58 30 3c
       -0.08100309 -0.029177945 0.020797865 0.010763179
0002b0 68 a0 a0 3a 2a c3 8c 3d 5d 3d 91 3c cd 72 01 3c
       0.0012254836 0.06873162 0.017729456 0.007900906
0002c0 99 65 32 3d 1a b8 f6 3c 4b a0 60 bc ce 86 94 bc
       0.043553922 0.030117083 -0.013710092 -0.018130686
0002d0 ce ce 4c 3c a5 67 c5 3c b0 92 fd bb 60 f2 0c 3c
       0.012500478 0.024097273 -0.007738434 0.008602709
0002e0 af 81 90 bd 23 ef 66 3d c3 01 29 3c 73 fc 2e bd
       -0.07055985 0.056380402 0.010315361 -0.042721223
0002f0 11 73 b3 3c 65 32 2a 3d 4d 11 9a bd 70 6a f7 3b
       0.021905454 0.041551966 -0.07522831 0.00755053
000300 4f b2 1f ba 3e e1 8f 3b 36 a5 3f 3d b4 bb 04 3d
       -0.00060919387 0.0043908646 0.046788417 0.03240557
000310 8a 36 4e 3c f7 dc ac bc 23 c4 71 3b e1 b3 32 3d
       0.012586245 -0.021101458 0.0036890588 0.043628577
000320 05 84 d5 3c 3f 63 ff bc 3f 59 38 bd 8b 40 f5 3c
       0.026063928 -0.031175254 -0.045006987 0.029938003
000330 4d f4 49 3d 92 14 cc 3b 35 9e c4 3b cd 0b eb 3c
       0.04930525 0.006228038 0.006000305 0.02869215
000340 e3 2e 0c 3c 7a 8c 94 bd e2 c0 01 bd 8c c4 ef 3c
       0.008556101 -0.07253356 -0.031678088 0.029268526
000350 ca 64 08 3d 56 f3 cb bc b6 57 01 bd 74 8b 6e 3c
       0.033299245 -0.024896305 -0.03157779 0.014559615
000360 9e 07 5d bc 99 6f 2f bd ee 81 04 bc c7 ca ba bc
       -0.013490586 -0.042831037 -0.008087618 -0.02280177
000370 8b 56 95 bb 54 3a 17 3c 26 6f 90 bd 9b 1d 2e bd
       -0.004557436 0.009230215 -0.0705245 -0.042508703
000380 a3 13 48 bd c0 44 a6 ba c2 e0 46 bc 17 7f 1e 3b
       -0.048846852 -0.0012685284 -0.012138547 0.0024184638
000390 37 34 49 3d 60 eb 60 3b 30 74 21 bd d8 6b e0 3b
       0.04912206 0.0034319982 -0.039417446 0.0068487935
0003a0 2f a3 e9 3c e1 b2 0e 3d da 85 8c 3c 54 b7 81 3b
       0.028520195 0.03483856 0.01715367 0.003958622
0003b0 19 82 92 bc 8f 88 68 bc 31 37 ed 3b 93 4b 59 bd
       -0.017884301 -0.014192714 0.0072392453 -0.05305059
0003c0 97 ba 0b 3d b0 37 af bc 3c 97 06 bc a9 be 3b ba
       0.034113493 -0.021388859 -0.008214768 -0.00071618945
0003d0 7c 01 60 3d 33 c6 c4 bb e0 fe 89 bc 9e 2e 6c 3c
       0.054688916 -0.0060050725 -0.016845167 0.014415411
0003e0 22 e2 3f bb 79 3e 9c 3c 4d cf 66 bc c0 ed 07 bc
       -0.0029279073 0.019072758 -0.01408751 -0.00829643
0003f0 91 e0 9c bc 6a 01 97 bc 4f 3d f3 3c a0 ef eb 3c
       -0.01915005 -0.018433291 0.02969232 0.028800786

action_model._discrete_distribution.branches.2.bias f4 [3]
000000 e9 6e d0 3a 95 9c 20 ba 82 78 47 b9
       0.0015902194 -0.0006126848 -0.00019023012
