ArmRobot/Assets/results/normalizado6/TouchCubeMoveGail/TouchCubeMoveGail-5499998.onnx (onnx, 146657 bytes, 22 tensors)

170 f4 [114]
0.00042640147 0.00042640147 0.00042640147 0.00042640147 0.00042640147 0.00042640147 0.0006030168 0.00042640147
0.00042797657 0.00042640147 0.00042640147 0.2263869 0.00042640147 0.13999102 0.018612329 0.0004312915
0.02238449 0.14645047 0.18404877 0.22995059 0.15211232 0.07611686 0.06574807 0.069667555
0.16380535 0.17561476 0.3321023 0.23101515 0.119255595 0.15162803 0.1018251 0.32904455
0.2688521 0.29269454 0.21299419 0.11817478 0.18071188 0.106450014 0.36854511 0.26719648
0.29676023 0.22458406 0.11963362 0.20495944 0.11272305 0.36584672 0.25194615 0.27829775
0.23576584 0.13290387 0.22845426 0.120367914 0.24141173 0.2363749 0.38281742 0.37499556
0.13108544 0.21753307 0.12417756 0.24141172 0.2363749 0.38281742 0.37499556 0.13027704
0.2261803 0.122807786 0.24141172 0.2363749 0.38281742 0.37499556 0.2891903 0.347816
0.463292 0.34473923 0.45300812 0.33655494 0.47335494 0.37714726 0.3375114 0.24193484
0.36695275 0.52358466 0.44146582 0.4386509 0.3841557 0.3890334 0.00042640147 0.35242185
0.2033879 0.017562747 0.0068322006 0.025941933 0.11076118 0.3263808 0.10030897 0.1092534
0.32722744 0.09900967 0.00042640147 0.00042640147 0.00042640147 0.00042640147 0.00042640147 0.00042640147
0.00042640147 0.00042640147 0.00042640147 0.31314158 0.29454765 0.22754222 0.4163544 0.45635533
0.1586102 0.3778354
00000000: a38e df39 a38e df39 a38e df39 a38e df39
00000010: a38e df39 a38e df39 c613 1e3a a38e df39
00000020: 0b62 e039 a38e df39 a38e df39 f8d1 673e
00000030: a38e df39 ce59 0f3e e278 983c f71e e239
00000040: ae5f b73c 1df7 153e 4877 3c3e 2b78 6b3e
00000050: 55c3 1b3e 28e3 9b3d eda6 863d ddad 8e3d
00000060: 97bc 273e 5bd4 333e 5009 aa3e 3c8f 6c3e
00000070: 473c f43d 6144 1b3e ae89 d03d 8778 a83e
00000080: fca6 893e 0fdc 953e 261b 5a3e 9e05 f23d
00000090: 890c 393e 7702 da3d f2b1 bc3e facd 883e
000000a0: f5f0 973e 5df9 653e 7902 f53d e3e0 513e
000000b0: 58db e63d 4350 bb3e 16ff 803e 0b7d 8e3e
000000c0: 9a6c 713e f417 083e eaef 693e 7483 f63d
000000d0: a334 773e 430c 723e a500 c43e 6bff bf3e
000000e0: 433b 063e fdc0 5e3e ce50 fe3d a234 773e
000000f0: 430c 723e a500 c43e 6bff bf3e 5867 053e
00000100: cf9b 673e a682 fb3d a234 773e 430c 723e
00000110: a500 c43e 6bff bf3e c010 943e f014 b23e
00000120: 9c34 ed3e a981 b03e aef0 e73e ee50 ac3e
00000130: 945b f23e 7219 c13e 4bce ac3e c4bd 773e
00000140: 3be1 bb3e a509 063f cf07 e23e da96 e03e
00000150: 0eb0 c43e 632f c73e a38e df39 a370 b43e
00000160: eb44 503e c0df 8f3c a7e0 df3b 2d84 d43c
00000170: c2d6 e23d 621b a73e ca6e cd3d 3fc0 df3d
00000180: 5b8a a73e 95c5 ca3d a38e df39 a38e df39
00000190: a38e df39 a38e df39 a38e df39 a38e df39
000001a0: a38e df39 a38e df39 a38e df39 1854 a03e
000001b0: f3ce 963e d400 693e 672c d53e 68a7 e93e
000001c0: b66a 223e a473 c13e

action_model._discrete_distribution.branches.0.bias f4 [3]
-0.065600604 0.02635272 0.028915152
00000000: 9c59 86bd a9e1 d73c 78df ec3c

action_model._discrete_distribution.branches.0.weight f4 [3, 128]
0.023178726 0.1602419 -0.050445974 -0.4746651 0.05630495 -0.2784059 0.0954801 0.048451036
0.12285569 0.12131597 -0.026541151 -0.15160954 -0.058026962 -0.018495357 -0.27223074 0.036223777
-0.37569728 0.03198142 0.06142459 -0.06342261 -0.066858664 0.12778835 -0.2140417 -0.011794565
-0.10421358 -0.20392716 -0.083744384 -0.065793514 -0.094287634 -0.11025927 -0.12576129 -0.0075593176
-0.12427863 -0.14207828 -0.039795566 -0.11858194 -0.30398083 -0.19900578 -0.015239229 -0.015062834
-0.2343572 0.13579534 -0.09075885 -0.11465356 -0.04134572 0.030430656 -0.034805976 -0.1348476
0.026570946 -0.14466488 -0.11705399 -0.028459685 0.044968173 0.016822152 -0.021498231 0.14256594
0.009625388 -0.058863815 0.045166254 -0.11412755 -0.0026860884 0.071337394 0.0025375965 0.032999355
-0.012690333 -0.057194594 -0.09149706 -0.02471054 0.17088862 -0.0018132051 -0.1218606 -0.0077897543
-0.010956494 0.072571166 -0.022775358 0.14318189 0.02555488 -0.18157203 0.019040665 -0.13414943
0.14921254 0.04466701 -0.14260098 -0.12894368 -0.22571826 0.06407499 -0.043730497 -0.111666955
-0.048252597 0.112509385 -0.10279194 -0.037198793 -0.1560252 -0.20281518 -0.02702924 0.018109284
-0.12026498 0.07067041 0.049706288 0.13230278 0.05221974 -0.09633666 -0.07951014 -0.094504386
-0.18743299 0.14793245 0.060737755 0.0026077412 -0.15802447 -0.036037248 0.15602486 -0.03588157
0.06724791 0.07944173 0.0048946654 0.03314147 -0.103962235 -0.12866957 -0.18676656 0.018214747
-0.07640811 0.036661483 -0.03635259 -0.050913513 0.02632617 -0.11519184 -0.0026979325 -0.07502551
-0.008960678 -0.055482183 -0.09056725 -0.0017654493 0.021380015 -0.114195585 0.028058302 0.08429453
0.025128216 -0.03157145 0.019396635 -0.17860663 0.072804525 0.08319334 -0.030108746 -0.038962416
-0.024296883 -0.03492164 0.0548373 0.011197011 -0.04580088 0.08995096 -0.15224308 -0.045572188
-0.042229403 0.010771483 -0.023116367 0.029842166 0.06608952 0.018632626 0.13609101 0.059974924
-0.05487674 0.101925924 -0.06627863 0.1408186 -0.049573068 0.0062003206 -0.044693723 -0.00013571756
0.0439495 -0.04771653 -0.017558977 -0.07064064 0.006929873 -0.005123879 0.06969229 0.049553066
0.0068933056 0.021817371 0.033911992 0.027628222 0.010980091 0.046823416 -0.06394221 0.07384747
0.04755541 0.06959213 0.07571558 -0.020695219 -0.028798418 0.056614324 -0.042748064 -0.07175937
-0.05214557 0.06908376 -0.09401418 0.020133793 -0.031037532 -0.016597088 0.045060012 0.07193904
0.08626329 0.034778047 0.028954959 -0.057477303 -0.025613355 -0.0048619304 -0.0050014756 0.10890489
-0.0035437553 0.022777835 -0.0066763875 0.07729126 -0.0016811654 0.051441845 -0.02733008 -0.21515818
0.03024051 -0.040054347 0.07280638 0.054751612 0.031442992 0.06180549 -0.03925278 0.13610108
-0.029409016 0.0004133646 0.034955382 0.03170438 0.032190554 -0.0047876867 -0.05002591 0.023231868
-0.13490947 -0.051580653 -0.0027049526 0.0037214393 0.08237713 0.023968508 0.010180694 0.004518752
-0.09679658 -0.02581565 -0.0014781151 -0.0016609305 0.014672913 -0.014776455 -0.035489485 -0.027152868
0.033747707 0.029894197 0.010069841 -0.004494905 -0.012941548 0.024643729 0.008750068 -0.054837696
00000000: 50e1 bd3c 7416 243e 70a0 4ebd 4e07 f3be
00000010: 05a0 663d 388b 8ebe 128b c33d 9874 463d
00000020: c49b fb3d 8274 f83d d46c d9bc 883f 1bbe
00000030: aead 6dbd 9383 97bc d461 8bbe 625f 143d
00000040: 655b c0be f3fe 023d 5a98 7b3d b7e3 81bd
00000050: 32ed 88bd f3da 023e bf2d 5bbe fe3d 41bc
00000060: ee6d d5bd 48d2 50be 2d82 abbd c0be 86bd
00000070: e019 c1bd 9dcf e1bd 91c7 00be 27b4 f7bb
00000080: cb85 febd f87c 11be ad00 23bd 17db f2bd
00000090: 60a3 9bbe 2cc8 4bbe f6ad 79bc 1bca 76bc
000000a0: 55fb 6fbe ef0d 0b3e c7df b9bd 7ccf eabd
000000b0: 215a 29bd b649 f93c b690 0ebd 7d15 0abe
000000c0: 50ab d93c 0823 14be 01ba efbd 4924 e9bc
000000d0: 8c30 383d 9cce 893c 0f1d b0bc cefc 113e
000000e0: ceb3 1d3c 2f1b 71bd 4000 393d b4bb e9bd
000000f0: 1609 30bb 5719 923d ce4d 263b 552a 073d
00000100: 1deb 4fbc e144 6abd d062 bbbd c26d cabc
00000110: 6dfd 2e3e 11a9 edba 0d92 f9bd 3241 ffbb
00000120: de82 33bc 31a0 943d 6393 babc 469e 123e
00000130: 7858 d13c 05ee 39be 2bfb 9b3c 785e 09be
00000140: 2ccb 183e c1f4 363d fe05 12be d009 04be
00000150: b022 67be c039 833d c01e 33bd a5b1 e4bd
00000160: 84a4 45bd 526b e63d 9584 d2bd c35d 18bd
00000170: 12c5 1fbe c8ae 4fbe 6d6c ddbc ec59 943c
00000180: 7c4d f6bd a6bb 903d d298 4b3d 617a 073e
00000190: 5ee4 553d 284c c5bd 36d6 a2bd 848b c1bd
000001a0: 6fee 3fbe 9b7b 173e 27c8 783d a3e6 2a3b
000001b0: 2bd1 21be cb9b 13bd fbc4 1f3e 8ef8 12bd
000001c0: 46b9 893d 59b2 a23d 6e63 a03b 5abf 073d
000001d0: 27ea d4bd f5c1 03be bc3f 3fbe 1837 953c
000001e0: db7b 9cbd 5a2a 163d 74e6 14bd b08a 50bd
000001f0: fba9 d73c b3e9 ebbd cccf 30bb f9a6 99bd
00000200: cfcf 12bc 4941 63bd 537b b9bd a666 e7ba
00000210: 2425 af3c 60df e9bd 86da e53c 9ca2 ac3d
00000220: b0d9 cd3c 1151 01bd b1e5 9e3c a8e4 36be
00000230: 8a1a 953d 4561 aa3d 9ea6 f6bc 0e97 1fbd
00000240: 420a c7bc fe09 0fbd 149d 603d ab73 373c
00000250: b499 3bbd 3538 b83d 9ce5 1bbe e7a9 3abd
00000260: bdf8 2cbd e07a 303c 895e bdbc 8f77 f43c
00000270: f159 873d 73a3 983c 715b 0b3e 44a8 753d
00000280: 6fc6 60bd 8abe d03d 17bd 87bd c032 103e
00000290: 210d 4bbd 0f2c cb3b c410 37bd 684f 0eb9
000002a0: 6404 343d 6872 43bd d8d7 8fbc 0aac 90bd
000002b0: fd13 e33b 36e6 a7bb d5ba 8e3d 28f8 4a3d
000002c0: 3de1 e13b 58ba b23c 4de7 0a3d 9554 e23c
000002d0: d7e5 333c e9c9 3f3d 22f4 82bd 583d 973d
000002e0: 76c9 423d 5286 8e3d c510 9b3d 0589 a9bc
000002f0: a9ea ebbc 6ce4 673d 9818 2fbd 94f6 92bd
00000300: 9896 55bd c97b 8d3d 828a c0bd a0ef a43c
00000310: 6c42 febc 9ef6 87bc d990 383d c754 933d
00000320: cfaa b03d 6d73 0e3d f332 ed3c 526d 6bbd
00000330: 19d3 d1bc d450 9fbb 6be3 a3bb 8709 df3d
00000340: 593e 68bb 9598 ba3c 99c5 dabb e14a 9e3d
00000350: 8d5a dcba afb4 523d 55e3 dfbc 6d52 5cbe
00000360: f2ba f73c 0710 24bd 831b 953d 3a43 603d
00000370: 5eca 003d c127 7d3d 86c7 20bd 155e 0b3e
00000380: 2deb f0bc dcb8 d839 602d 0f3d 74dc 013d
00000390: 3eda 033d 07e2 9cbb f8e7 4cbd c250 be3c
000003a0: b525 0abe 3c46 53bd 9345 31bb 64e3 733b
000003b0: 57b5 a83d 9b59 c43c edcc 263c 0a12 943b
000003c0: 493d c6bd 587b d3bc 50bd c1ba 94b3 d9ba
000003d0: a866 703c f218 72bc 6c5d 11bd b16f debc
000003e0: 093b 0a3d ade4 f43c f9fb 243c ff49 93bb
000003f0: c908 54bc a5e1 c93c 725c 0f3c 7e9d 60bd

action_model._discrete_distribution.branches.1.bias f4 [3]
0.017991848 -0.016795097 0.010552216
00000000: a463 933c df95 89bc 34e3 2c3c

action_model._discrete_distribution.branches.1.weight f4 [3, 128]
0.012699959 0.051109597 0.099819474 -0.24276248 -0.032801095 -0.1993885 0.048521582 -0.094441086
-0.02264175 0.059835736 -0.009810652 -0.16097625 0.082998075 0.04797906 -0.35805538 0.031482723
-0.19014412 0.086365625 0.033168066 -0.09207539 0.023616048 0.033781044 -0.15969647 0.097061746
0.070683636 -0.20464225 -0.2600639 -0.15132673 -0.13298221 0.073016606 -0.1376536 -0.09339336
0.108551905 0.15106513 0.019517425 -0.09863944 -0.18326576 -0.090182 -0.12681356 0.07656999
-0.070738636 -0.06096394 0.07707397 -0.054955546 -0.10487165 0.13868779 0.02975755 -0.04321295
0.042284623 -0.06745032 -0.12348317 -0.07555212 0.026110342 -0.14239769 -0.007558867 -0.026251625
-0.07264585 0.11550421 0.048655752 -0.03051203 0.13357806 -0.035883427 0.12190143 0.05650811
-0.036852185 -0.0919529 0.04578556 -0.0048494614 0.13157912 0.04106362 -0.009867445 -0.05298936
0.0075857705 0.12611721 -0.08558886 0.15785274 0.052510045 -0.18708184 -0.0023020923 -0.02719414
0.13252544 0.117532924 -0.04872279 -0.08351276 -0.2852463 -0.13627313 -0.0074273413 -0.14851099
-0.0059813065 -0.06418924 -0.08809086 -0.13240215 -0.10493558 0.02948625 -0.14858656 -0.15833132
0.012356713 0.07405055 -0.044817172 0.03690893 -0.03818461 -0.0062344614 -0.0020269896 0.02658187
-0.21920711 0.1502036 0.09496275 -0.09729318 -0.012649655 0.1033901 -0.0017423098 -0.087483175
-0.13686362 -0.09796164 0.08481378 -0.08662182 0.062064536 -0.0018620344 -0.029541606 -0.020500349
-0.14250366 -0.08873907 0.036526058 0.002739914 -0.2650092 -0.11446674 0.05027277 -0.042231616
0.070089854 0.06462661 0.08424812 0.0030495957 -0.030898053 0.07576705 -0.07137047 -0.016599055
-0.03380389 0.012445619 -0.06861347 0.040164348 0.004381962 -0.03435738 -0.016949926 0.036038984
-0.0275787 0.120705076 0.025674293 -0.040717673 0.078595 0.053250067 0.06036823 -0.028809715
0.021433413 -0.010689172 -0.17596473 -0.124645375 -0.055884536 -0.02344646 0.034737416 0.03155234
0.0122728655 0.003495048 0.0012193758 0.050035857 -0.01679617 -0.10284939 0.043542385 0.034201574
0.03104277 0.004774184 0.1276622 0.0010625932 0.00014271826 0.025103737 0.07094194 -0.043484688
0.015227694 0.014074092 -0.1097909 -0.06365425 0.03268893 -0.22705415 0.03710687 0.007018898
-0.10302388 0.09761897 -0.0134060355 0.004279205 0.06235172 -0.060162652 0.007974919 0.032017834
0.09549011 -0.0367413 -0.09132443 0.023888275 -0.021334983 0.06650904 -0.10708223 -0.0029314305
0.01763482 -0.017923838 0.04636005 0.04053789 0.055574913 -0.012890421 0.016640723 0.00034989306
-0.033534918 -0.017947048 0.009174611 0.048791505 -0.13846876 0.024280978 0.021675918 0.076133735
0.011008807 0.0074137906 0.049349546 -0.04353258 -0.057476945 -0.049255252 -0.064368926 -0.021937208
0.01405004 -0.012757473 0.0016098757 0.019816184 0.05208576 -0.015797576 0.01507669 0.07114541
0.048779033 -0.011459492 -0.0062775877 -0.027512658 0.05587389 0.017298684 -0.04776061 -0.16833769
0.01320985 -0.035160337 0.04776443 0.004666157 -0.052170333 -0.0051952484 0.024170581 0.052727133
-0.1840033 0.064968266 0.060394507 0.061145384 -0.15911128 0.001142354 0.024135903 0.07759328
00000000: 7d13 503c 4c58 513d 276e cc3d ba96 78be
00000010: 715a 06bd 802c 4cbe 91be 463d 546a c1bd
00000020: 317b b9bc 5116 753d dbbc 20bc f5d6 24be
00000030: e5fa a93d b185 443d 0953 b7be 07f4 003d
00000040: 24b5 42be 76e0 b03d 3ddb 073d 0692 bcbd
00000050: 7176 c13c fe5d 0a3d 7987 23be 4fc8 c63d
00000060: 95c2 903d bd8d 51be 1827 85be 65f5 1abe
00000070: 7d2c 08be bb89 953d 11f5 0cbe 0545 bfbd
00000080: 7650 de3d d1b0 1a3e 02e3 9f3c 7a03 cabd
00000090: 05aa 3bbe 57b1 b8bd 6adb 01be bad0 9c3d
000000a0: 6bdf 90bd 53b5 79bd f5d8 9d3d 1119 61bd
000000b0: f3c6 d6bd 2c04 0e3e 1bc6 f33c 1000 31bd
000000c0: a432 2d3d 6523 8abd bfe4 fcbd 12bb 9abd
000000d0: 5be5 d53c b3d0 11be 5fb0 f7bb a60d d7bc
000000e0: 59c7 94bd 798d ec3d 414b 473d 5df4 f9bc
000000f0: b0c8 083e 80fa 12bd 75a7 f93d 0c75 673d
00000100: 51f2 16bd cd51 bcbd a489 3b3d 3be8 9ebb
00000110: adbc 063e 5432 283d 10ab 21bc 5f0b 59bd
00000120: 0e92 f83b df24 013e 3649 afbd 26a4 213e
00000130: c614 573d 6292 3fbe b3de 16bb 3fc6 debc
00000140: c0b4 073e 1ab5 f03d 8c91 47bd bd08 abbd
00000150: ce0b 92be 2f8b 0bbe 0e61 f3bb 4413 18be
00000160: d6fe c3bb a675 83bd fb68 b4bd 6e94 07be
00000170: 77e8 d6bd 268d f13c 1327 18be 9b21 22be
00000180: d073 4a3c d1a7 973d 3692 37bd d12d 173d
00000190: 7767 1cbd 744a ccbb 3ed7 04bb 39c2 d93c
000001a0: d477 60be f9ce 193e d57b c23d a641 c7bd
000001b0: 8040 4fbc 30be d33d 375e e4ba 612a b3bd
000001c0: fa25 0cbe 1da0 c8bd d9b2 ad3d c866 b1bd
000001d0: 6237 7e3d 820f f4ba 3d01 f2bc 59f0 a7bc
000001e0: 7bec 11be d4bc b5bd 599c 153d 2190 333b
000001f0: 49af 87be 8a6d eabd d2ea 4d3d 0ffb 2cbd
00000200: 458b 8f3d f55a 843d 478a ac3d badb 473b
00000210: ea1d fdbc c12b 9b3d ae2a 92bd befa 87bc
00000220: f375 0abd b6e8 4b3c 3885 8cbd 5f83 243d
00000230: 9096 8f3b 53ba 0cbd 92da 8abc 9d9d 133d
00000240: baec e1bc 3934 f73d e552 d23c 93c7 26bd
00000250: 6af6 a03d be1c 5a3d ad44 773d 5a02 ecbc
00000260: 2095 af3c a321 2fbc 1930 34be 1346 ffbd
00000270: 2fe7 64bd ca12 c0bc d248 0e3d 073d 013d
00000280: 2114 493c 2d0d 653b 76d3 9f3a 66f2 4c3d
00000290: 1f98 89bc b3a2 d2bd 8059 323d f316 0c3d
000002a0: 684d fe3c c270 9c3b e1b9 023e b646 8b3a
000002b0: a4a6 1539 5aa6 cd3c 024a 913d 001d 32bd
000002c0: 947d 793c 0597 663c 0dda e0bd 295d 82bd
000002d0: d4e4 053d e280 68be 60fd 173d c9fe e53b
000002e0: 2ffe d2bd 74ec c73d fda4 5bbc 9338 8c3b
000002f0: 8464 7f3d 1d6d 76bd 3ca9 023c 2225 033d
00000300: 5290 c33d 0c7e 16bd 4e08 bbbd 58b1 c33c
00000310: b4c6 aebc e435 883d ee4d dbbd 3e1d 40bb
00000320: e676 903c 03d5 92bc 09e4 3d3d 0f0b 263d
00000330: 85a2 633d 5832 53bc 2052 883c da71 b739
00000340: e95b 09bd b005 93bc 1c51 163c 9ad9 473d
00000350: c1ca 0dbe e7e8 c63c b291 b13c 01ec 9b3d
00000360: 495e 343c 62ef f23b c022 4a3d 384f 32bd
00000370: f26c 6bbd e0bf 49bd dbd3 83bd a9b5 b3bc
00000380: 2432 663c b804 51bc 7702 d33a 8d55 a23c
00000390: e157 553d eb69 81bc 3904 773c afb4 913d
000003a0: 86cc 473d 98c0 3bbc 39b4 cdbb 3a62 e1bc
000003b0: 05dc 643d f8b5 8d3c a1a0 43bd b760 2cbe
000003c0: 206e 583c 4904 10bd a3a4 433d 90e6 983b
000003d0: 8fb0 55bd e73c aabb 6201 c63c 68f8 573d
000003e0: 5c6b 3cbe 150e 853d 3b60 773d 9573 7a3d
000003f0: 11ee 22be 0abb 953a a8b8 c53c 3ae9 9e3d

action_model._discrete_distribution.branches.2.bias f4 [3]
-0.02529762 0.025751399 -0.009808404
00000000: f43c cfbc 99f4 d23c 6eb3 20bc

action_model._discrete_distribution.branches.2.weight f4 [3, 128]
0.029878246 -0.029800123 -0.028591916 -0.028014593 -0.070295855 -0.025383173 -0.07494252 0.121748775
-0.07664224 -0.065049954 -0.11173434 0.035445195 0.016089743 0.100997224 -0.04219618 -0.18953337
0.03684379 0.00055588764 0.066535935 -0.04187006 -0.032248914 0.030719647 0.07248223 -0.10695965
-0.2806685 0.049848847 -0.049611103 -0.0074218223 0.09068354 0.07937054 0.12390395 -0.061473563
0.048684787 -0.028300771 -0.11906479 0.110547885 -0.09584314 -0.0622713 0.075369276 0.114148535
0.11973993 0.104131795 0.14338158 -0.038384523 -0.2029596 0.08588164 0.053725198 -0.015754636
-0.03619362 -0.23708528 -0.1022178 -0.15812998 0.08863146 0.006190841 -0.054408357 0.041816078
-0.1595689 0.04108466 -0.12389027 0.11380271 0.12092906 -0.07303342 -0.052366037 -0.007740278
-0.010091865 0.11220802 -0.07394306 0.13503568 -0.16160902 0.116468936 -0.0825945 0.14318307
0.15879405 -0.06283969 0.082912125 -0.0055827624 -0.04002045 -0.020776587 -0.051451273 0.18518691
-0.057165712 -0.102490224 -0.064270474 0.11697245 -0.16297325 0.09762974 0.07211054 0.07904821
0.102536455 0.11735203 0.101752594 0.048901275 -0.10002825 -0.05289498 -0.1213337 0.029656226
-0.017836893 0.16393676 0.040095497 0.11688315 0.18749297 -0.007948537 -0.13851704 -0.01798828
-0.05630756 -0.036618356 0.01693077 0.014000094 0.11895427 0.17584519 -0.01951997 -0.108605266
0.029386584 -0.11870745 0.12933198 -0.14954484 -0.11929075 -0.009336548 0.101934925 0.1773245
0.021977244 0.072365075 -0.09584637 0.06604066 0.018435398 -0.032053918 -0.12208322 0.06454663
0.02944187 -0.066059306 0.012473932 0.03887297 0.0055399192 0.06480784 0.10541667 -0.005132484
0.028445138 0.06982689 0.01937311 -0.06898534 -0.019624995 0.033147287 -0.0062014996 0.05671823
0.007472045 -0.102474816 0.032609027 0.0404487 -0.1545288 0.03501483 -0.030570075 0.0010429523
0.20965555 0.0054744077 -0.0137770185 0.03114415 0.053977422 -0.054368287 -0.020144382 0.032616522
-0.0077689574 -0.070886046 0.08891949 -0.044252887 -0.024047332 -0.0028030702 -0.063723855 -0.05910244
0.015581254 -0.037176304 0.029303169 -0.026889045 0.019255962 0.04725713 -0.034185775 0.04059987
0.020257708 -0.0100278165 0.07943436 0.04752299 4.5440578e-05 -0.009351912 -0.046674468 -0.050953254
0.0022840647 -0.007915988 0.007783009 -0.01115594 -0.051996384 0.029288765 -0.021153694 -0.009658806
0.054181993 0.044705678 0.08058395 -0.0423276 0.085169755 0.057963476 0.052801676 -0.020676523
-0.02227113 0.09773677 -0.086297125 0.063986726 -0.02067367 -0.0016031087 0.019216334 0.014172191
0.03872254 0.075987086 0.04909923 -0.015110773 -0.009542201 0.018274076 -0.019881668 -0.009668329
-0.06987412 -0.020534724 -0.07677874 0.03511449 0.015493159 0.0045054816 -0.046015386 0.03654901
-0.048231285 0.012383353 -0.014446158 -0.11138465 -0.053372175 0.013242906 0.150158 -0.13357134
0.014042368 -0.007770315 0.09215366 0.016250424 -0.025088023 -0.0052313735 0.021421105 0.0017984145
-0.047885388 0.017091842 -0.040609024 -0.06940351 0.052761465 -0.00097102794 -0.060285047 -0.073528506
0.012308724 -0.011393559 -0.007657618 -0.016138334 0.08099315 -0.009107695 -0.014399403 -0.018057905
00000000: 39c3 f43c 631f f4bc 9839 eabc dc7e e5bc
00000010: 46f7 8fbd 5ff0 cfbc 777b 99bd 6c57 f93d
00000020: 9bf6 9cbd e938 85bd f9d4 e4bd fb2e 113d
00000030: a3ce 833c a2d7 ce3d e7d5 2cbd 0915 42be
00000040: 84e9 163d fdb8 113a fe43 883d f17f 2bbd
00000050: 7017 04bd c5a7 fb3c 9071 943d a90d dbbd
00000060: c8b3 8fbe 4e2e 4c3d 0335 4bbd c232 f3bb
00000070: 4bb8 b93d 068d a23d 5bc1 fd3d b4cb 7bbd
00000080: b369 473d 05d7 e7bc 3ed8 f3bd ee66 e23d
00000090: 6849 c4bd 3110 7fbd 355b 9a3d b5c6 e93d
000000a0: 353a f53d 0d43 d53d 9fd2 123e 1739 1dbd
000000b0: a4d4 4fbe b7e2 af3d f40e 5c3d de0f 81bc
000000c0: c33f 14bd 7cc6 72be 9157 d1bd d3ec 21be
000000d0: 6984 b53d 8adc ca3b 4cdb 5ebd 5647 2b3d
000000e0: 0866 23be 6348 283d 2fba fdbd 6511 e93d
000000f0: a8a9 f73d 8c92 95bd c57d 56bd 28a2 fdbb
00000100: 5a58 25bc 52cd e53d 766f 97bd cb46 0a3e
00000110: d67c 25be 4487 ee3d 4e27 a9bd 959e 123e
00000120: e89a 223e 18b2 80bd d5cd a93d 9bef b6bb
00000130: 7cec 23bd a933 aabc 92be 52bd a3a1 3d3e
00000140: 9826 6abd 65e6 d1bd 3da0 83bd 408f ef3d
00000150: 76e2 26be 1af2 c73d b1ae 933d 07e4 a13d
00000160: a2fe d13d 4356 f03d aa63 d03d b44c 483d
00000170: 9cdb ccbd 68a8 58bd ce7d f8bd 9df1 f23c
00000180: ad1e 92bc 0adf 273e 2d3b 243d 6f60 ef3d
00000190: 28fe 3f3e 953a 02bc 69d7 0dbe 285c 93bc
000001a0: c2a2 66bd 21fd 15bd 66b2 8a3c a660 653c
000001b0: 4c9e f33d c310 343e 58e8 9fbc 706c debd
000001c0: 22bc f03c e41c f3bd 9a6f 043e 4822 19be
000001d0: b54e f4bd 52f8 18bc 42c3 d03d 8e94 353e
000001e0: 9f09 b43c 2434 943d 1a4b c4bd 5340 873d
000001f0: d505 973c f84a 03bd c406 fabd 0631 843d
00000200: 1430 f13c 1a4a 87bd 765f 4c3c 4339 1f3d
00000210: 3688 b53b f9b9 843d b2e4 d73d 652e a8bb
00000220: c705 e93c 6701 8f3d 5bb4 9e3c 3048 8dbd
00000230: 99c4 a0bc 73c5 073d f335 cbbb 6051 683d
00000240: 0ed8 f43b 51de d1bd 0b91 053d 89ad 253d
00000250: cc3c 1ebe b66b 0f3d 186e fabc acb3 883a
00000260: f2af 563e a962 b33b 01b9 61bc 0422 ff3c
00000270: 6e17 5d3d 48b1 5ebd d505 a5bc e798 053d
00000280: bd92 febb b42c 91bd 6c1b b63d 8442 35bd
00000290: e9fe c4bc b7b3 37bb a781 82bd 6615 72bd
000002a0: 8448 7f3c 2e46 18bd 330d f03c 6a46 dcbc
000002b0: aebe 9d3c b190 413d 6206 0cbd 0d4c 263d
000002c0: 7ef3 a53c b64b 24bc 7bae a23d 77a7 423d
000002d0: 7397 3e38 c338 19bc ba2d 3fbd 5cb4 50bd
000002e0: 3fb0 153b 0fb2 01bc 9d08 ff3b 67c7 36bc
000002f0: 29fa 54bd feee ef3c 834a adbc f83f 1ebc
00000300: f0ed 5d3d 4d1d 373d 3309 a53d b55f 2dbd
00000310: 7b6d ae3d 1c6b 6d3d 9246 583d d061 a9bc
00000320: f271 b6bc 372a c83d 8cbc b0bd 790b 833d
00000330: d45b a9bc 671f d2ba 936b 9d3c 7a32 683c
00000340: 879b 1e3d 1e9f 9b3d 461c 493d 2d93 77bc
00000350: e456 1cbc 84b3 953c e1de a2bc e967 1ebc
00000360: 2a1a 8fbd 7038 a8bc 2c3e 9dbd 36d4 0f3d
00000370: 05d7 7d3c b8a2 933b a17a 3cbd 6ab4 153d
00000380: 2b8e 45bd 8ce3 4a3c 94af 6cbc a31d e4bd
00000390: c89c 5abd c6f8 583c 05c3 193e edc6 08be
000003a0: f611 663c 209e febb 0fbb bc3d 9c1f 853c
000003b0: 6685 cdbc f16b abbb 507b af3c c7b8 eb3a
000003c0: 7823 44bd 3104 8c3c a655 26bd 6d23 8ebd
000003d0: 681c 583d 958c 7eba 74ed 76bd 1d96 96bd
000003e0: 88aa 493c 0dac 3abc c1ec fabb 8a34 84bc
000003f0: bddf a53d 7138 15bc 79eb 6bbc 2cee 93bc

action_model._discrete_distribution.branches.3.bias f4 [3]
0.010088741 -0.036958918 0.030628154
00000000: 3f4b 253c 3c62 17bd e5e7 fa3c

action_model._discrete_distribution.branches.3.weight f4 [3, 128]
-0.15300356 0.10142995 -0.0035804478 -0.03881675 -0.049918935 -0.06912498 0.053897627 0.06772701
0.051695343 0.0053979703 -0.03135082 -0.07404477 0.04714742 -0.061655995 -0.0067888577 0.07601778
-0.018541336 -0.004509607 0.055415295 0.009067918 0.02564862 0.0144849615 -0.13974595 0.050560176
-0.09449298 -0.025413066 0.053147495 -0.007520417 -0.09034571 0.01113014 -0.029049346 0.003381841
-0.001994576 -0.007953352 -0.03760144 -0.116890505 -0.02572212 -0.022375252 0.0067573776 0.02637899
-0.1024176 -0.03865086 -0.12364048 0.009786909 -0.0633353 0.013381563 -0.08161654 -0.028296271
-0.05310397 -0.005072015 -0.046398543 0.014825987 -0.14693697 0.0098251365 0.07531185 -0.012530344
0.04719053 -0.16533382 0.054006834 0.06829462 0.0026769016 -0.017580613 0.16915596 -0.104975395
0.0429087 -0.010623132 -0.010609128 -0.082900494 0.18802455 -0.13167815 0.021256201 0.047051605
0.010438227 -0.01769741 0.03661513 0.030140609 -0.079578504 0.020573506 0.0078657195 -0.029482903
0.053884763 -0.04078822 -0.097361356 -0.0826991 -0.008538378 -0.0128088165 0.09929054 -0.17855787
-0.08429475 -0.1108239 -0.024958802 0.06335966 0.004072349 0.08415419 -0.021986501 -0.005304208
0.049914267 0.0058472175 -0.010340506 0.011617987 0.08375421 0.11623524 0.008966419 0.015362052
0.015967183 0.016883397 0.08490064 -0.0026797007 -0.01936782 -0.029231025 0.0068003666 0.04904618
0.045072913 0.15368621 -0.09314081 -0.017962346 0.13324822 -0.023088029 -0.045014966 0.16907401
0.0107198125 -0.06397427 0.017886067 -0.079580754 -0.0044437977 0.010658453 0.03228188 -0.08772347
-0.01855703 -0.019028002 -0.029855104 0.09639088 -0.046764962 0.13475604 0.07094979 0.011022436
-0.1476224 -0.061910097 -0.02647307 0.08270711 -0.00679394 0.024864195 0.016767627 -0.035913493
0.019136844 -0.0131518785 -0.09328795 -0.029762896 0.041932367 0.04226159 0.06962189 -0.08581715
-0.10140347 0.012972656 0.021520622 -0.027780948 -0.020140503 -0.023744578 0.043445628 0.026006348
-0.016607584 0.12680021 -0.09454274 -0.0099592535 -0.02048236 -0.039450165 0.057340898 -0.03222997
0.023489628 -0.022764556 0.044661414 0.0057989764 -0.030184096 -0.053039204 0.113493584 -0.015420016
-0.051232256 -0.013943206 -0.030436078 -0.05147355 0.09149475 -0.019688355 -0.027699959 -0.04947254
-0.0032860828 0.0031275603 -0.12365791 0.004388515 0.030917315 -0.009599904 -0.07034804 -0.05699616
0.18278615 -0.03759357 -0.05610155 0.046481717 -0.07470467 0.11064676 -0.0048362114 0.04564548
-0.051524337 -0.026976414 -0.00349198 -0.012139604 -0.0048695565 0.02592822 0.18011694 0.04370427
-0.02330672 -0.0015130208 -0.03873294 0.102441184 0.07785329 -0.026155498 -0.07995066 0.15658772
0.058479805 0.12859446 0.0316896 0.017879957 -0.030665401 -0.12232103 -0.010556356 0.06917175
-0.017115247 -0.0329088 -0.040757135 0.01386322 0.017841239 0.048516892 -0.10820587 0.038612463
0.10705227 0.07121996 -0.1056757 -0.014505904 0.039963704 -0.017732121 -0.036004465 -0.054381065
0.094665594 -0.07836734 -0.0056199497 -0.01997469 -0.07783729 -0.04384776 -0.008443327 -0.078089654
0.04462615 0.032428324 0.120097786 0.09751349 -0.0010480441 -0.0029853284 0.09163806 0.009109941
00000000: f7ac 1cbe 81ba cf3d f2a5 6abb 50fe 1ebd
00000010: cc77 4cbd 6691 8dbd c2c3 5c3d 75b4 8a3d
00000020: 7fbe 533d 75e1 b03b b869 00bd c9a4 97bd
00000030: a71d 413d ff8a 7cbd 1175 debb 36af 9b3d
00000040: 00e4 97bc 53c5 93bb 26fb 623d 9b91 143c
00000050: 0e1d d23c 5552 6d3c 9019 0fbe 3018 4f3d
00000060: 8985 c1bd 102f d0bc 30b1 593d d56d f6bb
00000070: 2c07 b9bd 315b 363c e5f8 edbc e0a1 5d3b
00000080: 6fb7 02bb c74e 02bc f803 1abd 4a64 efbd
00000090: 32b7 d2bc 4e4c b7bc fe6c dd3b c018 d83c
000000a0: 52c0 d1bd 5d50 1ebd 3837 fdbd 4659 203c
000000b0: f0b5 81bd 583e 5b3c 9326 a7bd 95cd e7bc
000000c0: 8c83 59bd 2533 a6bb 660c 3ebd b2e8 723c
000000d0: a576 16be 9cf9 203c 193d 9a3d 124c 4dbc
000000e0: db4a 413d 454d 29be 4536 5d3d 0dde 8b3d
000000f0: f56e 2f3b 3805 90bc 3837 2d3e 57fd d6bd
00000100: 08c1 2f3d a50c 2ebc e8d1 2dbc bcc7 a9bd
00000110: 8289 403e a3d6 06be 7c21 ae3c 2fb9 403d
00000120: 1905 2b3c 29fa 90bc bff9 153d 70e9 f63c
00000130: 0efa a2bd c589 a83c 38df 003c 2186 f1bc
00000140: 45b6 5c3d 8c11 27bd 6465 c7bd 255e a9bd
00000150: 8ee4 0bbc 12dc 51bc d758 cb3d e0d7 36be
00000160: baa2 acbd a4f7 e2bd 6776 ccbc b6c2 813d
00000170: 5771 853b 0859 ac3d 091d b4bc ecce adbb
00000180: e772 4c3d 049a bf3b 3a6b 29bc 5f59 3e3c
00000190: 5487 ab3d be0c ee3d e3e7 123c 1eb1 7b3c
000001a0: 9ccd 823c 0d4f 8a3c 63e0 ad3d eb9d 2fbb
000001b0: 43a9 9ebc e775 efbc 9cd5 de3b a6e4 483d
000001c0: 609e 383d eb5f 1d3e 9cc0 bebd c525 93bc
000001d0: 3972 083e 1b23 bdbc 9d61 38bd bd21 2d3e
000001e0: 27a2 2f3c f104 83bd cd85 923c 3cfb a2bd
000001f0: 479d 91bb cba0 2e3c 013a 043d 5da8 b3bd
00000200: ea04 98bc 9de0 9bbc b192 f4bc 9568 c53d
00000210: 9e8c 3fbd 7dfd 093e 204e 913d 7397 343c
00000220: 542a 17be 7195 7dbd 0dde d8bc 5862 a93d
00000230: b39f debb ffaf cb3c 435c 893c 071a 13bd
00000240: dfc4 9c3c fa7a 57bc c10d bfbd 51d1 f3bc
00000250: 46c1 2b3d 7d1a 2d3d ec95 8e3d e7c0 afbd
00000260: 9fac cfbd 438b 543c 044c b03c df94 e3bc
00000270: b2fd a4bc fd83 c2bc 0bf4 313d 440b d53c
00000280: a10c 88bc ead7 013e a09f c1bd 232c 23bc
00000290: 9fca a7bc 7f96 21bd 4ade 6a3d 9303 04bd
000002a0: 526d c03c bc7c babc e3ee 363d 5705 be3b
000002b0: a344 f7bc a33f 59bd 536f e83d 3ca4 7cbc
000002c0: ead8 51bd 0b72 64bc 1555 f9bc eed5 52bd
000002d0: 9961 bb3d 7949 a1bc 06eb e2bc b8a3 4abd
000002e0: 525b 57bb c1f7 4c3b 5c40 fdbd 88cd 8f3b
000002f0: 4f46 fd3c ea48 1dbc a212 90bd ce74 69bd
00000300: 4b2c 3b3e b7fb 19bd bdca 65bd 9d63 3e3d
00000310: c3fe 98bd c59a e23d 1579 9ebb c1f6 3a3d
00000320: 2f0b 53bd a4fd dcbc b4d9 64bb 31e5 46bc
00000330: cd90 9fbb 6b67 d43c 9370 383e 4003 333d
00000340: bced bebc 8e50 c6ba 6ea6 1ebd afcc d13d
00000350: 8c71 9f3d 0e44 d6bc 2cbd a3bd 8858 203e
00000360: 8588 6f3d 44ae 033e f4cc 013d fd78 923c
00000370: 0236 fbbc 7383 fabd 91f4 2cbc eba9 8d3d
00000380: 4635 8cbc 61cb 06bd f4f0 26bd 8f22 633c
00000390: ca27 923c a6b9 463d 0a9b ddbd 1a28 1e3d
000003a0: 383e db3d c5db 913d 806c d8bd 2caa 6dbc
000003b0: fbb0 233d f442 91bc 6b79 13bd aebe 5ebd
000003c0: 09e0 c13d 0e7f a0bd 8e27 b8bb f6a1 a3bc
000003d0: 2869 9fbd b599 33bd e155 0abc 78ed 9fbd
000003e0: e9c9 363d 90d3 043d d4f5 f53d 27b5 c73d
000003f0: 865e 89ba 80a5 43bb bcac bb3d dd41 153c

action_model._discrete_distribution.branches.4.bias f4 [3]
-0.011128563 0.02869227 -0.019164199
00000000: 9454 36bc 0d0c eb3c 3dfe 9cbc

action_model._discrete_distribution.branches.4.weight f4 [3, 128]
-0.021678807 0.042400572 -0.018175203 -0.037871618 -0.05988931 -0.050905474 0.093744814 0.010915795
-0.05244596 -0.014157415 -0.27755997 0.12030968 0.10766276 0.011025944 -0.03651943 -0.065937735
0.025113102 -0.22253509 0.03812849 -0.16682121 -0.102766246 -0.17758064 0.0422401 0.021425761
0.0838555 -0.05669861 0.0025402491 -0.20223984 -0.12563413 -0.019281676 -0.026498651 0.09259197
0.068489 -0.08294603 0.03663349 0.0009025596 -0.017171454 -0.09410124 0.04824989 -0.089492604
-0.01749366 0.036427144 0.057098053 0.1770554 0.09727553 0.009212094 -0.07963402 0.063672565
-0.026839562 -0.07739359 0.007855223 0.026989773 -0.049448024 0.007338414 0.15746236 -0.03866801
-0.05390946 -0.1548754 0.12692107 0.03551548 -0.023840867 -0.18296377 -0.053406842 0.09153391
0.02533035 -0.054504752 0.0126745775 -0.038970422 -0.06706546 0.01217714 -0.2505445 0.06285966
0.027037278 0.1461262 -0.04828766 0.053767405 -0.0012230357 -0.06451518 -0.06995975 0.032693118
-0.1361868 0.09843462 0.14082915 -0.06655701 0.0032992922 -0.22374174 0.1495756 0.014869714
0.003909173 -0.045433164 -0.031895436 -0.03689148 0.0014626703 -0.06096927 0.07697312 -0.0029071337
-0.10106407 0.07926347 -0.019202173 0.018616362 -0.043294247 -0.18867241 0.05572835 0.07756034
-0.031641513 0.01971036 0.225678 0.065586925 0.010704188 0.093080625 -0.08999333 -0.09023406
0.1508745 -0.13785781 0.019021926 0.22196764 -0.010637174 0.03929962 -0.018773517 -0.04143859
-0.099709034 -0.051570375 0.05400737 -0.35523307 -0.2000865 -0.14746134 0.11588149 -0.022889739
-0.103557914 -0.07788448 0.02355192 0.0622723 0.0076866047 0.09386281 0.05887169 0.048711028
-0.0024325512 0.0077958507 -0.016801113 0.022106271 0.03961153 0.067355275 0.02258936 0.098237745
0.0236032 -0.11022456 0.0063168854 -0.014020905 0.047889337 -0.044900928 -0.011187607 -0.017298006
-0.075862095 0.023692256 0.0044955933 0.010168344 0.025216734 0.029581865 0.038277246 0.09757637
-0.0060300175 -0.03814692 -0.0876583 -0.03913926 0.019750224 -0.017684478 0.078250326 0.016867872
-0.0032914777 -0.015225078 0.049141105 -0.011060641 -0.038247988 0.04315456 -0.053641375 0.010778471
0.011840233 0.040548548 0.0017599955 0.029478906 -0.0071894033 0.009723918 -0.084928565 -0.0058067953
0.00069483 -0.07175052 -0.075804584 -0.037587278 0.023802873 0.016861169 0.0043188403 -0.062112264
0.07639306 0.05322445 -0.052885607 -0.025548268 0.01922349 0.030491157 -0.0073403595 0.013777456
-0.024016062 -0.020161424 -0.040780418 -0.043441724 -0.019046742 0.025231306 0.08717413 0.07997498
-0.012890754 -0.021769509 0.015210858 -0.011368641 0.008130639 0.041829415 0.04880181 0.06149053
-0.033074114 0.016355226 -0.025489878 0.049498685 0.037049763 -0.005128381 -0.050273456 0.011438884
0.0137805985 0.035188597 -0.008469405 0.04207941 0.006304384 0.009942859 -0.060365297 -0.1473124
0.14872536 -0.013078787 -0.090872385 -0.0023137203 0.039743472 0.035740964 -0.014781637 -0.03902622
0.024100518 0.08571182 0.024450822 -0.01831779 0.027725734 -0.054181963 0.02343073 -0.011129153
0.026144193 -0.025683232 -0.04086795 0.026841348 -0.006803815 0.00088352157 -0.030605089 0.02511537
00000000: c197 b1bc 39ac 2d3d 2ae4 94bc 451f 1bbd
00000010: 7e4e 75bd 4282 50bd 48fd bf3d 2ad8 323c
00000020: 93d1 56bd 81f4 67bc 571c 8ebe ec64 f63d
00000030: 4b7e dc3d 29a6 343c 6695 15bd 5d0a 87bd
00000040: feb9 cd3c 3de0 63be 9f2c 1c3d 2ed3 2abe
00000050: 1c77 d2bd b3d7 35be f503 2d3d 1485 af3c
00000060: 6fbc ab3d cd3c 68bd 4f7a 263b f617 4fbe
00000070: 3ca6 00be 9bf4 9dbc b313 d9bc dca0 bd3d
00000080: f643 8c3d 9cdf a9bd 000d 163d c099 6c3a
00000090: 26ab 8cbc 27b8 c0bd ada1 453d e647 b7bd
000000a0: dd4e 8fbc a134 153d a6df 693d 034e 353e
000000b0: 6538 c73d 53ee 163c 2917 a3bd c366 823d
000000c0: a4de dbbc 8880 9ebd 31b3 003c a819 dd3c
000000d0: 038a 4abd 1477 f03b d03d 213e 5962 1ebd
000000e0: 2ad0 5cbd a897 1ebe 99f7 013e ae78 113d
000000f0: ec4d c3bc db5a 3bbe 22c1 5abd 2176 bb3d
00000100: 9881 cf3c 6040 5fbd 08a9 4f3c 739f 1fbd
00000110: 9e59 89bd a182 473c 5e47 80be 91bc 803d
00000120: 487d dd3c 1ba2 153e 48c9 45bd 363b 5c3d
00000130: 454e a0ba 8920 84bd 0f47 8fbd 38e9 053d
00000140: 8d74 0bbe 1798 c93d 8435 103e 0b4f 88bd
00000150: f038 583b 8e1c 65be 592a 193e 1aa0 733c
00000160: 8518 803b 2018 3abd caa4 02bd 851b 17bd
00000170: 12b7 bf3a eaba 79bd 15a4 9d3d 9c85 3ebb
00000180: aefa cebd e354 a23d e04d 9dbc 5781 983c
00000190: 4f55 31bd 5733 41be 6943 643d f5d7 9e3d
000001a0: 889a 01bd 9f77 a13c 2218 673e 7052 863d
000001b0: 9e60 2f3c 0ea1 be3d 6c4e b8bd a3cc b8bd
000001c0: d87e 1a3e 992a 0dbe dfd3 9b3c 7c4b 633e
000001d0: 8b47 2ebc a3f8 203d ebca 99bc 83bb 29bd
000001e0: 4034 ccbd 753b 53bd d536 5d3d 1ce1 b5be
000001f0: 7ae3 4cbe 1b00 17be 4653 ed3d 4383 bbbc
00000200: 2c16 d4bd e681 9fbd f5ef c03c 3d11 7f3d
00000210: eadf fb3b 253b c03d 7123 713d 3785 473d
00000220: 706b 1fbb 5674 ff3b 7da2 89bc 3618 b53c
00000230: b33f 223d 90f1 893d 520d b93c df30 c93d
00000240: 805b c13c 6abd e1bd e0fd ce3b f0b7 65bc
00000250: 9c27 443d 09ea 37bd 3a4c 37bc 8cb4 8dbc
00000260: 965d 9bbd 4316 c23c c54f 933b 2099 263c
00000270: 5393 ce3c ab55 f23c 9ac8 1c3d 1fd6 c73d
00000280: 7497 c5bb f23f 1cbd 3286 b3bd 7d50 20bd
00000290: 39cb a13c 0adf 90bc b541 a03d 7e2e 8a3c
000002a0: d5b5 57bb 9b72 79bc 2f48 493d b137 35bc
000002b0: eca9 1cbd d6c2 303d 0fb7 5bbd 2f98 303c
000002c0: 89fd 413c 3c16 263d a6af e63a bf7d f13c
000002d0: 1695 ebbb 1151 1f3c 07ef adbd ee46 bebb
000002e0: 4125 363a f0f1 92bd 6f3f 9bbd 1ef5 19bd
000002f0: 3efe c23c 6f20 8a3c 0f85 8d3b 6e69 7ebd
00000300: f773 9c3d e201 5a3d 949e 58bd 9a4a d1bc
00000310: 957a 9d3c 97c8 f93c 6687 f0bb d7ba 613c
00000320: 55bd c4bc 9229 a5bc 5e09 27bd f3ef 31bd
00000330: ea07 9cbc e2b1 ce3c 5a88 b23d ecc9 a33d
00000340: be33 53bc f855 b2bc f636 793c 8943 3abc
00000350: 5f36 053c 5255 2b3d 68e4 473d 7edd 7b3d
00000360: b978 07bd 65fb 853c 26d0 d0bc 22bf 4a3d
00000370: 7ec1 173d fa0b a8bb 8aeb 4dbd 286a 3b3c
00000380: 05c8 613c eb21 103d 42c3 0abc 765b 2c3d
00000390: 0295 ce3b 60e7 223c 9a41 77bd 10d9 16be
000003a0: 764b 183e 6948 56bc 4d1b babd c9a1 17bb
000003b0: 0dca 223d 1e65 123d ae2e 72bc f5d9 1fbd
000003c0: 736e c53c ae89 af3d 174d c83c 310f 96bc
000003d0: 1421 e33c e8ed 5dbd cdf1 bf3c 0d57 36bc
000003e0: 592c d63c a465 d2bc 2765 27bd 63e2 db3c
000003f0: 89f2 debb 219c 673a 86b7 fabc c0be cd3c

action_model._discrete_distribution.branches.5.bias f4 [3]
0.026501816 -0.0055084853 -0.022065664
00000000: 561a d93c 8680 b4bb 0dc3 b4bc

action_model._discrete_distribution.branches.5.weight f4 [3, 128]
0.025283946 -0.087687045 0.04275007 -0.08018791 -0.011319087 -0.09539233 0.062437642 -0.0067985966
-0.003437205 -0.016359212 0.039328974 -0.07875354 0.049230196 -0.097630195 0.023957154 -0.07456118
-0.06774047 -0.0702202 -0.04220484 0.054484997 0.07529205 0.01258221 0.04634946 -0.091954134
-0.0792681 -0.0006354352 0.065146014 0.011488414 0.005266107 0.007955439 0.016576147 -0.0044692596
0.026127024 0.040006947 0.021431044 0.104793094 -0.03399804 0.011196082 -0.025437132 -0.07373364
0.03784648 0.03674173 -0.02763814 -0.022348754 0.05774568 0.00019852028 -0.021907665 0.061425775
-0.032905497 -0.023849273 0.076060526 -0.014900086 0.042035304 0.06946328 -0.0053211027 0.010409576
-0.019473363 -0.052062035 -0.015214723 0.028950593 0.09587015 -0.030176435 -0.0033473 -0.0047461623
-0.07464213 0.0896419 0.017273381 0.059459407 0.04713319 -0.002254177 0.04930271 0.04330729
-0.042982873 -0.0105268415 -0.04834066 0.068912834 0.011709188 -0.0003882785 0.011914029 0.02637917
-0.08487893 0.04838138 -0.040582333 0.09433722 -0.00975481 0.023424327 0.022098316 -0.04142369
0.02304021 -0.09070621 0.09948455 0.023447298 -0.047182456 -0.0703579 -0.025653519 -0.033153288
0.17168307 -0.01451764 0.048899632 -0.0020786137 -0.04911812 0.051152445 -0.017165933 -0.097610086
-0.07798402 0.036781546 0.004619034 0.019733494 0.079446785 0.054858793 0.011582102 0.024495583
-0.024358686 -0.10064716 0.03855774 0.030387584 0.032513775 -0.0105722835 0.032352984 0.010316695
0.039961122 0.12375329 0.055847306 0.0047601424 -0.06409871 0.05037166 0.0012956039 0.11922469
0.025565285 -0.0017995972 0.013479013 -0.03724524 -0.038581863 0.03651049 0.03504083 0.05560917
-0.049327552 0.028709158 -0.03120165 -0.05568295 -0.022033408 0.0628296 -0.06752442 0.005231628
-0.01811927 0.043896336 -0.010611155 -0.027152335 0.15795828 0.024305694 -0.0075931908 -0.023167927
0.042672947 0.011442438 -0.07283923 0.0075245653 0.0058661257 0.011711639 0.010188746 0.05094191
0.024646843 0.04875926 0.010240507 -0.006994608 -0.016731093 -0.047713917 0.029473465 -0.008058678
0.016297774 -0.0185668 -0.016089436 -0.054575566 -0.03342906 -0.004706755 0.009472694 -0.03217251
-0.036664933 -0.012834307 0.014424934 0.0037002366 0.0037989405 -0.06837648 -0.018655881 0.0024473716
-0.006873921 0.08452876 0.009645235 -0.06254331 -0.0075098793 0.00044397387 0.025271498 -0.03298326
0.06410648 -0.03716063 0.035034157 0.045810096 0.002015447 0.06282005 -0.04136187 0.0055821915
0.033317104 -0.00032107098 -0.019181252 -0.0025126778 0.037389535 -0.03414512 0.013044243 0.033269167
0.08109482 0.0029991884 0.036766637 -0.01433172 0.02207608 -0.0028757926 0.04885677 0.02814738
0.036501516 0.00081415474 -0.020614298 0.021860797 0.009537883 -0.04813293 -0.043540727 0.052599188
-0.014846543 0.024289038 -0.03138458 0.04058609 0.005703821 0.014735886 0.037301462 0.033704236
0.030487916 0.007997458 0.040352207 0.005209563 0.030957362 -0.013731675 -0.0007090467 -0.033542212
-0.011149397 -0.0058028656 0.083796084 -0.038094662 -0.017755592 -0.029975774 -0.03788539 -0.04163885
-0.03890928 -0.025913788 0.015073917 -0.0013446315 0.062177606 -0.030716654 -0.049644724 0.023242602
00000000: 4720 cf3c 4495 b3bd b31a 2f3d 8f39 a4bd
00000010: b173 39bc 0e5d c3bd 9dbe 7f3d c3c6 debb
00000020: bb42 61bb c103 86bc 6b17 213d 8949 a1bd
00000030: 9aa5 493d 57f2 c7bd cb41 c43c 88b3 98bd
00000040: 84bb 8abd 9ccf 8fbd fbde 2cbd a92b 5f3d
00000050: b832 9a3d 9d25 4e3c eed8 3d3d 7352 bcbd
00000060: 5057 a2bd 5693 26ba 466b 853d e739 3c3c
00000070: 4f8f ac3b 8857 023c b3ca 873c de72 92bb
00000080: 5708 d63c 53de 233d 2890 af3c c39d d63d
00000090: 8741 0bbd c66f 373c 8861 d0bc aa01 97bd
000000a0: e904 1b3d 7f7e 163d 6169 e2bc bc14 b7bc
000000b0: bc86 6c3d e229 5039 b477 b3bc 9899 7b3d
000000c0: eac7 06bd 8d5f c3bc 9fc5 9b3d 7e1f 74bc
000000d0: 362d 2c3d c442 8e3d a55c aebb ed8c 2a3c
000000e0: 9a86 9fbc 003f 55bd 2c47 79bc cb29 ed3c
000000f0: 9257 c43d 9234 f7bc 605e 5bbb b285 9bbb
00000100: f9dd 98bd 2c96 b73d e880 8d3c b58b 733d
00000110: bb0e 413d d0ba 13bb a3f1 493d fc62 313d
00000120: cf0e 30bd c678 2cbc db00 46bd 2c22 8d3d
00000130: e5d7 3f3c dc91 cbb9 0f33 433c 2119 d83c
00000140: 01d5 adbd 8e2b 463d a939 26bd df33 c13d
00000150: a3d2 1fbc 60e4 bf3c 8707 b53c e3ab 29bd
00000160: d3be bc3c 2dc4 b9bd 8ebe cb3d 8c14 c03c
00000170: 6442 41bd cd17 90bd 5427 d2bc becb 07bd
00000180: b0cd 2f3e 65db 6dbc fb4a 483d 5a39 08bb
00000190: 1530 49bd 3a85 513d 929f 8cbc cce7 c7bd
000001a0: 16b6 9fbd 3fa8 163d 445b 973b 23a8 a13c
000001b0: ffb4 a23d 9db3 603d dbc2 3d3c f6aa c83c
000001c0: de8b c7bc 1920 cebd b9ee 1d3d 62ef f83c
000001d0: 2a2d 053d 5f37 2dbc 9084 043d 5b07 293c
000001e0: 46ae 233d 5d72 fd3d 25c0 643d f8fa 9b3b
000001f0: 2f46 83bd 8452 4e3d 41d1 a93a 132c f43d
00000200: 4a6e d13c 76e0 ebba 14d7 5c3c 778e 18bd
00000210: 0408 1ebd 068c 153d f986 0f3d 71c6 633d
00000220: b00b 4abd 782f eb3c 9a9a ffbc ce13 64bd
00000230: 687f b4bc ceac 803d 3e4a 8abd 146e ab3b
00000240: dd6e 94bc a5cc 333d 69da 2dbc 936e debc
00000250: d1bf 213e bc1c c73c 4dd0 f8bb aaca bdbc
00000260: d4c9 2e3d 1079 3b3c bc2c 95bd a190 f63b
00000270: a138 c03b 2de2 3f3c b3ee 263c 77a8 503d
00000280: 2de8 c93c cab7 473d cdc7 273c 0633 e5bb
00000290: a50f 89bc ab6f 43bd 5672 f13c 8c08 04bc
000002a0: e982 853c 6719 98bc fecd 83bc a18a 5fbd
000002b0: e9ec 08bd 1f3b 9abb 5c33 1b3c 52c7 03bd
000002c0: f82d 16bd fc46 52bc 8f56 6c3c ab7f 723b
000002d0: a5f7 783b f808 8cbd 38d4 98bc 1564 203b
000002e0: a13e e1bb 6a1d ad3d 0c07 1e3c b516 80bd
000002f0: 6f15 f6bb 2ac5 e839 2c06 cf3c 7419 07bd
00000300: 424a 833d bf35 18bd fa7f 0f3d 5ea3 3b3d
00000310: 9715 043b cca7 803d 106b 29bd d1ea b63b
00000320: 8477 083d 6b55 a8b9 0022 9dbc bdab 24bb
00000330: c525 193d c1db 0bbd 85b7 553c 4045 083d
00000340: 0a15 a63d 088e 443b 9d98 163d 97cf 6abc
00000350: e5d8 b43c cb77 3cbb 091e 483d 5695 e63c
00000360: 9d82 153d 006d 553a 51df a8bc 6a15 b33c
00000370: c844 1c3c 0927 45bd c357 32bd 3f72 573d
00000380: ea3e 73bc cef9 c63c 1e8d 00bd 9a3d 263d
00000390: 1ee7 ba3b c96e 713c 6bc9 183d 740d 0a3d
000003a0: cbc1 f93c c507 033c 5b48 253d fbb4 aa3b
000003b0: 4b9a fd3c d2fa 60bc 52df 39ba 8f63 09bd
000003c0: f6ab 36bc f725 bebb 489d ab3d 2609 1cbd
000003d0: 2d74 91bc c18f f5bc b62d 1bbd 808d 2abd
000003e0: 565f 1fbd 2749 d4bc 97f8 763c 593e b0ba
000003f0: f2ad 7e3d 7ea1 fbbc 4458 4bbd 4567 be3c

action_model._discrete_distribution.branches.6.bias f4 [3]
-0.006760974 -0.03565675 0.049013015
00000000: 298b ddbb d00c 12bd dfc1 483d

action_model._discrete_distribution.branches.6.weight f4 [3, 128]
-0.09552703 -0.101253465 -0.12800513 0.041069902 0.033767954 -0.025840592 -0.12068287 -0.03767797
-0.018827694 0.035611216 -0.016562391 0.029313162 -0.10678387 -0.07001526 0.026825396 -0.03561499
0.0001646439 -0.039814398 -0.006673978 0.08716724 -0.22657193 -0.097826 0.045043197 0.084320724
-0.13588549 -0.0013545618 0.12303978 0.013242555 0.02301949 0.028281229 -0.017875057 -0.051845003
0.11926503 0.103007205 0.028717758 0.02588213 0.0964995 0.058827635 0.11502611 0.062004823
-0.05615566 0.15835772 0.08123031 -0.013651028 0.033522416 0.01926316 -0.12028921 0.07318072
-0.02434962 0.006542678 -0.0013306441 0.01916956 -0.182029 0.017170716 -0.038462333 -0.056742582
-0.019363916 0.050852828 0.12660876 0.031574044 0.08478867 -0.05710017 -0.071688846 0.13630296
-0.13692135 0.015454736 -0.03996946 -0.15145749 -0.029328406 -0.060103673 0.0071790833 0.025119603
-0.059325427 -0.06913904 0.025505021 -0.017297113 -0.07014713 0.07694494 -0.017416473 -0.065290675
-0.17668095 -0.053880937 -0.007898618 -0.07625314 0.06314222 -0.08445469 0.06850047 -0.0804832
-0.14915697 0.13030075 0.01800808 -0.027171006 -0.0028996055 0.050430704 0.057924423 0.016330035
-0.050501555 -0.08355952 0.056054365 0.014924791 -0.06522011 -0.043128673 -0.01072197 -0.080707185
-0.042292442 -0.0146879405 -0.021253005 0.037635967 -0.016938148 0.013817028 -0.06556593 0.03429053
-0.007049846 -0.07035445 0.021428796 -0.081756584 0.09890367 0.07569239 0.07819778 0.024499295
-0.044972017 -0.006667958 -0.1284435 -0.071931876 -0.097677946 0.085989 -0.06604278 0.0038295004
0.059332047 0.07555713 -0.034736123 -0.031233096 -0.060336266 0.03479681 0.05431881 0.023221074
-0.012181234 -0.012071831 0.01973641 -0.030972352 0.030027024 0.03738692 -0.0017492643 0.038171556
-0.024469638 -0.030675361 -0.009473253 -0.028866962 0.16406392 0.03212445 -0.048085164 -0.056247745
0.009374747 -0.0045157387 -0.08775181 0.024981657 -0.023207502 -0.0061604627 -0.0063605583 0.043258462
-0.06327861 -0.015897015 0.021835707 -0.0032453265 -0.040537212 -0.020971352 0.018533558 0.0146317
0.04041747 -0.04644075 -0.023597756 -0.020406974 0.014627407 -0.025511594 0.040916767 -0.02916586
-0.046867464 -0.045155525 0.006197786 -0.01039358 0.0893794 -0.05602713 0.0062088766 0.037114706
0.0068720505 0.001739576 -0.061427306 0.019609636 0.02669648 0.010640599 0.06588237 -0.07872137
0.16531484 -0.0039284243 -0.0084139565 0.07766844 0.04616739 0.07466021 -0.0032180878 0.017138073
-0.00037684 -0.0008240995 0.0057288855 0.05233425 0.057432443 -0.04353139 -0.0044226074 -0.011340939
0.063027814 -0.014108055 -0.0404841 0.088989325 -0.029606368 0.014245924 0.067652605 0.058274385
0.041365698 0.035192944 0.019133348 -0.04025333 -0.0068425736 0.033043414 -0.028597463 0.035676513
-0.024885187 0.009973051 -0.028637808 0.0560222 0.012043014 -0.0068960576 -0.005104197 0.05124993
0.0866172 0.031821422 0.061650906 0.015592689 0.03198561 -0.010047819 0.023890384 -0.026496185
0.004104445 0.06803104 0.050592314 0.0022853573 -0.03401078 0.013050951 -0.033504423 -0.05963275
-0.026784321 0.051510092 0.061809637 0.058221772 0.058463994 -0.00026181646 -0.0039520008 0.04129453
00000000: ada3 c3bd fa5d cfbd c713 03be ea38 283d
00000010: 4450 0a3d a6af d3bc 9528 f7bd 3754 1abd
00000020: 893c 9abc 11dd 113d daad 87bc 2822 f03c
00000030: 80b1 dabd 2964 8fbd efc0 db3c 06e1 11bd
00000040: 43a4 2c39 6c14 23bd 63b1 dabb bd84 b23d
00000050: 7902 68be ff58 c8bd 377f 383d 58b0 ac3d
00000060: 9125 0bbe 8d8b b1ba 48fc fb3d 4df7 583c
00000070: 5f93 bc3c 09ae e73c b66e 92bc 6d5b 54bd
00000080: 3941 f43d 71f5 d23d 8141 eb3c c306 d43c
00000090: 88a1 c53d 3ff5 703d cf92 eb3d c5f8 7d3d
000000a0: 7a03 66bd 8728 223e 145c a63d 90a8 5fbc
000000b0: cd4e 093d c6cd 9d3c 305a f6bd c6df 953d
000000c0: db78 c7bc f663 d63b 0269 aeba 7b09 9d3c
000000d0: cf65 3abe 9aa9 8c3c ae8a 1dbd e96a 68bd
000000e0: 13a1 9ebc 0e4b 503d baa5 013e c953 013d
000000f0: afa5 ad3d dee1 69bd 9ad1 92bd 0193 0b3e
00000100: 1c35 0cbe dc35 7d3c 04b7 23bd ac17 1bbe
00000110: 2042 f0bc 452f 76bd 843e eb3b a0c7 cd3c
00000120: 38ff 72bd c598 8dbd e8ef d03c adb2 8dbc
00000130: 4ca9 8fbd 4f95 9d3d feac 8ebc 1eb7 85bd
00000140: daeb 34be 42b2 5cbd 3469 01bc 9b2a 9cbd
00000150: b550 813d 95f6 acbd f949 8c3d 60d4 a4bd
00000160: 9bbc 18be 8f6d 053e ae85 933c bb95 debc
00000170: 4f07 3ebb 6d90 4e3d 2942 6d3d 91c6 853c
00000180: b8da 4ebd 4121 abbd 4399 653d 1c87 743c
00000190: 1f92 85bd b1a7 30bd 34ab 2fbc cf49 a5bd
000001a0: d73a 2dbd b0a5 70bc c81a aebc 2c28 1a3d
000001b0: dfc1 8abc d160 623c 6e47 86bd 3a74 0c3d
000001c0: 6502 e7bb fe15 90bd 718b af3c ff6f a7bd
000001d0: 028e ca3d 9d04 9b3d 2826 a03d bfb2 c83c
000001e0: 9434 38bd e37e dabb b186 03be 0551 93bd
000001f0: 600b c8bd 001b b03d 7041 87bd 5bf8 7a3b
00000200: 2906 733d b2bd 9a3d 7747 0ebd 8ddc ffbc
00000210: 2923 77bd 1a87 0e3d 677d 5e3d 1f3a be3c
00000220: cc93 47bc eec8 45bc 40ae a13c bbb9 fdbc
00000230: 3cfb f53c 0723 193d 9247 e5ba c759 1c3d
00000240: 8d74 c8bc e54a fbbc b435 1bbc 687a ecbc
00000250: 5f00 283e ed94 033d f3f4 44bd 0964 66bd
00000260: 8a98 193c c3f8 93bb 39b7 b3bd 55a6 cc3c
00000270: a91d bebc b5dd c9bb 3b6c d0bb c92f 313d
00000280: 3798 81bd 753a 82bc cce0 b23c 8baf 54bb
00000290: 590a 26bd 1dcc abbc b0d3 973c ccb9 6f3c
000002a0: ca8c 253d a838 3ebd 1550 c1bc 872c a7bc
000002b0: cba7 6f3c b1fd d0bc 5798 273d 3eed eebc
000002c0: 19f8 3fbd 00f5 38bd cc16 cb3b d649 2abc
000002d0: 8c0c b73d b47c 65bd d573 cb3b 9705 183d
000002e0: f02e e13b 7c02 e43a 339b 7bbd 63a4 a03c
000002f0: 94b2 da3c e855 2e3c 56ed 863d ab38 a1bd
00000300: 4b48 293e 03ba 80bb b1da 09bc a210 9f3d
00000310: 041a 3d3d 74e7 983d 8ee6 52bb 2565 8c3c
00000320: 9c92 c5b9 6208 58ba 60b9 bb3b 705c 563d
00000330: 483e 6b3d f94d 32bd 85eb 90bb 59cf 39bc
00000340: ba14 813d 7925 67bc a8d2 25bd 0940 b63d
00000350: 0e89 f2bc bc67 693c 738d 8a3d 1fb1 6e3d
00000360: 146f 293d 7a26 103d 8abd 9c3c ade0 24bd
00000370: ab37 e0bb 8858 073d 3a45 eabc 8921 123d
00000380: 05dc cbbc 0266 233c d699 eabc 8977 653d
00000390: 1050 453c 53f8 e1bb 1c41 a7bb 72eb 513d
000003a0: 5c64 b13d 2e57 023d a985 7c3d 7a78 7f3c
000003b0: 5803 033d 9c9f 24bc c4b5 c33c 870e d9bc
000003c0: 957e 863b dc53 8b3d e339 4f3d efc5 153b
000003d0: e34e 0bbd a8d3 553c ef3b 09bd 7841 74bd
000003e0: cb6a dbbc 3ffc 523d 1a2c 7d3d f479 6e3d
000003f0: f177 6f3d 6944 89b9 c97f 81bb 7424 293d

action_model._discrete_distribution.branches.7.bias f4 [3]
-0.053516045 -0.0037858165 0.036862116
00000000: a433 5bbd 761b 78bb bbfc 163d
