ArmRobot/Assets/results/Test/TouchCubeMoveGail/TouchCubeMoveGail-10499977.onnx (onnx, 140863 bytes, 20 tensors)

action_model._discrete_distribution.branches.0.bias f4 [3]
000000 6a d3 f6 ba de 75 b6 bc 07 4b e3 3c
       -0.0018831317 -0.022273 0.027745737

action_model._discrete_distribution.branches.0.weight f4 [3, 128]
000000 b0 7f db 3d 36 78 88 3d 95 cd 1e 3e de a7 50 bd
       0.10717714 0.066635534 0.15508111 -0.05094134
000010 31 ac 35 3e 80 61 dc bd 68 cd c5 bb d4 1f fd 3c
       0.17741467 -0.10760784 -0.006036449 0.030898966
000020 4b b3 96 bd 31 f7 34 bd 60 8c 25 be b3 78 1a be
       -0.07358416 -0.044181053 -0.1616683 -0.15085106
000030 1d 80 54 bd 0b 3b 85 bd 34 db f2 3d e0 6e 13 3e
       -0.05187999 -0.06505402 0.11858216 0.14397764
000040 d2 80 4d 3e d0 fe 15 3e 5d 33 0e be 10 9b 84 bd
       0.20068672 0.14647985 -0.13886781 -0.06474888
000050 b0 9a d9 3d c9 d3 a5 bc bf 17 c7 3c 70 e0 40 be
       0.106252074 -0.020242589 0.024303315 -0.18835616
000060 58 e8 bf bc 3f 12 20 3e d9 22 49 bd f2 17 3c 3d
       -0.02342622 0.1563196 -0.0491055 0.045921274
000070 f3 7d 16 be f4 31 83 3d ee 9d b5 3c e6 a7 ae bd
       -0.14696483 0.06406012 0.022170033 -0.08528118
000080 6d 07 1c be 0e f2 d2 3d fb bc 3f 3e ea 24 c2 3b
       -0.15237208 0.103000745 0.18724434 0.0059248107
000090 19 38 62 3d a8 71 63 be 17 74 7d bd b3 ba 80 bd
       0.05522928 -0.22211325 -0.06187829 -0.0628561
0000a0 20 d6 06 bd ae bf 0e 3e 45 fc 30 3e a3 b6 87 3d
       -0.03291905 0.13940307 0.17283733 0.06626632
0000b0 58 eb ab 3d 78 f3 10 bd b0 4d 7b bd f9 ed 01 bd
       0.08394498 -0.03538844 -0.061353385 -0.03172109
0000c0 8f 1b 0f 3c 30 f9 71 bd 6f 7a 76 bd 0f dd 28 3e
       0.008734598 -0.059075534 -0.060175356 0.16490577
0000d0 74 35 8c bc 1e 62 eb 3d f0 47 8e 3c 96 a6 bc 3d
       -0.017115332 0.11493324 0.017368287 0.09211461
0000e0 e8 99 0c be b6 96 0b 3d 84 dd 22 39 13 56 a0 bd
       -0.13730586 0.034079276 0.00015532045 -0.07828917
0000f0 0f 71 53 3c 8e 38 32 bc b7 3e 49 3d 7f 0f 19 be
       0.012905373 -0.0108777415 0.049132075 -0.14947318
000100 26 ed b2 3d 32 67 bc 39 02 94 86 bd e4 94 85 3d
       0.08736639 0.0003593504 -0.06571199 0.06522539
000110 70 af ee bc 67 10 c2 3c 81 28 94 bc b9 31 be 3c
       -0.02913639 0.023689462 -0.01808572 0.023217069
000120 b5 87 12 be 86 4a e5 bd be 55 96 bd 8b 71 54 3d
       -0.1430958 -0.11195855 -0.07340573 0.051866096
000130 33 42 39 3e 48 b9 9b 3c da 82 78 bb 7c 46 fe bc
       0.18091659 0.019009247 -0.003791979 -0.031039469
000140 2f 7a 03 be 3e ca d1 3d 7d 4f bb bd fe 18 b9 bd
       -0.12839578 0.10243653 -0.091460206 -0.0903797
000150 35 53 e7 bc db c1 4f 3d 8b 42 f3 3d cf 0c 89 bd
       -0.028237918 0.050721984 0.118779264 -0.06691896
000160 64 d7 7d 3c 4f 13 b8 bd 4e 26 3f 3d c6 94 99 bc
       0.015493248 -0.08988058 0.04666739 -0.018747699
000170 ff 82 eb bc 3b 25 90 3d cd 59 e3 bd 5e 10 a0 3b
       -0.028748987 0.07038351 -0.111011125 0.0048847636
000180 88 ff d1 bd fa 35 6e 3d d1 74 f8 3d 88 8d f6 3d
       -0.10253817 0.058156945 0.12131656 0.12038714
000190 35 f8 e2 3d b4 5f 00 3e 15 7b d5 bd 44 16 2a bc
       0.11082498 0.12536508 -0.10423867 -0.010381285
0001a0 25 45 e9 bd fc 1b 0e bd ae ff c3 bc b0 e4 40 bd
       -0.113901414 -0.034694657 -0.023925629 -0.047093093
0001b0 8a f1 93 bd 70 38 0c be b3 53 eb 3d fd 47 7f 3d
       -0.07223804 -0.13693404 0.11490574 0.062324513
0001c0 68 bf c5 bd f3 a2 d4 bd e7 93 04 3d 6c 4d c8 3d
       -0.096556485 -0.103826426 0.032367613 0.09780392
0001d0 1e 06 be bd 3a df 00 be 0f 6b ba bd d6 60 8b 3d
       -0.092785105 -0.12585154 -0.09102451 0.06805579
0001e0 47 31 a5 3c 77 7e 43 bd da 8c 95 bc be fe ad 3d
       0.020165099 -0.04772803 -0.01825564 0.08495854
0001f0 34 1a 7d 3d f3 5b 90 3d 63 a1 0e 3d 63 0d cc bd
       0.061792567 0.07048788 0.03482188 -0.09963491
000200 36 68 41 bd fe e6 1a bb a0 67 fe bc 47 54 9d 3d
       -0.047218524 -0.0023636217 -0.031055272 0.0768209
000210 9c 74 e2 bc 47 56 0b 3d 52 7a f6 3b 22 80 f4 3c
       -0.027643494 0.034017827 0.007521906 0.029846255
000220 f7 a6 1c 3c 08 d6 80 3c e7 12 3a bb fb 0c 88 bc
       0.009561292 0.015727058 -0.0028392614 -0.016607752
000230 2c 04 bc 3c 52 81 2c 3b b9 7a 39 bc e6 2c 62 3b
       0.022951208 0.0026322198 -0.011320763 0.0034511625
000240 a1 6a 91 bc 88 20 e6 ba 41 4c e4 3c 4a 73 35 bc
       -0.01775104 -0.0017557302 0.027868392 -0.01107485
000250 80 78 75 bc df 80 09 bd ae 66 73 bc 00 4f f2 3c
       -0.014982343 -0.033570167 -0.014856024 0.029578686
000260 4d 6e 40 3c b8 13 f3 3c af c5 a4 3c 73 2b 03 bc
       0.011745048 0.029672489 0.020113794 -0.008005965
000270 19 3e 86 bc db e1 86 3b 0b 19 b3 ba c8 3e fe 3c
       -0.016387032 0.0041162795 -0.001366408 0.031035796
000280 80 1b 00 3d aa 18 8e 3b 6f 11 d4 3a 6b f1 32 3d
       0.031276226 0.0043364363 0.0016179512 0.043687265
000290 d0 8c 3e bc 60 84 09 3c 7e 45 85 3d 17 99 9c bc
       -0.011630252 0.008393377 0.06507395 -0.019115968
0002a0 3e f8 f5 3c 4f 4b d0 bc ed 72 6d bc 31 07 2b bd
       0.030025598 -0.025426535 -0.0144927325 -0.041754905
0002b0 1f 38 17 3c 4a 12 8a 3d 7f 56 ab bb 3f bb 52 bc
       0.009229689 0.067417696 -0.005228817 -0.012862026
0002c0 eb 0d b9 3b 10 db a4 3c ce 58 98 3c 20 bd 19 3b
       0.005647411 0.020123988 0.018597033 0.0023458675
0002d0 54 5b ab 3a fd 32 80 3c d8 0f fd 3c c0 2d 9c ba
       0.0013073483 0.015649313 0.030891344 -0.001191549
0002e0 29 d4 d3 3c 3e 59 48 bc 40 26 7c bc 05 d8 97 3d
       0.025858002 -0.012228308 -0.015389979 0.07414249
0002f0 c0 fd ae bc 31 69 d3 bc c5 3b ae bb 9a 07 2a bb
       -0.021361232 -0.025806995 -0.0053171837 -0.0025944472
000300 7f 3d 7e bd 22 c2 64 bd fe 7b 90 3d cc 52 41 3c
       -0.062070366 -0.055849202 0.070549 0.0117995255
000310 bd f0 68 3c b8 c0 93 3c b9 a1 aa bc d0 9c 29 bd
       0.014217553 0.018036231 -0.020829068 -0.041409314
000320 f2 a5 01 3d 3f 5c e3 3c 9a a5 0d bc a3 6c cf bc
       0.0316524 0.027753947 -0.0086454395 -0.025320357
000330 11 12 1b 3d 96 47 ff 3b 19 f8 98 bd 0e 19 13 bd
       0.037859026 0.007790516 -0.07469196 -0.035912566
000340 fd 45 a4 3c f9 9c cd 3c 19 6d 3c 3a 6f 00 05 bd
       0.020052904 0.025099264 0.00071878877 -0.032471117
000350 de 1d f4 3b bb 72 1b bd ae cb 36 bd dc 91 2e 3d
       0.0074498495 -0.037951212 -0.044627838 0.04261957
000360 4c 34 ae bc b5 db 6a bc 86 8b ad ba cf 3d f2 3b
       -0.021265171 -0.014334609 -0.0013240434 0.007392622
000370 07 89 b9 3c 96 0d 84 bb 77 1e 16 3c 39 b3 9b ba
       0.022648348 -0.00402994 0.009162537 -0.0011878974
000380 4c 62 ed 3b e4 1a c2 39 7a e6 4e bd d6 6f c8 3c
       0.007244384 0.000370226 -0.05051277 0.02446739
000390 1d 4f fc 3c fc 48 e7 bc da fb e3 3b 5a cc f5 3b
       0.030799443 -0.028233044 0.0069575133 0.0075011672
0003a0 8b fe 2d 3d 59 8d 05 bc 51 c4 0e bd 65 c5 4b 3c
       0.04247908 -0.008151376 -0.03485519 0.012437199
0003b0 06 bd 8d bc 2e f5 84 39 46 01 8c bd be 3a 7a 3d
       -0.017302047 0.00025359675 -0.068361804 0.061091177
0003c0 72 18 a6 bc 8d d9 c6 3c 84 72 32 bd 9e f5 e7 3c
       -0.020275328 0.024273658 -0.04356624 0.028315362
0003d0 fc a7 f4 3c d3 2f e0 3c 7d 99 9a 3c 06 4c 19 bd
       0.029865257 0.027366554 0.018872017 -0.037426017
0003e0 55 62 e4 3a a5 9f 9f bc a6 e9 73 3d 9e 03 b1 bc
       0.0017424325 -0.019485304 0.059548996 -0.02160817
0003f0 01 9b 25 bd 6a 73 87 3b 88 61 b8 3c 58 4b 03 3d
       -0.040431026 0.0041336315 0.022507444 0.032054275

action_model._discrete_distribution.branches.1.bias f4 [3]
000000 64 a4 5d 3c b7 b0 4d 3c db f5 e3 bc
       0.013527963 0.012554339 -0.027827194

action_model._discrete_distribution.branches.1.weight f4 [3, 128]
000000 88 00 ca 3d 02 2b c9 bc 30 48 bf bd 1d dc 66 3d
       0.098633826 -0.02455664 -0.093399405 0.05636226
000010 8a 7f f6 bb 25 82 cf 3d c8 42 f6 3d 38 ca 37 be
       -0.007522528 0.10132245 0.12024456 -0.17948234
000020 13 76 82 bd c5 85 0b be 08 ed 88 3d 1d f7 7f bd
       -0.06370177 -0.13625248 0.06685835 -0.062491525
000030 5f 65 c4 3d 25 f1 cc 3c 3f f2 1a bd 4d 40 81 bc
       0.095896475 0.02501733 -0.03782868 -0.015777731
000040 e8 6d d9 bd 64 19 8e 3d 91 ca 36 3e 1f 95 f1 bd
       -0.10616666 0.069384366 0.1785071 -0.11796021
000050 2f da 31 bd 53 f1 86 3d be ec 1e be dd bc 1e bc
       -0.043420967 0.06588998 -0.15519997 -0.009688583
000060 62 ec 4b bd 5a 09 83 bd 13 88 12 be 77 5a dc bc
       -0.04978598 -0.06398268 -0.1430972 -0.026898606
000070 14 15 0b bd 78 49 00 3d aa c9 3a 3d fd eb c4 bd
       -0.03395565 0.031320065 0.045602478 -0.09615324
000080 d7 57 48 bc 8f 60 66 3d 7b d2 9f 3b 66 31 bc 3d
       -0.012227974 0.05624443 0.004877386 0.091891095
000090 c9 86 04 be b8 86 c9 bd a1 e7 be bd d4 c0 42 bd
       -0.12942041 -0.09840149 -0.093215235 -0.047547176
0000a0 e7 8a f6 bc 03 f3 17 bd f4 85 17 3e ea 12 21 3d
       -0.03009553 -0.03709699 0.14797193 0.03932468
0000b0 dd c4 21 3e f0 ca f3 3c 4e 13 c2 3c b7 f8 8f 3d
       0.15797754 0.029759854 0.023690846 0.070298605
0000c0 48 3b 26 3e 55 83 c0 bd 40 72 06 bd 0e 1c fd 3c
       0.16233552 -0.094000496 -0.0328238 0.030897167
0000d0 33 21 ca 3d c6 da bd bd 4b 1b ac bd 00 ad 00 be
       0.098696135 -0.09270243 -0.08403643 -0.12565994
0000e0 de e0 a0 3d c9 3c d4 3d c8 19 01 3e e9 0a 06 3e
       0.0785539 0.10363156 0.12607491 0.130901
0000f0 e1 05 5e bc 07 e4 ff bd d2 ac d9 3d 95 63 ec 3d
       -0.013551206 -0.12494665 0.10628666 0.11542431
000100 2a 2a 0c 3e fe 47 a6 3d 85 d1 63 bc ba 5c 02 be
       0.1368796 0.081192 -0.013904934 -0.12730685
000110 12 f2 36 3e 9c 21 ec bd eb 65 3b be 43 f5 b4 bd
       0.1786578 -0.11529848 -0.18300597 -0.088358425
000120 1e 8a e2 3c 8f 19 91 3d 98 a5 b9 3d 4b 32 e2 3c
       0.02765375 0.07084953 0.090647876 0.027611872
000130 26 57 7e 3d ca 25 f7 bd a0 5d 21 bc ab 2e 74 3d
       0.06209483 -0.120677546 -0.009848982 0.05961482
000140 eb 36 c5 bc 3c 6f 64 3d d4 9b 93 3d ae 87 0d 3e
       -0.024074038 0.055770144 0.07207456 0.13821289
000150 d0 9e 0b be 60 9b 6f bc ae 70 33 3d ce 3e dd 3d
       -0.13634801 -0.014624447 0.04380863 0.10802995
000160 6b c3 e7 bd 2a 45 14 3e af 3f 66 3c be 41 de 3a
       -0.1131657 0.14479509 0.014053269 0.0016956849
000170 59 15 8e bd c9 62 33 3e a9 95 de 3d bf 5c 2a 3c
       -0.069376655 0.17518152 0.10868389 0.010398089
000180 56 ea c2 3c cf ef 2c bb e5 1f 53 3d fe 03 1b be
       0.02379338 -0.0026388054 0.05154409 -0.15138242
000190 82 b0 6c 3d 04 82 7f 3d a5 3a 05 3d dd 33 0b be
       0.05778552 0.062379852 0.03252663 -0.13594003
0001a0 0a 01 88 bd e2 2e 2c 3d f2 d1 1a 3d be 63 c1 3d
       -0.06640823 0.0420369 0.037797876 0.094428524
0001b0 15 79 1c 3d 49 ad 3a bc 0a df e5 bc 10 ea 5a 3d
       0.03820141 -0.011393853 -0.028060455 0.053445876
0001c0 d0 05 87 3b cc b7 1b be eb f3 65 3d 98 ea ec bd
       0.004120566 -0.15206832 0.05614082 -0.11568183
0001d0 96 53 48 3d 1b 2a 73 bd de 75 bc 3c 59 95 9c bd
       0.04890784 -0.059366327 0.023005422 -0.07645673
0001e0 1b 6d 1d 3b 74 99 00 3e 9c 37 30 bd c4 af a2 3d
       0.002402133 0.12558538 -0.043021783 0.07943681
0001f0 5a 32 59 3d ff 15 3f bd 8a 5a eb bd 92 32 de 3c
       0.053026535 -0.046651836 -0.11491878 0.027123723
000200 97 ed b6 3c d2 b4 e7 ba 70 fe db 3a a4 9a 43 bd
       0.022330089 -0.001767779 0.0016784202 -0.0477549
000210 d3 cf 59 3d 95 7e d4 bc 23 3d 84 3c d5 2e 69 3c
       0.053176712 -0.025939265 0.016142434 0.014232357
000220 9d a3 96 bb 5f d1 a1 bb 82 18 40 3d 78 5e ad 3d
       -0.004597141 -0.004938289 0.046898372 0.08465284
000230 ba a5 16 bd 92 5c 71 3c 07 8a 36 3c 07 17 b8 3c
       -0.036779143 0.014731543 0.011141307 0.022471918
000240 c0 7d 10 3d 88 37 2b 3c aa 60 24 3d d4 12 97 3d
       0.035276175 0.010450251 0.04013125 0.07376638
000250 42 7c b2 bb 5c 0c 43 bc 61 55 1e ba c6 3b fd 3b
       -0.0054469416 -0.011904802 -0.0006039944 0.007728073
000260 4c 9d 52 ba ce fd 8e 3b f1 14 28 bc e0 61 b7 3c
       -0.00080343033 0.004363752 -0.010258899 0.022385538
000270 e6 10 10 3d 42 23 a4 bc ce ce fb 3c 64 f0 71 3c
       0.035172366 -0.020036343 0.03073826 0.014766786
000280 42 49 a3 3c 01 91 80 bc 6c 52 16 3d d0 00 6d 3b
       0.019932393 -0.015694143 0.036699697 0.0036163814
000290 56 ef bb 3c fb c7 74 3d 6f 4c 4b bb 1e f6 d0 3c
       0.022941273 0.05976103 -0.00310209 0.025507983
0002a0 9d 6e 89 3d 8a 3f a3 bb 84 49 43 3d b5 90 0f 3d
       0.06710551 -0.0049819397 0.04767753 0.035050113
0002b0 ab 90 41 3b 47 f6 c6 bb 03 a5 19 bd 9d 30 99 3d
       0.0029535692 -0.006071839 -0.037510883 0.074799754
0002c0 2c 81 bc bc 72 26 b0 3c d5 ad 27 3b 6f a5 81 3c
       -0.023010813 0.021502707 0.002558579 0.015825955
0002d0 62 c7 58 3d 74 15 fa 3c df b9 d2 3b 02 67 92 3d
       0.05292452 0.030527808 0.006430849 0.071485534
0002e0 c3 ed eb bc 63 d5 81 3c 1a 51 79 3d 9d 0a 56 bd
       -0.028799897 0.015848821 0.06086836 -0.052256215
0002f0 b9 1e 81 3c c6 d2 9c bc 6b b4 5a bc 60 71 b2 3b
       0.01576172 -0.019143473 -0.013348679 0.0054456443
000300 0c 29 25 bc 9b 1e 99 bc 27 56 13 39 23 f4 81 bc
       -0.010080587 -0.018691352 0.00014051107 -0.015863484
000310 b5 46 71 bd 91 7d 9f bc 18 48 53 3d 5c 43 ed bb
       -0.058905322 -0.019469054 0.051582426 -0.007240696
000320 d8 9d 0c 3d ad 2a 80 3c 31 8c a8 bb 75 5f aa bc
       0.03433022 0.01564535 -0.0051436652 -0.02079747
000330 dd 2c d5 3c af 4a 19 3d 83 d0 a0 3d 80 7d 50 3d
       0.026022369 0.03742474 0.078522705 0.050900936
000340 e3 2d cb bc ff e9 0c 3c 05 14 21 bc c6 a2 10 3d
       -0.024802154 0.008600711 -0.009831433 0.035311483
000350 3d 77 b4 3c e9 07 4c ba ac 86 22 bd 2b 93 67 bd
       0.022029513 -0.0007783161 -0.039679214 -0.056536835
000360 56 3f 87 3c d2 eb 5d bb da 6b a6 bc 24 39 88 3c
       0.016509693 -0.0033862484 -0.0203151 0.01662881
000370 b6 40 39 bc 69 b9 96 3c 24 e8 13 3c 0c 13 e5 3c
       -0.011306932 0.018398957 0.009027515 0.027963184
000380 43 0b 21 bd 52 af f7 bc 07 0e 83 bc 61 ee 57 3c
       -0.03931738 -0.030234966 -0.0159979 0.013179393
000390 7a c1 94 bb de 26 81 3d 88 e6 85 3c c6 d5 8b 3c
       -0.0045396658 0.063062415 0.016345277 0.017069709
0003a0 5d 95 e6 3c 50 87 5e bc 5b 71 24 3c 4a 77 14 bb
       0.028147394 -0.013582066 0.010036792 -0.002265411
0003b0 8f fe 21 3d 52 ed d0 3c 44 00 8e 3c 52 39 14 3d
       0.039549407 0.025503788 0.017334111 0.036187477
0003c0 28 1c 87 3c d2 71 fb 3c 27 90 2c bd 51 99 fa 3c
       0.016492918 0.030693922 -0.042129662 0.030590685
0003d0 f4 33 13 3d f9 18 05 bc ca 1b b4 bc 49 7f 69 3c
       0.03593822 -0.00812363 -0.021985907 0.014251539
0003e0 d7 8e 02 3d 7a df 5c 3b 7c a7 7c bd 05 9a 1e 3b
       0.031874504 0.0033702538 -0.061683163 0.002420069
0003f0 50 86 a9 3d fc 20 a1 bc ad 59 42 3d f0 28 47 3c
       0.08277571 -0.019669048 0.047448803 0.012155756

action_model._discrete_distribution.branches.2.bias f4 [3]
000000 62 15 8c 3c 25 44 81 3c d6 c8 05 bd
       0.01710004 0.015779564 -0.032662235

action_model._discrete_distribution.branches.2.weight f4 [3, 128]
000000 12 d0 87 bb 94 6e fa bd 7a 8c 90 3d 8b 04 3e 3d
       -0.004144677 -0.12228122 0.07058044 0.04639105
000010 70 58 a6 bc 27 c4 27 3e f3 b6 80 3d d2 32 05 bd
       -0.020305842 0.1638342 0.06284895 -0.03251917
000020 64 3c ac 3d 36 db b0 bc 45 7f 5c bd 96 f6 04 be
       0.08409956 -0.021588903 -0.05383231 -0.1298469
000030 76 be 44 3e bf fc 17 be 3b f3 8f 3d d8 08 8d 3c
       0.1921328 -0.14842509 0.070288144 0.017216131
000040 8e 1c ce bd 6c 3a 81 bb ab 23 b0 3c 0f b7 cc bb
       -0.1006404 -0.003943732 0.021501383 -0.006247408
000050 b3 fe fa 3d 89 a6 b0 3d df 69 a8 3d 20 50 d1 bc
       0.12255611 0.08625514 0.08223318 -0.025550902
000060 ff 38 1f 3e a6 72 94 bd 32 d1 70 bc ca 0b b4 bd
       0.15549086 -0.0724843 -0.014698314 -0.08791311
000070 3b 74 a7 3d 8c e0 ed 3a f2 1e 83 bd 08 02 bb bd
       0.08176466 0.0018148585 -0.06402387 -0.09131247
000080 a8 64 e4 bd 87 06 bd 3d 73 dd 9b bc 0c cf b7 bd
       -0.11152011 0.092297606 -0.019026494 -0.08975038
000090 bb ca cb bb b3 e7 3d bd f1 8f a1 3b 94 60 19 be
       -0.0062192357 -0.046363544 0.004930489 -0.14978248
0000a0 84 b1 48 be 03 fa 16 3e 42 9e b6 bd 90 51 cb bd
       -0.19598967 0.1474381 -0.08916904 -0.09927666
0000b0 a0 6a 99 3c 98 00 05 3c a7 32 e2 bd 6f 8a 82 be
       0.0187276 0.008117817 -0.110448174 -0.2549624
0000c0 3d c8 a4 3d 03 af a2 bd 01 92 4a 3e db 75 0e bd
       0.08046005 -0.07943537 0.19782259 -0.034780364
0000d0 4f ee 0e be 2b 45 ec bd f3 05 9e bd ff 52 1e be
       -0.13958095 -0.1153663 -0.077159785 -0.15461348
0000e0 1b 26 f7 3d 10 5e fe bd 80 c7 1a 3b df 97 fe 3d
       0.12067815 -0.12420285 0.0023617446 0.12431311
0000f0 76 81 23 be e7 d6 00 bd 6e 2f 5f bd 50 59 79 bd
       -0.15967354 -0.031454947 -0.05448859 -0.06087619
000100 23 89 5e 3b b7 ab 15 3e 6f 83 14 be 41 74 e9 3c
       0.0033956252 0.14616285 -0.14503263 0.028497817
000110 07 a0 2e 3d 72 64 28 3d c3 36 39 be c1 fe b6 bd
       0.042633083 0.041111417 -0.18087296 -0.08935309
000120 47 d0 cc 3c d6 f2 3e bd e6 0d d2 3d fc f6 da bd
       0.025001658 -0.046618305 0.10256557 -0.1069164
000130 3d 95 d3 bd 88 25 ac 3d f6 13 6f bd 9e 8b ac bd
       -0.10331199 0.08405596 -0.058368646 -0.08425067
000140 a6 49 42 3c 49 03 04 be 38 d8 bf bd 3b be 66 3d
       0.0118583795 -0.12891878 -0.09367412 0.05633376
000150 72 d2 11 3d d5 6a 2c be 8f eb 79 3d 11 d6 d3 3d
       0.035601087 -0.16837628 0.06101566 0.10343564
000160 16 c9 bb bc c6 b7 e2 3d 61 f1 ac bd f3 80 1c 3b
       -0.022923034 0.11070208 -0.08444477 0.002388057
000170 ff f8 d7 3d 3c c6 b9 3d 59 96 08 3d c5 93 65 bc
       0.10545539 0.09071013 0.033346508 -0.014012282
000180 8d 6f 5a bd 47 63 f1 bd 42 a4 94 3c ba 96 aa 3c
       -0.05332904 -0.11786514 0.01814473 0.020823825
000190 1d 0c bf 3b 4f 3f 9b 3d 1b 16 17 3e 5b 87 20 3d
       0.0058303014 0.075804345 0.14754526 0.039191585
0001a0 26 2b 3b 3d 2d 71 11 3e 1c 45 b4 3d 71 de 20 be
       0.045695446 0.1420333 0.08802244 -0.15709855
0001b0 72 f0 c9 3c 3a 34 8b 3b e5 f2 10 3d 84 23 4b be
       0.024650786 0.0042481693 0.035387892 -0.19837767
0001c0 18 90 38 3e d2 4e 8d bc 4b 8a a5 3c 2a 77 11 be
       0.18023717 -0.017249499 0.020207545 -0.14205614
0001d0 5d fb 26 be 26 ee a9 3d d6 99 09 be 75 0f 12 bc
       -0.16306825 0.08297376 -0.1343759 -0.008914818
0001e0 67 93 49 3d 80 89 2f be b0 92 19 bb 6f 4b bb bd
       0.04921284 -0.17142296 -0.002343338 -0.09145247
0001f0 47 5f ad bd dd a2 96 3d 9b 0b 5e bc 43 c0 20 3d
       -0.08465438 0.073552825 -0.013552572 0.039245855
000200 a5 d8 08 3d b1 b3 0d 3d d9 b0 7e bc 09 02 00 3d
       0.033409733 0.034595195 -0.015545093 0.03125194
000210 a5 2b 92 3c 4d fc 2c 3b 19 2f da bc 6e 20 c0 3c
       0.017843077 0.00263955 -0.026633786 0.023452964
000220 15 f6 f1 3b e4 e7 1b 3d 7f 31 f9 ba d5 28 17 bd
       0.0073840716 0.038062945 -0.0019011943 -0.036904175
000230 16 5a 56 3b 32 da 34 3d e4 4c 8f ba 78 27 e4 3a
       0.0032707504 0.0441534 -0.0010932949 0.0017406782
000240 4d de 06 bd 28 fe d6 3b e5 29 85 3c 24 3c 48 3c
       -0.032926846 0.0065610595 0.016255328 0.01222137
000250 c3 86 50 3c bd 59 d5 3c 0c c0 af bc 2d 91 cf ba
       0.012727442 0.026043767 -0.02145388 -0.0015836112
000260 5c c3 97 bc 35 3c 43 bb 77 05 0f 3d 9f 67 00 bc
       -0.018525772 -0.0029790525 0.03491732 -0.007837205
000270 9b e4 23 3c 5c 4a b9 3a 29 89 4e 3d bc c1 3a 3d
       0.010003234 0.0014136541 0.050423775 0.045594916
000280 0e cb a9 bb 39 8f 7b b9 32 85 b1 bc e8 0c 65 3d
       -0.0051816767 -0.0002399058 -0.021669958 0.05592051
000290 f5 d5 25 bc 19 ee f8 3a a3 c8 32 3d 13 8b a1 3c
       -0.010121812 0.0018991857 0.043648373 0.019719636
0002a0 a0 47 ab 3b b9 c9 fa bc b2 4a 46 bc d5 fc 29 bc
       0.005227044 -0.030613767 -0.01210277 -0.010375221
0002b0 a4 d6 bd bc 98 94 4d bc b5 d9 a5 bb bf 79 07 bd
       -0.023173638 -0.012547635 -0.005061353 -0.03307509
0002c0 b0 07 d4 bc 92 4e 59 3c e8 32 8e bc 57 3d 8f bb
       -0.025882572 0.0132633615 -0.017358258 -0.004371326
0002d0 e8 38 d4 bc f2 cd 13 bd 6a 7c e0 3c 83 3a 09 3c
       -0.025906041 -0.036085077 0.027403075 0.008375767
0002e0 0a 70 a6 bc 31 96 d5 bc e0 e4 80 3c 7a 0f ab 3a
       -0.020317096 -0.026072593 0.015734136 0.0013050877
0002f0 ce 01 d0 bb 02 f6 a8 3c da aa 08 bd 92 5c 86 3b
       -0.0063478714 0.020625118 -0.03336606 0.0041003907
000300 86 93 0c 3c 4c 89 c3 bb 2c 36 61 3c e9 0e a4 bc
       0.008580094 -0.005967295 0.013745826 -0.020026641
000310 67 05 3f bb 2c 95 d9 3b 14 ad 0f bd ca 1a 64 ba
       -0.0029147507 0.006640097 -0.03507717 -0.00087015016
000320 69 3c bc bb f1 6d e3 bb a9 e2 4c bb 6f 62 d9 bc
       -0.005744506 -0.0069405963 -0.003126303 -0.026536195
000330 38 b8 08 ba c7 d8 4d 3c 41 6c 69 3c 32 83 d2 3c
       -0.0005215439 0.012563891 0.014247001 0.025697324
000340 9d f2 0a 3d f7 50 25 bc 28 97 e1 36 35 fe 1f bc
       0.03392278 -0.010090104 6.7231194e-06 -0.0097651975
000350 92 28 96 3c ea 21 ca bc 62 81 65 3c 03 5e 0b 3d
       0.018329892 -0.024674375 0.014007898 0.034025203
000360 57 28 08 3d bd e1 ad bb 31 55 10 3c fd 2c 0f 3d
       0.033241596 -0.005306451 0.008809374 0.034955014
000370 b8 dd 6e bc 49 d3 05 bd a9 f6 50 3b 92 f7 5c 3a
       -0.014579229 -0.0326722 0.0031885302 0.0008429225
000380 3d 54 6e 3b fe b2 c7 b9 d1 8f 95 bc ad 71 08 bc
       0.0036366128 -0.00038089597 -0.018257054 -0.008327884
000390 33 e7 6c 3b 0f 33 96 bc 51 67 0c bd 90 e0 05 3c
       0.0036148548 -0.018334894 -0.034278218 0.008171216
0003a0 af 80 f2 3b 0a 41 d6 3b d8 d4 b6 3c 75 5b e3 bc
       0.007400594 0.006538515 0.022318289 -0.027753571
0003b0 e7 73 fa 3a 1c fb 48 3d ca 22 cf 3b 11 46 09 bd
       0.0019108028 0.0490676 0.006321286 -0.033514086
0003c0 7e e4 69 bc 0c cd df 3b 6c d4 1a 3d 23 1b 39 bc
       -0.014275668 0.0068298634 0.037800238 -0.011297974
0003d0 8e a4 a2 3c 2f 27 6d bc 87 10 33 3c 83 98 b2 3c
       0.019853856 -0.014474674 0.010929233 0.021801239
0003e0 21 6b 0c 3b f1 bb 37 bd be 9a da 3c 08 76 e9 3c
       0.0021426158 -0.04485697 0.026685115 0.028498664
0003f0 c4 0b 1c bd 9a 79 45 bc 3f 69 04 3c 67 82 12 bb
       -0.038097158 -0.012052918 0.008081733 -0.0022355558

action_model._discrete_distribution.branches.3.bias f4 [3]
000000 a1 24 18 3c d2 79 25 3c 5b dc 8f bc
       0.009286077 0.010099845 -0.017561128

action_model._discrete_distribution.branches.3.weight f4 [3, 128]
000000 11 64 a6 3d 99 97 3d bc 0d 13 ec 3c bf 83 a0 3d
       0.08124555 -0.011571788 0.028817678 0.078376286
000010 b4 dd 46 3d 4c ca e1 3c 9d d2 c0 3d 9f 87 ee bc
       0.048551276 0.027562283 0.09415171 -0.029117404
000020 f9 a6 fc bc fd 68 e9 bd 2c 20 4e bd 9a 8f 35 bd
       -0.030841338 -0.11396978 -0.05032365 -0.044326402
000030 70 20 00 bd c5 a4 5b 3b f5 dc 26 3d c3 fa 47 3d
       -0.031280935 0.0033514958 0.040738065 0.04882313
000040 7e 2a d0 3d d5 d4 fb 3b d4 4a 00 bd ed 89 34 3d
       0.10164355 0.0076852837 -0.03132136 0.04407685
000050 19 6e a4 bc 6e a0 33 3b f6 7d 3e bd 3b 2b 3a 3d
       -0.02007203 0.0027408856 -0.046506844 0.045451384
000060 c3 58 99 3d fa f7 1d 3c 24 3e 65 3c f3 0c e7 3c
       0.07487633 0.009641642 0.013991866 0.028204417
000070 89 54 1a bd 71 19 14 be a8 3c a0 bc 65 b6 f4 3b
       -0.037678275 -0.1446283 -0.019560173 0.007468032
000080 dc 79 b1 bd f5 6a bd bc 39 22 44 bc 98 8b cb bb
       -0.08665821 -0.02312229 -0.01197105 -0.006211709
000090 27 f9 6c bd fe f2 81 bd e9 ad e3 3d c3 fe b5 3c
       -0.057854798 -0.06345175 0.11117155 0.022216206
0000a0 01 ef 52 bd 58 c4 a0 3d c5 0f 3a 3d 20 20 12 bd
       -0.051497463 0.078499496 0.045425195 -0.035675168
0000b0 65 f2 a6 3b 44 d1 21 3d b0 bb 71 bd 5e 70 96 b9
       0.0050948136 0.039506212 -0.059016883 -0.0002869395
0000c0 7b e2 e2 ba f9 a5 a7 bd 16 8e 8b bc b4 6a 94 3d
       -0.0017309928 -0.08185954 -0.017035525 0.072469145
0000d0 39 cb 67 3c f3 6f 7a 3d c0 cf 90 bc 43 db 56 3c
       0.014147573 0.06114192 -0.017677188 0.0131137995
0000e0 ed 7c a7 3d 88 14 6a 3d 26 20 0b bc af 0c 31 bc
       0.081781246 0.057148486 -0.0084915515 -0.010806247
0000f0 e1 ac 6f bd 53 c9 f0 3c e9 82 08 3d 0d b8 ef bc
       -0.05851448 0.029392874 0.03332797 -0.029262567
000100 44 d6 4c 3c 83 97 fa bd a6 bf a8 3d a8 b3 79 bd
       0.012502257 -0.1223593 0.08239679 -0.06096235
000110 eb 2f 43 3d 44 78 75 3d 20 14 18 bd 9e 5f cb bc
       0.04765312 0.059929147 -0.037128568 -0.024825867
000120 05 37 a1 bc c7 92 89 bc e5 b2 30 bc 77 06 70 3d
       -0.019679556 -0.016793622 -0.010784839 0.058599915
000130 8e 02 a3 3c 7c 52 7b bd 9a 44 2d 3b 69 73 f7 bc
       0.01989868 -0.06135796 0.0026438595 -0.030206399
000140 6b 0e a5 3d 74 ed 2d bd 62 66 a9 bd 57 8b 98 3c
       0.08059391 -0.04246278 -0.08271481 0.01862113
000150 eb 2a d9 bd d8 80 af bb 62 77 92 bd ef 0c ad 3d
       -0.10603889 -0.0053559355 -0.07151677 0.084497325
000160 d2 19 d3 ba a8 cc 4e 3c d5 0f 80 bd a4 95 c7 bb
       -0.0016105718 0.012622036 -0.0625302 -0.0060908366
000170 56 d5 05 3c 6f 79 73 3d ec d2 80 bc eb 73 e5 3d
       0.008168539 0.05944198 -0.015725575 0.1120375
000180 98 13 dc 3d d1 14 f5 3c 64 3b fb 3b 71 94 12 bd
       0.10745925 0.029917153 0.007666992 -0.035786096
000190 5a 91 dc bb b0 10 9e 3d a0 89 9f bd 2e 46 75 bd
       -0.0067311944 0.07718027 -0.07789922 -0.05988138
0001a0 e3 50 13 3d f9 90 98 bd 48 67 ba bd 83 ac a9 3b
       0.03596581 -0.07449526 -0.091017306 0.0051780357
0001b0 65 82 cb bd d4 7d 92 bc bc 76 69 3d b1 35 65 3c
       -0.0993698 -0.017882265 0.056998 0.013989852
0001c0 b6 b2 8b bb 89 c7 d9 bc 6a 39 26 bd d5 5b 5b 3c
       -0.0042632474 -0.026584404 -0.040582098 0.013388594
0001d0 5d ae 08 3c d3 ff 99 bc cd 64 44 3d 73 9c 0d bc
       0.008342353 -0.018798744 0.047947694 -0.008643257
0001e0 c6 80 2c 3d f5 05 ba bc 91 ca e3 3d c6 57 fb bc
       0.042114995 -0.022707919 0.11122621 -0.030681502
0001f0 42 98 12 3d 8a 6b 4b bd fa 6a 9e 3d e8 6a 6f 3d
       0.035789736 -0.049663104 0.07735248 0.058451563
000200 e4 8b 3d bd 75 ab 0c bd 04 4c d5 3c f9 d1 77 bc
       -0.04627599 -0.0343432 0.026037224 -0.015125745
000210 bf 65 71 3b 6e 8e 58 ba 8f d9 aa 3c 2c 45 a2 3c
       0.0036834327 -0.000826097 0.020855693 0.019808374
000220 cb fd ae bb 4a fb 0d 3d b3 14 fd 3b b0 99 84 bb
       -0.005340313 0.034663476 0.007723415 -0.0040466413
000230 33 90 d2 3b 97 34 ea bb d0 34 ae 3b 7b f8 0e 3c
       0.0064258813 -0.0071473825 0.0053163543 0.008726235
000240 3b 6d d2 bc 79 37 9f 3c 4c ec e4 3c 91 30 fb 3b
       -0.02568685 0.019435631 0.027944706 0.0076657017
000250 06 92 35 3d 5a ab b5 3c f8 4c de 3c 00 03 79 3c
       0.044328712 0.022176433 0.027136311 0.015198469
000260 5f 84 1c bd b4 b5 ac bb 56 78 f1 3b e1 14 29 3c
       -0.038212176 -0.005270684 0.0073690815 0.010319919
000270 87 7a 41 3c f4 9d 26 bc 05 31 21 bc d5 54 f4 3c
       0.011808998 -0.010169495 -0.009838347 0.029825607
000280 be f0 eb 3c 33 bd c6 3c 23 df 3a 3d 5d 8a 61 bc
       0.028801318 0.02426014 0.045622956 -0.0137658985
000290 3d db ec 3c 36 28 96 3c 07 7f e0 3c cf 61 24 3d
       0.028913135 0.018329721 0.027404321 0.04013234
0002a0 01 a7 8c 3c 48 a8 5e bc 85 08 bc 3c 32 05 a0 bb
       0.017169477 -0.013589926 0.022953281 -0.004883432
0002b0 98 96 5e 3c 29 2c 4f bc de 08 e9 3b 4b 97 87 bc
       0.013585709 -0.012644806 0.0071116528 -0.016551634
0002c0 9d c1 df 3a 4b c6 07 3d a1 2c 03 3c 1b 9f a6 bc
       0.0017071251 0.03314809 0.008006246 -0.02033954
0002d0 10 2e 98 bc 12 a8 b1 bc 56 d5 9a 3c db 8a eb 3b
       -0.018576652 -0.021686587 0.018900555 0.0071881837
0002e0 37 3f bd 3a 5f 99 16 bd 1a 2c de bb 91 1a 5c 3c
       0.0014438395 -0.03676736 -0.0067801597 0.013434068
0002f0 e6 65 46 3a 41 29 9f 3c 79 e5 e1 3c 34 c2 80 bc
       0.00075682846 0.019428851 0.027575241 -0.015717603
000300 88 24 f4 3a fb 86 cd 3c c6 4e 85 bc fe a3 ba bb
       0.001862661 0.025088778 -0.016272914 -0.005695819
000310 96 1c 82 bc b9 1f 5e 3a 0a 71 f3 3b f6 1d fa 3c
       -0.015882771 0.0008473355 0.007429247 0.030531865
000320 65 5b 2b 3d 52 43 83 3b a8 1a 7f 3c f8 76 60 bc
       0.041835207 0.004005828 0.01557032 -0.013700239
000330 38 95 53 3a 24 8d b8 3c 51 a5 d3 bc f6 35 f5 bc
       0.00080712466 0.022528239 -0.025835665 -0.029932957
000340 08 47 c5 3b fc 58 cb bb 26 b7 00 3c 01 09 5f bc
       0.0060204305 -0.006205676 0.007856166 -0.013612987
000350 bd a1 c2 bc 86 64 ea 3b b0 ae 0b 3b 1f 1b 4b bd
       -0.023758763 0.0071530966 0.0021313839 -0.04958641
000360 ac a0 ab 3c c7 f5 5c 3c 1e 33 86 ba 8d 47 a5 3b
       0.020950638 0.013486332 -0.0010238623 0.00504393
000370 c5 00 5d 3d d5 89 d9 bb e9 3f 5c 3c 5c 5e 6f bc
       0.053955812 -0.0066387453 0.013442972 -0.014609899
000380 08 52 1b ba 99 81 96 bc ad fa 9c 3c 2d 6c da 3c
       -0.00059250044 -0.018372344 0.0191625 0.02666291
000390 d6 6b 7d 3c dd 45 90 bb a2 85 97 3b 15 a8 7d bc
       0.015467605 -0.0044028596 0.0046240846 -0.015481968
0003a0 2b 73 4b 3c 0f 25 63 3c 42 f6 d0 3c 61 36 22 3b
       0.012417595 0.013863816 0.02550805 0.002475165
0003b0 65 6a 2e bb ac f5 4c 3b 90 ea 47 bc 30 c3 28 bd
       -0.002661371 0.0031274362 -0.01220192 -0.04120177
0003c0 15 62 13 bc ce f1 7f 3d a8 78 70 bc 66 c4 d7 bc
       -0.008995553 0.062486462 -0.014677204 -0.026338767
0003d0 8c e0 3a bc bf 36 0c bc ab cc f1 bb 52 b6 f9 bb
       -0.011406075 -0.008557974 -0.0073791347 -0.007620611
0003e0 ef 2f 3c 3c 46 32 3c 3b 0c 74 25 bd 68 a6 e7 bc
       0.011486038 0.0028716489 -0.040393874 -0.02827759
0003f0 8c 92 3e bd 6f 8c ea bb 4f 64 d3 3b e1 ec 7e 3b
       -0.046526477 -0.0071578543 0.0064511667 0.0038898515

action_model._discrete_distribution.branches.4.bias f4 [3]
000000 9c 67 ae bc bf 84 10 3d de d7 80 bc
       -0.02128964 0.035282847 -0.015727933

action_model._discrete_distribution.branches.4.weight f4 [3, 128]
000000 08 29 0b 3d 60 91 35 bd 32 e8 5f bd 59 6d 79 bd
       0.033974677 -0.044328094 -0.054664798 -0.060895298
000010 e3 a4 ed 3c ca 74 17 3c 8c 0c b7 bd fd 58 65 bd
       0.029009288 0.009244153 -0.0893794 -0.05599307
000020 ec 6b 8a 3d 5b fa 99 bd fe e8 9d bc ac 5c 35 3d
       0.06758866 -0.07518455 -0.019276138 0.044277832
000030 53 01 03 bd 69 c2 d2 3c 4f 9c 39 bd 3d 77 a1 3d
       -0.031983685 0.025727468 -0.045315083 0.07884071
000040 25 46 9b 3d 36 ff df 3c 91 bc f2 bc e1 fe 41 3c
       0.075817384 0.027343374 -0.029630931 0.011840553
000050 70 dc 05 bc 29 3e 9c 3d 06 5d 61 bc de 8e 2c bc
       -0.008170232 0.076290436 -0.013755089 -0.010532109
000060 b5 65 67 bd d4 5b 79 3d 65 1b 6e bd c4 da ea 3d
       -0.05649348 0.06087859 -0.058131594 0.114675075
000070 6d 1a 4d bd 56 06 66 3d 04 f8 29 bd 85 ae ae 3b
       -0.05007403 0.056158386 -0.04149629 0.005330863
000080 da e7 e9 bb 49 d8 1d 3e 46 e2 2e bd 67 bf b6 3d
       -0.0071382346 0.15414537 -0.04269626 0.08923226
000090 6b 96 25 bd 03 86 c5 3c 8d 2e 98 3d 37 32 62 3d
       -0.040426653 0.024111753 0.07430754 0.05522367
0000a0 d0 4d 9e bd b7 8f 25 3d bf ee 97 3d 6f 5b d9 3d
       -0.07729685 0.04042026 0.07418584 0.10613143
0000b0 71 87 8c bd ec 15 00 be ac 04 76 3d 58 37 81 3d
       -0.06861771 -0.12508363 0.06006305 0.06309384
0000c0 cb be 05 bd 59 6c ca bc 32 05 8c bd 3a 22 04 3d
       -0.032652657 -0.024709867 -0.068369284 0.032259203
0000d0 72 74 45 3c ab 38 fe 3c ce cb 9e 3d 8f 63 74 3c
       0.0120516885 0.03103288 0.077537164 0.014916315
0000e0 08 f1 3a 3d da 21 a8 3d 26 be 92 bd d5 6d a6 bd
       0.04564002 0.08209582 -0.07165174 -0.081264175
0000f0 78 a9 ea bc 60 45 a9 3d 96 d4 2a bd b1 51 0d bd
       -0.028645262 0.08265185 -0.041706644 -0.034501735
000100 a5 12 a0 3d 4e 28 a3 bd 1d 49 e3 3d 61 0f 07 bd
       0.07816056 -0.07966672 0.110979296 -0.03297365
000110 25 e0 9a bc 27 3a ea bc f1 57 1d 3c 4b 02 f3 bc
       -0.018905709 -0.028592182 0.009603486 -0.02966418
000120 15 c3 91 bd f2 ca 1c bd 0f 62 ac 3c bc 51 bf 3c
       -0.07117287 -0.03827948 0.021042852 0.023354404
000130 db 9a 90 3d c9 e8 44 bd b1 75 af 3c 4e 17 94 bd
       0.07060786 -0.048073564 0.021418424 -0.072310075
000140 4a eb 1e 3d 0e 8f 93 3c 0c 3d cf bc 8f 0e 6c bd
       0.038798608 0.01801255 -0.025297664 -0.05763107
000150 41 58 a8 3c 43 de 8b 3d 93 21 b0 3b 01 8e 93 3c
       0.020549895 0.068295024 0.005375096 0.018012049
000160 5d ef 3a 3c a2 87 11 bd a4 a8 b1 bc 21 44 e0 bd
       0.011409608 -0.03552974 -0.02168686 -0.109504946
000170 c3 f4 72 3c 2f f8 86 bb 0e 9a 8e bd a7 65 5c bd
       0.014828864 -0.0041189413 -0.06962977 -0.05380788
000180 8b c4 b5 3c ac 2f c6 3d 0d 40 b2 bd 77 15 4a bd
       0.022188446 0.096770614 -0.08703623 -0.049336877
000190 45 6a f5 bd 7b 8a 3d bd 1e a4 97 bc e5 87 bf bd
       -0.1198316 -0.046274643 -0.018510874 -0.09352092
0001a0 3a f5 03 bd d5 40 b3 bd 33 71 24 3d 96 8d c5 3d
       -0.03221629 -0.087526 0.040147018 0.09646146
0001b0 ca b5 31 bc 1e 85 ac 3d 24 f8 00 3e e3 5e 42 3d
       -0.010846565 0.084238276 0.12594658 0.047453772
0001c0 23 57 75 bd 6f 56 43 bd 98 de fb 3c 68 18 43 3c
       -0.059897553 -0.04768985 0.03074579 0.011907674
0001d0 7d 1a 15 bd 7c bd 7f bd eb 02 c4 3d a6 5a 08 bc
       -0.036402214 -0.062436566 0.09570869 -0.0083223935
0001e0 e3 e1 d0 bb df 7f 18 3d 04 a6 aa bb 07 ad ea 3d
       -0.006374584 0.037231322 -0.005207779 0.114587836
0001f0 e2 64 d4 3d e4 a6 22 bd b4 d3 ec bb b1 6b a8 bd
       0.10370804 -0.03970994 -0.0072273854 -0.082236655
000200 f9 0c 23 3c d6 58 a6 bc 02 03 10 bd df c6 3a bd
       0.009951823 -0.020306032 -0.03515912 -0.045599815
000210 c4 2b ab bc c9 27 11 3c 7f 8f 29 bc 7e d7 8a bb
       -0.020894893 0.008859583 -0.010349154 -0.0042371145
000220 27 df e5 3c f6 06 a2 bb e6 83 8b 3a af f2 ec 3b
       0.028060509 -0.0049446775 0.0010644167 0.0072310786
000230 64 7a 06 3c 67 15 64 bb 16 c5 3e bc 80 c0 d6 bb
       0.008207891 -0.0034802796 -0.011643669 -0.0065537095
000240 0b e9 02 bc 18 8d 7a bc b1 b4 5d bc 85 45 83 bc
       -0.007990132 -0.015292428 -0.01353185 -0.01602436
000250 b9 da a5 bb bd 91 05 3d 8a a7 0f 3c c8 06 b3 3b
       -0.005061474 0.03260969 0.008767972 0.005463455
000260 db 3e 3b 3c e1 2d a8 b9 58 88 26 bb 3a 80 20 3d
       0.01142856 -0.0003207764 -0.0025410857 0.039184786
000270 9d 93 ba ba a3 43 36 3b 40 30 75 bd 67 de be bc
       -0.0014234666 0.002781131 -0.059860468 -0.02329941
000280 93 86 ab 3c 92 72 cd 3b 85 dc 69 bc 5c c2 3f bc
       0.020938193 0.0062697614 -0.014273767 -0.011704054
000290 65 32 75 bc 50 e3 c3 bc 1c 58 dd 3b 09 8e 45 3b
       -0.014965628 -0.023912102 0.006754888 0.0030144474
0002a0 5f 0d 00 bd b5 f7 96 bc 8c 39 85 bc 59 28 11 3c
       -0.03126275 -0.018428663 -0.016262792 0.008859717
0002b0 1a 8d b4 bb a6 11 2b bc b5 5a 38 3d f2 c7 85 3b
       -0.0055099847 -0.010441219 0.04500838 0.004082673
0002c0 d2 24 d0 3c f5 76 19 3c 1f 25 0a 3d c6 1f 5e bc
       0.025408182 0.0093667405 0.033726808 -0.01355738
0002d0 36 22 22 3c 38 f0 82 bc 16 5d f0 3c ca 07 a3 3a
       0.009895852 -0.015983686 0.029341262 0.0012438234
0002e0 55 23 5f 3d 31 0f 2b 39 b6 d2 36 bc a4 db 02 bd
       0.054477055 0.0001631349 -0.011158636 -0.031947747
0002f0 e2 49 95 3c d7 da 0c 3c 8b 34 0d 3d 6e 83 f3 3c
       0.018223707 0.008597097 0.034473937 0.029725756
000300 75 39 2a 3d 16 2d 9b bb ec 14 97 3c 56 24 37 3c
       0.0415587 -0.0047355993 0.018442594 0.011178097
000310 54 b9 53 3c e9 a3 9b 3c dc 29 0e bc fd 58 35 3d
       0.012922604 0.018999057 -0.008676972 0.04427432
000320 d7 07 33 bb 47 85 29 3d ca 13 e9 3c 55 52 f3 3c
       -0.0027317905 0.04138687 0.028451819 0.029702345
000330 1d c8 29 bd 8f e1 4d bc c8 0e 39 3c 0e 42 a8 3a
       -0.04145061 -0.012565984 0.011295028 0.0012837069
000340 c5 f9 b5 3c 9a d3 e6 3b 6e d4 02 3d 6d e2 de 3c
       0.022213826 0.007044268 0.03194087 0.027207578
000350 e1 23 45 3d ce f2 29 3d 75 bd 0a bd bb fc ac 3c
       0.04812992 0.041491322 -0.033872087 0.021116605
000360 82 8c b3 3c 11 76 40 3a 02 30 27 3d 5b 43 ff 3b
       0.021917585 0.0007341812 0.04081727 0.007790012
000370 4c 2b 9d bc 05 38 96 b9 d8 2c 90 3c 8f b0 19 3d
       -0.019185685 -0.00028651967 0.017599508 0.037521895
000380 ef 54 69 3c 79 7e 25 3c f9 23 8a bc f1 7f 2d 39
       0.014241441 0.010100954 -0.016862856 0.00016546228
000390 b2 e8 b3 bc 3a 3a 23 bd e2 e7 56 3d e7 b9 a6 bc
       -0.021961544 -0.03985045 0.052467234 -0.020352317
0003a0 4f c0 2b bd 54 32 28 bd 4c 42 16 3d f2 c1 3b 3d
       -0.041931447 -0.04106362 0.03668432 0.045839258
0003b0 a4 89 46 3c 97 51 a6 3c 0b 1f 23 3c e6 2b 9f bc
       0.012117777 0.020302577 0.009956132 -0.019430112
0003c0 22 5d fd bb f9 4c 54 bc 25 32 b0 bc 54 4b 04 bc
       -0.0077320496 -0.012957805 -0.021508286 -0.0080746
0003d0 64 bb 47 bc 28 d6 c0 3c 44 a5 be 3c ff 83 5a 3d
       -0.0121906735 0.023539618 0.023272164 0.053348538
0003e0 41 11 80 3c 69 0c 3e 3d ff a1 83 bc d8 24 64 3b
       0.015633227 0.046398554 -0.016068457 0.0034812
0003f0 2b 57 36 3c c6 30 ec 3b f8 c0 a5 3c ee f7 cc bb
       0.011129181 0.0072079627 0.020233616 -0.0062551415

action_model._discrete_distribution.branches.5.bias f4 [3]
000000 95 f0 13 3c c0 ab e7 3b 16 1e 54 bc
       0.009029527 0.0070700347 -0.012946626

action_model._discrete_distribution.branches.5.weight f4 [3, 128]
000000 a7 53 8d bd 7e b7 47 3b d4 85 bb bc 49 15 56 3d
       -0.06900721 0.003047436 -0.022890963 0.052266393
000010 22 66 ae bc 77 cc c7 bd 1c 2b 46 bc b8 63 48 3c
       -0.021288935 -0.097557954 -0.012095239 0.012230806
000020 19 17 16 bd 87 3e f3 bc a5 d6 d2 3c 5c 2e 90 3d
       -0.03664312 -0.029692901 0.025737116 0.07040092
000030 34 e8 85 3d 82 09 66 bd 98 17 46 bd 93 53 a8 3d
       0.0653843 -0.05616141 -0.048362345 0.082190655
000040 5b ce 37 3d 79 5b a2 3c ef 7f e3 bc 23 30 fd bc
       0.04487453 0.019819008 -0.027770964 -0.030906742
000050 10 a1 a3 bd 63 53 8f 3d 94 9d 3a 3d 95 5d 2d 3d
       -0.079897046 0.06998327 0.045560434 0.042325575
000060 32 3b ec ba 74 33 61 3d 1d 15 42 3d 25 eb c4 bc
       -0.0018023013 0.05498071 0.047383416 -0.024037907
000070 a2 a5 5b bd 1e 7c be 3c df 7f 0a be 2c 6e 68 3d
       -0.053624757 0.023252543 -0.13525341 0.056745693
000080 6b a5 f4 3d c7 1f a1 3b 0f 5f 07 bb 3a a1 20 3d
       0.119456135 0.004917118 -0.0020656025 0.039216258
000090 df 4f 57 3d 28 77 6d 3c 42 fe 25 3c 7d 94 34 bd
       0.052566405 0.014493741 0.010131421 -0.044086922
0000a0 da 01 25 bd 9c 7f d2 3b a3 63 b5 bd ff 52 5f 3d
       -0.04028497 0.0064239036 -0.08856895 0.05452251
0000b0 3c 6e c3 3d 88 3c a2 3d e3 f3 0d 3d cf cc 85 3a
       0.0954251 0.07921702 0.034656417 0.0010208132
0000c0 90 9b fa 3c 44 45 c2 3c 0d d9 d8 bd 04 1e 70 3a
       0.030591756 0.023714669 -0.10588274 0.0009159746
0000d0 62 cf 83 3d 81 59 72 3d 69 4a bf bd 82 b8 50 bc
       0.064360395 0.05916739 -0.093403645 -0.012739303
0000e0 2a b1 8d bd 36 8f 14 be e8 dc ea bc e8 d6 a4 bc
       -0.06918557 -0.14507756 -0.02866979 -0.020122007
0000f0 f0 47 2d 3e 6c e1 81 3d a4 b6 e3 3d 0b 80 9e bc
       0.16921973 0.06341824 0.1111882 -0.019348165
000100 b4 72 70 3b 7b d6 87 bc 84 a5 0b 3d 3f b8 f7 3c
       0.0036689462 -0.016581764 0.034093395 0.030239223
000110 d5 63 3f bc 7b f5 e1 3c 50 08 79 3c 91 e5 00 3e
       -0.011681517 0.027582875 0.015199736 0.12587573
000120 27 3f b8 3b 9c e7 12 3e 3f cc cb bd 4b d5 ac bc
       0.0056227627 0.14346164 -0.09951066 -0.0210978
000130 b1 e4 f0 3c b7 42 74 3c 48 f7 09 bd cb 79 06 be
       0.029405924 0.014908484 -0.03368309 -0.13132398
000140 68 2d c0 bd 74 91 38 3d 0a e0 8a 3d 6a d7 af 3b
       -0.093836606 0.04506059 0.06781013 0.0053662555
000150 85 88 9f bd f3 bb 82 bd ea 78 8c bb fd a5 b5 bd
       -0.07789711 -0.06383505 -0.004286875 -0.088695504
000160 94 f7 12 be ff 5a a2 bb 5e 95 c0 3d c9 5f 26 be
       -0.14352256 -0.0049546952 0.094034895 -0.16247477
000170 c6 1c da 3a dd 2c b6 3d de 85 df ba 11 bd df bb
       0.0016640655 0.08895276 -0.0017053445 -0.0068279584
000180 0f 43 7d 3d 8e cd d4 bd 59 5e c0 bc fb 98 79 bd
       0.06183153 -0.10390769 -0.023482488 -0.06093691
000190 e0 49 f4 bc 58 31 b8 bc 42 69 0a bd 3f 15 ee bc
       -0.029820383 -0.022484466 -0.033791788 -0.029062865
0001a0 a9 71 d1 3b d2 03 09 be 2c bd 97 3c 75 db 10 3c
       0.006391723 -0.13380364 0.018522821 0.008841385
0001b0 8a 73 54 bc 68 da 4a bd 1b dd 0b bd 7f 10 f3 3d
       -0.012967 -0.049524695 -0.03414641 0.11868381
0001c0 4c 49 be bc d3 9c 5a bd bc 21 cd bd 39 af 65 bd
       -0.02322831 -0.053372215 -0.100162 -0.05607531
0001d0 45 9d ac bc 99 1d d2 3c 3b 81 99 3d d5 28 fb bd
       -0.021071086 0.025648879 0.07495352 -0.122636475
0001e0 bf 7d a6 3c 8b 5c d1 bd 8b dd e7 3c 66 98 61 3d
       0.020323632 -0.10222729 0.028303882 0.05507698
0001f0 fd 07 27 bd 9d 77 d6 3d b5 69 6b bc 20 fc fd 3d
       -0.040779103 0.10472033 -0.014368464 0.12401605
000200 af 57 72 bc 93 ca 03 bd 0b 37 73 bb 97 13 75 bc
       -0.014791413 -0.03217561 -0.0037111666 -0.014958284
000210 05 ef f1 3b 10 6a aa 3b ee 6e 38 3d 2b 71 2b 3c
       0.0073832297 0.005200632 0.045027666 0.010463993
000220 8f d6 90 3b bd 8c 6d 3b eb a4 53 3c a5 7f c3 bc
       0.0044201086 0.0036247217 0.0129177375 -0.023864577
000230 e1 dc df ba b6 34 00 bb e9 dd f3 bc 67 07 86 bc
       -0.0017079377 -0.0019562668 -0.029768901 -0.016360952
000240 ef 96 0e bc 4f 4b 0b 3b 81 4a 9c 3b a8 3f 16 3b
       -0.008702978 0.0021254604 0.0047696237 0.0022926126
000250 a1 44 9f bc d4 26 fc 3c 56 62 5b 3a de 3c 71 3b
       -0.019441905 0.030780233 0.000836884 0.0036809961
000260 8d db 98 bb 21 1d ad bc 34 a2 a5 bc 5b 05 77 3c
       -0.0046648444 -0.021132054 -0.020218946 0.01507696
000270 50 b7 c8 39 3d e3 8d 3c c2 9c f7 3c d4 74 2e bc
       0.0003828355 0.01732027 0.030226115 -0.010647971
000280 e8 94 3d bc 8b 4b 59 3c 83 18 0d 3c 65 c6 51 bc
       -0.011571147 0.01326264 0.008611801 -0.012803649
000290 46 0a 99 bc 97 3e 09 3c e1 19 c9 bb 6e de ca 3c
       -0.018681657 0.008376739 -0.006137118 0.024764266
0002a0 c6 7e e5 3c b3 1d be bb 50 ee 7a 3d a7 d1 02 3c
       0.028014552 -0.0058018803 0.06126243 0.007984555
0002b0 8c 6c bd 3c 9f 1c cd bc 6a 8a 24 3c a6 ee 80 3b
       0.023123048 -0.025038062 0.010042766 0.003934699
0002c0 8c 39 97 3c 46 29 9c bc c7 38 12 bc 7c d3 e1 3a
       0.018460058 -0.01906265 -0.00892467 0.0017229165
0002d0 cd 19 84 3c 31 02 7e bc 2c b2 55 3c b9 a7 f4 bc
       0.016125584 -0.015503452 0.013042968 -0.029865133
0002e0 86 1f 3b 3c 6c fb 38 3d 92 51 44 3c 6d 93 b0 bc
       0.01142109 0.04516165 0.0119823385 -0.021554673
0002f0 8a d0 61 bd 37 e4 90 3c 6d f0 08 3c 2a 50 91 bc
       -0.05513052 0.017686946 0.008358103 -0.01773842
000300 6a 4b 16 bc 4d 84 28 3c 40 75 b0 bc 4c 2d f4 bb
       -0.009173254 0.010285449 -0.021540284 -0.007451689
000310 a0 bc 55 3d 4b b7 59 bb 20 30 18 bc 26 be 86 bc
       0.05218184 -0.0033220823 -0.009288818 -0.016448092
000320 68 a1 6c 3c 18 55 32 3c 07 a6 58 3d 8f 8d 15 3c
       0.014442779 0.010884546 0.05289271 0.0091279885
000330 b6 7c 1b 3c 3e 66 67 3c b3 c0 bf 3c 69 0c 8d 3c
       0.009490183 0.0141234975 0.023407316 0.017217832
000340 0e 54 7e 3c 66 7d 83 3c 8f 94 92 bb e5 1a 0c 3d
       0.01552297 0.016051006 -0.004473276 0.034205336
000350 48 dd fc bc cd 2c 3b 3d 0b 3c ab bc fb 2e 2d 3c
       -0.030867234 0.045697022 -0.020902654 0.010570283
000360 2d a0 46 3d d0 05 da 3b 0b c2 ff 3c f4 ad b2 bb
       0.0484926 0.006653525 0.031220457 -0.0054528657
000370 af d2 8c 3c 25 28 63 3c c8 71 e2 3c 26 f9 07 3d
       0.017190306 0.013864552 0.027642146 0.03319659
000380 a5 c9 8f 3c bd 20 4b bb 93 70 99 3b 38 c5 02 bc
       0.017552206 -0.0030994855 0.0046826093 -0.007981591
000390 5d 18 91 bb b8 c4 94 3b ac 23 b8 ba eb df ba bb
       -0.004427953 0.0045400523 -0.0014048717 -0.0057029626
0003a0 72 f6 3a bb f1 9b 4f 3b 11 01 a9 bb b7 5b 2e 3d
       -0.002852824 0.0031678642 -0.005157598 0.042567935
0003b0 ef 5a 18 3c e4 96 95 3c 34 ae f3 bb 42 f5 27 bd
       0.009299024 0.018260427 -0.007436538 -0.04100538
0003c0 8f f6 e9 bb 36 de ea bb a5 47 11 bb 2d 87 0c bc
       -0.007139988 -0.007167603 -0.0022167948 -0.00857715
0003d0 fa 42 6a bc db 1a 2c bc ce 69 b7 3c f4 f2 8f bc
       -0.014298195 -0.01050445 0.022389319 -0.017571904
0003e0 2d 2a 8b bb 44 ec 62 3d bf 0f 64 bc fa 88 9c 39
       -0.004246971 0.0554011 -0.01391977 0.00029856694
0003f0 63 a7 1e 3c 96 19 27 bc d9 e0 e1 bc 7f cf 22 bd
       0.009683463 -0.010198971 -0.027573036 -0.039748665

action_model._discrete_distribution.branches.6.bias f4 [3]
000000 c2 c6 d9 bb 4a af 9c bc f1 7c f6 3c
       -0.006646008 -0.019126553 0.030088874
