ArmRobot/Assets/results/Test/TouchCubeMoveGail/TouchCubeMoveGail-1260870.onnx (onnx, 137283 bytes, 20 tensors)

action_model._discrete_distribution.branches.0.bias f4 [3]
-0.025551762 0.038301352 -0.0070354994
00000000: ee51 d1bc e1e1 1c3d 0c8a e6bb

action_model._discrete_distribution.branches.0.weight f4 [3, 128]
-0.15147763 -0.15562916 -0.044034075 8.158728e-05 0.033944532 -0.14416464 -0.13353938 -0.11721423
-0.016240373 -0.12344787 -0.13892415 -0.010921409 0.093101926 0.025467148 0.10096037 -0.019389473
0.122106284 -0.11966336 -0.099950396 0.027688872 0.023018332 0.12603067 0.16552006 0.04512524
0.011224001 -0.13896924 -0.26118952 0.054519642 -0.0065103318 0.13952793 0.051208816 -0.07665678
-0.11198247 0.053963035 0.090043224 -0.057520848 0.17331362 0.025991296 -0.010001654 0.07256912
-0.06013051 0.15440574 0.11306809 -0.07775396 0.073678434 -0.10578223 -0.1571286 -0.16559258
0.051841803 -0.05428823 0.015577841 0.12542704 -0.051615432 -0.013015713 0.06745935 -0.07002966
0.1643762 0.034136068 -0.14159794 -0.017967392 -0.03989371 -0.07503147 -0.07981318 -0.010748714
-0.14804478 -0.3832082 -0.2303367 -0.031359795 -0.09171267 0.053620238 -0.045826912 -0.07617637
-0.030509092 -0.2074759 -0.08304566 -0.0330152 -0.05769369 -0.09705056 -0.27312985 -0.11354008
0.014286213 0.03489847 -0.007832928 -0.024263177 0.01595128 0.010801492 0.0059655 -0.016247075
0.053065896 0.040586364 -0.0111837955 -0.15050136 0.025597157 0.036911983 -0.019936366 0.0015243323
0.15144381 -0.048771992 0.05958462 -0.14105241 -0.028360749 0.15363191 -0.009357934 -0.13908587
-0.19594765 0.08077282 -0.07578898 -0.04146275 0.13542709 -0.02663476 0.11164584 -0.0672628
-0.24593164 -0.0059055705 -0.09932893 -0.028270736 -0.1495142 0.056580894 -0.07183059 -0.1126998
0.17216481 0.07250173 0.05873034 -0.14729714 0.043313008 -0.029100273 0.14478602 0.018653931
0.01979452 -0.30427116 0.037528105 0.019498965 0.012653873 0.11428081 0.066754036 -0.06589457
0.038627245 -0.029201461 0.076991595 0.035662513 0.0020893086 -0.41718563 -0.14084497 0.022320911
-0.032549117 0.08305934 0.06490655 -0.05111613 -0.03116948 0.0012884322 0.0052054278 -0.0049189543
-0.03035445 0.14444725 0.040679894 0.04484761 -0.03273685 0.013422043 0.008111619 0.1625696
-0.02332374 0.023145229 0.07356846 0.18917349 -0.10310604 -0.05135102 0.03378284 -0.02322994
0.062277563 -0.17710191 -0.027534287 -0.010651525 -0.102649726 0.031087516 0.0079756025 0.15151456
-0.11489618 -0.080070615 0.03747059 -0.1113908 0.005961968 -0.036102846 -0.059872106 0.0025759728
-0.13840139 0.015419895 -0.11448392 -0.0073975786 0.011423343 0.019941337 -0.019987395 0.10738253
0.011225467 0.42751053 0.058817696 0.03149562 0.0009794974 -0.06720438 -0.0063257166 -0.069103785
-0.0023441892 0.051629104 0.018599592 0.03308639 -0.0040088315 0.050317664 0.0034022268 0.03736042
-0.013909218 0.0563551 -0.045135703 0.057721913 -0.024649996 -0.031388704 -0.03717 0.11954496
-0.3884158 0.013702818 0.014775833 0.00440567 0.05976323 0.023631582 0.058299076 0.02424447
-0.07038566 -0.07370874 -0.017670693 0.0527313 0.005710195 -0.071942024 -0.030655853 0.212032
-0.0299795 -0.1125567 -0.41931143 -0.037376095 -0.32876232 -0.053246602 -0.55478466 0.05205782
0.2576436 -0.07660292 -0.09133531 0.08042506 -0.03273887 -0.06161418 -0.04519456 -0.009523953
-0.19002332 0.052070335 0.0063660336 -0.01407898 0.0040171305 -0.011785068 -0.06443847 -0.016331535
00000000: f41c 1bbe 405d 1fbe 135d 34bd d619 ab38
00000010: 6c09 0b3d e59f 13be 8cbe 08be 040e f0bd
00000020: 880a 85bc 3dd2 fcbd 2242 0ebe b6ef 32bc
00000030: 39ac be3d 7ba0 d03c 4fc4 ce3d acd6 9ebc
00000040: dc12 fa3d 1012 f5bd cbb2 ccbd c6d3 e23c
00000050: f190 bc3c 2f0e 013e 177e 293e 3ed5 383d
00000060: dfe4 373c f44d 0ebe a2ba 85be fd4f 5f3d
00000070: 9f54 d5bb 69e0 0e3e 56c0 513d 3bfe 9cbd
00000080: 1157 e5bd 5808 5d3d 9568 b83d fb9a 6bbd
00000090: 2079 313e b3eb d43c fadd 23bc 1e9f 943d
000000a0: 694b 76bd 8a1c 1e3e 3e90 e73d 783d 9fbd
000000b0: b8e4 963d 5ba4 d8bd 52e6 20be 1a91 29be
000000c0: 1258 543d 565d 5ebd 333a 7f3c f26f 003e
000000d0: b46a 53bd db3f 55bc 2128 8a3d b66b 8fbd
000000e0: 3c52 283e 43d2 0b3d 0dff 10be 5a30 93bc
000000f0: 9667 23bd 19aa 99bd 1875 a3bd 601b 30bc
00000100: 0d99 17be dd33 c4be 62dd 6bbe 2173 00bd
00000110: dad3 bbbd e5a0 5b3d 00b5 3bbd 5b02 9cbd
00000120: 34ee f9bc 9074 54be d813 aabd f23a 07bd
00000130: 3850 6cbd 72c2 c6bd add7 8bbe b487 e8bd
00000140: b810 6a3c b3f1 0e3d ae55 00bc 92c3 c6bc
00000150: 42ac 823c bef8 303c 3e7a c33b 9618 85bc
00000160: a05b 593d e33d 263d 3d3c 37bc 071d 1abe
00000170: 21b1 d13c 0531 173d 9751 a3bc 1bcc c73a
00000180: 1614 1b3e 24c5 47bd 010f 743d 0b70 10be
00000190: cd54 e8bc af51 1d3e 0552 19bc 876c 0ebe
000001a0: 80a6 48be 386c a53d 4137 9bbd d8d4 29bd
000001b0: 66ad 0a3e 2431 dabc 93a6 e43d 14c1 89bd
000001c0: 81d5 7bbe 8483 c1bb f76c cbbd 0898 e7bc
000001d0: 401a 19be 5ec1 673d eb1b 93bd 27cf e6bd
000001e0: f94b 303e c97b 943d 3a8f 703d 10d5 16be
000001f0: fb68 313d b263 eebc c942 143e 21d0 983c
00000200: 1e28 a23c 6ec9 9bbe 12b7 193d 4bbc 9f3c
00000210: 3152 4f3c 0f0c ea3d 57b6 883d bbf3 86bd
00000220: 9a37 1e3d e737 efbc c5ad 9d3d db12 123d
00000230: c8ec 083b 5b99 d5be aa39 10be 58da b63c
00000240: 3952 05bd 041b aa3d baed 843d 265f 51bd
00000250: 2357 ffbc 9ce0 a83a 4b92 aa3b 2e2f a1bb
00000260: e5a9 f8bc fbe9 133e f69f 263d 21b2 373d
00000270: 1317 06bd 21e8 5b3c 99e6 043c a578 263e
00000280: 6e11 bfbc 109b bd3c 10ab 963d b2b6 413e
00000290: 4229 d3bd 7255 52bd e05f 0a3d b74c bebc
000002a0: c216 7f3d 345a 35be 968f e1bc bc83 2ebc
000002b0: 053a d2bd 3fab fe3c 1aac 023c a226 1b3e
000002c0: b04e ebbd 10fc a3bd c37a 193d dc20 e4bd
000002d0: 9d5c c33b 94e0 13bd 743c 75bd a7d1 283b
000002e0: 18b9 0dbe baa3 7c3c 8c76 eabd 6367 f2bb
000002f0: f928 3b3c 045c a33c 9bbc a3bc 5feb db3d
00000300: 05eb 373c a9e2 da3e d3ea 703d 8d01 013d
00000310: 7b62 803a 73a2 89bd f547 cfbb 4986 8dbd
00000320: f8a0 19bb 0a79 533d 2c5e 983c 9885 073d
00000330: 845c 83bb e519 4e3d e5f7 5e3b 3d07 193d
00000340: 7de3 63bc 9bd4 663d 37e0 38bd d06d 6c3d
00000350: caee c9bc 7191 00bd 923f 18bd fdd3 f43d
00000360: 70de c6be c981 603c 5616 723c 705d 903b
00000370: 4aca 743d 0597 c13c 03cb 6e3d 579c c63c
00000380: 5b26 90bd 9cf4 96bd 21c2 90bc c7fc 573d
00000390: 961c bb3b 5756 93bd fc21 fbbc eb1e 593e
000003a0: 9297 f5bc 2184 e6bd fdaf d6be ad17 19bd
000003b0: 8953 a8be 1c19 5abd 5e06 0ebf 953a 553d
000003c0: dde9 833e fee1 9cbd 020e bbbd e5b5 a43d
000003d0: 3119 06bd 275f 7cbd ee1d 39bd 5b0a 1cbc
000003e0: 7995 42be b447 553d 299a d03b 86ab 66bc
000003f0: 22a2 833b 2816 41bc 51f8 83bd b6c9 85bc

action_model._discrete_distribution.branches.1.bias f4 [3]
-0.064707145 -0.013892914 -0.03386051
00000000: 2e85 84bd 1b9f 63bc 51b1 0abd

action_model._discrete_distribution.branches.1.weight f4 [3, 128]
-0.14427714 0.1334143 -0.020944443 -0.116759434 -0.08493596 0.21638243 0.060478203 0.024879212
-0.1438866 -0.034907084 -0.075117804 -0.10867577 -0.032282308 -0.004048488 0.025661893 -0.09978997
0.082349285 -0.041894197 -0.15145345 0.02106877 0.045392215 0.042718574 -0.05186295 -0.052647058
-0.0056778346 -0.20981479 -0.07003299 -0.0427134 -0.14897038 -0.03721719 -0.029334731 0.043988235
-0.1281644 -0.05580923 -0.009218303 0.09564013 0.038833983 0.05910381 -0.06690302 0.16918433
0.025549684 -0.15961073 0.08594255 -0.11694932 -0.047531627 -0.09514781 -0.12670466 0.04046205
0.14532283 0.064041205 -0.12715255 0.12778832 -0.07327983 0.1024815 0.0812509 0.12546973
0.07840797 -0.11671613 -0.09004343 -0.0840909 -0.0066116923 -0.06074398 -0.016864426 -0.018504469
0.0556449 -0.19127986 -0.0077409367 -0.19499335 -0.14064685 0.059088346 0.047545575 0.11897816
0.039583657 0.04368316 0.12244288 -0.10476649 0.073081575 -0.17089717 -0.07392166 0.04546197
-0.09305837 0.1447148 -0.014609245 -0.1713249 0.07362821 -0.1551624 0.08417185 -0.077769496
0.103802085 -0.1262749 -0.1581456 -0.08733255 -0.054373827 -0.07630587 -0.17568336 0.13484313
-0.051686812 0.08080857 -0.0010518059 -0.12132145 -0.09699589 0.1562239 -0.17966273 -0.054667607
-0.050614953 0.107919425 -0.1775101 -0.11844932 -0.000107986256 -0.009318081 -0.24655123 -0.023134619
-0.17139804 0.057881005 0.15251265 -0.1751053 -0.08001313 -0.23221312 0.18255153 -0.096178435
0.12145602 -0.0027273474 0.010057053 -0.13837387 -0.1319486 0.055286072 0.043557778 -0.09879056
-0.010739805 -0.036313377 0.07006802 -0.2395114 0.031875346 -0.05680472 0.03384545 0.037783157
-0.017603789 0.02177921 0.020469738 0.027682161 0.08946169 -0.20377816 0.03626451 -0.08954121
-0.043597378 0.12021065 0.023540959 -0.048186436 0.024574967 -0.015748456 -0.047801793 -0.0038190929
0.050557528 0.16474637 -0.09988608 0.051103882 -0.11254174 -0.07703364 -0.077539176 -0.108339936
0.014015605 0.11959718 0.07436131 0.054895896 -0.041215453 -0.08157798 0.10606285 -0.088267855
0.10246756 0.06259723 -0.052021094 0.075743765 -0.19413774 0.17227003 0.05390788 0.05804378
-0.07929819 -0.06403917 0.031819157 -0.034027882 0.12885478 0.051220994 0.10172587 0.012433909
-0.03472326 0.033713914 -0.100614145 0.011788474 -0.10150857 0.031984564 0.18697184 -0.10763927
0.0026706546 0.18131928 0.09018266 0.0288024 0.054711133 0.026507683 -0.057058867 0.07085451
-0.073263176 0.086564645 -0.06494399 0.01028208 0.06660674 -0.008767337 0.0060353796 -0.02993875
0.06312297 -0.0641522 -0.12351312 -0.15872607 -0.06507102 0.038407367 0.016968742 -0.09689365
-0.15865412 -0.014950412 -0.013635045 -0.008960436 0.094998255 0.056318905 0.017431308 0.06405113
-0.101172015 0.020497516 0.044096988 0.026684087 0.051857978 0.012245725 -0.027209409 0.25909185
0.054379035 0.038788687 -0.028779332 -0.13432579 0.017863559 -0.054625046 0.235942 0.12694041
0.064765036 -0.09892844 -0.023982884 0.032282174 -0.17662421 0.2240766 -0.036557365 0.07722763
-0.07390348 -0.09612727 0.09275504 0.017732602 0.0015770183 -0.0032446065 -0.10600532 0.02139972
00000000: 63bd 13be c29d 083e ae93 abbc 921f efbd
00000010: e8f2 adbd 5b93 5d3e feb7 773d 7dcf cb3c
00000020: 0257 13be bbfa 0ebd 5dd7 99bd 6791 debd
00000030: 743a 04bd 2ea9 84bb e438 d23c af5e ccbd
00000040: bea6 a83d 4099 2bbd 9d16 1bbe 6a98 ac3c
00000050: 30ed 393d acf9 2e3d 3f6e 54bd 71a4 57bd
00000060: 210d babb b0d9 56be 756d 8fbd 3ff4 2ebd
00000070: b18b 18be 0d71 18bd 644f f0bc 022d 343d
00000080: 873d 03be 3898 64bd 5d08 17bc f9de c33d
00000090: 6210 1f3d d616 723d 7304 89bd a83e 2d3e
000000a0: 924d d13c ff70 23be a602 b03d 2083 efbd
000000b0: 86b0 42bd dbdc c2bd debe 01be 89bb 253d
000000c0: 82cf 143e 0928 833d 4734 02be f1da 023e
000000d0: bc13 96bd d2e1 d13d df66 a63d 237b 003e
000000e0: 5c94 a03d de08 efbd b168 b8bd da37 acbd
000000f0: e5a6 d8bb aece 78bd 4427 8abc af96 97bc
00000100: e8eb 633d dede 43be afa7 fdbb 56ac 47be
00000110: ba05 10be 9f06 723d 26bf 423d d2aa f33d
00000120: 7922 223d 1ded 323d 55c3 fa3d d08f d6bd
00000130: cbab 953d abff 2ebe 3d64 97bd 5536 3a3d
00000140: 6395 bebd 1e30 143e 9d5b 6fbc cb6f 2fbe
00000150: 63ca 963d e4e2 1ebe 4a62 ac3d 9d45 9fbd
00000160: 3096 d43d 354e 01be ecf0 21be 68db b2bd
00000170: 17b7 5ebd 4146 9cbd 57e6 33be 5114 0a3e
00000180: 8db5 53bd f77e a53d c0dc 89ba 6177 f8bd
00000190: c8a5 c6bd 28f9 1f3e 82f9 37be 24eb 5fbd
000001a0: a051 4fbd dc04 dd3d 35c5 35be 8f95 f2bd
000001b0: ae76 e2b8 ddaa 18bc ed77 7cbe d084 bdbc
000001c0: f882 2fbe a214 6d3d 472c 1c3e ce4e 33be
000001d0: eddd a3bd 47c9 6dbe caee 3a3e 33f9 c4bd
000001e0: efbd f83d 4cbd 32bb 56c6 243c e1b1 0dbe
000001f0: 891d 07be a673 623d a469 323d b552 cabd
00000200: 02f6 2fbc 56bd 14bd d27f 8f3d 7a42 75be
00000210: b98f 023d 11ac 68bd 87a1 0a3d 83c2 1a3d
00000220: d235 90bc 506a b23c 27b0 a73c b3c5 e23c
00000230: b137 b73d 39ab 50be 188a 143d 6261 b7bd
00000240: 2a93 32bd 0031 f63d f8d8 c03c 245f 45bd
00000250: 7151 c93c e802 81bc d0cb 43bd bf49 7abb
00000260: 6915 4f3d 46b3 283e 1391 ccbd 4e52 513d
00000270: 497c e6bd d0c3 9dbd dccc 9ebd 54e1 ddbd
00000280: b5a1 653c 5eef f43d be4a 983d 85da 603d
00000290: 89d1 28bd 5b12 a7bd 7b37 d93d c7c5 b4bd
000002a0: 83da d13d fa32 803d 1214 55bd 8c1f 9b3d
000002b0: 0bcc 46be 8e67 303e 82ce 5c3d 51bf 6d3d
000002c0: 1767 a2bd f826 83bd ce54 023d d260 0bbd
000002d0: 82f2 033e 1bcd 513d a755 d03d 98b7 4b3c
000002e0: fa39 0ebd 9a17 0a3d ca0e cebd 7224 413c
000002f0: bae3 cfbd 3f02 033d 8c75 3f3e fa71 dcbd
00000300: 2606 2f3b c3ab 393e b0b1 b83d 03f3 eb3c
00000310: c818 603d a426 d93c 8fb6 69bd 2b1c 913d
00000320: 010b 96bd ce48 b13d 5b01 85bd 2b76 283c
00000330: 1d69 883d e0a4 0fbc 6fc4 c53b 1c42 f5bc
00000340: 9e46 813d 3b62 83bd 72f4 fcbd 1689 22be
00000350: f443 85bd 0b51 1d3d 0802 8b3c 2e70 c6bd
00000360: 3a76 22be 93f2 74bc 8665 5fbc cbce 12bc
00000370: 728e c23d a7ae 663d 1acc 8e3c 3d2d 833d
00000380: 4633 cfbd 68ea a73c 0b9f 343d 9698 da3c
00000390: 0869 543d 4ba2 483c 44e6 debc b0a7 843e
000003a0: 8dbc 5e3d e3e0 1e3d a2c2 ebbc b38c 09be
000003b0: 9956 923c 83be 5fbd c89a 713e abfc 013e
000003c0: 88a3 843d fe9a cabd c177 c4bc 503a 043d
000003d0: fadc 34be 5674 653e 2dbd 15bd 8529 9e3d
000003e0: b55a 97bd 60de c4bd 5bf6 bd3d f643 913c
000003f0: f4b3 ce3a 77a3 54bb 5119 d9bd 774e af3c

action_model._discrete_distribution.branches.2.bias f4 [3]
-0.014037617 0.024320722 -0.025906906
00000000: 08fe 65bc 403c c73c b83a d4bc

action_model._discrete_distribution.branches.2.weight f4 [3, 128]
-0.2178066 0.036819767 0.059115566 -0.1513045 -0.16820921 0.05903494 -0.10947167 -0.10135449
-0.060692996 -0.02382943 -0.15115991 -0.03301049 -0.048565492 0.06437549 -0.08371347 0.08160599
0.11334213 0.018579446 -0.09636696 -0.15434356 -0.032170936 0.04783031 0.091088414 -0.0373375
0.0021968347 -0.070593014 -0.060865145 -0.12465313 0.05529404 0.17783475 0.25331178 -0.01095739
0.05217237 0.087110996 -0.07088647 0.12669866 0.06973497 0.031366374 -0.14563762 0.1228946
0.16905278 -0.083406135 0.060469974 -0.14569454 -0.025018075 -0.058744833 -0.15145199 -0.0991696
-0.027000513 -0.076260924 -0.11622456 0.022101777 -0.12511179 -0.05466682 -0.020519309 0.123148724
0.03707317 0.03158796 0.038968574 -0.0866789 0.0833267 0.02096174 0.0069282195 0.19347078
-0.18114592 -0.3014814 -0.17251825 -0.05905766 -0.12851055 0.052849457 0.00688685 -0.076688156
0.015247646 -0.10611734 0.058103386 -0.016669678 -0.07134641 -0.08726998 0.119498305 0.15989503
0.086553514 0.15371814 0.041310046 0.0059639127 0.10640549 -0.029462488 -0.0039885924 0.043752953
0.059987206 -0.045375172 -0.11968925 -0.14947 -0.041585468 0.04104813 -0.07120114 0.0102563705
0.06292356 -0.10167617 -0.0732364 -0.061425194 -0.06503106 0.11245369 0.040971946 -0.17936236
-0.009294415 -0.0019547879 0.008648337 0.02470299 0.05352933 -0.058623824 -0.11887584 0.10949149
-0.02352751 0.0597002 -0.09111228 0.025826475 -0.007872453 -0.11194524 -0.043106645 -0.006332841
0.04184864 0.12730518 0.014308951 0.026505237 -0.020432202 -0.07079983 0.11366697 -0.07840938
0.05966604 0.11847791 0.0024724314 -0.028611243 0.02592671 0.015400242 0.13472927 0.014813722
0.034290057 0.022590319 -0.004422132 0.033571824 0.081109874 0.08427001 0.02269912 -0.065597676
-0.02550823 0.026809273 0.019364698 -0.059787214 0.08192285 -0.043614104 -0.005260683 0.053480033
-0.14727122 0.038548313 -0.045877382 0.03238676 -0.0874739 -0.115941435 -0.027496947 -0.06705801
-0.013498834 0.056902915 0.04588219 -0.0779686 0.05449467 0.02165659 0.009538139 0.02923938
0.05237177 0.07942855 0.06812841 0.046880815 -0.00091128564 0.032564 -0.00822868 0.11718622
0.061739545 0.10503047 0.010579831 0.043897204 0.027938645 0.045299716 0.036573164 0.059998594
-0.089863166 -0.0071401917 -0.112615034 0.09087705 0.056993846 0.070315324 0.12702379 -0.16276596
-0.009099173 0.0070296363 0.02786628 5.3451928e-05 -0.03222917 -0.036141243 0.039360236 0.0689596
0.041125882 0.001241825 0.09218625 0.028835138 0.13187549 0.03805077 -0.15153955 -0.018182049
0.078709334 -0.05245859 -0.00929356 -0.080380596 0.00481724 -0.024027945 0.14076687 -0.12140528
0.12877911 0.037775874 -0.0023891262 0.055377245 0.0032590178 0.0016608575 0.035193186 0.03623365
-0.07981613 0.017597942 0.07737315 0.03910858 0.036006507 -0.086315446 0.006036351 0.11909058
-0.004668125 -0.037310537 0.048394166 -0.017583068 0.13302366 -0.104650475 0.17778717 0.047125638
-0.07263877 -0.06661611 -0.05739406 0.0076641673 0.022796491 0.19133924 0.1431914 -0.0048261415
0.05975899 -0.009577287 0.022319224 -0.01665047 0.042014472 0.091123335 -0.033975556 0.022924947
00000000: b108 5fbe 53d0 163d 2a23 723d 91ef 1abe
00000010: 093f 2cbe 9fce 713d af32 e0bd f192 cfbd
00000020: 3899 78bd f035 c3bc aac9 1abe 0236 07bd
00000030: 9cec 46bd 4cd7 833d f871 abbd 0b21 a73d
00000040: eb1f e83d ec33 983c 0a5c c5bd 3d0c 1ebe
00000050: acc5 03bd b7e9 433d 908c ba3d 35ef 18bd
00000060: c5f8 0f3b 1293 90bd bb4d 79bd 244a ffbd
00000070: 017c 623d 501a 363e 15b2 813e a086 33bc
00000080: b2b2 553d 4067 b23d ed2c 91bd 4bbd 013e
00000090: 35d1 8e3d 077a 003d 0722 15be 2ab0 fb3d
000000a0: 2c1c 2d3e d6d0 aabd 5daf 773d f330 15be
000000b0: b5f2 ccbc 6c9e 70bd 3b16 1bbe 6e19 cbbd
000000c0: 2e30 ddbc b02e 9cbd 2407 eebd c90e b53c
000000d0: 4e1d 00be 51ea 5fbd 1c18 a8bc 6635 fc3d
000000e0: 09da 173d 6062 013d 839d 1f3d b584 b1bd
000000f0: 30a7 aa3d f4b7 ab3c 1e06 e33b 341d 463e
00000100: 517e 39be c55b 9abe a0a8 30be 72e6 71bd
00000110: 4598 03be ac78 583d 16ab e13b ae0e 9dbd
00000120: 43d1 793c 0c54 d9bd d1fd 6d3d d98e 88bc
00000130: 111e 92bd 9aba b2bd 87bb f43d 86bb 233e
00000140: f842 b13d 4a68 1d3e b934 293d ed6c c33b
00000150: 1feb d93d 515b f1bc bdb2 82bb 4c36 333d
00000160: 25b5 753d 51db 39bd a31f f5bd aa0e 19be
00000170: 8655 2abd 1522 283d e7d1 91bd 560a 283c
00000180: 11de 803d 993b d0bd f7fc 95bd fc98 7bbd
00000190: 012f 85bd 1f4e e63d 33d2 273d c4aa 37be
000001a0: 9a47 18bc e61b 00bb c1b1 0d3c ed5d ca3c
000001b0: 9241 5b3d 891f 70bd 2d75 f3bd 133d e03d
000001c0: c4bc c0bc 3288 743d 1399 babd 0b92 d33c
000001d0: 76fb 00bc 8c43 e5bd 9890 30bd b883 cfbb
000001e0: 7b69 2b3d 4a5c 023e 1770 6a3c 8321 d93c
000001f0: 6f61 a7bc 80ff 90bd 3aca e83d 1995 a0bd
00000200: 6164 743d 8ca4 f23d 8408 223b 2062 eabc
00000210: 4064 d43c 4c51 7c3c 78f6 093e 41b5 723c
00000220: bb73 0c3d 550f b93c 88e7 90bb 9c82 093d
00000230: ef1c a63d c195 ac3d 81f3 b93c 1358 86bd
00000240: a3f6 d0bc 1f9f db3c b7a2 9e3c 70e3 74bd
00000250: 2bc7 a73d b4a4 32bd cf61 acbb e10d 5b3d
00000260: 44ce 16be d6e4 1d3d ece9 3bbd fba7 043d
00000270: 8425 b3bd b472 edbd 4741 e1bc b655 89bd
00000280: 372a 5dbc 0813 693d f7ee 3b3d 00ae 9fbd
00000290: ce35 5f3d 2969 b13c db45 1c3c 6d87 ef3c
000002a0: c883 563d 70ab a23d e886 8b3d 1906 403d
000002b0: 58e3 6eba d461 053d 96d1 06bc 54ff ef3d
000002c0: 9be2 7c3d 371a d73d 0757 2d3c 8ecd 333d
000002d0: 96df e43c 328c 393d becd 153d 16c1 753d
000002e0: 2e0a b8bd 45f8 e9bb b6a2 e6bd bf1d ba3d
000002f0: 6172 693d 7b01 903d 8612 023e 1fac 26be
00000300: b314 15bc dd58 e63b d347 e43c 9231 6038
00000310: bc02 04bd d708 14bd 3338 213d b13a 8d3d
00000320: 9d73 283d bcc4 a23a 25cc bc3d ab37 ec3c
00000330: 5e0a 073e 20db 1b3d 2f2d 1bbe 85f2 94bc
00000340: 5c32 a13d d2de 56bd 0444 18bc 959e a4bd
00000350: f0d9 9d3b 41d6 c4bc 3125 103e 55a3 f8bd
00000360: acde 033e e0ba 1a3d e392 1cbb 40d3 623d
00000370: 3f95 553b 21b1 d93a bb26 103d bc69 143d
00000380: a476 a3bd 8f29 903c d075 9e3d 5230 203d
00000390: 8f7b 133d 27c6 b0bd 95cc c53b c3e5 f33d
000003a0: 12f7 98bb efd2 18bd f638 463d 5e0a 90bc
000003b0: 5b37 083e fd52 d6bd d70d 363e d006 413d
000003c0: a3c3 94bd 076e 88bd 0916 6bbd b223 fb3b
000003d0: b5bf ba3c 6fee 433e c4a0 123e 9c24 9ebb
000003e0: d8c5 743d 0eea 1cbc ced6 b63c 9166 88bc
000003f0: 5e17 2c3d df9e ba3d f429 0bbd 19cd bb3c

action_model._discrete_distribution.branches.3.bias f4 [3]
-0.06587786 -0.0014179874 -0.015970672
00000000: f9ea 86bd c3db b9ba edd4 82bc

action_model._discrete_distribution.branches.3.weight f4 [3, 128]
-0.048456762 0.04355244 -0.051230136 0.08055445 -0.1208801 0.051553003 -0.0148324985 -0.025339082
-0.12130596 0.03204575 -0.10613566 -0.07716246 -0.045174856 0.09197007 -0.0363706 0.039453764
-0.03412574 -0.1330552 -0.18514946 -0.21138588 0.1384338 -0.024211124 0.035015605 -0.0007089382
-0.004479087 -0.1661882 -0.0107762 -0.13260713 0.024039717 0.0771032 -0.05144659 -0.029060815
-0.0563631 -0.20349556 -0.011447981 0.15710379 0.18086997 -0.01885786 -0.096535265 0.09599216
0.005688989 0.02176017 0.16982915 0.08690538 0.1813055 -0.078917176 -0.21016833 0.0054330565
0.13818721 0.1393869 -0.21321164 0.04866305 -0.09547667 0.04317279 -0.004130224 0.039251115
0.111698896 -0.08475732 -0.05843083 0.11722371 0.124278985 0.13355662 -0.035592347 0.01384553
-0.0348803 -0.12099473 -0.041640688 -0.20351338 -0.2319433 -0.04237274 0.1674825 0.064847395
0.15800042 -0.059780378 0.023610372 -0.12278202 0.14555083 -0.13295773 -0.070975356 0.015023782
0.08805933 0.13077492 0.15882735 0.043960594 0.13348195 -0.16252169 0.0840341 0.10972022
0.13938314 -0.1104173 -0.08925197 -0.055214256 -0.13042414 0.05108617 -0.06881107 0.013936745
0.20196165 0.04026939 0.013069963 -0.039909117 -0.2651943 -0.071000814 0.04033478 -0.40547976
0.026495943 0.033284068 -0.23425113 0.095216185 0.09541679 -0.20071977 -0.22362491 -0.01107833
-0.021980336 0.17788091 0.083182395 -0.039180405 0.13448831 -0.20981692 0.15668444 0.021376805
0.17928155 0.037772324 -0.034799643 0.00056770106 0.018477513 0.064348295 -0.019323397 -0.1795798
0.016260972 -0.031344365 0.007956289 -0.088082395 0.0006748844 0.05882444 0.043585505 0.056189533
0.009197604 0.029641658 0.02506825 -0.003765426 0.042561464 -0.049125288 0.0067538354 -0.03526158
-0.061228856 0.0578474 -0.02141424 -0.14985265 0.06606784 -0.058570396 0.0071751378 0.04923903
-0.07693257 0.096334115 -0.06589819 0.001982094 -0.066622645 -0.05026907 -0.042521935 -0.08179497
0.0064511835 0.10815126 0.04076686 -0.01424641 0.042703185 0.006861751 0.01586352 -0.023661928
0.01280825 0.016614845 0.0012094111 0.030903315 -0.029140638 0.05043991 -0.027443638 0.087240785
-0.0119669875 -0.010689845 0.018269964 0.03098965 0.0553619 0.02447434 -0.022747988 0.013873663
-0.037445433 -0.027767636 -0.065964445 0.043609392 -0.0141441785 0.05244935 0.031437725 -0.09449705
-0.04441563 0.1256207 0.047135685 -0.015419246 -0.0053920327 -0.05494579 -0.010083477 0.04966596
-0.02255274 0.009211448 0.024877869 -0.008735045 0.05351083 -0.0072383885 -0.03685415 -0.013416353
0.09397091 -0.00018983289 -0.041997574 -0.067167856 -0.026242642 -0.009173049 0.0602339 -0.057412636
-0.024428202 0.025174726 -0.0064726537 0.036457025 0.0026134464 0.019427646 0.052606918 0.07444055
-0.044618636 -0.055043902 0.05872696 0.023902783 -0.04097145 -0.025784941 0.02974392 0.17106448
-0.0042700884 0.028757514 -0.05491063 -0.023012167 0.01165607 -0.12834996 0.11355621 0.036359496
0.021660693 -0.02454289 -0.12229812 0.03800922 -0.025979256 0.15919617 0.0023328315 0.014095792
-0.0057648066 -0.02093439 0.09534571 0.004204104 0.036588468 0.0486517 -0.027724808 -0.028482262
00000000: 997a 46bd 0b64 323d b1d6 51bd bbf9 a43d
00000010: fc8f f7bd 3e29 533d 0204 73bc e893 cfbc
00000020: 426f f8bd 6842 033d a75d d9bd 5a07 9ebd
00000030: 4509 39bd ce5a bc3d 57f9 14bd 459a 213d
00000040: 6fc7 0bbd 9f3f 08be d297 3dbe 8a75 58be
00000050: 97c1 0d3e 6856 c6bc 866c 0f3d 0ad8 39ba
00000060: 4ec5 92bb 3d2d 2abe a98e 30bc 2aca 07be
00000070: f1ee c43c 48e8 9d3d a9b9 52bd f210 eebc
00000080: fedc 66bd 2461 50be 5090 3bbc d1df 203e
00000090: fa35 393e cc7b 9abc 48b4 c5bd 8a97 c43d
000000a0: b36a ba3b 6242 b23c b1e7 2d3e 73fb b13d
000000b0: 26a8 393e 549f a1bd 5e36 57be c807 b23b
000000c0: f380 0d3e 71bb 0e3e 2754 5abe e852 473d
000000d0: 4689 c3bd f4d5 303d d556 87bb c7c5 203d
000000e0: 64c2 e43d 3f95 adbd 2a55 6fbd fc12 f03d
000000f0: fb85 fe3d 11c3 083e 48c9 11bd 5dd8 623c
00000100: a5de 0ebd 16cc f7bd 6d8f 2abd d065 50be
00000110: 8b82 6dbe 0a8f 2dbd 8880 2b3e b6ce 843d
00000120: ddca 213e 45dc 74bd 8a6a c13c 2475 fbbd
00000130: 470b 153e 1226 08be 875b 91bd 4f26 763c
00000140: 7358 b43d dce9 053e a3a3 223e 0610 343d
00000150: 7eaf 083e 166c 26be 121a ac3d ffb4 e03d
00000160: 74ba 0e3e 7722 e2bd bdc9 b6bd 5828 62bd
00000170: e88d 05be bb3f 513d d1ec 8cbd f256 643c
00000180: 09cf 4e3e 84f1 243d 6623 563c be77 23bd
00000190: 8cc7 87be e068 91bd 1536 253d 0b9b cfbe
000001a0: 050e d93c e054 083d 87df 6fbe b400 c33d
000001b0: e169 c33d 7c89 4dbe eefd 64be e281 35bc
000001c0: 1b10 b4bc 6a26 363e 885b aa3d a27b 20bd
000001d0: 4eb7 093e 3fda 56be e371 203e 691e af3c
000001e0: 9595 373e 27b7 1a3d 128a 0ebd c6d1 143a
000001f0: 275e 973c 0ac9 833d 1a4c 9ebc c4e3 37be
00000200: bb35 853c f362 00bd 185b 023c 8b64 b4bd
00000210: baea 303a e5f1 703d b786 323d ff26 663d
00000220: 8cb1 163c 10d3 f23c ee5b cd3c 5ec5 76bb
00000230: ee54 2e3d 9937 49bd 474f dd3b 726e 10bd
00000240: 1ccb 7abd 65f1 6c3d eb6c afbc f972 19be
00000250: 934e 873d 83e7 6fbd 6b1d eb3b ddae 493d
00000260: d38e 9dbd d24a c53d a1f5 86bd 05e6 013b
00000270: 7471 88bd f1e6 4dbd 7b2b 2ebd 1f84 a7bd
00000280: 7364 d33b 687e dd3d 27fb 263d c669 69bc
00000290: 89e9 2e3d 8ad8 e03b 36f4 813c a9d6 c1bc
000002a0: b2d9 513c db1b 883c 1a85 9e3a f328 fd3c
000002b0: 59b8 eebc 149a 4e3d 7bd1 e0bc 4cab b23d
000002c0: 2f11 44bc 7624 2fbc e4aa 953c 02de fd3c
000002d0: 29c3 623d 697e c83c fd59 babc 5c4e 633c
000002e0: 6260 19bd f478 e3bc 5e18 87bd c39f 323d
000002f0: fcbc 67bc 21d5 563d d8c4 003d ab87 c1bd
00000300: 2aed 35bd b6a2 003e 5911 413d 01a1 7cbc
00000310: a6af b0bb d60e 61bd 2b35 25bc 896e 4b3d
00000320: 86c0 b8bc 9deb 163c accc cb3c 6f1d 0fbc
00000330: 2c2e 5b3d 0130 edbb 61f4 16bd 43d0 5bbc
00000340: d273 c03d e10d 47b9 a605 2cbd 4d8f 89bd
00000350: cffa d6bc 8e4a 16bc d2b7 763d 8329 6bbd
00000360: a71d c8bc 3a3b ce3c 8e18 d4bb f653 153d
00000370: 5b46 2b3b ba26 9f3c 5a7a 573d 4974 983d
00000380: 08c2 36bd b775 61bd ae8b 703d c5cf c33c
00000390: aed1 27bd f13a d3bc 85a9 f33c 872b 2f3e
000003a0: 19ec 8bbb e194 eb3c f8e9 60bd 0384 bcbc
000003b0: 1af9 3e3c 2c6e 03be 2990 e83d b2ed 143d
000003c0: c471 b13c 2c0e c9bc 7077 fabd 8eaf 1b3d
000003d0: 73d2 d4bc 5204 233e 6be2 183b 09f2 663c
000003e0: b4e6 bcbb 997e abbc 9d44 c33d 95c2 893b
000003f0: cadd 153d 0147 473d 231f e3bc a253 e9bc

action_model._discrete_distribution.branches.4.bias f4 [3]
-0.07403168 0.009067387 0.004595524
00000000: ec9d 97bd 618f 143c 0d96 963b

action_model._discrete_distribution.branches.4.weight f4 [3, 128]
-0.056280382 -0.05875817 -0.17548689 -0.023704134 -0.08058934 -0.07514026 -0.0384985 -0.106170274
-0.09139601 -0.11311285 0.032468326 -0.107462965 -0.008034522 0.05501334 -0.15080205 -0.021408299
-0.040294137 0.19663472 -0.0013202954 -0.049045373 -0.10040615 0.0034554477 0.06523246 -0.026542597
-0.022085048 -0.14779639 -0.007898675 -0.15400212 0.121257305 -0.0053117694 0.100718 0.024309168
-0.07547107 -0.0032871459 0.05198244 -0.01522132 0.037435167 0.14392698 -0.11055129 -0.15367916
-0.017286398 -0.116859905 0.023537118 -0.1253569 0.09892732 0.03283036 -0.030143147 0.10683164
0.10596345 0.047236014 0.041211624 0.05471063 0.0076852376 -0.20851232 -0.13791358 0.22940856
0.023034869 -0.12572765 -0.10079641 0.03755309 0.08783401 -0.15308891 -0.090229146 0.014521941
-0.08407896 -0.1942014 -0.0064254436 -0.022815187 -0.05106434 0.032046355 -0.034744825 0.1724722
0.06848768 -0.16386566 -0.038032275 -0.100554034 0.049873423 -0.09447825 -0.11118828 0.11716022
0.017722158 0.0393474 -0.0313209 0.14705792 -0.058365475 -0.035342637 -0.09219218 -0.11682966
0.0133045735 0.017071364 -0.14382175 -0.08436409 -0.1109457 -0.13646384 0.028517565 0.09419729
0.032726888 7.06329e-05 0.056615148 -0.042288687 -0.025434041 0.025263691 -0.12230432 -0.27331665
-0.14643376 0.17100294 -0.07648784 0.12520488 -0.17211226 -0.10477705 -0.20626512 0.06265114
-0.1287165 -0.09525389 0.024940124 -0.035291605 -0.019845245 -0.30970085 0.011836071 -0.10677381
0.15019713 0.03331647 0.08252782 -0.10456117 -0.045800608 -0.030930934 -0.0018865743 -0.074442975
-0.0020990232 0.02525514 -0.04063597 -0.0070745125 0.00949809 0.014489306 0.07436161 -0.012225612
0.004497747 -0.033430416 0.050703306 -0.020530773 0.03989387 -0.023499936 -0.008167189 -0.04766682
-0.05719334 0.042110715 0.033767145 -0.021920975 0.044118978 0.006404421 -0.013681064 0.02715248
0.049886648 0.14326982 -0.04102645 -0.0057502533 -0.03622618 -0.013056743 -0.02477282 -0.010757583
-0.00027763977 0.20152546 0.019518252 0.0043803407 -0.0013612376 0.038697973 0.02474151 -0.08080575
0.13129123 0.0045776516 0.033195443 -0.013295317 0.003244058 0.023918413 0.036017537 0.08002947
0.07191772 0.008349332 0.058578864 0.049853273 0.020267531 -0.049219035 -0.043882996 0.06275853
0.02521863 -0.021801695 -0.081832 0.041712556 -0.024563944 0.02316158 0.06419101 -0.012733645
0.039735213 0.16325147 0.02481286 0.0011866728 0.013623818 -0.028919077 -0.019240411 0.028938038
0.0037823364 -0.060055844 -0.018733123 0.012168226 0.10347493 0.017318366 0.07798575 -0.0021909464
0.17403963 -0.028339066 -0.054801602 0.0128268385 -0.06440532 0.017315106 0.037893135 -0.06989108
-0.0033829086 0.07590394 -0.011542584 -0.0023678585 -0.017446548 -0.024697889 0.040209115 0.083268926
-0.0067967847 0.047012214 0.085152596 0.00021179418 0.022199577 0.026376141 0.055115707 0.13958375
-0.064287946 0.0708705 0.036349744 0.045890532 0.027143128 -0.033463657 0.16592091 0.12973823
0.048407976 -0.046952933 0.021190943 0.02967017 0.015572122 0.11567269 0.035753585 -0.024532529
0.034459814 -0.02833785 0.14793417 -0.031335667 0.046634942 0.021242263 -0.05025258 0.01283978
00000000: 4286 66bd 68ac 70bd d6b2 33be 2c2f c2bc
00000010: 060c a5bd 23e3 99bd 9ab0 1dbd cd6f d9bd
00000020: d52d bbbd b6a7 e7bd 82fd 043d 8b15 dcbd
00000030: 3aa3 03bc ab55 613d da6b 1abe 7560 afbc
00000040: 770b 25bd 9d5a 493e c30d adba cde3 48bd
00000050: bda1 cdbd cb74 623b 9998 853d dc6f d9bc
00000060: b4eb b4bc f057 17be 7269 01bc bbb2 1dbe
00000070: c055 f83d 5a0e aebb 3d45 ce3d 0524 c73c
00000080: 9490 9abd 286d 57bb 8aeb 543d d862 79bc
00000090: 9e55 193d 9861 133e b768 e2bd 125e 1dbe
000000a0: 349c 8dbc 3f54 efbd ead0 c03c 8f5d 00be
000000b0: 689a ca3d 2179 063d c3ee f6bc 8cca da3d
000000c0: 5e03 d93d 8d7a 413d 85cd 283d 4118 603d
000000d0: 72d4 fb3b 4184 55be 3839 0dbe 14ea 6a3e
000000e0: 9fb3 bc3c c0be 00be 596e cebd 45d1 193d
000000f0: 51e2 b33d 57c3 1cbe 0fca b8bd 6fed 6d3c
00000100: 9731 acbd bbdc 46be 878c d2bb eae6 babc
00000110: d728 51bd 0a43 033d 9750 0ebd 8d9c 303e
00000120: 4543 8c3d 66cc 27be bbc7 1bbd 46ef cdbd
00000130: 1348 4c3d d07d c1bd aeb6 e3bd b3f1 ef3d
00000140: 0f2e 913c bd2a 213d 584a 00bd 5a96 163e
00000150: a310 6fbd 71c3 10bd 41cf bcbd 6444 efbd
00000160: 6dfb 593c 3fd9 8b3c 0246 13be 14c7 acbd
00000170: 8037 e3bd 2dbd 0bbe ab9d e93c 82ea c03d
00000180: a10c 063d c020 9438 49e5 673d e736 2dbd
00000190: 0d5b d0bc cdf5 ce3c b07a fabd 29f0 8bbe
000001a0: bbf2 15be 651b 2f3e a8a5 9cbd b535 003e
000001b0: 323e 30be 5a95 d6bd 2a37 53be 3e4f 803d
000001c0: 42ce 03be 7914 c3bd 3b4f cc3c ee8d 10bd
000001d0: 7f92 a2bc 1c91 9ebe 14ec 413c 3aac dabd
000001e0: 47cd 193e da76 083d 5804 a93d 2b24 d6bd
000001f0: 6b99 3bbd df62 fdbc ee46 f7ba 8f75 98bd
00000200: c48f 09bb dee3 ce3c e771 26bd 50d1 e7bb
00000210: e09d 1b3c 8e64 6d3c e64a 983d ef4d 48bc
00000220: d661 933b 55ee 08bd 45ae 4f3d 2730 a8bc
00000230: c167 233d f082 c0bc accf 05bc 493e 43bd
00000240: 9043 6abd 497c 2c3d 6b4f 0a3d 9e93 b3bc
00000250: 1ab6 343d 2ddc d13b 8b26 60bc e16e de3c
00000260: f155 4c3d 53b5 123e 5a0b 28bd 9f6c bcbb
00000270: e761 14bd f3eb 55bc 5ef0 cabc 9340 30bc
00000280: 2e90 91b9 b15c 4e3e bee4 9f3c f688 8f3b
00000290: 8e6b b2ba c481 1e3d b5ae ca3c 7c7d a5bd
000002a0: 3571 063e 2000 963b f2f7 073d 9ad4 59bc
000002b0: 439a 543b 8cf0 c33c 2087 133d 7ee6 a33d
000002c0: 9949 933d a3cb 083c 64f0 6f3d f232 4c3d
000002d0: 1808 a63c e699 49bd a8be 33bd 8b87 803d
000002e0: 4d97 ce3c 7899 b2bc 8997 a7bd c9da 2a3d
000002f0: 533a c9bc 5bbd bd3c 9476 833d c7a0 50bc
00000300: 64c1 223d 652b 273e 5744 cb3c 228a 9b3a
00000310: 6f36 5f3c b3e7 ecbc 119e 9dbc 770f ed3c
00000320: 13e1 773b 1efd 75bd 3576 99bc 3d5d 473c
00000330: aaea d33d 3fdf 8d3c feb6 9f3d fb95 0fbb
00000340: 7237 323e 5427 e8bc a577 60bd a927 523c
00000350: f0e6 83bd 69d8 8d3c d535 1b3d 0e23 8fbd
00000360: cab3 5dbb 8673 9b3d 1b1d 3dbc 132e 1bbb
00000370: 10ec 8ebc 3a53 cabc 50b2 243d e688 aa3d
00000380: 90b7 debb e18f 403d 7c64 ae3d 1115 5e39
00000390: e3db b53c c712 d83c 02c1 613d 0bef 0e3e
000003a0: 66a9 83bd 8d24 913d 78e3 143d b6f7 3b3d
000003b0: 445b de3c 3011 09bd 2ce7 293e 19da 043e
000003c0: 7147 463d b851 40bd a198 ad3c db0e f33c
000003d0: 3722 7f3c cee5 ec3d 5a72 123d 71f8 c8bc
000003e0: bc25 0d3d c724 e8bc 0e7c 173e d459 00bd
000003f0: 4804 3f3d 4104 ae3c a6d5 4dbd f15d 523c

action_model._discrete_distribution.branches.5.bias f4 [3]
-0.06284355 -0.028080992 -0.03307568
00000000: 1fb4 80bd 1c0a e6bc 5d7a 07bd

action_model._discrete_distribution.branches.5.weight f4 [3, 128]
0.020799782 0.041191068 -0.13625772 0.014413164 -0.16492744 0.12239423 0.0028920926 0.14387655
-0.1276059 -0.0020176072 -0.06717209 -0.13113794 -0.14604874 -0.016947435 0.1423082 0.0062584043
-0.059827223 -0.08194852 -0.0850216 0.09078918 0.0633478 0.053481124 0.1470415 0.13164805
-0.0322187 -0.12186142 -0.043196358 -0.1316191 -0.12640429 -0.007948357 0.17102538 0.001020693
-0.13846645 -0.098067895 -0.09943624 -0.1311158 -0.12207312 0.19869924 -0.1620376 0.05949141
0.0654672 -0.042133298 0.08719568 -0.14574261 0.054692484 -0.13960606 -0.15795067 0.020276709
0.055537503 0.04044859 -0.19596194 0.17076902 0.041888323 0.040364243 -0.03263927 -0.017677637
0.054597568 -0.0850293 0.20021038 -0.07971914 -0.065671615 -0.14945233 -0.13139877 -0.19170098
-0.022937309 -0.29852077 -0.11672856 -0.19008428 -0.24755871 -0.13586348 0.095380634 0.18556921
0.15912732 -0.04196788 0.15784022 -0.051887937 0.023537122 -0.1168019 -0.053142827 -0.10490569
-0.06925633 0.13845657 0.11915095 -0.096374236 0.12464095 -0.09650605 0.0047259824 -0.23030552
0.00434857 0.026175525 -0.12668033 -0.0014127964 -0.08405092 -0.049351744 -0.09869089 -0.033067234
0.15258555 0.029271254 -0.044807494 -0.017840585 -0.17180766 -0.2125988 0.019131437 -0.12725148
-0.07869563 -0.034870006 -0.028442841 -0.054092616 0.00837706 0.0074334336 -0.20747435 -0.033052597
-0.2734038 -0.058519885 0.04271394 0.026439033 0.060291138 -0.24545254 -0.020926213 -0.3028734
0.094870254 0.13991632 -0.116377406 0.006834249 -0.13285622 0.15967743 0.22118965 -0.0732977
-0.016966378 -0.014608138 -0.0056132474 -0.04592071 -0.041331597 -0.0018999663 0.012338224 0.021502832
-0.02750309 -0.010627644 -0.040550597 -0.018138107 0.0076268218 -0.09715526 0.050980385 -0.011498076
-0.04678085 -0.0111183645 -0.02457566 -0.077770025 0.048439648 -0.018466566 0.01401231 0.04320677
0.020776747 0.09596927 -0.10809134 -0.03465414 -0.06715329 -0.01781912 -0.047208913 -0.15892786
-0.036625482 0.17387757 0.010350503 -0.0596809 -0.041665245 -0.026800424 -0.0064263693 -0.07075529
0.014974929 0.02062313 0.00941288 0.003643948 -0.056033608 -0.017796408 -0.05362247 0.0888355
-0.009735437 -0.045087315 -0.024992608 -0.04021139 0.02803538 0.03616727 -0.00952518 -0.0016983591
-0.03416744 -0.009958179 -0.022914931 -0.03685145 -0.0786705 0.054068614 -0.0044100746 -0.13405842
-0.04220031 0.04493732 -0.0011974025 -0.015223834 -0.05396758 -0.0983639 -0.0041606184 0.022242315
-0.013558329 -0.009978801 -0.015735209 0.006970315 0.04163578 -0.018480401 0.011193535 -0.11251424
0.116449304 -0.028946787 0.0011576767 -0.06279345 0.014263484 0.00037888795 0.03343894 -0.10224046
-0.048920285 0.017528508 -0.012075812 -0.019275082 0.00017267834 0.024530947 -0.0006412149 0.013062589
-0.026778184 0.013213105 0.015688846 -0.010353417 -0.03983479 -0.09970965 0.046463065 0.09877839
-0.029325357 0.0003214993 0.14042461 -0.07628691 -0.006062003 -0.04966892 0.16327935 -0.004297675
-0.032900445 -0.029134242 -0.058422867 0.037557986 -0.018984174 0.14018969 -0.046068653 -0.059374556
-0.03446305 -0.016579164 0.047616906 -0.022592915 -0.026811408 0.02013827 -0.0046288907 -0.020457711
00000000: 4e64 aa3c f7b7 283d 2587 0bbe 3125 6c3c
00000010: bde2 28be d3a9 fa3d 4389 3d3b 6054 133e
00000020: 1fab 02be d539 04bb 8591 89bd 0649 06be
00000030: cd8d 15be 59d5 8abc 3eb9 113e 4d13 cd3b
00000040: 640d 75bd a0d4 a7bd ce1f aebd adef b93d
00000050: 7ebc 813d 060f 5b3d 0c92 163e bfce 063e
00000060: c1f7 03bd 7b92 f9bd aaee 30bd 28c7 06be
00000070: 2070 01be d339 02bc 4721 2f3e c6c8 853a
00000080: 26ca 0dbe d2d7 c8bd 3aa5 cbbd 3843 06be
00000090: 7901 fabd d077 4b3e 2fed 25be 44ad 733d
000000a0: ab13 863d f793 2cbd a693 b23d 8d3d 15be
000000b0: 3a05 603d e4f4 0ebe d2bd 21be 571b a63c
000000c0: 4b7b 633d 6cad 253d 3faa 48be 13de 2e3e
000000d0: 1793 2b3d fa54 253d c1b0 05bd b1d0 90bc
000000e0: b3a1 5f3d d723 aebd f303 4d3e ca43 a3bd
000000f0: d77e 86bd 080a 19be 668d 06be 434d 44be
00000100: 06e7 bbbc b7d7 98be 620f efbd 74a5 42be
00000110: 0880 7dbe cc1f 0bbe ec56 c33d db05 3e3e
00000120: 46f2 223e 83e6 2bbd dea0 213e 7288 54bd
00000130: ecd0 c03c d635 efbd 4bac 59bd cbd8 d6bd
00000140: 43d6 8dbd 8fc7 0d3e 6a05 f43d db5f c5bd
00000150: c143 ff3d f7a4 c5bd 6adc 9a3b 36d5 6bbe
00000160: 737e 8e3b 0e6e d63c 7db8 01be 952d b9ba
00000170: e422 acbd 0e25 4abd 731e cabd 8271 07bd
00000180: 633f 1c3e 45ca ef3c 1088 37bd 6b26 92bc
00000190: 59ee 2fbe 80b3 59be 88b9 9c3c 364e 02be
000001a0: 2d2b a1bd dad3 0ebd f600 e9bc 3890 5dbd
000001b0: f03f 093c 2994 f33b 2874 54be 2962 07bd
000001c0: 95fb 8bbe 8cb2 6fbd d0f4 2e3d ac96 d83c
000001d0: d7f3 763d e957 7bbe 736d abbc 3912 9bbe
000001e0: 564b c23d 3946 0f3e 4757 eebd d6f1 df3b
000001f0: 760b 08be 7b82 233e 8a7f 623e 1b1d 96bd
00000200: 13fd 8abc f956 6fbc 55ef b7bb 5b17 3cbd
00000210: 524b 29bd 4a08 f9ba 4326 4a3c b526 b03c
00000220: 294e e1bc 921f 2ebc 6218 26bd 5e96 94bc
00000230: 6bea f93b 56f9 c6bd cfd0 503d 6d62 3cbc
00000240: 479d 3fbd cd29 36bc e552 c9bc e445 9fbd
00000250: a768 463d 3247 97bc e393 653c 95f9 303d
00000260: ff33 aa3c 898b c43d fe5e ddbd 80f1 0dbd
00000270: aa87 89bd 67f9 91bc 225e 41bd fcbd 22be
00000280: 9a04 16bd f60c 323e 2895 293c f673 74bd
00000290: 2da9 2abd 908c dbbc 4b94 d2bb 26e8 90bd
000002a0: 6859 753c d7f1 a83c 7b38 1a3c 4dcf 6e3b
000002b0: 7f83 65bd c6c9 91bc 3ca3 5bbd 63ef b53d
000002c0: 6281 1fbc 7aad 38bd 4cbd ccbc b3b4 24bd
000002d0: 74aa e53c 2224 143d 800f 1cbc 7a9b deba
000002e0: 28f3 0bbd a127 23bc 18b8 bbbc 8cf1 16bd
000002f0: 001e a1bd 0d77 5d3d 6382 90bb 9c46 09be
00000300: 3bda 2cbd 3210 383d 29f2 9cba 636d 79bc
00000310: 1c0d 5dbd 0373 c9bd cc55 88bb 8435 b63c
00000320: c123 5ebc 207e 23bc 20e7 80bc 3d67 e43b
00000330: 488a 2a3d 3664 97bc 1765 373c de6d e6bd
00000340: f97c ee3d d021 edbc 2fbd 973a da99 80bd
00000350: 63b1 693c 7ba5 c639 45f7 083d 7263 d1bd
00000360: a360 48bd f297 8f3c a0d9 45bc c7e6 9dbc
00000370: fd10 3539 20f5 c83c 3417 28ba 7804 563c
00000380: ec5d dbbc c77b 583c e585 803c 61a1 29bc
00000390: ce29 23bd 9334 ccbd 0e50 3e3d 534c ca3d
000003a0: bb3b f0bc e88e a839 78cb 0f3e 503c 9cbd
000003b0: c4a3 c6bb a371 4bbd b432 273e 83d3 8cbb
000003c0: 9ec2 06bd efaa eebc d14c 6fbd 67d6 193d
000003d0: b384 9bbc e38d 0f3e 7cb2 3cbd bc32 73bd
000003e0: 2129 0dbd 07d1 87bc f209 433d c714 b9bc
000003f0: 99a3 dbbc 03f9 a43c f3ad 97bb ee96 a7bc

action_model._discrete_distribution.branches.6.bias f4 [3]
-0.12864406 -0.017767578 -0.023395186
00000000: 45bb 03be 508d 91bc 43a7 bfbc

action_model._discrete_distribution.branches.6.weight f4 [3, 128]
-0.1444142 0.0059646238 0.019613815 -0.011980263 -0.06383183 0.006015718 -0.1550214 0.0015597927
-0.1375185 -0.103690974 -0.100954786 -0.12717727 -0.031044044 0.052296188 0.018044773 0.13176815
0.013877555 0.038108394 -0.14715117 -0.13962686 -0.034545016 0.08167432 0.027453834 0.0059344517
0.03146444 -0.33476174 -0.06843515 -0.106013894 0.061812587 0.13707687 -0.049217563 -0.044704027
-0.119939394 -0.02874367 0.03785983 -0.05195754 0.06662636 -0.08566863 0.008067092 -0.06974682
-0.04820012 -0.0831071 0.10441628 -0.010889831 0.019161591 -0.0021172154 -0.073858395 0.054296657
0.05686384 -0.026063737 -0.11665422 0.09394998 0.06667486 -0.010804852 -0.0022529124 -0.0050685736
0.14537792 0.0112707615 0.06491534 -0.14525379 -0.058156524 0.0077417665 -0.1692 0.03353132
-0.11211727 -0.13175243 -0.0035140875 -0.10236612 -0.04798339 0.0008226472 0.074148804 -0.08661765
0.018443815 -0.10027709 -0.05514369 -0.12935592 -0.0025592998 -0.18310368 -0.16697535 -0.09090787
-0.033820406 -0.070285566 0.012751671 0.054716483 -0.010323533 0.055166684 0.012197206 0.08320851
0.0056855427 -0.12066427 -0.1399218 -0.11829066 -0.086249135 -0.014255876 -0.17579882 -0.03419425
0.11073245 0.014352258 -0.15400398 -0.16002178 -0.12744719 -0.0800579 0.03097862 -0.24140927
-0.119585946 0.11229697 -0.046939198 -0.078077376 -0.100656524 -0.13594565 -0.30412424 -0.088097066
-0.06901562 -0.05404601 0.026088065 0.036217097 0.0856723 -0.16451076 0.007079287 -0.03306349
-0.04080921 0.055329405 0.07320756 -0.06949861 -0.02293355 -0.012297732 0.014747235 -0.16814972
0.012283496 -0.059324883 0.08358675 -0.14527941 0.0058883163 0.066335574 0.0037266691 0.06298285
-0.025260787 0.028684558 -0.008601954 0.017815959 0.052298203 -0.15939645 0.06262315 0.009393463
-0.069960505 0.040150337 0.014736028 -0.17270404 0.045147445 0.0021090969 -0.04375108 0.03694326
-0.037175052 0.1577591 -0.10554787 -0.01876532 -0.04096191 -0.0720341 -0.07361932 -0.29921022
-0.015896235 0.09301982 -0.016292328 0.076139234 -0.1284492 -0.15684655 0.12870422 -0.17146221
0.14409827 0.09247944 -0.050444607 0.07074275 -0.14368182 0.14852092 0.06840191 0.051953185
-0.044750698 -0.13287516 0.018485669 -0.042753946 0.13799086 0.07138526 0.047886066 -0.035406876
-0.03538422 0.10481215 -0.012741028 -0.053454034 -0.14157449 0.026018683 0.23659211 -0.13438818
-0.17200962 0.17014012 0.06753673 0.03533343 0.02929151 -0.028198404 -0.0060456023 0.03532764
-0.0833851 0.058971975 -0.05812215 0.024791414 0.06845298 -6.143092e-05 0.06828413 -0.1412835
0.057397265 -0.14140241 -0.036751892 -0.07557072 -0.047842905 0.13873628 0.07121153 -0.09442372
-0.18607345 -0.003645339 -0.021447968 0.0152576575 0.08801113 0.027146775 -0.00332307 0.0067587765
-0.092655495 0.027635355 -0.036776945 -0.01952422 -0.0008638989 -0.13047284 0.011286766 0.25613365
0.048091467 0.017350977 -0.028157542 -0.13193162 0.09491205 -0.1293558 0.26292574 0.17395604
0.1163511 -0.12563644 -0.015480974 0.09687385 -0.09119142 0.29776517 -0.06838448 0.04912381
-0.16967016 -0.05087393 0.04757459 0.05681703 -0.05084576 0.06885795 -0.06662361 -0.0067772917
00000000: 51e1 13be e472 c33b 27ad a03c dd48 44bc
00000010: 43ba 82bd 801f c53b eebd 1ebe f571 cc3a
00000020: a6d1 0cbe ef5b d4bd 62c1 cebd c23a 02be
00000030: 1450 febc 8734 563d a2d2 933c 3bee 063e
00000040: af5e 633c 8c17 1c3d ccae 16be 58fa 0ebe
00000050: 137f 0dbd de44 a73d dde6 e03c ca75 c23b
00000060: dbe0 003d e465 abbe ba27 8cbd d01d d9bd
00000070: 322f 7d3d e15d 0c3e 5b98 49bd 921b 37bd
00000080: c9a2 f5bd d877 ebbc e912 1b3d 6ed1 54bd
00000090: 6773 883d 0973 afbd d62b 043c 6cd7 8ebd
000000a0: 7d6d 45bd 0e34 aabd 34d8 d53d 436b 32bc
000000b0: c5f8 9c3c fbc0 0abb 1243 97bd 2c66 5e3d
000000c0: 0fea 683d 9e83 d5bc 68e8 eebd d968 c03d
000000d0: d48c 883d d506 31bc 99a5 13bb 4716 a6bb
000000e0: f3dd 143e 00a9 383c 55f2 843d 69bd 14be
000000f0: 8935 6ebd a5ae fd3b c442 2dbe 2358 093d
00000100: bd9d e5bd 1cea 06be 9b4c 66bb 54a5 d1bd
00000110: 3b8a 44bd eba6 573a 54db 973d 9864 b1bd
00000120: 7c17 973c 135e cdbd 5ade 61bd e175 04be
00000130: edb9 27bb 887f 3bbe 96fb 2abe e82d babd
00000140: 4487 0abd e1f1 8fbd 62ec 503c 641e 603d
00000150: 0924 29bc 76f6 613d cad6 473c 3969 aa3d
00000160: ca4d ba3b d41e f7bd a947 0fbe 6042 f2bd
00000170: 63a3 b0bd 7a91 69bc 9b04 34be 450f 0cbd
00000180: b2c7 e23d bc25 6b3c 38b3 1dbe c0dc 23be
00000190: 8481 02be 65f5 a3bd e0c6 fd3c fe33 77be
000001a0: 7ae9 f4bd f4fb e53d 5143 40bd 08e7 9fbd
000001b0: 0225 cebd 5635 0bbe 2cb6 9bbe 3c6c b4bd
000001c0: 1058 8dbd 595f 5dbd a3b6 d53c 6158 143d
000001d0: f574 af3d 8275 28be 5df9 e73b 956d 07bd
000001e0: 8f27 27bd 16a1 623d d8ed 953d 4a55 8ebd
000001f0: 24df bbbc 6d7c 49bc 639e 713c 712f 2cbe
00000200: b740 493c a6fe 72bd 882f ab3d 20c4 14be
00000210: c7f2 c03b f2da 873d 223b 743b 27fd 803d
00000220: b6ef cebc e1fb ea3c 36ef 0cbc c6f2 913c
00000230: a436 563d d338 23be 9140 803d 0ae7 193c
00000240: 7447 8fbd ae74 243d 626f 713c 54d9 30be
00000250: 87ec 383d c638 0a3b 5534 33bd d151 173d
00000260: de44 18bd 9a8b 213e 7b29 d8bd bab9 99bc
00000270: adc7 27bd 9d86 93bd bac5 96bd 1532 99be
00000280: d238 82bc 2d81 be3d 7d77 85bc e3ee 9b3d
00000290: 3088 03be 629c 20be 0acb 033e ca93 2fbe
000002a0: 7f8e 133e dc65 bd3d 019f 4ebd 93e1 903d
000002b0: 5421 13be de15 183e 4d16 8c3d ddcc 543d
000002c0: 824c 37bd 6d10 08be 426f 973c c31e 2fbd
000002d0: 7a4d 0d3e 6f32 923d 2e24 443d cd06 11bd
000002e0: 0bef 10bd c1a7 d63d bfbf 50bc 9ef2 5abd
000002f0: e7f8 10be 2225 d53c 3445 723e 0e9d 09be
00000300: 4a23 30be 3639 2e3e b250 8a3d c9b9 103d
00000310: c0f4 ef3c 5700 e7bc 301a c6bb b7b3 103d
00000320: cfc5 aabd 998c 713d 7e11 6ebd 5d17 cb3c
00000330: 1331 8c3d 79d4 80b8 8dd8 8b3d 9fac 10be
00000340: 6519 6b3d cbcb 10be 2789 16bd d2c4 9abd
00000350: ecf6 43bd e210 0e3e 5ad7 913d 3961 c1bd
00000360: 0a8a 3ebe a4e6 6ebb a6b3 afbc 41fb 793c
00000370: 2e3f b43d ea62 de3c ddc7 59bb ba78 dd3b
00000380: 2ac2 bdbd 8a63 e23c 6ca3 16bd 42f1 9fbc
00000390: 4677 62ba ac9a 05be 21ec 383c f323 833e
000003a0: 8ffb 443d a323 8e3c a5aa e6bc 1519 07be
000003b0: 4061 c23d d975 04be 349e 863e 8821 323e
000003c0: 7c49 ee3d d7a6 00be e9a3 7dbc cc65 c63d
000003d0: 91c2 babd ad74 983e 2a0d 8cbd 0c36 493d
000003e0: 04be 2dbe 2f61 50bd 93dd 423d f9b8 683d
000003f0: a543 50bd 6605 8d3d f671 88bd 0b14 debb

action_model._discrete_distribution.branches.7.bias f4 [3]
0.012035502 -0.024396472 -0.0077117747
00000000: 8e30 453c 1cdb c7bc 0eb3 fcbb
