ArmRobot/Assets/results/curriculumRotation1/TouchCubeMoveGail/TouchCubeMoveGail-59.onnx (onnx, 143288 bytes, 22 tensors)

action_model._discrete_distribution.branches.0.bias f4 [3]
00000000: 0000 0000 0000 0000 0000 0000
0.0 0.0 0.0

action_model._discrete_distribution.branches.0.weight f4 [3, 128]
00000000: 0ad7 33ba 9d81 243b 552f fcb9 9a6a 6ebb
00000010: 6d0d 5e3c 6675 8cbc f26f 7b3c 2f97 bfbb
00000020: e592 1c3c 62de df3b 2d44 d5b9 c32b d9bb
00000030: 1a4b d03a a0ed dabb c42b 2b3c 468f 25bb
00000040: cbaa 293c 358f f73b 1094 153c c7c1 2abc
00000050: 55c1 72bc 383b 593c 7715 9ebb 50c6 c53a
00000060: 291e 2e3c 9bf2 3f3c 8db2 693c 62fb d13b
00000070: 41ae 86bb 3a3f 953c 9297 453b eaa7 f83b
00000080: fb32 81bc 9c92 3bbb 2dd2 653b 8520 d03b
00000090: 6dd1 02ba 3d6d 2c3b 6161 473c 0d1e 403b
000000a0: f7e5 0e3b 80d7 95bb 5f4b 07bb 3dc5 f73b
000000b0: 53fe a53c 6201 7e3b e214 70bb 2db9 d53a
000000c0: 675d 9f3a b7ff 873c 97e0 edba b3e3 d9bb
000000d0: 5bf9 7fbb b8e8 533c a580 85bb 70b9 ebbb
000000e0: 2ffd d1b9 979f 7f3b e574 943c 5a54 c4bb
000000f0: 46f5 303c 932b 073c f302 a1ba d18d 173c
00000100: 568e 3cbb ab7f ce3b bfd2 f8bb 1006 f23b
00000110: db8a 4fba 8e4a 08bb 9479 49bc 3448 1c3c
00000120: 6d90 2abb 050d d439 ff7a 9fba bf50 6fbb
00000130: 39d9 c5ba e11c 113b b394 0abc 7e97 a8bb
00000140: 4b8d 6abb d093 84ba 321e f23b 6ae4 bebb
00000150: 4063 02bc 1d82 99bb aea0 1ebc 7dad 53bb
00000160: 8259 683b 82e7 003c 8248 513c f40b 923b
00000170: a227 593b 7549 dabb 1816 133c 0811 59ba
00000180: 6806 de3b a0d7 293a 3f4e fa3a 4a4d 51bb
00000190: 433f c03b c3f8 573a 8b65 05bc 2144 1abc
000001a0: 3bac ccbb a532 fabb cadd e83c 6bf2 3cbc
000001b0: 78ca 0e3c f19e 343c 5e81 08bc 06b2 313c
000001c0: b7d0 ae3a ef05 cf3b 4f7a 253c f369 e8bb
000001d0: 8f23 c93c 5195 4a3c acb3 29ba 7d08 e83b
000001e0: 62bd d13b 66ef 0abb 46ac 853c 1e4c c0bb
000001f0: a996 1738 9ccf 0ebc 37a4 a2ba f030 5d3b
00000200: 0a31 d5bb d81b 55bc 4809 beba eac0 d73a
00000210: 77e1 2e3c 0f65 133c f045 fcb9 17e4 2d3c
00000220: e5e4 7e3a b708 9ebb cae9 2dbc 5f69 2e3b
00000230: d396 c3bb 557f 68bb 2456 cb3b ccc7 49bb
00000240: f2a0 3b3b d97e 15bb 78f8 ebba e7dc 2f38
00000250: 6879 f9ba 6ecb 8bb9 d483 1c3a 72e2 97bc
00000260: 958d dc3b 97e6 ae3b c224 9a3b 10d6 af3b
00000270: 304f 76bb 278d 1cbc 448f c13b af73 69bc
00000280: cb6c d5bb 5850 91bb 2eec 3bbc af62 95bb
00000290: ea5b f83b c8a6 d8bb 802b e2bb 9b09 6dbb
000002a0: e8eb 5eba 4584 e53b 6b33 8fba f931 293c
000002b0: 53fb 103b 23f9 8c38 1fd1 3c3a 0c09 3a3c
000002c0: 73fa 0cba 8f2a a83b 6fbf 2abc 2f6f 86ba
000002d0: 8509 ca3b 4c02 2cbc 7bc6 9bbc 3981 b6bc
000002e0: 1d8f 543b fdc9 f0bb 033a 96bb 6739 8a3c
000002f0: c1db 1ebc c378 6cbb c78e 203b 1dc8 c7bb
00000300: 63f8 56bc 43e9 583c e758 1a3c 52df 49bc
00000310: 8871 0dbc eaea baba 2c04 803c 42a6 273c
00000320: b180 a73b f296 5abc 27c1 893b 33f5 cbbb
00000330: 1f2a 973b ca7d 9637 3a1e e5bb 7363 f23a
00000340: 9d50 6fba e210 f83b 472f 6b3b 5001 f9bb
00000350: 5f0f 13bc faab 75bc 6b2c 7bbb ea64 e8bb
00000360: df37 9b3b f86c b0bb 5319 543b f7db 373c
00000370: fa81 5dbc 3386 4d3b f00b f03b da3c 94bb
00000380: fa9a b737 2e8e c3b9 0006 f4bb 4ff2 03bb
00000390: cfb7 493a 08d7 863c de59 94bb d22a 86bb
000003a0: 5b91 073c 4b37 683b c230 5abc c206 26bb
000003b0: 90fb d9ba c539 ac3a b31e 543b 7f9c 8a38
000003c0: 4b79 71bc f8ea c9bb 9dca 93bb df7a 61bc
000003d0: b239 0bbc 666e c53a b3b6 faba a86d ef3b
000003e0: 5509 56b9 5f82 23bc 5482 9cbb 07cb b9bb
000003f0: 2abc e8bb 4788 cebb cb2f 97bc af21 513b
-0.00068603514 0.002510167 -0.0004810045 -0.0036379457 0.013553006 -0.017145824 0.015346514 -0.00584688
0.009556507 0.00683193 -0.0004067732 -0.0066275313 0.0015891523 -0.006681159 0.010447446 -0.00252624
0.010355662 0.0075549134 0.009129539 -0.010422177 -0.014816602 0.013258748 -0.004824336 0.0015089009
0.010627308 0.0117155565 0.014263761 0.006408141 -0.004110128 0.018218625 0.0030150157 0.0075883763
-0.01577138 -0.0028621322 0.0035067901 0.006351533 -0.00049903133 0.0026310228 0.012169213 0.0029314787
0.002180455 -0.0045728087 -0.002064429 0.0075613544 0.020262873 0.0038758148 -0.003663354 0.0016305797
0.0012158573 0.016601427 -0.0018148598 -0.0066494583 -0.003905854 0.012933902 -0.0040741735 -0.0071937367
-0.00040052223 0.0039005035 0.018122146 -0.005991501 0.010800665 0.008250135 -0.0012284204 0.00925012
-0.0028771362 0.0063018403 -0.0075934823 0.0073859766 -0.00079171144 -0.0020796391 -0.012297053 0.009538699
-0.0026026026 0.0004044549 -0.0012167393 -0.0036516634 -0.0015094645 0.0022142457 -0.008458304 -0.0051450124
-0.0035789784 -0.0010114852 0.0073888535 -0.005825569 -0.007958233 -0.0046847 -0.009681864 -0.0032299452
0.0035453741 0.007867696 0.012773635 0.0044569913 0.0033135195 -0.006661589 0.0089774355 -0.0008280431
0.006775666 0.0006478969 0.0019096805 -0.0031936937 0.0058669164 0.00082386675 -0.0081418855 -0.009415657
-0.0062461174 -0.007635432 0.02842607 -0.011532406 0.0087152645 0.011024223 -0.008331625 0.010845667
0.0013337348 0.006317846 0.010099961 -0.0070927083 0.024553088 0.012364701 -0.00064736116 0.00708109
0.00640075 -0.0021199821 0.016317498 -0.005868449 3.614152e-05 -0.00871649 -0.0012408559 0.0033751093
-0.00650609 -0.013007127 -0.0014498616 0.0016460691 0.010673872 0.008996262 -0.00048117293 0.010613463
0.0009723439 -0.0048228162 -0.010614822 0.00266131 -0.0059689074 -0.0035476286 0.006205337 -0.0030789254
0.0028629866 -0.0022811203 -0.0018003127 4.1928983e-05 -0.0019033374 -0.00026663713 0.00059705717 -0.018540595
0.006730745 0.005337547 0.004704089 0.0053660944 -0.003758382 -0.009555138 0.005906971 -0.0142487725
-0.0065132133 -0.0044346265 -0.011469884 -0.004558883 0.0075793164 -0.0066116787 -0.0069021583 -0.0036169055
-0.00085037807 0.007004293 -0.0010925358 0.010326856 0.0022122457 6.7221255e-05 0.00072027923 0.011354696
-0.0005377896 0.0051320265 -0.010421618 -0.0010256524 0.0061656856 -0.0104985945 -0.019015541 -0.022278415
0.0032433935 -0.0073482976 -0.0045845523 0.016873075 -0.009695948 -0.0036082722 0.0024499164 -0.0060968534
-0.013120743 0.013239208 0.00942061 -0.01232131 -0.008633025 -0.0014260684 0.01562699 0.01023251
0.0051117768 -0.013341652 0.0042039338 -0.0062242984 0.0046131755 1.7939969e-05 -0.0069921287 0.0018492773
-0.0009129139 0.007570372 0.0035886334 -0.0075990334 -0.008975833 -0.014994616 -0.0038326036 -0.007092108
0.004736885 -0.005384084 0.0032363727 0.011221877 -0.013519758 0.0031360507 0.007325642 -0.0045238556
2.1887467e-05 -0.0003729923 -0.0074470043 -0.002013344 0.0007694931 0.016459957 -0.0045273146 -0.00409446
0.008274402 0.0035433348 -0.013317289 -0.0025333618 -0.0016630758 0.0013139775 0.003236693 6.6095025e-05
-0.014738391 -0.0061620437 -0.0045102374 -0.013762205 -0.008497642 0.0015062809 -0.0019127935 0.007306773
-0.00020412107 -0.009979813 -0.0047762785 -0.0056699547 -0.007102509 -0.0063028666 -0.018455407 0.0031910946

action_model._discrete_distribution.branches.1.bias f4 [3]
00000000: 0000 0000 0000 0000 0000 0000
0.0 0.0 0.0

action_model._discrete_distribution.branches.1.weight f4 [3, 128]
00000000: 181a 39bb 78c8 bbba 5b32 9e39 c183 423c
00000010: 20d3 cfbb e7ee 393c 47bb 00bc fadf 8fbb
00000020: 7823 e939 d806 55bc 02e5 60bb 6b3b 093a
00000030: a39b 97bb b3b8 b63b ddcc e73a d580 9fbb
00000040: ecfe 3ebc d58e 65ba 1358 5bbc a027 29bb
00000050: 5289 523a a7b6 4dbc 3215 f03b ebfd 83bc
00000060: 4dc9 afbb 273d 8bbb 3fb1 e7bb 6848 0c3c
00000070: aa81 bebb 3aa6 cfbb 2729 2ebc 1b88 2d3a
00000080: 3529 9ebb afc3 3b3c b014 9a3b 435c 58bc
00000090: 07bc 64bb e238 02bc 8f32 423b 9b88 423b
000000a0: 135a 793b 72cb 20bc 5761 1e3b c93d 82bc
000000b0: 437e d7bb f27c 013c 5138 0c3c 5209 833c
000000c0: 8c60 253a 7373 2abc 8e25 3e3b 7139 343b
000000d0: 9aa5 91bc 95c7 33bb 47f7 4abc 5ab2 343b
000000e0: 9af2 bd3b ab55 f3bb 2b45 00ba 604a 933b
000000f0: f802 88bc 47ee 383b 2b7b 6cbc 9ade 693b
00000100: ea79 96ba 6313 3f3a e42e 803c f47d 9cba
00000110: 1e81 053c 9833 21bc 535e 1cbc efc4 f23b
00000120: 6bb3 0c3a 47e3 d9bb d995 263b 53a5 c9bb
00000130: 4f7d 05bc 4a12 db3b 4b63 363c 321d d43b
00000140: 8263 56bb 77f7 3aba db91 5a3b d799 013c
00000150: 931e 8eb9 ba99 f23a 576e 2ebb 9cd3 813a
00000160: 8d63 053c 0750 0a3c cf52 e5bb 5315 02bc
00000170: 0db5 6b3b 7513 43bc 5490 1fbb d3a2 473c
00000180: eadb 893a 3233 febb 7578 c53b ebf2 8cbb
00000190: d88d 48bb 8a25 4d3c 96ef c73b 7382 0dba
000001a0: 5fba 383c 2b1a 8b3b 4f42 f7bb 62ca 313c
000001b0: 2da7 e7bb 9e8e 3fbc eff0 903b dbec 083c
000001c0: b7ec 20bc 7a84 c13b 278a 38bc dab2 22bc
000001d0: a2e9 e2ba 4b3b 86ba bd8c 38bc d070 68bb
000001e0: 33c3 0d3b ee6a 48ba 6ffe 353c c76c 7dbb
000001f0: 672f 963c fd66 ee39 4726 ddba cf7d 3d3b
00000200: 809c 96bb 3750 d73a 6125 bb3b 8e05 313b
00000210: bdb0 763c 234b 863b 1c87 203c d223 d83b
00000220: 85d0 863b 8fb3 b03b 74a9 8dbc bc45 b0bc
00000230: eba0 7539 2828 503c 5d6b d0ba 4048 223b
00000240: 1b62 89bb e422 893b 92aa 093b 82ce 26bc
00000250: d8f1 833b b7d1 863c 2a87 60bb 7ade 033c
00000260: e6be 993b 758a f8bb bf6e 0cbc 8aed 9d3b
00000270: e5e6 75bc 976a 843c 6505 963b c5da ddbb
00000280: dbf9 de3b 13c9 b4ba 29c4 9b3c 2560 e43b
00000290: 2a49 dd3b bf9b 113c b841 1bbc 2786 b2ba
000002a0: 4398 8f3c 400e 5e3b 0885 a2bb 42a8 4d3c
000002b0: e23e 0ebc 7cef 873c d30c b1bc 808a 77ba
000002c0: 4231 943a 0357 513b fe1a b7bb cb88 40bb
000002d0: 262e c03b 57b0 90b9 9d37 f6bb 9ba1 193c
000002e0: 3073 e139 6882 7bbc 5baa 14bc f4b0 943b
000002f0: 5742 123b b078 57bb 94ad 01bc 97d8 8fbb
00000300: 4ff9 143c 7498 b43c aa61 e7bb f7e7 153c
00000310: d340 2d3b 9549 cdbb 69fd 81bb 566d 173c
00000320: 1ff1 f43b 2bc4 143c 7551 bdbb fd18 8ebc
00000330: 9e3e 193b ad63 f63a 3714 17ba 7151 40bc
00000340: b2ee 5cbc 1555 543c 77ee bcbb 7fba d1bb
00000350: 8dc1 0fbc 4bef 143c f7b1 063b 351b 20bb
00000360: c879 89ba 159a 543c 3599 76bc f969 8abb
00000370: 611c 283c 4a84 d23a 5899 7f3b 69a0 1c3b
00000380: b068 f13a 720f 02bc 9a50 ed3b b46e 1f3c
00000390: 6721 1fbc 7ad9 6cbb c99b 81bb 6f3e f63b
000003a0: 7654 01bc 7630 3a3b 6c34 9b3c 18b0 c23b
000003b0: d3d2 473b 1abe e1bb bc46 8f3b 6b3e 8cbb
000003c0: 3bbf 6bbb d32a e53a cc14 113c a210 55bc
000003d0: 4c13 c1bc 6bc4 403c aa3f ee39 6aa6 52bb
000003e0: d7a0 64bc 3056 603b a5cc 7d3c d743 c1ba
000003f0: 1de0 54bc 43a1 163c 3bd8 78bb 883e 5b3c
-0.0028244313 -0.0014326712 0.00030173626 0.011872233 -0.0063423067 0.011348463 -0.00785715 -0.0043907138
0.0004446765 -0.01300212 -0.0034316187 0.0005234989 -0.0046267076 0.005576217 0.0017684955 -0.004867653
-0.011657458 -0.00087569404 -0.013387698 -0.0025810972 0.00080313266 -0.012555755 0.0073267454 -0.016112288
-0.005364573 -0.0042492333 -0.00707069 0.008562185 -0.005813797 -0.0063369544 -0.010629929 0.00066197076
-0.0048266896 0.011460229 0.004702173 -0.013205591 -0.0034902112 -0.007948132 0.0029632186 0.0029683474
0.0038048073 -0.00981413 0.0024166906 -0.015898602 -0.006576331 0.007903324 0.008558349 0.015995655
0.0006308637 -0.010403502 0.0029014084 0.0027500058 -0.01777916 -0.0027432193 -0.012388057 0.0027572126
0.0057967426 -0.007425984 -0.00048931193 0.00449495 -0.016602978 0.0028218196 -0.014433662 0.003568566
-0.0011480425 0.00072889606 0.01564736 -0.0011939392 0.00814846 -0.009838961 -0.009543973 0.00740873
0.00053673115 -0.006649408 0.0025418906 -0.0061537414 -0.008147552 0.00668553 0.011132072 0.006473207
-0.003271312 -0.0007132212 0.0033351097 0.007910213 -0.0002710713 0.0018508949 -0.002661606 0.0009904983
0.008141411 0.008441932 -0.006998397 -0.007939654 0.003596607 -0.011906494 -0.00243475 0.012184816
0.001051781 -0.007757568 0.0060263225 -0.004301419 -0.0030602124 0.012521157 0.006101559 -0.00053981616
0.011274903 0.004245063 -0.0075457464 0.0108514745 -0.0070694895 -0.011691717 0.004423253 0.008357252
-0.009822062 0.005905685 -0.011263407 -0.009930337 -0.001731206 -0.0010241059 -0.011264023 -0.0035467632
0.002163124 -0.00076453283 0.011108025 -0.0038669573 0.01833315 0.0004547163 -0.001687237 0.00289141
-0.004596293 0.0016427104 0.005711243 0.0027011367 0.015056786 0.0040983125 0.009797838 0.006596067
0.004114213 0.005392499 -0.017292716 -0.021517627 0.00023424967 0.0127048865 -0.0015901137 0.0024762303
-0.0041926033 0.0041850675 0.002100621 -0.010181071 0.0040266328 0.016457422 -0.0034260252 0.008048648
0.0046919463 -0.0075848647 -0.008571326 0.0048195766 -0.015008663 0.016164107 0.00457828 -0.006770464
0.0068046874 -0.0013792835 0.019014435 0.006969469 0.0067531066 0.00888723 -0.009476118 -0.0013620303
0.017528659 0.0033883005 -0.004959706 0.012552323 -0.008681985 0.016593687 -0.02161256 -0.00094429404
0.0011306184 0.0031942732 -0.0055879345 -0.002937841 0.0058648763 -0.00027597204 -0.007513954 0.009376909
0.00043001166 -0.0153509155 -0.009073819 0.004537696 0.0022317374 -0.0032878332 -0.007914919 -0.004389833
0.009092643 0.022045352 -0.007061203 0.009149543 0.0026436343 -0.006264875 -0.0039669764 0.009242376
0.007475033 0.009079973 -0.0057775327 -0.0173459 0.002338327 0.0018798016 -0.0005763205 -0.011738167
-0.013484644 0.012959738 -0.005765732 -0.006400406 -0.008774173 0.009090255 0.0020552853 -0.002443028
-0.0010488564 0.012976189 -0.015051176 -0.0042240587 0.010260672 0.0016061154 0.0039001312 0.0023899323
0.001841804 -0.007938253 0.0072422745 0.0097309835 -0.009712554 -0.0036140368 -0.0039553386 0.007514767
-0.007893672 0.0028410233 0.018945895 0.005941402 0.0030490651 -0.006889117 0.004372446 -0.0042799017
-0.0035972137 0.0017484076 0.008855056 -0.013004454 -0.023568772 0.01176558 0.0004544233 -0.0032142648
-0.013954363 0.003423106 0.015490686 -0.0014744949 -0.012992886 0.009193721 -0.003797068 0.013381608

action_model._discrete_distribution.branches.2.bias f4 [3]
00000000: 0000 0000 0000 0000 0000 0000
0.0 0.0 0.0

action_model._discrete_distribution.branches.2.weight f4 [3, 128]
00000000: 4b6d aa3b dfd5 de3b b797 1ebc d7c8 8a3b
00000010: ffa8 533a 5227 afbb b756 9eba 7166 87bb
00000020: c906 983a d7c2 02bb 5def 53bc d062 5db7
00000030: d8d7 b1bb 4a79 ea3b fd23 13bc 1e23 8ebb
00000040: 7f7d 84bb 7b00 60bb efdd 81bb f34d 94bc
00000050: c55d 7abc 4710 cfbb 25c4 993b db57 3fbc
00000060: 3357 71bc 125c 97bb 9d2f e93b 051b 72bb
00000070: 7b76 133b f390 3d3c 8ea7 00bc c27f edbb
00000080: 0bdf 8bbb fa3e 91bc a062 22bc 865a 2a3c
00000090: 6cb0 203c 23de 7cbb ec4d 153b e254 5f3c
000000a0: 099f 473c f787 4b3c 07bc 053c d8c4 1b3c
000000b0: 4299 e1ba 35fe 003c df11 7b3c 3a97 d0b9
000000c0: 60a3 7f3c e7b0 b2bb 2fff 703b 5838 50ba
000000d0: c81d daba 8766 1cbc 7073 bc3b 42ab 02bb
000000e0: cd47 cbbb dff6 bf3b c2ea 29bb d781 013c
000000f0: 1e08 00bb 8689 153c 0b7b d0bb a3f1 703a
00000100: 99f4 313a ed5c 9cbc 6852 55ba 9b0c 7a3c
00000110: f3f3 53bb 5e54 3c3b 1bf6 deba 6547 01ba
00000120: 2dd7 a0bb 7583 e53b d865 9bbb ea14 443c
00000130: 38d4 533b c4f4 0d3c e363 acbb ac2a c83b
00000140: 281b 69bc 4d88 b0bc 4fb7 eabb 927e d93b
00000150: cf9a 693c 9b80 6aba b882 ba3b d760 4ebb
00000160: 5f72 403a dba3 053b 4592 7e3c dc27 30bc
00000170: 53e8 ce3a 3749 5b3b 5c40 49bc e51d 59bc
00000180: e4e8 98bb 86ce b03b 4fa1 16bc bd59 4f3b
00000190: 4b72 3c3c 94f0 353c 6fd7 69bc 213d b6bc
000001a0: 1f8f 643c 8b17 9d3b 8784 12bc 9529 26bb
000001b0: 21ff 3cbc 3783 cbbc fbbf 5ebc da70 7c3a
000001c0: 8a65 f23a c356 32bc 3f60 4abc 76c9 813c
000001d0: 8ab6 b3bb 358a d13b df67 043c 508b e13b
000001e0: 4c02 95ba e7d2 0ebc ab96 723c f35a 633a
000001f0: 4d36 debb 03f9 5db9 a5af 5dbc efea 613c
00000200: 1fb8 8e3c 35e5 dabb ae91 13bc a166 b53c
00000210: 77af 043c 6ecc 44bc 9a45 7ebc 0f60 afbb
00000220: d75f 79bc 0b69 783b f912 01bc dbec b0bc
00000230: d69e c0bb 3234 7aba 8d8a c2bb 0efb 043c
00000240: d347 75bb 9851 353a 6443 8dba 7d2d b53b
00000250: 1a13 e63a 3aec 07bb bf07 6c3b 367d a03b
00000260: 2acf 89bc 52c5 b43a 0365 523c 38af 433c
00000270: 5a9c 513b c151 883b 8e97 1b3c 0af1 d9ba
00000280: 4054 333c 1789 813a f31d ff3a 0f51 e4ba
00000290: 3c12 a4bb 3f34 a3ba 062a 963b c053 cf3a
000002a0: 4078 18bb 214d 2a3c 47d5 1b3b 02bd 2e3b
000002b0: 2650 823b cdb9 743b bb47 e2ba db34 22bc
000002c0: b045 d8bb 98e1 0bbc dbb1 84bc bbdc ddba
000002d0: 02fb e6ba 73ad 4c3b bac6 4d3b 574d 3ebc
000002e0: 477e 463c a375 9e3b 9001 ef39 e897 923c
000002f0: 4f95 19bc c7ea 74bb 89df 0238 db33 3cbb
00000300: 8644 9bbc 73aa 7a3c a276 01bb 6363 873c
00000310: 290f 193c 14b4 4a3a 9ff3 59bc 6be9 443b
00000320: 9f14 83bb 0f2e 563b 3006 eb3a 9e56 bb3b
00000330: 87f8 69bc a4fa 3ebc 9016 ac3a 4384 dd3b
00000340: 0a57 3f3c aa62 02bc 7dcb 24bb 5abd 95bc
00000350: 0cdb 0abb 94b3 01bb 3341 6a3b e234 153b
00000360: dfa8 423c ed9f 46bc 12f0 543b 90f4 88bb
00000370: 41d1 11bc 80b2 24bb 8045 5d3c bf7a 5bba
00000380: ec7c 3738 b5d0 4dbc f72f d33c 2b5d 013c
00000390: 7b9e 613b 3390 d3bb 7853 583b 347f 943b
000003a0: e162 0b3c af27 16bc 3177 273b 5231 233c
000003b0: a3b5 22ba 73a6 633b 1f42 2f3c b04a af3a
000003c0: 093f c9bb 238d 083c 6326 8dbb 652e 3a3a
000003d0: 8f39 d83b ccd8 c3bb e5c5 f23b b90b c339
000003e0: 0057 303c 6fe2 4ebb c050 54bb 9d85 933c
000003f0: 635e 863b b3c1 13bb bbd4 35bc c602 c83b
0.005201017 0.0068003978 -0.009679726 0.0042353678 0.00080741936 -0.0053452635 -0.0012080286 -0.004132085
0.0011598702 -0.001995256 -0.012935487 -1.3195633e-05 -0.005427342 0.007155572 -0.008980748 -0.0043376824
-0.0040432806 -0.0034179974 -0.003963224 -0.018103575 -0.015281145 -0.006319079 0.0046925717 -0.011678661
-0.014730263 -0.00461913 0.0071162716 -0.0036942374 0.002250104 0.011570203 -0.007852448 -0.007247896
-0.004268532 -0.017730225 -0.009911209 0.010397559 0.009807687 -0.0038584552 0.002278204 0.0136310775
0.012183913 0.012422553 0.008162505 0.00950738 -0.0017211812 0.007873108 0.015324085 -0.00039785524
0.0156029165 -0.0054532173 0.0036773195 -0.0007942966 -0.0016640956 -0.009545929 0.005751066 -0.0019938503
-0.0062036277 0.0058582867 -0.002592728 0.007904491 -0.0019536088 0.009127026 -0.006362324 0.000919128
0.0006788462 -0.01908728 -0.00081375847 0.015261794 -0.003234145 0.002873681 -0.0017010601 -0.0004931598
-0.0049084635 0.0070041963 -0.0047423653 0.011967877 0.0032322537 0.008664314 -0.005260931 0.0061086025
-0.014227666 -0.021549368 -0.0071629654 0.006637403 0.014258101 -0.00089455553 0.0056918524 -0.0031490827
0.00073412614 0.0020391855 0.015537803 -0.010751691 0.0015785791 0.0033460387 -0.012283411 -0.013251756
-0.0046664346 0.0053957133 -0.009193732 0.0031639182 0.011501859 0.011104722 -0.014272555 -0.022245945
0.013950138 0.0047940663 -0.00894273 -0.0025354375 -0.011535437 -0.024842842 -0.013595576 0.00096298533
0.0018493396 -0.010884943 -0.012352048 0.015843134 -0.005484407 0.0063946494 0.008081405 0.0068830624
-0.0011368482 -0.008717275 0.01480643 0.0008672915 -0.0067813755 -0.00021168966 -0.013530646 0.013788923
0.01742178 -0.0066801556 -0.009006901 0.022143664 0.008098475 -0.01201163 -0.015519524 -0.0053520272
-0.015220604 0.0037904407 -0.007878059 -0.021597316 -0.0058783097 -0.0009544521 -0.0059369267 0.008116497
-0.0037426844 0.00069167605 -0.001077753 0.0055291043 0.00175533 -0.0020740167 0.003601536 0.004897739
-0.016822416 0.0013791716 0.012841466 0.011943631 0.0031984062 0.0041601365 0.009496583 -0.0016627621
0.01094538 0.0009882775 0.0019463882 -0.0017419177 -0.0050070565 -0.0012451484 0.0045826463 0.0015817806
-0.0023265034 0.0103943655 0.0023778246 0.002666295 0.0039768396 0.0037342191 -0.0017263809 -0.009900297
-0.0066001043 -0.008537672 -0.01619809 -0.0016926745 -0.0017622414 0.0031231313 0.0031398968 -0.011615119
0.012115068 0.0048358007 0.00045586796 0.0178947 -0.009373977 -0.0037371384 3.12026e-05 -0.0028717432
-0.018953573 0.015299427 -0.0019754549 0.016526883 0.009341993 0.0007732522 -0.013302713 0.0030046355
-0.004000261 0.0032681262 0.0017930921 0.0057171127 -0.014280445 -0.011656437 0.0013129283 0.0067601516
0.011678467 -0.007958094 -0.0025145703 -0.018278766 -0.002118769 -0.0019790875 0.0035744428 0.0022767116
0.011881082 -0.01212309 0.0032491726 -0.0041795447 -0.008899988 -0.0025130808 0.01350534 -0.00083724776
4.3746943e-05 -0.012561967 0.025779707 0.007895748 0.0034426737 -0.006456399 0.0033008736 0.0045317654
0.008507461 -0.009164735 0.0025553221 0.009960489 -0.00062068756 0.0034736663 0.010696917 0.0013373699
-0.0061415476 0.008334431 -0.0043075546 0.000710225 0.0065986584 -0.005976772 0.007408845 0.00037202032
0.01076293 -0.003156807 -0.0032396764 0.018008048 0.0041006072 -0.0022545874 -0.011098082 0.0061038462

action_model._discrete_distribution.branches.3.bias f4 [3]
00000000: 0000 0000 0000 0000 0000 0000
0.0 0.0 0.0

action_model._discrete_distribution.branches.3.weight f4 [3, 128]
00000000: be89 23bc cf79 563a 4b60 693c 587c 573b
00000010: b3b4 16ba e5bd 4b3b d37c 4e3b 7d13 c3bb
00000020: fdd8 d1bb 6cb5 cb3b f0d8 513c a0bd 5eb9
00000030: 70e9 543c 3f7f 683c 8ff8 393b c185 10ba
00000040: 2989 043c 406f 693b 1772 5739 6a56 fb3b
00000050: 2acb 96bb 8b53 8b3a 9432 263c 8f28 a1bb
00000060: 2f16 8abb d70d b5ba 0fff 713c 4ab8 1bbb
00000070: 337b 56bc f633 9539 44de 4abb 00fb 0abb
00000080: 68c3 7abc 5d6a 673b 2126 0a3c 16ee 383c
00000090: 4f22 2dbb 0d14 58bc 036d f7bb e9e3 38bc
000000a0: 8d26 293c b42c b53b 8015 7a3b bfb5 3c3c
000000b0: 37ab 483a ff07 85bc 3ae9 d03b 8185 00ba
000000c0: 138a 173b 68d2 c73b 2e9c 88bb 9576 26bc
000000d0: 8b89 213b 1696 aa3b b046 69bc fadd 1e3c
000000e0: 807b 95bb ac61 a7bb 1d96 7b3c 15ad 5f3a
000000f0: 4d2e cdbb ca4f da3b 6f65 813a 33c1 5bbb
00000100: c721 b9ba 98a5 f9ba c1ff 08bc e71d 04bc
00000110: 8d35 a5bb 9377 09bc 5076 00bc 9fbd 03bb
00000120: cd2f 89bc 5b1f 32bc 694c a239 956e 1d3b
00000130: 1790 783a e323 e73b 3c14 36bb ffa6 243c
00000140: 8fb4 3abb 8b39 d73a 0a6a 1d3b 9ad5 b93c
00000150: 6b68 323c ed5a e4bb ca0c 043a a5e2 4dbb
00000160: 4ff5 8e3b fea5 32bc 8394 a1bc 2551 63bc
00000170: 0f17 3bbb 78f0 ecbb 1f74 04bc c756 2c3c
00000180: 3f04 3cbb e2e9 8abc 8bf2 9c3c db2d 363b
00000190: eb18 c13b 13fb 2ebc 3d7a 443b 930a 183c
000001a0: fd07 afbb 9aea 9fba 2ab2 31bc 01d5 1a3b
000001b0: 5829 523a 1233 de3a 20d6 e33b f520 3d3c
000001c0: bdc4 7f3c 1bdf be3c aa22 183b 52f2 86bb
000001d0: 088a 52bb 6c44 9f3a 43de 063c 876f 46bb
000001e0: d5c8 3ebc 00b4 273b 438a 003c 6c3d 2ebc
000001f0: 0966 013c 6335 293a 2b20 22bc d7c1 98bb
00000200: 7bd7 babb 7046 183c b889 0d3c 53f1 c73c
00000210: 48dd 80bb d92a ad3c da9b d2bb 97fb 733b
00000220: c765 5cbb 7ac0 1abb 95ec 153b 0fa3 aebc
00000230: 3fa5 673b 207a 5dbc 55a8 523c 9c21 8fbb
00000240: 2b79 4a3c e0ad 113c ed9b e8bb be88 303c
00000250: 4d52 38bc 482c ee3b 7b89 5d3c b264 5dba
00000260: 8ff2 19bb 2def e7bb d0a4 763c 0158 9f3b
00000270: f751 aa3b d956 05bb 5a57 a0ba 7b72 51ba
00000280: ab7d b2bb bb4a 33bc 77be e23b b7c9 d43b
00000290: cb58 e3bc a887 893b 0203 b33b 8360 313c
000002a0: 60e5 efbb 3371 983b 1338 acbb 6f95 aabb
000002b0: 780c 37bb c5b5 253b dd1f 7a3c 9d3b 633b
000002c0: 60a3 6c3b 56c4 2dbb 2514 e13a 3f12 653c
000002d0: 8ef2 863c 90b7 933c 2af6 74bc aad0 74bb
000002e0: 25ea 25bc adb7 0b3c 7d33 c43b 5a63 d53a
000002f0: 7ec2 a9bb b4fa 88bb a8ac d93b 9f6e 32bc
00000300: 2d42 16bc 0348 18b9 68cf 17bc d772 bb3b
00000310: 8995 22bc 5734 4bbc f731 053c 813f 2ebb
00000320: 5da8 67bb 9421 443b 3ab3 fdbb 6fa6 85bc
00000330: 9294 193c 2fcf 783b 2f3d 94ba 72e9 afbb
00000340: 8019 0f3c d072 66bb 1f8d 98bb 620b b73b
00000350: 0136 a03b 83b7 08bc 23a3 d53b f38b 193c
00000360: 86e1 a1bc 58d4 b43a eaed 883c a1a6 9bbb
00000370: 9739 08bc 0428 0ebc 05e6 debb 68e0 6f3c
00000380: 9177 053b e2c6 693c 2056 f139 2a6b d23b
00000390: 6149 8e3b 8756 5f3c 5a87 433c a78f 183c
000003a0: 9b22 a3bb 1cf1 24bc 0a78 183b 6be9 6d3b
000003b0: 1f9c 6fbc 4c49 a2bb f56f 743a 3fb1 e83c
000003c0: 2759 6fbb 730b 05bc a052 4abb 0ec8 1f3c
000003d0: b328 a4bc 1de3 9c3b d651 02bc 2ff4 d63b
000003e0: ffaa 23bc 7d70 ed3a bd10 2f3c c7d1 b13a
000003f0: 437e b9bb d5ee adbb ea3c 2c3c 5eee 303b
-0.009981571 0.0008181603 0.014244149 0.003288051 -0.0005748972 0.0031088528 0.0031507507 -0.005953251
-0.006404041 0.0062166955 0.01280807 -0.0002124221 0.012995109 0.014190494 0.0028376912 -0.0005513095
0.008089342 0.0035619289 0.000205465 0.0076702135 -0.0046018558 0.0010629756 0.010143895 -0.004918165
-0.0042140703 -0.0013813329 0.014770283 -0.0023760968 -0.013090896 0.00028458209 -0.0030955235 -0.0021206737
-0.015305378 0.00353112 0.008431942 0.011287233 -0.0026418155 -0.013188374 -0.007550837 -0.011284807
0.010324133 0.0055290107 0.0038159788 0.011517941 0.00076549075 -0.016239164 0.006375459 -0.0004902706
0.002312307 0.0060980804 -0.0041690087 -0.010160108 0.0024648632 0.00520588 -0.014238045 0.009696478
-0.0045618415 -0.005108079 0.015355614 0.0008532566 -0.006261623 0.0066623436 0.0009872149 -0.0033531904
-0.0014124446 -0.0019046543 -0.008361758 -0.00806377 -0.005041784 -0.008390325 -0.007840708 -0.0020102037
-0.016746426 -0.010871734 0.00030955978 0.002402221 0.000948192 0.0070538386 -0.0027783057 0.010049581
-0.002848897 0.0016420347 0.0024019503 0.022684861 0.010889153 -0.006968847 0.0005037306 -0.0031415608
0.004362739 -0.010903833 -0.019724136 -0.013874327 -0.002854768 -0.0072308145 -0.008084326 0.010518736
-0.0028689054 -0.016957227 0.019158622 0.0027798328 0.005892863 -0.010679978 0.0029980086 0.009279865
-0.0053415284 -0.0012200654 -0.0108457 0.0023625495 0.0008017025 0.0016952476 0.006953016 0.011543502
0.015610871 0.023299744 0.002321402 -0.0041182423 -0.003212573 0.0012151129 0.008231702 -0.0030278878
-0.011644562 0.0025589466 0.007845464 -0.010634761 0.007897862 0.00064547936 -0.009895365 -0.0046617794
-0.005701957 0.009294137 0.008638792 0.024407065 -0.003932629 0.021138595 -0.0064272704 0.0037228817
-0.003363 -0.002361326 0.002287661 -0.021317987 0.0035346297 -0.013517886 0.012857516 -0.00436802
0.01235799 0.008891553 -0.007098666 0.010774789 -0.011250091 0.0072684623 0.013521547 -0.0008445486
-0.0023490523 -0.0070780725 0.015053943 0.004862786 0.0051977593 -0.0020345955 -0.0012233064 -0.0007989776
-0.0054471097 -0.01094311 0.006919678 0.006493773 -0.0277523 0.0041970797 0.005463005 0.010826233
-0.007321045 0.0046521663 -0.005255708 -0.005205802 -0.0027931016 0.0025285345 0.015266386 0.0034672983
0.0036108121 -0.002651473 0.0017172141 0.013981401 0.016473081 0.018031865 -0.014951268 -0.0037355819
-0.010126625 0.008527678 0.005987583 0.001628022 -0.005180656 -0.0041802768 0.0066428967 -0.010890632
-0.009171051 -0.00014522676 -0.009265758 0.005720477 -0.009923347 -0.0124026155 0.008129588 -0.0026588144
-0.0035348155 0.002992724 -0.0077423127 -0.016314713 0.009373801 0.0037965288 -0.0011309738 -0.005368405
0.008734107 -0.0035163648 -0.004655495 0.0055860737 0.0048892503 -0.008344534 0.0065196916 0.009371745
-0.019760858 0.0013796194 0.016715009 -0.0047500883 -0.008314512 -0.008676533 -0.006802323 0.014640905
0.0020365457 0.014268609 0.0004603127 0.0064214664 0.0043422435 0.01363147 0.011934126 0.009311593
-0.0049784905 -0.010067251 0.0023264908 0.0036302458 -0.0146246245 -0.0049525853 0.0009324544 0.02840483
-0.0036521645 -0.0081204055 -0.0030872002 0.009752287 -0.020038938 0.004787816 -0.0079540815 0.0065598707
-0.009989499 0.0018115189 0.010685143 0.0013566547 -0.0056608035 -0.005308012 0.01051257 0.0026997547

action_model._discrete_distribution.branches.4.bias f4 [3]
00000000: 0000 0000 0000 0000 0000 0000
0.0 0.0 0.0

action_model._discrete_distribution.branches.4.weight f4 [3, 128]
00000000: 96a2 073c bf09 0c3c c280 423c a788 c53b
00000010: db5a 37bc fd5d 993c bd63 bdbb bb2f c33c
00000020: ee89 2b3c e215 fe3b 158e f0bb 44d4 393b
00000030: e2cb 63bc 6521 343c 160c 243c 4a6a a2bc
00000040: c8bb eb3a 9fe0 32bc 9986 44bc 031e 173c
00000050: 8b09 84bc d54a 963b d20f 183c ab3e b63b
00000060: 32e8 3d3c caba 693c 1a45 f3bb 3bd3 5ebc
00000070: 6fa0 8bbc fbb3 f0bb 420b 9e3b 1da8 86ba
00000080: f3fa ab3c c78e 693b 6ad1 723c f849 99bc
00000090: dff0 b8ba 7786 ad3b 675e 383c 3d71 353c
000000a0: 2b51 b7bb 2d11 05bc 2f83 103c 618a 19bb
000000b0: 6723 d13a a029 213a d2a8 edba c308 be3b
000000c0: 51d1 8139 316f 213c 27f2 29bc b5fe 633b
000000d0: c71a 0bbc 1534 fb3a 7fd9 063b 0f6f ae3b
000000e0: bc58 2a3c c847 38bc 0f1d 47bb 0f24 d4bb
000000f0: 48e0 6e3c 0b81 5b3b 0b3d 103b da87 663c
00000100: 33d9 1fbc 22d2 b83a 070a 763a 6aa5 083c
00000110: edbb b03a d20a 053b 84b4 463b dfc7 63bb
00000120: 4d83 673b f37c a53b 10db d1bb 9d9d e33b
00000130: 6db3 fb3a ebbc 793c 316f 98b9 1bed 3dbc
00000140: 031c 2c3c 1ad5 1a3c 771d 433c 8f5c 683b
00000150: da09 fb3b 3a70 76bc ee45 213b 69cd ba3b
00000160: 7d1f 7ebc 07a1 803a b2f9 443c f8d4 ce3b
00000170: b1c2 28bc 0691 8b3b 459e dcbb 0600 aab9
00000180: 4d64 f73b d26b d6b9 332e d7bb ee99 a6bb
00000190: 16dc 49bc 333b d93a ad2c 613c 1775 f5bb
000001a0: 637e 2c3a 9be0 2ebc 145d 09bc d87d ebbb
000001b0: 5f14 2bbc 8c8b b43c 7b61 74bc 23ed 1e3b
000001c0: 789e 19bc a3ab 483b 37a9 533c c12e 35bc
000001d0: 1250 a13b 45a8 d73b f278 33bc 156b 75bc
000001e0: 038d 803b eb6d 163c 1582 ec3b 9829 f7ba
000001f0: 31bf 08bc ca35 e3bb cda7 07bc dbdb e3bb
00000200: 6b49 1e3c 2f85 d53b 9520 f539 73d2 ad3b
00000210: 1005 dbbb 7b58 dbb9 13f3 773c 2ffd 63bc
00000220: 6bf3 65bc 68c5 f73b 7023 413b 4db0 03bb
00000230: 8532 7e3a 5fed 30bb c3e1 ac3b 0d0e 8f3c
00000240: 8b75 f63b bf2d d7ba eb55 34bc 2227 a93b
00000250: f906 413c f5e1 f53b 7772 acbb 4784 e33a
00000260: 38ca 3b3b ed13 7e3a 9204 62ba b222 c7bc
00000270: dac5 d2bc e61d 863a 5716 cb3b ca5f 523c
00000280: 2acd 03bc 3214 8d39 1771 0abb d8bb 02bc
00000290: e032 543c e2a0 d63b b010 2a3b f210 abbb
000002a0: d617 1fbc 1b3f 3abb 9130 353c 6e16 05bc
000002b0: 5795 743c 2fce 8639 5f15 0b3c 5aa0 c4bc
000002c0: 8ba2 ccbb 17e0 043c ea6e 153c 4599 2fbc
000002d0: 0850 9ab9 38ac bbbb ffdc 563b c40b 953a
000002e0: f305 98bc f699 383c 8480 4b3c d3fd 5c3c
000002f0: 8c2f a8bb 702d e5bb c06f a4bb 44ea 033c
00000300: b98a 4a3c 776b bf3b e0b0 e6ba 03e0 e53b
00000310: f6f4 02bb b5fd e63a abde 0a3c cd2c b8bb
00000320: 0558 823c 936a a43c a57e 6bbc 8e8c 073a
00000330: fa07 0ebc c527 e8bb 9bb9 c03a 85e2 bfbb
00000340: 91c0 323a 9b63 ff3b 3517 653c 6b73 32bc
00000350: 001c 5e3a b33a f338 4048 de3a 897e 87bc
00000360: 4a30 c5bb c3a1 0c3c af75 1e3c 826e 7f3a
00000370: 4b82 213a adaa 923b fc1b baba bfe1 32bc
00000380: e78b 59bb 5797 963b 76eb 27bc c05a 28bc
00000390: 0d30 8b3b 4539 acbb f013 ae39 8651 223b
000003a0: 8a6d 863b 8a1e 8f39 8683 aa3b e2ad 80bc
000003b0: 2d73 34bb 8b3e 323c 0b9f e4ba a208 823b
000003c0: bfdf 923c 5096 e33b 1fac b4bb c627 31bb
000003d0: 24c2 2a3c 6a0a 57bb a1ac 413c 8990 c13b
000003e0: df95 a53c c701 f93b bdc5 e73b 85da 583b
000003f0: 407a e13b 2fdf b7ba 80f2 9e3b cdda 783b
0.00827851 0.0085472455 0.011871519 0.006028253 -0.011191095 0.018721575 -0.005779712 0.02382647
0.010469897 0.0077540735 -0.0073411562 0.002835528 -0.01390359 0.01099429 0.010012647 -0.019826073
0.001798504 -0.010917812 -0.011994981 0.009223464 -0.016117832 0.0045865574 0.009281116 0.00556167
0.011591004 0.014265725 -0.007424009 -0.013600166 -0.017044274 -0.007345674 0.0048231194 -0.001027349
0.020993685 0.003563808 0.014820436 -0.018712029 -0.0014109871 0.0052955705 0.011252976 0.011074361
-0.005594393 -0.008121771 0.008820339 -0.0023428428 0.0015955985 0.0006147865 -0.0018131977 0.0057993843
0.0002476075 0.00985317 -0.010372675 0.0034789268 -0.008490271 0.0019165302 0.0020576415 0.005323298
0.0103971325 -0.011247583 -0.003038231 -0.006474025 0.01457984 0.0033493664 0.002200904 0.0140704755
-0.009756374 0.001410071 0.00093856495 0.008340219 0.0013483741 0.002030064 0.0030319998 -0.0034756584
0.0035326064 0.0050502955 -0.006404288 0.006946279 0.0019203253 0.015242795 -0.00029074543 -0.011592175
0.010504725 0.009450221 0.01190888 0.003545556 0.0076610865 -0.015041405 0.0024608332 0.0057007563
-0.015510437 0.0009813615 0.012022423 0.006312009 -0.010300324 0.0042592315 -0.0067327344 -0.00032424944
0.0075497986 -0.00040897593 -0.0065667867 -0.005084268 -0.012320539 0.0016573429 0.013743562 -0.007490765
0.00065801124 -0.010673667 -0.008384008 -0.0071866326 -0.010441869 0.022039197 -0.014915819 0.0024250231
-0.009376161 0.0030619882 0.012918762 -0.01105851 0.004922875 0.0065813386 -0.010954129 -0.014979144
0.00392306 0.00918148 0.0072176554 -0.0018857 -0.008346365 -0.0069339024 -0.008279753 -0.006953699
0.009661059 0.006516121 0.00046754317 0.0053046285 -0.006683953 -0.00041836858 0.015133637 -0.013915344
-0.014035086 0.0075613745 0.0029470585 -0.0020094097 0.0009696859 -0.0026996953 0.0052759363 0.017462755
0.0075213364 -0.0016416832 -0.011006813 0.0051621357 0.011781448 0.007503743 -0.0052626687 0.0017358147
0.0028654467 0.00096923 -0.0008621897 -0.024308536 -0.025729109 0.0010232299 0.0061977315 0.012840221
-0.00804452 0.00026908662 -0.0021124536 -0.007979356 0.012951583 0.0065499404 0.0025949888 -0.005220526
-0.009710273 -0.0028418961 0.011058942 -0.008123023 0.0149281835 0.0002571209 0.008488982 -0.024002243
-0.0062449626 0.008110068 0.009120682 -0.010717695 -0.00029432797 -0.005727317 0.0032785533 0.0011371304
-0.018557524 0.011267176 0.012420777 0.013488251 -0.005132621 -0.006993942 -0.0050182045 0.008051459
0.012362176 0.005841668 -0.001760032 0.0070152297 -0.0019982434 0.0017623218 0.00847594 -0.005620575
0.015911112 0.02007035 -0.014373456 0.00051707856 -0.008668894 -0.007084819 0.0014703752 -0.0058558607
0.0006818856 0.0077938563 0.013982584 -0.010891776 0.00084728 0.000115980765 0.0016958788 -0.016539829
-0.0060177194 0.008583489 0.009671613 0.0009743945 0.0006161078 0.0044759125 -0.0014199014 -0.01091808
-0.003319496 0.004595678 -0.010249009 -0.010275543 0.0042476715 -0.0052558505 0.0003320272 0.002476783
0.0041024135 0.0002729784 0.005203667 -0.015707914 -0.002753447 0.010879169 -0.0017442418 0.0039683143
0.017928956 0.006945409 -0.0055136825 -0.0027031763 0.010422263 -0.0032812604 0.011820943 0.0059071225
0.020213066 0.007599089 0.007073133 0.0033089232 0.0068810284 -0.0014028306 0.0048506856 0.0037972212

action_model._discrete_distribution.branches.5.bias f4 [3]
00000000: 0000 0000 0000 0000 0000 0000
0.0 0.0 0.0

action_model._discrete_distribution.branches.5.weight f4 [3, 128]
00000000: d2a9 b13a 67a3 c63c 8ae8 4dbb ab7b 77bc
00000010: a239 02bc da1d c1bb 6bd2 1f3b 3b8b 673c
00000020: a7e9 8d3a d99d bcbb cd27 69bc d7a3 cdba
00000030: f751 7fbc 3f13 1d3b 325a e23a 4007 1d3b
00000040: 2bc5 3d3b 51d2 39ba 82ef 3a3a 5839 b2bb
00000050: b3d5 683b f8b4 7a3c 1745 0dbb d2de bfbb
00000060: 5752 d2bb eac8 33b8 cbbb 6e38 8abc edba
00000070: 6824 c0bc cd72 e13b 7436 80ba 0f9a c03b
00000080: 818a 873c 97cc 1ebc 4e77 9eba 82ab 51bc
00000090: ab1d 08bc e3ae 47bb 20ab fb3b 60b6 f0bb
000000a0: d255 d9bb 652f 29bc 63fe c83b 60ce 9f3c
000000b0: ca69 553b 333a a3bb d36c b0bb 7adb 1cbc
000000c0: deb8 193b 103a 073c 5faf c73b b056 83bb
000000d0: f8f1 e03b 0496 36ba e05a 85bc 52fe d93b
000000e0: f524 293b bbbe 17bc 8d6b e43b bf1d fdba
000000f0: 7405 8dbb a83a 9ebc 2894 b5ba ab45 13bb
00000100: b2b7 f13b aa81 7a3c 1311 91b9 7fd5 03bc
00000110: 7720 01bc a540 813b 6f03 89bb 4d6e 693a
00000120: 6418 b13c 05c2 41bb 1580 8d38 56ab 08bc
00000130: 48b6 8f3c 9354 16bc 960d b63b f4e0 a0bb
00000140: c3c4 713c 256e 3b3c 13c1 25bc f71b 993b
00000150: 28c3 923b e733 d5bb 333d 843b 946c 92ba
00000160: 1aae ec3b 2853 18bc 0b5b 82bb 27af 21ba
00000170: 1654 a9bc b33f 9a3b 584f 62bb 104a c73b
00000180: 3273 b13a 2b5f 7a3c db1b 60bb efc8 f2bb
00000190: 3d2f c8bb 6266 6abc 053f 0fbc 95f3 28bb
000001a0: fcf9 cb3b ec6c bebb 2fad 69bb 5f43 bbbb
000001b0: 0f7c 2b3c 1da8 dbbb f285 963b cb0b 88bc
000001c0: edf0 4cbb 3026 17bc 4699 10bc 98a3 a8bb
000001d0: ba30 233c c911 98bb 1d9b f9bb 6a7b b33b
000001e0: 5cf9 b1bb d752 8fba d5d1 bcbb 282b d63b
000001f0: afa0 40bc ff35 70b8 8002 d33b 4095 64bc
00000200: 7914 17bb 8d69 9ebc cae9 72bc b796 3bb9
00000210: dd2d c8bb 9e51 103c 6bc6 ad3c bdb3 573b
00000220: dcfd 123c 67a4 7abc d18f a1bb f74b 113b
00000230: f006 9fbb 0614 8abb fdcd 0abc 3d7c 9bba
00000240: aa8f f0bb e601 cc3a f903 0d3b 18b0 06bc
00000250: 33e5 253c 5755 03bc 2ed7 243b 805f 15ba
00000260: 491e 8fbc c376 db3b 4094 02bc fc02 3ab9
00000270: 93b9 483b 5c01 91bb 0d4b 733c c73d 57bc
00000280: 525b 183b 25f5 913b 3f34 99b9 123d 55ba
00000290: 4b01 cdbb a387 0fbc 09b1 9e3b f35d 0d3b
000002a0: eaed eebb d991 21bc 9598 8fbc 5d16 8abc
000002b0: 503d 9b3c d8db ef39 f08f b13b f7df c6bc
000002c0: a788 933c 07eb 023b 5f0e 75bb 70f3 79bc
000002d0: 4b72 023c 8683 13bc 73cc 9bba bf37 f53b
000002e0: 97b7 9aba 3b25 55bb ad29 10bc 1b7e 09bc
000002f0: c4e1 15bc 9061 c6ba f587 d8bb c2db 29bc
00000300: ff55 683c 1dc7 c83b a43d 9f3c 6bbc 8a3c
00000310: e875 08bc 6f24 943b c6bc adbb a320 583c
00000320: 80fc a23b 5f5b 243c 9e7b 0ebb fcaf a1bb
00000330: f776 bf3a 47de 3f3c 478c 96bb db20 12bc
00000340: 74bb 2c3b a293 e8bb bff0 6abc da4e ccbc
00000350: c29a cd3b 4249 a53b 25ab 74ba 0d91 2a3a
00000360: bae0 423a 2382 3fbb 5074 f6bb cb56 23bc
00000370: bf71 d73b 1fdc 71bb 8b73 93bb 85e9 6bbb
00000380: 523a e1bb ef2c 153a e00a 4c3c 976b de3b
00000390: 9cfc 19bc 93b0 b73b e290 5f3b 51be 373c
000003a0: f5fb 353c 502d 653b 1b1f 8b3a 0382 2a3b
000003b0: 92bb abbb 585c 8ebb 1463 b0bb 33c6 fd3b
000003c0: 6dcc 4dbc e2f2 7c3b c8a0 4abc 12bc dc3b
000003d0: 102f 953b 1b8a ee3b 33a5 323c 7051 d639
000003e0: b774 1fbb bc7e 9bbb faf4 8a3b a55b 003a
000003f0: 935c adbb 665b 2f3c 27c5 1aba 576f 663c
0.0013554639 0.024247838 -0.0031419122 -0.015105168 -0.007948311 -0.005893451 0.0024386893 0.014132316
0.001082708 -0.0057561216 -0.014230681 -0.0015689087 -0.015583507 0.002396777 0.0017269312 0.002396062
0.0028956633 -0.00070885295 0.00071310264 -0.005438965 0.0035527765 0.015301935 -0.0021556073 -0.0058554197
-0.006418507 -4.286404e-05 5.6918518e-05 -0.0018137854 -0.02345486 0.0068801404 -0.0009781853 0.00587774
0.016545536 -0.009692333 -0.0012089999 -0.012797238 -0.008307855 -0.003046923 0.007680312 -0.0073459595
-0.006632545 -0.010326241 0.006133841 0.019507587 0.0032564276 -0.004981303 -0.0053840666 -0.009573812
0.0023456137 0.008253589 0.006093904 -0.0040081367 0.0068647824 -0.0006965103 -0.016278684 0.006652632
0.0025809382 -0.009261782 0.006970829 -0.0019311233 -0.0043036286 -0.019315079 -0.0013853358 -0.0022471945
0.0073766345 0.015289703 -0.00027669276 -0.008046507 -0.007881275 0.003944474 -0.0041813175 0.0008904681
0.021618076 -0.0029565108 6.747261e-05 -0.008341631 0.017542973 -0.0091754375 0.005555819 -0.004909629
0.014756384 0.011439835 -0.010116833 0.004672523 0.004478831 -0.0065064314 0.004035616 -0.0011171275
0.007222903 -0.00929717 -0.0039781383 -0.00061677623 -0.020669978 0.0047073006 -0.0034532156 0.006081827
0.0013538359 0.015281479 -0.003419629 -0.007409207 -0.006109147 -0.0143066365 -0.008743052 -0.0025779952
0.006224869 -0.0058113243 -0.0035656204 -0.0057148184 0.01046659 -0.0067033903 0.0045936042 -0.016607186
-0.0031271533 -0.009225413 -0.008825606 -0.005146455 0.009960348 -0.004640792 -0.007617368 0.0054773586
-0.0054313373 -0.0010934722 -0.0057623186 0.0065359063 -0.01175706 -5.7270747e-05 0.006439507 -0.0139516
-0.0023052974 -0.01933744 -0.0148262475 -0.00017889855 -0.006108983 0.008808522 0.021212777 0.003291353
0.008971658 -0.015297986 -0.0049304743 0.0022170523 -0.004853122 -0.0042138128 -0.008471963 -0.0011862587
-0.007341345 0.0015564531 0.002151726 -0.008220695 0.010125446 -0.008015952 0.002515267 -0.00056981295
-0.017470496 0.006697507 -0.007969916 -0.00017739454 0.003062819 -0.004425211 0.0148494365 -0.013137287
0.002324779 0.0044542723 -0.0002922136 -0.00081344054 -0.0062562576 -0.008760366 0.0048428816 0.002157089
-0.007291545 -0.009861433 -0.017528811 -0.016856367 0.018950135 0.0004574943 0.00541877 -0.024276717
0.018009497 0.0019976513 -0.00373926 -0.015255794 0.00796182 -0.009003526 -0.0011886492 0.007483452
-0.0011803982 -0.0032523412 -0.008798999 -0.008391882 -0.009148065 -0.0015135277 -0.006608004 -0.010367336
0.014180659 0.006127252 0.019438572 0.016935548 -0.008328892 0.004520945 -0.0053020446 0.013191375
0.004973948 0.01003155 -0.0021741162 -0.004934309 0.0014607598 0.01171071 -0.004594359 -0.008918966
0.0026356848 -0.0070976773 -0.014339625 -0.024939943 0.006274552 0.0050441334 -0.0009333364 0.00065065996
0.00074339996 -0.0029221855 -0.0075211897 -0.0099694235 0.006574839 -0.0036904884 -0.004499858 -0.0035997343
-0.0068734074 0.00056905946 0.012453765 0.006787728 -0.009398606 0.005605766 0.0034113456 0.011214809
0.0111074345 0.0034969635 0.0010614129 0.0026017434 -0.005240866 -0.0043445043 -0.005382905 0.0077445745
-0.012560946 0.0038596918 -0.012367435 0.006736287 0.0045527294 0.007279647 0.010903644 0.00040877936
-0.0024331042 -0.0047453325 0.0042406293 0.00048964686 -0.0052905767 0.010702943 -0.0005904012 0.014064631

action_model._discrete_distribution.branches.6.bias f4 [3]
00000000: 0000 0000 0000 0000 0000 0000
0.0 0.0 0.0

action_model._discrete_distribution.branches.6.weight f4 [3, 128]
00000000: efd8 453c ae4a 36bc 7b3a de3b cf2a 2fbc
00000010: 0f4a 2f3b 6b77 cbbc 0f1d b53b 98a1 febb
00000020: 2537 e53b 9f38 62bc 227e 663c bacf 0c3c
00000030: 8bd0 5fba b525 e83b f5cc 1fbc bf8e d5bb
00000040: 20c4 7dbb 8318 0abc 4cc9 333c a3c3 0fbb
00000050: 189d 183c 9363 33bc 80bb 0dbc e422 b4ba
00000060: 573a cab9 9b90 8d3b e312 32bc 1300 9f3b
00000070: 79da 13bc ebfb 853a 8613 b43b 357b b63a
00000080: 50d8 6a3c b355 67bc b0f3 283c 03f0 8f3b
00000090: 0ef2 a83c 4dfd 7a3b 8d56 563b c08e c53b
000000a0: f64d 88bb 6d56 e0ba f2c2 f338 12c2 46bc
000000b0: bbfe 36bc b66a b7bb 2b78 18bc d197 95bb
000000c0: 7f97 fbbb 900f 793c 050c 22bc 8544 d43b
000000d0: f3cf 7b3c 6159 4b3b 9202 443c 35cc dabb
000000e0: 9f3e 96b8 65f0 3fbb 97b6 053c 0f18 443c
000000f0: bba7 93bb 431e d23b 6454 843c 8273 783c
00000100: e0ee 6a3c 636f ddb9 bfc8 c2bb 1b8d f83b
00000110: bb41 51bc 2f48 043c f573 013c 5388 49bb
00000120: 5a76 6f3b 2f3f 09bc 12d0 f4bb 91cd 35bc
00000130: 55b7 2e3c 2396 02bc 1684 c83b 70a7 533a
00000140: e3bb dbbb d995 933c 9a5e 523c 57bf ba3b
00000150: b1bb a13b 7c31 be3b 0bca 14bc dd88 ea3b
00000160: 7f03 493c 579f fcbb c570 b63b 4d37 b93b
00000170: 538b eeb9 146b 883c ce93 9abc 16c8 1c3b
00000180: d93d 383c 178e a23b 7b29 203b bbce 163c
00000190: 1f66 28bc fd2c 92bb 600a 563c d8fb 0d3c
000001a0: 4072 dcbb 4729 55bc e747 1fbc 7fc7 5a3c
000001b0: 87bf a1bb 8d8e 0fbc 22ea 84ba 90f9 f9bb
000001c0: f57c 23ba 2269 d33b fd2f a7bb d32b 693b
000001d0: 4db5 8e3c f7b9 63bc d359 59bb f8a8 813c
000001e0: f726 95bb 3bd5 c5b8 0bc1 96bc 1566 a9bc
000001f0: 5350 60bc b8fb f0bb 2f57 09bb 00a5 743a
00000200: 1a77 d03b ce9e 2dbc 3530 f73b 0eb8 b73b
00000210: c875 0b3c dda5 ccbb 94c2 ab3b dbbc 033c
00000220: fcdb 843c 9b5e 5cbc fff5 e13a 37b0 80bb
00000230: 544a 0d3c aba9 2cbb 7d40 da3a 2719 0bbc
00000240: af1b 5b3c 78a8 d7bb 3d69 2d3c 1321 edba
00000250: 32c1 e93b 44da a5bb db4d 303c 5e91 18bc
00000260: 1ff5 0b3c 9b6c 08bb 0fd0 593c 5341 4f3b
00000270: bd2e a7bb b8ae 2cba d82b 413c 92b6 383b
00000280: 55a2 b2bc b1d1 a5bb a456 313a 7f0a ac3b
00000290: 0fbf 9bb9 e3ea 09bc c0d6 b6bb a1b5 c63b
000002a0: 6776 ae3b 6d5f 6b3c 2825 12bc 1323 51bb
000002b0: 9034 1c3c 5797 543b fdda 8d3b 8b93 4f3c
000002c0: 62f2 2b3b ce01 443c 90a6 273c b9e5 8cbb
000002d0: 2359 54bc 0763 f0b9 dd86 96bc 97e4 893b
000002e0: 1301 6f3c 6043 56bc 5a42 1a3c bb27 863b
000002f0: 86b6 43bb cd7f cbbb 331a aebb 4b0d 343b
00000300: 32b1 e9b9 1bbd 15bc 5809 f5ba 0837 93bc
00000310: 135a 823b 4b81 d8bb 4083 55bb c726 89bb
00000320: 03c3 873c e469 183c 6c7a 9ebb bad7 543c
00000330: 1f4d b43b 62a3 093c d25c 0dbb 57c5 1b3b
00000340: 1b6d 34bb 24cd 80ba 9227 2dba b308 a93b
00000350: 2081 22bc 25d2 73bb 6f35 e739 82cf 1c3b
00000360: d5b2 5c3c cb85 833c bf01 a23c 5f6e 26bc
00000370: cb8a 7e3c f3e6 d1bb b3d1 c0ba 770b 9b3b
00000380: cfe5 8fbc 0578 e63b 6fa1 8cbb fd33 dd3b
00000390: a793 133b 860f c5ba 2b40 90bb 07b9 f33b
000003a0: 3395 14bc bb91 c23a 5292 603c 107a 5e3b
000003b0: 20b1 3bbb d0cd d13b 5bb8 a4ba 073b 30bc
000003c0: b495 82ba f9fe 3dbb 7bd6 cb3a e503 7c3b
000003d0: 8762 7e3c 70cf d7bc 222c 77ba 4d28 cd37
000003e0: f294 4fbc bb16 ac3b ae6d 113b 7f11 2bb9
000003f0: d5d2 013c 8d34 853c b3bd 08bc 15fc 6abc
0.012075647 -0.011126203 0.0067818738 -0.010691359 0.0026747023 -0.024837216 0.0055271457 -0.0077707283
0.006995099 -0.013807445 0.014068158 0.008594448 -0.000853785 0.007084573 -0.009753455 -0.006517261
-0.0038721636 -0.008428696 0.010973286 -0.0021936677 0.009314798 -0.010949033 -0.0086506605 -0.0013743308
-0.0003857191 0.004320217 -0.010868761 0.004852304 -0.009024256 0.0010222172 0.0054954914 0.0013922217
0.0143337995 -0.014119553 0.010312006 0.0043926253 0.020623233 0.0038297952 0.0032705397 0.00602898
-0.0041596843 -0.0017115601 0.00011623454 -0.012131231 -0.011169131 -0.0055974377 -0.009305994 -0.004565217
-0.007677972 0.015201464 -0.009890561 0.0064778947 0.015369403 0.0031028616 0.011963503 -0.0066771754
-7.1642215e-05 -0.0029287573 0.008161209 0.011968627 -0.004506079 0.006412299 0.016153522 0.015164258
0.014339179 -0.00042235394 -0.005944341 0.0075851805 -0.012772019 0.008073851 0.0079011815 -0.0030751422
0.003653905 -0.008376881 -0.007471093 -0.011096374 0.010663827 -0.007970366 0.0061192615 0.00080739614
-0.0067057475 0.018015789 0.012839938 0.005699079 0.0049357046 0.005804239 -0.009081374 0.0071574287
0.0122689 -0.0077094245 0.0055676424 0.0056523443 -0.00045498702 0.016652621 -0.018869307 0.0023922971
0.011245214 0.004960786 0.0024438787 0.009204562 -0.010278254 -0.0044609294 0.013063997 0.008666001
-0.006727487 -0.01301033 -0.009721733 0.013353228 -0.004936162 -0.008762014 -0.0010140578 -0.007628627
-0.00062365766 0.006451742 -0.005102156 0.00355791 0.017420435 -0.013899318 -0.0033165112 0.01582764
-0.004551764 -9.433409e-05 -0.018402597 -0.02067856 -0.013691026 -0.007354226 -0.0020956506 0.0009332448
0.0063618543 -0.010596944 0.0075435885 0.005606658 0.008511968 -0.0062453584 0.0052417014 0.008040632
0.016218178 -0.01345029 0.001723945 -0.0039272564 0.008623678 -0.0026346247 0.0016651299 -0.0084898835
0.0133732995 -0.0065813623 0.010584173 -0.0018091522 0.0071336264 -0.0050614197 0.01076075 -0.009312002
0.008542328 -0.0020816687 0.013294234 0.003162463 -0.005102007 -0.00065873144 0.011790238 0.0028184992
-0.021805922 -0.0050603976 0.00067649246 0.0052502747 -0.00029706254 -0.008417818 -0.0055797994 0.0060641323
0.0053241733 0.014366013 -0.008919992 -0.0031911775 0.009534016 0.0032438838 0.004329084 0.012669454
0.0026237 0.011963321 0.010232583 -0.004299846 -0.012960705 -0.00045850148 -0.018374855 0.0042081582
0.014587658 -0.013077587 0.0094152335 0.0040940917 -0.002986343 -0.0062103034 -0.005313182 0.0027473744
-0.00044573244 -0.009139325 -0.0018694801 -0.017970577 0.003978023 -0.00660721 -0.0032579452 -0.004185531
0.016572481 0.00930259 -0.004836371 0.012990886 0.0055023576 0.00840077 -0.0021570218 0.0023768747
-0.0027530852 -0.0009826762 -0.00066053227 0.0051585077 -0.009918481 -0.0037204113 0.00044099565 0.0023927395
0.013470371 0.016055008 0.019776223 -0.01015815 0.0155360205 -0.006405705 -0.0014710933 0.0047315913
-0.017565636 0.0070333504 -0.0042917053 0.0067505823 0.0022518428 -0.0015034534 -0.0044021807 0.0074378285
-0.009068775 0.0014844456 0.0137067605 0.0033947267 -0.002863951 0.0064027086 -0.0012567149 -0.010756261
-0.0009962828 -0.0028991087 0.0015551591 0.003845447 0.01552642 -0.026344031 -0.00094288785 2.445667e-05
-0.012669789 0.005251733 0.0022190618 -0.00016314349 0.007923801 0.01626041 -0.008346009 -0.014342328

action_model._discrete_distribution.branches.7.bias f4 [3]
00000000: 0000 0000 0000 0000 0000 0000
0.0 0.0 0.0
