ArmRobot/Assets/Config/results/TFM-Carro-2/AgenteCarro/AgenteCarro-280000.onnx (onnx, 73645 bytes, 8 tensors)

network_body.observation_encoder.processors.0.normalizer.running_mean f4 [5]
0.0056285546 0.45826662 1.4655479 0.058720086 0.8559168
00000000: bd6f b83b eca1 ea3e 1397 bb3f 7984 703d
00000010: 5d1d 5b3f

network_body._body_endoder.seq_layers.0.weight f4 [128, 5]
0.24602233 -0.082121104 0.12080467 -0.5349583 0.19670054 -0.00835335 -0.3918216 -0.32142112
-0.1999404 0.023581292 0.3311339 0.09418256 -0.5505138 -0.4296098 -0.11461764 -0.36360106
0.0064582485 -0.08927373 -0.9234288 -0.27252638 0.28179774 -0.727162 -0.37833697 -0.32173178
-0.12436214 0.648944 0.2701991 0.6948925 0.494362 0.03945275 0.27172083 0.4055214
-0.38759878 -0.11647112 -0.540325 -1.2829682 -0.11947585 0.22034028 0.1265616 0.06109477
0.14058858 0.42880324 0.40661582 0.15175302 0.29086056 -0.35055315 -0.31352875 0.06903188
-0.30807972 -0.38735098 -0.09750339 -0.45303255 0.5862505 -0.061668273 0.58027685 -0.5630781
0.6583916 -0.32797173 0.6055181 0.4168279 0.15453833 0.084750645 0.3600202 0.73660445
0.45786014 0.20610522 -1.133636 0.6232863 0.4769248 -0.00047695884 0.095836595 -0.37414598
-0.40612692 -0.4777371 -0.9011456 0.37003213 -0.43026632 -0.2080839 -0.17611983 0.24635088
-0.027729718 -0.49409905 0.53328043 0.1941333 -0.48969355 0.80282795 0.5769556 -0.19980137
-0.36420435 0.39544892 -0.32036573 0.24541138 0.007245361 0.2928776 -0.008973878 0.5871006
0.7210824 0.1687766 0.30608833 0.20724475 -0.71265614 0.31302392 0.32618096 0.3443668
-0.14155877 0.24207391 -0.028166609 -0.27999604 0.24455349 -0.41914952 0.023249857 0.054110616
-0.9486636 -0.7130961 -0.36790216 0.5378438 0.23787943 -0.044676848 0.83237314 -0.16842252
-0.16344833 0.25217897 -0.09491794 -0.08950898 -0.3234839 0.24828833 -0.5577987 0.83190393
0.39876935 0.10457591 -0.034964923 -0.0025031501 0.15005873 -0.11157795 0.004625965 -0.60780895
-0.7416021 0.45689946 0.04778119 1.1266742 0.38149953 0.34442714 -0.00021743719 0.37116626
-0.30092922 -0.34871867 -0.07023787 0.15980966 -0.5791763 -0.1748198 -1.4883499 -0.20397653
0.012242709 0.48739928 0.46618524 -0.0029553827 -0.33473507 -0.28223217 0.4439102 0.3304831
-0.58736235 0.06851585 -0.570698 0.47521847 0.5783795 -0.67803556 -0.85944104 -0.19475298
0.86911386 0.46976504 -0.065067574 0.1297128 0.16381721 -0.5243835 -0.46920714 0.6729494
0.9138878 0.33242214 -0.19374059 -1.1706439 0.38649 0.5793278 -0.15748996 0.16908406
-0.42708713 -0.6458012 -0.59746826 -0.6499831 -0.9784412 -0.08076064 -0.99136806 -1.5701386
0.0514404 -0.23015481 -0.3669557 0.2728126 -0.10674546 0.31839746 -0.061271388 -0.6527528
0.9769499 0.48896116 0.27656147 -1.1731045 -0.5098318 -0.16998467 -0.40518114 -0.022922691
-0.42743734 -0.6232474 0.0737689 -0.47299582 -0.081232615 0.8469195 -0.6742871 0.0072217053
-0.49025303 0.36997083 -0.05534799 0.1252021 0.23316935 -0.56058073 -0.037570152 0.398074
-0.75443053 -0.22499323 -0.11149351 0.3608613 -0.16222548 0.6952227 -0.120481834 -0.24315755
1.2536097 0.53293955 -0.05517875 0.34316838 -0.15817298 0.18400365 -0.40060833 0.020645415
-0.13126236 -0.79778415 -0.46349546 -0.27752176 -0.37596014 0.34396327 -0.6296297 0.38010842
0.19645 -0.1941949 -1.0679301 -0.0844953 -0.28693247 -0.43788812 0.82923096 -0.12049675
00000000: 47ed 7b3e 1c2f a8bd 7068 f73d 07f3 08bf
00000010: de6b 493e 7ddc 08bc d79c c8be 4f91 a4be
00000020: 2dbd 4cbe 8e2d c13c 628a a93e c9e2 c03d
00000030: 79ee 0cbf d1f5 dbbe a7bc eabd eb29 babe
00000040: b79f d33b 25d5 b6bd d465 6cbf 9488 8bbe
00000050: cb47 903e 4a27 3abf 62b5 c1be 07ba a4be
00000060: 94b1 febd 3221 263f 8957 8a3e 7ae4 313f
00000070: 041d fd3e 3599 213d fe1e 8b3e 80a0 cf3e
00000080: 5973 c6be 6988 eebd bd52 0abf 4d38 a4bf
00000090: c1af f4bd e2a0 613e 5d99 013e 823e 7a3d
000000a0: 74f6 0f3e 198c db3e f32f d03e 2565 1b3e
000000b0: adeb 943e b47b b3be d786 a0be 9660 8d3d
000000c0: a0bc 9dbe de52 c6be dbaf c7bd e2f3 e7be
000000d0: 8314 163f df97 7cbd 068d 143f e325 10bf
000000e0: 5a8c 283f e9eb a7be 3c03 1b3f 776a d53e
000000f0: 4c3f 1e3e bf91 ad3d 9154 b83e 1c92 3c3f
00000100: a56c ea3e 3f0d 533e fc1a 91bf b18f 1f3f
00000110: 7d2f f43e 5510 fab9 fa45 c43d 1090 bfbe
00000120: deef cfbe f599 f4be 7ab1 66bf da74 bd3e
00000130: de4b dcbe f213 55be c258 34be 6843 7c3e
00000140: 6f29 e3bc 8dfa fcbe 1185 083f e1ca 463e
00000150: 1db9 fabe 2286 4d3f 5db3 133f bb98 4cbe
00000160: fe78 babe 4878 ca3e fa06 a4be 1f4d 7b3e
00000170: 7e6a ed3b 0ef4 953e 2c07 13bc 3a4c 163f
00000180: db98 383f c6d3 2c3e 9cb7 9c3e f837 543e
00000190: a270 36bf ac44 a03e 3101 a73e d850 b03e
000001a0: c8f4 10be 39e2 773e a9bd e6bc a45b 8fbe
000001b0: 3b6c 7a3e c49a d6be 7c76 be3c 18a3 5d3d
000001c0: 9edb 72bf 778d 36bf ac5d bcbe 22b0 093f
000001d0: aa96 733e 12ff 36bd 6816 553f f476 2cbe
000001e0: 005f 27be 9a1d 813e 5664 c2bd 7c50 b7bd
000001f0: af9f a5be 4c3f 7e3e e5cb 0ebf a8f7 543f
00000200: 7f2b cc3e e52b d63d 6137 0fbd e40b 24bb
00000210: ffa8 193e fb82 e4bd 6895 973b 5e99 1bbf
00000220: a3d9 3dbf baee e93e 36b6 433d dc36 903f
00000230: e853 c33e c158 b03e daff 63b9 8109 be3e
00000240: 6513 9abe 418b b2be dfd8 8fbd 25a5 233e
00000250: e644 14bf f603 33be 4082 bebf 39df 50be
00000260: a595 483c 668c f93e d5af ee3e 18af 41bb
00000270: 6562 abbe bc80 90be 3348 e33e 1535 a93e
00000280: 615d 16bf 0a52 8c3d 4419 12bf d64f f33e
00000290: ae10 143f bd93 2dbf 5404 5cbf 536d 47be
000002a0: 3f7e 5e3f 0b85 f03e 2642 85bd 6fd3 043e
000002b0: b3bf 273e ff3d 06bf eb3b f0be 6946 2c3f
000002c0: 8df4 693f 3c33 aa3e ef63 46be a9d7 95bf
000002d0: 04e2 c53e d44e 143f 0c45 21be 5f24 2d3e
000002e0: 2aab dabe 3a53 25bf aef3 18bf 4b65 26bf
000002f0: 1f7b 7abf d665 a5bd 4cca 7dbf 4dfa c8bf
00000300: 2bb3 523d b4ad 6bbe 9ee1 bbbe 18ae 8b3e
00000310: 5d9d dabd fe04 a33e b5f7 7abd cf1a 27bf
00000320: 6319 7a3f 1e59 fa3e 7799 8d3e 4a28 96bf
00000330: 5684 02bf 7610 2ebe e773 cfbe 5ec8 bbbc
00000340: 11d9 dabe 248d 1fbf 2614 973d 822c f2be
00000350: 495d a6bd b7cf 583f 149e 2cbf 0ea4 ec3b
00000360: 7202 fbbe d16c bd3e 93b4 62bd fb34 003e
00000370: f2c3 6e3e 3882 0fbf 29e3 19bd 5bd0 cb3e
00000380: 5c22 41bf a064 66be b656 e4bd d0c2 b83e
00000390: 701e 26be 1dfa 313f 2ebf f6bd 4bfe 78be
000003a0: 4876 a03f ba6e 083f 1d03 62bd c4b3 af3e
000003b0: 19f8 21be 746b 3c3e 891c cdbe 9320 a93c
000003c0: a469 06be 953b 4cbf 474f edbe 5517 8ebe
000003d0: d97d c0be f41b b03e 692f 21bf 929d c23e
000003e0: 302a 493e 07db 46be efb1 88bf df0b adbd
000003f0: d0e8 92be df32 e0be 7b48 543f 00c7 f6bd

network_body._body_endoder.seq_layers.0.bias f4 [128]
0.042460524 0.061700802 0.08160657 0.18411417 0.015479492 0.09515802 0.02326131 0.048032757
0.10525058 -0.035673082 0.033180587 0.09565496 0.0367202 -0.01661064 0.15073316 -0.0702188
0.05233125 0.078438684 0.0067022843 0.082837954 0.083131075 0.090865724 0.09748456 -0.037677865
0.10028335 0.01559268 0.07852335 0.031803403 0.009961516 0.015780952 0.0688465 -0.022148253
0.03781436 -0.012133978 0.13147922 0.085265346 0.032733127 0.057225753 0.0057158163 0.11484544
0.11235121 0.074697934 0.0378827 0.030549582 -0.04786558 0.031397574 0.027600672 -0.044304453
0.0104601905 0.016452368 0.03277124 -0.031392574 0.045129597 0.008181026 0.06863231 0.04629186
0.07793257 0.05373201 0.13363566 0.01819609 0.06949761 0.008391708 -0.020417936 0.053836603
0.018557927 -0.09417573 0.04966433 -0.017881894 0.1578023 0.14173782 -0.0905757 0.0041379104
0.08074074 0.018867057 0.01127713 0.025675861 0.13434401 0.13415903 0.051040992 0.05651656
0.04409315 0.14979316 -0.038231023 0.07106065 0.12462035 0.12878032 0.05508147 0.06532885
0.07311306 0.04256414 0.09585501 0.004764965 -0.022769595 0.05004489 0.005289164 0.13545667
0.06763523 0.047726154 0.07404543 0.09434631 -0.03113459 0.15244853 0.052633885 0.13147503
0.03677989 0.041796185 0.03652188 0.04650706 0.08413724 0.17633125 0.071961835 0.15387775
0.0028034963 -0.0102660665 0.06329423 -0.03313026 0.123325095 0.18398899 0.027473604 0.024729846
0.08013642 0.014497123 0.003426566 0.038850777 0.14076911 0.09328691 0.097116865 0.10238208
00000000: 16eb 2d3d fbb9 7c3d 5821 a73d 6d88 3c3e
00000010: b29d 7d3c 35e2 c23d 818e be3c ffbd 443d
00000020: 9e8d d73d f01d 12bd 5ee8 073d bfe6 c33d
00000030: ec67 163d 0913 88bc cb59 1a3e e0ce 8fbd
00000040: 4b59 563d 76a4 a03d d69e db3b f2a6 a93d
00000050: a040 aa3d cf17 ba3d fca5 c73d 1b54 1abd
00000060: 5b61 cd3d 7178 7f3c dad0 a03d 4944 023d
00000070: a035 233c 0e47 813c 65ff 8c3d 4170 b5bc
00000080: 3be3 1a3d 98cd 46bc 7da2 063e 999f ae3d
00000090: 2c13 063d 8d65 6a3d be4b bb3b 1634 eb3d
000000a0: 6418 e63d 3bfb 983d e42a 1b3d 1e43 fa3c
000000b0: b30e 44bd be9a 003d ce1a e23c 9678 35bd
000000c0: 3861 2b3c 1ec7 863c 233b 063d 8095 00bd
000000d0: d0d9 383d b609 063c 198f 8c3d 899c 3d3d
000000e0: 1c9b 9f3d 1916 5c3d c9d7 083e f70f 953c
000000f0: c354 8e3d 607d 093c 8443 a7bc c583 5c3d
00000100: cb06 983c 35df c0bd d36c 4b3d 0d7d 92bc
00000110: ed96 213e b823 113e c17f b9bd 4f97 873b
00000120: 675b a53d 168f 9a3c b6c3 383c 2f56 d23c
00000130: 7a91 093e fc60 093e 5c10 513d e97d 673d
00000140: 059b 343d 6163 193e 2298 1cbd 3f88 913d
00000150: f438 ff3d fdde 033e 1c9d 613d 22cb 853d
00000160: 4dbc 953d bc57 2e3d a24f c43d 6c23 9c3b
00000170: 4d87 babc dffb 4c3d b950 ad3b 27b5 0a3e
00000180: 5784 8a3d 807c 433d 21a5 973d a338 c13d
00000190: f80d ffbc 781b 1c3e a196 573d 64a1 063e
000001a0: 83a6 163d 7a32 2b3d f897 153d 307e 3e3d
000001b0: 2550 ac3d 2e90 343e ba60 933d 2192 1d3e
000001c0: ddba 373b 0133 28bc 68a0 813d 98b3 07bd
000001d0: de91 fc3d 9c67 3c3e 5310 e13c 3f96 ca3c
000001e0: 901e a43d 5785 6d3c 3d90 603b fe21 1f3d
000001f0: c725 103e 350d bf3d 35e5 c63d b2ad d13d

network_body._body_endoder.seq_layers.2.weight f4 [128, 128]
-0.0662295 -0.11684847 -0.09439048 0.0056358147 -0.19150707 0.01942865 -0.028936505 -0.3021956
-0.027481519 -0.0923831 -0.28991964 -0.03123794 -0.1489478 -0.20347585 0.026054882 -0.09318682
-0.019983103 0.117211595 0.022345966 -0.16354382 -0.25662258 0.023525734 0.0055923485 0.17677021
0.05137646 -0.21954258 0.09588326 0.0023998546 0.0143554695 0.08859219 0.19264935 0.05921678
-0.049050417 -0.036893923 -0.11704663 0.04512268 0.049792368 -0.061975934 -0.085175656 -0.19239867
0.006840995 -0.093289375 -0.12829086 -0.04376156 -0.12185531 0.09197728 -0.1585743 -0.09146096
0.024774725 -0.07878823 -0.23155734 -0.12220537 0.087351196 0.0021294462 -0.1284807 -0.16513577
-0.08029607 -0.058944665 -0.13541016 -0.060963396 0.028184501 -0.20716389 0.038847916 -0.03082202
-0.14908627 0.0858813 -0.06913565 -0.11657067 -0.1386151 -0.18091057 -0.10027764 -0.23038091
0.16145389 0.04507129 -0.012895936 0.03275181 0.04763602 0.11364206 -0.08844034 -0.060643442
-0.08150752 -0.023656728 -0.19395109 -0.062759586 -0.16946584 -0.08051796 -0.13698809 0.08517635
0.050155118 -0.05734884 -0.19279324 0.04134437 -0.2704035 -0.11163896 0.007971425 -0.12410337
-0.18185729 -0.059102017 0.009671625 -0.18247007 0.06368516 -0.19116001 -0.17980516 -0.13533404
0.06315251 -0.06764093 -0.1328694 -0.081705295 -0.034645103 -0.10353713 -0.042440142 -0.097019345
0.16812752 -0.031932745 -0.13341573 -0.114735305 -0.025787754 -0.03201267 -0.08963652 0.12972337
0.009082796 0.2364109 0.12667324 0.040996306 -0.13451459 -0.105341874 0.018541628 0.043152247
0.060167246 -0.14014013 0.14042936 0.15259871 -0.12233591 -0.16710058 0.04532735 -0.07996151
-0.06304162 -0.061677776 -0.10907254 -0.038940325 0.048362363 0.02620526 0.0088821305 0.096957006
-0.030454978 -0.020825582 -0.10356188 0.0023113668 0.006453003 0.093690306 0.039317925 0.095776655
0.12112902 0.048716456 -0.018381597 -0.032960057 -0.01932458 0.084366076 0.035623223 -0.054863174
-0.13558793 -0.060869433 0.14921686 0.046479966 -0.0007256264 -0.027217437 -0.070125006 0.11011269
0.07749608 0.18603511 -0.014885477 0.0833182 0.0754281 0.08205921 0.027429678 0.005464255
-0.038392097 0.05066014 -0.10182757 0.21116278 -0.1859308 -0.13240744 0.015831321 -0.013759261
-0.05651252 0.028517138 0.05995675 -0.040762827 0.0927685 0.061440222 -0.153262 -0.05646888
-0.112505384 0.021948753 0.13103913 0.057937935 0.029357996 0.12953404 -0.07070029 -0.19137228
-0.05096133 0.07334493 0.13289078 -0.05966247 -0.042865172 0.0610766 0.112633 -0.02935387
-0.08248512 0.15016413 0.02325993 0.031164484 0.058257766 0.15706068 -0.09739148 0.084866896
-0.11583797 -0.064034075 0.08589034 0.24075599 0.0916109 0.048215203 0.004502474 0.06121726
0.03785425 0.043613087 -0.13132654 -0.071551636 -0.071009114 0.18953641 -0.082896836 0.080469534
-0.13261056 0.086376905 0.0551045 0.13694566 -0.015150792 0.1055113 -0.040704172 0.011817788
-0.05461504 0.10735075 0.0061252275 -0.0149950655 -0.026836691 0.17097138 -0.041067332 0.08910778
-0.0756215 -0.12688048 -0.032061543 0.03852797 -0.06194239 -0.12364393 -0.010393458 0.005324283
00000000: 55a3 87bd 404e efbd cc4f c1bd a4ac b83b
00000010: 6e1a 44be d528 9f3c 400c edbc 62b9 9abe
00000020: ec20 e1bc 5a33 bdbd 5970 94be b5e6 ffbc
00000030: c685 18be f95b 50be 0c71 d53c bbd8 bebd
00000040: 9bb3 a3bc a20c f03d e30e b73c 0878 27be
00000050: 0964 83be 0ab9 c03c 0540 b73b 4003 353e
00000060: 1f70 523d c5cf 60be 715e c43d e146 1d3b
00000070: 3433 6b3c d26f b53d df45 453e 4b8d 723d
00000080: 17e9 48bd 151e 17bd 25b6 efbd 8fd2 383d
00000090: 15f3 4b3d 7ada 7dbd 9370 aebd 2804 45be
000000a0: 6d2a e03b 800e bfbd ae5e 03be 523f 33bd
000000b0: 478f f9bd 965e bc3d 4d61 22be e24f bbbd
000000c0: 5df4 ca3c b95b a1bd 5e1d 6dbe cf46 fabd
000000d0: 2fe5 b23d 2e8e 0b3b 7290 03be 5a19 29be
000000e0: 4472 a4bd f66f 71bd f6a8 0abe c1b4 79bd
000000f0: 2fe3 e63c c522 54be fe1e 1f3d 767e fcbc
00000100: 12aa 18be 89e2 af3d fe96 8dbd 9abc eebd
00000110: 1ef1 0dbe 9f40 39be 5d5e cdbd f9e8 6bbe
00000120: 2b54 253e ac9c 383d 7a49 53bc c326 063d
00000130: fd1d 433d 2bbd e83d 3520 b5bd 4265 78bd
00000140: 6aed a6bd c1cb c1bc 1d9b 46be 1988 80bd
00000150: 7488 2dbe 9ae6 a4bd 9b46 0cbe f070 ae3d
00000160: 746f 4d3d 9ee6 6abd 976b 45be b758 293d
00000170: 5472 8abe f8a2 e4bd 949a 023c e829 febd
00000180: cc38 3abe f514 72bd bc75 1e3c 6fd9 3abe
00000190: 5d6d 823d 73bf 43be d81e 38be 0295 0abe
000001a0: 1a56 813d 5487 8abd ea0e 08be 1b55 a7bd
000001b0: 06e8 0dbd 460b d4bd b7d5 2dbd 14b2 c6bd
000001c0: 9f29 2c3e e9cb 02bd 229e 08be 58fa eabd
000001d0: d740 d3bc b81f 03bd 5a93 b7bd 34d6 043e
000001e0: 02d0 143c b315 723e a1b6 013e beeb 273d
000001f0: 31be 09be 7bbd d7bd 9de4 973c 69c0 303d
00000200: ee71 763d e580 0fbe b7cc 0f3e d642 1c3e
00000210: 408b fabd 6a1c 2bbe 2ca9 393d dcc2 a3bd
00000220: f71b 81bd d6a1 7cbd 6d61 dfbd e47f 1fbd
00000230: 9d17 463d 6aac d63c 5b86 113c 6591 c63d
00000240: b87c f9bc 699a aabc 4018 d4bd 4d7a 173b
00000250: b673 d33b b4e0 bf3d d50b 213d 8d26 c43d
00000260: 7e12 f83d e88a 473d 0195 96bc 2001 07bd
00000270: 954e 9ebc 1fc8 ac3d a8e9 113d 35b8 60bd
00000280: 90d7 0abe 3a52 79bd 4ecc 183e c761 3e3d
00000290: f737 3eba 1af7 debc b39d 8fbd c382 e13d
000002a0: 44b6 9e3d fd7f 3e3e 37e2 73bc bca2 aa3d
000002b0: 0c7a 9a3d a90e a83d 34b4 e03c 7e0d b33b
000002c0: 0841 1dbd 0281 4f3d f98a d0bd 0e3b 583e
000002d0: a564 3ebe d195 07be b0b0 813c 866e 61bc
000002e0: ac79 67bd c69c e93c 3695 753d ecf6 26bd
000002f0: 69fd bd3d bea8 7b3d b7f0 1cbe ea4b 67bd
00000300: 3969 e6bd dfcd b33c 1f2f 063e 5450 6d3d
00000310: 2e80 f03c 92a4 043e 50cb 90bd 18f7 43be
00000320: d4bc 50bd de35 963d 8514 083e a260 74bd
00000330: 6493 2fbd 752b 7a3d 21ac e63d 8777 f0bc
00000340: f5ed a8bd a0c4 193e 9c8b be3c a94c ff3c
00000350: b29f 6e3d 84d4 203e 2f75 c7bd b2ce ad3d
00000360: 753c edbd 4c24 83bd 46e7 af3d bd88 763e
00000370: 7f9e bb3d 4e7d 453d 7d89 933b f3be 7a3d
00000380: 0f0d 1b3d a3a3 323d 777a 06be aa89 92bd
00000390: 3a6d 91bd d515 423e d1c5 a9bd 36cd a43d
000003a0: 10cb 07be 60e6 b03d 42b5 613d 7c3b 0c3e
000003b0: 073b 78bc 4f16 d83d 6bb9 26bd 659f 413c
000003c0: 05b4 5fbd b6da db3d 22b6 c83b ddad 75bc
000003d0: 9fd8 dbbc 1f13 2f3e 3836 28bd 247e b63d
000003e0: 72df 9abd f5ec 01be f752 03bd 81cf 1d3d
000003f0: 4eb7 7dbd 0739 fdbd 5349 2abc 5377 ae3b

network_body._body_endoder.seq_layers.2.bias f4 [128]
-0.101710446 0.038839605 -0.017143974 -0.04163141 0.030131405 -0.016714774 -0.010920152 -0.006896968
0.1422067 0.041302912 -0.07444054 -0.014746786 0.058297474 0.0145078385 0.0148574505 -0.012694262
-0.008254192 -0.15724538 0.04669094 0.15586133 0.008623493 0.028538885 -0.07841958 0.035849027
-0.15332346 -0.005352712 -0.042080738 -0.01831714 0.0031342527 -0.037413366 0.0068425997 0.0332453
-0.061956458 0.026326783 0.1625153 0.027599007 0.04679337 0.059208967 -0.01655334 0.067806266
0.036451917 -0.13578153 -0.006467233 -0.08587927 -0.048805863 -0.025249086 -0.03625154 -0.10226187
-0.0202759 0.09299925 0.039305806 0.022140803 -0.106436506 0.09891158 0.028131664 0.04090168
-0.16985048 0.054062925 0.08781364 0.043358214 0.09104788 0.13153358 0.0023879989 -0.14839008
-0.04192218 0.013617083 0.0164416 0.028180797 -0.015667073 0.05551575 -2.6187197e-05 -0.054751407
0.009555552 0.12994489 0.0060284133 0.01191245 -0.02338776 -0.03119789 -0.0027823949 0.110030234
-0.133668 0.06615207 0.088035196 -0.05613279 0.048680697 0.011003735 0.051056996 0.059731156
-0.15734564 0.025720239 0.022537915 -0.029868742 0.09259741 0.04760232 0.027392762 0.06019537
-0.056260683 0.006767609 0.016089031 -0.08152834 0.011296872 0.03134481 0.058894116 -0.069568135
0.08146331 -0.0070612873 0.10144445 0.076990776 -0.010479917 0.15343563 0.0050596613 0.009374285
-0.0078080017 0.053172577 0.04102962 -0.084743164 0.07666582 -0.005645138 0.0094575165 -0.15077037
0.04731717 -0.0038330771 0.014081064 0.025597556 0.03332227 0.025046626 0.11553636 0.008616699
00000000: 914d d0bd 4716 1f3d 8571 8cbc b385 2abd
00000010: 23d6 f63c 6ced 88bc 70ea 32bc f6ff e1bb
00000020: a29e 113e 3e2d 293d 4874 98bd 819c 71bc
00000030: 55c9 6e3d 49b2 6d3c aa6c 733c 98fb 4fbc
00000040: 973c 07bc ef04 21be 003f 3f3d 1d9a 1f3e
00000050: 8d49 0d3c 61ca e93c 729a a0bd 6ed6 123d
00000060: d300 1dbe cd65 afbb da5c 2cbd d40d 96bc
00000070: 0968 4d3b c23e 19bd e337 e03b 392c 083d
00000080: 0ec6 7dbd 44ab d73c 696a 263e 5017 e23c
00000090: 68aa 3f3d 1a85 723d df9a 87bc 03de 8a3d
000000a0: 9b4e 153d 500a 0bbe 15eb d3bb 79e1 afbd
000000b0: a8e8 47bd 2cd7 cebc 7f7c 14bd ac6e d1bd
000000c0: a519 a6bc 6476 be3d 20ff 203d a160 b53c
000000d0: 62fb d9bd 2892 ca3d 6074 e63c 8588 273d
000000e0: 49ed 2dbe 1671 5d3d a3d7 b33d 6298 313d
000000f0: 5077 ba3d bdb0 063e f97f 1c3b 92f3 17be
00000100: 98b6 2bbd 301a 5f3c 89b0 863c 6adb e63c
00000110: 3c58 80bc 7c64 633d 94ac dbb7 0343 60bd
00000120: e48e 1c3c 4610 053e ff89 c53b 702c 433c
00000130: b097 bfbc b892 ffbc d758 36bb 8857 e13d
00000140: 44e0 08be bd7a 873d cc4b b43d 7feb 65bd
00000150: 6965 473d 0249 343c 2421 513d a8a8 743d
00000160: 371f 21be 40b3 d23c 6fa1 b83c 4baf f4bc
00000170: b6a3 bd3d a6fa 423d c966 e03c 6c8f 763d
00000180: 9a71 66bd d2c2 dd3b 25cd 833c 55f8 a6bd
00000190: 8416 393c 6a63 003d f53a 713d bd79 8ebd
000001a0: 3cd6 a63d 5f62 e7bb 1cc2 cf3d 57ad 9d3d
000001b0: f5b3 2bbc 3b1e 1d3e 84cb a53b 9a96 193c
000001c0: 44da ffbb 7dcb 593d ad0e 283d d38d adbd
000001d0: f802 9d3d dafa b8bb b3f3 1a3c 8c63 1abe
000001e0: a6cf 413d 5d34 7bbb 43b4 663c f7b1 d13c
000001f0: ef7c 083d 952e cd3c 549e ec3d 0e2d 0d3c

action_model._discrete_distribution.branches.0.weight f4 [4, 128]
0.033653002 -0.020580582 0.048016038 -0.0061739646 -0.042706273 0.020672292 -0.052358374 -0.015822105
-0.032695837 -0.020732945 0.02915843 0.06864238 -0.048113838 0.012355783 -0.015251788 0.07897998
-0.011160667 0.022539526 -0.024549635 -0.021830583 -0.043284096 -0.01620317 -0.003607991 -0.027764527
0.0051503717 -0.030580103 0.0018524951 0.05518295 -0.009304726 -0.026349608 -0.020165402 -0.027312443
0.083706476 -0.025254978 0.00667155 -0.03709849 -0.04686923 -0.0090322625 0.04746698 -0.026558405
-0.03845501 0.05715638 -0.045556825 0.016882343 0.06344955 0.06845213 0.07436098 0.0348342
-0.014285733 0.003003298 -0.01901446 -0.037978455 0.010286852 -0.015234614 0.0023203737 -0.02688665
0.0107561955 -0.027335225 -0.026389435 0.014836249 0.016488804 -0.03921302 0.022072464 0.020522535
0.09875982 -0.01236159 -0.004992668 0.005512961 -0.018114321 0.023563216 0.049219627 0.03549095
-0.02473653 -0.030631768 0.028805075 -0.03230909 0.044322897 -0.008279178 0.009548063 -0.033321388
0.030106546 -0.035295185 -0.0351231 -0.014920262 -0.047913007 0.051171295 -0.030370822 -0.025838375
0.026989266 -0.009095929 -0.021352887 0.07030972 0.047537263 0.010213283 -0.006806768 -0.022495015
0.065313295 -0.010066996 -0.038096108 -0.005109025 0.040648557 -0.03934888 -0.018825285 0.058585502
-0.032399643 -0.025579328 0.0032347105 -0.009463028 -0.010097864 0.019224562 -0.03276987 -0.0069205486
0.012147831 -0.013616579 -0.03251618 0.021891497 -0.03524376 -0.005555086 0.02275853 0.042885665
-0.04446233 0.038220894 0.038107183 -0.03089247 -0.01072921 -0.041869357 -0.01036093 -0.032050643
-0.094241604 -0.0046922322 -0.04968958 0.026949866 -0.0071499683 -0.04888198 0.04226982 0.034913033
0.052405745 -0.008407626 -0.05937965 -0.054802176 0.04232272 -0.0739719 0.025505407 -0.057479806
0.021464717 -0.09619304 0.007962905 0.11597247 -0.010836334 0.006556609 -0.0022597036 0.031421002
-0.059382915 0.0381331 0.005376565 -0.048139244 0.016423654 0.027179249 -0.021895215 0.018969057
-0.074796595 -0.0043552173 0.08016376 0.088278115 0.025327375 0.09165343 -0.057354078 0.0038156959
0.063116744 -0.062413752 0.040876105 -0.019465676 -0.07232408 -0.03328796 -0.049819097 -0.09309066
0.04269626 0.03031082 0.044801004 0.0021084088 -0.03059062 0.018898234 0.06926063 0.015143483
-0.06537091 0.013514097 0.048540063 -0.046165995 0.07959886 0.04697216 -0.041239087 -0.10200751
-0.07899937 0.03700625 0.07621704 -0.027456243 0.022191305 -0.0030481976 -0.0671749 -0.06163053
0.003936396 0.038786255 -0.05506756 0.05687713 -0.06591281 -0.0018506703 0.050669003 0.03396471
-0.08583188 0.0037100827 0.10288795 0.013498103 0.013844537 -0.037688226 0.07524784 0.05462827
-0.08425725 0.03254519 0.04681999 -0.059918743 0.020280687 0.025862599 0.041996278 0.057299834
-0.09569074 -0.001921582 0.011851953 -0.0035102076 -0.022137182 0.049530182 0.011721017 -0.084449396
0.017676715 -0.027785832 0.03478568 0.020787241 -0.025952002 0.06061728 -0.019735863 -0.009321166
-0.05254741 0.07338476 -0.00024458472 -0.046544123 0.012794129 -0.007415019 -0.031367216 -0.09479975
0.025583668 -0.0760276 -0.020854408 0.011812265 0.04312467 0.012392946 0.088664375 0.010706224
00000000: bbd7 093d 9c98 a8bc 77ac 443d f84e cabb
00000010: c6ec 2ebd f058 a93c bc75 56bd 5c9d 81bc
00000020: 12ec 05bd 23d8 a9bc a9dd ee3c 6094 8c3d
00000030: 0413 45bd e96f 4a3c a3e2 79bc 41c0 a13d
00000040: 3bdb 36bc d0a4 b83c 511c c9bc 0dd6 b2bc
00000050: aa4a 31bd 83bc 84bc 0b74 6cbb 6f72 e3bc
00000060: 73c4 a83b 2083 fabc 6ccf f23a 8407 623d
00000070: d972 18bc 22db d7bc ea31 a5bc 58be dfbc
00000080: 4d6e ab3d 87e3 cebc 059d da3b 96f4 17bd
00000090: f3f9 3fbd 0efc 13bc bc6c 423d 0391 d9bc
000000a0: 0083 1dbd cf1c 6a3d cb99 3abd d74c 8a3c
000000b0: d6f1 813d a130 8c3d 924a 983d 4eae 0e3d
000000c0: b50e 6abc fbd2 443b 36c4 9bbc 4c8f 1bbd
000000d0: 2f8a 283c 9a9a 79bc 6911 183b 6441 dcbc
000000e0: c13a 303c 1fee dfbc a82e d8bc bd13 733c
000000f0: 8713 873c d59d 20bd 50d1 b43c e01e a83c
00000100: 9742 ca3d 4488 4abc 8999 a3bb 12a6 b43b
00000110: 7c64 94bc a507 c13c 859a 493d f55e 113d
00000120: 43a4 cabc 79ef fabc 9ff8 eb3c 8956 04bd
00000130: ed8b 353d 64a5 07bc 7b6f 1c3c 027c 08bd
00000140: 01a2 f63c af91 10bd 3ddd 0fbd 1d74 74bc
00000150: 6e40 44bd fe98 513d 3bcc f8bc 00ab d3bc
00000160: 9818 dd3c 1707 15bc 40ec aebc 8bfe 8f3d
00000170: 6fb6 423d 9d55 273c 4f0b dfbb 7747 b8bc
00000180: fac2 853d 0bf0 24bc aa0a 1cbd 9c69 a7bb
00000190: 1a7f 263d 4b2c 21bd 7c37 9abc 5af7 6f3d
000001a0: 7db5 04bd bd8b d1bc 70fd 533b d10a 1bbc
000001b0: 8371 25bc d47c 9d3c b339 06bd c5c5 e2bb
000001c0: b207 473c 1218 5fbc b02f 05bd cc55 b33c
000001d0: c35b 10bd 7007 b6bb 1970 ba3c e1a8 2f3d
000001e0: 221e 36bd 838d 1c3d 4716 1c3d 3512 fdbc
000001f0: 92c9 2fbc 347f 2bbd e4c0 29bc 8947 03bd
00000200: be01 c1bd 4cc1 99bb 4d87 4bbd f7c5 dc3c
00000210: 484a eabb 7938 48bd 1e23 2d3d f800 0f3d
00000220: 68a7 563d 24c0 09bc 1338 73bd 3f78 60bd
00000230: 975a 2d3d 947e 97bd b7f0 d03c f26f 6bbd
00000240: c6d6 af3c db00 c5bd d876 023c f982 ed3d
00000250: e18a 31bc d3d8 d63b 8917 14bb 4fb3 003d
00000260: 803b 73bd 7431 1c3d e52d b03b a82d 45bd
00000270: e68a 863c 04a7 de3c 985d b3bc ff64 9b3c
00000280: f52e 99bd 36b6 8ebb e62c a43d 28cb b43d
00000290: 5b7b cf3c cbb4 bb3d 1cec 6abd c110 7a3b
000002a0: 5a43 813d 90a5 7fbd b46d 273d 7b76 9fbc
000002b0: a61e 94bd f558 08bd 1c0f 4cbd 51a6 bebd
000002c0: 46e2 2e3d 664e f83c 4281 373d 3b2d 0a3b
000002d0: 2e99 fabc 78d0 9a3c 84d8 8d3d 5f1c 783c
000002e0: 2fe1 85bd 3b6a 5d3c f2d1 463d 8e18 3dbd
000002f0: ba04 a33d e165 403d 51ea 28bd 50e9 d0bd
00000300: 6cca a1bd de93 173d ae17 9c3d eaeb e0bc
00000310: 8aca b53c 45c4 47bb fe92 89bd 4b70 7cbd
00000320: e2fc 803b 56de 1e3d 868e 61bd fef7 683d
00000330: 4cfd 86bd 3192 f2ba 4d8a 4f3d 941e 0b3d
00000340: a0c8 afbd dc24 733b ebb6 d23d 2627 5d3c
00000350: 32d4 623c f85e 1abd 8a1b 9a3d e5c1 5f3d
00000360: 118f acbd 1b4e 053d 51c6 3f3d 5b6d 75bd
00000370: af23 a63c cddd d33c 4a04 2c3d 3bb3 6a3d
00000380: 82f9 c3bd 98dd fbba b22e 423c 830b 66bb
00000390: 0959 b5bc 29e0 4a3d 8209 403c cef3 acbd
000003a0: c2ce 903c 1d9f e3bc 6e7b 0e3d 014a aa3c
000003b0: 4b99 d4bc d349 783d 1bad a1bc ceb7 18bc
000003c0: f43b 57bd c04a 963d 9b3b 80b9 0da5 3ebd
000003d0: 779e 513c b0f9 f2bb e97a 00bd 5f26 c2bd
000003e0: d794 d13c 5cb4 9bbd ddd6 aabc 3b88 413c
000003f0: 7ea3 303d c80b 4b3c ab95 b53d 2869 2f3c

action_model._discrete_distribution.branches.0.bias f4 [4]
-0.0394622 0.051872972 -0.008842009 -0.020222098
00000000: 1ea3 21bd c178 543d 13de 10bc d0a8 a5bc

50 f4 [5]
0.07483617 0.1864067 0.8773033 0.009533142 1.2491181
00000000: b543 993d 66e1 3e3e f396 603f e530 1c3c
00000010: 1ae3 9f3f
