ArmRobot/Assets/Config/results/in2/AgenteCarro.onnx (onnx, 73159 bytes, 8 tensors)

58 f4 [5]
00000000: 32ce ff3e 24d2 903e 130e 873f 44b7 353d
00000010: 912c 3b3f
0.49962002 0.28285325 1.055117 0.04436423 0.7311488

action_model._discrete_distribution.branches.0.bias f4 [3]
00000000: 1340 92bd d070 a63d 3e30 e339
-0.071411274 0.08126986 0.00043332757

action_model._discrete_distribution.branches.0.weight f4 [3, 128]
00000000: 11ac 81bd 183a 86bd 2900 753c 5e4a 653c
00000010: f926 9fbd 72c3 60bd b890 983c 7174 74bb
00000020: a174 953d 8605 863c d24f 143c d81b c73c
00000030: ff68 0a3c 9cf3 0abc e57a 72bd 25d3 d43c
00000040: 3729 75bd 6a1e 1ebe 576c 40bb 71d4 debd
00000050: 0a92 f23c 06b2 d6bb dd3e 46bc 1524 59bd
00000060: cb54 693d d12e 2fbe a301 e2bd d801 8e3c
00000070: 0f9b 20ba c563 b1bd 231c 773c 1ae7 9abc
00000080: 15e7 19bc 20d2 57bc dff0 bfbc 2fc7 8bbd
00000090: b5e8 9abc 9d5a af3c 8f61 4b3c ed4a 02bd
000000a0: c814 4dbd 314c 32bd 0b32 18bb 28bd 6abc
000000b0: 2b98 38bd 5337 21bd 2cda c53c 7198 4fbb
000000c0: 97e9 bdbc 3241 863c b2ce 313a b328 6f3c
000000d0: 29d8 843c 0b30 3cbd 605b 3f3c 0793 e7bb
000000e0: 9101 783d 0aff 45bd 6ab1 54bd ba73 123d
000000f0: 7b19 ec3b d5e5 8bbd b1fb 213c b91f 0ebe
00000100: 6582 af3c 324a 703d ce25 4e3d f028 1cbc
00000110: 1509 3cbd 53b3 e33c 7244 30bc 16bc 473d
00000120: ba0d 95bd 2ba5 b3bc 333f 1abd 6ac3 ce3a
00000130: dc32 c5bc 0702 5fbd eff9 373c 87d1 213d
00000140: d313 d3bc 01a9 083d a98d efbc 43d4 333d
00000150: 711f 7c3b 6671 4c3c e196 a83c 417a 11bd
00000160: 2582 ea3c 8f1b d2bc 57bb f7bc 4f5e 913c
00000170: f22b f13c 8d33 603c e1aa 5dba c25a 013c
00000180: 594f 8a3b 67ca b7bd 582d 96bd bf60 0f3d
00000190: 9948 89bd 7f76 d2bd 896e 4bbc 20be a7bb
000001a0: be8e 683d 2f68 94bd 14e0 c73c ced4 cd3c
000001b0: e2fd 80bd e506 883c d6c5 033d 6cce 5cbc
000001c0: 48a0 93bd 691a d1bd 9b5d 923b edb1 19bd
000001d0: f23b c33a 67d3 4e3c 42ed 68bd b28d fa3c
000001e0: 468b 743c ccc2 b6bb 3699 93bd 9fda 75bd
000001f0: 60a8 c9bb 6d2e db3c bad1 87bc ad46 fcbc
00000200: e2e6 1fbe 028e 29bb ff9d a0bc 87f6 ad3d
00000210: 51a1 8bbd 8205 8b3c 28ed 25be 82fb 093e
00000220: 9bf0 c93d 279e 6f3d 777f 6bbd 98b0 0a3d
00000230: c024 113e 3e64 693d 2cd8 6dbd 2ae2 cebd
00000240: e8ec d33d 8876 9a3c 9577 ad3d ddcd 57bd
00000250: 2140 80bd 7d50 fd3c 4a4f 723d 20a0 0b3d
00000260: bcc8 df3c 89e7 c0bd 899f 57bd b5b3 923d
00000270: a853 d0bd 6979 b5be e375 bd3d 5382 823b
00000280: 2631 133e fc5d 25bd 097b 55bd bd2f bdbd
00000290: 9606 c23d 5e6b edbc d1b3 013e d5ba 7f3d
000002a0: 8fbc e93c 3714 f7bd 55ed febc 1ec5 533c
000002b0: b039 09bd d8d0 14bb 5ba0 e9bd 32f8 b0bc
000002c0: eb89 8dbd ac01 bb3c 0058 853b 5bbb 35bd
000002d0: 17b3 f83c d723 343c 14aa 1f3e 3b20 153e
000002e0: 0553 82bd 3c97 6d3c 8bce 90bd 6c8d c9bd
000002f0: 5fb6 a63b 608f bcbd 376c 5cbd b37d 99bd
00000300: 0405 20b9 e0ce 1f3e f3e6 003e d2a6 2abe
00000310: a981 86be 1400 8f3b 723f 28bd e800 acbd
00000320: 98af ae3d d6e9 1bbe 3644 e43d 697c 0b3e
00000330: 40d5 85bd b10b bd3d 0cf0 c0bc 6286 61bd
00000340: c39e f63d cf2e 27be 318c d13d 7d24 053e
00000350: b064 3ebd 92af 1e3d afb2 d13b 8480 5cbe
00000360: a6ad 4abe 6246 dcbd 3dba 843c c39b a63d
00000370: cdb8 a23c 03ae 9dbc 4894 a43d fb67 103e
00000380: ab9a c83d d36b 2cbe d05a 3d3d e114 453e
00000390: 6e5b 913c 5790 e4bd 08a6 5bbd b66a d33d
000003a0: f75f f6bc 58eb a83d 49f4 42be 9ff7 0bbc
000003b0: 796b b23d e51e 28bd 1d80 77be 088a 62be
000003c0: 0f5d d03c f93d a93d 83f4 c4bc 5bff 6cbc
000003d0: e4f8 a13d 4ffd 893b ed5f 0c3e c711 b1bd
000003e0: 8ccd 26bd 194b 2cbc c2ff 99be 4d6d f83d
000003f0: c82f a03d 0777 acbd f18d 223e 7bbf 1d3d
-0.06331647 -0.06554049 0.014953651 0.013994781 -0.07771105 -0.05487389 0.018623695 -0.003730085
0.07297636 0.016360056 0.009052234 0.02430527 0.008447885 -0.008480933 -0.059199233 0.025979588
-0.05985376 -0.1544129 -0.002936145 -0.10880364 0.029610652 -0.0065519838 -0.012099949 -0.053012926
0.05696563 -0.17107703 -0.110354684 0.017334864 -0.0006126621 -0.08661608 0.015082392 -0.018909026
-0.009393473 -0.013172656 -0.023430286 -0.06825101 -0.018909791 0.021405512 0.0124133965 -0.031809736
-0.050068647 -0.043529693 -0.0023223187 -0.014327325 -0.045066994 -0.039359402 0.024151884 -0.0031676556
-0.023182673 0.01638851 0.0006782814 0.014597106 0.016216354 -0.045944255 0.0116795 -0.0070670876
0.06054837 -0.048338927 -0.051927008 0.035754897 0.007205186 -0.06830946 0.009886668 -0.13879289
0.021424482 0.05866451 0.050329022 -0.009531245 -0.0459071 0.02779547 -0.010758506 0.048763357
-0.07278009 -0.021929344 -0.037657928 0.0015774791 -0.024072103 -0.054445293 0.011229022 0.03950646
-0.025766289 0.0333643 -0.029242354 0.0439036 0.003847089 0.012478208 0.020579757 -0.03551698
0.02862651 -0.025647907 -0.030240698 0.017745165 0.0294399 0.013684166 -0.0008455944 0.0078951735
0.0042208848 -0.08974152 -0.073328674 0.035004374 -0.067033 -0.102765076 -0.01241649 -0.0051191
0.056776755 -0.07246434 0.024398841 0.025125887 -0.06298424 0.01660485 0.032171093 -0.013476949
-0.072083056 -0.102101155 0.004466725 -0.0375232 0.0014895184 0.012623644 -0.05686689 0.030585144
0.0149257835 -0.005577421 -0.07206957 -0.060022946 -0.006154105 0.026755536 -0.016579498 -0.03079542
-0.15615419 -0.0025871997 -0.019606588 0.08494287 -0.06817878 0.0169704 -0.16203749 0.13474849
0.09860345 0.058500435 -0.057494607 0.03385982 0.14174175 0.056980364 -0.058067486 -0.10101731
0.10347921 0.018855348 0.08470074 -0.05268656 -0.062622316 0.030922169 0.059157647 0.034088254
0.027317397 -0.09419162 -0.05264238 0.07163183 -0.10172206 -0.3544419 0.09251001 0.003982821
0.14374217 -0.040372834 -0.05211929 -0.09237621 0.094739124 -0.02898186 0.12666251 0.062434036
0.028532295 -0.120644026 -0.031119028 0.012925414 -0.03350228 -0.0022707488 -0.114075385 -0.021602724
-0.069110714 0.022827946 0.0040693283 -0.04436813 0.030358834 0.010994873 0.15592223 0.14563076
-0.06363491 0.014501389 -0.07070645 -0.09841427 0.0050876583 -0.09207034 -0.05381414 -0.07494678
-0.00015260658 0.1560626 0.125881 -0.166652 -0.26270798 0.004364023 -0.04107613 -0.0839861
0.085295856 -0.1522592 0.11145823 0.13621677 -0.06534815 0.092307456 -0.023551963 -0.055059798
0.12042 -0.1632645 0.102318175 0.130022 -0.04648274 0.038741656 0.0063994746 -0.215334
-0.19792804 -0.10755612 0.016202087 0.08135178 0.01986351 -0.019248014 0.08036095 0.14102165
0.097951256 -0.16838007 0.046229184 0.19246246 0.017743792 -0.11160343 -0.053625137 0.10323088
-0.030075056 0.08248013 -0.190385 -0.008542924 0.08711905 -0.04104509 -0.24169965 -0.22122967
0.025434999 0.082637735 -0.024042374 -0.014465178 0.079088 0.004211105 0.13708468 -0.08645969
-0.04072337 -0.010515952 -0.3007794 0.121302225 0.078216136 -0.0842114 0.15874459 0.038512688

network_body.linear_encoder.seq_layers.0.bias f4 [128]
00000000: 8a23 843d 3dd6 953d 94df 5abd 733d 443d
00000010: 9921 b33a b028 74bc e063 753d 22c9 0e3e
00000020: b10e 123c e07a cf3d 45d8 723d 6caa c13d
00000030: ae7d ee3d 207b e63d 637d 4b3d 886c 403e
00000040: ca3a 7e3c 7d63 973d a640 913d 98ed 9a3d
00000050: 846a 7dbc 7823 163d 4815 f63d aff5 e63b
00000060: 53aa 16bd 1431 023e 6c10 1fbc eb02 2a3e
00000070: e487 0e3d df7e bfbc 1ca4 0a3e f251 313c
00000080: 580f 82bd cce3 b73d 172e d83d 496d 78bd
00000090: ef20 3f3e 6cbf 113e 5a99 fc3d 2208 d13d
000000a0: a1ae ff3c 8b8a 043e 484a 8fbd 8eca a5bc
000000b0: b4be bdbb c6ba ddba 22ab e7bb c15a 803a
000000c0: a6b9 293e 6c35 c33d aa0d f33d a579 ec3d
000000d0: 273b 093e 3bed c53d 1b1d 1d3e b1fa 8fbd
000000e0: e640 803b eb8c 123c f754 573e b1cc 9b3d
000000f0: d3a5 7d3d dcad 173e 0bc7 853d c7fb 463e
00000100: 406e 9c3d b54a be3d a7d5 1f3d b01e d13d
00000110: 8210 433d a1cb 703c 3b7b e53d 0065 5e3d
00000120: b7c0 e33b 1b47 f03d d63d 223d 1556 e43d
00000130: 3ae9 633d edc8 e03d 73b5 5c3d a047 2f3e
00000140: cb08 073e fc4a f63d 9bd5 24bc 7f5a 333d
00000150: f17c d1bc b72f 84bd 01c5 b73d 5e68 653c
00000160: b113 ab3d d974 ee3d dff6 7e3b ddde 213e
00000170: 6937 333e 0959 74ba 12f7 b13c aabd 303d
00000180: 01a0 133d 6d7b fb3d 2354 353d 73c2 d43d
00000190: d747 813c af31 093d bd33 1b3e 0031 d73d
000001a0: ce73 303d 3294 783e 7775 80bc 524e 5a3c
000001b0: 614f a53c 7db1 933d 58a3 543d 632b 3e3d
000001c0: 1fc6 48bc d1a1 13bb 909c 293d cc0f 1d3c
000001d0: fb5f d13d 483a 5fbc 4d8f 223b acf7 8239
000001e0: dae0 ea3d 7f26 eb3d b120 f2bb 8326 043e
000001f0: b39f 00bd 7361 903d 2065 eb3d f2fa 753d
0.06452091 0.07316253 -0.053435877 0.047910165 0.0013666629 -0.014902279 0.0599097 0.13943914
0.0089146355 0.101308584 0.059288282 0.094563335 0.11645065 0.11253953 0.049680125 0.18791401
0.015516946 0.07392023 0.07092409 0.07564849 -0.01546729 0.03665492 0.12015778 0.0070483307
-0.036783528 0.12714034 -0.009708505 0.16602676 0.034797564 -0.023375927 0.13539165 0.01082276
-0.06350583 0.08978996 0.10555666 -0.060651097 0.18664907 0.14233178 0.12333937 0.10206629
0.0312112 0.12943475 -0.0699659 -0.020238187 -0.005790556 -0.0016916625 -0.007069961 0.0009792672
0.16574726 0.09531674 0.118678406 0.11546639 0.13401471 0.09664389 0.15343134 -0.070302375
0.0039139865 0.00894473 0.21028505 0.07607401 0.06192572 0.14812416 0.06532105 0.19431983
0.07638216 0.09291593 0.039022114 0.10210931 0.047623165 0.014696986 0.11205145 0.05429554
0.0069504636 0.11732312 0.039609753 0.11149231 0.055642344 0.109758236 0.05388398 0.17117167
0.13186948 0.12026021 -0.010060693 0.043787476 -0.025572272 -0.064544134 0.089731224 0.014001934
0.08353365 0.11643381 0.003890447 0.15807672 0.17501606 -0.00093211286 0.021724258 0.043149628
0.036041263 0.12279401 0.044269692 0.10388651 0.015781326 0.033494648 0.15156455 0.10507393
0.04307919 0.24275282 -0.015681012 0.013324337 0.020179452 0.072115876 0.05191359 0.046428096
-0.012254267 -0.002252687 0.041409075 0.009586286 0.10223385 -0.013624735 0.0024804652 0.00024980062
0.11468668 0.11481952 -0.007389151 0.12905316 -0.0314023 0.07049837 0.114938974 0.060053773

network_body.linear_encoder.seq_layers.0.weight f4 [128, 5]
00000000: d7e7 c9be 547d 60be 507d 13bf f853 f83d
00000010: 9a5d 813e dc7d 823e 36a1 863e 13b8 0c3f
00000020: cbdb b6be 1339 d23e ce22 b6bd 8ffc e43e
00000030: bd6e 043e a8fc e0be 56dd a3bd 08bb cebe
00000040: 1b3f 87bd 6d95 8bbe b8c3 4dbf 9cc7 803e
00000050: 97b7 363f 1b02 133f 9b93 acbe 65cf b4bc
00000060: 646d 8d3e 4e17 56be c88a b0be 584d f8be
00000070: c340 643e 6144 513f 94f7 d3bd 1387 25bd
00000080: c943 e1be 32b7 ff3d 6868 943f db3e 00bf
00000090: 3bc1 4e3f 010a 64be bc93 803e 60e0 523f
000000a0: e44c a4bd 06eb a0be 7d66 acbe a93f 60bf
000000b0: 75ff 973e 0505 7e3e 60f7 2bbe 5a65 3dbc
000000c0: 1ffe f1be 63cc f83e d391 a53e 34ba b2bc
000000d0: 5f3b 33bf 4374 f33e 3643 01bf 3f0d 58be
000000e0: 5eb3 ef3c 7cd6 6fbf 7b66 9dbf 1e6c 15bf
000000f0: 3747 173f cffd eebe 009d 353e 129c f5be
00000100: e644 17bf caa9 443f 65f8 06bf 3d2c ec3d
00000110: 8843 19bf 86db a0bd e857 023f e9ca e5bd
00000120: 321c ae3b 9b9d 7fbe d8f0 7abe 5ef0 bb3e
00000130: 8b10 01bf e7f9 1f3f a735 143f 51ca 35bf
00000140: efe0 3f3d ce5c 7e3d dcbc 54bd bc45 1ebf
00000150: 2d26 fd3d f691 abbb 237f 31bf 9fc6 9dbe
00000160: 05fe afbe 7bab 3dbf 5a5e dabc 0ce0 fc3e
00000170: cec5 b03d 3910 fd3d f2c1 0bbf 6be9 0f3f
00000180: 672a 88be 9705 03bf 0d5b 343f b5f2 00bf
00000190: b05f cdbd a770 9c3e 435c a6bf e2a3 d03e
000001a0: be88 813f c386 953e ec1b f73e 2cfd 4a3e
000001b0: 2786 60bd 509f 2abf e65c 88be fadd ebbe
000001c0: 39f8 1abd 634e 10bf 9d2c 003f 2d7d 003e
000001d0: 0128 7e3e 32ce af3e 5347 cfbe ab9a 133f
000001e0: 6eb3 993e 4143 0e3f 6a97 29bf 9866 e4be
000001f0: 5abc 093f 342a 963d 277b c7be 1978 473e
00000200: 1995 c13e 8854 80bf 4469 dbbe 26d8 ac3e
00000210: 5443 84be ba6f 18bf 5fe7 173f 6766 4d3f
00000220: 1fa5 36bf a609 3bbe 73b4 0abf 86e3 afbe
00000230: 7e90 83be 8ef3 b03e 0001 8a3f 95c8 2ebe
00000240: 87d9 03bf 1f7c ccbe 8bf4 4abd 04a8 b7be
00000250: b7b3 ba3e 822d 1d3f 6395 2bbf 1bbf eebe
00000260: 331d a33e 6ba2 d23e 1de5 4dbf a22b 83be
00000270: 6440 77bf 4a02 44be e335 253e c03f 1cbf
00000280: 251d c93e d023 c03e adf4 a8be dc83 603f
00000290: 891c 0f3d 55e1 183f f1f7 463d 8cba 583e
000002a0: f2a4 30bd b81d f8be c014 0ebf faa7 0bbe
000002b0: 44aa 0f3c 426a 0b3e c9e8 6b3f 1e67 babe
000002c0: fe85 4a3f 9462 0dbf ecbd 1abe 3ae6 383d
000002d0: 5712 e2be d13c cf3e 7809 033f c54f 9cbd
000002e0: 32fb 6f3f 189e 06bd 4ef7 ba3e 7793 7c3f
000002f0: 0975 7cbe bb3e 1bbf b2f6 283d 99d6 0dbd
00000300: a84e 973e c65d 3abf 9e9c ee3e 2c8f 19bf
00000310: 0eb9 10bf ac09 2c3e 93bb 0a3f e8f5 1fbe
00000320: 2f9a 45bd a782 923d 7c96 4e3d 5911 b4be
00000330: 4088 d43d 4e82 cabe 6243 1b3c a635 fb3d
00000340: 6af9 efbd 1bd4 803f 218c d9be aa30 5a3f
00000350: 59b6 84be 15b9 b0be 7d56 e03e ca9f 9c3e
00000360: f4ea a33e 395b f9be 3960 2bbe 35d1 a23e
00000370: fb9e 1d3e fb75 82bf a5ea a9be e682 d33e
00000380: f787 11bf 01c8 3abd 1117 473f b80d e8be
00000390: a27c 1ebf fdd7 273f f22c a3be e30c 353f
000003a0: 8839 b33d 9ed0 ce3e dda5 0c3f 8fa0 be3e
000003b0: 4b14 603f ab33 2e3e f19f cf3d b1c1 28be
000003c0: 40b5 c53e 8cb1 8dbe e5d7 2b3f 96e2 d9be
000003d0: 4dd6 f5bd 8d92 95be 073a c8bd a057 bc3c
000003e0: 4a91 8b3d 101a 573f 5853 b33e 20b9 7f3f
000003f0: d49f 733e 7236 f6be 1ae3 d63e ddc8 97bd
-0.39434692 -0.21922809 -0.57613087 0.12125391 0.25266725 0.25486648 0.2629487 0.54968375
-0.35714564 0.4105917 -0.08893357 0.44723937 0.12932868 -0.4394276 -0.08001201 -0.4037707
-0.06603833 -0.2726244 -0.8037677 0.2515229 0.71373886 0.5742509 -0.33706364 -0.02207155
0.2762252 -0.20907328 -0.34480882 -0.4849651 0.2229033 0.8174496 -0.10349956 -0.04041202
-0.43997028 0.124861136 1.1594362 -0.5009591 0.80763596 -0.22269441 0.25112712 0.8237362
-0.08022478 -0.3142931 -0.33671942 -0.8759714 0.29687086 0.24806602 -0.16793585 -0.011559809
-0.47264192 0.48593435 0.32337818 -0.021817304 -0.7001247 0.47549638 -0.5049318 -0.21098803
0.029260334 -0.9368665 -1.22969 -0.583681 0.5909304 -0.46678016 0.17735672 -0.47970635
-0.59089506 0.7682158 -0.5272277 0.11531875 -0.5986867 -0.07854371 0.50915384 -0.11220343
0.0053134197 -0.24962465 -0.24505937 0.36706823 -0.5041587 0.62490696 0.57894367 -0.71011835
0.046845373 0.062100224 -0.051937923 -0.61825156 0.12360797 -0.0052359058 -0.6933462 -0.30815598
-0.3437349 -0.74089783 -0.026656318 0.49389684 0.08631478 0.1235661 -0.5459281 0.5621554
-0.2659485 -0.51180404 0.7045143 -0.5037034 -0.100280166 0.30554697 -1.2996906 0.40750033
1.0119855 0.29204378 0.4826349 0.1982314 -0.054815438 -0.6664934 -0.26633376 -0.46067792
-0.03783438 -0.5636961 0.50068074 0.12547751 0.24819948 0.34337002 -0.40484104 0.5765788
0.30019706 0.5557137 -0.66246665 -0.44609523 0.53803027 0.07332268 -0.38961145 0.19479407
0.37809065 -1.0025797 -0.4285375 0.33758658 -0.25832617 -0.5954548 0.5933742 0.8023438
-0.71345705 -0.182654 -0.54181594 -0.34353274 -0.25696176 0.34560817 1.0781555 -0.17068703
-0.51503795 -0.39938447 -0.04954962 -0.35870373 0.36465237 0.61397564 -0.6702482 -0.46630177
0.31858215 0.4113954 -0.80427724 -0.25619227 -0.9658263 -0.19141498 0.16133837 -0.61034775
0.39280048 0.37527323 -0.32999173 0.877012 0.034939323 0.5971883 0.0485763 0.21164912
-0.043126054 -0.48460174 -0.5550041 -0.13638297 0.008768622 0.13614753 0.92152077 -0.36406797
0.79110706 -0.55228543 -0.15111512 0.045141436 -0.44154617 0.40476087 0.51186323 -0.07632402
0.9374267 -0.032865614 0.36516804 0.98662513 -0.2465402 -0.60642594 0.041250892 -0.034628484
0.29552197 -0.72799337 0.46603864 -0.5998409 -0.5653237 0.16800565 0.54192466 -0.1562115
-0.048242744 0.07153826 0.05043648 -0.35169485 0.1037755 -0.3955254 0.0094765145 0.12266092
-0.11717494 1.006473 -0.42489722 0.85230505 -0.2592037 -0.34516206 0.43815985 0.3059066
0.32015193 -0.4870241 -0.16735925 0.31800237 0.15392677 -1.0192255 -0.33186832 0.41310805
-0.5684809 -0.045600895 0.7776957 -0.45322967 -0.61908925 0.65563947 -0.31870228 0.7072279
0.087512076 0.40393537 0.5494059 0.3723187 0.87530965 0.17011897 0.10137928 -0.16480137
0.38614845 -0.2767452 0.67126304 -0.42555684 -0.12003765 -0.29213372 -0.09776693 0.022991002
0.06814821 0.84024143 0.35024524 0.99891853 0.23791438 -0.48088413 0.4197014 -0.074113585

network_body.linear_encoder.seq_layers.2.bias f4 [128]
00000000: 5cf1 003e 2f85 763d 66c0 8abd dda5 903b
00000010: 3ea2 1e3d 0b57 073e 54f1 c8bc 0e60 4d3d
00000020: 2c30 603d 4a07 bf3c db6f afbd c493 5e3d
00000030: 8239 eb3d 47ce 42bc 6633 163d 51fc f5bc
00000040: f335 cb3d b9a7 453e ea50 9a3c 1d80 ca3d
00000050: 2b26 55bd 6ee8 e03c d910 b63d 64b1 413d
00000060: fa9a d83c 0911 be3d 767b ac3d adbf 9e3d
00000070: fdcf 02bd a9a3 823d f174 d73d 0636 d73a
00000080: d141 013e 351d 9fbc 6619 0d3d ad1c 943d
00000090: fc77 013e 41ef 4dbd 389d 903d 769b 7e3d
000000a0: 3aac b93d a9f8 a03c bc2e 64bc 8eac 8b3d
000000b0: c9ae cfbb b093 753d cbf4 1dbd e6c1 60bd
000000c0: 4bd7 00bd 4c40 4dbd 3961 283d 153a 82bd
000000d0: 4fd9 53bd dd5f 983d 4d75 803d 09c1 af3d
000000e0: 3377 90bd 2fd0 a73d 9f60 c53c d680 79bd
000000f0: 738f 38bd 0f5c 773c caf8 413c 33f2 d13d
00000100: e14c 87bd 5a4e 023e ca45 fa3d e7e6 7a3d
00000110: 4311 04bd be74 0f3d 8d08 f2bc a9dc ccbc
00000120: 3bb7 363e 5dd7 1b3d 27a9 bd3d 62d0 033e
00000130: 0af6 2fbc c014 103e b9da 41bd 062d b8bd
00000140: d91c a53d 3d00 a2bc d931 003e b621 833d
00000150: 5e25 8ebd 9291 993c 5ed9 3ebd 8e4f 83bd
00000160: 36a3 17bd 4dd8 9ebd 6cc2 a53d 57c2 b73d
00000170: 4f9a 61bc 01da 50bd dbc7 033d 9281 993d
00000180: fdc2 593d 4189 133d 2660 bf3d ba74 d83d
00000190: ef7b c83d 9259 793d e9ec d0bc c5b2 a43d
000001a0: c980 babd 3d29 0a3e 912a 86bd 16e3 97bc
000001b0: 8be1 e53d 0cbd 4cbd 7a56 84bc c3b7 aabd
000001c0: cb58 a43d f5d6 2a3e a247 51bd f7b3 4c3c
000001d0: b1f7 823d 275f 65bd 538b 7c3d 0332 9cbd
000001e0: 3c73 55bd f55a 95bc 09e9 81ba 69b2 d33d
000001f0: 6bf4 933c 4ad3 91bd 4b40 e13d 0703 ca3d
0.12592071 0.060185608 -0.06774978 0.0044143037 0.038728945 0.13216798 -0.024529137 0.050140433
0.05473344 0.023318905 -0.085662566 0.05434014 0.11485578 -0.011890001 0.03667011 -0.03002754
0.09922399 0.19302262 0.018837411 0.09887717 -0.052038353 0.027454581 0.08889932 0.047288314
0.026441086 0.09280593 0.08421986 0.07751403 -0.031936634 0.06378872 0.10520352 0.0016419298
0.12622763 -0.019423107 0.03444805 0.07232032 0.12643427 -0.050277 0.07061237 0.062159978
0.09066053 0.01964982 -0.013927158 0.068200216 -0.0063379747 0.0599553 -0.03856353 -0.054872416
-0.03145532 -0.050110146 0.041108344 -0.063587345 -0.051720913 0.074401595 0.06272373 0.085817404
-0.070539854 0.08194005 0.024093924 -0.060913883 -0.04505868 0.015097632 0.011839101 0.10251274
-0.0660646 0.12725201 0.122203425 0.061255362 -0.032243025 0.035023443 -0.029545093 -0.025007563
0.17843334 0.038047183 0.09260779 0.1287246 -0.010739813 0.14070415 -0.04732773 -0.089929625
0.08062143 -0.019775504 0.12519015 0.06402914 -0.06940721 0.018746171 -0.046594016 -0.06411658
-0.037020884 -0.077561 0.08093724 0.08972614 -0.0137697 -0.050989155 0.03217302 0.07495417
0.05316447 0.036019567 0.09344511 0.10569139 0.097892635 0.060876437 -0.025503593 0.0804191
-0.09106595 0.13492294 -0.06551088 -0.0185409 0.112246595 -0.049984977 -0.016154516 -0.08335831
0.080247484 0.16683562 -0.051093705 0.012494079 0.063949 -0.055998947 0.061656307 -0.076267265
-0.05211185 -0.018231848 -0.0009911369 0.103367634 0.018060884 -0.07120378 0.10998591 0.09863859

network_body.linear_encoder.seq_layers.2.weight f4 [128, 128]
00000000: 6eb7 f23c e0fd 823b 97d6 b03d dc5a 343e
00000010: f77e 27be 8f68 60bd 75c2 0d3d 5768 abbe
00000020: 695b 073e f798 af3c 6fb7 003e 5430 e53c
00000030: d54b ce3e c0ce 083e 0d0f d53d e365 5d3e
00000040: 177b abbd 2bc4 5f3e 890b dfbd 9576 0d3e
00000050: 320f c93c 3cc9 673d 5054 703d 4837 ccbd
00000060: 432d ea3d cf96 233e 6e7c 35be 1237 b83e
00000070: 42a7 183e cb8a 83bd b501 a73b 9064 1e3e
00000080: c7aa 75be d23d ed3d c7b9 70be 3a07 03be
00000090: 50c0 9dbe ce08 4fbc 920e e9bc 82c3 673d
000000a0: c34b 3cbc ad5d cfbe 18d0 f2bd 2303 e43d
000000b0: bd4b b73d 6d49 023d de61 d4be dcc5 9abe
000000c0: fa8f 1f3e 913b 4abe 0fe1 c8bd 9817 f63d
000000d0: 5719 0e3e 9a91 bd3d 56c5 8b3e 2e82 7ebe
000000e0: 4a79 0fbe 4f0f 8ebe ddcf af3e 7604 2e3d
000000f0: 068c 813c f3ca 473e b774 523c adae febd
00000100: eff6 723c 253e bdbd 8dd1 0dbe b648 70bd
00000110: e5a6 2c3e 9da8 8cbe 7345 223e 8a4f 6bbe
00000120: ca24 463e 9ec8 0a3e 4d7c bb3d 14aa 6c3e
00000130: 9dfc 82bd 0a0c 0a3e bcfe f63c bff4 ee3d
00000140: 3c6d a2be c4d5 353e b32e 063c cc41 923d
00000150: e84a 3dbd 87cf bbbb 3add b13d bb88 ae3d
00000160: 3ce7 7a3e 69df 673d cf58 99bc c155 4b3e
00000170: 4533 063e c246 0e3e de85 86bd a821 68bd
00000180: 033f c43d 4958 fe3d 6c2b fb3d 5aec 5f3e
00000190: b6e8 3d3e 2f06 debe c736 6c3e 6f7e ed3d
000001a0: 5b4e 003e 99cf 4fbe 30fe 4f3d 6265 17bf
000001b0: b04b 8f3d 87c4 a73d a2fc e13d a266 debe
000001c0: 89fb 67be 7ae0 72be 9a69 23bd 908d 033e
000001d0: 5683 a83d 2e63 05bd 4457 9fbe 9f95 15be
000001e0: 6b25 9c3c 2c27 fcbd 4d7a 99bd a768 babd
000001f0: 0b96 00be 1507 cb3d 7cb2 a33b 687d 3d3e
00000200: 2b4a 753c 982f 1e3d b489 a63d 0561 91bd
00000210: bd09 10bd 75cc eebc e6c4 1dbe 0193 95bc
00000220: a8f9 60bd 7074 c23d 8baa 36be 84c7 e53d
00000230: be6e 3d3e 0454 093e 2b07 393e 7cd6 2d3e
00000240: ce30 213e cd17 883d 4c06 6bbd 4fea 163d
00000250: 9bb0 263d afb9 e53d 2f94 8a3d b199 6b3d
00000260: a032 6b3d 4bb0 dc3d 3e66 99bc 0496 833d
00000270: be83 7f3d c77f 3a3e bbf7 c5bd bddc 6f3c
00000280: 17cd a3bd 63a6 e9bd 3067 2d3d 0cb8 c33d
00000290: 1a80 853d 03e9 f23d 660e ee3d 1b25 7bbd
000002a0: d895 4a3d 21b8 16bd 07e0 043e 9314 36bd
000002b0: e72f f43d 2de4 c7bd 0e3e 9ebd 5bb6 08bd
000002c0: b645 9f3d f4c7 ffbd cd09 82bc f6db f43b
000002d0: 0df7 f9bd 962d 493c a7b6 f73c f599 8abc
000002e0: 8280 cdbd a4c3 3ebd f6a2 cf3d 5bfb 5d3d
000002f0: 9303 403e 54af 1bbe 1124 073d 958b 38bc
00000300: f46c 02be f00b 22bd d68a 4f3d 0efa a1bc
00000310: f415 35be e099 073e 90bb 093e 9ba9 8cbd
00000320: fd53 be3b e81e 2f3d 94d0 523d d4fa 4f3e
00000330: 2d45 813c b55f 4c3e 4f88 a8bd 0f25 753e
00000340: 248d 13be 1065 033e e6af ce3c 6ce9 7dbd
00000350: 688f edbc e3bc ea3b 0fd5 42bd 3c0c 803d
00000360: 204f 3d3e 88b8 893c cdf0 06bd 70bc 80bc
00000370: ba9e 8cbd 0ad3 b1bd b3c0 b23d 4b56 93bd
00000380: 8838 d33d e012 0ebe b533 033e c94f 14bc
00000390: 7a81 9a3d 0388 bfbd 2e9b 3bbd afc8 c0bd
000003a0: cb1e 1dbc a183 303e d381 8abc c698 f3bd
000003b0: bff8 28bd e68f 433d 2b79 243e e23a 0e3e
000003c0: 63a4 843c 421c 153d c584 a53d 7133 963d
000003d0: 7c44 193d 5b56 593d 150d 1cbe b072 ea3d
000003e0: a76c e6bd 57ce 983c 4f41 b5bd 5245 c33d
000003f0: eda5 bb3d 5427 e83d eaca 06bd 690d ed3d
0.029628482 0.0039975494 0.0863468 0.17612785 -0.16357027 -0.054787215 0.034609277 -0.33478042
0.13218464 0.021435244 0.12569974 0.027977146 0.4029223 0.13360119 0.10403261 0.21620898
-0.08373087 0.21852176 -0.10890872 0.13814767 0.024543379 0.056588396 0.058674157 -0.099714816
0.11434414 0.15975498 -0.17723247 0.35979515 0.14907554 -0.06422957 0.005096639 0.15468049
-0.23990928 0.11584057 -0.23508368 -0.12795725 -0.30810785 -0.012636377 -0.02844933 0.056582935
-0.011492672 -0.40501156 -0.11856097 0.11133411 0.08949993 0.031808306 -0.41480917 -0.3022908
0.15582266 -0.19749285 -0.098085515 0.12016219 0.13876854 0.09256287 0.27298993 -0.24854347
-0.14011112 -0.27746055 0.34338275 0.042484723 0.015813839 0.19511013 0.01284521 -0.124356605
0.014829381 -0.09240369 -0.13849469 -0.058663093 0.1686054 -0.27472392 0.15846805 -0.2297956
0.19349971 0.13553092 0.09154568 0.23111755 -0.063958384 0.13481155 0.030150764 0.11667775
-0.31723964 0.17757326 0.008189845 0.07141456 -0.046214014 -0.0057315263 0.08684774 0.08522173
0.24502271 0.056609545 -0.018719105 0.19856931 0.13105495 0.1389418 -0.06568502 -0.056672722
0.09582331 0.12419183 0.122641414 0.21867505 0.18545803 -0.43364093 0.23067771 0.11596381
0.1252989 -0.20294036 0.05077952 -0.5913907 0.06996858 0.081917815 0.11034514 -0.43437678
-0.22654547 -0.23718444 -0.03989563 0.1284697 0.08228175 -0.03256529 -0.31121266 -0.14607857
0.019060811 -0.12312159 -0.0749403 -0.09101992 -0.12557237 0.0991346 0.004995642 0.1850487
0.014971296 0.038619608 0.081317335 -0.07098583 -0.035165537 -0.029150227 -0.15407142 -0.018258573
-0.05492559 0.09494865 -0.17838494 0.11219695 0.18499276 0.13410956 0.1806914 0.1697635
0.15741274 0.06645165 -0.057379052 0.036844548 0.040695768 0.11217057 0.06766545 0.05751962
0.057421327 0.10775813 -0.01872551 0.064250976 0.0623815 0.18212806 -0.096663915 0.01464003
-0.07998102 -0.11408689 0.042334735 0.095565885 0.06518574 0.1186085 0.1162384 -0.061314683
0.04945931 -0.036796693 0.12976085 -0.044453215 0.11923199 -0.09760318 -0.0772668 -0.033377033
0.07776968 -0.1248931 -0.015873814 0.0074725104 -0.12205324 0.012278935 0.030238463 -0.016919116
-0.100342765 -0.046573296 0.10138504 0.05419479 0.18751363 -0.15203601 0.03299338 -0.011263748
-0.12736875 -0.039562166 0.050669514 -0.019772556 -0.17684156 0.13242292 0.13450456 -0.06868287
0.005808352 0.042754084 0.051468447 0.20310527 0.015780056 0.19958384 -0.08229124 0.23939918
-0.1440931 0.12831521 0.02523036 -0.061990187 -0.028999045 0.0071636303 -0.04756647 0.062523335
0.18487215 0.016811624 -0.03294449 -0.015714854 -0.06866212 -0.08682831 0.08728161 -0.071941935
0.10313517 -0.13874388 0.12812693 -0.009052225 0.07544227 -0.09352114 -0.045802288 -0.09413277
-0.009589861 0.17237712 -0.016907608 -0.118943736 -0.041252848 0.047744654 0.16061847 0.1388965
0.016191667 0.036403902 0.080819644 0.073340304 0.037418827 0.05306087 -0.15239365 0.11447656
-0.112511925 0.018653078 -0.08850347 0.09534706 0.09162507 0.11335626 -0.032908358 0.115748234

network_body.vector_processors.0.normalizer.running_mean f4 [5]
00000000: dcfa 043f 132c f73e 4d27 bf3f 0b7b 9abb
00000010: e5c6 86be
0.5194528 0.48275813 1.4933869 -0.004714375 -0.2632362
