ArmRobot/Assets/results/normalizado10/TouchCubeMoveGail/TouchCubeMoveGail-8499997.pt (torch, 825479 bytes, 79 tensors)

network_body.vector_processors.0.normalizer.running_mean f4 [115]
0.0 0.0 0.0 0.0 0.0 0.0 0.9999548 -6.3978064e-08
0.0860502 -5.8922026e-08 -5.6707694e-10 0.03213891 -3.160454e-08 0.98560864 -0.00398096 0.15189126
-0.061578065 -0.023311699 0.026376829 -0.31445542 0.9008292 0.12196038 0.31521222 -0.08548828
-0.027529417 0.020746874 -0.48618022 0.7993241 0.24309084 0.37600493 -0.05770764 -0.4234074
-0.66668594 -0.18151882 0.41930497 0.29145816 0.36886388 -0.041326966 -0.42788795 -0.63141304
-0.17148753 0.41856927 0.32960987 0.36018372 -0.027391668 -0.35373342 -0.52676404 -0.31183374
0.51796174 0.36996907 0.34367228 -0.02558881 -0.5948199 -0.15601593 -0.6233271 0.107744336
0.4011283 0.27345678 -0.007972933 -0.5948199 -0.15601593 -0.6233271 0.10774432 0.39717966
0.2700541 -0.016569607 -0.5948199 -0.15601593 -0.6233271 0.10774432 0.06186707 0.9568214
0.51714414 0.6935845 -0.31582716 0.8444233 -0.4451077 0.76760244 0.047169153 0.93155676
0.37660602 0.7781818 0.067277715 0.9395315 0.08314771 -0.2662952 0.0 0.40143928
0.4633922 0.7880895 0.26235646 0.020679766 -0.0289141 0.3081364 0.4136072 -0.021324623
-0.045727532 -0.39288187 -0.0075894957 0.0 0.0 0.0 0.0 0.0
0.0 0.0 0.0 0.0 0.33023217 0.2539557 0.73091394 0.8628587
0.46499023 0.24053614 0.32424682
00000000: 0000 0000 0000 0000 0000 0000 0000 0000
00000010: 0000 0000 0000 0000 0afd 7f3f 5064 89b3
00000020: 163b b03d 7411 7db3 7ee0 1bb0 17a4 033d
00000030: 8fbd 07b3 d950 7c3f b772 82bb 6289 1b3e
00000040: 4839 7cbd 2df8 bebc 3814 d83c 4d00 a1be
00000050: be9c 663f 5dc6 f93d 7f63 a13e 7b14 afbd
00000060: 5f85 e1bc 59f5 a93c 9dec f8be 81a0 4c3f
00000070: ceec 783e b883 c03e d95e 6cbd dbc8 d8be
00000080: eeab 2abf 12e0 39be 24af d63e 013a 953e
00000090: badb bc3e 7746 29bd 2114 dbbe 49a4 21bf
000000a0: 6d9a 2fbe b64e d63e a0c2 a83e 006a b83e
000000b0: 7e64 e0bc 8c1c b5be 02da 06bf aca8 9fbe
000000c0: 2499 043f 966c bd3e d0f5 af3e a09f d1bc
000000d0: 1e46 18bf a4c2 1fbe 5d92 1fbf 10a9 dc3d
000000e0: b060 cd3e 8702 8c3e e8a0 02bc 1e46 18bf
000000f0: a4c2 1fbe 5d92 1fbf 0ea9 dc3d 225b cb3e
00000100: 8844 8a3e fcbc 87bc 1e46 18bf a4c2 1fbe
00000110: 5d92 1fbf 0ea9 dc3d 5368 7d3d 3ff2 743f
00000120: 8f63 043f c18e 313f 19b4 a1be 202c 583f
00000130: 28e5 e3be 9881 443f 7134 413d 817a 6e3f
00000140: 81d2 c03e ec36 473f e6c8 893d 2385 703f
00000150: 5949 aa3d d857 88be 0000 0000 7389 cd3e
00000160: be41 ed3e 3cc0 493f 9653 863e 9d68 a93c
00000170: 43dd ecbc 0ec4 9d3e 53c4 d33e fab0 aebc
00000180: cb4c 3bbd d027 c9be 4eb1 f8bb 0000 0000
00000190: 0000 0000 0000 0000 0000 0000 0000 0000
000001a0: 0000 0000 0000 0000 0000 0000 0000 0000
000001b0: 3114 a93e 7b06 823e 2d1d 3b3f 4fe4 5c3f
000001c0: 3313 ee3e 1b4f 763e ae03 a63e

network_body.vector_processors.0.normalizer.running_variance f4 [115]
1.0 1.0 1.0 1.0 1.0 1.0 1.9999446 1.0
1.0074005 1.0 1.0 159615.9 1.0 5559.2144 2358.2852 1.023064
245.80359 29534.797 128452.836 504416.06 61566.926 70104.72 39629.33 13711.529
48205.105 110247.85 699838.1 195453.45 197159.55 158533.77 46065.043 631280.25
178108.22 325697.75 282788.3 201874.06 227341.25 54216.707 901060.75 270437.16
335033.84 309551.53 207951.83 300881.7 65419.94 758586.7 558665.0 395811.16
262756.1 235468.56 428486.1 87589.04 360982.34 740742.9 262586.47 531568.75
178109.2 561728.06 132087.98 360982.34 740742.8 262586.47 531568.7 168457.2
544796.4 129015.555 360982.34 740742.8 262586.47 531568.7 568124.75 59168.4
1.503373e+06 630785.8 1.1918904e+06 391133.7 954651.94 852773.94 911938.2 170732.14
1.3680769e+06 785303.9 762824.7 196175.39 2.3703458e+06 2.2097178e+06 1.0 477148.6
1.9220501e+06 38620.457 8931.002 1692.458 19291.588 163518.72 872487.0 60794.895
166500.64 880983.6 57124.805 1.0 1.0 1.0 1.0 1.0
1.0 1.0 1.0 1.0 1.5945165e+06 787092.6 1.1100549e+06 348135.25
1.7654004e+06 896539.5 1.5449825e+06
00000000: 0000 803f 0000 803f 0000 803f 0000 803f
00000010: 0000 803f 0000 803f 2ffe ff3f 0000 803f
00000020: 80f2 803f 0000 803f 0000 803f fadf 1b48
00000030: 0000 803f b7b9 ad45 9064 1345 c3f3 823f
00000040: b8cd 7543 98bd e646 6be2 fa47 024c f648
00000050: ed7e 7047 5cec 8847 54cd 1a47 1e3e 5646
00000060: 1b4d 3c47 ed53 d747 e2db 2a49 5ddf 3e48
00000070: e389 4048 71d1 1a48 0bf1 3347 041f 1a49
00000080: 0eef 2d48 3808 9f48 8a14 8a48 8424 4548
00000090: 5003 5e48 b5c8 5347 4cfc 5b49 a50c 8448
000000a0: 3b97 a348 f125 9748 f513 4b48 36ea 9248
000000b0: f18b 7f47 ab33 3949 9064 0849 6544 c148
000000c0: 834c 8048 24f3 6548 c338 d148 8512 ab47
000000d0: cb42 b048 6ed8 3449 4f37 8048 0cc7 0149
000000e0: 4def 2d48 0124 0949 fffd 0048 cb42 b048
000000f0: 6dd8 3449 4f37 8048 0bc7 0149 4d82 2448
00000100: c601 0549 c7fb fb47 cb42 b048 6dd8 3449
00000110: 4f37 8048 0bc7 0149 ccb3 0a49 6620 6747
00000120: 6884 b749 1d00 1a49 937e 9149 b6fb be48
00000130: bf11 6949 5f32 5049 23a4 5e49 09bb 2648
00000140: 6700 a749 7eb9 3f49 8b3c 3a49 d993 3f48
00000150: a7ac 104a d7de 064a 0000 803f 93fb e848
00000160: 11a0 ea49 75dc 1647 028c 0b46 a88e d344
00000170: 2db7 9646 aeaf 1f48 7002 5549 e57a 6d47
00000180: 2999 2248 7a15 5749 ce24 5f47 0000 803f
00000190: 0000 803f 0000 803f 0000 803f 0000 803f
000001a0: 0000 803f 0000 803f 0000 803f 0000 803f
000001b0: a4a4 c249 4a29 4049 3781 8749 e8fc a948
000001c0: c380 d749 b8e1 5a49 b498 bc49

network_body.linear_encoder.seq_layers.0.weight f4 [128, 115]
-0.104453795 0.04707926 -0.053775277 0.13421653 -0.105599284 -0.0934025 0.04976408 -0.06002245
0.23573175 -0.16027237 -0.06872462 -0.09467052 -0.14425126 -0.06034289 -0.12855735 0.08229995
-0.06461462 0.16467735 -0.1360284 0.48992646 0.018424146 -0.24537614 0.2831019 0.06299896
0.01886166 -0.117252566 0.15879619 0.13868333 -0.14232671 0.12580399 0.04156735 0.07357772
-0.12929684 -0.04723965 0.05224152 -0.09530409 0.20093435 0.14470413 -0.016502596 -0.0025658591
-0.05059927 0.17362072 -0.037081532 0.006983607 0.012324058 -0.034742255 -0.017681714 0.09988585
0.13068104 -0.2316374 0.07594621 -0.009209839 -0.027699955 -0.24331899 -0.18292034 -0.07745157
-0.060990926 0.02999715 0.1413818 0.01755343 -0.07300909 -0.15384741 0.10533725 0.08217087
0.09788388 -0.10652743 -0.080658436 -0.14687228 -0.032350253 -0.06652674 0.009801146 0.08139993
-0.14898369 0.18550706 -0.16873729 0.1490087 0.08733932 0.14785907 0.11111647 -0.032139968
-0.20119134 0.27340683 0.34719077 0.24615867 0.2934721 -0.054488435 -0.024539847 -0.2124782
-0.098393 -0.13580354 -0.25776437 0.13171434 -0.20179078 0.06445984 0.14738233 0.07800248
-0.093606025 -0.048072357 -0.061881542 0.14030933 -0.06990903 -0.032399748 -0.09974032 0.019591816
0.06749612 -0.13346027 -0.097761564 -0.036661103 0.031476155 -0.33038166 -0.13242376 -0.15114766
-0.118768714 -0.1338232 -0.36469975 -0.07429971 -0.011239892 0.09917309 -0.06946568 -0.030563688
-0.07421551 0.1171611 -0.15187775 0.25426257 -0.08244383 0.14513962 0.15863898 0.07414526
0.01248706 -0.030057468 0.2164847 -0.07408959 0.21917996 0.11450044 0.09799442 0.061083954
0.019142935 -0.015244459 -0.005175048 -0.10154191 0.1781343 0.031690057 0.17323895 -0.10551764
0.1555005 0.053293366 0.037574664 0.049979422 0.12668642 0.15186185 -0.11064104 0.024517484
0.024850642 0.23409739 0.2767587 -0.12821159 0.01628784 -0.20975132 0.15095858 0.09720893
0.02260473 -0.020575188 0.463896 -0.09640727 -0.18057601 0.11863663 -0.0583379 -0.024283696
-0.20948052 -0.091562524 -0.09187051 0.29988217 0.023348104 0.06831282 -0.0619084 0.0006303019
0.120626025 0.040999345 0.120198525 -0.046745755 -0.04769139 -0.20045248 -0.12707737 0.15270881
-0.12551825 -0.0015104937 0.11333964 -0.17152713 0.13611598 -0.054778643 -0.024868812 0.16177098
0.076849885 0.028872995 -0.09113453 -0.35839942 0.27124158 0.30110002 0.110588744 0.1010609
-0.00993561 0.06749021 -0.2636069 -0.006814083 -0.07297843 -0.07908173 -0.0053678215 -0.08060224
0.038638886 0.07694678 -0.033773217 -0.00502699 0.068816535 0.18530993 -0.17019497 -0.06248275
-0.17543718 -0.049663987 -0.21557836 0.10571433 -0.07101448 -0.06427339 0.04098217 -0.2072517
-0.018994072 -0.18560816 -0.30198637 -0.17617652 0.28524095 -0.12961777 -0.06737546 0.06885054
-0.0940825 -0.04851874 -0.031285446 -0.13967991 0.11561625 0.13499562 0.067780025 -0.23914927
-0.15462981 0.1822146 -0.029378364 -0.00500778 -0.028746704 0.10506667 -0.17967778 -0.2737755
-0.019561544 0.22995032 0.002259805 -0.21709096 0.026477473 -0.007070641 -0.21685883 0.08685339
00000000: dfeb d5bd 2fd6 403d 7743 5cbd 0f70 093e
00000010: 7044 d8bd cf49 bfbd 6cd5 4b3d 1ada 75bd
00000020: aa63 713e 711e 24be 7ebf 8cbd 9ee2 c1bd
00000030: 9ab6 13be 1b2a 77bd 8aa4 03be e08c a83d
00000040: ab54 84bd 2ea1 283e 074b 0bbe a4d7 fa3e
00000050: 3cee 963c e243 7bbe bbf2 903e 9905 813d
00000060: c583 9a3c 1d22 f0bd 789b 223e 0103 0e3e
00000070: 18be 11be c3d2 003e 8742 2a3d eaaf 963d
00000080: 6466 04be 5d7e 41bd 34fb 553d ca2e c3bd
00000090: bcc1 4d3e 522d 143e 7430 87bc f927 28bb
000000a0: 2e41 4fbd a1c9 313e cee2 17bd bed6 e43b
000000b0: d9ea 493c e54d 0ebd 3ed9 90bc f490 cc3d
000000c0: 40d1 053e 5b32 6dbe b089 9b3d dde4 16bc
000000d0: 04eb e2bc 9d28 79be 784f 3bbe ee9e 9ebd
000000e0: 9fd1 79bd 95bc f53c 64c6 103e 36cc 8f3c
000000f0: ca85 95bd 2d8a 1dbe 0ebb d73d 3349 a83d
00000100: 5877 c83d 0e2b dabd 4030 a5bd b065 16be
00000110: b381 04bd 2c3f 88bd fc94 203c 02b5 a63d
00000120: 2e8f 18be 90f5 3d3e 78c9 2cbe bd95 183e
00000130: f5de b23d 5e68 173e 0891 e33d 33a5 03bd
00000140: 1a05 4ebe fbfb 8b3e fdc2 b13e 0511 7c3e
00000150: fa41 963e 442f 5fbd ca07 c9bc e393 59be
00000160: 4582 c9bd 1510 0bbe b1f9 83be 20e0 063e
00000170: 3ea2 4ebe 8503 843d 65eb 163e c4bf 9f3d
00000180: 84b4 bfbd 85e7 44bd 8077 7dbd 40ad 0f3e
00000190: 772c 8fbd 99b5 04bd a744 ccbd 047f a03c
000001a0: 683b 8a3d cfa9 08be 3737 c8bd f429 16bd
000001b0: 24ed 003d c927 a9be 189a 07be 74c6 1abe
000001c0: 033d f3bd f308 09be edb9 babe 722a 98bd
000001d0: 8627 38bc 431b cb3d 0644 8ebd b360 fabc
000001e0: 4dfe 97bd 29f2 ef3d d785 1bbe b42e 823e
000001f0: 50d8 a8bd 7b9f 143e 4272 223e 78d9 973d
00000200: 8796 4c3c 143b f6bc 2aae 5d3e 48bc 97bd
00000210: b670 603e 357f ea3d 4cb1 c83d 2b33 7a3d
00000220: a5d1 9c3c e5c3 79bc 7393 a9bb 34f5 cfbd
00000230: d768 363e 6fcd 013d 8d65 313e a219 d8bd
00000240: 863b 1f3e 254a 5a3d e4e7 193d 39b7 4c3d
00000250: 16ba 013e ac81 1b3e c597 e2bd e4d8 c83c
00000260: 9393 cb3c 3ab7 6f3e 51b3 8d3e e649 03be
00000270: 146e 853c 0dc9 56be e394 1a3e 7a15 c73d
00000280: 8e2d b93c 4c8d a8bc c783 ed3e 2d71 c5bd
00000290: ebe8 38be c3f7 f23d b9f3 6ebd 9aee c6bc
000002a0: 1082 56be 2285 bbbd 9b26 bcbd 288a 993e
000002b0: 8644 bf3c 97e7 8b3d aa93 7dbd d83a 253a
000002c0: c70a f73d eeee 273d a52a f63d 7a78 3fbd
000002d0: 0c58 43bd 6a43 4dbe 9220 02be b35f 1c3e
000002e0: db87 00be c2fb c5ba 9d1e e83d cfa4 2fbe
000002f0: fd61 0b3e 925f 60bd aeb9 cbbc 4ba7 253e
00000300: 7963 9d3d 0f87 ec3c bea4 babd 2180 b7be
00000310: 2de0 8a3e c829 9a3e 5a7c e23d 04f9 ce3d
00000320: f8c8 22bc 4f38 8a3d 7cf7 86be ac48 dfbb
00000330: b775 95bd 9af5 a1bd 8de4 afbb ca12 a5bd
00000340: cf43 1e3d 4696 9d3d c955 0abd 73b9 a4bb
00000350: afef 8c3d e3c1 3d3e 9747 2ebe e9ed 7fbd
00000360: cea5 33be 776c 4bbd 93c0 5cbe c180 d83d
00000370: 0a70 91bd c4a1 83bd ebdc 273d ca39 54be
00000380: 7599 9bbc 1110 3ebe f59d 9abe 9e67 34be
00000390: 1a0b 923e 85ba 04be 25fc 89bd 8301 8d3d
000003a0: 53ae c0bd 96bb 46bd 2b25 00bd 4008 0fbe
000003b0: 36c8 ec3d 4b3c 0a3e 41d0 8a3d 8ce3 74be
000003c0: 4757 1ebe 7796 3a3e e5aa f0bc 4e18 a4bb
000003d0: 357e ebbc 322d d73d 74fd 37be 4d2c 8cbe
000003e0: 883f a0bc 1978 6b3e 3d19 143b 184d 5ebe
000003f0: 49e7 d83c d6b0 e7bb 3e10 5ebe 31e0 b13d

network_body.linear_encoder.seq_layers.0.bias f4 [128]
0.15119423 0.10828426 0.06620884 0.21190386 0.0779794 0.09947849 0.06897748 0.08912587
-0.000754295 0.08219791 0.13441171 0.12799573 0.09133714 0.031939454 0.12082115 0.095125124
0.07523468 0.13807994 0.119822934 0.11113801 0.1223263 0.0795703 0.233856 0.09768955
0.085450776 0.027069112 0.17337446 0.10256037 0.18224289 0.20747676 0.055803705 0.14152467
0.038270943 0.10099465 0.10962705 -0.0033052636 0.18962179 0.12541221 0.1432387 0.15520443
0.12076837 0.09368239 0.26915273 0.06157466 0.09273554 0.12025585 0.08755857 0.11447139
0.07674512 0.092249185 0.16858599 0.11748583 0.06455128 0.10902276 -0.018694164 0.05534721
0.08793717 0.18958192 0.13588591 0.12848549 0.29075927 0.08179962 0.19497108 0.044006992
0.111768134 0.21309999 0.056022055 0.12793748 0.13475102 0.06666986 0.0779518 0.060125545
0.05204894 -0.0056387694 0.101093374 0.120958954 0.16216454 0.30528966 0.11491632 0.06853889
0.14788765 0.19645636 0.029629165 0.13878787 0.044847652 0.14174403 0.3019305 0.18903376
0.24455045 0.08649627 0.12472295 0.035161484 0.19486065 0.014330524 0.1635852 0.058149785
0.20683579 0.116484426 0.1200301 -0.05118042 0.039930314 0.121745944 0.1111767 0.076450564
0.052638903 0.14510389 0.22053319 0.15225856 0.060283985 0.052308034 0.08608048 0.15044022
0.14614198 0.17087772 0.05347357 0.1614157 0.09689574 0.12651132 0.06820765 0.14346848
0.12495746 0.114317186 0.061125346 0.2511774 0.11867189 0.07685767 0.04404439 0.11349561
00000000: a9d2 1a3e 23c4 dd3d 8098 873d 53fd 583e
00000010: aab3 9f3d 61bb cb3d 1144 8d3d a087 b63d
00000020: e1bb 45ba 6157 a83d 39a3 093e 5011 033e
00000030: f70e bb3d f2d2 023d 1471 f73d f6d0 c23d
00000040: a414 9a3d d464 0d3e ba65 f53d 539c e33d
00000050: 3686 fa3d c1f5 a23d f277 6f3e 7511 c83d
00000060: d100 af3d 0bc0 dd3c 1389 313e 2c0b d23d
00000070: e19d 3a3e ca74 543e 6d92 643d d8eb 103e
00000080: fec1 1c3d 48d6 ce3d 2684 e03d 1f9d 58bb
00000090: 372c 423e 0f6c 003e 2aad 123e e9ed 1e3e
000000a0: 6855 f73d 8edc bf3d 63ce 893e b635 7c3d
000000b0: 21ec bd3d b348 f63d e851 b33d fa6f ea3d
000000c0: 8c2c 9d3d 24ed bc3d cea1 2c3e 699c f03d
000000d0: 7633 843d 5347 df3d 8124 99bc c2b3 623d
000000e0: 6718 b43d c321 423e ad25 0b3e b391 033e
000000f0: 66de 943e 8f86 a73d 80a6 473e ad40 343d
00000100: b1e6 e43d e236 5a3e 6277 653d 0b02 033e
00000110: 2cfc 093e 358a 883d 31a5 9f3d 3446 763d
00000120: 4531 553d 6dc5 b8bb 0b0a cf3d 54b9 f73d
00000130: 760e 263e ed4e 9c3e 3f59 eb3d 1e5e 8c3d
00000140: dc6f 173e db2b 493e ddb8 f23c 681e 0e3e
00000150: 2cb2 373d 5925 113e a296 9a3e 1192 413e
00000160: 6f6b 7a3e f524 b13d bf6e ff3d 7d05 103d
00000170: 8d89 473e 93ca 6a3c e182 273e 782e 6e3d
00000180: c3cc 533e 638f ee3d 57d2 f53d 8fa2 51bd
00000190: f88d 233d f055 f93d 9cb0 e33d 1d92 9c3d
000001a0: e49b 573d 1d96 143e 74d3 613e abe9 1b3e
000001b0: 57ec 763d f340 563d f64a b03d 000d 1a3e
000001c0: 3ea6 153e 92fa 2e3e 1a07 5b3d 284a 253e
000001d0: 4671 c63d 2f8c 013e 74b0 8b3d 67e9 123e
000001e0: b2e9 ff3d 211f ea3d 925e 7a3d 539a 803e
000001f0: 3f0a f33d 8e67 9d3d e467 343d 6370 e83d

network_body.linear_encoder.seq_layers.2.weight f4 [128, 128]
0.12943889 0.07357955 -0.05273384 -0.009318229 0.010391153 0.10385123 -0.19832344 -0.023204036
-0.2876876 0.03214777 0.08728775 -0.14243264 0.02944996 0.032911062 0.0028396396 -0.04071636
0.3349816 -0.096766695 -0.11789676 -0.19763987 -0.13984849 0.013361783 0.17104785 -0.11962572
-0.1120315 -0.14992668 0.22648874 0.045552097 -0.07349054 0.003158447 -0.18717894 0.22509594
-0.08241876 0.22292872 -0.114616886 0.053818412 -0.11898476 -0.1551581 0.1761783 0.07456944
0.061975256 0.052052468 -0.08187803 -0.01987559 0.038660828 0.009245874 0.14231972 -0.08590737
0.12190294 -0.37744525 -0.029906964 -0.18800268 0.04499523 -0.054446086 0.1114953 0.08228923
0.056033794 0.08043851 0.12941593 -0.08729606 0.01788947 -0.16075887 -0.22862178 -0.06576893
-0.119746186 0.038407344 -0.032958966 -0.12006101 0.187575 0.18833415 0.0018928624 0.09971285
-0.22206609 -0.00478464 0.13247193 -0.051343825 0.062801346 -0.14928666 0.069448285 -0.067768395
0.07978597 0.19355877 -0.21019475 0.010623314 0.082863174 -0.10657993 -0.119427666 0.08255155
0.042665955 -0.19123368 0.023182852 -0.09825033 -0.16498837 -0.14109854 0.14560659 0.0117712375
-0.12340238 -0.009493074 0.0006848378 -0.047503818 0.022396559 0.10020556 0.0827745 0.041471824
-0.0104592275 0.14164431 0.18834932 -0.17953064 0.2654262 0.044284042 0.0053166165 -0.13647851
0.01279208 -0.0154578285 -0.18780422 -0.17572762 0.2479974 0.04801659 0.031076204 -0.10360187
0.0035685268 -0.1698976 -0.029916013 -0.13146068 0.022976637 0.17556748 0.011857906 0.21054916
0.06576257 0.07442734 0.06989535 -0.18443061 -0.16771676 0.09426623 -0.1673084 -0.053425558
-0.041553117 -0.0014933677 0.19478737 -0.102061905 -0.062492467 -0.2745758 -0.11322739 0.0051410324
-0.097360246 0.07925527 0.14215277 0.060526133 -0.12313312 0.10416765 -0.16769151 -0.20127025
-0.052258708 0.163286 -0.15502536 0.036990434 -0.020001678 -0.12044855 0.073943935 0.40623647
-0.31991518 0.27734876 -0.026349917 0.22451714 0.04501712 -0.0146865 0.06214259 -0.29061967
-0.017698025 -0.029600507 -0.14136378 0.22895399 -0.12639211 -0.12000169 -0.09384179 0.084066205
0.19926797 0.24363345 0.09253505 -0.15459642 -0.007708118 0.032463502 0.12987636 0.03331703
-0.10759453 -0.18072073 0.08866 -0.0033848283 -0.4682631 -0.01646862 0.18581952 0.026104929
-0.12760772 0.015275588 -0.0096224 -0.1115492 -0.34415433 -0.08868947 0.008920545 0.057269506
-0.2678058 0.17532726 0.20143642 -0.20250161 0.190353 -0.09714541 0.06082954 0.31059578
0.09495086 -0.09650777 0.096878275 0.052927647 0.03413141 -0.085607946 0.12435952 -0.22689319
-0.23710151 0.18589786 -0.036816493 0.16785766 -0.2246356 0.14797163 0.07700924 0.17678894
-0.13645346 0.029015854 -0.13454393 0.0073624887 0.119132414 0.033584654 0.0651978 0.1368643
-0.04277793 -0.2567842 -0.09113303 0.07696108 0.19367096 -0.07538933 0.033617396 0.13073947
-0.031719852 -0.025897885 0.2142364 0.1936439 -0.10283184 -0.18297538 -0.100506775 -0.21981178
0.15067522 -0.10793775 0.12342987 0.19217612 0.039097235 -0.032335255 -0.0627279 0.14140882
00000000: a18b 043e e0b0 963d 70ff 57bd 7cab 18bc
00000010: a83f 2a3c f4af d43d 4d15 4bbe 6416 bebc
00000020: ca4b 93be 61ad 033d ebc3 b23d ddd9 11be
00000030: 0b41 f13c c0cd 063d 3f19 3a3b 33c6 26bd
00000040: b582 ab3e 9e2d c6bd db73 f1bd 1b62 4abe
00000050: 7134 0fbe 61eb 5a3c 2b27 2f3e 54fe f4bd
00000060: c570 e5bd 6186 19be aaec 673e d694 3a3d
00000070: 3582 96bd f3fd 4e3b d6ab 3fbe 8d7f 663e
00000080: 2bcb a8bd 6d47 643e 42bc eabd b270 5c3d
00000090: 48ae f3bd c4e1 1ebe 1668 343e ddb7 983d
000000a0: c4d9 7d3d f834 553d abaf a7bd 22d2 a2bc
000000b0: d15a 1e3d 027c 173c 43bc 113e 34f0 afbd
000000c0: 40a8 f93d 8140 c1be 73ff f4bc c683 40be
000000d0: eb4c 383d dc02 5fbd a657 e43d 4187 a83d
000000e0: b183 653d f2bc a43d 9c85 043e 47c8 b2bd
000000f0: f08c 923c f99d 24be d41b 6abe dcb1 86bd
00000100: 7d3d f5bd 0551 1d3d fbff 06bd 8ce2 f5bd
00000110: a913 403e abda 403e ec19 f83a 4036 cc3d
00000120: 4b65 63be 78c8 9cbb b9a6 073e e74d 52bd
00000130: fe9d 803d 9ade 18be e73a 8e3d 28ca 8abd
00000140: d466 a33d 4534 463e 4b3d 57be 690d 2e3c
00000150: 2bb4 a93d 9446 dabd 7e96 f4bd c910 a93d
00000160: 7fc2 2e3d c3d2 43be f7e9 bd3c 7837 c9bd
00000170: b6f2 28be 237c 10be e519 153e 26dc 403c
00000180: 63ba fcbd d788 1bbc b086 333a 5d93 42bd
00000190: fd78 b73c 9338 cd3d ad85 a93d 5cde 293d
000001a0: 2e5d 2bbc 350b 113e a5de 403e e1d6 37be
000001b0: f1e5 873e 2f63 353d 0337 ae3b 06c1 0bbe
000001c0: df95 513c d542 7dbc c04f 40be f1f1 33be
000001d0: 08f3 7d3e 0bad 443d 8693 fe3c 382d d4bd
000001e0: f2dd 693b a3f9 2dbe 6d12 f5bc a19d 06be
000001f0: 8039 bc3c f6c7 333e aa47 423c 339a 573e
00000200: 87ae 863d 5c6d 983d 4b25 8f3d 61db 3cbe
00000210: f1bd 2bbe a70e c13d e552 2bbe c2d4 5abd
00000220: 9a33 2abd 1bbd c3ba 5776 473e d505 d1bd
00000230: 1af8 7fbd 3395 8cbe c3e3 e7bd 1b76 a83b
00000240: cf64 c7bd 9650 a23d 7f90 113e 40ea 773d
00000250: 382d fcbd d955 d53d 53b7 2bbe ca19 4ebe
00000260: 3a0d 56bd 7234 273e f8be 1ebe 4883 173d
00000270: 8fda a3bc bbad f6bd eb6f 973d 3afe cf3e
00000280: eccb a3be a800 8e3e c8db d7bc d2e7 653e
00000290: df63 383d a59f 70bc 3a89 7e3d 1acc 94be
000002a0: 73fb 90bc c37c f2bc abc1 10be ea72 6a3e
000002b0: ef6c 01be 72c3 f5bd 2030 c0bd e72a ac3d
000002c0: e70c 4c3e 0c7b 793e 0483 bd3d 864e 1ebe
000002d0: 6194 fcbb 73f8 043d 4ffe 043e 7077 083d
000002e0: 855a dcbd db0e 39be 6093 b53d ffd3 5dbb
000002f0: 2ec0 efbe 33e9 86bc 7947 3e3e 01da d53c
00000300: 99ab 02be 7646 7a3c 45a7 1dbc e873 e4bd
00000310: ff34 b0be d3a2 b5bd 7a27 123c 6e93 6a3d
00000320: d81d 89be fd88 333e 5945 4e3e 955c 4fbe
00000330: e6eb 423e 2cf4 c6bd 6528 793d 6906 9f3e
00000340: 9975 c23d dea5 c5bd 1e68 c63d a9ca 583d
00000350: 61cd 0b3d 3853 afbd 34b0 fe3d b056 68be
00000360: bdca 72be 025c 3e3e e4cc 16bd e1e2 2b3e
00000370: e006 66be e085 173e 05b7 9d3d 2908 353e
00000380: 75ba 0bbe a8b2 ed3c e2c5 09be 0841 f13b
00000390: b2fb f33d 1090 093d 6d86 853d 2826 0c3e
000003a0: e937 2fbd 3879 83be f4a3 babd c59d 9d3d
000003b0: ae51 463e b965 9abd 65b2 093d 91e0 053e
000003c0: adec 01bd cd27 d4bc c960 5b3e 964a 463e
000003d0: 8099 d2bd e65d 3bbe 7fd6 cdbd 5716 61be
000003e0: 9b4a 1a3e 780e ddbd cdc8 fc3d d1c9 443e
000003f0: 6c24 203d f971 04bd 7c77 80bd 79cd 103e

network_body.linear_encoder.seq_layers.2.bias f4 [128]
0.023445548 -0.0682999 0.06003641 0.07283559 0.015252554 0.02314336 0.03528213 0.09115892
-0.0066998675 0.0050677382 0.022644084 0.030228168 0.02417552 0.043694247 0.09661233 0.066795744
0.0455334 -0.05919972 0.072664104 0.08507551 -0.0073948666 -0.047980245 0.014364934 0.0067641786
0.10692759 -0.002809433 0.008940974 -0.022439202 0.018994292 0.08104523 0.0075573097 0.021458305
0.0280117 0.05007088 0.032479305 0.02006752 0.054801166 0.118772075 0.045381762 0.057014473
0.0811636 0.022745218 -0.00047832073 0.026501132 0.080640346 -0.029303491 -0.03792426 -0.03922844
0.054320455 0.055450797 -0.06420026 0.038643245 -0.027199646 0.039680496 0.14495362 -0.024305424
-0.0021953743 -0.008862032 0.011321532 0.026739962 0.012798945 0.09346411 -0.006490313 0.11082949
-0.042806502 -0.0070985146 0.013301009 0.06842769 0.028166203 0.020388346 0.025836768 -0.054586034
-0.04652046 0.07870139 0.060876828 0.044447258 0.016262019 0.061145738 0.055948857 -0.010632361
-0.020475572 0.11659058 -0.018242473 0.084388465 0.07645729 -0.002841365 0.034585413 -0.022274572
0.07486317 -0.010465004 0.034147203 -0.0058798017 -0.056493428 0.107216686 0.033019375 0.068941735
-0.08038233 0.08891078 0.03473658 -0.025359476 0.056309834 0.013697561 -0.03412086 -0.021180807
-0.004241125 -0.08147174 0.017084202 0.04770815 0.1366522 0.07608476 -0.019680865 -0.0485203
-0.022740453 0.045021188 0.0064682127 -0.016073087 3.152103e-05 0.05264553 0.046591647 0.06665646
0.021244448 0.044689007 0.030795736 -0.0075253807 0.062617 0.040269215 0.024064315 0.08972603
00000000: e110 c03c d1e0 8bbd bde8 753d d32a 953d
00000010: d9e5 793c 2597 bd3c ff83 103d 87b1 ba3d
00000020: 908a dbbb 450f a63b 1680 b93c 10a1 f73c
00000030: bd0b c63c bdf8 323d afdc c53d 35cc 883d
00000040: 3b81 3a3d 687b 72bd ebd0 943d 123c ae3d
00000050: a350 f2bb ef86 44bd e65a 6b3c 0ba6 dd3b
00000060: dafc da3d 771e 38bb 2a7d 123c 6bd2 b7bc
00000070: eb99 9b3c 0bfb a53d 4fa3 f73b 54c9 af3c
00000080: cb78 e53c 2017 4d3d 0509 053d a464 a43c
00000090: 3077 603d c63e f33d 3ae2 393d 0288 693d
000000a0: 1a39 a63d 2e54 ba3c 1fc7 fab9 e718 d93c
000000b0: c426 a53d e00d f0bc 7856 1bbd 00ae 20bd
000000c0: 207f 5e3d 6020 633d 6d7b 83bd 6148 1e3d
000000d0: cbd1 debc 0488 223d b96e 143e 2b1c c7bc
000000e0: 45e0 0fbb 0e32 11bc f27d 393c c40d db3c
000000f0: abb2 513c 1c6a bf3d b1ac d4bb 92fa e23d
00000100: df55 2fbd a89a e8bb 7aec 593c d123 8c3d
00000110: cfbc e63c 7605 a73c a1a7 d33c 9b95 5fbd
00000120: 3d8c 3ebd 322e a13d fb59 793d 540e 363d
00000130: ed37 853c f473 7a3d a12a 653d 5b33 2ebc
00000140: 63bc a7bc 0bc7 ee3d 3d71 95bc dcd3 ac3d
00000150: a495 9c3d 3236 3abb 6fa9 0d3d 2a79 b6bc
00000160: dd51 993d 6875 2bbc f0dd 0b3d 5aab c0bb
00000170: a765 67bd 6c94 db3d 533f 073d 5331 8d3d
00000180: 7e9f a4bd db16 b63d f247 0e3d adbe cfbc
00000190: 24a5 663d bc6b 603c 51c2 0bbd 5f83 adbc
000001a0: 23f9 8abb a8da a6bd 2bf4 8b3c 9f69 433d
000001b0: 8eee 0b3e 54d2 9b3d c439 a1bc 39bd 46bd
000001c0: 304a babc 2368 383d 4df3 d33b b5ab 83bc
000001d0: 7335 0438 d7a2 573d e2d6 3e3d 2f83 883d
000001e0: d608 ae3c d20b 373d 5747 fc3c 7897 f6bb
000001f0: 573d 803d 55f1 243d 8722 c53c 48c2 b73d

action_model._discrete_distribution.branches.0.weight f4 [3, 128]
0.20092662 0.08375267 0.083088085 -0.04689981 -0.15584405 0.15350099 0.03808308 0.04008614
0.15404825 -0.06432063 -0.13769358 -0.052716296 0.1907128 0.076495804 -0.13526851 -0.005329872
0.034408428 0.30198517 -0.22080372 -0.31798628 -0.052199 -0.32276314 -0.2242104 0.087008506
0.05498958 -0.16319229 -0.047750425 -0.05314347 -0.21974824 -0.07997847 -0.06855964 0.07509245
-0.05641568 -0.029274656 0.021750927 -0.07903464 0.124396086 0.031456098 0.084265165 0.08221878
0.055011284 0.027098112 0.14127097 0.15990959 -0.09098763 -0.12844414 -0.1073147 0.11485727
0.046030104 0.09355668 -0.028777836 0.006274728 0.04388415 0.07674752 0.0680852 -0.07261499
-0.07867973 0.10639951 -0.12007674 -0.005219998 0.036120366 -0.047034416 -0.003085678 0.015746707
-0.08647431 0.025629077 -0.039853256 -0.03582677 -0.046675473 -0.05523683 0.008224256 -0.075686485
-0.07654172 -0.026919099 0.011533495 -0.09782474 -0.058726333 -0.0013860464 -0.09161281 0.032513138
0.06381214 0.0328294 -0.12896243 -0.11528724 0.13160768 0.020294702 0.07443689 -0.014721835
-0.0038084846 -0.015083139 -0.042264104 0.13642523 0.17460404 0.020731421 0.058806814 -0.0076629366
0.045676444 -0.078689285 -0.088299155 0.073592745 0.08932879 0.053984378 -0.09490915 0.058472592
0.046292383 0.019737013 -0.13893747 0.05871886 0.03296277 0.096219614 0.19601402 0.11880728
-0.12620288 -0.023994228 0.10672443 0.050853707 0.091460615 0.29583022 -0.18879321 -0.015856512
-0.10493182 -0.13443543 0.05375541 -0.078126214 -0.033829544 0.07068346 -0.20019697 0.1714377
-0.059914567 -0.24373777 0.11309741 0.011115498 -0.2831874 -0.0018107961 -0.013822412 0.022453409
0.009070815 -0.14146288 -0.080153644 0.04616333 -0.04523752 -0.00029740355 0.121219866 0.1625341
-0.021813098 -0.29147145 0.09705105 0.11674626 -0.17935048 -0.15500936 -0.10267206 -0.14927223
0.036288183 0.0459824 0.007566715 -0.15685184 -3.8990456e-05 0.12371179 -0.11166726 0.10050519
0.12817787 -0.0007718643 0.08533572 0.08553955 -0.029198738 0.107345976 0.023740651 0.029428845
0.13314946 0.027846357 -0.19360025 0.018675474 0.0998686 0.023974216 0.17448136 -0.07078915
0.07141671 0.045842167 0.019076128 -0.11104501 -0.20762709 -0.016981205 0.016830182 -0.06373451
0.05856771 -0.029973164 -0.20480315 -0.091676496 0.08602551 0.11838102 0.055030234 0.00949556
-0.16971348 -0.22472823 -0.1294452 0.15910064 -0.024143144 -0.037275437 0.038057886 -0.14719087
0.012051534 0.11138936 0.04182948 0.0037571439 0.049426503 -0.079693235 0.07071738 -0.050577223
-0.22246376 0.00064591225 -0.120109394 -0.03029628 0.037497494 -0.12831205 0.05063374 -0.07148734
0.1091499 -0.06830554 0.105169296 -0.021174395 0.050062437 0.0264424 0.00066775223 0.04381123
-0.047951918 0.028418504 0.03370746 0.039125733 0.04827128 -0.05919057 -0.076023035 -0.07977782
0.032391492 -0.109597236 0.03544441 0.048220694 0.08850848 0.08853043 -0.103307486 0.25103754
-0.14223461 0.04670568 0.03430982 -0.09824065 -0.08263733 -0.04920945 0.013051573 -0.0073562064
-0.06485437 0.113562636 0.021363964 -0.041233778 -0.102635175 0.057235714 -0.14066344 -0.03918093
00000000: b5bf 4d3e 8586 ab3d 162a aa3d 041a 40bd
00000010: 9595 1fbe 5d2f 1d3e 01fd 1b3d 5d31 243d
00000020: d3be 1d3e 89ba 83bd 8cff 0cbe 0bed 57bd
00000030: 374a 433e d5a9 9c3d d483 0abe 35a6 aebb
00000040: daef 0c3d cd9d 9a3e 5f1a 62be 19cf a2be
00000050: 9ece 55bd 3641 a5be 6997 65be 8431 b23d
00000060: c13c 613d e11b 27be f395 43bd f8ac 59bd
00000070: af05 61be c1cb a3bd ff68 8cbd 12ca 993d
00000080: 2114 67bd 67d1 efbc 002f b23c eadc a1bd
00000090: 60c3 fe3d 1cd8 003d 3793 ac3d 5262 a83d
000000a0: 8353 613d dcfc dd3c 56a9 103e 57bf 233e
000000b0: b957 babd dc86 03be cfc7 dbbd 4a3a eb3d
000000c0: 108a 3c3d a59a bf3d 7fbf ebbc 3c9c cd3b
000000d0: debf 333d ce2d 9d3d 4170 8b3d 2bb7 94bd
000000e0: d722 a1bd fce7 d93d cbea f5bd 840c abbb
000000f0: f3f2 133d 29a7 40bd 1639 4abb 3dff 803c
00000100: 7119 b1bd 12f4 d13c 2b3d 23bd 17bf 12bd
00000110: c82e 3fbd 0440 62bd 08bf 063c 8401 9bbd
00000120: e8c1 9cbd 7185 dcbc fcf6 3c3c 5658 c8bd
00000130: 068b 70bd 00ac b5ba 7f9f bbbd 7f2c 053d
00000140: f0af 823d 1f78 063d ba0e 04be b71b ecbd
00000150: 2ac4 063e 1341 a63c 5e72 983d da33 71bc
00000160: c597 79bb 451f 77bc 201d 2dbd 0eb3 0b3e
00000170: 67cb 323e f1d4 a93c 6adf 703d 5f19 fbbb
00000180: 3917 3b3d d927 a1bd 30d6 b4bd cbb7 963d
00000190: 03f2 b63d b91e 5d3d ba5f c2bd f580 6f3d
000001a0: 159d 3d3d 84af a13c a045 0ebe 3083 703d
000001b0: f803 073d ca0e c53d e6b7 483e 3b51 f33d
000001c0: 543b 01be 8b8f c4bc 5792 da3d fa4b 503d
000001d0: b44f bb3d 0f77 973e 0253 41be 84e5 81bc
000001e0: 7ee6 d6bd 71a9 09be a22e 5c3d a300 a0bd
000001f0: d990 0abd 7dc2 903d 6f00 4dbe 5d8d 2f3e
00000200: fa68 75bd 6596 79be 9d9f e73d c71d 363c
00000210: f0fd 90be 3c58 edba 6677 62bc 36f0 b73c
00000220: c19d 143c a5db 10be 9827 a4bd c315 3d3d
00000230: fa4a 39bd d4ec 9bb9 1f42 f83d 576f 263e
00000240: 62b1 b2bc bf3b 95be b3c2 c63d aa18 ef3d
00000250: a7a7 37be c6ba 1ebe bb45 d2bd d2da 18be
00000260: eba2 143d 0b58 3c3d 35f2 f73b c59d 20be
00000270: af89 23b8 9b5c fd3d ceb1 e4bd aad5 cd3d
00000280: 0f41 033e f056 4aba 7ec4 ae3d 5c2f af3d
00000290: 3132 efbc 35d8 db3d c17b c23c c314 f13c
000002a0: 5558 083e 0b1e e43c 253f 46be 4ffd 983c
000002b0: e987 cc3d 9365 c43c 3eab 323e e7f9 90bd
000002c0: ed42 923d ffc4 3b3d 8a45 9c3c 916b e3bd
000002d0: 329c 54be 2b1c 8bbc 73df 893c 3d87 82bd
000002e0: b2e4 6f3d 488a f5bc ebb7 51be e3c0 bbbd
000002f0: 252e b03d c071 f23d 6267 613d 4493 1b3c
00000300: 5fc9 2dbe 281f 66be 488d 04be 47eb 223e
00000310: d8c7 c5bc 21ae 18bd 96e2 1b3d 34b9 16be
00000320: cc73 453c 1b20 e43d 6455 2b3d 6a3a 763b
00000330: 7273 4a3d 3536 a3bd 46d4 903d 102a 4fbd
00000340: 8acd 63be 7052 293a eafb f5bd e72f f8bc
00000350: f996 193d 3c64 03be 5365 4f3d f467 92bd
00000360: fc89 df3d c6e3 8bbd 0063 d73d ed75 adbc
00000370: 450e 4d3d bb9d d83c 180c 2f3a 6873 333d
00000380: 3b69 44bd eccd e83c d510 0a3d 4e42 203d
00000390: 1bb8 453d d071 72bd f7b1 9bbd 8e62 a3bd
000003a0: f1ac 043d 8474 e0bd 282e 113d 1083 453d
000003b0: ef43 b53d 714f b53d e092 d3bd fe87 803e
000003c0: f3a5 11be 754e 3f3d 7488 0c3d 6532 c9bd
000003d0: c33d a9bd d98f 49bd 44d6 553c 550c f1bb
000003e0: 5ed2 84bd 8793 e83d 7b03 af3c c0e4 28bd
000003f0: 6432 d2bd ff6f 6a3d 140a 10be 2f7c 20bd

action_model._discrete_distribution.branches.0.bias f4 [3]
-0.09411098 0.10201256 -0.010359534
00000000: 42bd c0bd f6eb d03d 09bb 29bc

action_model._discrete_distribution.branches.1.weight f4 [3, 128]
-0.05928017 -0.08109365 -0.31775197 0.025138017 0.057037145 -0.0759061 -0.049591586 0.17971756
-0.07016897 0.28883892 -0.118629746 0.01928815 -0.03147583 0.19621849 0.04926123 -0.048695713
-0.039283346 0.050683647 0.22530252 -0.08103196 0.061565593 -0.052780744 -0.0910602 -0.07382903
-0.36250213 0.064934514 0.09660915 -0.02567192 0.016477183 -0.103063166 0.13065732 -0.069479495
-0.0026636436 0.11917881 0.11613582 0.024360593 0.21928309 -0.14515099 0.010014151 -0.07235906
-0.06646043 0.18902902 0.0812297 -0.076198384 -0.20506027 0.01356384 -0.029511586 -0.10037462
0.060188334 -0.035093468 0.022972707 -0.2716503 -0.1410787 0.052424222 -0.51674765 0.04762254
-0.03484815 -0.0020726097 -0.104039475 -0.25126004 0.0582588 -0.086264014 -0.109526165 -0.46944824
-0.105297126 -0.00065134146 0.21330653 0.103089474 -0.48062986 0.26688647 0.10833281 0.08378453
-0.044627253 0.037943985 0.06521638 0.041932076 -0.11718454 -0.10512906 -0.07834445 -0.06560293
0.010611803 -0.5335843 0.003380529 -0.018717615 -0.010231362 0.072611935 0.14424044 0.069324
0.07224723 0.07830593 -0.0013402638 0.063594356 -0.026084788 0.116549745 -0.053630535 0.06567011
-0.05140635 0.0045227483 0.03163631 0.0071136532 -0.25960097 0.02568947 -0.018486066 0.012611317
-0.14874542 -0.034481645 -0.06174307 -0.06314147 -0.3886318 -0.08746341 0.045610655 -0.048421033
0.003435567 -0.065963455 0.12828323 0.052560642 0.12841997 0.22158262 0.030751841 0.046192646
-0.057332948 0.011711947 -0.0798853 -0.016599862 0.084294505 0.016577551 0.007628445 0.006936348
0.08143648 -0.22771385 0.10352783 -0.04298658 -0.02743541 0.014478583 0.051473767 -0.041737597
-0.049814753 -0.0858075 0.05045586 0.049499255 0.047402136 -0.056993503 -0.061288964 0.087752536
0.043674916 -0.038708538 -0.1316538 0.00096945994 -0.024802878 -0.075331494 0.12674606 -0.1780375
0.07326662 0.1436827 -0.1420924 -0.01826634 0.024911128 -0.08407298 -0.0017095566 0.0050989655
-0.034375187 0.08566035 -0.05856737 -0.07869445 -0.01219337 0.0060554952 -0.039684407 0.018863268
-0.0011866479 -0.07283852 -0.018749883 0.07138309 -0.007127568 0.06447606 0.045843843 -0.013353417
-0.04896487 -0.07766055 0.0981515 -0.03219747 -0.07537895 -0.032454595 0.09398384 -0.019074082
0.07518953 -0.00010323751 -0.13368689 -0.09125748 0.060708225 0.09129902 0.054855604 0.092183776
-0.08983859 -0.05375508 0.012321394 0.115420096 0.10765564 -0.11651688 -0.011753723 -0.00635994
0.008376641 -0.12175587 -0.04890936 0.08064522 -0.00031829037 0.025741518 0.013558046 -0.0035837397
-0.13652164 0.15705886 -0.10327024 0.035141777 0.085247636 0.0101564545 0.010544345 -0.037314046
-0.097271115 0.0010342398 0.039385796 0.18402988 0.09843806 -0.04051275 -0.01693995 -0.03206036
0.0049892752 0.055205416 0.08206186 0.08903222 -0.036429446 0.12258701 -0.06457428 -0.0009335839
-0.04513771 0.13778152 0.0897483 -0.05785098 0.013009409 -0.029810177 -0.08849501 0.122438826
-0.105294414 0.103031784 0.02735353 0.052272793 0.02512519 0.04416269 -0.022182284 0.057473555
0.027880069 -0.028391011 0.039941598 0.10762599 -0.0764991 -0.026972245 0.058483277 0.054932807
00000000: c3cf 72bd 6d14 a6bd 63b0 a2be 3eee cd3c
00000010: c89f 693d a874 9bbd 8c20 4bbd e107 383e
00000020: c0b4 8fbd b2e2 933e 27f4 f2bd 2f02 9e3c
00000030: cdec 00bd 80ed 483e 25c6 493d 2875 47bd
00000040: 93e7 20bd a899 4f3d b4b5 663e 16f4 a5bd
00000050: 342c 7c3d 9f30 58bd c57d babd ad33 97bd
00000060: e199 b9be 63fc 843d 05db c53d eb4d d2bc
00000070: 28fb 863c c812 d3bd 08cb 053e 444b 8ebd
00000080: 8690 2ebb 0514 f43d 9ed8 ed3d de8f c73c
00000090: bf8b 603e 76a2 14be 6512 243c fd30 94bd
000000a0: 681c 88bd d390 413e c25b a63d e60d 9cbd
000000b0: 52fb 51be de3a 5e3c 48c2 f1bc 3591 cdbd
000000c0: 0b88 763d 2bbe 0fbd 4231 bc3c c015 8bbe
000000d0: ef76 10be c8ba 563d 9349 04bf da0f 433d
000000e0: efbc 0ebd 9fd4 07bb a612 d5bd 28a5 80be
000000f0: c8a0 6e3d 30ab b0bd 414f e0bd 855b f0be
00000100: 05a6 d7bd c9be 2aba 076d 5a3e 9320 d33d
00000110: 1e15 f6be 58a5 883e 98dd dd3d 3997 ab3d
00000120: 11cb 36bd 276b 1b3d 2a90 853d f8c0 2b3d
00000130: 73fe efbd e84d d7bd 0e73 a0bd d45a 86bd
00000140: 21dd 2d3c fb98 08bf dd8b 5d3b af55 99bc
00000150: 71a1 27bc 91b5 943d c4b3 133e bef9 8d3d
00000160: 5bf6 933d dc5e a03d caab afba c23d 823d
00000170: c4af d5bc a2b1 ee3d b1ab 5bbd 0d7e 863d
00000180: 778f 52bd 9033 943b 1395 013d a619 e93b
00000190: 6bea 84be b972 d23c 1770 97bc b39f 4e3c
000001a0: b850 18be a03c 0dbd 4de6 7cbd 5150 81bd
000001b0: bffa c6be 0420 b3bd 3dd2 3a3d 2255 46bd
000001c0: 4027 613b d917 87bd ae5c 033e d449 573d
000001d0: 8680 033e 8ee6 623e 49eb fb3c 8034 3d3d
000001e0: f4d5 6abd 77e3 3f3c e79a a3bd 6ffc 87bc
000001f0: 99a2 ac3d a5cd 873c 09f8 f93b 4e4a e33b
00000200: 2bc8 a63d d22d 69be 6606 d43d b212 30bd
00000210: 3ac0 e0bc 9437 6d3c 28d6 523d 0bf5 2abd
00000220: 8e0a 4cbd d8bb afbd ceaa 4e3d bbbf 4a3d
00000230: be28 423d 0572 69bd 230a 7bbd 9ab7 b33d
00000240: 78e4 323d d88c 1ebd 41d0 06be 5b23 7e3a
00000250: 682f cbbc 6647 9abd b8c9 013e 764f 36be
00000260: cf0c 963d 8f21 133e ac80 11be 4ba3 95bc
00000270: 6c12 cc3c 742e acbd 3313 e0ba 3915 a73b
00000280: ffcc 0cbd b26e af3d 57e4 6fbd 8e2a a1bd
00000290: b3c6 47bc 2d6d c63b 1e8c 22bd 2487 9a3c
000002a0: 4c89 9bba 5d2c 95bd 5b99 99bc 4c31 923d
000002b0: 608e e9bb 060c 843d c1c6 3b3d 4ac8 5abc
000002c0: 638f 48bd 7f0c 9fbd a703 c93d 7fe1 03bd
000002d0: 4760 9abd 1cef 04bd 997a c03d 4041 9cbc
000002e0: f8fc 993d 3781 d8b8 37e5 08be 34e5 babd
000002f0: 30a9 783d fbfa ba3d 45b0 603d d9ca bc3d
00000300: 4bfd b7bd 492e 5cbd acdf 493c 5f61 ec3d
00000310: 8f7a dc3d 67a0 eebd b092 40bc 0b67 d0bb
00000320: 2e3e 093c 245b f9bd 2e55 48bd 5229 a53d
00000330: 36e0 a6b9 e0df d23c 9122 5e3c 2ddd 6abb
00000340: 54cc 0bbe 0ad4 203e 597f d3bd d3f0 0f3d
00000350: 5096 ae3d 4267 263c 30c2 2c3c 9dd6 18bd
00000360: 1436 c7bd 548f 873a 0053 213d 5472 3c3e
00000370: e599 c93d b3f0 25bd a6c5 8abc b951 03bd
00000380: 137d a33b 131f 623d 0c10 a83d 8656 b63d
00000390: 0b37 15bd e60e fb3d 853f 84bd c1bb 74ba
000003a0: 52e2 38bd 9916 0d3e f5cd b73d 26f5 6cbd
000003b0: 6b25 553c 7934 f4bc df3c b5bd 35c1 fa3d
000003c0: 99a4 d7bd 5402 d33d 8314 e03c ff1b 563d
000003d0: 58d3 cd3c f0e3 343d 9fb7 b5bc 6469 6b3d
000003e0: be64 e43c 4494 e8bc cd99 233d 046b dc3d
000003f0: 8fab 9cbd e6f4 dcbc 298c 6f3d 3901 613d

action_model._discrete_distribution.branches.1.bias f4 [3]
0.01008539 -0.063899614 0.05691214
00000000: 313d 253c cddd 82bd b41c 693d

action_model._discrete_distribution.branches.2.weight f4 [3, 128]
-0.12318297 0.044913355 0.24770461 -0.22804461 0.16101354 0.08360538 -0.030330569 -0.058516014
0.10258092 -0.2802281 -0.043214716 0.0064565083 -0.1388052 -0.03379197 -0.050425418 -0.11850228
-0.41417992 -0.074079655 0.1652109 0.06699974 0.117623806 -0.11540025 -0.23371033 0.045677632
0.13718036 -0.14463398 0.22271398 0.11959389 -0.016567836 0.00962064 0.26330745 -0.24636309
0.14873564 0.14816035 -0.12867944 0.045080863 -0.3605823 0.1832645 0.043227017 -0.012136801
0.17618588 -0.06077647 0.08243254 -0.31886154 0.041392475 -0.059606038 -0.21715179 0.16392441
-0.22627287 0.16038297 0.037072405 -0.12315553 0.085994065 0.3158466 0.13548313 0.029281799
-0.18313566 -0.14289229 0.021847304 -0.04641549 -0.26048028 -0.18126842 0.10289943 -0.028026337
0.020619225 0.14227445 -0.11984308 0.15106003 -0.112532854 -0.39072853 -0.07241289 -0.2695164
-0.09671234 0.20692775 -0.04985437 -0.2878323 -0.120364115 0.054393563 -0.21877822 -0.0036063814
0.17809504 0.04057363 -0.0061169914 0.08026956 -0.26936632 0.076590806 0.17915477 -0.042068973
0.017019117 -0.0023354355 -0.01218076 -0.025649216 0.061791763 0.27291095 -0.037983734 -0.027221063
0.13992861 -0.17816369 0.041127756 -0.14687955 0.03261747 -0.12291692 -0.098278515 -0.19637352
0.111124285 -0.22719404 -0.2415719 -0.15400569 0.16612057 0.11366265 0.052596632 -0.15916294
0.17202955 -0.28546444 0.036748406 -0.21786457 0.19288489 -0.297287 0.13445505 -0.04336345
-0.023015969 -0.053710014 -0.21127109 -0.2843391 -0.10808736 0.17329504 -0.11534108 -0.24191664
0.098497756 -0.024136038 -0.17538723 0.056229346 -0.019085355 0.0072454135 0.054908853 0.045921654
-0.15578306 0.081087574 0.007649319 -0.05214355 -0.008030358 0.017485017 0.018181918 0.08383986
0.032285113 -0.0017033167 -0.021324854 0.030007655 0.05272509 0.004248984 -0.1284611 0.06906668
0.0012220491 0.09018088 -0.07796632 0.017585631 -0.01437172 -0.020215474 0.03726582 0.023986064
0.05401946 0.03099544 0.040895704 0.03716312 0.04870639 -0.057647027 0.031772934 -0.018771028
-0.020774918 0.055238172 -0.05789537 0.015579311 0.041995186 -0.05083985 0.09693255 -0.021102542
0.09912584 -0.16115803 0.01984286 0.07073223 -0.03423011 -0.028170764 -0.0050081816 0.013665944
-0.013821874 -0.093787186 -0.039775092 0.015188891 0.048696797 0.06754265 -0.077103175 0.036220297
-0.008771239 0.032288417 0.07435393 0.04787394 -0.019493228 0.12223984 0.011865022 0.05601427
0.052895855 -0.061044298 0.0108186845 -0.05125728 0.02830856 0.011044518 0.01938907 -0.043295905
0.0039421595 0.03949915 -0.04450122 0.00540659 0.11175308 0.015660036 -0.0075382637 -0.009382573
-0.008794037 -0.004337888 -0.001620225 -0.09310367 -0.11790966 -0.040545844 0.08797298 0.021475412
0.012421518 0.13397914 -0.063823655 -0.020762756 -0.05197599 -0.088386744 -0.040773496 0.0374244
0.008020385 -0.25897866 -0.0410358 -0.185115 -0.0069564143 0.017685749 -0.043341313 0.0058539165
-0.07702342 0.028091138 -0.023944775 -0.004852498 0.03236945 -0.05260676 0.025872933 0.014707939
0.015139327 0.015126239 0.08554533 -0.047633067 0.073139295 -0.04319572 -0.019616969 0.15287583
00000000: 5a47 fcbd 11f7 373d 47a6 7d3e 8784 69be
00000010: bce0 243e 4c39 ab3d d077 f8bc 7dae 6fbd
00000020: f215 d23d 0f7a 8fbe ea01 31bd 1e91 d33b
00000030: f322 0ebe 7369 0abd e28a 4ebd 53b1 f2bd
00000040: 640f d4be 13b7 97bd 0c2d 293e 2937 893d
00000050: c0e4 f03d f756 ecbd c351 6fbe 7818 3b3d
00000060: 0279 0c3e ee1a 14be 220f 643e a4ed f43d
00000070: 45b9 87bc e49f 1d3c 3cd0 863e 9b46 7cbe
00000080: 284e 183e 59b7 173e 8bc4 03be b6a6 383d
00000090: 3e9e b8be b0a9 3b3e d00e 313d 6fd9 46bc
000000a0: 126a 343e bff0 78bd 64d2 a83d d241 a3be
000000b0: 288b 293d 7625 74bd 0a5d 5ebe cddb 273e
000000c0: 13b4 67be 6f3b 243e 3cd9 173d f738 fcbd
000000d0: a81d b03d a5b6 a13e 17bc 0a3e 62e0 ef3c
000000e0: ea87 3bbe 5b52 12be 1ef9 b23c 2b1e 3ebd
000000f0: ac5d 85be 6e9e 39be f0bc d23d 7d97 e5bc
00000100: a6e9 a83c 65b0 113e 4a70 f5bd 7baf 1a3e
00000110: a077 e6bd 920d c8be 364d 94bd 0efe 89be
00000120: 1f11 c6bd dee4 533e 1934 4cbd c15e 93be
00000130: 7681 f6bd c9cb 5e3d 6607 60be 0a59 6cbb
00000140: 8c5e 363e 8930 263d 0b71 c8bb 5e64 a43d
00000150: 62ea 89be a4db 9c3d 5974 373e 8450 2cbd
00000160: ad6b 8b3c 1b0e 19bb cf91 47bc 4e1e d2bc
00000170: 5c19 7d3d fcba 8b3e d594 1bbd b5fe debc
00000180: 7249 0f3e 8b70 36be 9475 283d 9867 16be
00000190: e599 053d debb fbbd 3f46 c9bd 2416 49be
000001a0: 2195 e33d 8ea5 68be a05e 77be abb3 1dbe
000001b0: 831b 2a3e f7c7 e83d 916f 573d 9cfb 22be
000001c0: 8428 303e 6528 92be 7f85 163d e417 5fbe
000001d0: 9e83 453e 0036 98be 96ae 093e df9d 31bd
000001e0: fc8b bcbc 08ff 5bbd 7357 58be e594 91be
000001f0: e85c ddbd 4174 313e f237 ecbd ffb8 77be
00000200: 31b9 c93d f1b8 c5bc b698 33be be50 663d
00000210: e458 9cbc ef6a ed3b 1be8 603d 5818 3c3d
00000220: 9885 1fbe 3e11 a63d 23a7 fa3b 7a94 55bd
00000230: c391 03bc bd3c 8f3c 3ff2 943c 3cb4 ab3d
00000240: 653d 043d d341 dfba 76b1 aebc 9dd2 f53c
00000250: 44f6 573d 103b 8b3b 4e8b 03be d572 8d3d
00000260: 2a2d a03a c1b0 b83d ceac 9fbd be0f 903c
00000270: 5d77 6bbc ec9a a5bc 0ba4 183d 6c7e c43c
00000280: 8243 5d3d 26ea fd3c 4182 273d 5b38 183d
00000290: 5a80 473d 4a1f 6cbd 5624 023d b3c5 99bc
000002a0: 2930 aabc 6c41 623d b223 6dbd 5e40 7f3c
000002b0: 2503 2c3d 723d 50bd 9384 c63d 3ddf acbc
000002c0: 7d02 cb3d 9c06 25be 7e8d a23c 0fdc 903d
000002d0: df34 0cbd 60c6 e6bc ac1b a4bb 20e7 5f3c
000002e0: 2475 62bc 7f13 c0bd 35eb 22bd d4da 783c
000002f0: 4b76 473d cd53 8a3d 45e8 9dbd bc5b 143d
00000300: 3eb5 0fbc dc40 043d e046 983d 7717 443d
00000310: 43b0 9fbc e258 fa3d 8265 423c 386f 653d
00000320: 53a9 583d 9609 7abd da40 313c 27f3 51bd
00000330: 5ae7 e73c 11f4 343c d4d5 9e3c 0c57 31bd
00000340: 3b2d 813b dcc9 213d e946 36bd c429 b13b
00000350: ccde e43d 7a49 803c 8a03 f7bb 5db9 19bc
00000360: dd14 10bc d824 8ebb bb5d d4ba 23ad bebd
00000370: 9f7a f1bd 6613 26bd 2e2b b43d 34ed af3c
00000380: 9f83 4b3c d431 093e fab5 82bd a816 aabc
00000390: c7e4 54bd 1c04 b5bd 1c02 27bd 544a 193d
000003a0: ef67 033c da98 84be 2815 28bd c98e 3dbe
000003b0: a2f2 e3bb b4e1 903c a986 31bd 36d2 bf3b
000003c0: 74be 9dbd 631f e63c d527 c4bc b401 9fbb
000003d0: d495 043d 307a 57bd 79f3 d33c 91f9 703c
000003e0: f10a 783c 0bd4 773c 6432 af3d e41a 43bd
000003f0: 0eca 953d ffed 30bd c4b3 a0bc 7b8b 1c3e

action_model._discrete_distribution.branches.2.bias f4 [3]
-0.005137882 0.008570553 -0.0021561235
00000000: ae5b a8bb 816b 0c3c c04d 0dbb

action_model._discrete_distribution.branches.3.weight f4 [3, 128]
-0.087981544 0.00676927 -0.02667973 0.014007375 0.17705214 0.101815894 -0.3516581 0.087398365
0.021364754 -0.0796884 0.10586691 -0.06019533 -0.015354062 0.065756224 -0.10490389 -0.05294759
-0.13438743 0.30493307 -0.0026126516 -0.05030749 0.30345693 -0.31360215 -0.04976142 0.05770995
0.09091042 0.123275824 0.113492705 0.13073604 0.00011867228 -0.07585911 0.18379816 -0.15341519
0.109269306 -0.044593457 0.021293236 0.017879618 0.14506339 -0.07532159 -0.09008113 -0.09886919
-0.09665975 0.042401887 0.031244276 -0.056883488 -0.05500623 0.32095528 0.0009916913 0.035681337
0.03065769 0.1046599 -0.12685663 0.060664233 -0.06790622 0.017247284 0.01042292 0.14300545
0.062120702 0.029761326 0.2009224 -0.17424713 0.033653785 -0.07205035 0.24987617 0.012752192
0.21639659 -0.073422536 0.23177308 -0.23014109 -0.033533983 -0.0056344527 0.07154891 -0.10974055
-0.08041646 -0.00042152414 0.036358736 -0.010623303 0.007834418 -0.008412115 0.088195644 0.10510668
0.046249967 -0.021556417 0.094998874 0.108567156 -0.04344384 0.061156288 -0.1253397 -0.0033432266
-0.10130326 0.14353712 -0.08654406 0.35385787 0.19882953 -0.025554962 -0.035207536 0.02929349
-0.05274275 0.038376458 0.010788793 -0.018031444 0.013147995 0.14304627 0.08126445 0.0044692997
0.18240383 -0.022734385 0.08080577 -0.13116604 -0.059034474 -0.04125702 -0.19979969 -0.0029726096
-0.010494943 0.0017658095 0.20061326 0.007800325 0.028944006 0.04128604 0.039158307 -0.029482316
0.05516861 -0.01121205 -0.20077506 -0.048155274 -0.24314211 -0.0079136295 0.17941634 0.05441044
0.048713982 0.043872688 0.05093732 0.08504669 -0.13973561 -0.060553282 0.13902567 0.037468493
0.04099696 -0.053870413 -0.16318801 0.008608911 0.021956107 0.10470158 -0.008682981 0.038718957
0.016911292 -0.28051245 -0.0024908325 0.03052509 -0.17792803 0.31353915 0.069084294 0.026214866
-0.11095801 -0.08355577 -0.008685211 -0.07629496 -0.12160951 0.081977226 -0.14718613 0.12992328
-0.0032857975 -0.13799839 -0.0030850435 0.0007471049 0.053511307 0.008271591 0.0076009985 -0.011156791
0.036423016 -0.033480406 0.081602044 0.11363405 0.010050399 -0.25709453 0.06666163 0.038887862
-0.019366043 0.050457258 -0.022895245 0.044982694 0.093038656 0.0318644 0.022909418 -0.120931916
-0.0120175425 0.028438736 -0.06619642 0.13325617 0.088612564 0.0195745 -0.23101062 -0.04406721
-0.1304 0.11627299 -0.11814779 0.062051326 -0.031070659 0.07063999 -0.06964713 0.2010939
0.09949241 -0.0084409155 -0.07139964 0.07020249 0.03511438 0.08298066 0.020999681 -0.13980699
0.06203644 -0.045619722 -0.01395904 -0.21646944 0.102536805 -0.030160189 0.049386058 0.043276943
0.051696017 -0.09781544 -0.016369587 -0.40610728 -0.26677048 0.067933105 0.03270803 -0.040651966
0.09431576 -0.07717621 -0.07884407 0.1062746 -0.0049260226 -0.21783903 -0.042065803 0.04014043
-0.100073166 -0.018015195 0.029833429 -0.020580392 0.035029285 0.0058598267 0.25765735 0.055103388
0.019529782 -0.017871909 0.027717104 0.041276325 0.064714804 -0.03914795 0.073903024 0.023377154
-0.10020182 0.012088411 -0.062261913 0.087944545 0.12251091 0.114736885 -0.07182782 0.12101179
00000000: ab2f b4bd c1d0 dd3b 738f dabc 307f 653c
00000010: 284d 353e da84 d03d 880c b4be eafd b23d
00000020: 2305 af3c ac33 a3bd c0d0 d83d 618f 76bd
00000030: 9b8f 7bbc 33ab 863d dad7 d6bd 92df 58bd
00000040: dc9c 09be 3020 9c3e 0539 2bbb 3a0f 4ebd
00000050: b55e 9b3e 7690 a0be a1d2 4bbd 4561 6c3d
00000060: 3e2f ba3d 0978 fc3d dd6e e83d abdf 053e
00000070: b2df f838 055c 9bbd 9635 3c3e df18 1dbe
00000080: 96c8 df3d a1a7 36bd 276f ae3c 4778 923c
00000090: 7f8b 143e 3542 9abd 757c b8bd ee7b cabd
000000a0: 8cf5 c5bd 9aad 2d3d fff3 ff3c a9fe 68bd
000000b0: 364e 61bd 4054 a43e a3fb 813a 9826 123d
000000c0: d625 fb3c ee57 d63d b4e6 01be 0f7b 783d
000000d0: 6b12 8bbd 2d4a 8d3c e5c4 2a3c 0570 123e
000000e0: 4772 7e3d 06ce f33c 9abe 4d3e d76d 32be
000000f0: 8dd8 093d 228f 93bd 8adf 7f3e 92ee 503c
00000100: 1197 5d3e 8e5e 96bd ec55 6d3e 1baa 6bbe
00000110: ee5a 09bd 37a1 b8bb 3c88 923d a7bf e0bd
00000120: 63b1 a4bd 0300 ddb9 e6ec 143d 5d0d 2ebc
00000130: ee5b 003c f8d2 09bc eb9f b43d 2c42 d73d
00000140: 9b70 3d3d 1597 b0bc c58e c23d 7558 de3d
00000150: 2bf2 31bd 047f 7a3d 0d59 00be 091a 5bbb
00000160: 1578 cfbd 65fb 123e 033e b1bd dc2c b53e
00000170: f899 4b3e a458 d1bc c735 10bd e7f8 ef3c
00000180: c808 58bd a230 1d3d 7ac3 303c aeb6 93bc
00000190: b06a 573c b97a 123e fa6d a63d 3473 923b
000001a0: 12c8 3a3e 763d babc 7f7d a53d 6450 06be
000001b0: 22ce 71bd 1ffd 28bd 4a98 4cbe 1dd0 42bb
000001c0: fbf2 2bbc bc72 e73a 906d 4d3e de99 ff3b
000001d0: fb1b ed3c 8d1b 293d 7664 203d e684 f1bc
000001e0: 7bf8 613d bfb2 37bc fa97 4dbe 773e 45bd
000001f0: 3ffa 78be 2ba8 01bc ebb8 373e 7bdd 5e3d
00000200: 5088 473d d9b3 333d a7a3 503d f62c ae3d
00000210: da16 0fbe b806 78bd bf5c 0e3e 9078 193d
00000220: 6eec 273d 39a7 5cbd c21a 27be 640c 0d3c
00000230: 4bdd b33c c86d d63d 1043 0ebc c597 1e3d
00000240: 8d89 8a3c 549f 8fbe 3c3d 23bb c10f fa3c
00000250: c432 36be 3488 a03e 117c 8d3d 8fc0 d63c
00000260: f43d e3bd 4a1f abbd 6a4c 0ebc 8840 9cbd
00000270: 680e f9bd ade3 a73d f6b7 16be 9c0a 053e
00000280: 8956 57bb 734f 0dbe 712e 4abb 5cd9 433a
00000290: ac2e 5b3d 9185 073c cc11 f93b f9ca 36bc
000002a0: 4d30 153d c022 09bd f91e a73d f8b8 e83d
000002b0: 6eaa 243c e5a1 83be e585 883d e148 1f3d
000002c0: 89a5 9ebc 45ac 4e3d cf8e bbbc c63f 383d
000002d0: 0d8b be3d 3f84 023d 88ac bb3c 27ab f7bd
000002e0: 3ae5 44bc 5af8 e83c fd91 87bd 4e74 083e
000002f0: 817a b53d b45a a03c 0c8e 6cbe d27f 34bd
00000300: 9487 05be 8920 ee3d 78f7 f1bd 8829 7e3d
00000310: e587 febc b3ab 903d 28a3 8ebd 8feb 4d3e
00000320: adc2 cb3d c44b 0abc f939 92bd 53c6 8f3d
00000330: 19d4 0f3d c4f1 a93d 8607 ac3c 9029 0fbe
00000340: ec19 7e3d bfdb 3abd 75b4 64bc 2aaa 5dbe
00000350: d1fe d13d 8012 f7bc 0949 4a3d 2a43 313d
00000360: 34bf 533d 7653 c8bd 8319 86bc 4bed cfbe
00000370: 2496 88be 8320 8b3d dbf8 053d ad82 26bd
00000380: 9f28 c13d 900e 9ebd 0079 a1bd 7fa6 d93d
00000390: 796a a1bb 3211 5fbe 314d 2cbd 4b6a 243d
000003a0: 29f3 ccbd 9a94 93bc 3c65 f43c 3698 a8bc
000003b0: de7a 0f3d ca03 c03b aaeb 833e 17b4 613d
000003c0: ecfc 9f3c 1c68 92bc fb0e e33c 5d11 293d
000003d0: 3289 843d 9a59 20bd 785a 973d 7281 bf3c
000003e0: 9d36 cdbd 780e 463c 5906 7fbd 451c b43d
000003f0: 00e7 fa3d 2cfb ea3d 771a 93bd 08d5 f73d

action_model._discrete_distribution.branches.3.bias f4 [3]
-0.051087607 0.0044938778 0.04773751
00000000: 3d41 51bd 6141 933b 6888 433d
