ArmRobot/Assets/Config/results/intentoCilindro/AgenteCarro/AgenteCarro-385760.onnx (onnx, 74199 bytes, 8 tensors)

58 f4 [7]
0	0x3ed45cba	0.41476995
1	0x3e32b55e	0.17451999
2	0x3b789eb0	0.0037936382
3	0x3e28e7f1	0.16494729
4	0x3e5afbce	0.21385118
5	0x3b8b3890	0.004248686
6	0x3e5dd363	0.21662669

action_model._discrete_distribution.branches.0.bias f4 [3]
0	0xbb99744f	-0.0046830545
1	0x3c8f306d	0.017479146
2	0xbbf9438e	-0.00760693

action_model._discrete_distribution.branches.0.weight f4 [3, 128]
0	0xbc7319c6	-0.014837688
1	0x3c4e8364	0.012604568
2	0x3c91be62	0.017790977
3	0xbd60ab8b	-0.054851096
4	0xbc16db0e	-0.0092075
5	0xbd5d461b	-0.054021936
6	0x3af27249	0.0018497194
7	0x39c1c7dd	0.00036960738
8	0x3be81f7b	0.007083831
9	0x3c8d52e5	0.017251441
10	0x3befd195	0.0073186853
11	0x3cdeb90a	0.027187843
12	0xbce23008	-0.027610794
13	0xbbbc49a3	-0.005746083
14	0xbc2fd262	-0.0107313115
15	0x3cc7271c	0.024310641
16	0x3cbf9107	0.023384584
17	0xbc1cfc0c	-0.009581577
18	0x3c83221e	0.01600748
19	0x3ce73037	0.028221233
20	0x3cf2d8d3	0.029644405
21	0x3c595122	0.0132639725
22	0x3ab48c6c	0.0013774759
23	0xbcee6f9b	-0.029105952
24	0x3c056ee1	0.008144111
25	0x3c8f9cef	0.017530886
26	0xbbba68b8	-0.005688753
27	0x3ba23265	0.004949855
28	0xbc584fc7	-0.013202614
29	0x3d1d16de	0.038351886
30	0xbd9cb280	-0.07651234
31	0x3d00afca	0.031417646
32	0xbc7fb845	-0.015607898
33	0xbb94504f	-0.004526175
34	0x3cedcf96	0.029029649
35	0x3b9d634b	0.0048030964
36	0x3caad174	0.020851828
37	0xbb783bcb	-0.0037877436
38	0x3cbf334b	0.023339888
39	0x3d272d3f	0.040814634
40	0xbd9ee8e2	-0.077592626
41	0x3cb248a7	0.021763159
42	0xbca4d1f6	-0.020119648
43	0x3d45b2dd	0.04826628
44	0x3cbf5feb	0.023361167
45	0x3d1ec752	0.038764305
46	0x3a390b1a	0.0007058844
47	0x3bdb68a9	0.006695826
48	0x3c009953	0.007849055
49	0xbdceb8cf	-0.10093843
50	0xbb48b16b	-0.0030623327
51	0x3d0bb3a9	0.034106884
52	0x3c1bd136	0.009510329
53	0x3b2d48cd	0.0026441098
54	0x3c938892	0.018009458
55	0x3c82510d	0.015907789
56	0x3d0076cb	0.03136329
57	0x3c423d5b	0.011855449
58	0x3bf445b3	0.007454598
59	0xbb9b4227	-0.0047381106
60	0xbc9d6b39	-0.019216167
61	0xbb6483cc	-0.0034868596
62	0x3c5ca120	0.01346615
63	0x3c955d7d	0.018233055
64	0x3c49b082	0.012310149
65	0x3cc17c6d	0.023618901
66	0x3cdb0bc3	0.026739007
67	0xbb24f081	-0.0025167766
68	0xbb04566e	-0.0020193118
69	0x3d10f3c3	0.03538872
70	0x3c596d61	0.013270707
71	0x3c55142d	0.013005299
72	0x3be1d693	0.0068920343
73	0x3c586bd3	0.013209301
74	0x3c83abcb	0.016073128
75	0x3c40c7d4	0.011766393
76	0x3c869953	0.016430533
77	0x3c47cafd	0.012194392
78	0x3b94d4a5	0.0045419508
79	0x3cca2b5f	0.024678884
80	0xbafc66f7	-0.001925676
81	0x3ca744eb	0.020418605
82	0x3c0614d7	0.00818368
83	0x3ca3e66f	0.02000734
84	0xba8e76b6	-0.0010869119
85	0x3cd5f5a0	0.0261181
86	0x3b8bb505	0.0042635226
87	0x3bed7eed	0.0072477967
88	0x3cb63460	0.022241771
89	0x3cb4770f	0.022029428
90	0xbbfb43c4	-0.0076679904
91	0x3c3b050a	0.011414776
92	0xbc842b13	-0.01613382
93	0xbd223e13	-0.03960998
94	0xbd89074a	-0.066908434
95	0xba8a34bc	-0.001054428
96	0x3c5e3996	0.013563534
97	0x3bc522d1	0.0060161133
98	0x3bc8d5ba	0.006128994
99	0xbc2eb751	-0.010663823
100	0x3c695ba9	0.014243045
101	0x3c039f77	0.008033625
102	0x3b88aa4c	0.0041706916
103	0x3bac5af9	0.005259868
104	0x3c7e8d25	0.015536581
105	0x3c5ecc08	0.0135984495
106	0x3c9411e7	0.018074943
107	0x3c9f74e3	0.019464916
108	0x3ca089b0	0.019596905
109	0xbc1f5f71	-0.009727345
110	0x3ce79c66	0.028272819
111	0x3c8d6fff	0.017265318
112	0x3b8b5014	0.0042514894
113	0xbcb71ee2	-0.022353593
114	0x3c85b0b9	0.01631962
115	0xbbbb40bc	-0.005714504
116	0x3ce547e2	0.027988378
117	0x3c490239	0.012268596
118	0x3c5e339e	0.013562111
119	0x3b16eae4	0.002302819
120	0xbb9262a2	-0.0044673244
121	0x3b953bb4	0.0045542363
122	0x3b137698	0.0022501107
123	0x3d007948	0.031365663
124	0x3cf8c760	0.030368507
125	0xbd915288	-0.0709582
126	0x3c4223d2	0.011849361
127	0xbc353715	-0.011060496
128	0xbd8c42df	-0.06848692
129	0xbcf1aee8	-0.029502347
130	0x3d917068	0.07101518
131	0xbd92b6b7	-0.07163756
132	0xbbc928e1	-0.0061389063
133	0xbdb5b686	-0.08872704
134	0x3d85203b	0.06500288
135	0x3cc7ce43	0.024390345
136	0xbd226d35	-0.03965493
137	0xbd1775ce	-0.03697758
138	0x3d01aa04	0.03165628
139	0x3b280fda	0.0025644214
140	0x3c04a775	0.0080965655
141	0x3d036110	0.032074988
142	0xbd94104c	-0.07229671
143	0x3dec1943	0.11528256
144	0xbbbdb50e	-0.0057894057
145	0xba30e7cd	-0.0006748408
146	0xbccb0da9	-0.024786787
147	0x3d7a0913	0.06104381
148	0x3dc856da	0.097821906
149	0xbd10acb0	-0.035320938
150	0x3d9c6f67	0.07638436
151	0xbd9e633c	-0.07733771
152	0xbcb11519	-0.021616505
153	0x3bf599b1	0.007495128
154	0x3ca6aee7	0.020347072
155	0xbcd7d49a	-0.026346494
156	0x3db32f58	0.087492645
157	0x3d89cc9f	0.067284815
158	0xbc7c18b1	-0.015386746
159	0xbcb2d6f1	-0.021831008
160	0xbd89953f	-0.067179196
161	0xbc77b537	-0.015118889
162	0xbd1b1e1b	-0.037870508
163	0xbd8d6768	-0.06904489
164	0x3dbd4c2c	0.09243044
165	0x3dc85d7d	0.097834565
166	0xbcae38df	-0.021267353
167	0x3bccf194	0.0062543843
168	0xbc6eef19	-0.0145833725
169	0xbd5b4d34	-0.053540424
170	0x3bd5a79b	0.0065202243
171	0x3db40bc3	0.08791306
172	0x3d411390	0.047137797
173	0x3dc83653	0.097759865
174	0xbd2986d0	-0.041388333
175	0xbc1fe92b	-0.009760181
176	0x3d4b7d82	0.04968024
177	0xbdb7dff7	-0.08978265
178	0xbbf3925d	-0.0074332193
179	0x3dafa4d2	0.08576359
180	0x3dc19d0d	0.09453783
181	0xbd8d66a4	-0.06904343
182	0x3b737e77	0.0037154236
183	0xbd1a2c80	-0.037640095
184	0xbd2ed7ca	-0.04268626
185	0x3dd232a6	0.10263567
186	0x3dca5dd6	0.09881179
187	0xbc8b1df0	-0.016982049
188	0xbd40b6ea	-0.04704944
189	0xbd103968	-0.035210997
190	0xbd648336	-0.055789195
191	0x3d20bae0	0.039240718
192	0xbcb1a071	-0.02168295
193	0xbd652b4b	-0.05594949
194	0x3d95d238	0.07315487
195	0xbd080c25	-0.033214707
196	0x3d25af18	0.040450186
197	0xbd618bdc	-0.05506502
198	0xbd2d1af5	-0.042262036
199	0xbc8d4c2b	-0.017248234
200	0x3ddbe009	0.10736091
201	0xbd9a7f52	-0.07543816
202	0x3bbc6492	0.0057492936
203	0xbd1ce74d	-0.038306523
204	0x3d16842e	0.03674715
205	0xbd9c35b0	-0.076274276
206	0xbd2fc1c2	-0.04290939
207	0xbd097f9f	-0.033568975
208	0x3d220221	0.03955281
209	0xbd345b12	-0.044032164
210	0xbd90415e	-0.07043718
211	0xbd2a01e9	-0.041505728
212	0xbd75c7cb	-0.06000499
213	0xbba6374d	-0.0050725103
214	0xbd7ae5c3	-0.061254274
215	0x3c659c9d	0.01401439
216	0xbcce3584	-0.025172003
217	0x3c8a05bd	0.01684844
218	0x3d917fd0	0.071044564
219	0xbcf70762	-0.030154888
220	0x3d383d99	0.04498062
221	0xbcda2400	-0.026628494
222	0xbd1a15b0	-0.03761834
223	0xbb329585	-0.0027249765
224	0x3b8ec789	0.0043572825
225	0x3b5307c1	0.0032200667
226	0x3d043caa	0.032284416
227	0xbb9be6ae	-0.004757724
228	0x3d6e7de0	0.058225513
229	0x3b683fae	0.0035438347
230	0xbd997189	-0.07492358
231	0x3d379819	0.044822786
232	0x3c981b3e	0.018567678
233	0xbd833698	-0.06406897
234	0xbd3c05e9	-0.045904074
235	0xbd01d40b	-0.03169636
236	0xbcef31b3	-0.029198503
237	0xbd3dd792	-0.046348162
238	0xbcf357dd	-0.029704982
239	0x3c21fac7	0.00988645
240	0xbd2c8852	-0.042122193
241	0x3c17c668	0.009263612
242	0x3dbfbb61	0.093619116
243	0x3d82771f	0.06370377
244	0xbcbb0e24	-0.022833891
245	0xbcb96771	-0.022632333
246	0x3ce06360	0.027391136
247	0xbd7b3ae5	-0.061335463
248	0xbdaa5bed	-0.08318315
249	0x3d86ec7d	0.06588075
250	0x3b9ba1df	0.004749521
251	0x3c9ce3ef	0.019151656
252	0xbd0ec2fb	-0.034853917
253	0xbdecccb1	-0.11562479
254	0x3ccd8238	0.025086507
255	0xbd4eae2b	-0.05045907

network_body.linear_encoder.seq_layers.0.bias f4 [128]
0	0xbd2d9b68	-0.042384535
1	0xbd4b7d30	-0.049679935
2	0xbce838d2	-0.028347407
3	0xbce30bb7	-0.027715547
4	0x3bacc89f	0.0052729393
5	0x3db962d8	0.09052056
6	0xbd63a614	-0.055578306
7	0x3d693211	0.056932513
8	0x3d9abc15	0.07555405
9	0x3d1cdd7d	0.038297165
10	0x3db5e69f	0.08881878
11	0xbda3794d	-0.07982121
12	0xbca77c7f	-0.020445107
13	0xbc9f80cd	-0.019470597
14	0x3d873e15	0.06603638
15	0xbd3316bf	-0.043722864
16	0x3daa043c	0.08301589
17	0xbcf8351f	-0.030298768
18	0x3d5b4895	0.053536016
19	0xbd640c43	-0.055675756
20	0x3d99d887	0.075120024
21	0x3cdc9fa4	0.026931591
22	0x3da19f1d	0.078916766
23	0x3d46a802	0.04850007
24	0xbcbf338b	-0.023340007
25	0x3d336cf5	0.04380508
26	0xbce4ce30	-0.02793035
27	0xbd4d1bb9	-0.050075267
28	0xbda1b226	-0.07895307
29	0x3c1256b6	0.008931806
30	0xbd181793	-0.037131857
31	0xbc9b3fff	-0.018951414
32	0xbb859207	-0.0040762457
33	0x3ce8e3e7	0.028428985
34	0xbde6b896	-0.11265676
35	0x3d3e155e	0.046407096
36	0x3da5d280	0.0809679
37	0xbaa39343	-0.00124798
38	0xbd8abb00	-0.06773949
39	0x3d91bf97	0.07116621
40	0x3daf4431	0.08557928
41	0x3d780c67	0.060558703
42	0x3d76a69d	0.06021749
43	0xbc932796	-0.017963212
44	0xbb6f4934	-0.0036512138
45	0xbd38f27b	-0.045153122
46	0x3cdd72b7	0.02703224
47	0xbd906c18	-0.07051867
48	0xbd0c0975	-0.034188706
49	0xbd239d86	-0.039945148
50	0x3cb7ff69	0.022460656
51	0x3dad579a	0.08463974
52	0xbd31d571	-0.043416444
53	0xbb9fa5d0	-0.0048720613
54	0xbd55edf6	-0.05222889
55	0xbbb0ea75	-0.005399043
56	0x3d5d1486	0.05397465
57	0xbc9a6bdd	-0.018850261
58	0xbd0ee4f0	-0.0348863
59	0xbd431a00	-0.047632217
60	0xbd204cc4	-0.03913571
61	0x3d9af00d	0.07565317
62	0xbb78439d	-0.0037882098
63	0x3d113bfc	0.035457596
64	0x3d3308ce	0.04370957
65	0xbc62a410	-0.013833061
66	0xbcc1c070	-0.023651332
67	0xbc94e5e9	-0.018176036
68	0xbcb04861	-0.021518888
69	0xbc2bad8b	-0.010478388
70	0x3c66a64f	0.014077737
71	0xbd2e82a1	-0.042605046
72	0xbcca6ad6	-0.024709146
73	0xbd16082e	-0.036628895
74	0xbd13ec85	-0.036114234
75	0xbd35494b	-0.04425935
76	0xbcd0baab	-0.025479635
77	0xbd1a47f2	-0.03766627
78	0xbd03592a	-0.032067455
79	0xbd5a536c	-0.053302214
80	0xbd071a24	-0.032983914
81	0x3d5cc183	0.053895485
82	0x3d8b59b8	0.06804222
83	0xbd217041	-0.039413694
84	0xbd304245	-0.04303195
85	0x3c9f52c3	0.019448644
86	0xbd08f28c	-0.033434436
87	0xbca24e43	-0.019812709
88	0xbd2a98d0	-0.04164964
89	0xbcaa7ac9	-0.020810502
90	0xbd21d33b	-0.039508086
91	0x3d0872fa	0.033312775
92	0xbc80693c	-0.01567518
93	0x3dbab24a	0.09116037
94	0xbc0e75f8	-0.008695118
95	0x3c69c567	0.014268256
96	0xbb4c3710	-0.003116075
97	0x3d9ab8ce	0.0755478
98	0x3d4c6f49	0.049910817
99	0xbc125dc4	-0.008933488
100	0xbcae3548	-0.02126564
101	0xbd9a1522	-0.07523562
102	0xbcbdc0d4	-0.023163237
103	0x3bb238ec	0.0054389145
104	0x3d48b8dd	0.049004424
105	0x3ccc6f3f	0.02495539
106	0x3c88fca3	0.01672203
107	0x3dbca8c7	0.09211879
108	0xbd794e1d	-0.06086551
109	0xbc647347	-0.0139435
110	0x3d1560e0	0.03646934
111	0xbd1e5a03	-0.03866006
112	0x3d6f4c42	0.058422334
113	0xbd03c9e3	-0.032174956
114	0x3d0f3115	0.034958918
115	0x3ad5d3b5	0.0016313704
116	0xbdbdcfb5	-0.092681326
117	0xbdb60295	-0.08887211
118	0xbcc9bbfe	-0.024625774
119	0x3d479bd0	0.04873258
120	0xbcc9d5d7	-0.0246381
121	0x3d2067c5	0.039161462
122	0xbd05f8f2	-0.032708116
123	0x3c926b6f	0.017873494
124	0xbcf2ba07	-0.02962972
125	0x3d1afc51	0.037838284
126	0x3d2ae3b2	0.041721053
127	0xbd23f2e5	-0.040026564

network_body.linear_encoder.seq_layers.0.weight f4 [128, 7]
0	0x3e7c626a	0.24646917
1	0x3f447c28	0.7675195
2	0xbdd39c5e	-0.10332559
3	0xbe2a9fd7	-0.16662537
4	0xbe0b2cdc	-0.13591331
5	0x3c4c27e8	0.012460686
6	0xbe26ee7d	-0.16301914
7	0xbf1012c1	-0.56278616
8	0x3ed3d77f	0.41375348
9	0x3e1b9a26	0.15195522
10	0xbe913c78	-0.28366446
11	0x3ec151df	0.37757775
12	0xbeba349b	-0.3636826
13	0x3f3083b6	0.68950975
14	0x3e4955eb	0.19661681
15	0x3ee487be	0.44634813
16	0xbfa35d31	-1.2762815
17	0x3e96de70	0.2946658
18	0x3e6df9a3	0.2323976
19	0xbe4b505b	-0.19854872
20	0x3ea5ce96	0.32384175
21	0x3dcb72cc	0.09934005
22	0x3c0a0e25	0.008426224
23	0x3e02451b	0.12721674
24	0x3eaf8c3a	0.34286672
25	0xbe77738c	-0.24165171
26	0x3de6eb11	0.11275304
27	0x3dd9162a	0.105999306
28	0x3f253113	0.64528006
29	0xbecbd8ad	-0.39813748
30	0xbd365d36	-0.044522487
31	0x3f6e0a6e	0.92984664
32	0xbd53c674	-0.05170293
33	0xbe9692a5	-0.29408756
34	0xbeb702ae	-0.35744232
35	0xbeda8004	-0.42675793
36	0xbe742f18	-0.2384609
37	0x3f6b970a	0.9202734
38	0xbe1cbdb5	-0.15306742
39	0x3e93bf89	0.28857067
40	0xbe5b625b	-0.21424238
41	0xbf0a9954	-0.5414021
42	0x3ebc5be0	0.36788845
43	0x3f09dc14	0.5385144
44	0xbea0d012	-0.31408745
45	0x3f3569ca	0.70864546
46	0x3f9197b8	1.1374426
47	0xbd8f221d	-0.069889285
48	0xbeeb44c2	-0.45950896
49	0x3ee4b181	0.44666675
50	0xbb81c0a0	-0.0039597303
51	0x3ed01b53	0.40645847
52	0xbedbdc82	-0.42941672
53	0x3e0de069	0.13855137
54	0xbdeabf08	-0.114622176
55	0x3e0b1c69	0.13585056
56	0x3ea4b36e	0.32168144
57	0xbf011864	-0.5042784
58	0x3e858fe2	0.26086336
59	0xbea4cefe	-0.32189173
60	0xbf109999	-0.5648437
61	0x3e849771	0.2589679
62	0xbe42d8f2	-0.1902807
63	0x3e3c8ec0	0.1841383
64	0xbeebd446	-0.4606039
65	0x3eb2e380	0.34939194
66	0x3f1b2c34	0.60614324
67	0xbf00abef	-0.5026235
68	0xbf2dbdd7	-0.678678
69	0x3f139cab	0.5766093
70	0xbf034856	-0.5128225
71	0xbee91b98	-0.45528865
72	0x3dafb2a0	0.08578992
73	0xbd8c92eb	-0.0686396
74	0xbdeb5e13	-0.114925526
75	0xbee2cb18	-0.44295573
76	0x3d899319	0.0671751
77	0x3f11e881	0.569954
78	0x3e234881	0.15945627
79	0xbeae6e11	-0.3406835
80	0xbd968619	-0.07349796
81	0xbe83cf1b	-0.25743946
82	0x3e891802	0.2677613
83	0x3ef96b8f	0.48714873
84	0x3f0f3f06	0.5595554
85	0x3f47c1a1	0.7802983
86	0x3f0ff5a2	0.5623418
87	0xbf043aae	-0.5165204
88	0x3c83b554	0.016077675
89	0x3d982275	0.07428447
90	0xbe4c8236	-0.19971547
91	0x3cf21146	0.029549252
92	0xbdbcc75e	-0.09217714
93	0x3d4abde9	0.04949752
94	0x3f4a295e	0.7896937
95	0xbe20c6fb	-0.15700905
96	0xbcaa681a	-0.020801593
97	0xbe8865d7	-0.26640198
98	0xbe51947e	-0.20466802
99	0xbee244b3	-0.44193038
100	0xbbc56d84	-0.006025018
101	0xbf0c2b9a	-0.5475403
102	0xbd205e17	-0.03915223
103	0xbe665b5b	-0.22495787
104	0xbe29b70c	-0.16573733
105	0x3ca081a8	0.019593075
106	0x3e144262	0.14478448
107	0xbafa3ebd	-0.0019092184
108	0x3f2fa308	0.6860814
109	0x3ed33f2f	0.41259143
110	0xbe993281	-0.29921344
111	0x3df3d5bc	0.11906001
112	0xbdcc0d99	-0.09963531
113	0xbe36af96	-0.17840418
114	0x3e5bb8a6	0.21457157
115	0xbf054018	-0.52050924
116	0x3ebb735d	0.36611453
117	0xbebeaf0f	-0.37242934
118	0xbde453bf	-0.11148786
119	0xbee3c16c	-0.44483507
120	0x3f2e5e0e	0.68112266
121	0x3d4c301d	0.049850572
122	0x3eb21ee1	0.34789184
123	0x3e8ee7f1	0.27911332
124	0xbedf0088	-0.43555093
125	0x3e1092bd	0.14118476
126	0x3e4588a0	0.192904
127	0xbe6f90d9	-0.23395099
128	0x3e04f14a	0.1298267
129	0xbea3737e	-0.3192405
130	0x3ea66212	0.32496697
131	0x3eb96a99	0.3621414
132	0x3defeac3	0.11714699
133	0x3e362931	0.17789151
134	0x3eaf85c3	0.3428174
135	0xbf024380	-0.50884247
136	0xbedfc9f5	-0.43708768
137	0x3e5debf4	0.2167204
138	0x3eb2d9c5	0.3493177
139	0x3cb5f02b	0.022209248
140	0x3f67a6f4	0.90489125
141	0xbf057147	-0.5212597
142	0xbedb0463	-0.42776784
143	0xbebc160b	-0.36735567
144	0xbea0be36	-0.3139512
145	0xbe12588d	-0.14291592
146	0xbf047adc	-0.5174997
147	0xbe83502b	-0.256471
148	0xbe8d13c7	-0.2755415
149	0x3e9c545e	0.30533117
150	0x3f003cda	0.5009285
151	0x3eea3c37	0.45749065
152	0xbe6acc4d	-0.22929497
153	0x3e0bafd6	0.13641295
154	0xbd98956b	-0.07450374
155	0xbf59783f	-0.84949106
156	0x3f8c9675	1.0983416
157	0xbe893aad	-0.2680258
158	0xbe4cd614	-0.2000354
159	0x3ebeee7d	0.37291327
160	0x3e89451b	0.26810536
161	0xbe8b817f	-0.27247235
162	0xbed27448	-0.4110434
163	0xbe188851	-0.1489575
164	0x3e6cd5bc	0.23128408
165	0x3f00536a	0.5012728
166	0x3e4aaf39	0.19793405
167	0xbd36db02	-0.044642456
168	0xbd85b390	-0.065283895
169	0x3f605ea7	0.8764443
170	0x3e6eb2f0	0.23310447
171	0x3e4dbd30	0.200917
172	0x3f987bac	1.1912742
173	0xbf19310f	-0.5984048
174	0xbe5b5e3a	-0.21422663
175	0x3e870072	0.26367527
176	0xbf03b70f	-0.514512
177	0xbea746ca	-0.32671195
178	0x3e4b7f3e	0.19872758
179	0xbe3f69c9	-0.18692698
180	0xbf29aee4	-0.66282487
181	0xbec0dddd	-0.37669268
182	0x3c933da1	0.017973723
183	0xbd2540b1	-0.040344898
184	0x3f3b8e38	0.73263884
185	0x3f2eb454	0.6824391
186	0xbf5b79c4	-0.85732675
187	0x3eabdec1	0.33568385
188	0xbf2bc1a8	-0.6709237
189	0x3f09deb4	0.53855443
190	0x3e6d90ee	0.23199818
191	0x3de55880	0.11198521
192	0x3f061419	0.52374417
193	0x3f355f71	0.7084876
194	0x3cea3076	0.028587561
195	0x3dda1821	0.106491335
196	0xbe146adc	-0.14493889
197	0x3efd9006	0.49523944
198	0xbebeea27	-0.3728802
199	0x3e34f938	0.17673194
200	0x3ec7a221	0.38990882
201	0x3ce13ee1	0.027495803
202	0xbe9385b2	-0.2881294
203	0xbd26e1a4	-0.04074253
204	0xbe8d23bf	-0.27566335
205	0x3e61fee6	0.22069892
206	0x3f10a44d	0.56500703
207	0xbee79939	-0.45234087
208	0xbed456e8	-0.41472554
209	0x3f257b81	0.64641577
210	0x3d7d16e2	0.0617894
211	0x3f571bdc	0.84026885
212	0xbc752b6c	-0.014963966
213	0xbf851de6	-1.0399749
214	0x3ebbf45e	0.36709875
215	0xbf5fd821	-0.8743916
216	0x3e0499f0	0.12949347
217	0x3edb9f17	0.42894813
218	0x3e30b0be	0.17254922
219	0x3decc4cf	0.11560976
220	0x3dda06b0	0.10645807
221	0x3e069c53	0.1314557
222	0xbe4385b3	-0.19093971
223	0xbe60fc2e	-0.21971199
224	0xbeaf3345	-0.34218803
225	0x3f875d63	1.0575374
226	0xbe744b46	-0.2385684
227	0xbecf5246	-0.40492457
228	0xbef53e8f	-0.4789929
229	0x3f307be1	0.68939024
230	0xbf0a9cdc	-0.541456
231	0x3ecd209a	0.40063936
232	0xbf4ac8db	-0.7921273
233	0x3eb2146d	0.3478121
234	0x3f3b5af4	0.7318566
235	0xbe6799bd	-0.2261724
236	0x3e556c09	0.20841993
237	0x3e655a71	0.22397782
238	0x3f5a2712	0.85215867
239	0x3e4fbbbd	0.2028646
240	0xbd1db0ca	-0.038498677
241	0x3e839c1f	0.25705048
242	0x3ea0a64b	0.3137687
243	0x3e81a5d7	0.25321838
244	0xbe19fb47	-0.15037261
245	0x3e2e587c	0.17025942
246	0xbf0da625	-0.5533164
247	0xbf3feef1	-0.7497397
248	0x3e843197	0.25819084
249	0x3e896299	0.26833037
250	0xbe8fe96c	-0.28107774
251	0xbc1db202	-0.00962496
252	0xbe5f17f8	-0.21786487
253	0xbed22fa5	-0.41051975
254	0xbe9d4eea	-0.3072427
255	0xbe5d2bb7	-0.21598707

network_body.linear_encoder.seq_layers.2.bias f4 [128]
0	0xbbc538bd	-0.0060187266
1	0xbc9ff93b	-0.019528022
2	0x3da1f291	0.07907594
3	0xbc3f142b	-0.011662523
4	0xbc0cfe15	-0.0086055
5	0xbb325bcd	-0.0027215362
6	0x3d4753f9	0.048664067
7	0x3c9a3f5e	0.018829044
8	0xbcbd88c6	-0.023136508
9	0xbc8c8d4c	-0.01715722
10	0x3cfb8aea	0.030705888
11	0xbc41573f	-0.011800586
12	0x3c8f64f5	0.017504195
13	0x3c49f5be	0.012326656
14	0xbc4e600c	-0.012596142
15	0x3da85193	0.08218684
16	0xbd0e5678	-0.03475043
17	0x3bd0be92	0.006370374
18	0xbcaaeca7	-0.020864798
19	0x3d63bb39	0.05559847
20	0x3daa41c6	0.083133265
21	0xbc17290e	-0.009226097
22	0x3d516b3a	0.05112765
23	0xbc88b146	-0.016686093
24	0xbca0bdc8	-0.019621745
25	0x3ac03194	0.0014663213
26	0x3bb00d61	0.0053726886
27	0xbc97d8db	-0.018536022
28	0x3d5c2ef8	0.05375573
29	0x3d5e12be	0.054217093
30	0x3caa425f	0.020783601
31	0xbc55ce17	-0.013049624
32	0xbbd3a038	-0.0064583085
33	0xbc694c29	-0.014239349
34	0xbc40362e	-0.011731667
35	0xbc0ee06c	-0.0087204985
36	0x3dc6e084	0.09710792
37	0x3dca74e8	0.09885579
38	0xbc922881	-0.01784158
39	0x3c66cdd1	0.014087156
40	0x3cec36a7	0.028834654
41	0xbc7bac9f	-0.01536098
42	0x3c60935b	0.013707007
43	0x3d91ec71	0.07125176
44	0x3d087a13	0.033319544
45	0x3dabf661	0.083966024
46	0xbc86fa00	-0.016476631
47	0xbc95a55b	-0.018267324
48	0x3d523cdf	0.051327582
49	0x3bdf1c61	0.006808803
50	0xbb9b75c2	-0.0047442624
51	0x3d831795	0.06400982
52	0x3d91c33f	0.07117318
53	0xbc012191	-0.007881538
54	0xbc5bb74a	-0.013410399
55	0xbcb769f3	-0.022389388
56	0x399cdc14	0.0002991861
57	0x3d6e8b23	0.05823816
58	0x3e03eb8c	0.12882823
59	0x3b8c1665	0.0042751306
60	0x3c21a309	0.009865531
61	0xbb0acdae	-0.0021179724
62	0xbbcbfde7	-0.006225336
63	0x3cd8dff8	0.026473984
64	0xbcb05d46	-0.021528851
65	0xbb9f2c97	-0.0048576104
66	0x3d9b4559	0.075815864
67	0xbc3c5893	-0.011495727
68	0x3d937956	0.07200877
69	0xbb36129d	-0.002778209
70	0xbcba98a7	-0.022777868
71	0xbca1c510	-0.019747287
72	0x3df14ebb	0.11782595
73	0xbb3484d1	-0.0027544985
74	0xbd05f5b4	-0.032705024
75	0xbc093064	-0.008373354
76	0x3d0a1aa8	0.033716828
77	0xbb9849b0	-0.004647456
78	0xbc511a60	-0.012762636
79	0xbc6a394c	-0.014295887
80	0x3d0cc04a	0.03436307
81	0xbc86bf09	-0.016448515
82	0x3bebf742	0.0072011063
83	0xbc266378	-0.010155551
84	0xbc08a73f	-0.008340656
85	0xbc8f4a79	-0.017491566
86	0xbc030527	-0.007996834
87	0x3b6e303b	0.0036344666
88	0xbd06e876	-0.032936536
89	0x3c796ca6	0.015223658
90	0x3d7d3118	0.061814398
91	0xbcb3b698	-0.021937653
92	0x3d35cd2b	0.044385117
93	0x3cd4189b	0.025890639
94	0x3d114546	0.035466455
95	0xbc0ff0d5	-0.008785446
96	0xbca8e248	-0.020615712
97	0x3c233062	0.009960266
98	0x3d0b9555	0.03407796
99	0xbbc30b35	-0.0059522637
100	0x3d3e7931	0.046502296
101	0xb94295fb	-0.00018557154
102	0x3bf38857	0.0074320245
103	0x3d620e09	0.055189166
104	0x3bfb6de2	0.007673011
105	0xbcd0e49a	-0.02549963
106	0xbbb66986	-0.0055667786
107	0xbc7b68f5	-0.015344848
108	0xbcaaa4dd	-0.020830566
109	0xbd0d9b30	-0.034571826
110	0xbb91bb6e	-0.004447392
111	0x3c2fd15a	0.010731066
112	0x3aa3a7ee	0.001248596
113	0x3c2a9cdd	0.010413376
114	0x3d75523b	0.059892874
115	0x3d6c8534	0.05774422
116	0xbb925644	-0.00446585
117	0xbd2d81eb	-0.042360228
118	0x3c480cdc	0.012210097
119	0xbc1f41ce	-0.009720279
120	0xbc768adc	-0.015047755
121	0x3d5a7922	0.053338178
122	0xbc51f932	-0.01281576
123	0x3cea0585	0.028567085
124	0x39062964	0.00012794655
125	0x3c59a5a7	0.0132841235
126	0x3bfb688a	0.007672374
127	0xbb733caf	-0.0037115028

network_body.linear_encoder.seq_layers.2.weight f4 [128, 128]
0	0x3cea4e2a	0.028601725
1	0x3d7d45d0	0.061834157
2	0x3dd99cfd	0.10625646
3	0xbdd7d4bc	-0.10538623
4	0xbd6807b1	-0.05664796
5	0x3da37c78	0.07982725
6	0x3c9263da	0.017869879
7	0xbc62ab61	-0.013834805
8	0xbd70eb90	-0.0588184
9	0x3de64845	0.11244253
10	0xbdce9b23	-0.10088184
11	0x3d820d5b	0.063502036
12	0x3e185670	0.14876723
13	0x3dd66654	0.10468736
14	0x3dde1f1f	0.1084578
15	0x3e225019	0.15850867
16	0x3d9261dc	0.071475714
17	0xbd39ccd6	-0.045361362
18	0xbdf960a9	-0.121766396
19	0x3c46aaad	0.012125653
20	0xbe8bd4dc	-0.27310836
21	0xbc143615	-0.009046097
22	0x3d567904	0.052361503
23	0xbd2314cc	-0.039814755
24	0x3d233afc	0.039851174
25	0x3e082d13	0.13298444
26	0xbca5cd51	-0.020239504
27	0xbdde0a2a	-0.108417824
28	0xbd02eaca	-0.031962194
29	0x3e0edeb1	0.13952138
30	0x3e88100b	0.2657474
31	0x3cf03ce2	0.029325906
32	0x3e12c48c	0.14332789
33	0x3def4a60	0.11684108
34	0xbde5d0d3	-0.11221471
35	0xbcefb649	-0.029261725
36	0xbe0fdf26	-0.14049968
37	0x3d9c5d78	0.07635015
38	0x3df63a29	0.12022812
39	0xbde90658	-0.11378163
40	0x3cff6762	0.031177226
41	0x3c4f6f60	0.012660831
42	0x3dd7e00a	0.10540779
43	0x3d5a97ee	0.053367548
44	0x3e92567d	0.2858161
45	0x3e3dae69	0.18523563
46	0xbc54608e	-0.012962474
47	0xbe0d1f42	-0.13781455
48	0xbe0a3c34	-0.13499528
49	0x3da5d4e4	0.08097246
50	0x3e28e4e8	0.16493571
51	0xbdc5cdc6	-0.09658389
52	0x3e33831a	0.1753048
53	0x3dba9288	0.0910998
54	0xbdb02367	-0.086005025
55	0xbbad836f	-0.005295209
56	0xbcda4032	-0.026641939
57	0x3e1dfce7	0.15428506
58	0x3c98e7f9	0.0186653
59	0x3c9410b7	0.018074377
60	0xbdbbc848	-0.0916906
61	0x3caa5035	0.020790199
62	0x3dee02ed	0.11621652
63	0x3d16c925	0.03681292
64	0x3c58fdfb	0.013244147
65	0x3d248348	0.040164262
66	0x3d7a664c	0.061132714
67	0x3d6478d0	0.05577928
68	0x3d455b25	0.048182625
69	0xbe1171b6	-0.14203534
70	0xbe3af9ca	-0.1825935
71	0x3d012543	0.031529676
72	0xbdb02875	-0.086014666
73	0x3e1d55cc	0.1536476
74	0x3bea10bb	0.0071431077
75	0x3e082447	0.13295089
76	0xbcb8a8c0	-0.022541404
77	0x3d70dc03	0.05880357
78	0x3e0fa2e4	0.14026982
79	0x3c18e35c	0.00933155
80	0x3d108edc	0.03529249
81	0xbc105dca	-0.008811424
82	0xbdca2704	-0.09870723
83	0xbd9bad5c	-0.07601425
84	0xbd95650a	-0.07294662
85	0xbba8d539	-0.0051523712
86	0xbcd71c29	-0.026258545
87	0x3d2aeca8	0.0417296
88	0x3d0eb1d0	0.034837544
89	0x3d45cfc3	0.04829384
90	0x3e32f3ab	0.17475764
91	0x3d8d234c	0.06891498
92	0x3d66a6c8	0.0563114
93	0xbe0be228	-0.1366049
94	0x3d366017	0.044525232
95	0xbdb61259	-0.08890218
96	0x3de31d7d	0.11089609
97	0x3dcb686a	0.09932025
98	0xbc9ee4d8	-0.01939623
99	0xbdbacc1b	-0.09120961
100	0xbdcae45f	-0.099068396
101	0x3c0704a8	0.008240856
102	0x3e00ff8b	0.12597482
103	0x3da46e38	0.08028835
104	0xbcea065e	-0.02856749
105	0xbc3baffc	-0.011455532
106	0x3e0fda44	0.14048105
107	0xbd5b3812	-0.05352027
108	0xbc8663eb	-0.016405066
109	0x3e9e710f	0.30945632
110	0xbd594e7d	-0.053053368
111	0xbd3dcab2	-0.046335883
112	0xbd6461f3	-0.055757474
113	0xbdbd469d	-0.09241984
114	0x3d1d28da	0.038369037
115	0x3e4abf08	0.19799435
116	0xbd34624e	-0.044039063
117	0x3d1f17ec	0.038841173
118	0x3d56f451	0.052479092
119	0xbdd2d379	-0.102942415
120	0x3dbc715c	0.09201309
121	0xbdaf31be	-0.085544094
122	0x3b015bdf	0.0019738597
123	0xbcf6f112	-0.030144248
124	0xbd0c8092	-0.0343023
125	0xbd80efec	-0.062957615
126	0xbdce6281	-0.10077382
127	0x3dfb0b81	0.122580536
128	0x3d446fa3	0.047958028
129	0xbdf48f25	-0.11941365
130	0x3e3afa10	0.18259454
131	0x3da0c203	0.07849505
132	0xbcb7d234	-0.0224391
133	0xbcfa2355	-0.030534426
134	0x3d09dd6b	0.033658426
135	0xbd99f9fa	-0.07518382
136	0x3a62ef65	0.00086568884
137	0x3db02a3a	0.08601804
138	0x3dd319e2	0.10307671
139	0x3b94ed68	0.0045449026
140	0xbd7ec00a	-0.06219486
141	0x3d968100	0.073488235
142	0xbe1870e4	-0.14886814
143	0x3d718718	0.058966726
144	0xbcaae7e8	-0.020862535
145	0x3e10bae2	0.1413379
146	0x3ca6c6f9	0.02035855
147	0x3d5f14cd	0.054463197
148	0xbd0b9813	-0.034080576
149	0x3d8df3cf	0.069312684
150	0xbc20561a	-0.009786153
151	0xbcf496ec	-0.029857121
152	0xbd8ba977	-0.06819432
153	0x3afb6cbc	0.0019182186
154	0x3e16bbbb	0.14720051
155	0xbd1259cd	-0.035730172
156	0x3d186efc	0.037215218
157	0x3d19e6d2	0.037573643
158	0x3d72fe3c	0.059324488
159	0xbd1a023a	-0.03759978
160	0x3e0fa917	0.14029346
161	0x3e08b4dc	0.13350242
162	0xbe48f139	-0.19623269
163	0xbbcc5057	-0.006235163
164	0xbd9b1338	-0.07572025
165	0x3cc2bffa	0.023773182
166	0xbba1d6c1	-0.0049389307
167	0xbd623f29	-0.055236015
168	0xbdb35292	-0.087559834
169	0x3e1e40d9	0.15454425
170	0xbe4be43a	-0.1991128
171	0x3d0dc043	0.034607183
172	0x3d37e543	0.044896375
173	0x3de517c4	0.111861736
174	0x3dc57551	0.09641517
175	0x3d8deab0	0.06929529
176	0xbdf4a4f0	-0.11945522
177	0x3db2d655	0.08732287
178	0xbbf263a2	-0.007397131
179	0xbe38a6ce	-0.18032381
180	0x3cb656bb	0.022258153
181	0x3d52a3ad	0.051425625
182	0x3c2556fe	0.010091541
183	0x3d825c4e	0.06365262
184	0xbdc2c810	-0.09510815
185	0x3d3d1817	0.046165552
186	0xbd41164f	-0.047140416
187	0xbdb0abe7	-0.08626538
188	0x3db9fcd7	0.090814285
189	0x3d198d3d	0.03748821
190	0xbd050cbb	-0.032482844
191	0xbd9ca65f	-0.0764892
192	0x3d17959d	0.037007917
193	0xbcc0bd28	-0.023527697
194	0x3d4f2a91	0.050577704
195	0xbc0b954d	-0.008519483
196	0xbbc4cbb3	-0.006005728
197	0x3d484441	0.048893217
198	0x3c51310b	0.01276804
199	0xbdaf2a7f	-0.08553027
200	0x3e1565aa	0.14589563
201	0xbd106b44	-0.035258546
202	0xbdcf260b	-0.10114678
203	0x3a7287cb	0.0009251802
204	0x3d5f03dc	0.05444704
205	0xbd3624b4	-0.044468597
206	0x3db5032a	0.08838494
207	0xbca27b3f	-0.019834159
208	0x3e10d0b7	0.14142118
209	0x3da639a3	0.08116462
210	0x3e1cb38b	0.15302865
211	0xbd7dc65a	-0.06195674
212	0x3e009a18	0.12558782
213	0x3bae445c	0.0053182077
214	0x3c8dbf3e	0.017303105
215	0xbc2fea70	-0.010737047
216	0x3cdee694	0.027209558
217	0x3d933cf5	0.07189361
218	0xbd109d1e	-0.03530609
219	0xbd2e3b38	-0.042536944
220	0xbdd034ec	-0.10166344
221	0x3a71d922	0.0009225776
222	0x3da5e79c	0.081008166
223	0x3dc1ae6b	0.09457096
224	0xbe26ffa3	-0.16308455
225	0x3c0e16f8	0.008672468
226	0xbe29082f	-0.16507028
227	0x3ca943b2	0.020662162
228	0x3dc997d6	0.098434135
229	0xbc238a96	-0.009981772
230	0x3e38b9b5	0.18039592
231	0xbd32b631	-0.043630783
232	0x3d0bd48d	0.03413825
233	0x3dc83694	0.09776035
234	0xbd686b6b	-0.056743067
235	0xbcef1e4b	-0.02918925
236	0x3cfd840e	0.030946758
237	0xbe0ea5f8	-0.139305
238	0xbcfb1b37	-0.030652625
239	0xbdb1b196	-0.0867645
240	0x3d3e24ff	0.046422
241	0xbde0ea00	-0.10982132
242	0xbd7a6daa	-0.06113974
243	0xbb837eb2	-0.004012906
244	0x3cccab97	0.024984164
245	0xbca8ce15	-0.02060608
246	0xbdad19f8	-0.08452219
247	0xbd42a9a7	-0.047525074
248	0xbd182a2b	-0.03714959
249	0xbdd758a7	-0.10514956
250	0x3dc4d5f6	0.09611122
251	0x3e707746	0.23482999
252	0x3e44d74a	0.19222751
253	0x3d81762f	0.0632137
254	0xbc9da911	-0.019245656
255	0x3cad246f	0.021135537

network_body.vector_processors.0.normalizer.running_mean f4 [7]
0	0x3e6211e5	0.22077139
1	0xbd4a271b	-0.0493537
2	0x3bd376f0	0.0064533874
3	0x3c99a28e	0.01875427
4	0x3b868c2f	0.0041060667
5	0x3b0927aa	0.0020928183
6	0x3d47dfec	0.048797533
