ArmRobot/Assets/Config/results/ppo/AgenteCarro/AgenteCarro-499976.pt (torch, 743687 bytes, 52 tensors)

network_body.vector_processors.0.normalizer.running_mean f4 [7]
0	0x3eb875cc	0.36027372
1	0xbd84f80e	-0.06492625
2	0x3bad9c53	0.0052981763
3	0x3cfdf132	0.0309988
4	0xbb245226	-0.0025073378
5	0x3b5fdbe9	0.0034158176
6	0x3d1256fc	0.035727486

network_body.vector_processors.0.normalizer.running_variance f4 [7]
0	0x47e110d0	115233.625
1	0x46145b0f	9494.765
2	0x410e7663	8.903903
3	0x46019f2c	8295.793
4	0x46e2eb11	29045.533
5	0x4135bd2e	11.358686
6	0x47073d85	34621.52

network_body.linear_encoder.seq_layers.0.weight f4 [128, 7]
0	0xbe6e7ad9	-0.2328905
1	0xbe49351e	-0.19649169
2	0xbe99a180	-0.30006027
3	0xbe6e1b68	-0.23252642
4	0x3ecf7a53	0.40523013
5	0x3db7914b	0.08963259
6	0xbf0aa080	-0.54151154
7	0x3ea178e8	0.31537557
8	0x3e89ff0e	0.26952404
9	0xbe0b80a8	-0.13623297
10	0xbed35e86	-0.41283053
11	0x3e88ffae	0.26757568
12	0xbec22abd	-0.37923232
13	0x3d68aa0b	0.05680279
14	0x3e1a5c2b	0.15074222
15	0x3f0d2938	0.5514102
16	0xbebe9924	-0.37226212
17	0xbee64e4c	-0.4498161
18	0x3f4fda8b	0.81192845
19	0xbd95f83c	-0.073227376
20	0xbe6cc18b	-0.23120706
21	0x3e8573a4	0.2606479
22	0xbe2b2709	-0.1671411
23	0xbe2eb2f1	-0.17060448
24	0xbeb3e63e	-0.35136598
25	0x3edb77af	0.4286475
26	0x3edc4b41	0.43026164
27	0x3ec41197	0.3829467
28	0xbeed9c08	-0.46408105
29	0x3f0181d3	0.5058872
30	0x3d112d98	0.035443872
31	0x3e431470	0.19050765
32	0xbcb55ad6	-0.02213804
33	0xbea4f4a0	-0.32217884
34	0xbf2a039d	-0.66411763
35	0xbe6247ef	-0.22097753
36	0x3e3537fc	0.17697138
37	0x3b077684	0.0020670006
38	0x3e353c76	0.17698845
39	0x3e6df955	0.23239644
40	0x3cfe3bd6	0.031034391
41	0x3f695423	0.9114401
42	0xbd0a038f	-0.0336948
43	0xbdaf5f06	-0.08563046
44	0x3ecc3e67	0.3989136
45	0x3f8df8d5	1.1091563
46	0xbf656c9a	-0.8961884
47	0x3ef63b58	0.4809215
48	0x3e1a2b64	0.15055615
49	0x3deb9e5c	0.11504814
50	0x3bca7f9f	0.0061797644
51	0xbcb93b88	-0.022611395
52	0xbec7ec80	-0.39047623
53	0xbf1a7204	-0.60330224
54	0x3ecb8510	0.39749956
55	0x3eddb476	0.43301743
56	0x3e553a3a	0.20822993
57	0x3e6947ab	0.22781245
58	0x3deeef08	0.11666685
59	0x3d479613	0.048727106
60	0x3f0a12b9	0.5393482
61	0xbef20daf	-0.47276065
62	0x3f5137e6	0.8172592
63	0x3e2188d0	0.15774846
64	0xbea3c37c	-0.3198508
65	0xbea243e0	-0.3169241
66	0xbeb30aae	-0.34969085
67	0x3f73a336	0.95170915
68	0xbf1b67a9	-0.6070505
69	0x3dcd5b0d	0.10027132
70	0xbf2cffc6	-0.6757778
71	0xbf28de33	-0.6596405
72	0x3f10b8bb	0.56531876
73	0xbef4a7ae	-0.4778418
74	0x3d900f1b	0.07034131
75	0x3d47af7d	0.048751343
76	0xbec997b9	-0.39373568
77	0x3d974517	0.07386225
78	0x3ef1a6ee	0.4719767
79	0x3ec8316d	0.3910021
80	0xbe0a3c7f	-0.1349964
81	0x3dca75e7	0.09885769
82	0xbf0a33bb	-0.53985184
83	0xbca99165	-0.020699212
84	0x3f48a30c	0.7837379
85	0x3ca47304	0.020074375
86	0xbe179f6c	-0.14806908
87	0xbefe8ec0	-0.49718285
88	0x3e895707	0.2682421
89	0xbdc05e5d	-0.09392998
90	0xbf461716	-0.77378976
91	0xbe06b2c5	-0.13154133
92	0x3f13417f	0.57521814
93	0x3e7badfc	0.24578089
94	0x3dd93aa4	0.10606888
95	0x3dc6c504	0.097055465
96	0xbf253d1a	-0.6454636
97	0xbd2ff655	-0.04295953
98	0x3e9545f6	0.29154938
99	0xbf05dcfc	-0.5229032
100	0x3e1ad693	0.15120916
101	0x3f217bce	0.63079536
102	0xbf163c10	-0.586854
103	0xbe9c952a	-0.30582553
104	0x3e158537	0.14601599
105	0x3dfd9bed	0.12383256
106	0xbe86a17f	-0.26295087
107	0xbeb351be	-0.35023302
108	0x3f3a9cc6	0.7289547
109	0x3d9d8dbb	0.076930486
110	0x3c485116	0.012226364
111	0xbf08a7aa	-0.53380835
112	0x3e1e98f8	0.1548804
113	0x3f003c7a	0.5009228
114	0x3f1a08ba	0.60169566
115	0x3f06cbdd	0.5265482
116	0x3dceca20	0.10097146
117	0xbcb3c132	-0.021942709
118	0xbe856bf6	-0.2605893
119	0x3efd69c5	0.49494758
120	0x3bc5f35f	0.006040975
121	0xbe801809	-0.25018337
122	0xbf0ce7a0	-0.5504093
123	0x3d83de89	0.064389296
124	0xbe337a70	-0.17527175
125	0xbe1bddd9	-0.15221347
126	0xbf11b8d1	-0.5692263
127	0xbe3094c5	-0.17244251
128	0x3f16a46c	0.5884464
129	0xbe2f72c1	-0.17133619
130	0xbdeae328	-0.11469108
131	0xbed984e7	-0.4248421
132	0xbdb9fe73	-0.090817355
133	0x3deffa0b	0.11717614
134	0xbe909e95	-0.28245988
135	0x3e798ffc	0.24371332
136	0xbef2eef9	-0.47447947
137	0xbe6abc68	-0.22923434
138	0xbf13135e	-0.57451427
139	0xbef30d6b	-0.47471175
140	0xbded2b6a	-0.11580546
141	0x3e338d1e	0.175343
142	0xbf829d73	-1.02043
143	0x3f0d2dc9	0.5514799
144	0xbef17adf	-0.47164056
145	0x3f656bcc	0.8961761
146	0x3e5427e7	0.20718347
147	0x3ec1bc77	0.378391
148	0x3cab143b	0.02088367
149	0xbe1cad17	-0.15300404
150	0x3f0afc9f	0.5429172
151	0x3bc37760	0.0059651583
152	0x3f0605c6	0.5235256
153	0x3dc6b674	0.09702769
154	0x3d49c1cb	0.04925708
155	0xbf67aebc	-0.90501
156	0x3e877e59	0.26463583
157	0xbf247b1a	-0.6425034
158	0xbf3e21e0	-0.7427044
159	0xbe3098af	-0.17245744
160	0x3e2aa03c	0.16662687
161	0x3dea71ea	0.11447509
162	0xbe1744b4	-0.14772302
163	0xbeea2174	-0.45728648
164	0xbe87a167	-0.26490328
165	0xbe66b4f2	-0.22529963
166	0xbb6c64d1	-0.0036070833
167	0x3d488c14	0.048961714
168	0xbe1e0b36	-0.15433964
169	0x3e11744c	0.1420452
170	0xbc842d0f	-0.016134767
171	0x3dac66c6	0.0841804
172	0x3f0f3cff	0.5595245
173	0xbeb89a70	-0.36055326
174	0xbe843ad2	-0.25826126
175	0xbea17790	-0.3153653
176	0xbd8316f4	-0.06400862
177	0x3ebf9d43	0.3742467
178	0xbf8ea7d3	-1.1144966
179	0x3e9c0130	0.30469656
180	0xbd74c478	-0.05975768
181	0x3f44950c	0.7678993
182	0xbe8b456e	-0.27201408
183	0x3f06f010	0.52710056
184	0xbf058cd3	-0.52168006
185	0xbd8cd0bd	-0.06875751
186	0x3d8fd308	0.07022673
187	0xbf35a8b6	-0.7096056
188	0x3e86275e	0.2620191
189	0x3e2b9c8b	0.16758935
190	0xbf1b2aa2	-0.6061193
191	0xbd8fa32e	-0.07013546
192	0x3cf8c0ce	0.030365374
193	0x3d28058b	0.04102091
194	0x3ebb807d	0.36621466
195	0xbe73a2d1	-0.23792578
196	0xbc03e588	-0.00805033
197	0x3e8a1d47	0.26975462
198	0x3e637261	0.22211601
199	0x3e536e35	0.2064751
200	0xbf2723c6	-0.6528896
201	0xbe91be9e	-0.28465742
202	0x3ea09597	0.31364128
203	0xbf49409b	-0.78614205
204	0xbe176cff	-0.14787672
205	0x3ea78018	0.32714915
206	0xbf3f8f47	-0.74828
207	0xbdb4a9ef	-0.08821475
208	0xbf09629d	-0.53666097
209	0x3d5528b8	0.052040786
210	0xbee55341	-0.4479008
211	0x3e98c723	0.2983943
212	0x3d2c931e	0.04213249
213	0xbf2dab41	-0.6783944
214	0x3e1339a7	0.14377461
215	0x3d094786	0.033515476
216	0x3eed53a5	0.46352878
217	0x3d09a2e7	0.03360262
218	0xbe46ea9b	-0.19425432
219	0x3e80ac92	0.2513166
220	0xbdbfae53	-0.093594216
221	0xbe7aceae	-0.24492905
222	0xbf11f1da	-0.5700966
223	0x3e233ca7	0.15941106
224	0xbd28f0cc	-0.041245267
225	0xbf1c0ceb	-0.6095721
226	0x3e98bc63	0.29831228
227	0x3e2a6766	0.16641006
228	0x3e0a5932	0.13510588
229	0xbde25884	-0.11052039
230	0x3f179285	0.59207946
231	0x3eea1534	0.45719302
232	0x3d1c74e0	0.0381974
233	0x3e164c6d	0.14677592
234	0x3ef43457	0.47696182
235	0x3ec6f756	0.38860577
236	0x3da0f309	0.07858855
237	0xbb9ceb76	-0.0047888113
238	0xbebafdf3	-0.36521873
239	0xbf49d38d	-0.78838426
240	0xbe863659	-0.2621334
241	0xbf1f57c8	-0.6224332
242	0x3c6a77bc	0.014310773
243	0xbe9f0fc7	-0.31066725
244	0x3f00e613	0.50351065
245	0xbe8d87a9	-0.27642563
246	0x3ec03eae	0.3754782
247	0xbe28247d	-0.16420169
248	0xbf059a18	-0.52188253
249	0xbe3a62ce	-0.18201753
250	0xbe262739	-0.162259
251	0xbea77122	-0.327035
252	0x3e871dba	0.26389867
253	0x3d93d0ea	0.072175816
254	0x3e3c201f	0.18371628
255	0x3c607667	0.013700104

network_body.linear_encoder.seq_layers.0.bias f4 [128]
0	0x3d1f0ead	0.038832355
1	0xbc141998	-0.009039305
2	0xbbec1b05	-0.0072053694
3	0xbcbb89e0	-0.022892892
4	0xbcbb7c8b	-0.022886535
5	0xbd9435fd	-0.0723686
6	0x3cf11042	0.029426698
7	0x3d6700e7	0.056397345
8	0xbd639144	-0.055558458
9	0x3d097d55	0.03356679
10	0x3d80d172	0.062899485
11	0xbcab51e6	-0.020913076
12	0x3d11c0eb	0.03558437
13	0xbc86a5dc	-0.01643651
14	0xbd77c0c8	-0.060486585
15	0xbc520e09	-0.012820729
16	0x3c7e61b9	0.015526229
17	0x3c9d9257	0.01923482
18	0x3d7bc6e6	0.06146898
19	0x3d38f984	0.04515983
20	0xbd9fa095	-0.077943005
21	0xbc3ec32a	-0.01164321
22	0x3d831dc9	0.064021654
23	0xbd7455e5	-0.059652228
24	0x3ca19830	0.019725889
25	0x3d8d8c13	0.06911483
26	0xbca41eb4	-0.020034172
27	0xbc1fe9fa	-0.009760374
28	0xbc2c4d9f	-0.010516553
29	0x3d6eac4f	0.058269795
30	0xbcac0dc6	-0.021002661
31	0x3d194de5	0.0374278
32	0x3d1ebd7b	0.03875492
33	0x3be23540	0.0069033206
34	0x3db8a7d1	0.090163834
35	0xbc85b5fb	-0.016322127
36	0xbc2426ae	-0.010018988
37	0x3d4b12de	0.04957854
38	0xbc58f536	-0.013242057
39	0xbc8b8f7f	-0.017036198
40	0xbb2aa701	-0.0026039483
41	0x3da6ae9e	0.08138774
42	0x3cb6e5d1	0.022326382
43	0xbd098933	-0.03357811
44	0xbb8f9cd5	-0.0043827095
45	0x3c0ed464	0.00871763
46	0x3b630799	0.003464198
47	0x3d2b1d87	0.041776206
48	0xbcbf76bc	-0.023372047
49	0x3ca29b6b	0.0198495
50	0xbd8ea6e2	-0.06965424
51	0x3d8a390d	0.06749163
52	0xbca84363	-0.020539945
53	0xbd2950da	-0.04133687
54	0x3d3650b2	0.04451055
55	0x3b350a0b	0.0027624394
56	0xbce24f6b	-0.02762576
57	0x3a9c7832	0.0011937676
58	0xbd8b67e8	-0.06806928
59	0xbb81e3d1	-0.0039639254
60	0xbdd19191	-0.10232843
61	0xbd158885	-0.03650715
62	0x3d83c715	0.06434456
63	0xbd890511	-0.066904195
64	0xbcf09f53	-0.029372847
65	0x3d552f60	0.052047133
66	0xbc0cff54	-0.008605797
67	0x3d795b87	0.060878303
68	0xbcc9ee1d	-0.024649674
69	0xbdb98860	-0.090592146
70	0xbddc4f1b	-0.10757276
71	0x3d8415b1	0.0644945
72	0x3c8f4d2f	0.017492859
73	0xbd6e0a5f	-0.05811536
74	0x3d3475cf	0.044057664
75	0x3ce70f51	0.028205546
76	0xbcfc61b8	-0.030808315
77	0x3bb67588	0.00556821
78	0xbd3099c6	-0.0431154
79	0xbcc84dc6	-0.024451148
80	0xbd0224f1	-0.03177351
81	0xbcf7c1ae	-0.03024372
82	0x3d179545	0.03700759
83	0x3d4c8b7b	0.049937706
84	0x3db4f0a0	0.08834958
85	0xbb34e52a	-0.0027602413
86	0x3d01c7a2	0.031684525
87	0x3c7865b5	0.015160968
88	0x3cbf0d09	0.023321645
89	0x3d888ad5	0.06667105
90	0x3d162981	0.036660675
91	0xbd8d9e8d	-0.06915007
92	0x3d97a52e	0.074045524
93	0xbd1e696d	-0.03867476
94	0xbd1e6f5b	-0.038680416
95	0x3d74ad42	0.059735544
96	0xbd3dd25c	-0.046343192
97	0xbc120fcb	-0.008914898
98	0x3d8dbd1b	0.06920835
99	0xbca67867	-0.020321084
100	0x3cfdfb7f	0.031003712
101	0x3b8a8960	0.004227802
102	0xbcbcf87d	-0.023067707
103	0xbc913f38	-0.01773034
104	0xbbe3e546	-0.0069548218
105	0xbb65bc83	-0.0035054989
106	0x3c697ef3	0.014251458
107	0x3c905add	0.017621452
108	0xbd5ba5d7	-0.053624954
109	0xbd15c365	-0.036563296
110	0xbcffb75e	-0.031215366
111	0x3d86bbea	0.065788105
112	0x3cad45b8	0.021151409
113	0x3d55f326	0.052233838
114	0xbc275469	-0.010212996
115	0x3cf62755	0.030048052
116	0xbb97958a	-0.0046259807
117	0xbd16f5d7	-0.036855545
118	0x3d9cfd3a	0.07665487
119	0x3d85cd2f	0.06533276
120	0x3c75f67f	0.0150123825
121	0xbc09f8fd	-0.00842118
122	0xbc5232e0	-0.012829512
123	0x3badd84d	0.005305326
124	0x3d5f9882	0.054588802
125	0xbd1b3aa5	-0.037897725
126	0x3d80b744	0.06284955
127	0xbd6359d9	-0.055505607

network_body.linear_encoder.seq_layers.2.weight f4 [128, 128]
0	0x3c8476c0	0.016169906
1	0xbc18a9e1	-0.009317846
2	0xbd9e19f4	-0.07719794
3	0xbd9715a9	-0.07377178
4	0x3dcb1435	0.099159636
5	0xbdc9ff70	-0.09863174
6	0x3dd55cfb	0.10418125
7	0x3db51b39	0.08843083
8	0xbe00ad3a	-0.1256608
9	0xbe0c6ccd	-0.13713379
10	0xbd494103	-0.049134266
11	0x3cbec989	0.023289459
12	0xbb5bb2ad	-0.0033523247
13	0xbd8b3b7c	-0.06798455
14	0x3def56dd	0.1168649
15	0x3dfcc513	0.123422764
16	0xbddde8ce	-0.108354196
17	0x3d256620	0.040380597
18	0x3ceba266	0.028763961
19	0xbd1115b0	-0.035421073
20	0x3d18bda1	0.03729022
21	0x3dd88183	0.105715774
22	0xbd09e2a4	-0.033663407
23	0x3ddeaf55	0.10873286
24	0x3db92075	0.09039394
25	0xbdfd09ef	-0.1235541
26	0x3e5ae1a7	0.21375142
27	0xbc211c89	-0.0098334635
28	0x3e0ef134	0.13959199
29	0xbdf79a4a	-0.12089975
30	0x3ded7993	0.11595454
31	0x3e9f6860	0.3113432
32	0x3e541e59	0.20714702
33	0xbc150740	-0.009095967
34	0xbe1c2844	-0.15249735
35	0x3c929b01	0.017896177
36	0xbdad7531	-0.08469618
37	0xbdd0f4d6	-0.10202949
38	0x3de79ef7	0.11309617
39	0x3dc90125	0.098146714
40	0x3dc38c80	0.095482826
41	0xbe049faa	-0.12951532
42	0x3d873134	0.066011816
43	0xbc365c36	-0.011130383
44	0x3d9b8c4a	0.075951174
45	0xbc648e05	-0.013949876
46	0x3e1e0c00	0.15434265
47	0xbe3598cb	-0.17734067
48	0xbcbd47a3	-0.023105448
49	0xbde3f1ed	-0.11130128
50	0x3e0cb042	0.13739112
51	0x3de02d1e	0.109461054
52	0xbd8c13dc	-0.068397254
53	0xbc2faba6	-0.0107220765
54	0xbe0b0d02	-0.13579181
55	0xbc3411cf	-0.010990574
56	0xbdab4ddc	-0.0836446
57	0x3ba660d0	0.005077459
58	0xbe232ef6	-0.15935883
59	0xbc3cbfba	-0.011520321
60	0xbbb06274	-0.0053828303
61	0x3d0606de	0.032721393
62	0x3dc2d070	0.095124125
63	0x3d5ac817	0.053413477
64	0x3ba0d5f6	0.0049083186
65	0xbdc74b63	-0.09731176
66	0x3e1d9274	0.15387899
67	0xbd429b8b	-0.04751162
68	0x3ca23a6a	0.019803245
69	0xbbd45b48	-0.006480608
70	0xbbda8c55	-0.006669561
71	0x3d5127fd	0.051063526
72	0x3c1f1aa0	0.009710938
73	0xbc5d833b	-0.013520057
74	0x3d0f5361	0.034991626
75	0x3dacaa5a	0.084309295
76	0x3dd3af1e	0.10336135
77	0xb7f7c60b	-2.9536915e-05
78	0x3d041691	0.032248084
79	0x3db9551b	0.09049436
80	0x3da6748a	0.08127697
81	0x3db92450	0.09040129
82	0x3da257a1	0.0792687
83	0xbc1558ff	-0.009115457
84	0xbdded156	-0.108797714
85	0x3be62384	0.0070232768
86	0x3df56b31	0.11983336
87	0x3e38919f	0.180243
88	0xbcc634b5	-0.024195055
89	0xbd1ba373	-0.037997674
90	0xbd3c511c	-0.04597579
91	0xbd992f7c	-0.0747976
92	0x3d56f7ba	0.052482344
93	0x3dd270a9	0.102753945
94	0x3d73d812	0.059532233
95	0xbd27f96b	-0.041009348
96	0x3b9bd532	0.0047556395
97	0xbd20827e	-0.039186947
98	0xbe6b5891	-0.22983004
99	0xbd93e766	-0.0722187
100	0x3d8f0da2	0.06985022
101	0xbd79758c	-0.060903117
102	0x3d55180d	0.05202489
103	0xbb9e3325	-0.0048278742
104	0xbda5eaea	-0.08101447
105	0x3e10475f	0.14089726
106	0x3d348a22	0.044077046
107	0xbdcd9385	-0.10037903
108	0xbd54cb41	-0.05195165
109	0xbaa79a72	-0.0012787117
110	0xbdcb3b16	-0.09923379
111	0x3d0086ce	0.03137856
112	0xbe413208	-0.18866742
113	0xbce3f155	-0.027825037
114	0x3db3fe17	0.08788698
115	0xbe24a37f	-0.16077994
116	0x3dd1cd8e	0.102442846
117	0x3c53e868	0.012933828
118	0xbd8cb8fb	-0.0687122
119	0x3ca62d40	0.020285249
120	0x3d00d37f	0.0314517
121	0xbd4861ba	-0.048921324
122	0xbe8056ab	-0.25066122
123	0x3e05781b	0.13034098
124	0xbd0b22a0	-0.033968568
125	0x3cded156	0.027199429
126	0x3daf18b7	0.08549636
127	0x3ceb16d0	0.028697401
128	0x3e46cefd	0.19414897
129	0x3e62d6ca	0.22152248
130	0x3d5dc7bd	0.054145563
131	0x3d6a1c63	0.057155978
132	0x3d65719d	0.056016553
133	0x3d2eae54	0.04264672
134	0xbdec4487	-0.11536508
135	0xbd82ec30	-0.063927054
136	0xbcd8a100	-0.026443958
137	0xbd9f7bc2	-0.07787277
138	0x3dbadbd6	0.09123962
139	0xbd3c9bbc	-0.046046957
140	0xbd5792fe	-0.052630417
141	0x3df4959a	0.11942597
142	0xbe3f7bd6	-0.18699583
143	0x3e405b12	0.1878474
144	0xbe2ca342	-0.16859153
145	0xbd7623fd	-0.060092915
146	0x3da31157	0.07962292
147	0x3dd6717e	0.10470866
148	0xbd4c5b1d	-0.04989158
149	0x3d30fd91	0.04321057
150	0xbc47f4d6	-0.0122043695
151	0x3d27218c	0.040803477
152	0xbdf53ee6	-0.119748875
153	0x3bdaaba8	0.006673295
154	0x3be130cb	0.0068722717
155	0xbc8233cd	-0.015893841
156	0xbd037466	-0.032093428
157	0x3dd0ffc6	0.10205035
158	0x3e2fb156	0.17157492
159	0xbe0d2d38	-0.13786781
160	0xbd4297d2	-0.04750807
161	0xbd4e4071	-0.050354425
162	0x3c8b1ba3	0.016980952
163	0x3d563d7f	0.05230474
164	0xbd350fed	-0.04420464
165	0xbd3a9ff6	-0.045562707
166	0xbe2d420b	-0.16919725
167	0x3ca30b09	0.019902723
168	0x3cbafd5b	0.022825887
169	0x3ded72b1	0.11594141
170	0x3dc0fbc7	0.09423023
171	0x3d48d15c	0.049027786
172	0x3d05ef24	0.032698765
173	0xbd015061	-0.031570796
174	0xbda584d2	-0.08081974
175	0x3e54b0b8	0.20770538
176	0x3e1f491a	0.1555523
177	0xbd4a162b	-0.049337547
178	0xbd735a51	-0.059412304
179	0xbe8e9fdc	-0.27856338
180	0x3cb968b6	0.022632938
181	0x3d07fde3	0.03320111
182	0x3c8abf99	0.016937064
183	0x3c2cc189	0.010544189
184	0xbd316be0	-0.04331577
185	0xbe425733	-0.18978576
186	0xbe2e894a	-0.17044559
187	0xbd66dc81	-0.056362633
188	0xbced5c88	-0.028974786
189	0xbd7b5027	-0.061355736
190	0xbdfb2a7f	-0.12263965
191	0xbd2e553d	-0.04256176
192	0x3d8c65d9	0.068553634
193	0x3d4afdb8	0.04955837
194	0xbcde97a8	-0.027171925
195	0x3e3ec368	0.18629229
196	0xbd738383	-0.05945159
197	0x3db4d46e	0.0882958
198	0x3da435f4	0.08018103
199	0xbc772d77	-0.015086523
200	0x3d09e8d5	0.03366931
201	0xbd4e79c2	-0.050409086
202	0xbc841b2a	-0.016126234
203	0xbddaa46e	-0.10675894
204	0x3d0cd803	0.034385692
205	0x3c82d62a	0.015971262
206	0xbd371b53	-0.044703793
207	0x3dc1fe52	0.09472336
208	0x3e1a8b30	0.15092158
209	0xbd40701f	-0.046981927
210	0x3b850de6	0.0040604947
211	0xbd1fbb08	-0.038996726
212	0xbd64595a	-0.055749275
213	0x3da08e0c	0.07839593
214	0xbde23a56	-0.11046283
215	0x3d8c53c6	0.06851916
216	0x3d9d12e1	0.076696165
217	0x3e049d38	0.12950599
218	0x3cc80365	0.024415681
219	0x3d7a8832	0.061165042
220	0x3d1f7a41	0.03893495
221	0xbd8057ca	-0.062667444
222	0x3d57fd9b	0.05273209
223	0x3dd9b0f4	0.10629454
224	0xbda4631a	-0.080267146
225	0xbe0ad7c1	-0.13558866
226	0x3e0cdb8b	0.13755624
227	0xba9baa83	-0.0011876378
228	0xbe20c76e	-0.15701076
229	0x3b9ec7c8	0.004845593
230	0xbd31e3d0	-0.04343015
231	0x3da71cce	0.08159791
232	0xb939c178	-0.00017715048
233	0xbd7587c0	-0.059943914
234	0x3cea19fb	0.028576842
235	0xbdd27f43	-0.102781795
236	0x3d234537	0.03986093
237	0x3e35e92a	0.17764726
238	0xbdb04015	-0.08605973
239	0x3e2194ff	0.15779494
240	0xbcf43ac0	-0.02981317
241	0x3defe470	0.11713493
242	0xbceea8c9	-0.029133217
243	0x3d92e8ab	0.07173284
244	0xbd01d164	-0.03169383
245	0x3dc106b0	0.09425104
246	0xbe509530	-0.2036941
247	0x3d40b244	0.047045007
248	0xbd3256cd	-0.04353981
249	0xbc838b45	-0.01605762
250	0x3d0a8b6e	0.033824377
251	0xbe5e2aee	-0.21696064
252	0x3d42c56f	0.04755157
253	0x3c3ae687	0.011407501
254	0xbc9f45d9	-0.019442486
255	0x3db1c3d5	0.0867993

network_body.linear_encoder.seq_layers.2.bias f4 [128]
0	0xbcac7798	-0.02105312
1	0x3c9d6bdc	0.01921647
2	0xbcf78d0a	-0.03021862
3	0x3d9fb0a0	0.077973604
4	0x3a6c2a7b	0.00090090156
5	0xbb88f12b	-0.00417914
6	0x3d269f12	0.040679045
7	0x3d211223	0.039323937
8	0x3d8603dc	0.06543705
9	0x3cf03ed8	0.029326841
10	0x3c0b0c16	0.008486768
11	0xbd72a9e3	-0.059244048
12	0x3bf21bf1	0.007388585
13	0x3d3eb8c6	0.046562932
14	0xbc88ce0d	-0.016699815
15	0xbcb04294	-0.021516122
16	0xbcd74793	-0.026279246
17	0x3d60874b	0.054816525
18	0x3dad20bb	0.084535085
19	0xbc11b41e	-0.008893041
20	0xbc89c385	-0.016816864
21	0x3c80c114	0.015717067
22	0x3c6335b9	0.013867789
23	0xbc3c71b6	-0.01150172
24	0x3cf69542	0.030100469
25	0xbcbabf6f	-0.02279636
26	0x3c132645	0.008981292
27	0xbc9610b8	-0.018318519
28	0x3ccdb6a0	0.025111496
29	0xbc888021	-0.01666266
30	0x3d3f43cc	0.046695516
31	0xbc8e2f09	-0.017356412
32	0xbcd6382b	-0.02614983
33	0xbd0580b0	-0.03259343
34	0x3d32701d	0.04356395
35	0x3c01884c	0.007906031
36	0x3cef2966	0.029194545
37	0xbc485afa	-0.012228722
38	0xbd021f28	-0.031767994
39	0xbc0edf64	-0.008720253
40	0x3b94f442	0.0045457194
41	0xbd5f18e8	-0.05446711
42	0x3cda9565	0.026682565
43	0x3d2f09a6	0.04273381
44	0x3c989e6d	0.01863023
45	0x3d5b3f45	0.053527135
46	0x3c573a7b	0.013136501
47	0xbd2833ed	-0.041065145
48	0x3d834dac	0.06411299
49	0x3a12e5e9	0.0005603717
50	0x3c663a24	0.014051948
51	0xbd337125	-0.043809075
52	0xbc23c443	-0.009995523
53	0xbbf20824	-0.0073862243
54	0x3caa6605	0.0208006
55	0xbcc60ff6	-0.024177533
56	0xbbf7247e	-0.007542192
57	0xbc75a726	-0.014993465
58	0x3cdc8b33	0.026921844
59	0x3cdcbf8c	0.026946805
60	0xbc4b59eb	-0.012411575
61	0xbc91bc42	-0.017789964
62	0xbcf469b6	-0.029835563
63	0xbd00d6df	-0.031454917
64	0xbc06af00	-0.008220434
65	0x3d8b483c	0.06800887
66	0x3aa48063	0.0012550469
67	0xbcb30f81	-0.021857979
68	0xbc5f3721	-0.013623984
69	0xbc71e847	-0.014764852
70	0x3cca694c	0.024708413
71	0x3ce4e8b2	0.027942989
72	0x3c161eb5	0.009162595
73	0xbbdb45fb	-0.006691692
74	0xbd0e679a	-0.03476677
75	0x3cbd9be6	0.023145627
76	0xbc890e41	-0.01673043
77	0x3d4e940e	0.050434165
78	0x3c9b46aa	0.018954594
79	0x3c2bd39b	0.010487462
80	0xbd04906d	-0.032364298
81	0x3d233f57	0.039855327
82	0x3c33fbec	0.010985356
83	0xbb5fbe21	-0.0034140425
84	0x3d03423b	0.032045584
85	0x3cdb14f8	0.026743397
86	0xbcdc1173	-0.02686379
87	0x3ca16cc2	0.01970518
88	0xbd5bcbc5	-0.053661127
89	0xbb784014	-0.003787999
90	0xbb9fc363	-0.004875587
91	0x3d5a853b	0.053349715
92	0xbd082016	-0.033233725
93	0xbbc6235a	-0.0060466947
94	0x3c9f54c3	0.019449597
95	0xbd06ed58	-0.032941192
96	0x3d09416c	0.033509657
97	0x3d9a581c	0.07536337
98	0xbc9629d6	-0.018330496
99	0xbc117f41	-0.008880437
100	0xbc0b92df	-0.0085189035
101	0x3d5c3e5f	0.05377042
102	0x3d57e03b	0.052704077
103	0xbcbcf3ca	-0.023065466
104	0x3d89ee06	0.067348525
105	0x3b8c9014	0.0042896364
106	0xbce5f5cb	-0.028071305
107	0xbc0fbda7	-0.008773244
108	0x3cd5566a	0.026042182
109	0x3d0c1000	0.034194946
110	0x3cb72536	0.02235661
111	0x3d0c47dc	0.034248218
112	0xbcf171f7	-0.029473288
113	0x3cea85d4	0.028628267
114	0x3d08d5de	0.033407085
115	0x3c85d4ea	0.016336877
116	0xbca6d4d4	-0.020365156
117	0x3d9bf635	0.0761532
118	0x3ce637e1	0.028102817
119	0x3c7af412	0.01531698
120	0x3ba19fc0	0.0049323738
121	0x3cea0422	0.028566424
122	0xbc1fb160	-0.009746879
123	0xbbd14e91	-0.0063875397
124	0xbc3031cb	-0.010754059
125	0xbd4385a5	-0.047734875
126	0xbcb05957	-0.021526976
127	0xbd133f78	-0.0359492

action_model._discrete_distribution.branches.0.weight f4 [3, 128]
0	0x3cc37713	0.02386049
1	0xbcd55cc4	-0.02604521
2	0xbbd6161b	-0.006533397
3	0x3c5ef9e1	0.01360938
4	0xbd0cb768	-0.034354597
5	0xbc4204db	-0.011841978
6	0x3c547294	0.012966771
7	0xbb8a9eae	-0.004230342
8	0x3c1eb775	0.009687294
9	0xbcfb9946	-0.030712735
10	0x3ccfdaa4	0.02537281
11	0xbd1236e5	-0.035696883
12	0xbd1a8129	-0.037720833
13	0xba5174bb	-0.00079901115
14	0x3bbcd7d7	0.005763035
15	0x3b8d7ac3	0.004317613
16	0xbcf7f621	-0.03026873
17	0x3cf0243e	0.029314157
18	0x3b0ee0dd	0.002180151
19	0x3bd000d3	0.0063477545
20	0x3b34dd4b	0.0027597721
21	0xbc773c3e	-0.015090046
22	0x3ca9b867	0.020717813
23	0x3d25e216	0.040498815
24	0x3b10df54	0.002210577
25	0xbc86da47	-0.016461505
26	0xbc5ab0dc	-0.013347831
27	0x3ca4da51	0.020123633
28	0x3b85afe6	0.0040798066
29	0xbb5da72d	-0.0033821568
30	0xbc948275	-0.018128613
31	0x3c80e2e0	0.015733182
32	0xbc593ec8	-0.013259597
33	0x3c7539ff	0.014967441
34	0x3d06896e	0.032845907
35	0xbc6d7e70	-0.014495477
36	0x3c1fe15b	0.009758319
37	0x3c4eb9c1	0.012617529
38	0x3bf15916	0.007365356
39	0x3caa57dc	0.020793848
40	0xbcbb6222	-0.022873942
41	0xbb749632	-0.0037320969
42	0xbc302b64	-0.010752533
43	0xbc716653	-0.014733869
44	0x3c52d3ef	0.012867912
45	0x3cc1b8a2	0.02364761
46	0xbcecc9f0	-0.028904885
47	0x3c3ae89f	0.011408
48	0xbc069ddb	-0.008216347
49	0xbc2bc53a	-0.010484034
50	0x3c5129ea	0.012766341
51	0xbb2de18e	-0.0026532146
52	0x3d3f9b5d	0.046779025
53	0xbbdab709	-0.0066746515
54	0x3cc2928e	0.023751523
55	0x3b54d4ab	0.0032475393
56	0x3b9dca10	0.0048153475
57	0x3ba7eddf	0.005124792
58	0x3c1a4af0	0.009417281
59	0xbd21dcac	-0.03951709
60	0xbb3fa01a	-0.0029239715
61	0xbbb80a94	-0.0056164954
62	0x3b7ac3f7	0.0038263777
63	0xbb904df9	-0.0044038263
64	0x3c8e37d3	0.017360603
65	0xbc5fa3a4	-0.013649855
66	0xbcfea247	-0.03108324
67	0x3c81ddfe	0.015852924
68	0x3c80e43d	0.015733832
69	0x3c7e2eec	0.015514117
70	0xbcf49fef	-0.029861419
71	0xbd3b1a96	-0.04567965
72	0xbcc8dca5	-0.024519274
73	0x3bfe83ed	0.0077671916
74	0x3c282080	0.010261655
75	0xbce5596d	-0.027996743
76	0xbc03d061	-0.008045287
77	0x3c0abdea	0.008468131
78	0xbbd3f9bd	-0.00646898
79	0xbbbfa9eb	-0.005849113
80	0x3bb20eea	0.005433907
81	0x3c180d88	0.00928057
82	0xbcd82e54	-0.026389278
83	0x3d1b9297	0.037981596
84	0xb981eb2c	-0.00024780014
85	0x3c5e3d2f	0.013564392
86	0xbc087486	-0.008328563
87	0x3a885193	0.0010400288
88	0xbc51b811	-0.0128002325
89	0x3c27986f	0.010229214
90	0xbd6d057c	-0.05786656
91	0xbcdd73ce	-0.027032759
92	0x3bdfcca8	0.006829817
93	0xbcb36495	-0.021898547
94	0xbd31846f	-0.04333919
95	0x3c8d34e8	0.017237142
96	0xbc507753	-0.012723762
97	0xbb2f6a5c	-0.0026766276
98	0x3cbe76e1	0.023250045
99	0x3c3e6fc7	0.0116233295
100	0xbc96e8b8	-0.018421516
101	0xbc3507ee	-0.011049254
102	0x3cac13ea	0.02100559
103	0xbcb5302e	-0.0221177
104	0x3d8856fc	0.06657216
105	0xbb1f368c	-0.0024293987
106	0xbbe1cb0d	-0.0068906606
107	0xbbd6b625	-0.006552475
108	0xbd136b84	-0.035991207
109	0x3caf77ab	0.021419367
110	0xbcda231a	-0.026628066
111	0x3c5f6194	0.013634104
112	0x3a41cd32	0.0007392942
113	0xbc6fd68a	-0.014638552
114	0xbc5bb559	-0.013409936
115	0x3bd72d32	0.006566667
116	0xbc2dba77	-0.010603539
117	0x3d1dcfe5	0.03852834
118	0xbcea13aa	-0.02857383
119	0xbd3f12bb	-0.046648722
120	0x3ca4a885	0.020099888
121	0xbd1d02b3	-0.038332652
122	0xbc26777f	-0.010160326
123	0xbc870517	-0.01648192
124	0x3d13bda4	0.036069527
125	0x3a8ae34d	0.0010596305
126	0x3c4fa1a8	0.012672819
127	0x3c97d900	0.01853609
128	0xbd1918bb	-0.0373771
129	0x3d419b89	0.04726747
130	0x3ba150ab	0.0049229464
131	0x3d9e9890	0.07743943
132	0xbb55b6c3	-0.0032610155
133	0x3cdf4fad	0.027259672
134	0x3d82dba1	0.06389547
135	0x3dc81be9	0.097709484
136	0x3dc8edc0	0.09810972
137	0x3cf2d8d5	0.02964441
138	0x3cf829ed	0.03029343
139	0xbc097887	-0.008390552
140	0x3a7f244d	0.0009732887
141	0x3d9c360d	0.07627497
142	0x3c35ba6b	0.011091809
143	0x3c3850cb	0.011249731
144	0xbd2ae198	-0.04171905
145	0x3d8e624c	0.069523424
146	0x3dac06a8	0.08399707
147	0x3c66d1ca	0.014088104
148	0x3d3ac2d5	0.045595963
149	0x3cee641d	0.029100472
150	0xbcbad4b9	-0.022806512
151	0xbca52702	-0.020160202
152	0x3d22ec25	0.039775986
153	0xbca8155b	-0.020517996
154	0x3d14de21	0.03634465
155	0xbd1450ed	-0.03620999
156	0x3d44f7fc	0.04808806
157	0xbd16b35c	-0.036792144
158	0x3d96d20c	0.07364282
159	0xbb427b13	-0.0029675409
160	0xbac777c7	-0.0015218192
161	0xbbc53381	-0.0060181026
162	0x3d3d94a7	0.046284344
163	0x3cac152b	0.021006187
164	0x3d5902e8	0.052981287
165	0xbd407eab	-0.0469958
166	0x3c383702	0.011243584
167	0x3c2f85ef	0.010713085
168	0xbc729746	-0.014806574
169	0x3bf5db1e	0.0075029274
170	0x3c88b100	0.016685963
171	0x3d3949a0	0.04523623
172	0xbceec210	-0.02914527
173	0x3dbafd42	0.09130336
174	0x3d26e194	0.04074247
175	0xbc45f603	-0.01208258
176	0x3dd7d404	0.10538486
177	0x3bb359f9	0.005473372
178	0xbd17bb66	-0.03704395
179	0xbc750ce4	-0.014956687
180	0xbd75bc57	-0.059994068
181	0x3bef2dd9	0.0072991666
182	0xbd95a3a9	-0.07306606
183	0xbb8f6122	-0.004375593
184	0xbcea522c	-0.028603636
185	0xbc80792d	-0.015682781
186	0xbcca5d6a	-0.024702746
187	0xbba53510	-0.005041726
188	0x3b2dc547	0.0026515292
189	0x38341cc7	4.2942145e-05
190	0xbc727477	-0.014798275
191	0x3bfca017	0.007709514
192	0xbc301853	-0.010747987
193	0x3ddec776	0.10877888
194	0xbccba318	-0.024858043
195	0x3bc66e1e	0.0060556075
196	0xbd057adf	-0.032587882
197	0xbb09d74d	-0.002103287
198	0x3d3c43a2	0.045962937
199	0x3d74554d	0.05965166
200	0x3bf42f8e	0.007451958
201	0xbccb9519	-0.024851369
202	0xbbcb0e62	-0.006196783
203	0xbc5828b9	-0.013193303
204	0x3cb7a8bc	0.022419326
205	0x3d5d22a9	0.053988133
206	0x3d0965c5	0.03354432
207	0x3cc5c7b6	0.024143081
208	0x3b885109	0.004160051
209	0x3d93cf17	0.07217234
210	0x3b96c14b	0.004600679
211	0xbceab6d3	-0.02865163
212	0x3cb282a9	0.02179082
213	0x3d67cbd4	0.05659087
214	0x3ca90b1e	0.020635184
215	0xbc09068f	-0.00836338
216	0x3c28db47	0.010306186
217	0xbc8fefb1	-0.017570348
218	0xbc74707d	-0.014919397
219	0xbd6ca69b	-0.057776075
220	0xbc1b2ba5	-0.009470855
221	0x3c8b6f53	0.017020857
222	0x3d14cf02	0.03633023
223	0x3ca6a893	0.020344054
224	0x3d17a390	0.03702122
225	0x3de6e25a	0.11273642
226	0xbcb60895	-0.02222089
227	0xbca86444	-0.020555623
228	0xbc4d5e28	-0.012534656
229	0x3d8fa2ed	0.070134975
230	0x3d640756	0.05567106
231	0xbce14d22	-0.0275026
232	0x3d033f22	0.03204263
233	0x3c946a69	0.018117147
234	0x3c90d08c	0.017677568
235	0x3d1565f2	0.036474176
236	0x3c2af2fc	0.010433909
237	0x3d66ddfa	0.056364037
238	0x3c1c23f8	0.00953006
239	0x3d37a145	0.044831533
240	0xbbe5cbc9	-0.0070128185
241	0x3cee7b6c	0.029111587
242	0xbc70bb99	-0.014693164
243	0x3c597847	0.013273305
244	0xbbbeb7c5	-0.005820247
245	0xbcc6d162	-0.024269763
246	0xbb377e2f	-0.0027998795
247	0xbd0f355e	-0.034963004
248	0xbcf05c6d	-0.029340947
249	0x3ae34b5b	0.0017341183
250	0xbcc6074e	-0.024173405
251	0x3cb5a5e3	0.022173828
252	0xbcded6e7	-0.027202083
253	0x3b962683	0.0045822277
254	0x3abf63f0	0.0014601927
255	0xbc51ace7	-0.012797571

action_model._discrete_distribution.branches.0.bias f4 [3]
0	0xbcb9320d	-0.022606874
1	0x3c56357e	0.013074277
2	0x3c787b70	0.015166149

critic.network_body.vector_processors.0.normalizer.running_mean f4 [7]
0	0x3eb875cc	0.36027372
1	0xbd84f80e	-0.06492625
2	0x3bad9c53	0.0052981763
3	0x3cfdf132	0.0309988
4	0xbb245226	-0.0025073378
5	0x3b5fdbe9	0.0034158176
6	0x3d1256fc	0.035727486

critic.network_body.vector_processors.0.normalizer.running_variance f4 [7]
0	0x47e110d0	115233.625
1	0x46145b0f	9494.765
2	0x410e7663	8.903903
3	0x46019f2c	8295.793
4	0x46e2eb11	29045.533
5	0x4135bd2e	11.358686
6	0x47073d85	34621.52

critic.network_body.linear_encoder.seq_layers.0.weight f4 [128, 7]
0	0x3ed88b44	0.4229375
1	0xbdc29027	-0.09500151
2	0x3edbedf8	0.42954993
3	0xbdd4523b	-0.10367247
4	0x3e33d3b3	0.17561226
5	0x3e4b72b7	0.19867979
6	0x3f169ba8	0.5883126
7	0xbec111c8	-0.3770888
8	0xbe257a2d	-0.16159888
9	0xbd1cec97	-0.038311567
10	0x3e74541d	0.23860212
11	0x3e6b9e52	0.23009613
12	0xbf08634f	-0.5327653
13	0xbf0f2bce	-0.55926216
14	0x3e8e6dcd	0.27818146
15	0x3ec04f23	0.37560377
16	0x3e2a96b5	0.16659053
17	0xbebe53a4	-0.37173188
18	0x3e0e410d	0.13892002
19	0xbe0518a3	-0.1299768
20	0x3e9d24e8	0.3069222
21	0x3dc67360	0.09689975
22	0x3f43c42b	0.76471204
23	0x3dece632	0.11567344
24	0xbe8b715c	-0.27234924
25	0xbecbe039	-0.39819506
26	0x3f20b0e5	0.6276992
27	0xbd898195	-0.06714169
28	0x3e5fbff4	0.21850568
29	0x3f0b26df	0.5435619
30	0xbf277ab3	-0.654216
31	0xbe5640af	-0.20923112
32	0x3f1abbd4	0.6044285
33	0xbe635440	-0.22200108
34	0xbe708837	-0.23489462
35	0xbe63e2a1	-0.22254421
36	0xbea1179f	-0.31463334
37	0x3f107565	0.5642913
38	0xbc418355	-0.011811097
39	0xbec8d87f	-0.39227673
40	0xbed4145b	-0.4142178
41	0x3ed99f07	0.4250414
42	0x3d5c4354	0.053775147
43	0xbeb72857	-0.35772964
44	0x3ec49ac7	0.38399336
45	0x3f3a3679	0.7273937
46	0x3ed2def4	0.41185725
47	0x3ec48c6c	0.38388383
48	0x3e3958d2	0.18100289
49	0xbeb58230	-0.35450888
50	0xbd7a2235	-0.06106778
51	0x3e2ba950	0.16763806
52	0xbe4fac23	-0.20280509
53	0xbead00e5	-0.33789745
54	0x3ca3f474	0.020014025
55	0xbee13c38	-0.43991256
56	0x3ebd27cd	0.36944428
57	0x3eb15317	0.34633705
58	0xbe87253b	-0.26395592
59	0xbdc8343d	-0.09775589
60	0x3f0a16d7	0.539411
61	0x3d93303b	0.071869336
62	0x3e431c70	0.19053817
63	0xbf16b7ec	-0.5887439
64	0x3e8df49f	0.27725694
65	0xbf0b76c3	-0.5447809
66	0xbda51f17	-0.080625705
67	0x3ee3830d	0.4443592
68	0x3df01107	0.11721998
69	0x3eb1e740	0.34746742
70	0xbd1d42c4	-0.03839375
71	0xbeaf8078	-0.342777
72	0xbe0ee411	-0.13954188
73	0x3ebf5d24	0.37375748
74	0xbe7c3946	-0.24631223
75	0xbdf01ac4	-0.11723855
76	0x3ebf1790	0.37322664
77	0xbec71d90	-0.38889742
78	0x3e2e1899	0.17001571
79	0x3e14d1c9	0.14533152
80	0xbf7f35b8	-0.99691343
81	0xbd7977ac	-0.060905144
82	0xb9c41996	-0.00037403096
83	0xbd53cb66	-0.051707648
84	0xbf1a70b9	-0.6032825
85	0x3ee55a5b	0.44795498
86	0xbbf4fc18	-0.007476341
87	0x3cf2a197	0.029618068
88	0xbd9a3101	-0.07528878
89	0xbea69650	-0.32536554
90	0x3e9fd2be	0.3121547
91	0x3f6a6976	0.9156717
92	0x3e201e98	0.1563667
93	0x3db2e79b	0.087355815
94	0xbf49b463	-0.78790873
95	0x3d9f3235	0.07773248
96	0xbcc6b4a2	-0.024256054
97	0xbf42f69a	-0.76157534
98	0x3ea040b1	0.31299356
99	0x3ed7b2b8	0.4212854
100	0xbe82ed30	-0.25571585
101	0x3e92670d	0.28594247
102	0x3f06279d	0.52404195
103	0xbc45578e	-0.0120448
104	0x3f147fb6	0.5800737
105	0xbe15394c	-0.14572638
106	0xbe7c4970	-0.24637389
107	0x3db96195	0.090518154
108	0x3e4f2034	0.20227128
109	0xbedad2aa	-0.4273885
110	0x3d76b7fc	0.060234055
111	0xbf83b11b	-1.0288423
112	0x3e91cf36	0.28478402
113	0xbe9a7795	-0.3016936
114	0xbeef100a	-0.46691924
115	0xbf457913	-0.7713787
116	0xbe80ea7a	-0.2517889
117	0xbe293dd6	-0.16527495
118	0xbeccb013	-0.39978084
119	0xbe46f31e	-0.1942868
120	0x3e84488c	0.258366
121	0x3ea2e428	0.31814694
122	0x3e826793	0.25469646
123	0x3d1bb11e	0.03801071
124	0x3f4c67b9	0.7984577
125	0x3e9f69b2	0.31135327
126	0xbda6c209	-0.08142478
127	0xbea64b7c	-0.32479465
128	0x3dc57cfa	0.09642978
129	0x3e4a7ba2	0.19773725
130	0xbf089b19	-0.5336166
131	0xbe123e48	-0.14281571
132	0x3dbf73c1	0.0934825
133	0x3e1e4f27	0.15459882
134	0xbe18b1f1	-0.1491163
135	0x3e1b9384	0.15192991
136	0xbe88eb69	-0.26742104
137	0x3d43dedf	0.04781997
138	0xbe8685bb	-0.26273903
139	0xbeb77d2a	-0.3583768
140	0xbe954d21	-0.29160407
141	0xbde238f7	-0.110460214
142	0x3e8685ff	0.26274106
143	0xbc027cd4	-0.007964332
144	0x3e969365	0.29409328
145	0x3e902893	0.28155956
146	0xbe403a33	-0.18772201
147	0xbe35e867	-0.17764436
148	0xbe21c008	-0.1579591
149	0x3ed291aa	0.41126758
150	0xbc14734c	-0.009060692
151	0xbefe7d7d	-0.49705115
152	0x3ef085e6	0.46977156
153	0x3de1294d	0.109942056
154	0xbdd5167e	-0.10404681
155	0x3e4044d0	0.1877625
156	0xbdc6e362	-0.097113386
157	0xbdc0f83b	-0.09422346
158	0x3e4a43af	0.19752382
159	0xbf06458c	-0.5244987
160	0xbd1abdfe	-0.037778847
161	0x3de67de8	0.112544835
162	0x3dfd767e	0.12376116
163	0x3e7e8b3c	0.24857801
164	0xbf0b990e	-0.5453042
165	0xbe1ddb06	-0.15415582
166	0xbdf615db	-0.12015887
167	0x3e3e013c	0.18555158
168	0x3d034495	0.032047827
169	0xbf46037f	-0.77349085
170	0x3e91f496	0.28506917
171	0x3ea3335f	0.3187513
172	0x3d940d06	0.072290465
173	0xbd9b87bf	-0.07594251
174	0xbec793f7	-0.38980076
175	0xbe50d831	-0.2039497
176	0x3e9c287b	0.30499634
177	0xbda2c9fd	-0.079486825
178	0x3f214fd2	0.6301242
179	0xbd5d6d18	-0.054059118
180	0x3eb53b5f	0.3539686
181	0xbe963d20	-0.2934351
182	0xbe54e78a	-0.2079145
183	0x3f387efd	0.7206877
184	0x3e7af36e	0.24506924
185	0x3e13c8bb	0.14432041
186	0xbd9d18f4	-0.07670775
187	0x3ed61327	0.41811487
188	0x3e9c426b	0.30519423
189	0x3cd651d8	0.026162073
190	0xbf3512ec	-0.70732
191	0x3d50efd5	0.05100997
192	0x3c4975de	0.012296168
193	0xbd80dff0	-0.06292713
194	0x3f46ca9b	0.776529
195	0x3ec2d409	0.38052395
196	0xbf19bd0c	-0.6005409
197	0xbe05ba96	-0.13059458
198	0xbe54a583	-0.20766263
199	0x3e1db2af	0.15400194
200	0x3da85540	0.08219385
201	0xbe2c0765	-0.16799696
202	0x3f500e8c	0.81272197
203	0x3e2f5320	0.17121553
204	0x3cecf18d	0.028923774
205	0x3e87e905	0.26544967
206	0x3e7cb732	0.24679258
207	0x3eef5113	0.46741542
208	0xbd4c7fdb	-0.04992662
209	0x3e0fcd39	0.1404313
210	0xbbf9d942	-0.007624776
211	0x3f1bb92c	0.60829425
212	0xbf4c8d48	-0.7990308
213	0x3ea07f7e	0.3134727
214	0x3e370112	0.17871502
215	0x3e58fbb1	0.21189763
216	0x3e33ec96	0.17570719
217	0x3e280cb4	0.16411096
218	0x3e69e0c0	0.22839642
219	0x3e3ecd6c	0.1863305
220	0x3d082f96	0.033248506
221	0x3ed833e0	0.42227077
222	0x3f0c1619	0.5472122
223	0x3ddf571d	0.109052874
224	0x3f2a0f08	0.66429186
225	0xbdc205a6	-0.094737336
226	0xbeac2d25	-0.33628193
227	0x3e4c4fb6	0.19952282
228	0x3ca76b18	0.020436808
229	0xbe78eb4f	-0.24308513
230	0x3ebc7763	0.36809835
231	0xbe82ed24	-0.2557155
232	0xbe7dc0ae	-0.24780533
233	0xbf46d848	-0.7767377
234	0x3e67d2a8	0.22638953
235	0x3f0fea22	0.56216633
236	0x3e004fdf	0.12530468
237	0x37a70b5c	1.9913241e-05
238	0x3d8072c1	0.062718876
239	0x3e10035e	0.14063784
240	0x3eb6ef6e	0.35729545
241	0x3e32e45e	0.17469928
242	0x3d9334bd	0.071877934
243	0x3cc4e12d	0.024033153
244	0xbe18d519	-0.1492504
245	0x3b4b37df	0.0031008644
246	0xbddcb66a	-0.1077698
247	0xbc6233b7	-0.013806275
248	0x3e050127	0.12988721
249	0xbdc45200	-0.09585953
250	0x3c792535	0.015206625
251	0x3d8e836c	0.069586605
252	0x3f1ce8d2	0.61292756
253	0xbe5fc49b	-0.21852343
254	0x3ccd062c	0.025027357
255	0x3f0a8ef7	0.541244

critic.network_body.linear_encoder.seq_layers.0.bias f4 [128]
0	0x3c726b19	0.014796042
1	0xbc93d5ee	-0.018046346
2	0xbc9cc497	-0.01913671
3	0xbc86f310	-0.016473323
4	0xbc19481d	-0.009355572
5	0x3ce04d69	0.027380662
6	0xbcfb9969	-0.0307128
7	0x3c5c166f	0.013433083
8	0x3c6a07b8	0.014284067
9	0x3d0d31bc	0.03447126
10	0xbc119648	-0.0088859275
11	0x3ca89420	0.020578444
12	0xbca218e1	-0.019787254
13	0x3bceb219	0.006307852
14	0x3c165c0d	0.00917722
15	0xbccd6a02	-0.025074963
16	0xbc5af7d7	-0.013364754
17	0x3b17496b	0.0023084532
18	0xbc985e7c	-0.018599741
19	0x3c0c7daf	0.008574887
20	0xbaa5a46f	-0.0012637506
21	0xbd30abec	-0.043132707
22	0xbd187008	-0.037216216
23	0xbc4175ac	-0.01180784
24	0xbd0a1257	-0.033708896
25	0xbca892a1	-0.02057773
26	0xbd2f0f1a	-0.04273901
27	0xbbd82a4b	-0.0065968386
28	0xbc434816	-0.011919042
29	0xbcf801f8	-0.030274376
30	0xbc50d3f9	-0.012745851
31	0x3c890c5b	0.016729524
32	0x3b60b19d	0.0034285553
33	0xbd034caa	-0.032055534
34	0xbd4cdc14	-0.05001457
35	0xbb589eba	-0.0033053593
36	0xbce98856	-0.028507393
37	0xbba4f579	-0.0050341454
38	0xbb817981	-0.003951252
39	0x3c0fa322	0.008766921
40	0x3c6e7528	0.014554299
41	0xbbb1ca01	-0.005425692
42	0x3cb69bb3	0.02229104
43	0xbc862767	-0.01637621
44	0x3ceefc9e	0.029173192
45	0xbccd221f	-0.025040684
46	0xbcbf6831	-0.023365112
47	0xbc3e06a4	-0.011598263
48	0x3c62ba19	0.013838314
49	0x3cddfeec	0.027099095
50	0x3c421311	0.011845366
51	0xbd1c72a0	-0.038195252
52	0xbd531e21	-0.051542405
53	0xbc4b1e5b	-0.012397374
54	0xbd483a16	-0.04888352
55	0xbd554aee	-0.05207341
56	0xbccc3fe5	-0.024932811
57	0xbc90f03e	-0.017692681
58	0x3c07b47e	0.008282779
59	0x3ca95b9b	0.020673564
60	0xbc8460da	-0.016159464
61	0xba82c5dd	-0.0009977181
62	0x3cf45082	0.029823545
63	0xbb0df8f8	-0.002166329
64	0x3d10aef7	0.03532311
65	0xba3d564e	-0.0007222638
66	0x3bce7953	0.006301084
67	0x3c9605a1	0.018313231
68	0x3cb15b49	0.021649973
69	0x3d3d062f	0.046148475
70	0xbbbf2df8	-0.0058343373
71	0xbc80734c	-0.015679978
72	0xbc894e02	-0.01676083
73	0x3baff4c2	0.0053697536
74	0xbc8059e0	-0.015667856
75	0xbc642d4b	-0.013926814
76	0x3bce534e	0.006296552
77	0x393fcfbd	0.00018292568
78	0x395b77ad	0.0002093005
79	0x3c45309b	0.012035514
80	0x3bfabfcc	0.0076522585
81	0xb9507d3c	-0.00019883079
82	0xbd131fd6	-0.035919033
83	0xbc2b04f8	-0.010438196
84	0x3d36c8d8	0.044625133
85	0x3c11862a	0.008882085
86	0xbcabcc06	-0.02097131
87	0xbbdb3c36	-0.0066905273
88	0x3b6de718	0.0036301073
89	0x3bd28c44	0.0064254124
90	0xbaa3b908	-0.0012491057
91	0xbd15820c	-0.036500975
92	0xba557829	-0.00081432104
93	0x3ce41976	0.027844172
94	0x3c2c5950	0.010519341
95	0x3d1e5f1f	0.038664933
96	0x3c56dcad	0.013114137
97	0x3b9eb8e9	0.0048438204
98	0x3c05fafe	0.008177517
99	0xbadd19e5	-0.0016868679
100	0xbbfd8e3e	-0.007737904
101	0xbc71375f	-0.014722674
102	0xbbc69cf5	-0.006061191
103	0xbc0d6c79	-0.008631819
104	0x3d0170d4	0.031601742
105	0xbc8b9d01	-0.017042639
106	0xbabd10b9	-0.0014424539
107	0x3c469914	0.012121458
108	0x3b4abd4a	0.003093558
109	0x3cb1449b	0.021639159
110	0xbcf284b8	-0.0296043
111	0xbb85f342	-0.0040878365
112	0xbce0f5e5	-0.027461002
113	0xbcabeb3d	-0.020986194
114	0x3c154a7c	0.009111997
115	0xbc708718	-0.014680646
116	0xbb5101f4	-0.0031892033
117	0x3c1d4e1a	0.00960114
118	0xbcb4bf79	-0.022063958
119	0x3c48e9bb	0.012262757
120	0x3d065d43	0.032803785
121	0xbaef0b44	-0.001823761
122	0x3cbcb35a	0.02303474
123	0xbaafa134	-0.0013399483
124	0xbd17ab67	-0.037028696
125	0x3c3e443b	0.011612947
126	0xbcf3fca6	-0.029783558
127	0x3d613fa6	0.05499234

critic.network_body.linear_encoder.seq_layers.2.weight f4 [128, 128]
0	0xbcaedde1	-0.021346034
1	0xbdccd0a5	-0.10000733
2	0x3d42f362	0.04759539
3	0xbcc5f4d4	-0.024164595
4	0xbcda0dfb	-0.026617995
5	0xbd24db3b	-0.040248137
6	0x3d417605	0.047231693
7	0x3d8a1a7f	0.06743335
8	0xbd5fca94	-0.054636553
9	0x3d879ca6	0.06621675
10	0xbbf9bd5b	-0.00762145
11	0x3e7b9d85	0.24571808
12	0xbd9454bf	-0.072427265
13	0x3df359de	0.11882375
14	0x3c8a419d	0.01687699
15	0x3d8ca8a4	0.06868103
16	0xbc485e42	-0.012229504
17	0xbd52525b	-0.05134807
18	0xbd65199e	-0.055932634
19	0x3c68ebdc	0.0142163895
20	0x3d663052	0.056198426
21	0x3d16eeda	0.03684888
22	0xbdc8f1b1	-0.09811724
23	0x3c44714f	0.0119899055
24	0x3c50dc08	0.012747772
25	0x3d699810	0.057029784
26	0xbc1b18e4	-0.009466384
27	0xbc8229d4	-0.015889086
28	0x3d8326f7	0.06403916
29	0xbde966ee	-0.113965854
30	0x3d610ac6	0.054941915
31	0xbdfd631a	-0.12372418
32	0xbdca3e88	-0.09875208
33	0xbe1a7a9e	-0.15085837
34	0xbd530c7d	-0.05152558
35	0x3cf13896	0.029445928
36	0x3d8834ae	0.06650673
37	0xbdcbc7b9	-0.099502034
38	0xbc0d6fd7	-0.008632622
39	0x3df7f898	0.12107962
40	0xbe028596	-0.12746271
41	0xbd5573ff	-0.052112576
42	0x3d4f0474	0.050541356
43	0xbdd71a01	-0.10503007
44	0xbc181bea	-0.009283999
45	0x3cde9356	0.027169865
46	0x3e292d44	0.16521174
47	0x3ce91d98	0.028456494
48	0x3dde2cb3	0.108483694
49	0xbcd480ca	-0.025940318
50	0x3d22b839	0.03972647
51	0x3dd65d24	0.10466984
52	0xbd2f17e2	-0.042747386
53	0xbd46faee	-0.04857915
54	0xbdc5567d	-0.09635637
55	0xbc2e2540	-0.010628998
56	0xbbedca0e	-0.007256753
57	0x3d745301	0.05964947
58	0x3d8a6f7f	0.067595474
59	0x3d0608c4	0.032723203
60	0xbbe7e09c	-0.007076336
61	0xbd3a85ca	-0.045537747
62	0x3d09b18f	0.0336166
63	0x3da2cb22	0.07948901
64	0x3c8e2677	0.017352326
65	0xbdbb7a81	-0.09154225
66	0xbe257518	-0.16157949
67	0xbdca7a6d	-0.09886632
68	0x3d777f00	0.06042385
69	0xbe045daa	-0.12926355
70	0x3d7837f2	0.06060023
71	0xbc7ae737	-0.015313915
72	0xbd866bc5	-0.06563524
73	0xbe1d9bb4	-0.15391427
74	0xbd9f4c7a	-0.077782586
75	0x3de78f64	0.113066465
76	0xbdc2c103	-0.0950947
77	0xbdcebafc	-0.10094258
78	0x3d828ea3	0.06374862
79	0x3dc6ee53	0.097134255
80	0xbd3e5bdb	-0.04647432
81	0x3d29130e	0.041277938
82	0xbb7f756c	-0.00389799
83	0xbd0fe404	-0.035129562
84	0x3dd80fdd	0.10549901
85	0x3de4bcff	0.11168861
86	0xbdca3d86	-0.09875016
87	0xbd41ab84	-0.04728271
88	0x3d5390ad	0.051651645
89	0xbdc8bf3d	-0.09802101
90	0x3d854474	0.06507197
91	0xbd940099	-0.072266765
92	0xbdeaa766	-0.1145771
93	0xbe88c6ed	-0.26714268
94	0xbe67e644	-0.22646433
95	0xbe0409b6	-0.1289433
96	0xbc782ec1	-0.015147866
97	0xbb7246c5	-0.0036968451
98	0x3dcd064f	0.10010969
99	0x3e33a172	0.17542055
100	0xbc4d5626	-0.012532746
101	0xbde26802	-0.11054994
102	0xbc237c20	-0.009978324
103	0xbce2ae09	-0.027670877
104	0x3c26d8d4	0.010183532
105	0xbd0c91ca	-0.034318723
106	0x3c020b98	0.0079373345
107	0xbcdcd603	-0.026957517
108	0xbd85d52a	-0.065347984
109	0x3c19f622	0.009397062
110	0x3d85f6a7	0.06541186
111	0xbccda100	-0.025101185
112	0xbd9590fe	-0.07303046
113	0x3d9a7f8c	0.07543859
114	0xbdd2c447	-0.10291343
115	0xbdbc6efa	-0.092008546
116	0x3dcd7c07	0.10033422
117	0x3bf54a7c	0.007485686
118	0x3d74f015	0.059799273
119	0x3d6fa107	0.058503177
120	0xbd9946ad	-0.074841835
121	0xbd788d78	-0.06068179
122	0xbbfdb1d2	-0.007742145
123	0x3cd29786	0.025707018
124	0x3e7597fb	0.23983757
125	0x3e1aa9d8	0.15103853
126	0x3c643d33	0.013930607
127	0x3d1b8ee1	0.037978057
128	0x3b80a53f	0.003925949
129	0xbce56099	-0.028000163
130	0x3dfb5956	0.12272899
131	0x3da15401	0.078773506
132	0x3ddb5ffb	0.10711666
133	0xbd1a881b	-0.037727457
134	0xbc5081a6	-0.012726223
135	0x3d126566	0.035741232
136	0x3c931fc1	0.017959477
137	0x3e30ca11	0.17264582
138	0xbde12ef7	-0.10995286
139	0x3d933644	0.07188085
140	0xbde83ec9	-0.113401
141	0xbcc4af8c	-0.024009489
142	0xbdbe0580	-0.09278393
143	0x3d1a123d	0.03761505
144	0x3d8a5060	0.067536116
145	0xbd848769	-0.0647114
146	0x3d8aa559	0.06769819
147	0x3c54ebd4	0.012995679
148	0x3c6ee556	0.014581045
149	0xbbec2a6e	-0.0072072065
150	0xbd8d3afa	-0.068960145
151	0x3d63a81c	0.055580243
152	0x3cb7a409	0.022417085
153	0x3d640704	0.055670753
154	0x3d431b8a	0.047633685
155	0x3c010052	0.0078736115
156	0x3d46790c	0.048455283
157	0xbdbc9b1b	-0.092092715
158	0x3d950ed3	0.07278218
159	0x3d84878e	0.064711675
160	0x3d91d3e3	0.07120492
161	0x3e002e18	0.12517583
162	0x3d51f8e9	0.05126277
163	0xbd3926ae	-0.045202903
164	0xbd1b2930	-0.037881076
165	0x3cb30239	0.021851646
166	0x3e08f814	0.13375884
167	0x3e013192	0.12616566
168	0xbe0ad38c	-0.13557261
169	0x3e0fbb2f	0.14036249
170	0xbdd45d1d	-0.103693224
171	0xbe03b49d	-0.12861867
172	0x3df7b5d3	0.12095227
173	0x3da6126e	0.08108984
174	0x3c8dddd2	0.017317686
175	0x3e509ae8	0.20371592
176	0x3df32dec	0.11873993
177	0x3cada61c	0.021197371
178	0x3d7dd2a4	0.06196846
179	0xbd91829f	-0.07104992
180	0x3d40adbc	0.047040686
181	0x3a89a2db	0.0010500805
182	0xbd036a3e	-0.032083742
183	0xbbd5a5ff	-0.0065200324
184	0xbd0daa3e	-0.034586184
185	0x3d2454cb	0.040119927
186	0x3c16683f	0.009180128
187	0x3d567135	0.052354056
188	0x3dd2b3ab	0.10288175
189	0xbc879e06	-0.016554844
190	0xbc6ffcc1	-0.014647664
191	0xbd14afd1	-0.036300484
192	0x3c86ab19	0.016439008
193	0x3dd8edb2	0.10592212
194	0x3df45f77	0.11932271
195	0x3df3bb7d	0.11900995
196	0x3c3ceb64	0.011530731
197	0xbd4c48b8	-0.049874038
198	0xbd24c142	-0.040223368
199	0x3c68ba24	0.014204536
200	0x3c539bd0	0.012915567
201	0xbe210dc8	-0.15727913
202	0x3d9cb2ff	0.07651328
203	0xbd122759	-0.035682056
204	0x3d912eae	0.070889816
205	0xbd29c772	-0.04144997
206	0x3d7809fd	0.0605564
207	0x3e1e6318	0.15467489
208	0x3d8a495e	0.06752275
209	0xbe219cdb	-0.15782492
210	0xbd239916	-0.039940916
211	0x3d4746c8	0.048651487
212	0xbd7507b1	-0.05982179
213	0xbcf79f1c	-0.030227236
214	0xbb8b0c70	-0.004243426
215	0xbb331ab5	-0.002732915
216	0x3d928cc2	0.07155754
217	0x3e181a05	0.14853676
218	0x3d7156b4	0.058920577
219	0x3d8e5dcb	0.06951483
220	0xbdc93232	-0.09824027
221	0xbcf75837	-0.030193431
222	0xbdd213e4	-0.102577
223	0x3d949e2f	0.072567336
224	0xbd0f7d07	-0.035031345
225	0xbd9bc044	-0.07605031
226	0x3e2dc963	0.16971354
227	0xbda3d2a0	-0.07999158
228	0x3d9ca85c	0.076492995
229	0xbdd515d0	-0.10404551
230	0xbd9cdb47	-0.07659011
231	0xbe07b316	-0.1325191
232	0xbd1b5c2e	-0.037929706
233	0x3e4ac5a3	0.19801955
234	0x3df20fe8	0.1181944
235	0x3d9fb031	0.07797278
236	0x3da73bb3	0.081656836
237	0x3c316f71	0.010829792
238	0x3e003931	0.12521817
239	0x3d7f026a	0.06225816
240	0x3cc464ac	0.023973785
241	0xbd7683b2	-0.06018419
242	0xbd1d21ce	-0.038362317
243	0xbc2a62ae	-0.010399504
244	0x3c989c27	0.018629147
245	0xbe2f21c0	-0.17102718
246	0xbdf80dbc	-0.121119946
247	0x3dd49a88	0.10381037
248	0x3dd6b019	0.10482807
249	0xbdfa47d1	-0.12220729
250	0xbe8905e6	-0.26762313
251	0x3c9583cc	0.018251322
252	0x3c00fd49	0.007872888
253	0x3c86b292	0.01644257
254	0x3dc212a9	0.094762154
255	0xbd4c7565	-0.049916644

critic.network_body.linear_encoder.seq_layers.2.bias f4 [128]
0	0x3b49b95f	0.0030780656
1	0x3d015a43	0.03158022
2	0xbc4d7111	-0.012539164
3	0x3d0bc971	0.034127656
4	0xbd3049e3	-0.043039214
5	0x3c40ab71	0.011759625
6	0xbd7de46e	-0.061985426
7	0x3c21ce40	0.009875834
8	0x3c7420d1	0.014900402
9	0xbc1069b3	-0.008814263
10	0xbd2c408d	-0.042053748
11	0xbb454f55	-0.00301071
12	0x3d01bf03	0.031676304
13	0xbbbe68b4	-0.0058108214
14	0x3c90c14d	0.017670298
15	0xbc373af3	-0.011183488
16	0xbcb16722	-0.021655623
17	0x3ca4e8f4	0.020130612
18	0x3cd0e62d	0.025500381
19	0xbda190b6	-0.078889295
20	0xbcb202ca	-0.021729846
21	0x3cc5b462	0.024133865
22	0xbbfb6b20	-0.0076726824
23	0x3c82e5bc	0.015978687
24	0x3c1ccb0f	0.009569897
25	0x3be1e978	0.0068942867
26	0xbce066e0	-0.027392805
27	0xbc3bd967	-0.011465407
28	0xbad5d470	-0.0016313922
29	0xbcd8f085	-0.026481876
30	0x3c13797c	0.009001132
31	0xbaeb3ba2	-0.0017946849
32	0x3c65d8a7	0.014028705
33	0x3d4918dc	0.049095973
34	0xbc10875e	-0.008821337
35	0x3c6d60cc	0.01448841
36	0xbb8b48eb	-0.004250636
37	0x3d0cbb3a	0.03435824
38	0x3bd5672e	0.006512544
39	0x3cdd10fa	0.026985634
40	0x3d7d14b3	0.06178732
41	0x3d01e344	0.031710878
42	0xbc88f76b	-0.01671954
43	0xbd3b068b	-0.045660537
44	0x3ce9a1b9	0.028519498
45	0xba8c5495	-0.001070636
46	0x3c87fa09	0.016598718
47	0x3c847cc1	0.016172769
48	0x3cf444b2	0.029817913
49	0x3cb9c59c	0.022677235
50	0xbd0bdc87	-0.03414586
51	0xbc096f5b	-0.008388366
52	0xbcf70ce8	-0.030157521
53	0x3c7c810a	0.015411625
54	0xbd82c40e	-0.06385051
55	0xbaa46704	-0.0012542908
56	0xbcfa7f96	-0.030578416
57	0x3bc27f77	0.005935605
58	0x3c6ef134	0.0145838745
59	0xbd04aebe	-0.03239321
60	0x3cd777c8	0.026302233
61	0xbce6082b	-0.028080067
62	0x3bc0b799	0.0058812615
63	0x3ae86dfe	0.0017732976
64	0x3c097ab8	0.008391075
65	0xbbcd0bbb	-0.006257502
66	0x3d0d56e2	0.034506686
67	0xbb7e37c3	-0.003879056
68	0xbc848eed	-0.016181434
69	0x3c26781a	0.01016047
70	0xbc1ca985	-0.009561901
71	0xbceebbdc	-0.029142313
72	0xbc30e05b	-0.010795678
73	0x3c644a4e	0.013933731
74	0xba9a2e0b	-0.001176299
75	0x3a5ebebb	0.0008497049
76	0xbce56234	-0.028000928
77	0x3ca822c9	0.0205244
78	0x3bc55646	0.0060222475
79	0xbd060490	-0.032719195
80	0x3b81c939	0.003960755
81	0xbb837baf	-0.004012547
82	0xbd3eaffc	-0.04655455
83	0x3caebfce	0.021331694
84	0x3b17c458	0.0023157801
85	0xb98249ee	-0.00024850614
86	0x3c294c14	0.01033308
87	0xbd8e38c1	-0.06944419
88	0xbbf632fd	-0.0075134025
89	0x3ca4a0cc	0.020096205
90	0x3baf4f2e	0.005350015
91	0x3b1c07c3	0.0023808337
92	0x3d075972	0.033044286
93	0xbcdae851	-0.026722105
94	0xbca1e647	-0.019763125
95	0x3b34ce1b	0.0027588669
96	0x3cc4db81	0.024030449
97	0xbc85a057	-0.016311808
98	0x3ad4eef9	0.0016245536
99	0x3cb29e11	0.021803888
100	0xbc2e1be2	-0.010626765
101	0xbd1c80f5	-0.03820892
102	0xbb5ab09a	-0.0033369423
103	0xbc57b5bc	-0.013165887
104	0xbd1bd84f	-0.038048085
105	0x3a9748e7	0.0011542112
106	0xbd468006	-0.048461936
107	0xbd13fb76	-0.036128484
108	0x3cd520aa	0.026016552
109	0x3c9ef31a	0.01940303
110	0x3c32b6dc	0.010907855
111	0xbba33c1e	-0.0049815318
112	0xbd02b7b5	-0.031913478
113	0xba8e6288	-0.0010863105
114	0x3c01dc81	0.007926107
115	0xbd0b9844	-0.03408076
116	0xbc274065	-0.010208224
117	0x3be64bd7	0.007028084
118	0xbcc43b70	-0.023954123
119	0xbd30c247	-0.043154027
120	0xbc63ca3c	-0.013903197
121	0x3d0c92ce	0.03431969
122	0xbb8610ab	-0.0040913424
123	0x3c277c1f	0.010222464
124	0x3b59f4bc	0.0033257445
125	0xbcb473fd	-0.022027964
126	0xbbb00f32	-0.005372905
127	0x3b2310d7	0.0024881864
