ArmRobot/Assets/results/Test3/TouchCubeMoveGail/TouchCubeMoveGail-3499998.onnx (onnx, 136259 bytes, 20 tensors)

action_model._discrete_distribution.branches.0.bias f4 [3]
0	0x3dc2e3a9	0.09516079
1	0xbc78d3c7	-0.01518721
2	0xbc90be2f	-0.017668812

action_model._discrete_distribution.branches.0.weight f4 [3, 128]
0	0x3cc97565	0.02459211
1	0x3da89bde	0.08232854
2	0xbe923630	-0.28556967
3	0x3e13a1cc	0.1441719
4	0xbeb616ad	-0.35564175
5	0xbce3f17f	-0.027825115
6	0x3d042371	0.032260362
7	0x3e610f0d	0.21978398
8	0x3e5bf491	0.21480013
9	0xbdebe341	-0.115179546
10	0x3c6c8eec	0.014438372
11	0xb99b08be	-0.00029570417
12	0xbe24442a	-0.16041628
13	0x3d080a07	0.033212688
14	0x3e0750b9	0.13214387
15	0x3d9b9982	0.07597639
16	0xbe2f3dbf	-0.17113398
17	0x3ceab305	0.028649816
18	0xbda154f4	-0.07877532
19	0x3ea8427d	0.32863227
20	0xbd64819e	-0.055787675
21	0xbe12a23c	-0.143197
22	0x3ddadf70	0.106871486
23	0x3dda129b	0.1064808
24	0x3dbfc5c3	0.09363892
25	0xbde10f60	-0.10989261
26	0xbf59d759	-0.8509422
27	0x3d488e28	0.048963696
28	0xbecafdc4	-0.39646733
29	0xbcff72a4	-0.031182595
30	0x3df2c825	0.11854581
31	0x3d21822e	0.03943079
32	0x3bee3f69	0.0072707427
33	0xbcf819c0	-0.030285716
34	0xbd95ef1f	-0.07320999
35	0x3e20311d	0.15643735
36	0xbe9df6ac	-0.30852258
37	0x3da220db	0.07916423
38	0x3e481309	0.19538511
39	0xbd91285d	-0.07087777
40	0x3d926783	0.071486495
41	0x3cbaaf3f	0.022788642
42	0xbcc5f1b5	-0.024163106
43	0x3dba24e6	0.09089069
44	0x3b039fe5	0.0020084318
45	0x3d5f75f7	0.05455586
46	0x3df2bf77	0.11852925
47	0xbc5a31f2	-0.013317572
48	0x3db57422	0.08860041
49	0x3d9ef709	0.07761962
50	0x3e15cca9	0.14628853
51	0xbccc28f6	-0.024921875
52	0x3d319727	0.04335704
53	0x3f3fb76b	0.7488925
54	0xbde98c52	-0.11403717
55	0x3e252d1e	0.16130492
56	0xbdb31553	-0.08744302
57	0x3f5c691c	0.86097884
58	0xbeadab18	-0.33919597
59	0x3e039328	0.12849104
60	0xbd4c3aae	-0.04986065
61	0xbd60280c	-0.05472569
62	0x3ed485f5	0.4150845
63	0xbf09ebf7	-0.5387568
64	0xbe8a86e8	-0.2705605
65	0x3e669381	0.22517206
66	0x3e81ba24	0.25337327
67	0xbce0a930	-0.027424425
68	0xbcea2926	-0.028584074
69	0x3df517e0	0.119674444
70	0xbe22ba28	-0.15891325
71	0x3d4abb26	0.049494885
72	0x3cb4737b	0.022027722
73	0x3c8b7011	0.01702121
74	0x3dcedea9	0.10101063
75	0x3e001983	0.12509732
76	0x3e24fedf	0.1611285
77	0xbda0e364	-0.07855871
78	0xbbdc3856	-0.006720583
79	0x3db175e4	0.08665064
80	0x3db622fe	0.08893393
81	0xbdf662bc	-0.12030551
82	0xbe7e15bc	-0.24812979
83	0xbd933bf3	-0.07189169
84	0x3df012d3	0.117223404
85	0xbd7d036e	-0.06177085
86	0x3e092d11	0.13396098
87	0xbd1ae183	-0.03781272
88	0x3db81130	0.08987653
89	0x3dcc89e7	0.0998724
90	0xbd039b19	-0.032130335
91	0xbecc37f0	-0.39886427
92	0x3e41587b	0.18881409
93	0x3e5557af	0.2083423
94	0x3d2d77dc	0.042350635
95	0x3e51f151	0.20502211
96	0xbd6b5be3	-0.057460677
97	0x3e8318fa	0.25604993
98	0x3d42892f	0.04749411
99	0x3dae1068	0.08499223
100	0x3e915730	0.2838683
101	0xbd49d807	-0.049278285
102	0xbea9b0d9	-0.33142737
103	0xbe11e8bb	-0.14248936
104	0xbe38b936	-0.18039402
105	0x3d0d695e	0.034524314
106	0x3db84681	0.089978226
107	0xbed9966b	-0.42497572
108	0xbeacf9a0	-0.337842
109	0x3e04c660	0.12966299
110	0xbc9dd937	-0.019268615
111	0x3b7d5d8d	0.0038660497
112	0x3d83054e	0.06397496
113	0xbe7e87f7	-0.24856554
114	0xbe1a09ab	-0.1504275
115	0xbe6306d4	-0.22170573
116	0x3c9c5fb2	0.0190886
117	0xbd0c574f	-0.03426295
118	0xbe248ece	-0.160701
119	0x3cb5f288	0.022210374
120	0x3d997157	0.07492321
121	0x3dd608c8	0.10450894
122	0xbd328e8d	-0.04359298
123	0xbea20425	-0.31643787
124	0xbe00ef62	-0.12591317
125	0x3adab101	0.0016684831
126	0xbca54e5d	-0.020178968
127	0xbdc3301f	-0.09530663
128	0xbd021db3	-0.031766605
129	0x3cde7514	0.027155437
130	0x3d48cd0c	0.049023673
131	0xbcf2fecd	-0.029662514
132	0x3ccb495a	0.02481525
133	0x3da46b28	0.08028251
134	0xbc913f34	-0.017730333
135	0x3caa0e6b	0.020758828
136	0x3c0aab22	0.008463653
137	0x3d15d2ea	0.036578096
138	0x3dc2a41c	0.09503958
139	0xbd825f66	-0.06365852
140	0x3e1f65f7	0.1556624
141	0x3dd433a3	0.103614114
142	0xbd8e4e75	-0.06948558
143	0xb8ca593a	-9.64873e-05
144	0xbd8a31aa	-0.06747754
145	0x3ceb005d	0.028686697
146	0x3e1354f9	0.14387883
147	0xbe1e4c84	-0.15458876
148	0xbe032833	-0.12808304
149	0xbd2c8e67	-0.042127993
150	0xbdf88ca2	-0.121361986
151	0x3bb4d3bc	0.0055184048
152	0x3e1d0b4e	0.15336344
153	0xbd94af3d	-0.072599865
154	0x3d9d1e49	0.07671792
155	0xbe24f00b	-0.16107194
156	0x3e367b18	0.17820394
157	0x3dcb6383	0.0993109
158	0xbcf7847b	-0.030214539
159	0x3e0b7506	0.1361886
160	0xbdfa6fdb	-0.12228366
161	0x3d2bda1f	0.041956063
162	0xbdf70023	-0.12060573
163	0xbc5402e5	-0.012940143
164	0x3e9f6cd7	0.31137726
165	0x3d0aa42c	0.033847973
166	0xbcf034a9	-0.029321985
167	0xbd8868ab	-0.06660589
168	0x3e200bcb	0.15629499
169	0xbd8ad5f7	-0.06779092
170	0x3e73e820	0.23819017
171	0xbda052d1	-0.07828296
172	0x3d7f5eff	0.062346455
173	0xbdb05617	-0.0861017
174	0x3e0c88d2	0.13724068
175	0x3b6cba58	0.0036121812
176	0xbd403d27	-0.04693332
177	0xbcc24c4c	-0.023718022
178	0x3dc19922	0.09453036
179	0xbdf8dbed	-0.121513225
180	0xbd47d727	-0.04878917
181	0xbe952992	-0.29133278
182	0xbc87b0dd	-0.016563827
183	0x3dad3587	0.08457475
184	0x3e03c03c	0.128663
185	0xbeadf23e	-0.3397388
186	0x3e6600e1	0.22461273
187	0xbdad2f11	-0.08456243
188	0x3bd3ea02	0.006467105
189	0x3e2cfc1a	0.16893044
190	0xbd78e882	-0.06076861
191	0x3df0561e	0.117351755
192	0x3da22850	0.07917845
193	0x3e192d41	0.14958669
194	0x3d8a451d	0.067514636
195	0x3e013a9f	0.12620018
196	0xbd44f6ce	-0.048086934
197	0xbd82b0ab	-0.06381353
198	0xbd2f7658	-0.04283747
199	0xbd85199d	-0.06499026
200	0x3da8a50d	0.08234606
201	0xbd313ad3	-0.04326899
202	0xbd570a80	-0.052500248
203	0x3dbd7494	0.09250751
204	0xbe1f8daa	-0.15581384
205	0xbd1a8ecc	-0.037733838
206	0xbd9819e8	-0.07426816
207	0xbe0a86fe	-0.13528058
208	0x3dcf072d	0.101087905
209	0x3d3dc4e0	0.046330333
210	0x3e3512c2	0.17682937
211	0x3e11ff4c	0.14257544
212	0x3e0f1732	0.13973692
213	0xbd95fd89	-0.073237486
214	0x3e3b5be9	0.1829678
215	0xbc77ba2b	-0.0151200695
216	0xbd18a341	-0.037265066
217	0xbdb72e68	-0.08944398
218	0xbd3f5b47	-0.04671791
219	0x3e47df59	0.19518794
220	0x3b099ea9	0.002099911
221	0xbce1cdcb	-0.02756395
222	0xbcb08f8d	-0.021552825
223	0x3d135ba0	0.035976052
224	0xbe676f30	-0.22601008
225	0xbec3434e	-0.38137287
226	0x3ae227b7	0.0017254268
227	0xbd2e8cbf	-0.042614695
228	0xbe4615cb	-0.19344251
229	0x3d69bd2c	0.057065174
230	0x3eb44824	0.3521129
231	0x3e00a7dd	0.12564035
232	0x3cb5726e	0.02214929
233	0x3d97fb80	0.07421017
234	0x3e42ca42	0.19022468
235	0x3e595050	0.21222043
236	0xbe629272	-0.22126177
237	0x3d3f7475	0.04674192
238	0xbd8a268a	-0.06745632
239	0xbe08db6c	-0.13364953
240	0xbe07b394	-0.13252097
241	0xbe21c55f	-0.15797947
242	0x3dc5bd59	0.09655256
243	0xbe500fe9	-0.20318569
244	0x3e0c7567	0.1371666
245	0xbdaf3c67	-0.08556443
246	0xbb90a909	-0.004414682
247	0x3af616a1	0.0018775054
248	0x3c9cd68c	0.019145273
249	0xbe68891d	-0.22708555
250	0x3e4aa32b	0.19788806
251	0xbbb02816	-0.0053758724
252	0x3c15ad6f	0.009135588
253	0x3dc65ca4	0.096856385
254	0xbbc7be49	-0.006095682
255	0xbd2ff2d2	-0.04295618

action_model._discrete_distribution.branches.1.bias f4 [3]
0	0xbd8a1174	-0.0674161
1	0xbd8f3237	-0.069919996
2	0x3cc2a4f2	0.023760293

action_model._discrete_distribution.branches.1.weight f4 [3, 128]
0	0x3dcaa438	0.098946035
1	0x3ddfe993	0.109332226
2	0xbf302aa5	-0.6881507
3	0xbdb8264d	-0.0899168
4	0xbf9d0d18	-1.2269621
5	0xbe10f550	-0.1415608
6	0xbd473b24	-0.048640385
7	0x3dfed240	0.12442446
8	0x3d63781c	0.055534467
9	0xbe5970c6	-0.21234426
10	0xb8f4623f	-0.000116531264
11	0xbd2757c5	-0.040855188
12	0xbd68f005	-0.056869525
13	0x3d0fb0ff	0.035080906
14	0xbe05f100	-0.13080215
15	0xbd3d6ad8	-0.046244472
16	0x3dc67480	0.09690189
17	0xbeb0505f	-0.34436318
18	0xbd74e5fd	-0.059789646
19	0x3e5d05c3	0.21584229
20	0x3c69f143	0.014278713
21	0xbdece8ca	-0.115678385
22	0xbdcc3eac	-0.09972891
23	0xbde1d057	-0.11026066
24	0x3c72fd3d	0.0148308845
25	0x3e113c29	0.14183106
26	0xbdaeddca	-0.08538397
27	0xbeaec8de	-0.34137625
28	0xbdb8030d	-0.08984957
29	0xbde5bb79	-0.11217398
30	0xbda21c44	-0.079155475
31	0xbd144824	-0.03620161
32	0xbdac0e86	-0.084012076
33	0xbe8e8c43	-0.27841386
34	0x3d94c818	0.07264727
35	0xbd9d6e59	-0.07687063
36	0xbe851453	-0.2599207
37	0x3ba96d8f	0.005170531
38	0x3d7d98dd	0.06191336
39	0xbeb3619d	-0.3503541
40	0xbc121dda	-0.00891825
41	0xbe2049d2	-0.1565316
42	0xbd8d0864	-0.06886366
43	0xbdad38db	-0.0845811
44	0x3df051a3	0.11734321
45	0xbea172fa	-0.31533033
46	0x3d0e79dd	0.034784187
47	0xbe0241a8	-0.12720358
48	0x3d1a5224	0.03767599
49	0xbe1713ef	-0.14753698
50	0x3ca62d6c	0.02028533
51	0xbe7a25ab	-0.24428432
52	0x3d46487e	0.048408978
53	0x3d5547d7	0.052070465
54	0xbda60e45	-0.081081904
55	0x3cdeb8e0	0.027187765
56	0x3d4eaaa2	0.050455697
57	0xbbe4ce89	-0.0069826287
58	0xbf9d46a7	-1.2287186
59	0xbd7e077c	-0.062018856
60	0xbcb62e90	-0.022239
61	0x3c40526b	0.0117384
62	0xbda07ab9	-0.078359075
63	0x3c12eb2b	0.008967201
64	0xbe30cd96	-0.17265925
65	0x3dc9b5d4	0.09849134
66	0x3ca07f87	0.01959206
67	0xbcb2428a	-0.021760244
68	0xbd82ee8b	-0.06393155
69	0x3e1f3c30	0.15550303
70	0xbf548387	-0.83013195
71	0xbe8c58f4	-0.27411616
72	0xbcde1dc2	-0.027113799
73	0xbb8627e0	-0.004094109
74	0xbdfaf15e	-0.122530684
75	0xbce94671	-0.028475972
76	0xbd9ddbc6	-0.07707934
77	0x3d9b963b	0.075970136
78	0x3e351cc8	0.1768676
79	0x3d132358	0.03592238
80	0x3cf2f59e	0.029658135
81	0xbe855f9f	-0.26049516
82	0x3c9cc775	0.019138077
83	0x3caa4d3b	0.02078878
84	0x3b994605	0.0046775364
85	0xbe2d3dd4	-0.16918117
86	0xbe1e679e	-0.15469214
87	0xbe4a3bdb	-0.19749396
88	0xbe56ecaa	-0.20988718
89	0xbd8599da	-0.065234855
90	0xbe49b60b	-0.1969835
91	0xbd369e9f	-0.044584867
92	0x3d7a685f	0.061134692
93	0x3d784bf4	0.06061931
94	0x3db38e3c	0.087673634
95	0x3da854e3	0.08219316
96	0x3dd57bd2	0.104240075
97	0xbd9314a9	-0.07181675
98	0x3da4d04d	0.08047543
99	0xbe585100	-0.21124649
100	0xbe152ba3	-0.14567427
101	0xbdf17a1b	-0.11790868
102	0xbf47d7ea	-0.78063834
103	0x3d2a3ac4	0.04155995
104	0xbd20b53b	-0.039235335
105	0xbccd4779	-0.025058495
106	0xbc58560f	-0.013204112
107	0xbdb2328f	-0.087010495
108	0xbd39db48	-0.04537514
109	0x3c458673	0.012055981
110	0xbea72e0a	-0.32652313
111	0xbe236491	-0.15956332
112	0x3e2f1b7d	0.1710033
113	0xbd55b0a3	-0.052170407
114	0xbe576ecf	-0.21038364
115	0x3df7e6d1	0.121045716
116	0xbd300262	-0.042971022
117	0xbea08898	-0.31354213
118	0xbe14a6ee	-0.14516804
119	0x3e1e3e00	0.15453339
120	0x3dcc1058	0.09964055
121	0xbce122a7	-0.027482344
122	0x3a97f0b2	0.0011592119
123	0x3db70051	0.08935607
124	0xbe295dc4	-0.16539675
125	0x3be0f2d3	0.0068648844
126	0xbd4378f9	-0.04772279
127	0x3d84266c	0.06452641
128	0x3c841f61	0.016128244
129	0xbbd078bc	-0.006362049
130	0x3ed65577	0.4186208
131	0xbc218d8d	-0.0098604085
132	0x3f5f7a18	0.87295675
133	0x3e85d36b	0.26137862
134	0xbcf50bb5	-0.029912809
135	0xbcc4be54	-0.024016537
136	0x3d9201d7	0.07129257
137	0x3d825f1b	0.06365796
138	0xbdfa6175	-0.1222562
139	0xbcaa90a7	-0.020820929
140	0x3cb574da	0.022150446
141	0x3d919f6e	0.07110487
142	0xbe0a2177	-0.13489328
143	0x3d0c58a8	0.034264237
144	0x3e06ae4b	0.13152425
145	0xbe084ab2	-0.13309744
146	0x3e1a9071	0.15094163
147	0xbe3e40ff	-0.18579482
148	0xbc7be80e	-0.01537515
149	0xbe652205	-0.22376259
150	0x3e71bb0c	0.23606509
151	0x3cc3f809	0.023921983
152	0x3e393489	0.18086447
153	0x3d1af0f4	0.037827447
154	0x3eabfd86	0.3359186
155	0x3ec1cb97	0.3785064
156	0x3e64204e	0.22277948
157	0x3dfabf3f	0.122435085
158	0xbb8db3dc	-0.0043244194
159	0x3dcaa604	0.09894946
160	0x3ccc2cf0	0.024923772
161	0xbe852120	-0.26001835
162	0xbdec11e2	-0.115268484
163	0x3d8fe7cb	0.07026633
164	0x3dd65539	0.10465474
165	0x3e2a6dc3	0.16643433
166	0x3d53c8a1	0.051705007
167	0xbd6f338e	-0.058398776
168	0x3dedb76e	0.11607252
169	0x3e298fed	0.1655881
170	0x3e0e3084	0.13885695
171	0x3d6b06fe	0.057379715
172	0xbc93ef50	-0.018058449
173	0xbe0f887f	-0.14016913
174	0x3d31cd52	0.0434087
175	0xbdfc49ec	-0.12318787
176	0xbd8dd1ce	-0.06924783
177	0x3e93c853	0.28863773
178	0x3d1fc466	0.03900566
179	0x3d98461d	0.07435248
180	0x3c0bbef4	0.0085294135
181	0x3de8e5b5	0.11371938
182	0x3d02bf46	0.031920694
183	0x3dad191e	0.08452056
184	0x3e3fd363	0.18732981
185	0x3d82d1e3	0.06387689
186	0x3fa87561	1.3160821
187	0xbdce241b	-0.1006548
188	0x3deaa127	0.114565186
189	0x3d135652	0.035970993
190	0x3e171244	0.14753062
191	0x3d1470d1	0.036240403
192	0xbdffa953	-0.12483468
193	0x3d8258d2	0.063645974
194	0xbd0e39c1	-0.034723047
195	0x3d0d61ed	0.034517217
196	0xbe147cdd	-0.14500757
197	0x3a83e85b	0.0010063754
198	0x3f1322ef	0.5747518
199	0xbd030ab8	-0.031992644
200	0xbdabfd60	-0.08397937
201	0xbce5fa5f	-0.028073488
202	0xbe8d97c4	-0.2765485
203	0x3eba807e	0.36426157
204	0x3d717608	0.058950454
205	0x3d0bc6b4	0.034125045
206	0x3d96fb98	0.073722064
207	0xbe1bbb00	-0.15208054
208	0x3d061870	0.03273815
209	0x3cd0fda0	0.025511563
210	0x3bde7f41	0.006790072
211	0x3e09660d	0.13417836
212	0x3d6b0bb0	0.057384193
213	0xbde53229	-0.11191208
214	0x3d3752a8	0.04475656
215	0xbdb2464a	-0.08704813
216	0xbd913b52	-0.070913926
217	0x3dbb60f9	0.091493554
218	0xbca73b48	-0.02041401
219	0xbc71ebcb	-0.01476569
220	0x3d9b1758	0.07572812
221	0xbc448d4e	-0.01199658
222	0x3c3cf646	0.011533326
223	0x3d6e70a4	0.05821289
224	0x3c7d41d8	0.015457593
225	0x3e894cb5	0.26816335
226	0x3d2da6ae	0.042395286
227	0xbde9f227	-0.1142314
228	0x3df9b6e9	0.121930905
229	0x3d0f8d8c	0.0350471
230	0x3f3190c7	0.6936154
231	0xbc8e2f74	-0.017356612
232	0xbd47d92f	-0.048791107
233	0x3e18c3bd	0.14918418
234	0x3d934782	0.071913734
235	0x3b3c0643	0.0028690256
236	0x3da22851	0.07917846
237	0x3ea36712	0.31914574
238	0xbcef70d5	-0.029228607
239	0xbe2792c3	-0.16364579
240	0x3d870cf4	0.065942675
241	0x3e34c779	0.17654218
242	0xbd731b5c	-0.059352264
243	0xbd16f0f2	-0.036850877
244	0x3e28038e	0.16407606
245	0xbd3cb067	-0.046066668
246	0xbc38bc3f	-0.01127535
247	0x3ccea5ca	0.025225539
248	0x3da0d0c5	0.0785232
249	0x3e8dc07d	0.2768592
250	0x3e0cbf26	0.13744792
251	0x3d8bca39	0.0682568
252	0x3c26277a	0.010141248
253	0x3e9569fd	0.29182425
254	0xbc36b485	-0.011151438
255	0x3cfd5a9d	0.030926997

action_model._discrete_distribution.branches.2.bias f4 [3]
0	0xbe30dc48	-0.1727153
1	0xbc9e6fa8	-0.019340351
2	0x3e1fab81	0.15592767

action_model._discrete_distribution.branches.2.weight f4 [3, 128]
0	0xbd9ffc7a	-0.07811828
1	0xbdf4e7f2	-0.119583026
2	0xbf5626c7	-0.8365292
3	0xbe419196	-0.18903193
4	0xbfa7bfbb	-1.3105386
5	0xbd4a353b	-0.04936717
6	0xbe35f126	-0.17767772
7	0x3d910eea	0.07082923
8	0xbc81ced5	-0.015845696
9	0x3de9b832	0.114120856
10	0xbe201776	-0.1563395
11	0x3dd1d975	0.10246555
12	0x3d20dcf5	0.03927322
13	0x3bf64670	0.007515721
14	0xbe2a4d22	-0.16630986
15	0xbe036cb5	-0.12834437
16	0xbdc03c45	-0.093864955
17	0x3d11b628	0.03557411
18	0xbd9f72cd	-0.077855684
19	0x3dc966e9	0.09834082
20	0xbd1e9f1a	-0.03872595
21	0xbc2f64be	-0.010705171
22	0x3e271d0b	0.16319673
23	0xbe3a98aa	-0.18222299
24	0xbbef9f28	-0.007312674
25	0x3e31fd02	0.17381671
26	0xbe6d897a	-0.23196974
27	0xbeda1fab	-0.42602286
28	0xbe55dfdd	-0.20886178
29	0xbe8d39b5	-0.2758309
30	0xbe5b7220	-0.21430254
31	0xbdf9c376	-0.12195484
32	0x3b8049ec	0.003915062
33	0x3e5d08e6	0.21585426
34	0x3e6f215d	0.23352571
35	0xbcb38041	-0.021911742
36	0xbeb979d2	-0.36225754
37	0xbd89adb0	-0.067225814
38	0x3e5827e9	0.21108975
39	0x3e119cb7	0.14219938
40	0xbdaa8a3e	-0.08327149
41	0xbe321237	-0.17389761
42	0xbd239c2e	-0.039943866
43	0xbeaf2faf	-0.34216067
44	0x3d105416	0.03523644
45	0x3d836586	0.064158484
46	0x3e27aff9	0.16375722
47	0x3e17012a	0.14746538
48	0x3e2c70d1	0.16839911
49	0xbe7658c1	-0.24057294
50	0x3e0c9afb	0.13730995
51	0xbed31a8a	-0.41231185
52	0xbe032e83	-0.12810712
53	0x3e0fe039	0.14050378
54	0xbe1198bb	-0.14218418
55	0x3da97081	0.082734115
56	0xbd848691	-0.06470979
57	0x3dacca31	0.084370025
58	0xbfddcbea	-1.7327855
59	0xbe037c7d	-0.12840457
60	0xbe2f2277	-0.17102991
61	0x3df84883	0.121232055
62	0x3ccfde21	0.025374474
63	0x3e205dd7	0.15660797
64	0xbe8a9fcc	-0.2707504
65	0x3d0a45da	0.033758022
66	0x3d072059	0.032989834
67	0xbca36fe5	-0.019950816
68	0x3dbd57ff	0.092452995
69	0xbdc57873	-0.096421145
70	0xbf7d64b1	-0.9898177
71	0x3e04b7d3	0.12960748
72	0x3c610ead	0.013736409
73	0x3bd8871c	0.006607903
74	0xbe86c17e	-0.26319498
75	0xbe65ed64	-0.22453839
76	0x3e075e60	0.13219595
77	0x3e0ae878	0.13565242
78	0xbda60e7e	-0.08108233
79	0x3d994a75	0.07484905
80	0xbdcf847b	-0.101326905
81	0xbe807b72	-0.2509418
82	0xbd091241	-0.033464674
83	0xbe71c9e5	-0.23612173
84	0xbd871096	-0.065949604
85	0xbe111f89	-0.14172186
86	0x3ccd69b3	0.025074815
87	0xbc7ae7c8	-0.01531405
88	0xbe5a9f14	-0.21349746
89	0xbe092cfc	-0.13396066
90	0xbe45a9ea	-0.19303098
91	0xbd816bd6	-0.06319396
92	0xbdb32337	-0.08746951
93	0x3d584d57	0.052808132
94	0xbddd7b9b	-0.108145915
95	0xbd80bb28	-0.06285697
96	0x3b3d6e47	0.0028904842
97	0x3e8fb124	0.28064835
98	0xbda71d47	-0.08159881
99	0xbe01aa6a	-0.12662664
100	0x3e38d852	0.1805127
101	0x3e94ba47	0.29048368
102	0xbf98de75	-1.1942888
103	0x3eaa24ab	0.332311
104	0xbe0d50b9	-0.13800324
105	0xbd693886	-0.05693867
106	0x3d9c5331	0.07633055
107	0xbea4856d	-0.32133046
108	0xbe5d2ebf	-0.21599863
109	0xbdbe66f7	-0.09296983
110	0x3e137094	0.14398414
111	0xbeebee80	-0.460804
112	0xbe3a661d	-0.18203016
113	0xbe24fc06	-0.16111764
114	0xbe5c773a	-0.21529856
115	0xbd1b5fdc	-0.037933215
116	0xbdd3624b	-0.10321482
117	0xbe83ae1a	-0.25718766
118	0xbd1b2b4a	-0.03788308
119	0x3dcd2d9c	0.10018465
120	0xbe3b10e4	-0.18268162
121	0xbd51923a	-0.051164843
122	0x3e1088f8	0.1411475
123	0x3b1aeecc	0.002364087
124	0xbe88a89d	-0.26691142
125	0xbcc6d018	-0.024269149
126	0xbc10eed0	-0.008846
127	0x3e0ddb24	0.13853127
128	0xbe94b41c	-0.29043663
129	0xbe38fc21	-0.1806493
130	0xbdad0414	-0.084480435
131	0x3de1399e	0.10997318
132	0xbdfa2c46	-0.12215476
133	0x3d415f52	0.047210045
134	0xbc971804	-0.018444069
135	0x3db7ac2b	0.08968385
136	0xbcf7d8c6	-0.030254733
137	0xbd860c10	-0.065452695
138	0xbe3c28f7	-0.18375002
139	0xbe67b27b	-0.22626679
140	0x3e106930	0.14102626
141	0xbd9e7e86	-0.07738976
142	0xbc976c77	-0.018484337
143	0xbd56d8f3	-0.052452993
144	0x3dc8d5f0	0.0980643
145	0x3e760d96	0.2402862
146	0x3e369692	0.17830876
147	0xbe01b72f	-0.12667535
148	0x3da929dc	0.08259937
149	0x3ddd26d3	0.10798421
150	0x3ef2fd53	0.47458896
151	0xbd1df2cb	-0.038561624
152	0xbdf7b47e	-0.12094973
153	0xbd9c6677	-0.07636731
154	0x3f127913	0.57215995
155	0x3dc3e7d3	0.09565701
156	0xbe132752	-0.14370468
157	0x3e81a5e1	0.25321868
158	0xbdbe1487	-0.09281259
159	0xbca5109f	-0.020149527
160	0xbeb1c86b	-0.3472322
161	0x3e0a8c76	0.13530144
162	0xbdc1eca4	-0.09468964
163	0x3eaaae8a	0.33336288
164	0x3e711cba	0.23546115
165	0xbd77ba2e	-0.06048029
166	0xbd098120	-0.03357041
167	0x3e8589a8	0.26081586
168	0xbdd3120c	-0.103061765
169	0x3e9a2029	0.3010266
170	0xbda3ed57	-0.08004253
171	0xbca53131	-0.020165058
172	0x3cd07df3	0.025450682
173	0x3e44e5f4	0.19228345
174	0x3d14f784	0.03636886
175	0xbe356a2e	-0.17716286
176	0xbd55e39e	-0.052219026
177	0x3e7c2aa5	0.24625643
178	0xbe297e58	-0.16552103
179	0xbdb7c5c0	-0.08973265
180	0x3dbfdef2	0.09368695
181	0x3d4a3701	0.049368862
182	0xbd943040	-0.072357655
183	0x3cac0e87	0.02100302
184	0x3e15fed2	0.14647987
185	0x3c29d510	0.010365739
186	0xbdc97efb	-0.09838673
187	0xbdfc74fc	-0.123270005
188	0x3ddd6c0e	0.108116254
189	0xbbdaf160	-0.006681606
190	0x3dce4487	0.10071664
191	0xbd328905	-0.043587703
192	0xbdadaf56	-0.08480708
193	0x3c24194a	0.010015795
194	0xbd24c30c	-0.040225074
195	0xbd9dbf7d	-0.07702539
196	0xbe2a054c	-0.16603583
197	0xbe79e762	-0.24404672
198	0xbdfc1f9c	-0.123107165
199	0x3e48bb59	0.19602717
200	0x3cc73e5a	0.024321724
201	0xbe8f9f9c	-0.2805146
202	0xbe06bcaf	-0.13157915
203	0x3e67bbd2	0.22630242
204	0x3e62779a	0.22115937
205	0x3d5d6290	0.054049075
206	0xbe3535ee	-0.17696354
207	0xbc08bd3a	-0.008345896
208	0xbd1969c9	-0.0374544
209	0x3da56043	0.08075001
210	0x3db95bd0	0.09050715
211	0x3d167350	0.036731064
212	0x3dc4f3ba	0.096168
213	0x3e41d6b0	0.18929553
214	0x3cde4e7b	0.027137032
215	0x3da1e7df	0.07905554
216	0x3d181481	0.03712893
217	0x3e09f064	0.13470608
218	0x3d2aebd6	0.041728817
219	0xbd852475	-0.06501094
220	0xbe6cea42	-0.23136237
221	0xbdf77175	-0.12082187
222	0xbcd179f0	-0.02557084
223	0x3d044990	0.032296717
224	0xbe269f0d	-0.1627161
225	0x3d11154a	0.035420693
226	0xbe47aa1e	-0.19498488
227	0x3daefe19	0.08544559
228	0x3e4cb4be	0.19990823
229	0xbeb04698	-0.3442886
230	0xbdce92be	-0.100865826
231	0x3c61883a	0.013765389
232	0x3f02befc	0.5107267
233	0x3d0cf115	0.0344096
234	0x3e9bec28	0.3045361
235	0xbe1707c1	-0.14749052
236	0x3de3af00	0.11117363
237	0x3d2dc543	0.04242445
238	0x3e633833	0.22189407
239	0xbe3605b9	-0.1777562
240	0xbe2a57ae	-0.1663501
241	0x3ca72432	0.020403001
242	0x3ebcc626	0.36869925
243	0x3d429447	0.04750469
244	0xbcaa39bf	-0.020779489
245	0x3e7d4972	0.24735048
246	0x3d7152ad	0.058916736
247	0x3ea71db3	0.32639846
248	0xbe71605a	-0.23571911
249	0x3c05c797	0.008165262
250	0x3e03311e	0.12811705
251	0xbee48af9	-0.44637278
252	0xbdef3ed1	-0.11681903
253	0x3e62326f	0.22089551
254	0xbe8defd6	-0.27722043
255	0x3d797236	0.060899936

action_model._discrete_distribution.branches.3.bias f4 [3]
0	0xbe336abf	-0.17521189
1	0x3d2e2dc5	0.042524118
2	0x3d3efb7f	0.046626564

action_model._discrete_distribution.branches.3.weight f4 [3, 128]
0	0x3e3978c6	0.18112478
1	0x3d5c8229	0.053835068
2	0xbf23ed61	-0.64034086
3	0xbd5f7178	-0.05455157
4	0xbf9615d5	-1.1725413
5	0xbdf72629	-0.12067825
6	0xbe0d7438	-0.13813865
7	0xbd56c64e	-0.05243521
8	0x3cd70b10	0.026250392
9	0xbe0d1820	-0.13778734
10	0x3d2e0893	0.042488646
11	0xbc48c9cf	-0.012255146
12	0xbc848029	-0.016174393
13	0xbcbcc508	-0.02304317
14	0xbde20d85	-0.11037735
15	0xbdc9ad1e	-0.098474726
16	0x3e08dd9a	0.13365784
17	0xbddd01ac	-0.107913345
18	0xbdbe5acd	-0.092946626
19	0x3e5356f4	0.20638639
20	0x3df06a16	0.11738984
21	0xbdb95335	-0.090490736
22	0xbb2691c9	-0.0025416485
23	0xbe0d6c20	-0.13810778
24	0xbd8695f5	-0.06571571
25	0x3e3b1e1b	0.18273203
26	0xbc4d9c44	-0.012549464
27	0xbed77bda	-0.4208668
28	0xbe054701	-0.13015367
29	0xbce2841c	-0.027650885
30	0xbdaa5213	-0.08316436
31	0xbc9dde02	-0.0192709
32	0x3de95a61	0.113941915
33	0xbd7019a0	-0.058618188
34	0x3c9f2771	0.019427987
35	0xbd9c63d9	-0.07636232
36	0xbeac5362	-0.33657366
37	0xbd256e50	-0.040388405
38	0x3e2d14ce	0.16902468
39	0xbe8f7305	-0.2801744
40	0xbdaf232d	-0.08551631
41	0xbb8f7e8a	-0.0043790983
42	0xbd21dddc	-0.039518222
43	0xbe40b0d7	-0.18817459
44	0x3dfe731c	0.12424299
45	0xbe05fd08	-0.13084805
46	0x3df959c0	0.121753216
47	0x3d0c3db2	0.034238525
48	0x3ce76688	0.028247133
49	0xbde045e0	-0.109508276
50	0x3e12f42e	0.1435096
51	0xbebf7fee	-0.3740229
52	0xbb9c212c	-0.0047646966
53	0x3e2b1e55	0.1671079
54	0xbd764e0e	-0.060133033
55	0x3ceca22c	0.028885923
56	0xbca11eb0	-0.019667953
57	0x3dc41fa6	0.09576349
58	0xbfa25d23	-1.2684673
59	0xbe05095c	-0.12991852
60	0xbd4e7fcc	-0.050414845
61	0xbc2a48ef	-0.010393365
62	0xbd3257d4	-0.04354079
63	0x3dc63b7f	0.09679317
64	0xbe157f45	-0.1459933
65	0x3d035c40	0.0320704
66	0xbdf528b7	-0.11970656
67	0x3c49e543	0.012322727
68	0x3d2d4b15	0.042307932
69	0x3e6d7e64	0.23192745
70	0xbf4fa97b	-0.8111798
71	0xbea97b5a	-0.33101922
72	0x3dc1c66c	0.09461674
73	0x3c9047c5	0.017612347
74	0x3d809061	0.06277538
75	0xbe13baba	-0.144267
76	0x3cdd069f	0.026980696
77	0x3e0c3826	0.13693294
78	0x3e368024	0.1782232
79	0x3d7826fa	0.060584046
80	0x3d0d1c2f	0.034450706
81	0xbe27816f	-0.16357969
82	0x3dc35a98	0.09538764
83	0xbd93b3e6	-0.07212047
84	0xbe269ba2	-0.16270307
85	0xbda07ad6	-0.07835929
86	0xbe431d3a	-0.19054118
87	0xbda27706	-0.07932858
88	0xbda37ceb	-0.079828106
89	0x3d615823	0.055015694
90	0xbd9a82ef	-0.07544505
91	0xbddf98f0	-0.109178424
92	0x3e16ea23	0.14737754
93	0xbd6f8fc6	-0.058486722
94	0x3e1cd5b7	0.153159
95	0x3c9c91c8	0.019112483
96	0x3e67dab1	0.22642018
97	0x3d4c1bbe	0.049831145
98	0x3e32efdd	0.17474313
99	0xbd886d07	-0.0666142
100	0xbc9f6e6e	-0.019461837
101	0xbde894dc	-0.11356518
102	0xbf470086	-0.77735174
103	0xbdc81aca	-0.097707346
104	0xbd4a17aa	-0.049338974
105	0xbdd1c8ad	-0.10243354
106	0xbdd7e493	-0.10541644
107	0xbe4b1f88	-0.19836247
108	0xbd080c8b	-0.033215087
109	0xbdc26d98	-0.094935596
110	0xbe9181e7	-0.2841942
111	0xbe520d34	-0.20512849
112	0x3e40171b	0.18758814
113	0x3d2aef06	0.041731857
114	0xbde75569	-0.112955876
115	0xbcf551c9	-0.029946225
116	0xbd9ff641	-0.07810641
117	0xbe60f2b7	-0.21967588
118	0xbd24489e	-0.040108316
119	0x3dcc3996	0.09971921
120	0x3e613d92	0.21996143
121	0x3e16199e	0.1465821
122	0x3cd30be8	0.025762513
123	0x3e813ea3	0.252431
124	0xbe17fc55	-0.14842351
125	0xbd12b78a	-0.035819568
126	0x3de8a344	0.113592654
127	0x3e02b160	0.12762976
128	0xbdfd98a6	-0.12382631
129	0x3ceb5227	0.028725697
130	0x3eeff818	0.46868968
131	0xbc4eccb6	-0.012622049
132	0x3f8f2bb4	1.1185212
133	0x3da29f43	0.07940533
134	0xbd915697	-0.07096594
135	0x3d9c58fd	0.07634161
136	0x3d89002f	0.06689488
137	0x3e20e422	0.15712026
138	0xbd860e4e	-0.06545697
139	0xbe374ad1	-0.17899634
140	0x3ce8578f	0.028362064
141	0xbbf2bed0	-0.0074080005
142	0xbd64ab22	-0.055827267
143	0xbd80b0ab	-0.06283697
144	0xbe0c289b	-0.13687365
145	0x3db554dc	0.08854076
146	0x3d9cd5b1	0.07657946
147	0xbdf8f124	-0.12155369
148	0x3d112984	0.035439983
149	0x3e01ea60	0.12687063
150	0x3d688a70	0.05677265
151	0xbd8e036f	-0.06934249
152	0xbe05df88	-0.13073552
153	0xbd23e1c2	-0.04001022
154	0x3e1337b5	0.1437672
155	0x3ebf89be	0.37409776
156	0x3e104304	0.14088064
157	0x3d5da06a	0.05410806
158	0xbd040b86	-0.032237552
159	0xbc2701d9	-0.010193312
160	0xbdf894b8	-0.12137741
161	0x38765ad3	5.8735557e-05
162	0x3d81348d	0.063088514
163	0x3d8bd3dd	0.06827519
164	0x3d711a80	0.058863163
165	0x3cea6d6b	0.028616628
166	0xbd1ecfd2	-0.03877241
167	0x3e06edb3	0.13176613
168	0x3c476047	0.01216895
169	0x3e0aba23	0.13547568
170	0xbc774d0b	-0.015094052
171	0x3d2118f5	0.03933044
172	0xbcff65c4	-0.031176455
173	0x3dc67f9f	0.096923105
174	0xbbda1081	-0.0066547995
175	0x3da480b6	0.08032362
176	0xbdf35d14	-0.118829876
177	0x3d80c2db	0.06287166
178	0xbc91e720	-0.017810404
179	0x3cac4d20	0.02103287
180	0xbe4342f7	-0.19068514
181	0xbe02be2a	-0.12767854
182	0x3dc708da	0.09718485
183	0x3d562490	0.052280962
184	0x3d52024b	0.051271718
185	0xbdf54dd8	-0.11977738
186	0x3f96e391	1.1788198
187	0xbe49edcb	-0.19719617
188	0x3da0a65c	0.078442305
189	0xbd8fe15f	-0.07025408
190	0x3d22882e	0.039680652
191	0xbd4efe89	-0.050535712
192	0x3d15decc	0.03658943
193	0x3d7e8aa0	0.06214392
194	0xbe6e14dd	-0.23250146
195	0x3d878c1a	0.06618519
196	0xbe052e4b	-0.1300594
197	0xbccf660f	-0.02531722
198	0x3f25565c	0.645849
199	0xbce23d76	-0.027617197
200	0x3c3c2640	0.011483729
201	0xbd815e5a	-0.06316824
202	0xbd80768e	-0.062726125
203	0x3bad3470	0.005285792
204	0xbd2f5384	-0.042804256
205	0xbd5bd75c	-0.05367218
206	0x3d3b8aba	0.045786597
207	0x3d85ba4e	0.065296754
208	0x3d200a32	0.039072223
209	0x3e380add	0.17972894
210	0xbc4e857a	-0.0126050655
211	0x3d1e5965	0.038659472
212	0xbd7f9057	-0.062393513
213	0x3d89bfb2	0.06726016
214	0x3c991289	0.018685596
215	0x3dfb28c0	0.12263632
216	0x3e01b52a	0.12666765
217	0xbdb0fe1b	-0.08642217
218	0x3dee323a	0.11630674
219	0x3d5e8157	0.054322567
220	0xbc412194	-0.011787791
221	0xbe40e8fb	-0.18838875
222	0x3d870303	0.06592371
223	0x3d878071	0.06616295
224	0xbd18517b	-0.03718708
225	0xbd491103	-0.04908849
226	0x3bf53d16	0.0074840887
227	0x3d76e16d	0.060273577
228	0x3ca8801a	0.020568896
229	0x3df6c829	0.12049896
230	0x3f3ac337	0.72954124
231	0x3dfac78e	0.12245093
232	0x3d05ba57	0.03264841
233	0x3b9fb686	0.0048740534
234	0xbdbe3430	-0.09287298
235	0x3e0da8b0	0.1383388
236	0xbc188a53	-0.009310323
237	0xbd48e088	-0.049042255
238	0x3d2c56b4	0.042074874
239	0xbd5fe8af	-0.054665264
240	0x3c1ebafd	0.009688136
241	0x3dd175f9	0.102275796
242	0x3e8d5996	0.2760741
243	0xbda38333	-0.07984009
244	0x3db7c1d8	0.0897252
245	0x3e090e15	0.13384278
246	0x3e353fda	0.17700139
247	0xbbb81a7c	-0.0056183916
248	0xbb8cd93e	-0.004298358
249	0x3e291f5f	0.16515873
250	0x3d6c7fbe	0.057739012
251	0xbda7a35b	-0.081854545
252	0xbe3e28f3	-0.18570308
253	0x3c88ff8c	0.016723417
254	0xbdd883f9	-0.10572047
255	0xbb0c73c3	-0.0021431304

action_model._discrete_distribution.branches.4.bias f4 [3]
0	0x3c001b48	0.007819004
1	0x3d6961f6	0.05697819
2	0x3a9a046c	0.0011750585

action_model._discrete_distribution.branches.4.weight f4 [3, 128]
0	0xbddd730d	-0.1081296
1	0x3e553474	0.2082079
2	0xbf3570b3	-0.7087509
3	0xbd5166e2	-0.051123507
4	0xbf9ce29a	-1.2256653
5	0x3d504000	0.050842285
6	0xbd02a333	-0.03189392
7	0x3e811ac7	0.25215742
8	0x3e42e8ba	0.1903409
9	0xbe0c7622	-0.13716939
10	0x3d0c74c4	0.034291044
11	0xbdaedbb3	-0.08537998
12	0x3d97f754	0.07420221
13	0xba837087	-0.0010028043
14	0xbd13e0af	-0.036102947
15	0xbd5b0c8c	-0.053478763
16	0xbc502338	-0.012703709
17	0xbe4db065	-0.2008682
18	0x3cdf48ac	0.027256332
19	0x3e518ea4	0.2046457
20	0xbd9ba022	-0.07598902
21	0xbdb8e76d	-0.09028516
22	0xbe232600	-0.15932465
23	0xbd9de04f	-0.07708799
24	0xbd7dd63d	-0.06197189
25	0x3cdc41da	0.02688687
26	0x3ca45cef	0.020063845
27	0xbf26589a	-0.64978945
28	0xbe402f14	-0.18767959
29	0xbd20a6d4	-0.0392216
30	0xbac9a70a	-0.0015384865
31	0xbe8ecdf5	-0.27891508
32	0xbdf58235	-0.11987726
33	0xbe1fab7b	-0.15592758
34	0x3c1f40a7	0.009720004
35	0xbe3d1b37	-0.18467413
36	0xbe2762a8	-0.16346228
37	0x3e8080ae	0.25098175
38	0xbd46e73d	-0.04856037
39	0xbdfeb68b	-0.12437161
40	0x3d860f27	0.06545859
41	0xbdec33e3	-0.11533334
42	0x3d4f010e	0.050538115
43	0xbc4d8f5c	-0.012546387
44	0xbcb75aed	-0.022382224
45	0xbd4a6735	-0.049414832
46	0x3cb771c0	0.022393107
47	0xbdc052a8	-0.093907654
48	0xbe297e69	-0.16552128
49	0x3cbae5a7	0.022814585
50	0xbbdc81b8	-0.006729331
51	0xbeb354fc	-0.35025775
52	0xbe4a4340	-0.19752216
53	0xbd3d7266	-0.046251677
54	0xbda4db39	-0.08049626
55	0x3c312b2e	0.0108135175
56	0x3de227d8	0.11042756
57	0xbde5373b	-0.11192175
58	0xbfc04d55	-1.50236
59	0x3c714a82	0.014727237
60	0xbea0620e	-0.3132481
61	0x3da009ce	0.0781437
62	0x3c90a0ed	0.01765486
63	0xbcfec163	-0.031098073
64	0xbe5730fd	-0.21014781
65	0x3db2cf28	0.08730918
66	0xbd918e53	-0.07107224
67	0x3e2641ac	0.1623599
68	0x3cea2085	0.02857996
69	0xbd5d1818	-0.053978056
70	0xbf5c17cc	-0.8597381
71	0xbe84acaf	-0.25912997
72	0x3cac1451	0.021005781
73	0xbd91ae43	-0.07113316
74	0xbd8c8663	-0.0686157
75	0x3ca644e1	0.020296516
76	0x3c86c87c	0.01645302
77	0xbc89f438	-0.016840085
78	0x3ddec7ef	0.10877978
79	0xbb5eee33	-0.003401649
80	0x3e036de9	0.12834896
81	0xbedb8261	-0.4287291
82	0xbd718c9b	-0.058971982
83	0x3dd89d9a	0.10576935
84	0x3dd5848a	0.104256704
85	0xbe7d2d4a	-0.24724308
86	0x3dd59dbf	0.10430478
87	0xbe8ab571	-0.27091554
88	0xbdae0d4b	-0.08498629
89	0xbe59876f	-0.2124307
90	0xbe96e2f6	-0.29470032
91	0x3e895223	0.26820478
92	0x3d1ed69e	0.038778894
93	0x3d91d9f0	0.071216464
94	0x3d63eaf4	0.05564399
95	0x3e51624a	0.2044765
96	0xbd3ac3f2	-0.045597024
97	0x3da44218	0.08020419
98	0xbb4e656d	-0.003149356
99	0xbe119da2	-0.14220288
100	0x3dcb4789	0.099257536
101	0x3d942acb	0.072347246
102	0xbf8f0f69	-1.1176578
103	0x3e05ce26	0.1306692
104	0xbeaeaccc	-0.3411621
105	0xbc59a175	-0.013283123
106	0xbe8691c8	-0.26283097
107	0x3d8eb97b	0.06968971
108	0xbe4b8984	-0.19876677
109	0x3d861df3	0.06548681
110	0xbe15a2d4	-0.14612895
111	0x3de835a9	0.1133836
112	0x3d55cc34	0.052196696
113	0xbd1c088b	-0.038094085
114	0x3e4f4884	0.20242506
115	0x3d273c05	0.040828723
116	0x3e297eba	0.16552249
117	0xbe139c97	-0.14415203
118	0xbe7db699	-0.24776687
119	0x3c0c6e53	0.008571225
120	0xbbfdfe39	-0.007751253
121	0x3d09090f	0.033455905
122	0xbd44e018	-0.048065275
123	0xbe2d0b33	-0.16898803
124	0xbdb7704c	-0.08956966
125	0x3e2c188e	0.16806242
126	0xbdc9a073	-0.098450564
127	0xbd111ee6	-0.035429858
128	0x3e1f46bf	0.15554331
129	0xbd774692	-0.060370035
130	0x3e596c46	0.2123271
131	0x3d317b80	0.04333067
132	0x3f69a63f	0.91269296
133	0xbd96a37f	-0.07355403
134	0x3df36b89	0.11885745
135	0xbc9a8a37	-0.018864734
136	0xbdc2afda	-0.09506197
137	0xbe8e9082	-0.27844626
138	0x3d1ba4fb	0.037999135
139	0x3c44b6e9	0.0120065
140	0xbc00c7d6	-0.007860145
141	0x3e0a6948	0.13516724
142	0xbd337a15	-0.0438176
143	0x3d3aebc5	0.045635004
144	0xbe236cd4	-0.15959483
145	0xbd02c30a	-0.031924285
146	0x3df7eda8	0.12105876
147	0xbd8d1916	-0.068895504
148	0xbd14235c	-0.036166534
149	0xbeb5856a	-0.3545335
150	0x3ec8a0f5	0.391853
151	0x3deb5054	0.11489931
152	0x3c90fa37	0.017697437
153	0xbc853ffe	-0.016265865
154	0xbd55b6b3	-0.05217619
155	0x3ef47bc8	0.47750688
156	0xbd19f00e	-0.03758245
157	0xbdf47912	-0.11937155
158	0x3d78f151	0.060777012
159	0xbe7f267a	-0.24917021
160	0x3c9b087e	0.018924948
161	0x3dbdbeff	0.09264945
162	0xbe03eca2	-0.12883237
163	0xbe48d501	-0.19612505
164	0xbe42ede6	-0.19036064
165	0x3e099b7d	0.1343822
166	0x3d9715c6	0.073772
167	0x3d9c1bcd	0.0762249
168	0xbd47c971	-0.048776094
169	0xbe4703b5	-0.19435008
170	0xbd2b5816	-0.041832052
171	0xbe6a958d	-0.22908612
172	0x3d176201	0.0369587
173	0xbe0ce58d	-0.13759442
174	0xbd2652d5	-0.04060634
175	0x3d7a30de	0.06108176
176	0xbd999286	-0.0749865
177	0xbe218414	-0.1577304
178	0x3ac47905	0.001498968
179	0x3e0daf79	0.13836469
180	0xbedba736	-0.4290101
181	0xbd93fc8d	-0.072259046
182	0xbcfee788	-0.031116262
183	0xbe22fead	-0.15917464
184	0x3df88f0b	0.12136658
185	0xbc179ac3	-0.009253207
186	0x3f84f8bf	1.0388411
187	0x3dd58fc0	0.10427809
188	0xbeb96c0d	-0.3621525
189	0x3c66a49f	0.014077335
190	0xbeceb451	-0.40371946
191	0xbd1da52a	-0.03848759
192	0xba0ac49e	-0.00052935805
193	0xbd8586c7	-0.06519847
194	0x3d9ac2ab	0.07556661
195	0xbd155b97	-0.0364643
196	0x3e208bc0	0.1567831
197	0x3ddcc1b8	0.107791364
198	0x3eae61dc	0.34059036
199	0x3e1bdcd2	0.15220955
200	0x3da57a93	0.0808002
201	0xbba91f14	-0.0051611755
202	0x3d9c6238	0.07635921
203	0xbd7acf0e	-0.06123262
204	0xbdd07a63	-0.101795934
205	0xbcf850ad	-0.030311907
206	0x3cb692c5	0.022286782
207	0xbe39754d	-0.18111153
208	0xbd1a98c8	-0.03774336
209	0xbe1615cd	-0.14656754
210	0x3c0687f4	0.008211125
211	0x3c502fc4	0.012706701
212	0xbd8963df	-0.06708502
213	0xbdb8bc96	-0.09020345
214	0x3c5f6ee1	0.013637275
215	0xbe3e646d	-0.18592997
216	0xbe12907b	-0.14312927
217	0xbe63159f	-0.22176217
218	0xbe8143a2	-0.25246912
219	0x3c746499	0.0149165625
220	0x3d4112a9	0.047136936
221	0x3d89775d	0.0671222
222	0x3bfa3354	0.0076355133
223	0xbd879115	-0.06619469
224	0xbe82ac05	-0.25521865
225	0xbded9d86	-0.11602311
226	0x3c9b0ce8	0.018927053
227	0xbe4e3353	-0.20136766
228	0xbe084bd2	-0.13310173
229	0xbd3b71e7	-0.045762923
230	0x3ee753d2	0.45181137
231	0x3bdc4181	0.006721676
232	0xbe970762	-0.2949782
233	0x3d4410e5	0.047867674
234	0xbe0dee3c	-0.1386041
235	0x3bcd02d6	0.0062564416
236	0x3e12d3cb	0.14338605
237	0x3d1c0da7	0.038098957
238	0x3d948bc9	0.072532244
239	0xbde261cc	-0.110538095
240	0x3dd2226b	0.10260471
241	0x3cf0bb2c	0.029386126
242	0xbbb12e16	-0.005407105
243	0xbc4c1a62	-0.012457462
244	0xbd3d521d	-0.046220887
245	0xbe49cf2d	-0.19707938
246	0xbe87c5ca	-0.2651809
247	0xba11de57	-0.0005564442
248	0x3c93fdc2	0.018065337
249	0x3da4a530	0.080393195
250	0x3d202972	0.039102025
251	0xbeb80c74	-0.35947
252	0x3dd1e897	0.10249441
253	0xbc154f1f	-0.009113102
254	0x3b803ab9	0.0039132503
255	0xbcb93c33	-0.022611713

action_model._discrete_distribution.branches.5.bias f4 [3]
0	0xbe0465a1	-0.12929393
1	0xbcf3038f	-0.029664783
2	0x3d8abace	0.067739114

action_model._discrete_distribution.branches.5.weight f4 [3, 128]
0	0xbd02a19f	-0.031892415
1	0x3c913c43	0.01772893
2	0xbf324715	-0.6963971
3	0xbe31c559	-0.17360438
4	0xbfa08c6f	-1.2542857
5	0xbe36e390	-0.17860246
6	0xbb6f1630	-0.003648173
7	0xbd097969	-0.03356305
8	0x3d8c14bc	0.06839892
9	0x3cd821fe	0.026383396
10	0xbdeb2632	-0.114818946
11	0xbcb0e204	-0.021592148
12	0xbc884e75	-0.016638974
13	0xbdbd3912	-0.09239401
14	0x3d76f4e7	0.06029215
15	0xbe006ce2	-0.12541535
16	0x3df2dd9d	0.11858676
17	0xbe57ed57	-0.21086632
18	0xbe06d858	-0.13168466
19	0x3e19db8c	0.15025157
20	0xbced1709	-0.028941648
21	0x3e5142f8	0.20435703
22	0x3cf6a19d	0.03010636
23	0xbe41b943	-0.18918328
24	0x3bd5981f	0.0065183784
25	0x3de8723d	0.11349914
26	0xbd943eb7	-0.072385244
27	0xbeda58c3	-0.42645845
28	0xbd8a2787	-0.067458205
29	0xbd978976	-0.073992655
30	0xbdf93873	-0.1216897
31	0xbe744f83	-0.23858456
32	0x3d5d9b59	0.05410323
33	0xbde65f42	-0.11248638
34	0x3e0f9249	0.14020647
35	0xbdf49fe2	-0.11944558
36	0xbe78ec18	-0.24308813
37	0xbdd0f609	-0.102031775
38	0x3e3bb4b7	0.18330656
39	0xbe68e376	-0.2274302
40	0xbda864cc	-0.082223505
41	0xbdd0ec02	-0.10201265
42	0x3cfb01c5	0.030640492
43	0x3dc1db49	0.094656534
44	0x3d8a805a	0.06762762
45	0xbd480999	-0.048837278
46	0x3df511d3	0.1196629
47	0x3dfd2ea2	0.1236241
48	0x3b364d1d	0.002781696
49	0xbdd1f6b0	-0.1025213
50	0x3de33b3d	0.11095283
51	0xbe343c85	-0.17601211
52	0x3e042ef9	0.12908544
53	0x3e3c2368	0.18372881
54	0xbd93fed1	-0.07226337
55	0x3dd7d673	0.1053895
56	0xbe151c63	-0.1456161
57	0x3e3663d3	0.17811517
58	0xbfbc4b75	-1.4710528
59	0x3cc6ac58	0.024252102
60	0xbe71383c	-0.23556608
61	0x3d944916	0.072405025
62	0x3dc61cf5	0.09673492
63	0x3e0686c2	0.13137344
64	0xbd09e57e	-0.033666126
65	0x3d57196b	0.052514475
66	0xbdb9c128	-0.09070045
67	0xbd1915ad	-0.037374187
68	0xbcd0e5f4	-0.025500275
69	0x3d55a68c	0.052160785
70	0xbf5f3971	-0.87197024
71	0xbec021e9	-0.3752587
72	0x3ce896ef	0.028392283
73	0xbc92e0db	-0.017929485
74	0xbe221bc3	-0.15830903
75	0xbe38fd54	-0.18065387
76	0x3b09f296	0.0021049134
77	0x3e0f353c	0.13985151
78	0xbbad0d87	-0.0052811536
79	0x3e7c1af3	0.24619655
80	0x3d392261	0.045198802
81	0xbe9eb89e	-0.31000227
82	0x3de73e0e	0.11291133
83	0xbe0a347d	-0.13496585
84	0xbe724435	-0.23658831
85	0xbbe940e0	-0.0071183294
86	0xbdf450fd	-0.1192951
87	0xbdd4210b	-0.10357865
88	0xbe250920	-0.16116762
89	0xbce3571e	-0.027751502
90	0xbe29f6e5	-0.16598089
91	0x3dbddbf3	0.092704676
92	0x3dbef01a	0.093231395
93	0xbd4881a4	-0.04895176
94	0x3d8fc659	0.07020254
95	0x3d866c40	0.06563616
96	0x3de7cce5	0.113183774
97	0x3e452b1a	0.19254723
98	0x3d78893b	0.06067775
99	0xbdfeeec2	-0.12447883
100	0xbd23a04f	-0.039947804
101	0x3e23c49c	0.1599297
102	0xbf502fa8	-0.8132272
103	0xbd57db16	-0.05269917
104	0xbda86b21	-0.08223558
105	0xbe47baad	-0.19504805
106	0xbe319b78	-0.17344463
107	0xbea4291f	-0.32062623
108	0xbdf9a1ab	-0.12189039
109	0xbe1588f1	-0.1460302
110	0xbe9694e6	-0.29410475
111	0xbce2f621	-0.027705254
112	0x3c5acc6e	0.013354404
113	0x3d239eb5	0.039946277
114	0xbddca215	-0.10773102
115	0xbdb339f8	-0.08751291
116	0xbc3ac1da	-0.011398757
117	0xbe4ae8a7	-0.19815312
118	0xbc6306d0	-0.013856605
119	0x3e4b525c	0.19855636
120	0x3d5bc01f	0.053650018
121	0xbd805d23	-0.062677644
122	0xbd931d32	-0.07183303
123	0x3d488a18	0.04895982
124	0xbe73dbd9	-0.23814334
125	0xbe6bf3e8	-0.23042262
126	0x3dac76f8	0.08421129
127	0x3e388568	0.1801964
128	0xbe0238d0	-0.12716985
129	0xbd0a51cf	-0.033769425
130	0x3ef2a69f	0.47392747
131	0xbe0b3f7d	-0.13598438
132	0x3f82b88f	1.0212573
133	0xbd5ca208	-0.053865463
134	0xbca38a1d	-0.019963318
135	0xbd38fd62	-0.04516352
136	0xbd3933ac	-0.045215294
137	0x3cc4c35c	0.024018936
138	0xbde011ce	-0.10940896
139	0xbd5589f9	-0.052133534
140	0xbcebaeca	-0.02876987
141	0xbd16c74a	-0.03681115
142	0x3d6bb1e2	0.05754269
143	0xbda3b170	-0.07992828
144	0xbdaeb34a	-0.085302904
145	0xbd3756c1	-0.04476047
146	0x3e0aa46d	0.13539286
147	0xbe0946a4	-0.13405854
148	0xbbe51cc7	-0.006991956
149	0xbce44409	-0.027864473
150	0x3e838fff	0.25695798
151	0xbde4cd1f	-0.11171936
152	0x3d7f8afd	0.06238841
153	0x3db2498d	0.08705435
154	0x3d5ce4ad	0.05392902
155	0x3ec85d44	0.39133656
156	0x3e2b6d69	0.16740955
157	0x3d977b63	0.07396581
158	0xbdc21145	-0.0947595
159	0xbcf6e118	-0.03013663
160	0xbdeefb09	-0.11668975
161	0x3c381ae1	0.011236877
162	0xbcd382a7	-0.025819136
163	0xba475b53	-0.0007604856
164	0x3c4c1bd0	0.012457803
165	0x3dcdc630	0.10047567
166	0xbc9047f8	-0.017612442
167	0x3cd732b6	0.026269298
168	0xbd38778f	-0.045035895
169	0x3dc1986a	0.09452899
170	0xbd27ac72	-0.04093594
171	0x3e413af0	0.18870139
172	0xbc94ffab	-0.018188318
173	0xbc75add1	-0.014995054
174	0x3da92d63	0.0826061
175	0xbd59102a	-0.05299393
176	0xbd572a3e	-0.05253052
177	0x3dc05fcf	0.09393274
178	0x3cb12134	0.021622278
179	0x3e586d94	0.2113555
180	0x3c2daa04	0.010599617
181	0xbd87e83d	-0.06636093
182	0x3bcfc164	0.0063401926
183	0x3cc475c1	0.02398193
184	0x3d51ca6f	0.051218446
185	0xbdb2c2c0	-0.08728552
186	0x3f92387c	1.1423488
187	0xbe3a304b	-0.18182485
188	0x3d02dc30	0.03194827
189	0xbd34bd7f	-0.04412603
190	0xbb3c10ad	-0.0028696463
191	0x3c8f0979	0.017460572
192	0x3e20596f	0.15659116
193	0xbd2b7d81	-0.041867737
194	0xbe3bfc60	-0.18357992
195	0x3c8740d4	0.016510405
196	0x3d115707	0.035483386
197	0xbc5299bd	-0.012854037
198	0x3f0cf10e	0.5505532
199	0xbd7d9439	-0.061908934
200	0x3cbaeaa2	0.02281696
201	0xbd4e8d1f	-0.050427552
202	0xbe1e7d64	-0.1547752
203	0xbc7698f3	-0.015051114
204	0xbc0b38fc	-0.008497473
205	0x3cd98370	0.026551932
206	0x3dcb95af	0.09940659
207	0xbdfa38f1	-0.12217892
208	0xbc69936b	-0.014256339
209	0x3e00dae8	0.12583506
210	0xbd2c7381	-0.04210234
211	0x3dfffa50	0.12498915
212	0xbe4fd877	-0.20297419
213	0x3d9c8894	0.07643238
214	0xbd9bcfc2	-0.07607986
215	0x3d0a52f2	0.03377051
216	0x3b2152e4	0.0024616057
217	0xbcd83c77	-0.02639602
218	0x3da26f5c	0.07931396
219	0x3e1c0fe4	0.15240437
220	0xbd8c1daa	-0.068415955
221	0xbdd60e2f	-0.10451924
222	0x3cfa8c68	0.030584529
223	0xbd4ac704	-0.049506202
224	0xbcf6da44	-0.030133374
225	0xbdb297ec	-0.08720383
226	0xbc03fc20	-0.008055717
227	0xbd506403	-0.05087663
228	0xbdcf877f	-0.10133266
229	0xbd3d2f78	-0.046187848
230	0x3f3783a4	0.7168524
231	0x3d0628a1	0.03275359
232	0x3dc5068f	0.096203916
233	0xbd89149b	-0.06693383
234	0x3cf5ea47	0.030018939
235	0xbe88c3ad	-0.2671179
236	0x396781cd	0.00022078231
237	0xbcb09e3a	-0.021559823
238	0xbcd18869	-0.02557774
239	0xbe1570f3	-0.14593868
240	0x3c856286	0.016282331
241	0x3d6e159a	0.05812607
242	0x3d7bac19	0.061443422
243	0xbdc1b21b	-0.09457799
244	0xbba8028b	-0.0051272563
245	0x3e09d545	0.13460262
246	0x3d95d489	0.073159285
247	0xbd786b73	-0.060649347
248	0xbcc3ba4f	-0.02389255
249	0x3cd5a793	0.026080882
250	0x3c562d47	0.013072318
251	0xbd6a8640	-0.057256937
252	0xbe2c6836	-0.16836628
253	0xbd29c6c7	-0.041449334
254	0xbe061994	-0.13095695
255	0x3c939c51	0.018018873

action_model._discrete_distribution.branches.6.bias f4 [3]
0	0xbe6aa7ea	-0.22915617
1	0x3cc2b2f0	0.023766965
2	0xbbede2a0	-0.007259682

action_model._discrete_distribution.branches.6.weight f4 [3, 128]
0	0x3caf63b7	0.021409852
1	0xbdcb68e8	-0.09932119
2	0xbf138b47	-0.57634395
3	0xbde6fa4c	-0.11278209
4	0xbf9ec4e5	-1.2403837
5	0xbd9a7e99	-0.07543678
6	0xbdfe6a6e	-0.124226436
7	0xbdcdd9c8	-0.10051304
8	0xbdae0a9b	-0.084981166
9	0xbdbcfacc	-0.09227523
10	0xbdfe4f0c	-0.12417421
11	0x3d0b970d	0.0340796
12	0xbe09dd8d	-0.13463421
13	0xbda4e237	-0.080509596
14	0xbd79141b	-0.06081019
15	0xbe060748	-0.13088715
16	0xbd156b3d	-0.036479224
17	0xbda118a7	-0.0786603
18	0xbd3db943	-0.046319257
19	0x3d64d4e1	0.05586708
20	0x3dde6631	0.10859335
21	0xbc444474	-0.011979211
22	0xbb09df1b	-0.0021037522
23	0xbe0cea83	-0.13761334
24	0xbd3c229b	-0.04593144
25	0x3e2e449d	0.17018361
26	0xbde28837	-0.11061137
27	0xbf29f112	-0.6638347
28	0x3a045034	0.00050473516
29	0xbcc49414	-0.02399639
30	0xbe1e2570	-0.15443969
31	0xbdbfd37c	-0.09366509
32	0x3e267853	0.16256838
33	0x3dce7af1	0.10082043
34	0xbd0f898f	-0.035043295
35	0xbda07687	-0.07835107
36	0xbea10c8e	-0.3145489
37	0xbba64545	-0.0050741755
38	0xbc2b61f5	-0.0104603665
39	0xbdac933b	-0.084265195
40	0xbe1904d0	-0.14943242
41	0xbd9d0e29	-0.076687165
42	0xbc4c6cf7	-0.012477151
43	0xbdfb9bb7	-0.122855596
44	0xbe24a914	-0.16080123
45	0xbd30faea	-0.04320804
46	0x3e3ebc91	0.1862662
47	0xbd88c3dd	-0.06677983
48	0xbd676a43	-0.056497823
49	0xbdc15b9e	-0.09441303
50	0x3e274de8	0.16338313
51	0xbe8c8c6c	-0.27450883
52	0xbc966da5	-0.01836283
53	0x3e414329	0.18873276
54	0xbd86bdcd	-0.065791704
55	0x3e003b6b	0.12522666
56	0xbd6f0dce	-0.058362775
57	0x3e275b89	0.16343512
58	0xbfaca7ff	-1.3488768
59	0xbde8e992	-0.11372675
60	0xbdacae1a	-0.08431645
61	0xbda72ef3	-0.08163252
62	0x3cfdbc21	0.030973496
63	0x3df34a6b	0.118794285
64	0xbd704ad9	-0.05866513
65	0x3d037a38	0.03209898
66	0xbd50a4ff	-0.050938603
67	0xbb38bf33	-0.0028190135
68	0xbd3f880a	-0.046760596
69	0x3ce0b19a	0.027428437
70	0xbf4aa771	-0.79161745
71	0xbd6c1bc0	-0.057643652
72	0xbdba440a	-0.09095009
73	0x3d9c1be0	0.07622504
74	0xbec3a59d	-0.3821229
75	0xbe21f0f6	-0.15814576
76	0x3d90e5a9	0.07075054
77	0x3e488438	0.19581687
78	0xbde9a646	-0.11408667
79	0x3d6f7c63	0.058468234
80	0xbdc69dea	-0.096980885
81	0xbe7978a7	-0.24362431
82	0xbd0063ae	-0.031345062
83	0xbddabf13	-0.10680976
84	0xbe1f0dd2	-0.15532616
85	0xbdbe271d	-0.09284804
86	0xbe09c8f4	-0.13455564
87	0xbe0d956a	-0.13826528
88	0xbd2b55a6	-0.041829728
89	0xbdb246f2	-0.08704938
90	0xbe6a4e42	-0.22881415
91	0x3ccfef1f	0.025382577
92	0x3dbef0db	0.09323283
93	0xbdfd3bfd	-0.123649575
94	0x3daa52f1	0.08316601
95	0xbd8132d6	-0.06308524
96	0x3cc7e958	0.02440326
97	0x3e06d61e	0.13167617
98	0xbd6a2f41	-0.05717397
99	0xbdaa6cc6	-0.08321528
100	0x3dcc12ee	0.09964548
101	0xbd92cc39	-0.07167859
102	0xbf5700dd	-0.8398569
103	0xbe0233ab	-0.12715022
104	0xbd625d9c	-0.055265054
105	0xbdec0347	-0.115240626
106	0xbdc1001c	-0.09423849
107	0xbe6d8466	-0.23195037
108	0xbe6a94f9	-0.22908391
109	0xbd53edfd	-0.051740635
110	0xbd7d53c7	-0.061847474
111	0xbea7fb83	-0.32809076
112	0xbc51a2f1	-0.012795196
113	0x3d988018	0.07446307
114	0xbe08c254	-0.1335538
115	0xbdbf9bdd	-0.093559004
116	0xbdc78222	-0.09741618
117	0xbe551b9b	-0.20811312
118	0xbe025adc	-0.12729973
119	0x3e104f0d	0.14092655
120	0x3c318082	0.010833861
121	0x3d4f5132	0.050614543
122	0xbd0e5d7f	-0.034757134
123	0x3bec4ee8	0.007211555
124	0xbe71b9c4	-0.2360602
125	0xbdbd838c	-0.09253606
126	0x3e055ea5	0.13024385
127	0x3e352a75	0.17691977
128	0xbdd3737b	-0.103247605
129	0xbdebd1a6	-0.11514597
130	0x3f0fcec6	0.56174886
131	0xbc1e560e	-0.009664072
132	0x3f869766	1.0514953
133	0x3c9c6d9a	0.01909523
134	0xbd9c9e03	-0.07647326
135	0xbd954d14	-0.07290092
136	0xbd777fbf	-0.060424563
137	0x3d674f66	0.056472205
138	0xbe619cad	-0.22032423
139	0xbdec4f89	-0.115386076
140	0xbd98a3f6	-0.07453148
141	0xbded1fbf	-0.11578321
142	0x3e1c34bf	0.15254496
143	0xbdc49480	-0.095986366
144	0xbd6b4bca	-0.057445325
145	0x3e2755e3	0.16341357
146	0x3d96a218	0.07355136
147	0xbe49c885	-0.19705398
148	0xbd83bdce	-0.06432687
149	0x3d57513f	0.052567717
150	0x3e31a96c	0.17349786
151	0xbde1481e	-0.110000834
152	0x3b53fc59	0.0032346456
153	0x3d1a370f	0.037650164
154	0x3e803ae3	0.25044927
155	0x3eb9ba50	0.36274958
156	0x3d8ae981	0.067828186
157	0x3df48e4d	0.11941204
158	0xbd748c0d	-0.059703875
159	0x3d8b6ab8	0.06807464
160	0xbc6e0721	-0.014528067
161	0x3d289428	0.041156918
162	0x3c4cd0bd	0.012500939
163	0x3d52f158	0.051499695
164	0x3e3f5437	0.18684469
165	0x3d89c42f	0.06726872
166	0xbd3c5cac	-0.045986816
167	0x3e404397	0.18775783
168	0xbd9838c7	-0.074327044
169	0x3e2b5a47	0.16733657
170	0xbc384b29	-0.011248388
171	0x3ea6c9cb	0.3257583
172	0xbe1c835c	-0.15284485
173	0x3e541846	0.20712385
174	0x3c86efc8	0.016471758
175	0x3a6e5abc	0.00090925
176	0xbe259242	-0.16169074
177	0x3e2fb352	0.17158249
178	0xbd12fd18	-0.0358859
179	0x3e345035	0.17608722
180	0xbc1037c1	-0.008802355
181	0x3d08331f	0.033251878
182	0x3d213e5e	0.03936612
183	0x3d4de1b9	0.050264094
184	0x3d6e88ad	0.058235813
185	0xbc5e9914	-0.013586301
186	0x3f94902c	1.1606498
187	0xbe42a755	-0.19009145
188	0x3cee2bd1	0.029073628
189	0xbe03518c	-0.12824076
190	0x3c4c0c3d	0.01245409
191	0x3c526186	0.012840634
192	0x3df10931	0.11769331
193	0xbda6be98	-0.081418216
194	0xbe47626a	-0.19471136
195	0xbd7978b1	-0.060906116
196	0xbe422aeb	-0.18961684
197	0xbcf929b8	-0.0304154
198	0x3f2ab97f	0.66689295
199	0x3d9e0d37	0.07717364
200	0xbda4aeba	-0.08041139
201	0xbd399ce5	-0.045315642
202	0xbe4e6fe5	-0.20159872
203	0x3e881cb9	0.26584414
204	0x3bde42ab	0.00678285
205	0x3cd53801	0.026027681
206	0x3d480795	0.048835356
207	0xbc58eb25	-0.013239657
208	0xbd581edb	-0.0527638
209	0x3e5eb79d	0.2174973
210	0x3ca8f830	0.020626158
211	0x3d89962a	0.06718095
212	0xbd8655fc	-0.06559369
213	0x3e08bf30	0.13354182
214	0xbcb35c7d	-0.021894688
215	0x3dda3931	0.1065544
216	0x3d5e6906	0.054299377
217	0x3e04b20a	0.12958542
218	0x3e59ace6	0.21257362
219	0x3dbe6b89	0.092978545
220	0xbd86c038	-0.065796316
221	0xbe5de6a2	-0.2167001
222	0x3d89a48a	0.067208365
223	0xbd5c0ec4	-0.05372502
224	0xbd85198a	-0.06499012
225	0x3da4e7e3	0.080520414
226	0xbd914cec	-0.0709475
227	0x3da44fce	0.08023034
228	0xbda89b70	-0.08232772
229	0x3dce37b1	0.10069216
230	0x3f4479f6	0.767486
231	0xbd4324a6	-0.047642373
232	0x3dc9aa97	0.098469906
233	0x3d8395b7	0.0642504
234	0x3dd73ea9	0.10509998
235	0xbd897d63	-0.06713369
236	0xbe35c0ed	-0.17749377
237	0x3e1c22aa	0.15247598
238	0x3e7871a4	0.242621
239	0xbd094839	-0.033516143
240	0x3af49444	0.0018659909
241	0x3def38cc	0.11680755
242	0x3e83aedd	0.25719348
243	0xbe34ca75	-0.17655356
244	0x3b59e7d2	0.0033249748
245	0x3ea259ea	0.31709224
246	0x3ddab8f2	0.10679807
247	0xbd2a913f	-0.041642424
248	0xbd273ed1	-0.04083139
249	0xbd3d5c54	-0.04623063
250	0x3d337675	0.04381414
251	0xbd96211c	-0.07330534
252	0xbdd29182	-0.1028166
253	0x3e09c903	0.13455586
254	0xbca38314	-0.019959964
255	0x3d01070e	0.03150087

action_model._discrete_distribution.branches.7.bias f4 [3]
0	0x3da047bd	0.07826183
1	0xbd4389c0	-0.04773879
2	0x3ce24728	0.02762182
