ArmRobot/Assets/results/Test3/TouchCubeMoveGail/TouchCubeMoveGail-5660274.pt (torch, 810999 bytes, 83 tensors)

network_body.linear_encoder.seq_layers.0.weight f4 [128, 96]
0.15678553 -0.041702546 -0.19837116 0.19436567 -0.120754115 -0.11362782 0.115515314 -0.31990027
-0.08257149 0.16515946 -0.025005015 0.31133297 0.06767998 -0.11666827 -0.12556452 0.05569608
0.05981047 -0.17623247 0.07312092 -0.07939308 0.05253241 -0.27891907 -0.2236852 0.16129436
-0.07706269 0.14074464 0.10108678 -0.020095332 -0.09956216 0.14608096 -0.19541465 0.032112792
0.1050862 -0.17368229 -0.16206472 -0.18088627 -0.13159467 -0.10205749 0.013500982 -0.13514277
-0.0063344673 0.09915229 -0.15206501 -0.11807436 -0.046058588 -0.05104268 -0.14551875 0.046776418
-0.05933067 0.06562649 -0.018325573 0.2294778 0.3793501 -0.33922368 0.13307163 -0.02431301
0.16940033 -0.1421767 0.09131676 0.11725344 -0.27803952 -0.07667009 -0.094436266 -0.032479927
0.0424524 0.0861721 0.13322584 -0.28474435 0.0633341 0.18875976 0.26238313 0.040947016
0.14544751 0.08534696 0.34628838 0.12718973 -0.3006796 0.09354074 -2.8400285 -0.025037235
-0.5704254 0.030397333 3.1882632 0.11409789 0.22132173 -0.09537494 0.5574617 -0.3855242
-0.47058812 -0.2874603 -0.04204128 -0.13654897 0.16406915 -0.27492797 0.13637985 -0.35697266
-0.028301999 0.061344743 -0.04468966 0.018371638 0.007883092 -0.06791672 0.108448416 0.07191251
-0.014601368 -0.0586936 0.016455015 -0.17927329 -0.08370693 -0.0027419156 0.18211338 0.34463271
-0.17309758 0.20319922 -0.1648181 -0.12948221 -0.22469892 0.10915931 -0.056184743 -0.17340882
0.35959092 -0.11917849 0.07841009 0.059601586 0.015706297 0.025910476 0.015898053 0.17769034
-0.12503587 -0.18185255 0.18222016 -0.116839096 0.10794099 0.07088446 0.19117825 -0.07519507
-0.015016625 0.18772683 0.21830463 0.12433025 -0.0594393 0.026120925 -0.15815634 -0.006494042
0.09327965 -0.09077746 0.2603713 0.19041276 -0.065087266 -0.30843246 0.14959618 0.091616526
0.04932934 0.1295086 -0.057915457 -0.07417987 -0.042707413 0.009345868 -0.10706447 0.12876919
0.3180689 -0.11080489 0.102616735 -0.070450775 -0.051517006 0.0034210414 -0.008344906 -0.034382284
-0.28220642 -0.03807862 0.1329738 -0.0539157 3.1303232 0.15995741 0.4113399 -0.008295328
-0.67464924 -0.036251243 -1.5291247 0.0028747418 0.7522363 -0.83624434 -0.32471815 0.009162568
0.43964967 0.034419958 -0.062676504 0.4201308 -0.23345877 0.093157455 -0.214686 0.18082304
0.012246674 0.024221271 0.07440561 -0.030785393 -0.020074122 -0.11848945 -0.0027290783 0.11243176
0.21468025 0.08199582 -0.1516372 -0.09161517 -0.058175676 0.021166725 -0.18319689 0.09868632
0.16398479 -0.2464949 -0.17247137 -0.057953123 -0.21269093 0.1836235 -0.011627728 0.13390718
0.044451233 -0.018944038 0.19680753 0.096750654 0.065302745 0.09454797 0.24718656 0.28379968
0.009598689 -0.037544426 0.06509651 0.10599846 0.30390602 0.35676172 0.45653406 -0.14194252
-0.11633394 0.027201254 -0.15162063 0.29335883 0.12506096 0.31698406 0.15530105 0.09718101
0.15433653 0.015824508 0.24057962 0.15044834 0.10155518 0.6368664 -0.10825136 0.42101574
0.0051489524 0.19391213 0.0057998854 0.120820135 0.6550966 -0.14150938 0.37823236 0.15222445
00000000: 638c 203e 4ad0 2abd cf21 4bbe cb07 473e
00000010: ef4d f7bd b4b5 e8bd 4b93 ec3d f8c9 a3be
00000020: 3e1b a9bd 901f 293e 51d7 ccbc 0967 9f3e
00000030: cd9b 8a3d c6ef eebd fc93 00be 9321 643d
00000040: d3fb 743d 4976 34be 6cc0 953d d798 a2bd
00000050: 392c 573d 7bce 8ebe bc0d 65be 592a 253e
00000060: 0bd3 9dbd 5d1f 103e 9606 cf3d f79e a4bc
00000070: 3fe7 cbbd 3f96 153e c71a 48be b488 033d
00000080: 6f37 d73d c5d9 31be 4bf4 25be 403a 39be
00000090: c1c0 06be 8403 d1bd 3933 5d3c de62 0abe
000000a0: 5d91 cfbb 5b10 cb3d eeb6 1bbe f8d0 f1bd
000000b0: eea7 3cbd 2112 51bd de02 15be a198 3f3d
000000c0: b704 73bd 2e67 863d 831f 96bc 3afc 6a3e
000000d0: 2d3a c23e baae adbe ee43 083e 142c c7bc
000000e0: 4877 2d3e c596 11be 4804 bb3d 9222 f03d
000000f0: 325b 8ebe 3505 9dbd cd67 c1bd ac09 05bd
00000100: 91e2 2d3d ff7a b03d 5b6c 083e 03ca 91be
00000110: 4fb5 813d 3d4a 413e 1557 863e 0fb8 273d
00000120: 31f0 143e 63ca ae3d b64c b13e 063e 023e
00000130: adf2 99be 4a92 bf3d 07c3 35c0 e31a cdbc
00000140: 6607 12bf d403 f93c 810c 4c40 28ac e93d
00000150: 2aa2 623e f053 c3bd cfb5 0e3f 6e63 c5be
00000160: edf0 f0be ff2d 93be 7a33 2cbd 7ed3 0bbe
00000170: be01 283e 5cc3 8cbe 29a7 0b3e 1fc5 b6be
00000180: 98d9 e7bc a044 7b3d 810c 37bd 1e80 963c
00000190: 1628 013c ec17 8bbd 341a de3d de46 933d
000001a0: 943a 6fbc b368 70bd abcc 863c 6b93 37be
000001b0: 8a6e abbd b6b1 33bb ee7b 3a3e b373 b03e
000001c0: 7e40 31be 7513 503e 13c6 28be fc96 04be
000001d0: 7917 66be eb8e df3d f921 66bd 1592 31be
000001e0: 4d1c b83e da13 f4bd 7895 a03d cb20 743d
000001f0: 7eaa 803c 3542 d43c a23c 823c 75f4 353e
00000200: 6709 00be 8e37 3abe ec97 3a3e 5649 efbd
00000210: 2a10 dd3d df2b 913d 3bc4 433e dfff 99bd
00000220: 4a08 76bc 763b 403e 408b 5f3e dca0 fe3d
00000230: a076 73bd 8dfb d53c bcf3 21be f9cb d4bb
00000240: 6709 bf3d 88e9 b9bd 634f 853e 90fb 423e
00000250: 794c 85bd dcea 9dbe be2f 193e 72a1 bb3d
00000260: 900d 4a3d e79d 043e c238 6dbd 9eeb 97bd
00000270: f8ed 2ebd 691f 193c 9e44 dbbd 12dc 033e
00000280: edd9 a23e aded e2bd b928 d23d 7f48 90bd
00000290: 7f03 53bd 8d33 603b 13b9 08bc 70d4 0cbd
000002a0: 5c7d 90be 54f8 1bbd 492a 083e b6d6 5cbd
000002b0: 3757 4840 e0cb 233e 259b d23e 21e9 07bc
000002c0: d0b5 2cbf 2f7c 14bd 5cba c3bf 2a66 3c3b
000002d0: 8f92 403f 1c14 56bf 7541 a6be 981e 163c
000002e0: c319 e13e f1fb 0c3d 8a5c 80bd 621b d73e
000002f0: d10f 6fbe 56c9 be3d a6d6 5bbe ad29 393e
00000300: 46a6 483c b06b c63c f861 983d a631 fcbc
00000310: 7c72 a4bc 99aa f2bd 56da 32bb 9f42 e63d
00000320: 24d5 5b3e 6ded a73d c846 1bbe bca0 bbbd
00000330: 9e49 6ebd d765 ad3c f797 3bbe 0e1c ca3d
00000340: a1eb 273e 2969 7cbe 569c 30be 4160 6dbd
00000350: a7cb 59be cc07 3c3e 3a82 3ebc f71e 093e
00000360: 7f12 363d 8730 9bbc ea87 493e 3525 c63d
00000370: 72bd 853d 5ea2 c13d 791e 7d3e 314e 913e
00000380: d243 1d3c 2fc8 19bd 5251 853d b815 d93d
00000390: 9299 9b3e 79a9 b63e d5be e93e 6159 11be
000003a0: 7d40 eebd 2ad5 de3c 7042 1bbe 2133 963e
000003b0: fb0f 003e bc4b a23e 3d07 1f3e d606 c73d
000003c0: 650a 1e3e 66a2 813c 815a 763e 210f 1a3e
000003d0: 2afc cf3d ad09 233f e4b2 ddbd 608f d73e
000003e0: 8bb8 a83b e790 463e f70c be3b 8c70 f73d
000003f0: 69b4 273f d6e7 10be aca7 c13e bae0 1b3e

network_body.linear_encoder.seq_layers.0.bias f4 [128]
-0.0573428 0.060731795 0.022352438 0.029281354 0.023705939 0.068179704 0.122343406 0.10335673
0.10790505 0.038198147 0.040285286 -0.0017599288 0.024993172 0.11091768 0.053263184 0.015609815
-0.017823046 -0.008529694 0.0072391536 0.05068655 0.0056965817 0.03964347 0.12778206 -0.0095977355
-0.054104347 0.031505357 -0.0011108726 0.07343008 0.04252802 0.112688996 0.08333026 0.06191547
0.094852634 0.07297645 -0.056258976 0.022169963 -0.033728227 0.0020931794 0.031552587 -0.0031004355
0.08623504 0.14659248 0.060212266 -0.006610956 -0.027397593 0.031181663 0.049990986 0.016297162
-0.03814784 0.035414275 -0.02245455 0.033604894 0.0012984889 0.06279208 0.05105005 0.044562574
0.0077104084 0.14292458 0.024107035 0.033080503 0.08467506 0.060934298 0.06365754 0.09981958
0.15271613 0.026060453 0.034659576 0.071932495 0.041713763 -0.011874294 -0.018896865 -0.016881684
0.024367733 0.039295964 0.031501804 -0.046442423 0.03643147 -0.02375081 0.03756862 0.09483483
0.15789963 0.067187116 -0.047156457 -0.0025952181 0.21367839 -0.0727356 0.01129822 0.06769385
0.056337666 0.016245177 0.07269194 0.008002205 0.06749292 0.06970074 0.08587175 0.12804754
0.061421417 0.08903858 0.0029510465 0.10045094 0.011031852 0.017264929 0.039355997 0.051332533
0.042091206 0.119135976 0.092138566 0.038073823 0.060970888 0.052947223 0.002898095 -0.008670342
-0.04158051 -0.035415757 0.054814924 0.08587848 -0.08763064 0.06182945 0.04991652 -0.010818343
-0.13927816 0.05145413 -0.05819358 0.09412383 0.06971788 0.046567082 0.04318556 0.069042034
00000000: 49e0 6abd e7c1 783d 761c b73c 73df ef3c
00000010: f532 c23c cda1 8b3d 2e8f fa3d b1ac d33d
00000020: 53fd dc3d a975 1c3d 2f02 253d 69ad e6ba
00000030: 7bbe cc3c cf28 e33d 7f2a 5a3d 4fc0 7f3c
00000040: a301 92bc 21c0 0bbc 6c36 ed3b b39c 4f3d
00000050: 64aa ba3b 3161 223d 4dd9 023e d23f 1dbc
00000060: 859c 5dbd c30b 013d b39a 91ba 8362 963d
00000070: dc31 2e3d 7dc9 e63d 0ea9 aa3d 139b 7d3d
00000080: 1942 c23d ad74 953d d06f 66bd c89d b53c
00000090: 9c26 0abd b92d 093b 493d 013d ad30 4bbb
000000a0: ff9b b03d 571c 163e 23a1 763d b8a0 d8bb
000000b0: eb70 e0bc b070 ff3c 59c3 4c3d a081 853c
000000c0: e940 1cbd 8f0e 113d 9bf2 b7bc 49a5 093d
000000d0: 0f32 aa3a 2299 803d db19 513d 3f87 363d
000000e0: 98a7 fc3b d25a 123e 1e7c c53c 6c7f 073d
000000f0: 1e6a ad3d 3e96 793d e25e 823d 356e cc3d
00000100: 9e61 1c3e bb7c d53c 33f7 0d3d 5851 933d
00000110: 0ddc 2a3d 668c 42bc 99cd 9abc 754b 8abc
00000120: d79e c73c cef4 203d 0908 013d 693a 3ebd
00000130: 2a39 153d 0f91 c2bc 8ee1 193d c338 c23d
00000140: 71b0 213e 6699 893d 2127 41bd 8914 2abb
00000150: 82ce 5a3e 67f6 94bd 2b1c 393c 13a3 8a3d
00000160: 53c2 663d 9b14 853c 83df 943d ae1b 033c
00000170: ba39 8a3d 43bf 8e3d 87dd af3d e51e 033e
00000180: 0695 7b3d dc59 b63d 5866 413b 39b9 cd3d
00000190: f1be 343c 2e6f 8d3c c133 213d 1042 523d
000001a0: d467 2c3d 90fd f33d 25b3 bc3d 4cf3 1b3d
000001b0: 9cbc 793d 30df 583d f7ed 3d3b 0d0e 0ebc
000001c0: 5350 2abd 1d10 11bd 9d85 603d 0ee1 af3d
000001d0: b177 b3bd e140 7d3d 4475 4c3d 6b3f 31bc
000001e0: ef9e 0ebe 91c1 523d 645c 6ebd ffc3 c03d
000001f0: 3fc8 8e3d 20bd 3e3d 57e3 303d e965 8d3d

network_body.linear_encoder.seq_layers.2.weight f4 [128, 128]
-0.30486935 -0.15482198 -0.43871883 0.019280402 -0.11768845 -0.54312676 0.25530052 -0.22536771
-0.09104328 0.17945749 0.52630955 0.11327748 -0.18924628 0.019044058 -0.16131696 0.31387067
-0.267009 -0.3269782 0.2388091 0.41545376 0.2788275 0.24180688 0.32313323 0.04640062
-0.16911691 0.1152328 0.2070068 -0.058721393 -0.06835367 0.360537 -0.013944766 0.11526482
-0.16488726 -0.2726538 0.34679535 0.016357685 0.2704971 -0.5653823 -0.28878045 0.011444008
-0.3713564 0.18904687 0.2128133 -0.60312885 -0.70551705 0.011872256 0.5042979 -0.17943862
-0.16294284 -0.41445324 -0.047748044 0.161635 0.26402357 0.10795504 -0.18545847 -0.30552608
0.2861278 -0.05429523 0.18944344 -0.07640053 0.26818207 -0.29904103 0.06271928 0.19514233
0.29936728 -0.17433251 0.045851618 -0.34508988 0.059685204 0.17320646 -0.02926657 -0.23212196
-0.30672443 -0.29903468 -0.46466213 0.050947256 -0.043441687 -0.033336367 -0.12912206 -0.064732835
-0.11636081 0.20370322 -0.27719563 -0.09079198 -0.37548685 -0.09778653 0.27168292 0.5044277
0.3696609 0.039025646 0.06395837 -0.0951485 0.31375906 0.044744037 -0.32167077 0.28853044
0.22163743 0.40954858 -0.5271765 0.32401192 -0.075229466 -0.36091727 -0.12442248 -0.03151481
-0.6508553 -0.20335332 -0.04585117 0.09638152 0.115720175 0.06113966 -0.050036583 -0.25233376
-0.55278635 -0.20748909 0.13035306 0.3691104 -0.22048819 0.5105954 0.6404042 0.2849422
0.010847382 -0.055421844 -0.15094632 -0.3571014 -0.0017812866 0.23380022 0.17563239 0.0011419406
-0.019760812 0.051604304 0.045359407 -0.1058145 -0.049193542 -0.103965424 -0.030754749 0.056247555
-0.036451366 0.096374534 0.22835533 -0.072658256 -0.1494239 0.008807836 0.0014837349 -0.092314236
0.030094057 -0.015251213 0.19962631 0.14359172 0.1811658 -0.046983194 -0.0022888682 0.121745296
0.038531672 -0.115545295 0.098363996 -0.089048065 -0.32885522 -0.081250966 -0.18401583 0.077106565
-0.0062804553 0.025933007 -0.023190998 0.02314789 0.00035121874 -0.31886175 0.11803738 -0.3575855
-0.11637568 -0.3082824 0.1702622 -0.27735683 0.03188685 -0.107086994 -0.045318812 0.13115592
-0.041072045 0.0048877727 -0.13918048 0.013856947 -0.049751233 -0.08914662 0.14740294 -0.18392146
0.08577389 0.22933666 0.104856566 0.18795484 -0.017949801 -0.1495838 -0.08681891 0.11131759
-0.23437685 0.037123688 -0.07399432 -0.09095083 -0.021506721 0.22229135 0.04338149 -0.17895871
-0.22633329 0.16943803 -0.13487941 0.046259742 0.0007220764 -0.015957592 0.10886339 -0.084471546
-0.07446948 -0.105298266 0.019816129 0.05839963 -0.15459296 -0.20397873 -0.02602242 -0.012933886
0.029640255 -0.10177302 0.18695699 0.31233063 -0.3104494 -0.11849035 0.10309676 -0.28695253
-0.0669212 -0.20329422 -0.07063694 0.01813831 -0.017713455 -0.14171176 0.13007517 0.07739033
-0.18907188 0.034560375 -0.15402645 0.10274447 -0.05154927 0.36579564 -0.05749149 -0.23985137
0.11258248 -0.01220085 0.0632764 -0.22372179 0.0054183733 -0.008180324 0.1571576 0.12360386
0.12316301 -0.042213414 0.020354984 -0.04336659 -0.021409273 0.0014108712 -0.1278291 -0.03506669
00000000: d617 9cbe a789 1ebe c19f e0be eff1 9d3c
00000010: a406 f1bd 5b0a 0bbf c0b6 823e cbc6 66be
00000020: e674 babd b4c3 373e 39bc 063f 06fe e73d
00000030: c7c9 41be 4902 9c3c 4630 25be a8b3 a03e
00000040: 67b5 88be b069 a7be 5f8a 743e 5bb6 d43e
00000050: 7ac2 8e3e 399c 773e b871 a53e 940e 3e3d
00000060: fc2c 2dbe 2dff eb3d 97f9 533e d885 70bd
00000070: 02fd 8bbd 4e98 b83e 9678 64bc f60f ec3d
00000080: 35d8 28be 4799 8bbe 298f b13e 8d00 863c
00000090: 997e 8a3e e5bc 10bf 08db 93be a67f 3b3c
000000a0: 6d22 bebe 8195 413e bbeb 593e a766 1abf
000000b0: c49c 34bf da83 423c ab19 013f c2be 37be
000000c0: 7dda 26be 3733 d4be 7493 43bd a583 253e
000000d0: 192e 873e 8817 dd3d d3e8 3dbe ea6d 9cbe
000000e0: 587f 923e ad64 5ebd 76fd 413e e277 9cbd
000000f0: 294f 893e e81b 99be f772 803d 64d3 473e
00000100: ab46 993e 3984 32be e8ce 3b3d 9faf b0be
00000110: 7978 743d 095d 313e 72c0 efbc 61b1 6dbe
00000120: fc0a 9dbe 131b 99be 32e8 edbe 12ae 503d
00000130: e9ef 31bd b78b 08bd 9338 04be a692 84bd
00000140: 944e eebd 9497 503e 96ec 8dbe 25f1 b9bd
00000150: d03f c0be 4e44 c8bd 061a 8b3e 2c22 013f
00000160: 3244 bd3e 5bd9 1f3d 9bfc 823d 37dd c2bd
00000170: 07a5 a03e 8645 373d 08b2 a4be 43ba 933e
00000180: ecf4 623e 5ab0 d13e 0af5 06bf e4e4 a53e
00000190: e811 9abd 26ca b8be 37d1 febd ac15 01bd
000001a0: 749e 26bf da3b 50be 70ce 3bbd ad63 c53d
000001b0: b3fe ec3d 956d 7a3d 29f3 4cbd e431 81be
000001c0: 6883 0dbf 0578 54be 467b 053e 0afc bc3e
000001d0: a8c7 61be 61b6 023f 88f1 233f f2e3 913e
000001e0: 38b9 313c 0402 63bd ac91 1abe ffd5 b6be
000001f0: 0f7a e9ba 5369 6f3e fad8 333e 2bad 953a
00000200: 6de1 a1bc 095f 533d c9ca 393d 46b5 d8bd
00000210: 2b7f 49bd d3eb d4bd 62f1 fbbc d663 663d
00000220: 074e 15bd 0360 c53d fbd5 693e dacd 94bd
00000230: 9402 19be be4e 103c e279 c23a 3f0f bdbd
00000240: d087 f63c 39e0 79bc d76a 4c3e b509 133e
00000250: 8783 393e 7371 40bd d600 16bb 9955 f93d
00000260: 63d3 1d3d 03a3 ecbd 1073 c93d d55e b6bd
00000270: b65f a8be e866 a6bd a56e 3cbe 0cea 9d3d
00000280: 47cc cdbb 7571 d43c 0cfb bdbc a5a0 bd3c
00000290: c823 b839 d941 a3be 95bd f13d 7215 b7be
000002a0: 5f56 eebd 31d7 9dbe 3759 2e3e b701 8ebe
000002b0: c99b 023d 6d50 dbbd 38a0 39bd bd4d 063e
000002c0: 293b 28bd 9c29 a03b 5485 0ebe 4008 633c
000002d0: f3c7 4bbd 8192 b6bd ccf0 163e e855 3cbe
000002e0: 39aa af3d 3bd7 6a3e 0abf d63d 3c77 403e
000002f0: 760b 93bc 7f2c 19be 1dce b1bd 7afa e33d
00000300: 7c00 70be 020f 183d 568a 97bd 6e44 babd
00000310: dd2e b0bc 58a0 633e cab0 313d f440 37be
00000320: eac3 67be 2a81 2d3e d41d 0abe db7a 3d3d
00000330: ba49 3d3a 7fb9 82bc c5f3 de3d 6bff acbd
00000340: 7483 98bd 9ea6 d7bd 6f55 a23c 7334 6f3d
00000350: 9e4d 1ebe cddf 50be f82c d5bc a6e8 53bc
00000360: 1fd0 f23c 606e d0bd a771 3f3e cde9 9f3e
00000370: 39f3 9ebe 12ab f2bd 6524 d33d 71eb 92be
00000380: fb0d 89bd 5c2c 50be 1aaa 90bd cb96 943c
00000390: cf1b 91bc e31c 11be 6d32 053e d27e 9e3d
000003a0: 0f9c 41be 2e8f 0d3d 1cb9 1dbe b16b d23d
000003b0: 5425 53bd 9149 bb3e 327c 6bbd 999b 75be
000003c0: a591 e63d 13e6 47bc 0f97 813d 5317 65be
000003d0: 9c8c b13b c406 06bc eced 203e 0524 fd3d
000003e0: e33c fc3d f9e7 2cbd 7fbf a63c 2aa1 31bd
000003f0: 8062 afbc fbec b83a a2e5 02be 17a2 0fbd

network_body.linear_encoder.seq_layers.2.bias f4 [128]
0.10039507 0.004941208 0.18609817 0.04268692 0.16754259 0.05740389 0.059047807 -0.09174185
-0.012213779 0.024008522 0.09582479 0.051617526 0.0051418603 -0.075032115 0.17501165 0.04388217
0.08096946 0.03867355 0.06059704 -0.031562503 0.011070052 0.00077174156 0.11455349 0.095735796
0.13197361 0.023906855 0.20610122 -0.024783289 0.112237 0.031468578 0.04143719 0.04774219
0.015322259 0.014370388 -0.076195 0.029815875 -0.005771833 0.13242275 -0.16977815 0.048270907
0.09601637 -0.020078627 0.1136546 0.110600695 -0.0972259 0.079033054 0.0043353494 -0.09078516
-0.034095213 0.0074450243 0.11376228 0.1818113 0.051666506 -0.10481115 0.03901655 0.07741779
0.008585586 -0.101620376 0.15260044 0.00042413233 0.08229935 -0.15959907 0.10189972 0.103824995
0.1589967 0.07949622 0.12863453 -0.0011146723 -0.13888483 0.058543988 0.13025145 -0.0015670097
-0.07804091 0.117178865 0.16591525 0.04186731 0.04027035 -0.07898321 0.12675996 -0.11165832
0.027668325 0.07373153 -0.07404454 0.08839723 0.12384547 0.0014226309 0.05338368 0.01453416
0.08714115 0.015648967 0.072389916 0.07653344 -0.0043163593 0.10318839 0.05374287 0.017377708
0.15603556 0.030020667 0.03100867 0.021321628 0.030490262 -0.095525354 0.21023817 -0.055805463
0.08019393 0.076678164 -0.071769886 0.25785542 -0.24590456 0.045421045 0.039756566 0.02619256
0.1319194 -0.034359604 0.07886562 -0.23496534 0.09383505 0.082376115 0.036825545 0.036650293
0.07161529 -0.002713981 -0.04007685 0.1471221 0.15735568 0.011138998 0.039264504 -0.034253027
00000000: ee9b cd3d dbe9 a13b 8590 3e3e 7bd8 2e3d
00000010: 4990 2b3e 5720 6b3d 1ddc 713d 27e3 bbbd
00000020: 4d1c 48bc 85ad c43c ca3f c43d e66c 533d
00000030: 0d7d a83b 70aa 99bd 4136 333e cabd 333d
00000040: 51d3 a53d 2868 1e3d 9a34 783d af47 01bd
00000050: 2a5f 353c b34e 4a3a 059b ea3d 2111 c43d
00000060: 1724 073e 4fd8 c33c 330c 533e 5306 cbbc
00000070: 83dc e53d 32e5 003d 0bba 293d 518d 433d
00000080: 360a 7b3c c771 6b3c 200c 9cbd 6c40 f43c
00000090: a521 bdbb d499 073e 53da 2dbe b7b7 453d
000000a0: 3ba4 c43d ef7b a4bc bec3 e83d 9e82 e23d
000000b0: 5f1e c7bd 15dc a13d 8c0f 8e3b 92ed b9bd
000000c0: 6ca7 0bbd 64f5 f33b 33fc e83d be2c 3a3e
000000d0: 42a0 533d 3aa7 d6bd d1cf 1f3d 388d 9e3d
000000e0: 8faa 0c3c 581e d0bd 4a43 1c3e 145e de39
000000f0: 908c a83d f06d 23be cdb0 d03d 33a2 d43d
00000100: 08d0 223e eace a23d c5b8 033e 321a 92ba
00000110: d337 0ebe d2cb 6f3d a360 053e 1f64 cdba
00000120: ead3 9fbd 79fb ef3d b0e5 293e 0e7d 2b3d
00000130: 86f2 243d f3c1 a1bd 5dcd 013e 1ead e4bd
00000140: afa8 e23c 8e00 973d aaa4 97bd 9b09 b53d
00000150: b2a2 fd3d 9277 ba3a d8a8 5a3d af20 6e3c
00000160: 0f77 b23d 4332 803c 2a41 943d 90bd 9c3d
00000170: 3f70 8dbb 6f54 d33d 7c21 5c3d b25b 8e3c
00000180: c9c7 1f3e e7ed f53c e505 fe3c b2aa ae3c
00000190: b7c6 f93c cca2 c3bd ad48 573e 4594 64bd
000001a0: b73c a43d 7109 9d3d 17fc 92bd a005 843e
000001b0: 68ce 7bbe 6b0b 3a3d c8d7 223d c891 d63c
000001c0: e115 073e a8bc 0cbd 4c84 a13d c19a 70be
000001d0: 972c c03d cfb4 a83d 62d6 163d 9e1e 163d
000001e0: 0aab 923d 0cdd 31bb a027 24bd 2da7 163e
000001f0: d921 213e 5880 363c d1d3 203d e74c 0cbd

action_model._discrete_distribution.branches.0.weight f4 [3, 128]
0.5026849 0.12379898 -0.80939794 0.1500045 -0.6674819 0.0027063575 0.087417975 0.17275165
0.22443314 -0.10454857 0.06384424 -0.2945253 -0.23252942 0.11141397 0.13965125 0.025206437
0.08047596 0.05396892 -0.07213785 0.56176096 -0.00047719575 -0.035006642 0.054088652 0.14439419
0.11134817 -0.24657783 -0.94528204 0.061227012 -0.53603166 -0.011708269 0.094687976 0.098388575
-0.070710555 -0.007106052 -0.11557975 0.1789063 -0.3351274 0.06633348 0.21982935 -0.041927855
0.051129926 0.015088513 -0.04284916 0.05332799 0.012075672 0.109136246 0.046430573 -0.04501738
0.23363213 0.10103642 0.16500057 -0.16701134 0.105305746 1.2730038 -0.12142984 0.1885465
-0.20298724 1.4641119 -0.9767195 0.14919163 0.01864548 -0.07177627 0.4339916 -0.78460294
-0.42615518 0.17097095 0.27075157 -0.13681231 0.017718883 -0.0063254475 -0.7368281 0.080686994
-0.024990741 0.061804302 0.15005757 0.13340439 0.1755279 -0.16670872 -0.13924207 0.15192252
0.074356325 -0.09378388 -0.31312913 -0.07751296 0.12467719 0.038238086 0.15660985 -0.04187774
0.097322874 0.18289585 -0.0050382046 -0.49842608 0.65928495 0.25261796 0.04512021 0.18800116
0.2646263 0.19782683 -0.0348686 0.09921859 0.335347 -0.10404576 -0.58736414 -0.16692805
-0.22709669 0.05759799 0.20668942 -0.36347938 -0.38600728 0.13658598 0.014695865 -0.0099660605
0.05340427 -0.250864 -0.23135068 -0.3059156 0.020438228 -0.043086905 -0.16035923 -0.11980162
-0.0074712317 0.15027794 -0.05323357 -0.42443275 -0.12703602 -0.09680467 -0.09894535 -0.19740662
-0.42012632 0.0050407164 0.087268464 -0.027241271 0.05220911 0.05974033 -0.0999896 0.07179852
0.010398418 0.06505126 0.04319866 0.21063618 0.1541152 0.12429396 -0.10030794 0.085918754
-0.31138867 0.017444493 0.051031146 -0.39276224 -0.20121074 -0.1202864 -0.11685739 -0.04833064
0.1543803 -0.07506061 0.14449812 -0.15382202 0.24214478 0.07256362 0.019280648 0.0944596
-0.10356559 0.045719825 -0.16606499 -0.022132682 0.50108415 0.044173453 -0.084017396 -0.1342268
0.19528043 -0.084595345 0.27686155 -0.08473589 0.055613074 -0.13439478 0.22934578 0.025041722
-0.08626659 -0.103629865 0.08769884 -0.09381995 -0.068559065 -0.33848903 -0.03880959 0.15031935
0.076339014 -0.32928216 0.31943503 -0.07654893 -0.052040245 0.21946318 -0.037931107 0.18427813
0.13088106 0.20315512 0.0771425 0.18602538 -0.07199983 0.05384343 -0.027114317 -0.112982735
0.10956565 -0.09892431 -0.116776064 0.11612712 -0.16534796 0.03226066 -0.046427585 -0.17408533
0.13596559 0.081609726 0.19344075 0.042286236 0.16267596 -0.12530085 0.18257478 -0.019751472
-0.0788188 -0.11493313 -0.058025815 0.30483758 -0.002036861 -0.05768694 0.0088418 0.07689854
-0.514599 -0.40165356 0.08943394 -0.076445535 -0.25509545 0.10380621 0.4594854 0.14827572
0.06089153 0.01825265 0.13389252 0.13560888 -0.17690161 0.099549435 -0.12176263 -0.13142282
-0.15921922 -0.24977216 0.067117386 -0.13096772 0.14032626 -0.06605727 -0.031412777 0.025743596
0.09597038 -0.29658344 0.24955401 0.055424802 0.003841264 0.0705779 0.026918247 0.010105424
00000000: f5af 003f 528a fd3d b434 4fbf c89a 193e
00000010: 18e0 2abf 255d 313b 3208 b33d cfe5 303e
00000020: cdd1 653e 901d d6bd c5c0 823d 05cc 96be
00000030: 311c 6ebe 022d e43d bd00 0f3e bb7d ce3c
00000040: 95d0 a43d 840e 5d3d 02bd 93bd 91cf 0f3f
00000050: 2130 fab9 2063 0fbd 108c 5d3d 12dc 133e
00000060: 820a e43d e67e 7cbe 01fe 71bf 2dc9 7a3d
00000070: 5f39 09bf 0ad4 3fbc c5eb c13d f37f c93d
00000080: b2d0 90bd e2d9 e8bb 13b5 ecbd 3733 373e
00000090: d295 abbe d9d9 873d f21a 613e 8bbc 2bbd
000000a0: 9d6d 513d cf35 773c 9a82 2fbd 736e 5a3d
000000b0: 0ad9 453c d382 df3d fc2d 3e3d 2564 38bd
000000c0: 433d 6f3e 2fec ce3d e9f5 283e 0505 2bbe
000000d0: 8aaa d73d caf1 a23f 35b0 f8bd 5512 413e
000000e0: e3db 4fbe 0568 bb3f 4a0a 7abf b1c5 183e
000000f0: 68be 983c 70ff 92bd 2634 de3e bddb 48bf
00000100: 0331 dabe 0213 2f3e f39f 8a3e 8718 0cbe
00000110: 3127 913c b345 cfbb c4a0 3cbf 393f a53d
00000120: 62b9 ccbc 8226 7d3d b1a8 193e 299b 083e
00000130: 96bd 333e b1b5 2abe 7995 0ebe 9491 1b3e
00000140: 2148 983d c311 c0bd 7652 a0be 1dbf 9ebd
00000150: c156 ff3d 8a9f 1c3d 555e 203e fe87 2bbd
00000160: 3751 c73d 0d49 3b3e 8617 a5bb b431 ffbe
00000170: e6c6 283f 2457 813e f8cf 383d 6083 403e
00000180: 197d 873e 1e93 4a3e 61d2 0ebd 1e33 cb3d
00000190: 9ab2 ab3e f215 d5bd 7f5d 16bf 30ef 2abe
000001a0: 098c 68be dfeb 6b3d 64a6 533e f819 babe
000001b0: bfa2 c5be 32dd 0b3e edc6 703c b048 23bc
000001c0: 70be 5a3d 3f71 80be 31e7 6cbe f8a0 9cbe
000001d0: 126e a73c e57b 30bd 3635 24be 8d5a f5bd
000001e0: 3cd1 f4bb 76e2 193e 720b 5abd 404f d9be
000001f0: bb15 02be 8741 c6bd dca3 cabd f624 4abe
00000200: cc1a d7be 982c a53b cfb9 b23d 1629 dfbc
00000210: 38d9 553d 47b2 743d 59c7 ccbd 1a0b 933d
00000220: 205e 2a3c 9839 853d 14f1 303d 03b1 573e
00000230: 60d0 1d3e d58d fe3d 406e cdbd 2cf6 af3d
00000240: 566e 9fbe c1e7 8e3c 0906 513d 2218 c9be
00000250: 300a 4ebe b758 f6bd ed52 efbd 59f6 45bd
00000260: df15 1e3e 61b9 99bd 51f7 133e 8583 1dbe
00000270: cdf4 773e 3c9c 943d 73f2 9d3c 0974 c13d
00000280: 321a d4bd b644 3b3d f10c 2abe 994f b5bc
00000290: 0d47 003f 39ef 343d 5011 acbd c072 09be
000002a0: 98f7 473e 5340 adbd ccc0 8d3e 038a adbd
000002b0: 89ca 633d c99e 09be 9fd9 6a3e 4c24 cd3c
000002c0: 8aac b0bd e53b d4bd 739b b33d ad24 c0bd
000002d0: b268 8cbd 6f4e adbe cef6 1ebd 51ed 193e
000002e0: a157 9c3d ac97 a8be fd8c a33e afc5 9cbd
000002f0: 2728 55bd f5ba 603e a65d 1bbd 68b3 3c3e
00000300: af05 063e e507 503e e3fc 9d3d 707d 3e3e
00000310: a674 93bd ee8a 5c3d d81e debc 7e63 e7bd
00000320: f563 e03d d498 cabd 4a28 efbd 0ed4 ed3d
00000330: fa50 29be c123 043d da2a 3ebd 6d43 32be
00000340: 903a 0b3e 0023 a73d 5515 463e 5534 2d3d
00000350: 8794 263e de4e 00be e2f4 3a3e d7cd a1bc
00000360: c06b a1bd 1062 ebbd 7aac 6dbd ac13 9c3e
00000370: db7c 05bb 2449 6cbd 32dd 103c fb7c 9d3d
00000380: c3bc 03bf 89a5 cdbe 2429 b73d 7a8f 9cbd
00000390: df9b 82be 5a98 d43d ac41 eb3e 97d5 173e
000003a0: 6669 793d 9586 953c 1f1b 093e 0edd 0a3e
000003b0: b225 35be 93e0 cb3d b05e f9bd b493 06be
000003c0: 5d0a 23be 46c4 7fbe d774 893d 671c 06be
000003d0: b0b1 0f3e 0949 87bd afaa 00bd 3ce4 d23c
000003e0: 1e8c c43d c9d9 97be 168b 7f3e 1e05 633d
000003f0: b7bd 7b3b 258b 903d a883 dc3c 3891 253c

action_model._discrete_distribution.branches.0.bias f4 [3]
0.1510386 -0.073890075 0.005091506
00000000: dda9 1a3e ae53 97bd a6d6 a63b

action_model._discrete_distribution.branches.1.weight f4 [3, 128]
0.49106005 0.07342301 -1.0752815 -0.092166595 -1.852904 -0.22937202 -0.012717083 0.10266748
-0.006726572 -0.23681886 -0.005932076 -0.3134288 -0.091430254 -0.004046476 -0.13141483 -0.08597463
0.4487866 -0.33164945 -0.090175636 0.5072153 -0.02707601 -0.050651673 -0.17437346 -0.05934356
0.09007904 0.114655934 -0.2378781 -0.62304455 -0.20817845 -0.23317847 -0.06922337 -0.040664796
-0.11092928 -0.2522319 0.015863854 -0.09510009 -0.65158683 0.09843181 0.045442116 -0.34258664
-0.009835229 -0.28578407 -0.05888611 -0.03344512 0.12411458 -0.3698326 -0.0064855437 -0.14310825
-0.030365914 -0.21573068 0.07512358 -0.34252957 -0.009239401 -0.06487008 -0.029599657 0.008835566
0.030487705 -0.11804495 -1.7654591 -0.10000854 0.14175317 0.006591465 -0.3086737 -0.089754716
-0.32967043 0.11055763 0.08184371 -0.03593029 -0.066970974 0.057127915 -1.3461444 -0.23769599
-0.039426398 0.017500987 -0.10149277 -0.1049714 -0.2312081 0.087881796 0.10861092 0.020914447
0.031980332 -0.5218543 0.05259477 0.0014390814 -0.056155134 -0.2228609 -0.18726946 -0.30476773
-0.13896632 -0.14590235 -0.26434135 -0.121310495 -0.016687153 0.092143975 0.087772526 0.040602375
0.37484702 -0.36937842 -0.05228373 -0.26659253 -0.29799277 -0.13755904 -1.1267648 0.054880675
-0.26694217 -0.056458082 -0.07758113 -0.03540519 -0.06261074 -0.02517 -0.33255866 -0.29720294
0.2396479 -0.12821302 -0.2780149 0.10630357 -0.07751263 -0.47858837 -0.16999717 0.13129942
-0.017612338 -0.057765696 0.0068608113 0.014560475 -0.2883791 -0.05097352 -0.0785902 0.04937099
-0.36292 0.050158978 0.8035173 -0.03285994 1.4991645 0.30985162 -0.09756758 0.0013334904
0.12879218 0.040650114 -0.14338169 0.20801091 0.047534347 0.112900734 -0.16774493 0.044523407
-0.21687089 -0.2665436 0.17345433 -0.4773529 0.03949084 -0.32760614 0.30330566 -0.057249263
0.10810102 0.10488139 0.4817939 0.67748153 0.33944356 0.19046259 -0.02209544 0.076806076
0.053949933 -0.3748309 -0.0606939 0.064575285 0.485417 0.08752793 0.069726415 -0.16539665
0.11587679 0.22569127 0.12209302 -0.010145319 -0.016515782 -0.11534122 0.08075251 -0.14792119
-0.001846152 0.4043772 -0.02037914 0.16342457 0.04599455 0.17948954 -0.020159658 0.1081273
0.22440434 0.12709056 1.8587173 -0.0907556 -0.07401246 0.01393151 0.38026837 0.124546245
0.014629458 0.048347153 -0.12602177 0.06935322 -0.18489665 0.09482886 1.09995 -0.1223563
-0.06654097 -0.079027966 -0.32531953 0.44910026 0.15920968 0.036665 0.15904878 -0.12437425
0.054732963 0.21528222 -0.06306967 0.14993861 0.10684503 -0.12366266 0.057110485 -0.05642599
-0.20497082 0.17943203 -0.021666717 0.05084292 0.13764559 -0.060202327 0.007758877 0.10059822
-0.2571698 0.4613034 0.15991424 -0.09079008 0.2717657 0.021317514 1.0145214 -0.010180242
0.16128285 0.1570311 0.13088869 -0.08087085 0.09210514 0.37562397 -0.13509189 -0.06003685
-0.015593626 0.2598633 -0.015549928 -0.023058198 0.2034311 0.011212478 -0.044253778 0.049087502
0.18439138 0.27585697 0.12254552 0.14105059 0.10420624 0.3545427 0.031330068 0.04313992
00000000: 396c fb3e ce5e 963d d3a2 89bf d7c1 bcbd
00000010: f52b edbf 80e0 6abe 505b 50bc 5443 d23d
00000020: 936a dcbb a580 72be dc61 c2bb bd79 a0be
00000030: c93f bbbd 4d98 84bb 9c91 06be 7813 b0bd
00000040: 5bc7 e53e f5cd a9be 01ae b8bd ddd8 013f
00000050: 82ce ddbc 2178 4fbd f58e 32be 3c12 73bd
00000060: 5c7b b83d bbd0 ea3d 5196 73be d97f 1fbf
00000070: bb2c 55be 56c6 6ebe fbc4 8dbd 2190 26bd
00000080: e42e e3bd 8a24 81be eaf4 813c d6c3 c2bd
00000090: 65ce 26bf 9e96 c93d 8321 3a3d 8467 afbe
000000a0: f123 21bc 4a52 92be 9032 71bd c0fd 08bd
000000b0: c92f fe3d b35a bdbe af84 d4bb f88a 12be
000000c0: f0c1 f8bc 81e8 5cbe 64da 993d 0960 afbe
000000d0: db60 17bc 9bda 84bd fb7a f2bc 0dc3 103c
000000e0: 5ac1 f93c 8dc1 f1bd 90fa e1bf 47d1 ccbd
000000f0: be27 113e 37fd d73b 7b0a 9ebe 52d1 b7bd
00000100: 90ca a8be 0a6c e23d ad9d a73d a42b 13bd
00000110: 1428 89bd f6fe 693d 764e acbf 9466 73be
00000120: 937d 21bd 3b5e 8f3c 71db cfbd 3ffb d6bd
00000130: d1c1 6cbe 5ffb b33d 676f de3d c654 ab3c
00000140: cffd 023d 3e98 05bf 9d6d 573d 8f9f bc3a
00000150: ed02 66bd a635 64be 91c3 3fbe 840a 9cbe
00000160: 304d 0ebe 6d67 15be c057 87be a371 f8bd
00000170: 7fb3 88bc fbb5 bc3d 15c2 b33d ad4e 263d
00000180: f3eb bf3e 2b1f bdbe 7727 56bd d17e 88be
00000190: 8292 98be 47dc 0cbe d439 90bf 8fca 603d
000001a0: a5ac 88be 9740 67bd dbe2 9ebd 0805 11bd
000001b0: 0f3a 80bd 5131 cebc 2145 aabe fc2a 98be
000001c0: 4266 753e 464a 03be f857 8ebe b0b5 d93d
000001d0: f1be 9ebd 8909 f5be bd13 2ebe 5b73 063e
000001e0: c047 90bc b99b 6cbd a8d0 e03b 0f8f 6e3c
000001f0: 6da6 93be 9cc9 50bd e6f3 a0bd 3c39 4a3d
00000200: a6d0 b9be 8073 4d3d 4fb3 4d3f 2598 06bd
00000210: 9fe4 bf3f dfa4 9e3e 83d1 c7bd 83c8 ae3a
00000220: 19e2 033e bc80 263d a6d2 12be d000 553e
00000230: 60b3 423d 8038 e73d 54c5 2bbe 2d5e 363d
00000240: 6713 5ebe 6778 88be 039e 313e 9967 f4be
00000250: 26c1 213d febb a7be e14a 9b3e 347e 6abd
00000260: 1164 dd3d 0ecc d63d b1ad f63e 6e6f 2d3f
00000270: 8ccb ad3e a008 433e 7f01 b5bc 814c 9d3d
00000280: 9bfa 5c3d d6e9 bfbe 2b9a 78bd 0c40 843d
00000290: 9488 f83e d841 b33d b9cc 8e3d bd5d 29be
000002a0: cf50 ed3d 9d1b 673e e80b fa3d 8d38 26bc
000002b0: 1b4c 87bc 0438 ecbd 9261 a53d a778 17be
000002c0: 95fa f1ba 870a cf3e 27f2 a6bc c558 273e
000002d0: c864 3c3d 1bcc 373e de25 a5bc d971 dd3d
000002e0: 40ca 653e 0724 023e 73ea ed3f 12de b9bd
000002f0: d893 97bd fd40 643c 89b2 c23e 1a12 ff3d
00000300: 65b0 6f3c aa07 463d da0b 01be 1009 8e3d
00000310: 8c55 3dbe a235 c23d 29cb 8c3f f195 fabd
00000320: a246 88bd 6ad9 a1bd 4890 a6be 78f0 e53e
00000330: dd07 233e 0a2e 163d afdd 223e edb7 febd
00000340: ac2f 603d f172 5c3e ac2a 81bd 8289 193e
00000350: 91d1 da3d d942 fdbd afec 693d f01e 67bd
00000360: dfe3 51be 08bd 373e 667e b1bc aa40 503d
00000370: f7f2 0c3e b796 76bd 2d3e fe3b 7106 ce3d
00000380: c3ab 83be f62f ec3e 8fc0 233e 26f0 b9bd
00000390: e024 8b3e 11a2 ae3c d6db 813f 08cb 26bc
000003a0: 5527 253e c3cc 203e af07 063e 9e9f a5bd
000003b0: 9fa1 bc3d c951 c03e 8755 0abe 33e9 75bd
000003c0: 687c 7fbc cd0c 853e 20c5 7ebc 8ce4 bcbc
000003d0: 3e50 503e 8bb4 373c 7343 35bd fa0f 493d
000003e0: 18d1 3c3e 203d 8d3e 25f9 fa3d 916f 103e
000003f0: 156a d53d 9f86 b53e f553 003d 7cb3 303d

action_model._discrete_distribution.branches.1.bias f4 [3]
-0.048737593 -0.11269027 0.055165887
00000000: 12a1 47bd 28ca e6bd a0f5 613d

action_model._discrete_distribution.branches.2.weight f4 [3, 128]
0.7251577 -0.13066018 -1.723773 -0.12617569 -2.3233418 -0.04337296 -0.14161493 0.14811273
-0.027505193 0.1547333 -0.18337362 -0.27831513 0.008279836 -0.023531297 -0.12943278 -0.09553183
0.73139447 0.102168836 -0.1319244 0.4065983 0.011227687 0.2095507 0.091451295 -0.14891809
-0.01326826 0.21152811 -0.533214 -0.81885755 -0.4592819 -0.2784989 -0.12084601 -0.0030479135
0.018531695 0.29942513 0.3727781 -0.03177896 -0.88038665 0.016440721 0.19706832 0.2585494
-0.13454238 -0.21452469 -0.088600725 -0.3029191 0.123743884 0.122518905 0.16125959 0.16260809
0.18955855 -0.28718886 0.10408631 -0.6429675 -0.16100696 0.031397518 -0.119322866 0.04334909
-0.026240217 0.003952548 -2.8905752 -0.14655107 0.3160844 0.15725636 -0.3340423 0.12224285
-0.5462014 0.070325926 0.08951454 -0.009654912 0.08383026 -0.1419648 -1.9130108 0.1669895
0.028922943 0.0041956096 -0.2633592 -0.24131404 0.06893026 0.16618273 -0.114461966 0.15583274
-0.069714084 -0.7207924 0.09188411 -0.23433514 -0.072671205 -0.062444016 -0.039354753 -0.084013715
-0.1849709 -0.09894127 -0.3265344 -0.028172867 -0.23789707 0.06266417 -0.03223473 -0.06179245
0.7828009 -0.039607648 -0.118479714 -0.22049506 0.0689079 0.29619431 -2.1661615 0.397602
-0.6239038 -0.08512198 0.09578584 -0.28172043 -0.22153108 -0.09681666 0.21706511 -0.6092837
-0.08182659 -0.096048184 -0.3003242 0.009072047 -0.16825736 -0.4115043 0.014454679 0.28106683
-0.18644497 -0.012514743 0.21586487 -0.09824063 -0.36880416 0.021645157 0.016238172 0.19226936
-0.12800962 -0.17128313 -0.1905413 0.36669642 -0.26599172 0.116430074 -0.09894411 0.06514953
-0.008389123 -0.08337813 -0.25125766 0.12475028 0.27976298 -0.046132762 -0.18698685 0.16035599
0.23978151 0.3155016 0.26197493 -0.4238598 0.18671313 0.07948008 0.515794 -0.13228895
-0.24109538 -0.05602145 0.6303516 0.045880858 -0.22394395 0.34822917 0.091507174 0.073372684
-0.4416728 0.21368532 -0.1454309 0.52820486 0.10747473 -0.11353339 0.0059274 0.32692656
-0.18436836 0.4109061 -0.18861224 -0.16831794 -0.040911447 0.2877093 0.12290965 -0.15550144
0.032812864 0.24676941 -0.25368318 -0.190433 -0.093815014 0.07317302 -0.036582995 0.10682498
0.22757664 0.049739327 -0.22816344 -0.026265692 0.056792546 -0.032275785 0.0053971615 -0.0060458323
-0.20755854 -0.021720292 -0.10618298 -0.008192277 -0.21338014 -0.33380154 -0.2768984 0.25564188
0.033396985 -0.3181653 -0.1639759 0.35899466 0.3826181 0.08852927 -0.1457791 0.06355591
-0.037171382 0.28495833 0.08059616 0.08534549 0.17393227 0.29020777 0.030927766 0.009964617
-0.055130284 0.28748617 -0.15702732 -0.009750584 -0.24122666 -0.2061821 0.108103395 0.022539752
0.0671972 0.14830251 -0.15614744 0.056259844 0.32345217 -0.37492293 -0.24430034 0.057391264
0.7333264 0.07123423 0.42482924 -0.21445423 0.15175371 0.11882821 0.28903845 -0.2302792
0.012941561 0.14201158 0.47878012 0.041896775 -0.028819263 0.45015094 0.06142438 0.42144963
-0.2281222 0.08562475 0.14698718 -0.6922326 -0.085326776 0.29408282 -0.2973462 0.0934375
00000000: efa3 393f c8cb 05be 98a4 dcbf 3334 01be
00000010: a2b1 14c0 d8a7 31bd 8103 11be ddaa 173e
00000020: 9252 e1bc 6872 1e3e 4bc6 3bbe 527f 8ebe
00000030: 26a8 073c b5c4 c0bc 078a 04be 31a6 c3bd
00000040: ab3c 3b3f e53d d13d 3117 07be a72d d03e
00000050: 55f4 373c 7594 563e d14a bb3d fc7d 18be
00000060: 1e63 59bc d39a 583e b680 08bf a6a0 51bf
00000070: ff26 ebbe 6897 8ebe 1d7e f7bd 81bf 47bb
00000080: c8cf 973c 404e 993e c5dc be3e a82a 02bd
00000090: 0561 61bf b1ae 863c 47cc 493e 9660 843e
000000a0: 7ac5 09be 5cac 5bbe 4c74 b5bd 3618 9bbe
000000b0: 6f6d fd3d 31eb fa3d 3c21 253e bc82 263e
000000c0: a31b 423e 6b0a 93be 342b d53d 8599 24bf
000000d0: 02df 24be af9a 003d 8c5f f4bd d18e 313d
000000e0: b9f5 d6bc 6084 813b 2fff 38c0 7c11 16be
000000f0: d1d5 a13e d007 213e 9807 abbe 765a fa3d
00000100: dbd3 0bbf 0a07 903d 6653 b73d a32f 1ebc
00000110: 33af ab3d 385f 11be 8add f4bf 4cff 2a3e
00000120: cfef ec3c 537b 893b 04d7 86be 071b 77be
00000130: 4f2b 8d3d ce2b 2a3e 096b eabd 9e92 1f3e
00000140: 42c6 8ebd da85 38bf bc2d bc3d 8df5 6fbe
00000150: a4d4 94bd 4cc5 7fbd 7332 21bd 620f acbd
00000160: 0369 3dbe b8a1 cabd 842f a7be c9ca e6bc
00000170: 4a9b 73be 1356 803d 9008 04bd 141a 7dbd
00000180: a465 483f a13b 22bd 7ea5 f2bd 75c9 61be
00000190: 961f 8d3d c8a6 973e 64a2 0ac0 7d92 cb3e
000001a0: 29b8 1fbf 6f54 aebd 5e2b c43d a93d 90be
000001b0: 0bd9 62be d047 c6bd 5146 5e3e 04fa 1bbf
000001c0: b394 a7bd e9b4 c4bd 18c4 99be eca2 143c
000001d0: a84b 2cbe b1b0 d2be 51d3 6c3c fee7 8f3e
000001e0: 6eeb 3ebe a30a 4dbc ae0b 5d3e 6232 c9bd
000001f0: e6d3 bcbe 2f51 b13c ea05 853c 42e2 443e
00000200: f414 03be d864 2fbe 421d 43be a2bf bb3e
00000210: 1130 88be e472 ee3d 36a3 cabd 1e6d 853d
00000220: 8872 09bc 27c2 aabd d8a4 80be 137d ff3d
00000230: 183d 8f3e b5f5 3cbd 7b79 3fbe 5c34 243e
00000240: 4989 753e 6d89 a13e 9421 863e 2704 d9be
00000250: ba31 3f3e 74c6 a23d 130b 043f c176 07be
00000260: b5e1 76be bf76 65bd b95e 213f 91ed 3b3d
00000270: 9051 65be 184b b23e 1d68 bb3d 6b44 963d
00000280: f022 e2be 53d0 5a3e d6eb 14be 6f38 073f
00000290: b61b dc3d 3284 e8bd a33a c23b eb62 a73e
000002a0: 0fcb 3cbe 4962 d23e 9123 41be 8a5b 2cbe
000002b0: c392 27bd a24e 933e 0eb8 fb3d c53b 1fbe
000002c0: c866 063d 1fb1 7c3e c3e2 81be de00 43be
000002d0: 1622 c0bd bcdb 953d 0dd8 15bd 0ec7 da3d
000002e0: da09 693e 77bb 4b3d ada3 69be 262b d7bc
000002f0: 4d9f 683d 9d33 04bd acda b03b 1e1c c6bb
00000300: 3a8a 54be c1ee b1bc 7676 d9bd e638 06bc
00000310: 5380 5abe 09e8 aabe a1c5 8dbe 7ee3 823e
00000320: 47cb 083d 90e6 a2be 4ce9 27be 26ce b73e
00000330: 85e6 c33e d54e b53d 1e47 15be 9a29 823d
00000340: 0541 18bd 0fe6 913e 990f a53d 9ec9 ae3d
00000350: 4d1b 323e 1d96 943e 3a5c fd3c a242 233c
00000360: 4bd0 61bd 6331 933e c5cb 20be eac0 1fbc
00000370: 1f04 77be 6721 53be 5065 dd3d 49a5 b83c
00000380: b09e 893d 9ddc 173e 1de5 1fbe b970 663d
00000390: 869b a53e e6f5 bfbe de29 7abe 1a13 6b3d
000003a0: 47bb 3b3f 41e3 913d 3883 d93e e499 5bbe
000003b0: 5365 1b3e 345c f33d d9fc 933e 50ce 6bbe
000003c0: d708 543c 7c6b 113e ab22 f53e f49b 2b3d
000003d0: 6016 ecbc 2f7a e63e 2198 7b3d 3fc8 d73e
000003e0: de98 69be 075c af3d cf83 163e 2836 31bf
000003f0: cebf aebd 0692 963e c33d 98be 295c bf3d

action_model._discrete_distribution.branches.2.bias f4 [3]
-0.19522382 -0.100126855 0.30524188
00000000: c1e8 47be 4f0f cdbd aa48 9c3e

action_model._discrete_distribution.branches.3.weight f4 [3, 128]
0.542148 0.00845137 -0.9795617 0.0085243005 -1.7371699 -0.12605509 -0.15988953 -0.053439703
0.015268824 -0.09654137 0.054315604 -0.3107062 -0.065397575 -0.03762374 -0.1186195 -0.060294665
0.34240186 -0.06530309 -0.12943895 0.5209128 0.11568923 -0.04958558 -0.15024489 -0.14938803
-0.038474504 0.100636505 -0.10037197 -0.58839923 -0.2508195 -0.086988986 -0.016217364 -0.022888057
0.11619257 -0.012201876 -0.0069692014 -0.11276215 -0.6052524 -0.06272833 0.10800265 -0.3142308
-0.06704048 -0.05635354 -0.01746328 -0.15313399 0.10980732 -0.1639295 0.06279778 -0.019457633
0.0048147794 -0.19142637 0.16091466 -0.52408963 -0.029116724 0.08590974 0.010445866 0.09481854
-0.06860645 0.010308198 -1.7782432 -0.080052905 0.06769921 -0.035500564 -0.27184457 0.054728895
-0.307781 0.08467455 -0.069722526 -0.011941717 0.007917081 0.24725255 -1.2849184 -0.32741594
0.06654257 0.010570678 0.080591805 -0.14579141 -0.052706 0.124209754 0.14563467 0.026428072
-0.006388905 -0.36738235 0.0703479 -0.12339795 -0.15388528 -0.1027151 -0.18153888 -0.15624475
-0.07908209 0.037628002 -0.14494014 -0.1719955 0.021977851 -0.03679642 0.22195378 0.02249561
0.4067577 -0.22318022 0.18546157 -0.09568669 -0.11237586 -0.15884739 -1.1323671 -0.1238116
-0.20372736 -0.10915625 -0.122459985 -0.18936378 -0.027205057 -0.09468454 -0.30009228 -0.21991684
0.2571582 0.0287537 -0.1633668 -0.031973362 -0.06604619 -0.3257772 -0.05184378 0.12981872
0.24586532 0.098938525 -0.001317089 0.25776857 -0.15175325 -0.07218299 0.10953631 0.061786696
-0.46257803 0.058991853 0.79553586 -0.10589277 1.6446381 0.018522229 -0.09244618 0.08498133
0.075380795 0.11361285 -0.080209546 0.08665786 0.07485553 0.007977235 -0.119298175 -0.139835
-0.38592786 0.018309059 0.08445297 -0.43805847 0.053056322 0.11532779 0.0988474 -0.09154918
-0.16212386 -0.045855436 0.17484078 0.54995453 0.26158983 0.04813007 -0.09057489 -0.013592801
-0.17929055 -0.056398932 0.059527196 0.10389381 0.30169567 -0.023411363 0.021245198 0.06855956
-0.005580988 0.13607568 -0.03870997 -0.05509023 -0.017247502 0.05203853 0.05746475 0.13708436
-0.114102446 0.017862264 -0.026802642 0.13491915 -0.19740868 -0.15709034 0.024033172 0.0072416654
0.052924614 -0.17637573 1.6893821 -0.2752241 -0.04539512 -0.048401523 0.26346892 -0.08046364
0.19932446 0.00946711 -0.29539233 0.08669844 -0.11389094 0.018946374 1.0908961 -0.08018547
0.097461596 -0.07095449 -0.0848026 -0.05196618 -0.005082756 -0.04337691 0.056871504 0.086989716
0.07535599 0.37364876 0.009514913 0.08110138 -0.07630318 0.07012553 0.009804957 0.1788811
0.09810556 -0.13168277 0.16865805 0.042591404 0.09504175 -0.21029386 0.03370916 0.062626466
-0.2342366 0.10173338 0.03631812 0.03148342 0.05712711 0.16759425 1.0903955 0.11749264
0.1886012 -0.018834682 -0.09376197 0.10969248 -0.018690374 -0.12330152 -0.025512908 -0.0594316
-0.05330966 0.11336123 0.3303348 -0.07648565 0.07950271 0.18760653 0.18776715 -0.035478532
0.0073268637 0.17705388 0.0975363 -0.04821121 -0.21719517 0.016090095 -0.14371401 0.06166503
00000000: 36ca 0a3f 9d77 0a3c 8ec4 7abf 82a9 0b3c
00000010: 955b debf 9614 01be 15ba 23be 97e3 5abd
00000020: 172a 7a3c 7bb7 c5bd 0a7a 5e3d e214 9fbe
00000030: 2aef 85bd 5a1b 1abd c8ee f2bd 8af7 76bd
00000040: 4c4f af3e a0bd 85bd a58b 04be 8b5a 053f
00000050: 7aee ec3d 401a 4bbd ccd9 19be 2df9 18be
00000060: 7197 1dbd 831a ce3d d28f cdbd 55a1 16bf
00000070: 6a6b 80be 4827 b2bd 47da 84bc bc7f bbbc
00000080: 5ff6 ed3d 61ea 47bc e65d e4bb d8ef e6bd
00000090: d2f1 1abf b677 80bd 7e30 dd3d dce2 a0be
000000a0: 854c 89bd f8d2 66bd 270f 8fbc 28cf 1cbe
000000b0: a9e2 e03d 23dd 27be 1f9c 803d 9d65 9fbc
000000c0: 4cc5 9d3b 4605 44be d0c6 243e bd2a 06bf
000000d0: 3286 eebc 72f1 af3d 2325 2b3c 3930 c23d
000000e0: 8a81 8cbd b7e3 283c 799d e3bf c7f2 a3bd
000000f0: e2a5 8a3d 0a69 11bd 362f 8bbe 682b 603d
00000100: 7995 9dbe da69 ad3d afca 8ebd 31a7 43bc
00000110: a5b6 013c c62f 7d3e 3578 a4bf 10a3 a7be
00000120: 7947 883d a330 2d3c 510d a53d 584a 15be
00000130: 3fe2 57bd af61 fe3d 4121 153e af7f d83c
00000140: 055a d1bb 8a19 bcbe 8f12 903d 10b8 fcbd
00000150: 1a94 1dbe 4b5c d2bd 54e5 39be a0fe 1fbe
00000160: caf5 a1bd d21f 1a3d 306b 14be 971f 30be
00000170: e50a b43c d8b7 16bd da47 633e b748 b83c
00000180: 8c42 d03e 5b89 64be a3e9 3d3e 62f7 c3bd
00000190: 5125 e6bd e4a8 22be 68f1 90bf f090 fdbd
000001a0: e89d 50be 508d dfbd 4dcc fabd 94e8 41be
000001b0: 24dd debc f8e9 c1bd b2a5 99be e131 61be
000001c0: 3daa 833e e18c eb3c a049 27be 80f6 02bd
000001d0: 3a43 87bd 45cc a6be 255a 54bd 33ef 043e
000001e0: 1ec4 7b3e 48a0 ca3d 2ca2 acba 3efa 833e
000001f0: 3465 1bbe add4 93bd 9354 e03d 0c14 7d3d
00000200: 07d7 ecbe 71a1 713d 3da8 4b3f 4fde d8bd
00000210: 8083 d23f eebb 973c 6c54 bdbd b10a ae3d
00000220: 3f61 9a3d dbad e83d e744 a4bd ad79 b13d
00000230: db4d 993d f3b2 023c 9a52 f4bd e830 0fbe
00000240: 5698 c5be e1fc 953c aef5 ac3d 3349 e0be
00000250: 9651 593d fa30 ec3d 8170 ca3d 237e bbbd
00000260: cc03 26be e9d2 3bbd 7609 333e d2c9 0c3f
00000270: 1aef 853e 0924 453d 547f b9bd 57b4 5ebc
00000280: f197 37be 9102 67bd cad2 733d 47c6 d43d
00000290: db77 9a3e 30c9 bfbc 690a ae3c f468 8c3d
000002a0: b8e0 b6bb 6c57 0b3e 588e 1ebd 4ba6 61bd
000002b0: a24a 8dbc 5b26 553d 2860 6b3d d85f 0c3e
000002c0: 8bae e9bd e253 923c 3791 dbbc 3f28 0a3e
000002d0: 8025 4abe 4adc 20be 37e1 c43c 7e4b ed3b
000002e0: 7bc7 583d d79b 34be ac3d d83f 2cea 8cbe
000002f0: 3cf0 39bd ad40 46bd 66e5 863e 1fca a4bd
00000300: b61b 4c3e f01b 1b3c aa3d 97be f48e b13d
00000310: a73f e9bd 6d35 9b3c 7ca2 8b3f 4838 a4bd
00000320: f299 c73d 9650 91bd fcac adbd 7dda 54bd
00000330: 3f8d a6bb fdab 31bd 18f2 683d aa27 b23d
00000340: 3e54 9a3d e44e bf3e 70e4 1b3c 7b18 a63d
00000350: d744 9cbd f99d 8f3d f8a4 203c 9b2c 373e
00000360: 91eb c83d d9d7 06be b2b4 2c3e 5374 2e3d
00000370: 40a5 c23d 4657 57be 9e12 0a3d 4e42 803d
00000380: b8db 6fbe 9759 d03d 4fc2 143d c2f4 003d
00000390: 1efe 693d d49d 2b3e 1492 8b3f fb9f f03d
000003a0: ac20 413e 314b 9abc 4706 c0bd 73a6 e03d
000003b0: 8e1c 99bc 8285 fcbd 7200 d1bc 8d6e 73bd
000003c0: 3b5b 5abd ef29 e83d a521 a93e 82a4 9cbd
000003d0: 51d2 a23d ed1b 403e 0846 403e f051 11bd
000003e0: 3016 f03b 9d4d 353e 1dc1 c73d 1e79 45bd
000003f0: 6968 5ebe 60cf 833c c429 13be 7894 7c3d

action_model._discrete_distribution.branches.3.bias f4 [3]
-0.16269813 0.023488466 0.038059685
00000000: 579a 26be e26a c03c 79e4 1b3d

action_model._discrete_distribution.branches.4.weight f4 [3, 128]
0.28669038 0.20239821 -1.1635222 -0.090816125 -1.8961037 -0.09377455 0.014189011 0.1948784
0.21596056 -0.17016141 0.04231378 -0.27299565 0.08335003 -0.01880437 -0.0713976 -0.101270676
0.2517283 -0.29476783 0.009974338 0.58912975 -0.096287504 -0.09753879 -0.36221436 -0.079938285
-0.04359723 0.0145503385 -0.27185956 -0.9269565 -0.2855054 -0.29843825 0.00880976 -0.31383198
-0.25499353 -0.2028205 -0.05637468 -0.23595525 -0.49590668 0.25348035 -0.073856995 -0.2291776
0.08436726 -0.38045788 0.07155226 -0.004794408 0.012591716 -0.113429554 0.008657439 -0.1999017
-0.18244731 -0.14811379 0.030627653 -0.48786157 -0.2757516 -0.10617331 -0.0251777 -0.010157905
0.06244668 -0.15624504 -2.1211288 0.046965383 -0.18888582 0.085015774 -0.2343709 -0.045579623
-0.3659833 0.10537753 -0.022712728 0.16890591 0.08480007 -0.14919512 -1.4227909 -0.29781675
0.006517466 -0.053541265 -0.045753498 -0.09633418 -0.045448415 -0.055990696 0.052766602 -0.054491606
0.12280439 -0.77846384 -0.19945928 0.062775604 0.06971447 -0.32659486 0.13327695 -0.48806602
-0.13361786 -0.263871 -0.41331464 0.24114753 0.03683029 0.08759255 0.0701167 0.20988044
0.176739 -0.14912738 -0.04002119 -0.25723195 -0.013441267 -0.04654073 -1.5642613 0.09226656
-0.6113307 -0.05224752 -0.31930113 0.07154253 -0.16308537 0.014443651 -0.2243125 0.055026818
0.123674266 -0.07407322 0.17251335 0.057053242 0.19904543 -0.23594873 -0.36458024 0.025218477
-0.09388397 0.01520742 -0.16458829 -0.3637419 -0.15289904 0.0740722 -0.2936878 -0.1286828
-0.2500174 -0.060407743 0.5879501 0.036676954 1.4746616 -0.05049737 0.09679267 0.035943273
-0.11710612 -0.3304506 0.021302313 0.19945191 -0.027601087 0.15677115 -0.087094076 0.10573304
-0.42160302 -0.07119449 0.14238246 -0.45350012 -0.053717844 -0.4170056 0.70864606 0.13859479
-0.021937937 0.084176436 0.22244893 0.786088 0.015499965 -0.05008313 0.019922694 -0.32291648
0.22832389 0.027600363 -0.057499986 -0.21324539 0.011252605 0.17332856 0.097470276 0.13524869
-0.06739372 -0.13216513 -0.064461134 -0.28355113 -0.0034110937 -0.100103594 0.00040305304 0.16929568
-0.14189114 -0.09743749 -0.057971317 0.24786226 -0.3693453 -0.060132626 -0.11495573 -0.22117667
0.17739874 0.04457914 1.5802258 0.071845785 -0.59280825 -0.01854088 -0.29730445 -0.0010659534
0.11695483 -0.15247819 0.027859222 -0.056591928 0.09847485 0.19441256 0.80752313 0.16140482
0.09109108 -0.011293441 0.062970966 -0.040068675 0.057253882 -0.0017073224 0.10865882 -0.112101555
-0.038333207 0.12046664 0.06644392 0.05772257 -0.05931169 -0.11197485 -0.031164847 -0.15094721
-0.1216091 -0.18589418 -0.16009146 0.084093094 0.17120999 0.060426585 -0.010737065 -0.06482527
-0.4835012 0.21130475 0.04616598 -0.17038754 -0.028838882 0.07915391 0.89508444 0.06772888
-0.09233943 0.075138755 -0.159203 0.021066662 0.09068325 0.05959785 0.100043796 -0.055240296
0.029676327 0.037021708 0.04005121 -0.03662123 -0.072453685 -0.07345891 -0.30042833 -0.069971845
0.09191897 0.12370521 0.090324946 -0.15850879 0.18082811 0.06281644 0.23915529 0.03873436
00000000: 15c9 923e 7a41 4f3e 4cee 94bf cefd b9bd
00000010: 87b3 f2bf df0c c0bd 0779 683c 348e 473e
00000020: c424 5d3e cb3e 2ebe 3751 2d3d 16c6 8bbe
00000030: 6cb3 aa3d 9f0b 9abc e838 92bd 0067 cfbd
00000040: 88e2 803e cfeb 96be 686b 233c 35d1 163f
00000050: 6232 c5bd 6bc2 c7bd 2974 b9be afb6 a3bd
00000060: 0293 32bd 8b64 6e3c 2d31 8bbe 054d 6dbf
00000070: c42d 92be e6cc 98be d056 103c 96ae a0be
00000080: 838e 82be 2db0 4fbe 23e9 66bd 419e 71be
00000090: 7be7 fdbe 2dc8 813e 5642 97bd 88ad 6abe
000000a0: bec8 ac3d 60cb c2be fe89 923d 691a 9dbb
000000b0: 7c4d 4e3c c14d e8bd eed7 0d3c 08b3 4cbe
000000c0: 78d3 3abe 24ab 17be d8e6 fa3c fec8 f9be
000000d0: 502f 8dbe 6471 d9bd 7741 cebc 576d 26bc
000000e0: 17c8 7f3d b3fe 1fbe 93c0 07c0 c65e 403d
000000f0: 496b 41be c01c ae3d edfe 6fbe b3b1 3abd
00000100: 2a62 bbbe 2dd0 d73d 0b10 babc acf5 2c3e
00000110: a9ab ad3d 9bc6 18be 031e b6bf 707b 98be
00000120: 7890 d53b 164e 5bbd 0568 3bbd db4a c5bd
00000130: 1e28 3abd 8056 65bd cb21 583d 9732 5fbd
00000140: de80 fb3d 6849 47bf 0e3f 4cbe 7f90 803d
00000150: 76c6 8e3d 7137 a7be c179 083e cae3 f9be
00000160: 1fd3 08be 1a1a 87be fa9d d3be 61ef 763e
00000170: 5cdb 163d b963 b33d 5899 8f3d e6ea 563e
00000180: 12fb 343e d9b4 18be 42ed 23bd e8b3 83be
00000190: c338 5cbc 7ea1 3ebd b739 c8bf 40f6 bc3d
000001a0: 2b80 1cbf 7f01 56bd 707b a3be e484 923d
000001b0: daff 26be 10a5 6c3c 2db2 65be cd63 613d
000001c0: ef48 fd3d b3b3 97bd 57a7 303e a9b0 693d
000001d0: 91d2 4b3e 8b9c 71be 43aa babe fb96 ce3c
000001e0: 3d46 c0bd 8b28 793c d589 28be 613c babe
000001f0: 9191 1cbe 2ab3 973d 3f5e 96be 6dc5 03be
00000200: 4802 80be 1c6e 77bd e683 163f 933a 163d
00000210: b6c1 bc3f 55d6 4ebd 3c3b c63d 4139 133d
00000220: 55d5 efbd d230 a9be 3082 ae3c 1f3d 4c3e
00000230: ad1b e2bc 9e88 203e 615e b2bd 908a d83d
00000240: 5adc d7be 6bce 91bd b5cc 113e 2b31 e8be
00000250: 3e07 5cbd c281 d5be d469 353f cbeb 0d3e
00000260: 30b7 b3bc b264 ac3d a7c9 633e 103d 493f
00000270: 91f3 7d3c f823 4dbd eb34 a33c 4f55 a5be
00000280: bdcd 693e 281a e23c 1b85 6bbd 005d 5abe
00000290: d95c 383c 0b7d 313e 7f9e c73d a27e 0a3e
000002a0: b805 8abd 4c56 07be 3304 84bd 9d2d 91be
000002b0: a88c 5fbb 1d03 cdbd dd50 d339 d95b 2d3e
000002c0: e94b 11be 4f8d c7bd 5573 6dbd 9bcf 7d3e
000002d0: d41a bdbe a14d 76bd e96d ebbd 237c 62be
000002e0: 04a8 353e 9e98 363d d744 ca3f e223 933d
000002f0: 48c2 17bf 0be3 97bc 4a38 98be 76b7 8bba
00000300: 0486 ef3d 3e23 1cbe 0639 e43c f0cc 67bd
00000310: 2fad c93d 1614 473e d6b9 4e3f 4e47 253e
00000320: f68d ba3d 2008 39bc ecf6 803d 0d1f 24bd
00000330: 0c83 6a3d 3cc8 dfba 8488 de3d 8095 e5bd
00000340: 4803 1dbd 37b7 f63d c013 883d 806e 6c3d
00000350: d1f0 72bd 1253 e5bd 6c4d ffbc e891 1abe
00000360: 310e f9bd 0b5b 3ebe 04ef 23be 0039 ac3d
00000370: ac51 2f3e de81 773d 84ea 2fbc 1cc3 84bd
00000380: 788d f7be 4660 583e 8a18 3d3d 127a 2ebe
00000390: 853f ecbc 721b a23d 4124 653f 70b5 8a3d
000003a0: 741c bdbd 59e2 993d 1c06 23be fe93 ac3c
000003b0: 24b8 b93d e01c 743d c3e3 cc3d a643 62bd
000003c0: c51b f33c 13a4 173d bd0c 243d 2500 16bd
000003d0: 9962 94bd a071 96bd bed1 99be 664d 8fbd
000003e0: 0340 bc3d 2859 fd3d 49fc b83d 2150 22be
000003f0: 012b 393e e8a5 803d 20e5 743e eca7 1e3d

action_model._discrete_distribution.branches.4.bias f4 [3]
0.010054494 0.0527491 -0.006979304
00000000: 9bbb 243c 710f 583d a5b2 e4bb
