ArmRobot/Assets/Config/results/normalizadoB/AgenteRobot/AgenteRobot-160318.pt (torch, 281831 bytes, 29 tensors)

network_body.vector_processors.0.normalizer.running_mean f4 [115]
0.0 0.0 0.0 0.0 0.0 0.0 0.9999656 -3.8278444e-07
0.08605118 -1.6991928e-07 4.5743175e-08 -0.680466 -4.0481e-09 0.55499375 0.03856561 0.15189321
0.008481453 0.08998108 -0.6288371 -0.081232384 0.51333797 0.03526372 0.326348 0.056636486
0.3166802 -0.50989676 -0.2687642 0.41274953 -0.003134085 0.36480904 0.122732885 0.005071801
-0.582937 -0.37247175 -0.08984382 -0.009903095 0.35591945 0.1449589 0.056896295 -0.5193975
-0.33341548 -0.11492061 -0.017598985 0.34451735 0.15956883 0.028255617 -0.46866187 -0.31636304
-0.14408547 -0.02777892 0.33302137 0.17907435 0.06817992 -0.08441926 -0.5181982 -0.08029481
-0.04073016 0.29280648 0.18549821 0.06817991 -0.08441925 -0.51819825 -0.08029477 -0.037558436
0.2918471 0.18330477 0.06817991 -0.08441925 -0.51819825 -0.08029477 -0.13181561 0.5993575
-0.352295 0.66608167 -0.04881621 0.6535207 -0.08218372 0.6219507 -0.13213085 0.5903046
-0.10845996 0.5979682 -0.10493561 0.58014446 0.2255478 -0.256396 0.0 0.37720156
0.06262105 0.7289103 0.12991036 0.20711938 0.50156784 0.64626634 0.41627657 0.52639
0.62172866 0.31894007 0.4846532 0.0 0.0 0.0 0.0 0.0
0.0 0.0 0.0 0.0 0.5845582 0.6772054 0.55491024 0.5557621
0.58330023 0.5737704 0.5751024
00000000: 0000 0000 0000 0000 0000 0000 0000 0000
00000010: 0000 0000 0000 0000 bffd 7f3f 7e81 cdb4
00000020: 9a3b b03d 0e73 36b4 2777 4433 0533 2ebf
00000030: 7717 8bb1 1214 0e3f f9f6 1d3d e589 1b3e
00000040: cbf5 0a3c 0048 b83d 78fb 20bf 2a5d a6bd
00000050: 1e6a 033f b170 103d 1617 a73e a9fb 673d
00000060: e823 a23e 9888 02bf 769b 89be e853 d33e
00000070: 3965 4dbb 40c8 ba3e 615b fb3d 5a31 a63b
00000080: 5c3b 15bf 9eb4 bebe 0900 b8bd 9740 22bc
00000090: 133b b63e 1b70 143e 170c 693d 3cf7 04bf
000000a0: 6fb5 aabe 7f5b ebbd bf2b 90bc 9464 b03e
000000b0: 0366 233e 5378 e73c 73f4 efbe 56fa a1be
000000c0: 248b 13be 9e90 e3bc c781 aa3e 445f 373e
000000d0: eaa1 8b3d 01e4 acbd a3a8 04bf 9b71 a4bd
000000e0: abd4 26bd bbea 953e 3ef3 3d3e e9a1 8b3d
000000f0: 00e4 acbd a4a8 04bf 9671 a4bd e0d6 19bd
00000100: fc6c 953e 3fb4 3b3e e9a1 8b3d 00e4 acbd
00000110: a4a8 04bf 9671 a4bd acfa 06be 7e6f 193f
00000120: 0360 b4be 5484 2a3f 82f3 47bd 224d 273f
00000130: f04f a8bd 2938 1f3f 4f4d 07be 341e 173f
00000140: 4120 debd 7214 193f 7be8 d6bd 5984 143f
00000150: 01f6 663e 5646 83be 0000 0000 9020 c13e
00000160: 773f 803d de99 3a3f 3907 053e 1a17 543e
00000170: c066 003f b671 253f 3422 d53e 7fc1 063f
00000180: 9c29 1f3f 1d4c a33e 7724 f83e 0000 0000
00000190: 0000 0000 0000 0000 0000 0000 0000 0000
000001a0: 0000 0000 0000 0000 0000 0000 0000 0000
000001b0: 9ba5 153f 555d 2d3f 990e 0e3f 6d46 0e3f
000001c0: 2a53 153f 9ee2 123f e939 133f

network_body.vector_processors.0.normalizer.running_variance f4 [115]
1.0 1.0 1.0 1.0 1.0 1.0 1.9999483 1.0
1.007401 1.0 1.0 16493.467 1.0 20213.066 174.8308 1.0230652
240.9555 11315.556 14717.683 8766.486 17523.684 1577.9517 873.8339 2139.3137
18995.129 13972.24 15717.626 14984.479 3596.7173 2184.0151 4636.955 17838.734
14499.277 22286.326 27678.46 4543.667 3185.8784 5661.749 25949.105 17103.504
25871.094 27690.248 5259.236 3939.6226 6443.928 27010.52 21628.404 26977.016
29990.992 6332.8345 5122.96 14501.729 33403.562 22945.51 31427.61 26573.701
7902.4414 6924.4756 15717.707 33403.562 22945.51 31427.61 26573.697 7756.1475
6860.6997 15514.897 33403.562 22945.51 31427.61 26573.697 57956.742 41985.98
37335.348 31958.953 60254.984 31212.334 58439.594 38782.555 59107.22 42549.062
59938.72 41170.953 60094.87 44501.44 68971.88 68850.266 1.0 15863.692
8980.267 12229.52 9.797255 2.9918559 1.5705459 5278.604 8004.0596 9305.463
1330.6993 1584.6794 222.13516 1.0 1.0 1.0 1.0 1.0
1.0 1.0 1.0 1.0 23231.88 20774.426 24799.611 24427.414
23057.795 23418.084 23080.504
00000000: 0000 803f 0000 803f 0000 803f 0000 803f
00000010: 0000 803f 0000 803f 4efe ff3f 0000 803f
00000020: 84f2 803f 0000 803f 0000 803f efda 8046
00000030: 0000 803f 22ea 9d46 afd4 2e43 cdf3 823f
00000040: 9cf4 7043 39ce 3046 bbf6 6546 f2f9 0846
00000050: 5ee7 8846 743e c544 5f75 5a44 05b5 0545
00000060: 4266 9446 f650 5a46 8196 7546 ea21 6a46
00000070: 7acb 6045 3e80 0845 a4e7 9045 785d 8b46
00000080: 1c8d 6246 a71c ae46 ec3c d846 56fd 8d45
00000090: 0e1e 4745 feed b045 36ba ca46 029f 8546
000000a0: 301e ca46 7f54 d846 e359 a445 f639 7645
000000b0: 6d5f c945 0a05 d346 cff8 a846 08c2 d246
000000c0: fc4d ea46 ade6 c545 ae17 a045 ea96 6246
000000d0: 907b 0247 0543 b346 3887 f546 679b cf46
000000e0: 88f3 f645 ce63 d845 d496 7546 907b 0247
000000f0: 0543 b346 3887 f546 659b cf46 2e61 f245
00000100: 9965 d645 976b 7246 907b 0247 0543 b346
00000110: 3887 f546 659b cf46 be64 6247 fb01 2447
00000120: 59d7 1147 e8ad f946 fc5e 6b47 abd8 f346
00000130: 9847 6447 8e7e 1747 38e3 6647 1035 2647
00000140: b822 6a47 f4d2 2047 dfbe 6a47 71d5 2d47
00000150: f1b5 8647 2279 8647 0000 803f c5de 7746
00000160: 1151 0c46 1416 3f46 8ec1 1c41 917a 3f40
00000170: a607 c93f d5f4 a445 7a20 fa45 da65 1146
00000180: 6156 a644 be15 c644 9a22 5e43 0000 803f
00000190: 0000 803f 0000 803f 0000 803f 0000 803f
000001a0: 0000 803f 0000 803f 0000 803f 0000 803f
000001b0: c37f b546 da4c a246 39bf c146 d4d6 be46
000001c0: 9723 b446 2bf4 b646 0251 b446

network_body.linear_encoder.seq_layers.0.weight f4 [128, 115]
-0.055612322 -0.08514372 -0.11719652 0.0965434 0.07550843 -0.134657 -0.12707612 0.0666277
-0.14707895 -0.07317583 -0.13627343 -0.058702994 -0.036127806 -0.022899015 0.08695667 -0.096887365
-0.012982496 -0.090119004 -0.023982273 -0.002038927 -0.12423656 -0.023205131 -0.12552476 -0.040522464
-0.12963986 0.01860563 0.11535772 0.034893498 -0.14386204 0.12524185 -0.0821651 0.02491569
0.11995161 -0.04067359 0.08532835 0.07617778 -0.13139601 0.03291157 0.031294927 -0.107272044
0.008102078 -0.14051235 -0.0098001305 0.043521713 -0.09072167 0.021652572 0.057045534 -0.12599242
0.07748317 -0.0461309 -0.10577927 0.18421625 0.09316441 0.111857586 -0.009676076 0.17832841
-0.0412213 0.043479104 -0.073749214 -0.14183688 -0.038976204 -0.034558486 0.058255255 0.07912336
0.11976495 -0.019252717 -0.04824883 0.1443208 -0.15089074 0.10164919 0.07533284 0.012560128
-0.0045239045 0.13590823 0.10106994 -0.048099045 0.040971328 0.20865567 0.027605707 -0.11836051
0.119743206 0.100412756 -0.018636415 -0.22699907 0.072842345 -0.12362606 -0.12258714 -0.03153546
-0.07204075 0.2039668 -0.1368211 -0.122704476 0.04388779 -0.08551974 0.017526483 0.005455325
-0.026527505 0.10401596 -0.116350405 -0.086756416 -0.06971795 -0.02621733 0.04368573 0.021667551
0.08903591 0.06567439 0.015675373 0.090839855 -0.123199195 -0.04598225 -0.14945984 -0.13997911
-0.07132229 0.0071452307 -0.11214315 -0.11059925 0.0026458758 -0.031442385 0.20778605 -0.023749618
0.032971054 0.050718065 0.096260354 0.13221005 -0.02479126 0.080653235 0.10226523 0.040459983
0.08276068 -0.10943264 0.16305035 0.012795685 0.0052941325 -0.056416754 -0.050732728 -0.042129412
-0.1256976 0.12610263 0.008368998 0.04080542 -0.085139334 -0.018525245 -0.0032610802 0.09060851
-0.084204204 -0.028180284 -0.03915398 0.091261975 0.124798656 -0.1975994 0.0025754117 0.0037622072
0.12106447 0.025660586 -0.055323828 -0.031665888 -0.08066286 0.061172493 -0.028644746 0.027473375
-0.06538291 0.07218182 -0.07815922 0.09373569 0.11015063 0.18549171 -0.032157168 -0.1979259
0.18822186 0.025071891 0.01874643 -0.11789747 0.021148913 0.033658482 0.054351058 0.11689068
0.009247999 -0.014750226 0.058385205 0.075261384 -0.08352549 -0.004861425 0.010287973 -0.06328113
0.13178362 -0.16663048 -0.065531805 0.10139509 -0.060526527 0.1290321 -0.06860038 -0.10960266
0.15348098 -0.07605965 -0.061757993 0.13190983 0.061987363 -0.1501161 0.06224412 -0.003134713
0.26807183 -0.054766953 -0.023734113 0.12726879 0.009503949 -0.14182694 0.006208239 0.058778964
0.052510835 -0.028075512 0.06224579 0.019398008 -0.045934327 -0.062283464 -0.08828107 -0.0438434
-0.14533113 -0.0662177 0.20816265 0.06194463 0.10766006 0.11655933 0.18908507 -0.07305995
-0.025221793 0.0913219 0.08080733 -0.08905376 0.07860458 0.10679637 0.17062744 0.05178195
0.016793424 -0.18261208 0.09266828 0.02987061 -0.056414288 -0.13944732 -0.07301362 -0.1693652
-0.004575023 0.14503363 -0.011864958 0.039075952 0.024996225 0.0104962075 0.16331635 -0.12953086
0.005859131 0.043764774 -0.036232732 -0.0015877686 0.11856327 -0.016873576 -0.121593654 0.15140368
00000000: bfc9 63bd d55f aebd bb04 f0bd 8cb8 c53d
00000010: 2aa4 9a3d 86e3 09be 3e20 02be 1b74 883d
00000020: dd9b 16be 36dd 95bd 438b 0bbe 8d72 70bd
00000030: c0fa 13bd b796 bbbc 5716 b23d e26c c6bd
00000040: 89b4 54bc 5090 b8bd 7976 c4bc 859f 05bb
00000050: bd6f febd b018 bebc 9089 00be e2fa 25bd
00000060: 50c0 04be d66a 983c ab40 ec3d 7cec 0e3d
00000070: 9250 13be 663f 003e 2d46 a8bd fd1b cc3c
00000080: 31a9 f53d 5a99 26bd a1c0 ae3d 1903 9c3d
00000090: ad8c 06be 48ce 063d 1c2f 003d 72b1 dbbd
000000a0: 94be 043c 78e2 0fbe ba90 20bc d343 323d
000000b0: 48cc b9bd bc60 b13c 94a8 693d 2804 01be
000000c0: 7faf 9e3d c1f3 3cbd cda2 d8bd 2fa3 3c3e
000000d0: fbcc be3d 9715 e53d 6788 1ebc b99b 363e
000000e0: aad7 28bd 2517 323d d409 97bd b03d 11be
000000f0: 83a5 1fbd 338d 0dbd 109d 6e3d 6e0b a23d
00000100: 5347 f53d e0b7 9dbc 91a0 45bd d5c8 133e
00000110: 1a83 1abe 732d d03d 1b48 9a3d ffc8 4d3c
00000120: 433d 94bb 872b 0b3e c2fd ce3d 8103 45bd
00000130: 8dd1 273d d5a9 553e 5d25 e23c ff66 f2bd
00000140: ed3b f53d 34a5 cd3d 65ab 98bc 7272 68be
00000150: 5e2e 953d a92f fdbd f70e fbbd 542b 01bd
00000160: 1a8a 93bd acdc 503e d51a 0cbe 7c4c fbbd
00000170: afc3 333d f924 afbd b393 8f3c 95c2 b23b
00000180: 3650 d9bc 5206 d53d 1f49 eebd 59ad b1bd
00000190: 49c8 8ebd bac5 d6bc cfef 323d 2680 b13c
000001a0: 7658 b63d 4b80 863d a469 803c 3f0a ba3d
000001b0: dc4f fcbd e257 3cbd 000c 19be af56 0fbe
000001c0: 6c11 92bd 8a22 ea3b 4fab e5bd dc81 e2bd
000001d0: 6e66 2d3b bbc9 00bd dec5 543e 8f8e c2bc
000001e0: a80c 073d bfbd 4f3d 2624 c53d 1262 073e
000001f0: 0a17 cbbc 862d a53d 6f70 d13d 5eb9 253d
00000200: 6e7e a93d 381e e0bd acf6 263e fea4 513c
00000210: 677a ad3b 4115 67bd 1fcd 4fbd e48f 2cbd
00000220: dfb6 00be 0c21 013e 1f1e 093c 9623 273d
00000230: 885d aebd 41c2 97bc d9b7 55bb f490 b93d
00000240: 4173 acbd 57da e6bc ec5f 20bd 8fe7 ba3d
00000250: 7096 ff3d 7f57 4abe 3dc8 283b 5d8f 763b
00000260: a6f0 f73d 2636 d23c 3d9b 62bd 17b4 01bd
00000270: 9232 a5bd 0290 7a3d 63a8 eabc d80f e13c
00000280: 7ae7 85bd 10d4 933d f111 a0bd 7ff8 bf3d
00000290: a796 e13d 8af1 3d3e 3cb7 03bd 16ad 4abe
000002a0: 3bbd 403e 9163 cd3c 1d92 993c 3b74 f1bd
000002b0: 7c40 ad3c 7add 093d 379f 5e3d 6164 ef3d
000002c0: eb84 173c efaa 71bc 5325 6f3d a422 9a3d
000002d0: 690f abbd 974c 9fbb e38e 283c 8999 81bd
000002e0: 49f2 063e 2ea1 2abe 8a35 86bd 3ba8 cf3d
000002f0: aaea 77bd fe20 043e 5b7e 8cbd 5c77 e0bd
00000300: 1e2a 1d3e 29c5 9bbd f3f5 7cbd 5f13 073e
00000310: 76e6 7d3d 09b8 19be b1f3 7e3d c26f 4dbb
00000320: b640 893e 5053 60bd 0b6e c2bc c052 023e
00000330: 74b6 1b3c 153b 11be 7c6e cb3b 36c2 703d
00000340: 9a15 573d 9efe e5bc 71f5 7e3d 92e8 9e3c
00000350: a225 3cbd f21c 7fbd b5cc b4bd 2395 33bd
00000360: afd1 14be 259d 87bd 9728 553e a7b9 7d3d
00000370: e17c dc3d a8b6 ee3d 849f 413e 74a0 95bd
00000380: ef9d cebc fa06 bb3d 507e a53d d161 b6bd
00000390: 70fb a03d 0eb8 da3d f6b8 2e3e 4f19 543d
000003a0: 5d92 893c a9fe 3abe dec8 bd3d 36b3 f43c
000003b0: ab12 67bd 47cb 0ebe 2a88 95bd 126e 2dbe
000003c0: 13ea 95bb b283 143e 3e65 42bc 1b0e 203d
000003d0: e2c4 cc3c 49f8 2b3c 673c 273e bda3 04be
000003e0: f4fd bf3b b142 333d c668 14bd ac1c d0ba
000003f0: 4dd1 f23d 743a 8abc 1806 f9bd 9109 1b3e

network_body.linear_encoder.seq_layers.0.bias f4 [128]
0.0 0.0 0.0 0.0 0.0 0.0 0.0 0.0
0.0 0.0 0.0 0.0 0.0 0.0 0.0 0.0
0.0 0.0 0.0 0.0 0.0 0.0 0.0 0.0
0.0 0.0 0.0 0.0 0.0 0.0 0.0 0.0
0.0 0.0 0.0 0.0 0.0 0.0 0.0 0.0
0.0 0.0 0.0 0.0 0.0 0.0 0.0 0.0
0.0 0.0 0.0 0.0 0.0 0.0 0.0 0.0
0.0 0.0 0.0 0.0 0.0 0.0 0.0 0.0
0.0 0.0 0.0 0.0 0.0 0.0 0.0 0.0
0.0 0.0 0.0 0.0 0.0 0.0 0.0 0.0
0.0 0.0 0.0 0.0 0.0 0.0 0.0 0.0
0.0 0.0 0.0 0.0 0.0 0.0 0.0 0.0
0.0 0.0 0.0 0.0 0.0 0.0 0.0 0.0
0.0 0.0 0.0 0.0 0.0 0.0 0.0 0.0
0.0 0.0 0.0 0.0 0.0 0.0 0.0 0.0
0.0 0.0 0.0 0.0 0.0 0.0 0.0 0.0
00000000: 0000 0000 0000 0000 0000 0000 0000 0000
00000010: 0000 0000 0000 0000 0000 0000 0000 0000
00000020: 0000 0000 0000 0000 0000 0000 0000 0000
00000030: 0000 0000 0000 0000 0000 0000 0000 0000
00000040: 0000 0000 0000 0000 0000 0000 0000 0000
00000050: 0000 0000 0000 0000 0000 0000 0000 0000
00000060: 0000 0000 0000 0000 0000 0000 0000 0000
00000070: 0000 0000 0000 0000 0000 0000 0000 0000
00000080: 0000 0000 0000 0000 0000 0000 0000 0000
00000090: 0000 0000 0000 0000 0000 0000 0000 0000
000000a0: 0000 0000 0000 0000 0000 0000 0000 0000
000000b0: 0000 0000 0000 0000 0000 0000 0000 0000
000000c0: 0000 0000 0000 0000 0000 0000 0000 0000
000000d0: 0000 0000 0000 0000 0000 0000 0000 0000
000000e0: 0000 0000 0000 0000 0000 0000 0000 0000
000000f0: 0000 0000 0000 0000 0000 0000 0000 0000
00000100: 0000 0000 0000 0000 0000 0000 0000 0000
00000110: 0000 0000 0000 0000 0000 0000 0000 0000
00000120: 0000 0000 0000 0000 0000 0000 0000 0000
00000130: 0000 0000 0000 0000 0000 0000 0000 0000
00000140: 0000 0000 0000 0000 0000 0000 0000 0000
00000150: 0000 0000 0000 0000 0000 0000 0000 0000
00000160: 0000 0000 0000 0000 0000 0000 0000 0000
00000170: 0000 0000 0000 0000 0000 0000 0000 0000
00000180: 0000 0000 0000 0000 0000 0000 0000 0000
00000190: 0000 0000 0000 0000 0000 0000 0000 0000
000001a0: 0000 0000 0000 0000 0000 0000 0000 0000
000001b0: 0000 0000 0000 0000 0000 0000 0000 0000
000001c0: 0000 0000 0000 0000 0000 0000 0000 0000
000001d0: 0000 0000 0000 0000 0000 0000 0000 0000
000001e0: 0000 0000 0000 0000 0000 0000 0000 0000
000001f0: 0000 0000 0000 0000 0000 0000 0000 0000

network_body.linear_encoder.seq_layers.2.weight f4 [128, 128]
0.06427252 0.045958098 -0.0035124465 0.04357009 0.03104889 0.045033015 0.0003023378 0.07856324
0.082770705 0.12246439 0.061520252 -0.12020831 -0.09275229 0.023461986 0.021737266 -0.067954466
-0.035394017 0.0067212093 -0.07723489 0.032182213 0.07937431 0.07426323 -0.015287724 0.04777738
-0.004026171 0.11109633 0.03183401 0.04528093 -0.08140679 -0.1529376 0.049647357 -0.047218733
0.03623242 0.19587933 0.0058039622 -0.09578154 -0.03029801 -0.004621071 -0.04438739 -0.12391686
-0.12688212 0.040567357 -0.06451783 0.061506633 0.00092178246 0.11592581 0.044432804 0.023036502
-0.21328522 -0.033156384 0.07183465 0.041814953 0.027180051 -0.02701226 -0.017275402 0.046929333
0.098859295 -0.040902916 -0.07335045 0.076320104 -0.027717538 -0.061031487 0.13871628 0.021814095
0.11763289 -0.028457858 -0.024442999 0.120004095 0.026450964 0.11115216 0.042898383 0.117104076
-0.09630775 -0.15195464 -0.02719097 0.08397958 -0.075909965 0.1509408 -0.047915883 -0.14350325
-0.010624612 0.07252736 0.011622857 -0.14881925 0.1349674 0.042843614 -0.016065162 -0.026245814
0.056016326 0.04040111 -0.08012331 0.096275486 0.0002551596 -0.0918829 -0.046087917 0.066495255
0.050789487 0.107357934 0.068057336 0.04169498 -0.057986014 0.082061514 -0.010545375 -0.047145132
-0.06825495 -0.11770189 -0.094275124 0.029182363 0.08123065 -0.19473624 -0.11565254 0.17271692
-0.11279578 0.13679473 0.18577269 -0.06149663 0.110086896 0.002023016 -0.009230962 0.0072951885
-0.025353637 0.025232863 0.03409144 0.080997445 0.015620565 0.017544782 0.13643976 -0.031481076
0.03476729 0.16505235 0.0008356266 -0.037774656 0.11633687 -0.11573085 0.036503144 -0.07670625
0.022790993 -0.014685853 0.046100385 0.01140983 -0.066393204 -0.1939175 -0.1858913 0.025382165
-0.016922431 0.025902139 -0.055364043 0.010147408 0.15781054 -0.05288928 -0.10281124 -0.030562269
-0.013427891 0.040004447 0.0034794614 0.016293008 0.021385679 0.09954527 -0.06901676 0.045812313
-0.09335095 0.1088315 0.022087658 -0.0732647 0.14491558 -0.013865175 0.00789202 -0.0663046
0.0796055 -0.006767378 -0.06750759 0.0712878 0.0185746 0.058160737 -0.029333895 0.090231724
-0.023581004 -0.006006906 0.2554399 -0.10361505 0.11216786 0.047016572 -0.015111525 0.16048954
-0.07285834 0.08054944 -0.010513159 0.06622513 0.095434844 0.056525294 -0.079370044 0.05347775
-0.13515888 0.013174246 -0.15907979 0.07136096 0.06639377 -0.024369424 0.010005901 -0.016332531
-0.08959939 0.027444636 -0.08303466 -0.0030116145 -0.059350044 0.14206192 -0.052030575 -0.05011471
0.05110418 0.06488308 0.00015080502 -0.07304517 -0.12414768 0.009750145 0.037500408 -0.05581009
-0.017788095 -0.08779859 -0.025640912 0.045041267 -0.027253956 -0.083554514 -0.017774964 -0.103244066
-0.108576305 -0.1015436 -0.05515067 0.0010617278 -0.014610521 -0.10622295 -0.03254957 0.09404764
0.18797857 -0.05203875 0.00898231 0.093576044 0.06638643 0.03952544 -0.08117236 0.12056805
-0.046653748 0.033509977 -0.056354396 0.0018526245 -0.028916989 -0.065674886 -0.0729343 0.06973976
-0.07210782 -0.058208123 -0.03170163 0.17102766 0.059718985 -0.070671074 0.1190811 -0.05070416
00000000: 50a1 833d 8f3e 3c3d 1331 66bb 8d76 323d
00000010: 3e5a fe3c 8a74 383d 1883 9e39 c4e5 a03d
00000020: b083 a93d 9cce fa3d a9fc 7b3d c62f f6bd
00000030: eaf4 bdbd 5a33 c03c 5a12 b23c b62b 8bbd
00000040: 51f9 10bd 973d dc3b 532d 9ebd 7fd1 033d
00000050: 008f a23d 5217 983d 5d79 7abc 37b2 433d
00000060: f8ed 83bb 7986 e33d 6164 023d 7f78 393d
00000070: 9ab8 a6bd ad9b 1cbe 075b 4b3d 6e68 41bd
00000080: 7268 143d 9794 483e 2a2f be3b 1d29 c4bd
00000090: 8833 f8bc 5a6c 97bb 8dcf 35bd 1fc8 fdbd
000000a0: 63ed 01be f529 263d ed21 84bd 61ee 7b3d
000000b0: c6a3 713a 836a ed3d 2cff 353d 0cb7 bc3c
000000c0: 7167 5abe fdce 07bd 0c1e 933d 2846 2b3d
000000d0: b3a8 de3c d148 ddbc 2585 8dbc f938 403d
000000e0: be76 ca3d d189 27bd c338 96bd b74d 9c3d
000000f0: e40f e3bc 27fc 79bd a40b 0e3e 79b3 b23c
00000100: 83e9 f03d 7420 e9bc af3c c8bc b5c4 f53d
00000110: b1af d83c bea3 e33d 37b6 2f3d 43d4 ef3d
00000120: ff3c c5bd ff99 1bbe 99bf debc 7cfd ab3d
00000130: af76 9bbd 3a90 1a3e 7243 44bd 84f2 12be
00000140: da12 2ebc 3989 943d cc6d 3e3c 1364 18be
00000150: e534 0a3e c97c 2f3d 169b 83bc 7601 d7bc
00000160: 6071 653d a27b 253d b117 a4bd 152c c53d
00000170: f1c6 8539 1a2d bcbd afc6 3cbd aa2e 883d
00000180: a308 503d 7ade db3d a561 8b3d 5bc8 2a3d
00000190: be82 6dbd de0f a83d 82c6 2cbc 411b 41bd
000001a0: 40c9 8bbd b00d f1bd 5113 c1bd da0f ef3c
000001b0: 415c a63d f068 47be 3ddb ecbd b4dc 303e
000001c0: 7901 e7bd eb13 0c3e 323b 3e3e e4e3 7bbd
000001d0: 3d75 e13d 9494 043b 763d 17bc 7a0c ef3b
000001e0: 6eb2 cfbc 26b5 ce3c 77a3 0b3d fde1 a53d
000001f0: 66ed 7f3c 13ba 8f3c ddb6 0b3e 4df2 00bd
00000200: 2568 0e3d 7c03 293e f40d 5b3a 99b9 1abd
00000210: 0642 ee3d 4c04 edbd 5284 153d 2b18 9dbd
00000220: 2db4 ba3c ef9c 70bc c2d3 3c3d 4cf0 3a3c
00000230: 29f9 87bd 4f92 46be 4a5a 3ebe 42ee cf3c
00000240: e9a0 8abc b930 d43c 68c5 62bd 5041 263c
00000250: 1699 213e 6ea2 58bd b38e d2bd b95d fabc
00000260: a800 5cbc b4db 233d ad07 643b ea78 853c
00000270: 0531 af3c 64de cb3d a958 8dbd b1a5 3b3d
00000280: c82e bfbd 0de3 de3d 2df1 b43c ce0b 96bd
00000290: c064 143e c22a 63bc 884d 013c b5ca 87bd
000002a0: 3508 a33d e2c0 ddbb 6b41 8abd 57ff 913d
000002b0: c229 983c f439 6e3d a34d f0bc 69cb b83d
000002c0: f32c c1bc 94d5 c4bb 05c9 823e 2134 d4bd
000002d0: 43b8 e53d 7394 403d 5496 77bc 5f57 243e
000002e0: c136 95bd 1bf7 a43d 633f 2cbc 0aa1 873d
000002f0: 5873 c33d 1187 673d c38c a2bd 7c0b 5b3d
00000300: 1767 0abe cbd8 573c d0e5 22be b225 923d
00000310: 75f9 873d 63a2 c7bc caef 233c cdcb 85bc
00000320: e37f b7bd 93d3 e03c 130e aabd 825e 45bb
00000330: 0819 73bd ae78 113e 031e 55bd 1545 4dbd
00000340: 9e52 513d 6ce1 843d 6a21 1e39 b598 95bd
00000350: 2441 febd 12bf 1f3c 079a 193d 1f99 64bd
00000360: 57b8 91bc bfcf b3bd e40c d2bc 317d 383d
00000370: b043 dfbc a11e abbd cd9c 91bc a071 d3bd
00000380: 415d debd 17f6 cfbd abe5 61bd ac29 8b3a
00000390: f760 6fbc 6b8b d9bd b352 05bd 0d9c c03d
000003a0: 747d 403e 9626 55bd 8a2a 133c cca4 bf3d
000003b0: 9cf5 873d 6ee5 213d b23d a6bd 62ec f63d
000003c0: 0018 3fbd c241 093d ded3 66bd c3d3 f23a
000003d0: 52e3 ecbc 8e80 86bd 945e 95bd b8d3 8e3d
000003e0: 44ad 93bd a46b 6ebd 92d9 01bd e021 2f3e
000003f0: e59b 743d ffbb 90bd cbe0 f33d 2aaf 4fbd

network_body.linear_encoder.seq_layers.2.bias f4 [128]
0.0 0.0 0.0 0.0 0.0 0.0 0.0 0.0
0.0 0.0 0.0 0.0 0.0 0.0 0.0 0.0
0.0 0.0 0.0 0.0 0.0 0.0 0.0 0.0
0.0 0.0 0.0 0.0 0.0 0.0 0.0 0.0
0.0 0.0 0.0 0.0 0.0 0.0 0.0 0.0
0.0 0.0 0.0 0.0 0.0 0.0 0.0 0.0
0.0 0.0 0.0 0.0 0.0 0.0 0.0 0.0
0.0 0.0 0.0 0.0 0.0 0.0 0.0 0.0
0.0 0.0 0.0 0.0 0.0 0.0 0.0 0.0
0.0 0.0 0.0 0.0 0.0 0.0 0.0 0.0
0.0 0.0 0.0 0.0 0.0 0.0 0.0 0.0
0.0 0.0 0.0 0.0 0.0 0.0 0.0 0.0
0.0 0.0 0.0 0.0 0.0 0.0 0.0 0.0
0.0 0.0 0.0 0.0 0.0 0.0 0.0 0.0
0.0 0.0 0.0 0.0 0.0 0.0 0.0 0.0
0.0 0.0 0.0 0.0 0.0 0.0 0.0 0.0
00000000: 0000 0000 0000 0000 0000 0000 0000 0000
00000010: 0000 0000 0000 0000 0000 0000 0000 0000
00000020: 0000 0000 0000 0000 0000 0000 0000 0000
00000030: 0000 0000 0000 0000 0000 0000 0000 0000
00000040: 0000 0000 0000 0000 0000 0000 0000 0000
00000050: 0000 0000 0000 0000 0000 0000 0000 0000
00000060: 0000 0000 0000 0000 0000 0000 0000 0000
00000070: 0000 0000 0000 0000 0000 0000 0000 0000
00000080: 0000 0000 0000 0000 0000 0000 0000 0000
00000090: 0000 0000 0000 0000 0000 0000 0000 0000
000000a0: 0000 0000 0000 0000 0000 0000 0000 0000
000000b0: 0000 0000 0000 0000 0000 0000 0000 0000
000000c0: 0000 0000 0000 0000 0000 0000 0000 0000
000000d0: 0000 0000 0000 0000 0000 0000 0000 0000
000000e0: 0000 0000 0000 0000 0000 0000 0000 0000
000000f0: 0000 0000 0000 0000 0000 0000 0000 0000
00000100: 0000 0000 0000 0000 0000 0000 0000 0000
00000110: 0000 0000 0000 0000 0000 0000 0000 0000
00000120: 0000 0000 0000 0000 0000 0000 0000 0000
00000130: 0000 0000 0000 0000 0000 0000 0000 0000
00000140: 0000 0000 0000 0000 0000 0000 0000 0000
00000150: 0000 0000 0000 0000 0000 0000 0000 0000
00000160: 0000 0000 0000 0000 0000 0000 0000 0000
00000170: 0000 0000 0000 0000 0000 0000 0000 0000
00000180: 0000 0000 0000 0000 0000 0000 0000 0000
00000190: 0000 0000 0000 0000 0000 0000 0000 0000
000001a0: 0000 0000 0000 0000 0000 0000 0000 0000
000001b0: 0000 0000 0000 0000 0000 0000 0000 0000
000001c0: 0000 0000 0000 0000 0000 0000 0000 0000
000001d0: 0000 0000 0000 0000 0000 0000 0000 0000
000001e0: 0000 0000 0000 0000 0000 0000 0000 0000
000001f0: 0000 0000 0000 0000 0000 0000 0000 0000

action_model._discrete_distribution.branches.0.weight f4 [3, 128]
-0.008988398 0.0046047787 0.0017109385 -0.0028455746 0.0060343365 -0.0034793632 0.029502183 0.010426313
0.0008340548 0.014229183 0.0061444705 -0.0016820001 0.011138721 0.005514945 -0.0067130327 -0.0036493854
-0.0038975643 0.013965902 -0.007240838 -0.013331047 0.011155944 0.005059741 -0.014350968 0.0018376556
0.008444815 -0.0056033847 -0.011070937 -0.014317296 -0.0064316452 -0.005420133 0.008264293 0.0050711306
0.020373112 0.0046191677 0.0074804216 -0.014027803 0.0011941028 0.01853661 -0.010120866 -0.009646784
-0.0067837215 0.015661163 0.0003800796 0.005949675 -0.010668645 0.010131768 0.0032283047 0.0016902197
-0.00032730887 0.013802901 0.0015306933 0.0033186625 -0.012542668 0.019861238 -0.0018280253 -0.008768048
-0.022257458 -0.011384375 0.0068314234 0.018093823 -0.011042718 0.009309112 -0.0064369105 0.0130270375
0.0015603977 -0.0021277438 0.0040127197 0.0048546526 0.005121566 -0.017034356 -0.008163475 -0.0079011535
0.003503751 -0.01053203 -0.0012678711 0.019384502 -0.0029153975 0.0034680155 -0.015942426 0.014691748
0.0024819158 -0.011794454 0.0013289808 -0.013506192 0.005731664 -0.014182028 -0.006496464 -0.008063371
0.0029618863 -0.0074251327 0.0056209825 0.0003699128 -0.010572228 -0.010524855 0.0014359846 0.00035297454
-0.010960411 -0.0108799655 -0.0111646345 0.015029669 -0.01300568 0.0056100874 -0.0028564145 -0.009315208
0.015460414 0.015820017 -0.00026582752 -0.010726 0.0051079835 -0.0021321832 -0.0024539651 0.009691934
-0.011446774 0.019762514 0.015476544 -0.0041841296 0.010179052 0.011361201 0.0017260067 0.0011633848
0.010763915 -0.0034065011 0.004305619 0.0073442175 0.00072930433 -0.00028006785 0.008752956 0.0036055984
0.006978319 -0.0031117848 0.001236778 0.0023569674 -0.0009550177 0.002239915 0.0024801425 -0.006945544
-0.0046794782 -0.0039393655 0.01043411 0.0032610074 -0.00056020415 -0.0050058966 -0.010298422 0.0073972135
-0.012765549 0.008060063 -0.008173248 0.021006262 -0.009212469 0.006404725 0.00477322 0.013728094
-0.00025419416 -0.0029260973 0.013854287 -0.005003288 0.015818333 0.00019076871 0.002089132 0.010750504
0.008642784 -0.003729517 -0.0027420542 -0.010101822 0.0016193249 0.00037429974 0.03284158 0.012315416
-0.0070592733 -0.015196025 0.0033430643 -0.002951204 0.001157229 -0.0014966701 -0.0022781491 0.005248849
0.0063165226 -0.0040595676 -0.0031335845 -0.0025921315 0.001940821 -0.011351183 -0.0013854847 -0.0018454165
-0.025146455 -0.008057471 0.009861442 -0.015175238 0.0035448228 0.0016460799 -0.014568006 0.000570805
-0.01408144 -0.009961228 0.00083407667 0.0006780616 0.012608883 -0.0113327345 -0.0075698006 -0.0017374475
-0.0029203508 0.010193277 -0.009133965 -0.0066976957 0.0018332874 -0.0024241037 -0.016389266 -0.009243268
0.004141996 0.008370872 -0.013824317 0.014777789 -0.0006707411 0.0048659462 0.00018360549 -0.002077853
0.0068833455 -0.014493763 -0.006441602 0.006177119 -0.0020964448 -0.0007943834 -0.012402414 -0.0071864403
-0.0076428102 0.0012336947 0.00422987 -0.002003759 0.00667908 0.0072018667 -0.0049827048 -0.01513911
0.01580407 0.0065919184 0.00964801 0.005069777 -0.0034175687 -0.008672956 -0.010825456 -0.008245629
0.00848076 0.0041437456 0.007024575 0.009016487 -5.5735054e-05 -0.004137015 0.0064205737 -0.01396517
-0.010235239 0.008541997 0.011926469 0.0004212188 -0.0058801463 -0.015407502 0.01378265 0.0022516393
00000000: 1344 13bc afe3 963b 9241 e03a d27c 3abb
00000010: afbb c53b 0706 64bb 90ae f13c 20d3 2a3c
00000020: 78a4 5a3a 8521 693c 8e57 c93b 8f76 dcba
00000030: 2f7f 363c b6b6 b43b 00f9 dbbb 872a 6fbb
00000040: 476e 7fbb 3dd1 643c 8d44 edbb 776a 5abc
00000050: 6cc7 363c 2fcc a53b 5320 6bbc 7ddd f03a
00000060: 1f5c 0a3c 999c b7bb e062 35bc 1893 6abc
00000070: 8dc0 d2bb 5f9b b1bb f566 073c ba2b a63b
00000080: 83e5 a63c 635c 973b 531e f53b dfd4 65bc
00000090: 7183 9c3a 17da 973c fdd1 25bc 8b0d 1ebc
000000a0: fb49 debb d74b 803c 6c45 c739 7ef5 c23b
000000b0: 8acb 2ebc b7ff 253c f791 533b 5d8a dd3a
000000c0: a79a abb9 9025 623c 8ba1 c83a eb7d 593b
000000d0: c37f 4dbc 09b4 a23c 5a9a efba dca7 0fbc
000000e0: 4655 b6bc 8885 3abc 22da df3b 7f39 943c
000000f0: 84ec 34bc 3f85 183c b8ec d2bb 5b6f 553c
00000100: 4286 cc3a 9e71 0bbb 227d 833b c713 9f3b
00000110: cfd2 a73b a28b 8bbc 19c0 05bc d773 01bc
00000120: 309f 653b 898e 2cbc b22e a6ba 3fcc 9e3c
00000130: 4110 3fbb a547 633b b199 82bc a8b5 703c
00000140: a3a7 223b 873d 41bc 3231 ae3a 1349 5dbc
00000150: afd0 bb3b bd5b 68bc 4ae0 d4bb 3b1c 04bc
00000160: 351c 423b 874e f3bb 3830 b83b dbf0 c139
00000170: 2337 2dbc 7170 2cbc a637 bc3a 710f b939
00000180: 4c93 33bc e241 32bc dfeb 36bc 003f 763c
00000190: c715 55bc d3d4 b73b af32 3bbb d09e 18bc
000001a0: ad4d 7d3c fb98 813c c45e 8bb9 1bbc 2fbc
000001b0: df60 a73b 19bc 0bbb b4d2 20bb ebca 1e3c
000001c0: 408b 3bbc ffe4 a13c 5591 7d3c 061b 89bb
000001d0: 0ac6 263c 5524 3a3c 2d3b e23a b77c 983a
000001e0: 225b 303c 9b3f 5fbb 2616 8d3b c3a7 f03b
000001f0: c92e 3f3a 12d6 92b9 8f68 0f3c e74b 6c3b
00000200: 62aa e43b 16ef 4bbb 621b a23a 5a77 1a3b
00000210: 275a 7aba 8acb 123b e389 223b 7297 e3bb
00000220: 4f56 99bb cb15 81bb d4f3 2a3c a0b6 553b
00000230: aada 12ba 8108 a4bb b6ba 28bc 5364 f23b
00000240: 9826 51bc 5b0e 043c 16e9 05bc 5315 ac3c
00000250: e5ef 16bc bade d13b ac68 9c3b cdeb 603c
00000260: 5d45 85b9 c4c3 3fbb 17fd 623c 9ff2 a3bb
00000270: 7395 813c 1609 4839 d2e9 083b e222 303c
00000280: 779a 0d3c ea6a 74bb 09b4 33bb 1d82 25bc
00000290: 873f d43a a93d c439 e584 063d 99c6 493c
000002a0: 7a51 e7bb c0f8 78bc 5017 5b3b fd68 41bb
000002b0: 29ae 973a ea2b c4ba 004d 15bb 89fe ab3b
000002c0: d5fa ce3b 1f06 85bb d35c 4dbb c0e0 29bb
000002d0: 2563 fe3a 50fa 39bc 2799 b5ba e7e1 f1ba
000002e0: f0ff cdbc 7c03 04bc e391 213c 90a1 78bc
000002f0: 4250 683b 47c1 d73a a5ae 6ebc 13a2 153a
00000300: d7b5 66bc 6b34 23bc f0a5 5a3a f2bf 313a
00000310: 7d95 4e3c efac 39bc 170c f8bb 10bb e3ba
00000320: 5b63 3fbb b401 273c a0a6 15bc 5878 dbbb
00000330: eb4a f03a b6dd 1ebb c842 86bc 1371 17bc
00000340: 95b9 873b fb25 093c 637f 62bc 8a1e 723c
00000350: acd4 2fba 8472 9f3b 3986 4039 972c 08bb
00000360: b08d e13b 4077 6dbc 1314 d3bb 6e69 ca3b
00000370: 8264 09bb 2b3e 50ba 7f33 4bbc 3b7c ebbb
00000380: 8a70 fabb edb3 a13a b99a 8a3b 7f51 03bb
00000390: 2fdc da3b a3fd eb3b f545 a3bb 080a 78bc
000003a0: 8977 813c 0501 d83b b012 1e3c 5f20 a63b
000003b0: 4af9 5fbb 0419 0ebc 415d 31bc ad18 07bc
000003c0: e3f2 0a3c 42c8 873b 682e e63b e3b9 133c
000003d0: 0fc5 69b8 cc8f 87bb ad63 d23b 2bce 64bc
000003e0: b4b1 27bc bbf3 0b3c 3d67 433c 08d7 dc39
000003f0: 3eae c0bb bf6f 7cbc a0d0 613c 3d90 133b

action_model._discrete_distribution.branches.0.bias f4 [3]
0.0 0.0 0.0
00000000: 0000 0000 0000 0000 0000 0000

action_model._discrete_distribution.branches.1.weight f4 [3, 128]
0.008451582 0.0021336016 -0.0009388079 -0.0005474912 -0.008404631 0.008823373 0.0060385657 0.0022800532
0.016985903 0.0043938784 0.032209292 0.004215513 0.0078016235 -0.0074373307 -0.011553941 0.016145539
0.011011138 -0.0037809927 -0.010526384 -0.0038567658 0.0077427938 -0.013999658 0.0035375387 0.004306486
-0.009387761 -0.002492386 -0.003522135 0.00078303507 0.0010300074 -0.009047416 -0.008308901 -0.011668615
-0.0013417931 0.0047157155 0.0022695137 5.818634e-05 -0.004803074 0.013782303 -0.010341346 0.016432574
0.005238119 -0.005360128 0.0102864895 -0.010312265 -0.015305981 -0.016878273 -0.009622519 0.0072214166
-0.009575831 0.0011373219 -0.005761324 0.01239692 -0.008004761 -0.0025923192 -0.009516556 -0.0013202837
-0.01769346 -0.024791548 -0.0031395392 0.002064888 -0.0051095732 0.0074439533 -0.010111655 0.0063907276
-0.0034543274 0.002412829 0.005804856 -0.00013731592 0.0030095296 -0.0061696908 0.007448537 -0.015373577
0.00097326696 0.00973849 -0.011988583 0.003999433 0.007508895 -0.0064685913 -0.005619516 -0.005424698
0.009377993 -0.013193707 -0.006769755 -0.008414044 0.013912692 0.0017049899 -0.0034683966 -0.0011420166
-0.016852072 -0.00029628217 0.011431519 -0.007986966 0.007290132 0.008156392 0.0065477276 0.0022155887
-0.0042678704 0.0046063554 -0.0005320186 -0.0023802645 -0.0052556493 0.00574414 0.026072761 -0.009620347
-0.0021322526 -0.0019907102 -0.021620734 -0.0032893994 0.024005853 -0.004345113 -0.00016874114 0.0054270057
0.009323721 0.0004900044 0.011386438 -0.011611472 -0.0059890095 0.0033045982 0.0047028917 -0.020747496
0.01221954 0.018363155 -0.007093818 0.0028455304 -0.00072004355 -0.0011399831 -0.003851049 -0.010518151
-0.00017608762 0.004117453 -0.0061419075 -0.0042867567 -0.005199667 0.0054761157 -0.0072190906 -0.0107737165
0.006428466 -0.0026268798 0.011302073 0.011532007 0.010183577 0.007303895 -0.005503736 0.0009135996
-0.010244033 0.00940559 0.00925098 0.0062394603 0.01659903 -0.0007243284 0.011517135 -0.015119298
-0.017480496 0.00081805105 -0.00010553138 0.01783082 0.0032386512 0.011358647 -0.011967111 0.01739072
-0.005267007 -0.00015350939 -0.010908171 0.0011251903 -0.0043856427 0.0004459236 -0.0018846868 -0.0035893486
-0.007858874 -9.312445e-05 0.013134457 -0.012094176 -0.0023497648 -0.01256373 -0.0069610397 0.008665319
-0.013686337 0.0022766283 0.016274776 -0.0117863165 0.014472643 0.0046374938 -0.010536048 -0.004214626
0.0028541351 0.004273789 0.014951411 0.008869488 -0.006415251 -0.0042193434 0.011790422 -0.004864177
0.0011927359 0.0056333737 -0.008034341 0.009074604 -0.022604635 -0.0124236215 -0.016008183 -0.003987446
0.002715337 0.0014740146 -0.011272237 -0.004232249 0.0075129154 0.0057662297 0.0007884785 -0.0066234865
-0.017833434 -0.00801604 0.0033547622 -0.02266321 0.004982496 0.00774949 0.017993782 -0.014167957
0.0012018614 -0.00039904803 -0.0031466775 0.0029623136 -0.0035653722 0.0052986043 0.008527578 -0.0010230815
-0.0042303884 0.015309781 0.0016688195 0.0047096126 0.0024244776 -0.006606792 0.0009335279 0.0152158765
-0.007012059 -0.014960756 -0.0052720173 0.0050441767 -0.0020226878 -0.0013997856 -0.0005132893 -0.0016706673
0.003049264 -0.006833173 0.0124297645 0.005453127 0.0072872676 -0.011941149 -0.0038602115 -0.010398962
0.010817982 -0.0008768484 -0.009678978 0.0014499448 -0.0033325627 -0.006215885 0.0009351712 0.00840582
00000000: 8178 0a3c e5d3 0b3b 551a 76ba 8385 0fba
00000010: 94b3 09bc e98f 103c 29df c53b f26c 153b
00000020: 0526 8b3c 86fa 8f3b e4ed 033d 4922 8a3b
00000030: c3a4 ff3b dab4 f3bb be4c 3dbc a643 843c
00000040: 0f68 343c 88ca 77bb db76 2cbc cbc1 7cbb
00000050: 43b7 fd3b d25e 65bc 0dd6 673b 6c1d 8d3b
00000060: 20cf 19bc 4c57 23bb 9fd3 66bb 9844 4d3a
00000070: 5001 873a 9d3b 14bc 0f22 08bc b82d 3fbc
00000080: 1bdf afba 4a86 9a3b 1fbc 143b 1b0d 7438
00000090: 1b63 9dbb 2bcf 613c c06e 29bc 9b9d 863c
000000a0: 87a4 ab3b 03a4 afbb aa88 283c c6f4 28bc
000000b0: f0c5 7abc 4e44 8abc c5a7 1dbc a2a1 ec3b
000000c0: f2e3 1cbc 3112 953a 7dc9 bcbb 731c 4b3c
000000d0: 6726 03bc e6e3 29bb 54eb 1bbc 5f0d adba
000000e0: e0f1 90bc a517 cbbc bac0 4dbb 1253 073b
000000f0: 356e a7bb 68ec f33b 5bab 25bc 4f69 d13b
00000100: ff61 62bb 8e20 1e3b a936 be3b 76fc 0fb9
00000110: 873b 453b 1e2b cabb db12 f43b 75e1 7bbc
00000120: d722 7f3a 308e 1f3c c36b 44bc ad0d 833b
00000130: 2d0d f63b 7af6 d3bb eb23 b8bb aac1 b1bb
00000140: 27a6 193c 6b2a 58bc d2d4 ddbb 0fdb 09bc
00000150: 0ff2 633c f879 df3a 0a4e 63bb b8af 95ba
00000160: 5b0d 8abc 5256 9bb9 444b 3b3c c3db 02bc
00000170: 0fe2 ee3b 63a2 053c 528e d63b 6933 113b
00000180: 7ed9 8bbb e9f0 963b 2a77 0bba 36fe 1bbb
00000190: 9537 acbb 5739 bc3b 8b96 d53c a99e 1dbc
000001a0: 43bd 0bbb 9376 02bb f71d b1bc f792 57bb
000001b0: eca7 c43c 7361 8ebb 1bf0 30b9 06d5 b13b
000001c0: 85c2 183c a373 003a 2f8e 3a3c 0b3e 3ebc
000001d0: 743f c4bb f591 583b b71a 9a3b a7f6 a9bc
000001e0: 7734 483c 546e 963c 4273 e8bb 147c 3a3b
000001f0: 4ec1 3cba 7c6b 95ba e261 7cbb 5354 2cbc
00000200: 29a4 38b9 b3eb 863b 0e42 c9bb ec77 8cbb
00000210: f861 aabb fd70 b33b 1f8e ecbb 3e84 30bc
00000220: e2a5 d23b bb27 2cbb 542c 393c bef0 3c3c
00000230: 05d9 263c 8355 ef3b af58 b4bb a27e 6f3a
00000240: 97d6 27bc e719 1a3c 6c91 173c 6374 cc3b
00000250: b0fa 873c dbe0 3dba 5eb2 3c3c efb6 77bc
00000260: 4233 8fbc 7a72 563a ba50 ddb8 f111 923c
00000270: 8d3f 543b 9e19 3a3c b411 44bc fc76 8e3c
00000280: db96 acbb 5df7 20b9 2fb8 32bc 1f7b 933a
00000290: 70b5 8fbb daca e939 9807 f7ba 473b 6bbb
000002a0: 82c2 00bc cf4b c3b8 e831 573c a726 46bc
000002b0: 83fe 19bb 1ad8 4dbc 6f19 e4bb fbf8 0d3c
000002c0: a83c 60bc 7c33 153b ae52 853c 651b 41bc
000002d0: aa1e 6d3c 1ef6 973b 639f 2cbc d81a 8abb
000002e0: 710c 3b3b 240b 8c3b c3f6 743c 5451 113c
000002f0: 0737 d2bb 6b42 8abb 9d2c 413c ad63 9fbb
00000300: 9355 9c3a 2a98 b83b 78a2 03bc a6ad 143c
00000310: 5b2d b9bc 728c 4bbc 9823 83bc 1fa9 82bb
00000320: ccf3 313b b933 c13a 30af 38bc aeae 8abb
00000330: e72e f63b a4f2 bc3b e5b1 4e3a d509 d9bb
00000340: 6c17 92bc b555 03bc 92db 5b3b 32a8 b9bc
00000350: 3544 a33b 6fef fd3b b267 933c b820 68bc
00000360: c787 9d3a 5237 d1b9 7d38 4ebb 6023 423b
00000370: 05a9 69bb ea9f ad3b 41b7 0b3c eb18 86ba
00000380: 129f 8abb e0d5 7a3c 4abc da3a 1853 9a3b
00000390: fce3 1e3b ca7d d8bb ffb7 743a 034c 793c
000003a0: 6ac5 e5bb f51d 75bc e3c0 acbb 9f49 a53b
000003b0: 128f 04bb 0379 b7ba 438e 06ba 4bfa daba
000003c0: 29d6 473b cfe8 dfbb 36a6 4b3c 25b0 b23b
000003d0: 08ca ee3b cfa4 43bc 9afb 7cbb 6860 2abc
000003e0: e83d 313c 4ddc 65ba 9394 1ebc 130c be3a
000003f0: 2067 5abb 9fae cbbb 4726 753a 90b8 093c

action_model._discrete_distribution.branches.1.bias f4 [3]
0.0 0.0 0.0
00000000: 0000 0000 0000 0000 0000 0000

action_model._discrete_distribution.branches.2.weight f4 [3, 128]
-0.0012511703 0.0038368327 -0.00487066 -0.0033412396 0.008689418 -0.0045100665 -0.007822975 0.0045310534
-0.016887952 -0.0058942735 -0.015505447 0.0007097055 -0.010145461 -0.012119658 0.0042327256 0.0006055978
0.003006131 -0.0037588582 -0.0011039138 0.005910227 -0.0029355383 -0.0034968422 0.0028051527 -0.0058277533
0.0142164705 -0.019162145 0.012741478 0.007243182 -0.0006585971 0.0056128884 -0.0050827917 -0.0032846355
0.0019547485 -0.0060585565 0.0061311675 -0.001981112 0.0058798413 -0.015384803 -0.0042183595 -0.012763242
0.008928328 -0.0064078183 0.0074898126 0.0067591155 -0.011169867 0.0068798037 0.012976686 0.0051744073
-0.011651127 0.0030680627 -0.00016298257 0.011329167 -0.010295771 -0.0022312845 -0.014758194 -0.007571678
0.0039978013 -0.00076126936 -0.004925003 -0.0064877504 0.0043382533 0.0070202807 -0.00045587853 0.0070193107
0.0077130417 -0.004983446 -0.010546164 0.0060676555 0.004048956 0.00666483 -0.009709734 0.0129733905
0.002387206 0.00626961 0.00032118385 -0.019841705 -0.0015757118 -0.028730912 0.0004159115 -0.0041113957
-0.008690797 -0.008990913 -0.007831545 0.007196761 0.008113592 -0.005801495 -0.0048616906 0.00020865402
-0.0015201125 0.011277618 -0.01706875 0.0047549927 -0.020745408 -0.002793962 0.0051601534 -0.0071963626
0.0012527931 0.0016504569 0.011565538 0.0042428547 -0.0018689374 -0.008041888 -0.013827515 0.0032409409
-0.0013438216 0.008200008 0.0016395027 -0.0009905132 0.014363103 0.0063834675 0.014395292 0.008314173
-0.005660498 -0.005893144 -0.0025623403 0.0057140766 -0.00728919 -0.0096553825 -0.020225251 -0.0012234985
0.0011090051 0.006173087 -0.0034940883 0.013716745 0.0035268867 -0.009943111 0.0024334963 -0.0073036775
-0.004837336 -0.0048541673 -0.001643382 -0.004521417 0.0046052765 0.0077714757 0.0072226124 0.0009368813
-0.0035861142 -0.015988288 0.003265157 -0.0064714216 0.0069030346 0.02027016 -0.0033896603 -0.0140855005
0.0085629085 0.011039056 -0.006961725 0.018549984 0.0013122675 -0.005686316 -0.003069143 -0.015215381
0.0069049145 -0.0020812438 -0.003284403 0.015250752 0.005775442 0.015366037 0.0077307015 0.0040429467
-0.0028939443 -0.014673707 0.011396332 0.0006955329 -0.0014643689 0.00453097 0.016567124 0.016802244
-0.00040728805 -0.0015092117 -0.00346828 -0.019176679 0.011574823 0.0031848315 -0.0029517582 0.014832556
0.010872193 0.003531114 0.0065719686 -0.0007169312 -0.013865935 -0.0037390448 0.0076768473 -0.011927107
-0.0074428543 0.00021452962 -0.0005352377 -0.0017115694 -0.004375871 -0.016078016 0.0007387553 0.0074105854
0.014439264 0.0135130705 -0.001125136 0.009296632 0.01595332 0.00016359598 -0.011808783 0.0034285132
0.008962982 0.008398881 0.0002532755 0.012783985 8.662024e-05 0.011018192 0.005540646 0.0014395326
0.0020815234 0.00058679323 0.0038309928 0.011562969 0.004187322 0.0029286079 0.0002660078 -7.8541445e-05
0.0096534295 -0.006052755 -0.011284153 -0.012203761 -0.005803118 -0.0017337945 -0.00077714043 -0.00047795437
-0.004777669 0.0021131085 0.008000155 -0.006412209 -0.0036521808 -0.0051508895 -0.0090073785 0.0035585107
-0.008983412 0.017504085 0.011997914 -0.010003726 -0.020009127 0.010113254 -0.0065719145 -0.0017770097
0.017681623 -0.0027308345 -0.0051424536 -0.0045582727 -0.00038303097 0.0089831315 -0.0086368015 0.00017290175
-0.001747208 -0.006704775 -0.00959042 4.2803484e-05 0.0028660998 0.0008554646 0.0031154526 0.011093947
00000000: 4ffe a3ba 5f73 7b3b 0f9a 9fbb b3f8 5abb
00000010: 105e 0e3c 2ec9 93bb ef2b 00bc 3b79 943b
00000020: 9a58 8abc c024 c1bb 8f0a 7ebc 880b 3a3a
00000030: 2639 26bc 8891 46bc adb2 8a3b fbc0 1e3a
00000040: 8202 453b 2d57 76bb 33b1 90ba 94aa c13b
00000050: 2962 40bb 472b 65bb a7d6 373b bdf6 bebb
00000060: 33ec 683c eef9 9cbc a2c1 503c 3758 ed3b
00000070: b4a5 2cba 52ec b73b 8c8d a6bb 0a43 57bb
00000080: 3d1b 003b db86 c6bb f6e7 c83b 8bd5 01bb
00000090: afab c03b 8a10 7cbc 2a3a 8abb eb1c 51bc
000000a0: 1f48 123c adf8 d1bb 1a6d f53b 927b dd3b
000000b0: d101 37bc fa6f e13b 2a9c 543c 138e a93b
000000c0: 5ee4 3ebc 8d11 493b 4de6 2ab9 f89d 393c
000000d0: 98af 28bc be3a 12bb 5acc 71bc d71b f8bb
000000e0: fdff 823b ec8f 47ba eb61 a1bb 3297 d4bb
000000f0: e827 8e3b 620a e63b fb02 efb9 3f02 e63b
00000100: afbd fc3b 2d4c a3bb d1c9 2cbc 2fd3 c63b
00000110: 1bad 843b a564 da3b 9315 1fbc 588e 543c
00000120: ac72 1c3b 4d71 cd3b 9164 a839 128b a2bc
00000130: 1d88 ceba 175d ebbc b20e da39 e3b8 86bb
00000140: d863 0ebc 9f4e 13bc e14f 00bc cfd2 eb3b
00000150: dfee 043c 781a bebb d14e 9fbb 23ca 5a39
00000160: 833e c7ba c2c5 383c c3d3 8bbc c5cf 9b3b
00000170: 46f2 a9bc e71a 37bb 8116 a93b 77cf ebbb
00000180: c334 a43a 2554 d83a 627d 3d3c a507 8b3b
00000190: 22f7 f4ba 1fc2 03bc cd8c 62bc f765 543b
000001a0: 2c23 b0ba 5459 063c 95e4 d63a 1cd4 81ba
000001b0: 3853 6b3c 682c d13b 3bda 6b3c 2b38 083c
000001c0: b37b b9bb 461b c1bb f0ec 27bb 263d bb3b
000001d0: 28da eebb 9c31 1ebc 6daf a5bc cc5d a0ba
000001e0: 095c 913a 9b47 ca3b 13fd 64bb 33bc 603c
000001f0: 5723 673b 6ee8 22bc 4b7b 1f3b b053 efbb
00000200: 8482 9ebb b50f 9fbb c066 d7ba 6528 94bb
00000210: dce7 963b dda7 fe3b aaab ec3b 0a99 753a
00000220: 0305 6bbb dff9 82bc 3ffc 553b 380e d4bb
00000230: da32 e23b 9b0d a63c 1025 5ebb dfc6 66bc
00000240: 714b 0c3c 28dd 343c 2f1f e4bb 23f6 973c
00000250: 6400 ac3a 4754 babb ad23 49bb ef49 79bc
00000260: 9f42 e23b 7a65 08bb 233f 57bb 4ade 793c
00000270: eb3f bd3b d5c1 7b3c d351 fd3b b27a 843b
00000280: 54a8 3dbb fd69 70bc aeb7 3a3c 6c54 363a
00000290: 11f0 bfba 8878 943b c7b7 873c dca4 893c
000002a0: 4789 d5b9 bed0 c5ba 154c 63bb 6918 9dbc
000002b0: 54a4 3d3c 9bb8 503b 4972 41bb 4004 733c
000002c0: 4821 323c 436a 673b ab59 d73b 70f0 3bba
000002d0: f22d 63bc c30a 75bb 108e fb3b ea69 43bc
000002e0: 30e3 f3bb 5bf3 6039 324f 0cba bd56 e0ba
000002f0: 7763 8fbb 0bb6 83bc 07a9 413a 7fd4 f23b
00000300: aa92 6c3c ed65 5d3c 4d79 93ba e750 183c
00000310: 89b0 823c f68a 2b39 a079 41bc e8b0 603b
00000320: 79d9 123c 769b 093c 10ca 8439 eb73 513c
00000330: e3a7 b538 a685 343c 4f8e b53b b3ae bc3a
00000340: 2b6a 083b 07d3 193a 6511 7b3b 9b72 3d3c
00000350: ce35 893b e3ed 3f3b f676 8b39 9eb6 a4b8
00000360: 6b29 1e3c 3056 c6bb 2be1 38bc 49f2 47bc
00000370: 1528 bebb 7d40 e3ba 03b9 4bba f395 fab9
00000380: fe8d 9cbb 147c 0a3b 1513 033c 821d d2bb
00000390: 6d59 6fbb cbc8 a8bb af93 13bc e735 693b
000003a0: 292f 13bc ba64 8f3c e692 443c abe6 23bc
000003b0: 2eea a3bc 10b2 253c 3759 d7bb 8dea e8ba
000003c0: 0dd9 903c cdf7 32bb 0782 a8bb 905d 95bb
000003d0: 8cd1 c8b9 fc2d 133c 5f81 0dbc f64c 3539
000003e0: 9202 e5ba bbb3 dbbb 2321 1dbc e487 3338
000003f0: 2dd5 3b3b 4241 603a 9f2c 4c3b 63c3 353c

action_model._discrete_distribution.branches.2.bias f4 [3]
0.0 0.0 0.0
00000000: 0000 0000 0000 0000 0000 0000

action_model._discrete_distribution.branches.3.weight f4 [3, 128]
-0.007560397 0.0024167148 -0.004115644 0.01759441 -0.0035653138 0.0015972685 0.0022095223 0.0025597333
0.018476019 -0.009085133 -0.007088577 0.003713748 -0.0020724025 -0.004275061 -0.009829945 0.020310989
-0.01426585 -0.010346069 -0.012077636 -0.0008693767 0.005134653 -0.006741868 0.005114757 -6.763315e-05
0.0007637272 0.004925336 -0.001990346 -0.007101532 0.012322069 -0.0139055615 0.003008089 0.00566655
-0.0037438825 -0.0066110766 -0.0026694837 -0.0030587346 -0.0077747167 0.0018196277 -0.0075570242 -0.010969691
0.0040238495 0.00020393675 -0.014745704 0.0049502803 0.0006357994 -0.009180556 -0.007353838 0.0060601747
0.0012035843 -0.0064315028 0.00125293 0.0035374463 -0.003430548 0.004019841 -0.01588552 0.003141322
-0.015152492 -0.0075580874 0.0040062084 0.010979011 -0.005977377 0.0059224223 0.001980392 0.0076232417
-0.0032078784 0.0010780281 0.005379845 0.010782688 -0.001949951 -0.0032499481 -0.013254665 -0.013083756
-0.0073731253 -0.010571276 0.00850159 0.0057510096 0.007649413 -0.0045871935 0.0005458506 -0.004038923
0.010565738 -0.0061789514 0.0035283235 0.009763097 -0.011899125 -0.014156316 0.0041846633 -0.003625396
0.01598145 -0.008307188 -0.020017253 -0.0011866919 0.013219125 0.011192965 -0.025614968 -0.00019176783
0.010469007 0.006270695 0.017849686 0.0006989358 -0.002076986 0.009965534 -0.013068064 0.001967168
0.014842215 0.00580592 0.013709748 -0.0033629623 -0.018222116 0.0039755995 -0.000493976 0.026885867
0.00091761065 -0.0015231811 0.0018468617 0.016016139 -0.0012340931 0.010542211 -0.014240469 -0.010774479
-0.022189993 -0.0019450501 -0.0136694405 0.012445309 -0.007321395 0.004462531 0.008593882 0.00898132
0.015762402 0.0013228217 -0.0050057094 0.013027933 -0.0028738743 0.0044824285 0.0035437867 0.0014438411
-0.00067391555 -0.005251165 0.004540204 0.019436164 -0.0027445608 0.0006486119 0.0016129101 -0.008998612
0.0088072 -0.0024458363 0.019590776 0.01846256 0.00990454 -0.013556898 -0.0082273325 -0.0030074164
-0.011329078 0.014848967 -0.007390436 0.007962219 -0.014004468 0.008881884 0.015410908 0.009886962
-0.022558536 0.0060139983 -0.00363269 -0.0071907244 0.011239765 -0.0071596787 0.016335618 -0.019957518
-0.01220876 0.017832182 0.005956396 0.0073672864 -0.01471542 -0.006181945 0.00017318623 0.009504261
0.015101283 -0.0024995646 0.00011245826 0.008012895 -0.010160228 0.010447579 -0.002023101 -0.0065935845
-0.009347459 0.004062693 -0.01701513 -0.00018736941 -0.0020285833 0.0021431684 -0.002365529 -0.006079849
0.014240131 -0.0040326808 -0.011030817 0.0030459517 -0.011662606 0.013579631 -0.012150711 -0.009671579
0.00234243 -0.0025370389 -0.0026071768 -0.0009660426 0.010375091 0.013810773 -0.012162799 -0.0046143555
0.0049800617 0.00075318856 -0.00064170704 0.0027787585 -0.0035222506 0.0032341515 0.0029539769 0.014085126
-0.010744269 0.00028926993 -0.0057284036 0.006797605 0.010425649 0.006543856 0.011101344 0.00338877
-0.0012746764 -0.002813614 0.011831988 0.0031947389 -0.0069525205 -0.00065098173 0.008208895 0.0069829794
0.0011776281 0.009354117 0.012985996 -0.0057184114 -0.0024814394 0.021191947 -0.009852063 -0.0132294735
-0.0006915793 -0.0017450833 -0.00382163 -0.010189753 0.0026233052 -0.004179148 -0.004970433 -0.007523509
-0.008274141 -0.005297081 0.01126246 -0.009347438 -0.008455421 -0.008554267 0.0014989431 0.0029165542
00000000: 35bd f7bb bf61 1e3b 86dc 86bb 2722 903c
00000010: 0aa8 69bb 705b d13a a2cd 103b 33c1 273b
00000020: 055b 973c cfd9 14bc 4b47 e8bb 5a62 733b
00000030: 25d1 07bb d015 8cbb c70d 21bc 3b63 a63c
00000040: 50bb 69bc 8f82 29bc 47e1 45bc e2e6 63ba
00000050: 9740 a83b e3ea dcbb b199 a73b 45d6 8db8
00000060: dd34 483a b764 a13b 7770 02bb f8b3 e8bb
00000070: 81e2 493c 27d4 63bc 5c23 453b 77ae b93b
00000080: ed5b 75bb bba1 d8bb 81f2 2ebb 0d75 48bb
00000090: 0dc3 febb 9380 ee3a eaa0 f7bb 38ba 33bc
000000a0: 7fda 833b dbd7 5539 f797 71bc f635 a23b
000000b0: c7ab 263a 0b6a 16bc 77f8 f0bb 6e94 c63b
000000c0: 96c1 9d3a 5bbf d2bb 5b39 a43a 80d4 673b
000000d0: 0bd3 60bb dfb8 833b 5a22 82bc a3de 4d3b
000000e0: 2842 78bc d5a9 f7bb 8346 833b 4fe1 333c
000000f0: dfdd c3bb e110 c23b 77c9 013b 63cc f93b
00000100: 453b 52bb 9f4c 8d3a 6949 b03b dfa9 303c
00000110: 8095 ffba 15fd 54bb 182a 59bc 405d 56bc
00000120: 429a f1bb 2533 2dbc 414a 0b3c f772 bc3b
00000130: eda7 fa3b 2b50 96bb 6a17 0f3a f158 84bb
00000140: eb1b 2d3c cd78 cabb 723b 673b 66f5 1f3c
00000150: 8cf4 42bc e5ef 67bc 801f 893b 0d98 6dbb
00000160: 88eb 823c df1a 08bc 39fb a3bc c68a 9bba
00000170: 0795 583c b362 373c 7bd6 d1bc 4915 49b9
00000180: 3386 2b3c 677a cd3b 8139 923c ca38 373a
00000190: 0b1e 08bb 7b46 233c 6f1b 56bc 9aeb 003b
000001a0: c32c 733c 963f be3b da9e 603c 2565 5cbb
000001b0: 8c46 95bc bf45 823b 2b7e 01ba c03f dc3c
000001c0: cf8b 703a 7aa5 c7ba 6512 f23a 4734 833c
000001d0: 4bc1 a1ba 3db9 2c3c db50 69bc 7187 30bc
000001e0: cac7 b5bc 0df1 feba caf5 5fbc 69e7 4b3c
000001f0: 50e8 efbb 6c3a 923b 5bcd 0c3c 6326 133c
00000200: 2720 813c 8862 ad3a ef06 a4bb 1d73 553c
00000210: 9c57 3cbb 56e1 923b e03e 683b 453f bd3a
00000220: b5a9 30ba f711 acbb fec5 943b 9738 9f3c
00000230: 17de 33bb 9c07 2a3a 4868 d33a ea6e 13bc
00000240: 134c 103c 534a 20bb d67c a03c cb3e 973c
00000250: a746 223c c01d 5ebc efcb 06bc 1318 45bb
00000260: 999d 39bc 1549 733c 782b f2bb f873 023c
00000270: ff72 65bc 5285 113c 087e 7c3c edfc 213c
00000280: aecc b8bc 1311 c53b 6d12 6ebb 2ba0 ebbb
00000290: fe26 383c bd9b eabb 46d2 853c f37d a3bc
000002a0: 4007 48bc cc14 923c df2d c33b 4769 f13b
000002b0: f218 71bc ea91 cabb 5399 3539 c3b7 1b3c
000002c0: 5f6b 773c bccf 23bb 92d7 eb38 8448 033c
000002d0: 1677 26bc 532c 2b3c 0196 04bb ff0e d8bb
000002e0: 1626 19bc 5720 853b 5063 8bbc 9878 44b9
000002f0: fbf1 04bb 6674 0c3b fe06 1bbb 7839 c7bb
00000300: 704f 693c 9424 84bb 9aba 34bc 979e 473b
00000310: 8414 3fbc 1a7d 5e3c c713 47bc 8b75 1ebc
00000320: 7483 193b 7344 26bb 2bdd 2abb 053e 7dba
00000330: 49fc 293c 9546 623c 7a46 47bc 0534 97bb
00000340: c92f a33b a171 453a 3b38 28ba d51b 363b
00000350: 8fd5 66bb 0ff4 533b 8297 413b 4dc5 663c
00000360: bb08 30bc 27a9 9739 55b5 bbbb 72be de3b
00000370: 57d0 2a3c d86d d63b 69e2 353c 2016 5e3b
00000380: 0b13 a7ba 9c64 38bb f4da 413c d35e 513b
00000390: f8d1 e3bb a5a6 2aba 9a7e 063c 7ad1 e43b
000003a0: a45a 9a3a 0342 193c 37c3 543c 8361 bbbb
000003b0: a59f 22bb bc9a ad3c 8c6a 21bc 6fc0 58bc
000003c0: 1a4b 35ba 47bb e4ba 5074 7abb ecf2 26bc
000003d0: c2eb 2b3b 3cf1 88bb 04df a2bb c587 f6bb
000003e0: 4390 07bc 2393 adbb 2e86 383c ff25 19bc
000003f0: 9b88 0abc 3227 0cbc 2f78 c43a a923 3f3b

action_model._discrete_distribution.branches.3.bias f4 [3]
0.0 0.0 0.0
00000000: 0000 0000 0000 0000 0000 0000
