ArmRobot/Assets/Config/results/nuevoNormalizado2/AgenteCarro/AgenteCarro-799988.pt (torch, 153015 bytes, 15 tensors)

network_body.vector_processors.0.normalizer.running_mean f4 [7]
000000 4c 1f 6d 3c d8 af f9 3e 00 00 00 00 a9 f0 08 3f
       0.014472794 0.4876697 0.0 0.5349222
000010 f6 f9 07 b9 69 e3 0f 39 f6 fa 02 3b
       -0.00012967721 0.0001372226 0.001998601

network_body.vector_processors.0.normalizer.running_variance f4 [7]
000000 a7 4d 32 46 bd c7 69 47 00 00 80 3f f3 7f 8b 47
       11411.413 59847.74 1.0 71423.9
000010 1e ea ec 44 9c a6 01 40 38 38 e2 44
       1895.3162 2.025794 1809.7568

network_body.linear_encoder.seq_layers.0.weight f4 [128, 7]
000000 be be 10 3f 92 e7 6f 3d cf a6 dc 3d 68 4e 51 3f
       0.5654105 0.058570452 0.10774004 0.81760263
000010 fe 70 8e 3e ec a8 cb bc 46 c6 4c be 09 15 d9 3e
       0.2782058 -0.024860822 -0.1999751 0.4239886
000020 21 16 50 3f 93 a6 b8 be 44 71 06 bf 91 1e 05 3d
       0.81283766 -0.36064586 -0.5251658 0.032499854
000030 e5 1a 9e be d1 94 d0 3e 97 2d 0b 3f ae b7 eb 3e
       -0.30879894 0.40738538 0.5436644 0.46038574
000040 b1 49 28 3f a9 f7 9d be d2 fe 0a 3e 7b a5 2e be
       0.65737444 -0.30853012 0.13573769 -0.17055313
000050 a1 b3 8b bf 2d 6d f9 be 1b 3c 2d be 04 ae 1f be
       -1.0914193 -0.48716107 -0.1691746 -0.15593725
000060 7e 37 87 3e 60 ff e7 3d 96 29 13 3e 63 d1 31 3c
       0.26409525 0.11328006 0.14371333 0.010853144
000070 0c 83 07 bf 42 58 38 be 30 ea 02 3f 47 d2 54 be
       -0.52934337 -0.18002418 0.5113859 -0.2078334
000080 58 c7 79 be 26 d3 12 3e e2 75 9c 3e b6 a3 4d 3f
       -0.2439245 0.14338359 0.30558687 0.8032793
000090 a4 47 9c 3e 7b 86 02 bf e9 2b 1e bc 27 af 04 bf
       0.30523407 -0.5098645 -0.009654024 -0.5182976
0000a0 b0 fc 85 be ad c5 07 be 48 56 a3 3e f8 7f 4d 3e
       -0.26169348 -0.13259001 0.31901765 0.20068347
0000b0 ae 4a a8 3e f9 65 d2 3d 8f d8 e0 3e 86 11 6a be
       0.32869476 0.10273356 0.4391522 -0.22858247
0000c0 b6 d4 38 3f ae 47 8c 3d cf 70 32 bf e1 25 cc 3e
       0.7219957 0.06849609 -0.6970338 0.3987265
0000d0 bc 3b 2f bd 7e 8a 00 3e 15 41 56 be 2f a6 8f be
       -0.042781577 0.1255283 -0.20923264 -0.28056476
0000e0 d1 8f c9 3e d2 4d 55 3d ea 3a 9d be 95 f7 9a 3e
       0.39367536 0.05207617 -0.3070901 0.30267015
0000f0 28 0d 14 bf 5e ea 46 3f 70 32 76 3e c8 f7 a8 bd
       -0.57832575 0.77701366 0.24042678 -0.082503855
000100 08 f8 a5 be 8c d9 23 3f 44 53 5e 3d 67 4f 07 bf
       -0.32415795 0.64003825 0.054278627 -0.52855533
000110 fc c8 f0 3e 2d 16 33 3e 97 e7 7c 3e c1 e8 fe 3e
       0.4702834 0.17488928 0.2469772 0.49786952
000120 58 f1 37 bf dd af e9 bd 74 7d 41 3f 81 13 01 be
       -0.71852636 -0.114104964 0.7558205 -0.12605096
000130 51 08 ed be 5c 28 62 bf d5 d7 0e bf e0 a6 bf 3e
       -0.46295407 -0.88342834 -0.55798084 0.37432003
000140 00 43 51 3f ec ff 0d be 1e 74 df 3d 0d 8e 6a 3e
       0.8174286 -0.13867158 0.109108195 0.2290575
000150 b1 d8 5a bf 02 e2 65 3e 65 53 bc bc 5b 36 a6 bd
       -0.85486895 0.22449496 -0.022988984 -0.08115836
000160 6a 0f 01 3f 15 79 38 3f 7a af 25 bf 31 33 e4 be
       0.50414145 0.72059757 -0.6472088 -0.44570306
000170 32 af 33 be eb 97 b3 be 4a 2d 41 bd 80 56 b0 bc
       -0.175473 -0.35076842 -0.04716233 -0.021525621
000180 4a 6e 5e be 24 07 1f 3f 6d 48 29 bf 2f 4a 8e be
       -0.2172176 0.6212027 -0.6612614 -0.27790973
000190 67 17 24 bd e1 ff b5 3d d0 4c 1b be 0f 94 69 bd
       -0.04006138 0.08886696 -0.1516602 -0.057025965
0001a0 73 a9 20 bd a5 44 9d be 08 c0 5e bf ab 4e 96 3e
       -0.0392241 -0.30716434 -0.87011766 0.29356894
0001b0 2a 6d 04 be 1d aa 02 bf 7d ef 19 3f fa 93 f9 bd
       -0.12932268 -0.5104082 0.60131055 -0.121864274
0001c0 5b f7 cd be 85 47 93 be 7d f3 e2 be 29 10 7d 3e
       -0.4022778 -0.28765503 -0.44326392 0.24713196
0001d0 58 dc 2d 3f dc 9f a0 be c7 f7 37 be fd eb 88 3c
       0.6791434 -0.31371963 -0.17965613 0.01671409
0001e0 d7 12 92 bd 7b 3e 40 bd c6 84 24 3e f2 c3 47 bd
       -0.071325 -0.046934586 0.16066274 -0.048770852
0001f0 f5 8b 8f 3e 34 49 20 3e 1d d3 da be d8 f2 a8 3e
       0.28036466 0.15652925 -0.42739192 0.32997775
000200 89 ed da be b6 22 e5 3e 45 1f 8b 3e 3e d6 c8 bd
       -0.4275935 0.44753045 0.27172294 -0.098064885
000210 37 53 27 be 00 65 ad 3e d1 8b c5 3d 3f 13 22 3f
       -0.16340338 0.3386612 0.096458085 0.6331062
000220 cc 03 3a 3e 7b ee 79 be 95 fb 21 bd 06 9d ac 3d
       0.18165511 -0.2440738 -0.039546568 0.08428387
000230 9d df 37 3f 00 ba 3c 3e bf 8a b0 3e 6c 4c 32 bc
       0.7182558 0.18430328 0.34480855 -0.010882478
000240 26 b8 e1 be 23 9b 5e be 9e 33 1c bf 45 13 57 3f
       -0.44085807 -0.21738867 -0.6101626 0.8401378
000250 ad 65 04 be ee 2e f4 3c fc cf f2 be 9f 72 fd 3e
       -0.12929411 0.029807534 -0.47424304 0.4950151
000260 37 1c 01 3e cf 0a 4c 3e 2c f5 bb bd e9 14 fd be
       0.1260842 0.19925998 -0.09177622 -0.49430016
000270 b7 3e b5 be 24 5f d0 be 11 70 9b bc bc b3 44 3d
       -0.3539941 -0.40697587 -0.018974336 0.04802297
000280 d2 bf 02 be 8c ca d7 3e 80 41 34 be 7e 48 ca be
       -0.12768486 0.42146719 -0.17603111 -0.39508432
000290 d0 60 bb 3e 60 9f 6f be 32 92 33 3d 5b e7 5f 3d
       0.365973 -0.2340064 0.043840595 0.054663997
0002a0 70 a6 97 3e 5a 1a f0 be bd f4 6d bf 9b 3e 91 3b
       0.2961917 -0.46895105 -0.92951566 0.004432512
0002b0 2b 1b 62 3e 97 8b b2 be 5e 41 7c be 98 ba 8e 3e
       0.22080676 -0.34872124 -0.2463431 0.27876735
0002c0 d9 60 28 bf fc f0 17 be c5 55 8c be 20 8f e5 3e
       -0.6577278 -0.14838022 -0.27409187 0.44835758
0002d0 ff ae 1a 3e 49 43 70 3c 3f c0 49 3e 7d c9 bf be
       0.15105818 0.0146644795 0.19702242 -0.3745841
0002e0 53 27 0b bf f7 d1 4e 3e 8b 00 8e 3e 5a a8 25 3c
       -0.5435688 0.20197283 0.2773479 0.010110939
0002f0 8e f6 14 3f bb 48 a0 bd c1 9d 46 3d 85 19 0a bf
       0.5818871 -0.07826372 0.04849029 -0.5394519
000300 f6 64 82 be ba 6a 57 be 0a 66 13 be 5c 5e f3 be
       -0.25467652 -0.21036807 -0.14394394 -0.47532928
000310 26 44 ec bb 7d 18 74 3d fb 4b c3 3e 83 dd 5b 3e
       -0.0072102724 0.059593666 0.38143906 0.21471219
000320 55 4a 19 be 04 15 07 be 4a 71 45 be 86 ac 95 3d
       -0.14969762 -0.1319161 -0.19281498 0.07308297
000330 ba 0c 1e 3e fe a3 8f bd 8e 6c 82 3e 95 aa a5 be
       0.15434542 -0.07013701 0.25473446 -0.32356706
000340 11 81 e8 be 98 cf 09 3e 68 01 3e bf 4f 21 bb 3d
       -0.4541097 0.13458097 -0.74220896 0.091372125
000350 5c 4c 28 3e 84 13 b7 3e 8e 62 8e be 68 56 65 3e
       0.16435379 0.35757077 -0.27809566 0.22396243
000360 80 ea ea 3e 49 d5 43 3e 4f 7f 56 3f 7f 17 11 3e
       0.45882034 0.1912433 0.8378801 0.1416912
000370 70 6b 55 bf 5b 43 ad be 38 7d 24 3d 95 68 73 be
       -0.8336706 -0.3384045 0.04015848 -0.23770364
000380 f2 b2 3b be 13 f8 97 3e 04 ec 3b 3e e4 11 65 bc
       -0.18329981 0.29681453 0.18351752 -0.013981316
000390 6e 70 6f bb 7f 2f 28 be c8 08 aa 3e 13 79 6f bf
       -0.003653552 -0.16424368 0.33209825 -0.9354412
0003a0 76 b9 b5 3e b6 61 18 bc 80 28 a1 be 79 42 46 3f
       0.35493058 -0.00930064 -0.31476212 0.7744518
0003b0 18 28 df be 1d 8f aa be a3 b5 0e 3e 3b eb 44 bf
       -0.43585277 -0.33312312 0.13936476 -0.76921433
0003c0 6b 5b a4 3e 4b 84 0e 3c 7e 74 db 3e 6b 8f 9e be
       0.32100996 0.008698533 0.42862314 -0.30968794
0003d0 6d 9b 25 3f 32 20 86 3e a3 be e3 bd e0 c8 a4 be
       0.64690286 0.26196438 -0.111203454 -0.32184505
0003e0 7a a2 48 be c0 b4 10 bf fc ef d3 3e 3c 49 06 be
       -0.1959323 -0.565258 0.4139403 -0.13113874
0003f0 3d 6e 80 bd 57 40 ec bc 1c ee 7f be 3e 22 93 be
       -0.06271026 -0.028839273 -0.24993175 -0.28737062

network_body.linear_encoder.seq_layers.0.bias f4 [128]
000000 00 00 00 00 00 00 00 00 00 00 00 00 00 00 00 00
       0.0 0.0 0.0 0.0
000010 00 00 00 00 00 00 00 00 00 00 00 00 00 00 00 00
       0.0 0.0 0.0 0.0
000020 00 00 00 00 00 00 00 00 00 00 00 00 00 00 00 00
       0.0 0.0 0.0 0.0
000030 00 00 00 00 00 00 00 00 00 00 00 00 00 00 00 00
       0.0 0.0 0.0 0.0
000040 00 00 00 00 00 00 00 00 00 00 00 00 00 00 00 00
       0.0 0.0 0.0 0.0
000050 00 00 00 00 00 00 00 00 00 00 00 00 00 00 00 00
       0.0 0.0 0.0 0.0
000060 00 00 00 00 00 00 00 00 00 00 00 00 00 00 00 00
       0.0 0.0 0.0 0.0
000070 00 00 00 00 00 00 00 00 00 00 00 00 00 00 00 00
       0.0 0.0 0.0 0.0
000080 00 00 00 00 00 00 00 00 00 00 00 00 00 00 00 00
       0.0 0.0 0.0 0.0
000090 00 00 00 00 00 00 00 00 00 00 00 00 00 00 00 00
       0.0 0.0 0.0 0.0
0000a0 00 00 00 00 00 00 00 00 00 00 00 00 00 00 00 00
       0.0 0.0 0.0 0.0
0000b0 00 00 00 00 00 00 00 00 00 00 00 00 00 00 00 00
       0.0 0.0 0.0 0.0
0000c0 00 00 00 00 00 00 00 00 00 00 00 00 00 00 00 00
       0.0 0.0 0.0 0.0
0000d0 00 00 00 00 00 00 00 00 00 00 00 00 00 00 00 00
       0.0 0.0 0.0 0.0
0000e0 00 00 00 00 00 00 00 00 00 00 00 00 00 00 00 00
       0.0 0.0 0.0 0.0
0000f0 00 00 00 00 00 00 00 00 00 00 00 00 00 00 00 00
       0.0 0.0 0.0 0.0
000100 00 00 00 00 00 00 00 00 00 00 00 00 00 00 00 00
       0.0 0.0 0.0 0.0
000110 00 00 00 00 00 00 00 00 00 00 00 00 00 00 00 00
       0.0 0.0 0.0 0.0
000120 00 00 00 00 00 00 00 00 00 00 00 00 00 00 00 00
       0.0 0.0 0.0 0.0
000130 00 00 00 00 00 00 00 00 00 00 00 00 00 00 00 00
       0.0 0.0 0.0 0.0
000140 00 00 00 00 00 00 00 00 00 00 00 00 00 00 00 00
       0.0 0.0 0.0 0.0
000150 00 00 00 00 00 00 00 00 00 00 00 00 00 00 00 00
       0.0 0.0 0.0 0.0
000160 00 00 00 00 00 00 00 00 00 00 00 00 00 00 00 00
       0.0 0.0 0.0 0.0
000170 00 00 00 00 00 00 00 00 00 00 00 00 00 00 00 00
       0.0 0.0 0.0 0.0
000180 00 00 00 00 00 00 00 00 00 00 00 00 00 00 00 00
       0.0 0.0 0.0 0.0
000190 00 00 00 00 00 00 00 00 00 00 00 00 00 00 00 00
       0.0 0.0 0.0 0.0
0001a0 00 00 00 00 00 00 00 00 00 00 00 00 00 00 00 00
       0.0 0.0 0.0 0.0
0001b0 00 00 00 00 00 00 00 00 00 00 00 00 00 00 00 00
       0.0 0.0 0.0 0.0
0001c0 00 00 00 00 00 00 00 00 00 00 00 00 00 00 00 00
       0.0 0.0 0.0 0.0
0001d0 00 00 00 00 00 00 00 00 00 00 00 00 00 00 00 00
       0.0 0.0 0.0 0.0
0001e0 00 00 00 00 00 00 00 00 00 00 00 00 00 00 00 00
       0.0 0.0 0.0 0.0
0001f0 00 00 00 00 00 00 00 00 00 00 00 00 00 00 00 00
       0.0 0.0 0.0 0.0

network_body.linear_encoder.seq_layers.2.weight f4 [128, 128]
000000 75 ee 87 bd 58 64 ab 3c 57 5b 8f bc f7 85 25 3d
       -0.06637279 0.020921871 -0.017499609 0.040410962
000010 2e fc c6 3d 97 6f 88 bc ef b7 45 be ad 26 89 be
       0.09716068 -0.016654773 -0.19308446 -0.2678732
000020 84 1a c8 bd 44 ae 7e bd 14 fc f5 bd 6f 0e 76 3d
       -0.097706825 -0.06217791 -0.12010971 0.06007236
000030 f7 58 4d bd 04 15 fa bd aa 81 86 3d 72 b5 4d be
       -0.05013367 -0.1221104 0.065677 -0.20088747
000040 bd 82 3f be bb 0c fe bd 4c 6c 19 be 69 47 95 3b
       -0.18702216 -0.12404772 -0.14982718 0.004555632
000050 e3 13 8e 3c cd 51 01 3d b4 34 b9 bd fb ce fe bc
       0.017343467 0.031572152 -0.090432554 -0.031104555
000060 2d 8e 1c 3c 32 b8 f6 3d a5 ae 27 be 16 e5 27 3b
       0.009555382 0.12046851 -0.16375215 0.0025618724
000070 56 d9 a3 bd c6 bf 5b bd 44 d8 67 bd 01 af de bd
       -0.08000438 -0.053649686 -0.05660273 -0.10873223
000080 1b d8 a9 bb ae 70 60 bc c1 df 11 be 28 c7 3b 3c
       -0.0051832325 -0.01369874 -0.14245512 0.011461057
000090 87 39 aa 3d a1 70 b1 bd 85 62 c8 3c 0a ae be 3d
       0.08311754 -0.086640604 0.02446104 0.09310539
0000a0 5d f3 59 3c 83 db 82 3d 1d 21 39 3e c8 3b dc 3d
       0.013302651 0.06389525 0.18079038 0.1075359
0000b0 0b 9e 24 3d 3e db c6 3d 3b c8 89 bd 0c a8 37 bb
       0.040189784 0.09709786 -0.06727644 -0.0028023748
0000c0 60 39 ab bd eb fa de 3c a4 f1 bd 3c 90 39 83 3d
       -0.08360553 0.027219256 0.023186512 0.064074636
0000d0 77 dd e4 3c 4b 2a e1 3d 35 6a 04 be d5 f5 d6 bc
       0.027937634 0.10994395 -0.1293114 -0.026240269
0000e0 70 ac 9c bd df 85 06 3d 6b d0 99 bc a2 9a cf 3d
       -0.07650077 0.032842513 -0.01877614 0.10136916
0000f0 28 03 1b 3d bf a7 fb bc b3 98 ec bd e5 de 09 3e
       0.037844807 -0.030719636 -0.115525626 0.13463934
000100 65 1b f3 3d a3 4f ce 3c 69 cf 17 3c 19 ac d0 3b
       0.118704595 0.025184458 0.009265759 0.006368172
000110 db aa 04 3d af e0 bf bb ec 58 ef bb 41 06 2b 3d
       0.032389503 -0.005855642 -0.0073043015 0.04175401
000120 b8 d7 63 3d aa 0a e4 bd ad 06 01 3e 77 49 70 bd
       0.055625647 -0.111348465 0.12600203 -0.05866381
000130 cb a6 cc 3d 72 09 ea 3d ef 3c e0 3c 5b 6c 27 bb
       0.09992751 0.11427583 0.027372805 -0.0025546763
000140 f8 cd 02 3d b5 5f df bd 5c 07 54 bd 7b 13 d2 3c
       0.03193471 -0.109069265 -0.05176483 0.025644055
000150 0b c9 2f 3d 30 99 88 3d c8 1d 0e 3e fd 2d aa 3d
       0.04291634 0.06669843 0.13878548 0.08309553
000160 3b f9 d0 3d e9 5f 0e 3d 76 29 e9 bc 1f d1 08 3d
       0.10203787 0.034759436 -0.028462153 0.03340256
000170 55 9d 02 39 7f b9 aa 3d 42 7d f0 3b c2 c4 38 bd
       0.00012456377 0.08336162 0.0073391506 -0.045109518
000180 82 02 00 be a1 8b a7 3c 55 6d 33 3e a4 bf dd 3c
       -0.12500957 0.020452322 0.17522176 0.02706892
000190 4c da 0d 3d 01 c6 50 3d 8f d1 7c 3c ee 43 f9 3d
       0.034632012 0.05097008 0.015430822 0.1217116
0001a0 ae c5 63 3b 31 6d ae 3d 33 da 23 be 48 a6 8c 3d
       0.0034755277 0.0851692 -0.16001205 0.06867653
0001b0 26 50 7c 3b 9c 6f 1a 3c e2 5a d0 bd f7 61 27 3d
       0.003849992 0.009426024 -0.101735845 0.04086491
0001c0 2d e3 aa 3c 5c 8d 98 bd 99 ab e7 bd 24 0a 84 bd
       0.020860279 -0.07448837 -0.113120265 -0.06447247
0001d0 4e 62 89 bc d1 ec 19 bc d6 5a d1 3b 88 57 26 be
       -0.016770508 -0.00939484 0.0063890023 -0.16244328
0001e0 ec db 08 bd 32 52 4d 3d f2 a1 09 3d 2d e0 30 bd
       -0.03341286 0.050127216 0.03360171 -0.04318254
0001f0 2d a8 0a be 1d ee bc 3d b1 12 45 bd df 50 02 3c
       -0.13540716 0.09225104 -0.04811353 0.0079538515
000200 2f 70 da 3d 76 9a 21 bd 86 e6 12 be 15 ee 62 be
       0.106659286 -0.039453946 -0.1434575 -0.22161134
000210 59 99 6b 3d 31 51 98 3d c3 84 10 3d a3 20 c2 bd
       0.05751929 0.07437361 0.03528286 -0.09478881
000220 97 c5 9e bd 70 73 7c 3d 06 d1 30 3d e5 ce 9a bc
       -0.07752531 0.061633527 0.04316809 -0.018897483
000230 65 d2 cf 3d db e6 3b 3d 40 b8 04 3d 4a 6b 5a 3e
       0.101475514 0.045874458 0.032402277 0.2132999
000240 a7 37 01 3c cf 12 a2 3c 90 2d 37 be 8b c8 e5 bd
       0.007886804 0.01978436 -0.17888474 -0.11219891
000250 8b 2b bc bd 1c 94 5a 3c 23 da 7a 3d d1 64 6b bd
       -0.09187993 0.013340976 0.061243188 -0.057469193
000260 58 41 f8 3d 37 4c e1 3c 91 88 0f 3e 97 52 a9 3b
       0.12121838 0.027502162 0.1401694 0.005167316
000270 96 3a 4c 3d 6a 88 fc bd 56 39 f1 3d 5b d5 32 bd
       0.04986056 -0.123307064 0.11778514 -0.043660503
000280 cf fc be bb 8d 76 20 ba 2e f9 2f bd 44 1d 7b 3c
       -0.005828477 -0.0006121181 -0.042962246 0.015326802
000290 5a f8 87 3e 11 a0 47 3e cc 59 4f 3c a9 30 e9 3c
       0.26556665 0.19494654 0.012655687 0.028465586
0002a0 5b fb 99 bd cd de ac bd eb ad ae 3d 14 45 7d 3d
       -0.075186454 -0.084409334 0.08529266 0.061833456
0002b0 83 00 d1 3c b6 66 df bd b4 20 09 bd f6 97 2b 3d
       0.02551294 -0.109082624 -0.033478454 0.041892968
0002c0 b2 7f 75 3c a5 df 78 3b 75 7c 34 bd ad cb 36 3c
       0.014984058 0.00379751 -0.044064004 0.0111569585
0002d0 cb f0 1f 3e 34 78 b9 bd 6c 5f 4a bd b7 bb 32 bb
       0.15619199 -0.0905613 -0.049407408 -0.0027272531
0002e0 70 23 25 be a4 2f b1 ba 63 5f 4c bd 3d 7a 7d bd
       -0.161268 -0.0013518226 -0.049895655 -0.061884154
0002f0 14 19 0a 3e ca 4d 9b bd 19 ce 58 bd a8 ee 7d bd
       0.13486129 -0.075831965 -0.052930925 -0.06199518
000300 28 28 d0 bd 25 cd 4a bd ba 87 7b 3d 26 08 08 be
       -0.10163909 -0.049512047 0.061408736 -0.13284358
000310 12 98 ec bd ee e7 b3 3d a8 54 6e bd f5 e4 9f 3d
       -0.115524426 0.087844715 -0.058186203 0.07807342
000320 20 3e 58 3c e3 cf 3d bc 95 02 9a 3c 5a 8e 90 3b
       0.0131984055 -0.011585209 0.01880006 0.004411501
000330 c6 08 11 3e bf 1b 00 3e ae 70 f3 3c 6e c5 fc 3d
       0.14163503 0.12510584 0.029716816 0.12342344
000340 26 21 da bd 91 7b 25 3e 27 81 c9 39 f5 89 df 3c
       -0.10650854 0.16160418 0.00038433934 0.027287463
000350 ed d2 ef bd fa 36 8f 3d dd 5f f0 bc a7 3b 8f 3d
       -0.11710153 0.06992908 -0.029342586 0.069938
000360 44 05 f3 3c 16 32 93 bb f9 83 5a 3d 2b cf 11 be
       0.029665597 -0.0044920547 0.053348515 -0.14239185
000370 dc df b2 bd 5a 0a c8 ba 96 3d ff bd ed 1a 9e bd
       -0.08734104 -0.0015261874 -0.124629185 -0.077199794
000380 05 1c 1a 3e b8 0e 23 3e af 47 36 3d ba ec 80 3b
       0.15049751 0.15923584 0.044501957 0.00393447
000390 dd ea 40 bc 1c 02 a6 3d 10 3f 1c bd 06 71 e6 bd
       -0.011774746 0.08105871 -0.03814608 -0.11252026
0003a0 9a 2b 8a 3d 2d 3c 32 3d b6 c1 32 3e e0 58 e6 bd
       0.067465976 0.04351442 0.17456707 -0.1124742
0003b0 66 4a 8d bd 17 3e aa 3d 2d 1c f5 bb 4f d3 95 bd
       -0.06898956 0.08312624 -0.0074801655 -0.073156945
0003c0 a8 82 c3 bd 17 9d fb bd 28 ad 00 3d 49 ff be 3d
       -0.09546405 -0.12285822 0.031415135 0.093260355
0003d0 8b f1 e4 3d 5f a2 af 3d fe 86 39 3d fa 0a 62 3d
       0.11178883 0.08575892 0.045294754 0.05518625
0003e0 1e 60 bd 3b 50 44 9b bb 56 a7 0d 3e 9d 3a 34 bd
       0.0057792803 -0.004738368 0.13833365 -0.04400121
0003f0 3c 78 ac bc 7f 08 24 bd 15 31 61 be 6f f0 40 be
       -0.021053426 -0.040047165 -0.2199138 -0.18841718

network_body.linear_encoder.seq_layers.2.bias f4 [128]
000000 00 00 00 00 00 00 00 00 00 00 00 00 00 00 00 00
       0.0 0.0 0.0 0.0
000010 00 00 00 00 00 00 00 00 00 00 00 00 00 00 00 00
       0.0 0.0 0.0 0.0
000020 00 00 00 00 00 00 00 00 00 00 00 00 00 00 00 00
       0.0 0.0 0.0 0.0
000030 00 00 00 00 00 00 00 00 00 00 00 00 00 00 00 00
       0.0 0.0 0.0 0.0
000040 00 00 00 00 00 00 00 00 00 00 00 00 00 00 00 00
       0.0 0.0 0.0 0.0
000050 00 00 00 00 00 00 00 00 00 00 00 00 00 00 00 00
       0.0 0.0 0.0 0.0
000060 00 00 00 00 00 00 00 00 00 00 00 00 00 00 00 00
       0.0 0.0 0.0 0.0
000070 00 00 00 00 00 00 00 00 00 00 00 00 00 00 00 00
       0.0 0.0 0.0 0.0
000080 00 00 00 00 00 00 00 00 00 00 00 00 00 00 00 00
       0.0 0.0 0.0 0.0
000090 00 00 00 00 00 00 00 00 00 00 00 00 00 00 00 00
       0.0 0.0 0.0 0.0
0000a0 00 00 00 00 00 00 00 00 00 00 00 00 00 00 00 00
       0.0 0.0 0.0 0.0
0000b0 00 00 00 00 00 00 00 00 00 00 00 00 00 00 00 00
       0.0 0.0 0.0 0.0
0000c0 00 00 00 00 00 00 00 00 00 00 00 00 00 00 00 00
       0.0 0.0 0.0 0.0
0000d0 00 00 00 00 00 00 00 00 00 00 00 00 00 00 00 00
       0.0 0.0 0.0 0.0
0000e0 00 00 00 00 00 00 00 00 00 00 00 00 00 00 00 00
       0.0 0.0 0.0 0.0
0000f0 00 00 00 00 00 00 00 00 00 00 00 00 00 00 00 00
       0.0 0.0 0.0 0.0
000100 00 00 00 00 00 00 00 00 00 00 00 00 00 00 00 00
       0.0 0.0 0.0 0.0
000110 00 00 00 00 00 00 00 00 00 00 00 00 00 00 00 00
       0.0 0.0 0.0 0.0
000120 00 00 00 00 00 00 00 00 00 00 00 00 00 00 00 00
       0.0 0.0 0.0 0.0
000130 00 00 00 00 00 00 00 00 00 00 00 00 00 00 00 00
       0.0 0.0 0.0 0.0
000140 00 00 00 00 00 00 00 00 00 00 00 00 00 00 00 00
       0.0 0.0 0.0 0.0
000150 00 00 00 00 00 00 00 00 00 00 00 00 00 00 00 00
       0.0 0.0 0.0 0.0
000160 00 00 00 00 00 00 00 00 00 00 00 00 00 00 00 00
       0.0 0.0 0.0 0.0
000170 00 00 00 00 00 00 00 00 00 00 00 00 00 00 00 00
       0.0 0.0 0.0 0.0
000180 00 00 00 00 00 00 00 00 00 00 00 00 00 00 00 00
       0.0 0.0 0.0 0.0
000190 00 00 00 00 00 00 00 00 00 00 00 00 00 00 00 00
       0.0 0.0 0.0 0.0
0001a0 00 00 00 00 00 00 00 00 00 00 00 00 00 00 00 00
       0.0 0.0 0.0 0.0
0001b0 00 00 00 00 00 00 00 00 00 00 00 00 00 00 00 00
       0.0 0.0 0.0 0.0
0001c0 00 00 00 00 00 00 00 00 00 00 00 00 00 00 00 00
       0.0 0.0 0.0 0.0
0001d0 00 00 00 00 00 00 00 00 00 00 00 00 00 00 00 00
       0.0 0.0 0.0 0.0
0001e0 00 00 00 00 00 00 00 00 00 00 00 00 00 00 00 00
       0.0 0.0 0.0 0.0
0001f0 00 00 00 00 00 00 00 00 00 00 00 00 00 00 00 00
       0.0 0.0 0.0 0.0

action_model._discrete_distribution.branches.0.weight f4 [3, 128]
000000 b0 90 fb 3b 3b fe be 3b 15 84 86 bb a0 64 9f 3b
       0.00767716 0.0058286465 -0.004105101 0.0048642904
000010 8d aa 56 bc ad 20 f2 bb 12 56 e9 3b 4e 96 11 bc
       -0.013102186 -0.007389149 0.007120856 -0.008885933
000020 03 e1 41 3c c7 3f 3f bc 8b 5b 05 bb 55 08 6f bb
       0.011833432 -0.011672921 -0.0020348753 -0.0036473472
000030 2b 9a 80 bb 6a 11 83 bc f3 ce c1 bb df 30 15 3b
       -0.0039246283 -0.015999515 -0.005914563 0.0022764725
000040 e8 2f b4 ba aa 86 12 3c 8c 94 47 bc 27 21 a4 3c
       -0.0013747187 0.008943239 -0.012181412 0.02003534
000050 6c c7 01 3c a0 a3 e4 bb 65 e5 56 3b 5f 9a 53 3b
       0.007921081 -0.0069775134 0.0032790538 0.0032288057
000060 f0 87 8a bb cb ac 8c bb 1f 30 00 3c db 61 db 3a
       -0.004227631 -0.0042930595 0.007823973 0.0016737537
000070 f5 cb 9b 3b 03 e5 a5 b9 2b 18 48 bb ba b4 23 3c
       0.004754538 -0.0003164188 -0.0030531983 0.009991819
000080 a3 86 ea 3b e8 fe f4 b8 d7 65 d6 ba f8 88 e6 ba
       0.007157163 -0.00011682307 -0.0016357255 -0.0017588427
000090 4e 19 81 3b f0 63 93 bb 88 46 da ba 9c 73 b4 3c
       0.003939784 -0.0044979975 -0.00166531 0.022027783
0000a0 1e a1 97 ba ee 2d 21 3c e5 74 db 3a 16 1b 01 bc
       -0.0011568402 0.009837611 0.0016743211 -0.007879993
0000b0 9b 96 44 bb b7 37 0e bc 8d 51 38 3b ea 2d 04 3b
       -0.0029996994 -0.008680276 0.002812478 0.0020168968
0000c0 90 c5 f8 bb ba 12 fc bc e3 7b 87 bc b3 09 07 3c
       -0.0075919107 -0.030770648 -0.016538566 0.008242059
0000d0 6d 6c 58 3c cd 3b b8 3b 3f 66 03 3c bc 28 08 3c
       0.0132094445 0.005622363 0.008019983 0.008310493
0000e0 8b 17 f2 3b 5c 33 ad bb 47 50 f2 3b cb 4f d6 bb
       0.0073880604 -0.0052856635 0.0073948237 -0.006540274
0000f0 0b 4a 6e ba 7b bb 28 ba 1f c5 ef bb 3b 5d 1b bb
       -0.0009090013 -0.0006436628 -0.0073172 -0.0023706693
000100 e0 1b 13 3b e7 a8 69 bc b3 f0 3c bc c0 4b 59 bb
       0.0022447035 -0.014261461 -0.011531997 -0.0033156723
000110 23 07 13 3b 09 a6 22 3c d4 1b b2 ba e0 e7 57 3c
       0.0022434674 0.009927281 -0.0013588616 0.013177842
000120 d2 02 24 bb 1b b0 f0 3b fe 30 3f 3b 62 e8 8e 3b
       -0.0025026095 0.007345212 0.0029173489 0.0043611983
000130 4b 24 d0 bb f3 68 e7 3b 5b 88 12 3c 2a f1 96 3c
       -0.0063519827 0.0070620715 0.0089436425 0.018425543
000140 f2 84 9a bb 47 76 41 bc 20 63 5d 3c 0a d6 dc bb
       -0.0047155553 -0.011807985 0.013512403 -0.0067393826
000150 db 51 34 bc 5c 6b 20 ba ca cb 00 3c 43 a0 7e 3b
       -0.011005844 -0.00061195134 0.007861087 0.0038852848
000160 03 62 93 3b 9f 8a 55 bb 97 e9 27 bc 51 29 3d bc
       0.004497768 -0.0032583845 -0.010248563 -0.011545495
000170 1a a2 db 39 3b 98 44 bb 40 fa 6b bb 52 35 56 bc
       0.0004189171 -0.0029997963 -0.0036007315 -0.013074236
000180 4f a5 21 bb bd 15 9d 3b 09 20 87 ba 50 9c d8 bb
       -0.0024665182 0.004793851 -0.001030923 -0.006610431
000190 bd b2 4d 3b 62 be 32 ba 80 7b dd 39 94 b8 1e bc
       0.0031387054 -0.00068185304 0.0004224442 -0.009687562
0001a0 4d 27 5c 3b b3 80 ee bb 38 28 d3 3b 66 c0 c8 3b
       0.003359276 -0.0072785257 0.0064440034 0.0061264513
0001b0 d3 c2 5d 3b 58 1a 0a bc 30 72 a0 3b 8e d5 48 bc
       0.0033838048 -0.008429132 0.0048964247 -0.012257947
0001c0 cd 5e ac 3b d7 9b c3 3c a0 b0 9c 3c 40 c4 05 bb
       0.0052603246 0.023878021 0.01912719 -0.0020411164
0001d0 4b 1b 49 bc ef 5c 5d bc b2 fb cd 3b 0f 23 06 3b
       -0.012274574 -0.013510927 0.006286108 0.0020467674
0001e0 8f 16 99 39 fc e9 1a bb 5f b8 aa b8 02 47 5c bc
       0.00029199242 -0.0023638 -8.1405735e-05 -0.013444664
0001f0 bf 83 d2 bb b8 8e 9c ba ed 02 66 bc bf 08 ad bb
       -0.0064243968 -0.0011944389 -0.0140387835 -0.0052805836
000200 1d e9 70 bc 74 47 1e 3c d9 41 bd bb 07 91 30 3c
       -0.014704016 0.00966059 -0.005775672 0.010776765
000210 c2 8c 48 bc 87 78 f2 bb ca bd 96 bc 7e 88 8f 3a
       -0.0122405905 -0.007399622 -0.018401045 0.0010950712
000220 22 31 0c bc 03 fe da 3a 82 e1 df bb e5 41 e6 bb
       -0.008556636 0.0016707781 -0.0068323025 -0.007026898
000230 03 bf 71 3c 32 a8 59 3c 05 81 5f 3c 5a ff 1d 3b
       0.014755013 0.01328473 0.0136416005 0.00241085
000240 48 de ea 3b ef d9 22 3b 6e b3 25 3b a9 83 33 bc
       0.0071676113 0.0024849137 0.002528395 -0.010956683
000250 d2 89 6c 3c 8e f5 22 3c 8d cf d6 bb 83 6a b9 3b
       0.014437156 0.00994624 -0.0065555037 0.005658449
000260 65 83 14 b8 c8 25 d2 bb d6 bb af 3b fd 59 8c 3b
       -3.540832e-05 -0.0064131953 0.005362968 0.0042831884
000270 a0 f4 be 3b 6a 3c 16 3c 9f 86 6e 3b 08 21 e0 bb
       0.0058275014 0.009169677 0.0036396158 -0.006839875
000280 c7 87 cd ba 03 45 9a 37 07 11 db bb 2f 23 d0 bb
       -0.0015680724 1.8390367e-05 -0.0066853794 -0.0063518505
000290 da 32 fb bb ba 2e fc 3b df 32 41 3b ea d2 d2 3b
       -0.007665974 0.007696 0.0029479784 0.0064338343
0002a0 02 6f 05 bc 77 5a 21 bc 17 fb b2 3b bc 3e 8c bb
       -0.008144142 -0.009848229 0.005462061 -0.0042799395
0002b0 d9 5a b2 3b d7 f8 85 3b 64 21 89 ba 92 bb 5d bb
       0.005442959 0.004088502 -0.0010462222 -0.0033833724
0002c0 eb d1 eb 39 6c 64 04 ba f3 36 66 3b 9b 71 15 ba
       0.00044979094 -0.00050503644 0.0035127967 -0.00057008275
0002d0 3d ea 5c bb 5f 7a a5 3a 93 48 25 3b eb cc 00 3c
       -0.0033708953 0.001262497 0.002522026 0.007861356
0002e0 6a 1b 07 3c c4 ee 0e b9 13 f5 ad 3b 1e 39 bb 3b
       0.008246282 -0.00013631122 0.005308756 0.005713596
0002f0 91 27 b6 3b 95 b3 90 bb 55 f2 97 bc 26 77 1b 3b
       0.005558916 -0.004415939 -0.01854817 0.002372214
000300 2f b9 19 bc 20 c8 d4 bb df 17 c4 3a 9a 94 7d bb
       -0.00938253 -0.0064935833 0.0014960727 -0.003869331
000310 d1 6a 82 ba ef 50 0d bc 08 66 25 bb 34 88 a8 bb
       -0.0009950047 -0.008625253 -0.0025237817 -0.00514319
000320 f4 be 0d 3c 1a 99 5a bc 1b 45 02 3c 09 b3 cc 3b
       0.008651484 -0.013342166 0.007951046 0.0062469286
000330 a3 cf 90 3b 77 8d 10 3c 8f b8 a9 ba 1a d8 e8 39
       0.0044192835 0.00882279 -0.001294868 0.00044411496
000340 5e c2 44 3c da 2d 46 3c da c6 e9 3b 9d da 6c bc
       0.012009231 0.012095893 0.0071343007 -0.014456418
000350 6c ba 0e 3a d3 fb 88 3b 05 f6 80 bb 78 f0 6c 3a
       0.0005444649 0.0041804104 -0.003935578 0.0009038518
000360 bb 44 57 bb b7 3d f8 3b 02 bf d9 3b f2 6a 13 bb
       -0.0032847363 0.0075757164 0.0066450844 -0.0022494164
000370 f7 3e c0 bc ec 35 07 bc af fb 35 3c 64 27 b5 bb
       -0.023467524 -0.008252602 0.011107369 -0.0055283774
000380 95 2c 3c 3c f7 ba 9a 3b 6f ba 90 3a 98 e7 42 ba
       0.011485239 0.004721995 0.001104189 -0.0007435023
000390 93 19 21 bc 85 26 37 3b 61 c6 81 3b 68 15 b1 3b
       -0.0098327575 0.0027946543 0.003960416 0.005404163
0003a0 5f 33 2a 3b 05 27 3e 3c 4e 0b 9c 39 23 f9 41 3c
       0.002597056 0.011605983 0.0002976306 0.011839184
0003b0 ef e1 f4 3b ea 3d 76 3b 7b 54 88 3c c7 45 2e 3b
       0.0074732224 0.0037573525 0.016641846 0.0026591884
0003c0 eb a8 a0 ba d7 4b 31 ba ce d9 88 bb 02 7d 45 39
       -0.0012257373 -0.0006763315 -0.004176355 0.00018833953
0003d0 fc 73 b8 3b f4 0c 41 3c ca f5 87 3b 02 71 fb bb
       0.005629061 0.011782873 0.0041491734 -0.0076733837
0003e0 65 18 4f 3c 6f b0 2e bc e6 52 06 3b 7e 41 2b 3c
       0.012640093 -0.010662182 0.0020496189 0.010452626
0003f0 86 7e a8 3a c7 0b 70 bc 2a 0a df 3b 33 a3 ed bb
       0.001285509 -0.014651245 0.0068066316 -0.007252121

action_model._discrete_distribution.branches.0.bias f4 [3]
000000 00 00 00 00 00 00 00 00 00 00 00 00
       0.0 0.0 0.0

critic.network_body.vector_processors.0.normalizer.running_mean f4 [7]
000000 4c 1f 6d 3c d8 af f9 3e 00 00 00 00 a9 f0 08 3f
       0.014472794 0.4876697 0.0 0.5349222
000010 f6 f9 07 b9 69 e3 0f 39 f6 fa 02 3b
       -0.00012967721 0.0001372226 0.001998601

critic.network_body.vector_processors.0.normalizer.running_variance f4 [7]
000000 a7 4d 32 46 bd c7 69 47 00 00 80 3f f3 7f 8b 47
       11411.413 59847.74 1.0 71423.9
000010 1e ea ec 44 9c a6 01 40 38 38 e2 44
       1895.3162 2.025794 1809.7568

critic.network_body.linear_encoder.seq_layers.0.weight f4 [128, 7]
000000 ef 43 6a bd c5 88 9d be 3c 2f 9f 3d cf 66 97 3e
       -0.057193693 -0.3076841 0.07772681 0.29570624
000010 53 9c 39 bf 8f 78 1f 3e 3d 8e a8 bd 4d a1 06 3f
       -0.72504157 0.15573333 -0.08230255 0.52589875
000020 b4 a8 44 be 69 ba f4 3d 6c c7 9d be 3a 62 a9 3e
       -0.1920498 0.119496174 -0.3081621 0.33082753
000030 ce 95 06 3f c1 0f 89 bd 72 b3 05 bf 1b 62 d0 3e
       0.52572334 -0.06692458 -0.52226937 0.4069985
000040 0f c5 b1 bc 46 29 7c 3e 2a 22 18 be 26 3b 41 be
       -0.02170041 0.2462512 -0.14856783 -0.1887022
000050 71 9b f2 3d 6f f9 4b be a4 ec 3d 3e fd d4 91 3e
       0.11846054 -0.1991937 0.18547302 0.2848281
000060 d8 be 71 3d 67 df 4e 3f 1f cc 03 bf 8e 7f bc 3d
       0.059019893 0.80809635 -0.5148334 0.092040166
000070 bf ed 8c 3e f1 af b8 be 42 b3 ea 3e 2a 18 2b be
       0.27525136 -0.36071733 0.45839888 -0.16708437
000080 b9 9d 94 3e dd 09 46 3f 53 88 ad 3e 8e 21 c9 be
       0.29026583 0.773588 0.3389307 -0.39283413
000090 c4 78 03 3f 4f 17 1d 3f 96 ff 9a be e3 57 8d be
       0.5135615 0.6136369 -0.30273122 -0.27606115
0000a0 11 fc b8 be 74 5e f0 be 3c 29 21 3f 5f a3 cc bd
       -0.3612981 -0.46947062 0.62953544 -0.09992098
0000b0 33 17 65 3e 59 8a 59 be 25 c5 1a 3f a8 c1 c0 3d
       0.22372131 -0.21244182 0.6045707 0.09411937
0000c0 c9 9d 03 bf f0 6d b2 3e 20 da a3 bc 6c f9 4c 3e
       -0.51412636 0.348495 -0.020001471 0.20017022
0000d0 48 b5 06 bf 39 50 a5 be b6 fc 32 bf 51 77 12 be
       -0.52620363 -0.32287768 -0.69916856 -0.14303328
0000e0 4e 8e 6d 3e db 7b d4 be 4b 5b 5a 3e 4c 0c 41 3d
       0.23198816 -0.41500744 0.21323888 0.047130868
0000f0 94 a4 07 3f 66 29 1d 3f 81 0a 00 bd 17 d8 34 be
       0.529855 0.61391294 -0.031260017 -0.17660557
000100 fb 4f e3 bd e4 0f c3 be db 44 3c 3e d7 8a f9 be
       -0.110992394 -0.3809806 0.18385641 -0.4873874
000110 46 a4 d7 be 9f 54 85 3e 3b 41 d7 3c 25 8a 41 3e
       -0.42117518 0.26041123 0.026276221 0.18900354
000120 48 cf b7 3d 9d 2c ff 3d 72 70 1d be 76 b8 f7 be
       0.08975083 0.12459681 -0.15374926 -0.4838292
000130 28 21 1d be 11 af 3a 3e 1a c1 9a 3e 5b 3e 12 bd
       -0.1534468 0.18230845 0.3022545 -0.035703998
000140 e6 02 23 3e 17 c0 df 3e 48 16 2c 3e 4a 2c 5d be
       0.15919074 0.4370124 0.16805375 -0.21598926
000150 55 43 d0 3e 2a 54 dd bd a9 75 75 bd b7 0e 13 bf
       0.4067637 -0.10807069 -0.059926663 -0.5744433
000160 dd 3a 27 3f c2 97 17 be 3c 54 9a 3e 1e a2 24 be
       0.65324193 -0.14803985 0.3014239 -0.16077468
000170 07 ef 3e bf 5a 96 45 3f 6f 80 b1 be 70 64 bf be
       -0.74583477 0.77182543 -0.346683 -0.37381315
000180 f9 27 04 be 2d 62 41 3e c3 57 62 3f e6 8b c9 be
       -0.12905873 0.18885107 0.88415164 -0.39364547
000190 05 82 81 3d 09 aa d1 bd 4c 62 f1 bd 41 59 c0 3d
       0.063236274 -0.1023751 -0.11786327 0.09392024
0001a0 55 60 05 3f af cd 8f 3c 29 ec 21 3e 11 02 4f be
       0.52100116 0.017554132 0.15812744 -0.20215632
0001b0 0a 5e 09 bf 02 43 b7 be 0f ab 0c 3f b5 e3 41 3f
       -0.5365912 -0.3579331 0.54948515 0.7573808
0001c0 82 11 36 3e 3d f9 93 3e 91 bd d0 3d 7f 41 53 3e
       0.17780116 0.2890109 0.10192407 0.20630454
0001d0 5f 4c cd 3e 25 59 17 3e 79 62 5b bc c6 4a 7b bd
       0.4009733 0.147801 -0.013390177 -0.061350606
0001e0 9c 29 2c 3f 41 fc 0a be 94 cb f8 3d da 26 38 bf
       0.6725099 -0.1357279 0.121482044 -0.7193428
0001f0 f4 8f 7c be c6 11 af be 4d 21 4b bd 93 cb a2 be
       -0.24664289 -0.34193248 -0.049592305 -0.3179594
000200 8e a8 63 3f c4 11 09 3f b1 07 04 bf ee 11 e9 bd
       0.8892907 0.53542733 -0.51574236 -0.11380373
000210 24 00 98 3e 75 c2 b9 3e 43 9e da be 91 a5 3f bf
       0.29687607 0.3628117 -0.4269887 -0.7486201
000220 42 0b b9 be 21 38 71 be 10 b5 2b 3e 2f f9 c7 3e
       -0.36141402 -0.23556568 0.16768289 0.390573
000230 90 dc fb 3d 8e 0d 17 bd 10 17 16 3b 69 2c db be
       0.12297928 -0.03687816 0.002290193 -0.4280732
000240 fb e5 d8 3d d1 ee 34 3d 7c 2e 21 bd d4 5e a4 3e
       0.1059074 0.044173066 -0.03935097 0.32103598
000250 3e ae 82 be 2c d7 7a bf 7e 91 20 3d 44 57 36 3e
       -0.2552356 -0.97984576 0.039201252 0.17806727
000260 e3 37 12 3f 15 2f 03 3f 61 34 5c bf dc f5 17 bd
       0.57116526 0.51243716 -0.86017424 -0.037099704
000270 97 d4 23 bf dd 36 8a be 4f 8d f4 3e c5 b4 e3 be
       -0.6399626 -0.26994982 0.4776406 -0.44473854
000280 3a 82 80 be 27 1c 25 bf f2 e8 3d be fd 30 ad be
       -0.25099355 -0.6449608 -0.18545893 -0.33826438
000290 bb 57 9a 3e 05 16 f9 be cc 56 71 be ab 22 73 3f
       0.30145058 -0.48649612 -0.23568267 0.94974774
0002a0 7d 50 43 3f 29 5b d6 3e 8e 77 32 3f 65 a2 60 3e
       0.7629469 0.41866425 0.69713676 0.21936949
0002b0 0c 98 c8 3d a4 13 ce bd d8 74 64 3e 39 d0 2a 3e
       0.09794626 -0.1006234 0.22310197 0.16680993
0002c0 0c dc 29 3e d5 bc b4 3d 39 87 67 be b6 89 29 be
       0.16587847 0.08825079 -0.22610177 -0.16556439
0002d0 f4 c9 a8 be 2b e5 8c 3d fb c2 95 3e 75 98 81 be
       -0.32966578 0.06879648 0.2925032 -0.25311628
0002e0 4a 7d 5e 3e 5f b2 78 3e 80 cb d5 be cc 6b 52 3f
       0.21727481 0.24286793 -0.4175682 0.82195735
0002f0 67 52 63 bc 49 eb ab 3d d4 69 92 3d 6e 75 51 3f
       -0.013874627 0.083944865 0.07149091 0.8181981
000300 27 53 0a 3f 68 63 9c 3e 01 b5 dd 3e e2 a7 a3 be
       0.5403313 0.3054459 0.43302158 -0.31964022
000310 ef 90 2b bf 37 48 d9 3c d0 cc 83 3e 72 a7 eb 3e
       -0.67018026 0.026523693 0.25742197 0.46026188
000320 f3 af d1 3d f4 5b 4c 3f 7c ad 9a bd 1d a4 54 ba
       0.10238638 0.7982781 -0.07552621 -0.0008111613
000330 39 7b 44 be f8 18 30 be 83 3d 96 be c5 5e 0b 3e
       -0.1918763 -0.17197025 -0.29343805 0.1361037
000340 64 c9 f4 be 63 f0 ad 3d 5a 08 f6 3e 59 d5 4d 3e
       -0.478099 0.08493116 0.48053247 0.20100917
000350 67 fe bf bd 5a 3a c1 3e cf 7a ab bc a2 8a 3f 3e
       -0.09374695 0.3773983 -0.020932583 0.18705228
000360 f6 fa 9e be e2 32 00 3f d5 fb 07 bf 06 eb 72 be
       -0.31050843 0.5007764 -0.5311864 -0.23722467
000370 77 00 c9 be f0 41 14 bf db 19 2f be 73 1c 9a 3a
       -0.39258167 -0.5791311 -0.17099707 0.0011757746
000380 ea ec ca 3d b5 f0 f8 be 52 06 5e be 4b 22 a1 bd
       0.09908469 -0.48621145 -0.21682099 -0.07867869
000390 74 f0 2d bf e1 f0 a7 3b ce 93 74 bf ba 06 16 3d
       -0.6794503 0.0051251506 -0.9553803 0.03662751
0003a0 96 2d dc 3e b0 3d 02 bf 0d f2 e5 be ee c7 8d 3e
       0.4300353 -0.5087538 -0.44911233 0.27691597
0003b0 07 06 a5 be 5a 9c c1 3d 0a e8 41 bf d3 b0 ec bd
       -0.3223116 0.0945365 -0.7574469 -0.11557164
0003c0 6b 82 fe 3d cd 64 22 3e 11 50 3f 3c a8 62 eb be
       0.12427219 0.15858765 0.011676804 -0.45973706
0003d0 f6 32 1c 3f 62 6b d7 3e d9 54 82 3e 99 45 d3 3d
       0.6101526 0.42074114 0.2545536 0.10316009
0003e0 1a 5e e7 be 24 87 52 be a1 0e 1d 3f 4c 50 ab be
       -0.4518898 -0.20559365 0.61350447 -0.334597
0003f0 a0 79 3b bd ac 20 9b be a1 6a 6a 3e 03 8f 03 3e
       -0.045770288 -0.30298364 0.22892238 0.12847523

critic.network_body.linear_encoder.seq_layers.0.bias f4 [128]
000000 00 00 00 00 00 00 00 00 00 00 00 00 00 00 00 00
       0.0 0.0 0.0 0.0
000010 00 00 00 00 00 00 00 00 00 00 00 00 00 00 00 00
       0.0 0.0 0.0 0.0
000020 00 00 00 00 00 00 00 00 00 00 00 00 00 00 00 00
       0.0 0.0 0.0 0.0
000030 00 00 00 00 00 00 00 00 00 00 00 00 00 00 00 00
       0.0 0.0 0.0 0.0
000040 00 00 00 00 00 00 00 00 00 00 00 00 00 00 00 00
       0.0 0.0 0.0 0.0
000050 00 00 00 00 00 00 00 00 00 00 00 00 00 00 00 00
       0.0 0.0 0.0 0.0
000060 00 00 00 00 00 00 00 00 00 00 00 00 00 00 00 00
       0.0 0.0 0.0 0.0
000070 00 00 00 00 00 00 00 00 00 00 00 00 00 00 00 00
       0.0 0.0 0.0 0.0
000080 00 00 00 00 00 00 00 00 00 00 00 00 00 00 00 00
       0.0 0.0 0.0 0.0
000090 00 00 00 00 00 00 00 00 00 00 00 00 00 00 00 00
       0.0 0.0 0.0 0.0
0000a0 00 00 00 00 00 00 00 00 00 00 00 00 00 00 00 00
       0.0 0.0 0.0 0.0
0000b0 00 00 00 00 00 00 00 00 00 00 00 00 00 00 00 00
       0.0 0.0 0.0 0.0
0000c0 00 00 00 00 00 00 00 00 00 00 00 00 00 00 00 00
       0.0 0.0 0.0 0.0
0000d0 00 00 00 00 00 00 00 00 00 00 00 00 00 00 00 00
       0.0 0.0 0.0 0.0
0000e0 00 00 00 00 00 00 00 00 00 00 00 00 00 00 00 00
       0.0 0.0 0.0 0.0
0000f0 00 00 00 00 00 00 00 00 00 00 00 00 00 00 00 00
       0.0 0.0 0.0 0.0
000100 00 00 00 00 00 00 00 00 00 00 00 00 00 00 00 00
       0.0 0.0 0.0 0.0
000110 00 00 00 00 00 00 00 00 00 00 00 00 00 00 00 00
       0.0 0.0 0.0 0.0
000120 00 00 00 00 00 00 00 00 00 00 00 00 00 00 00 00
       0.0 0.0 0.0 0.0
000130 00 00 00 00 00 00 00 00 00 00 00 00 00 00 00 00
       0.0 0.0 0.0 0.0
000140 00 00 00 00 00 00 00 00 00 00 00 00 00 00 00 00
       0.0 0.0 0.0 0.0
000150 00 00 00 00 00 00 00 00 00 00 00 00 00 00 00 00
       0.0 0.0 0.0 0.0
000160 00 00 00 00 00 00 00 00 00 00 00 00 00 00 00 00
       0.0 0.0 0.0 0.0
000170 00 00 00 00 00 00 00 00 00 00 00 00 00 00 00 00
       0.0 0.0 0.0 0.0
000180 00 00 00 00 00 00 00 00 00 00 00 00 00 00 00 00
       0.0 0.0 0.0 0.0
000190 00 00 00 00 00 00 00 00 00 00 00 00 00 00 00 00
       0.0 0.0 0.0 0.0
0001a0 00 00 00 00 00 00 00 00 00 00 00 00 00 00 00 00
       0.0 0.0 0.0 0.0
0001b0 00 00 00 00 00 00 00 00 00 00 00 00 00 00 00 00
       0.0 0.0 0.0 0.0
0001c0 00 00 00 00 00 00 00 00 00 00 00 00 00 00 00 00
       0.0 0.0 0.0 0.0
0001d0 00 00 00 00 00 00 00 00 00 00 00 00 00 00 00 00
       0.0 0.0 0.0 0.0
0001e0 00 00 00 00 00 00 00 00 00 00 00 00 00 00 00 00
       0.0 0.0 0.0 0.0
0001f0 00 00 00 00 00 00 00 00 00 00 00 00 00 00 00 00
       0.0 0.0 0.0 0.0

critic.network_body.linear_encoder.seq_layers.2.weight f4 [128, 128]
000000 d4 a6 f3 3b 9d 69 9d 3a 78 bb c4 3d e0 6e 30 3c
       0.007435659 0.0012009625 0.09606069 0.010768622
000010 56 71 75 bd 29 07 e8 bb 71 cd 25 3c 6d b4 58 bd
       -0.05992254 -0.0070809317 0.010119782 -0.052906442
000020 a7 41 52 3b b5 91 36 be f4 19 d2 3c 50 db 22 3d
       0.003208259 -0.1782902 0.025647141 0.039759934
000030 23 d0 18 bd 34 b2 17 3c a7 29 f2 3d 7f 06 5b be
       -0.03730787 0.0092587955 0.11824351 -0.21389197
000040 e5 11 69 3c 23 7c 00 be 8f c4 df 3d 3e dc 14 3d
       0.014225458 -0.12547354 0.109261625 0.03634285
000050 88 02 a0 3b 9a 28 59 bc eb 74 8b bd 50 14 8b 3b
       0.0048831142 -0.013254309 -0.0680941 0.004244365
000060 2c ae 2a 3c 0a 98 e3 3c 83 6d 21 be 60 95 e9 bc
       0.010417502 0.027782459 -0.15764432 -0.02851361
000070 b3 11 0f 3d 7c ad 28 3c 1c 78 f6 3d cf cc 79 bd
       0.03492899 0.010295268 0.12034628 -0.060986336
000080 41 00 12 3e 9d 92 8a 3d 88 60 c8 bd 05 3a 42 3c
       0.1425791 0.067662455 -0.09784037 0.011854653
000090 18 4e bd bc c9 81 95 3d cc 1f 88 be 01 f7 51 bd
       -0.023108527 0.07300145 -0.2658676 -0.051260952
0000a0 71 a9 a8 bd 96 00 e0 3d ac 9a 34 bd 2b 1d 1d 3e
       -0.082354434 0.10937612 -0.04409282 0.15343158
0000b0 c5 d7 82 3d 36 52 36 be b4 3f 46 3e 19 5d b3 3c
       0.06388811 -0.17804798 0.19360238 0.021894978
0000c0 cc 3a 2e 3d 6a 07 47 3e 9b ad 3d bd 7f 53 05 be
       0.04253654 0.19436422 -0.04630814 -0.13020132
0000d0 9e 19 99 3d bd 92 a8 bc 9a a7 d2 3d 91 42 ac bc
       0.07475589 -0.020577783 0.10285874 -0.021027835
0000e0 d6 29 3b bc d5 58 e3 3d 5b f7 e0 3b c9 2a db 3b
       -0.011423549 0.11100928 0.0068654246 0.00668845
0000f0 75 f5 1f 3e 92 b3 aa 3c f6 52 d5 3d e8 2e 02 3d
       0.15620978 0.020837579 0.10416214 0.031783015
000100 4c c7 b3 bc 8b a2 a7 bd 6f 1e cc bc 81 6e 6b 3d
       -0.021945618 -0.081852995 -0.024916856 0.05747843
000110 2a 02 17 bd d0 1c 30 be dd bd 27 bd 84 0b 0a bd
       -0.0368673 -0.17198491 -0.040952552 -0.03370239
000120 be e0 93 3d cb 42 cb bd ea e0 ca 3c 14 32 dd bd
       0.072206005 -0.09924849 0.02476545 -0.10800567
000130 da 3b 0e be ef a3 3d 3e c1 01 f0 bd 5f 58 12 3e
       -0.13890019 0.18519567 -0.117190845 0.14291523
000140 e3 5f b8 3d 3c 2c a8 3e a8 92 35 3e 39 a9 95 3d
       0.09002664 0.32846248 0.17731726 0.07307667
000150 b4 2d 3a bd ab 3e 3a 3d 20 a0 8d 3d e5 5d 9e 3c
       -0.045453742 0.04546992 0.06915307 0.019331882
000160 3f 36 da bc 65 26 93 3d f5 a1 d9 3d 12 ff 6d 3e
       -0.026637195 0.071850576 0.10626594 0.23241833
000170 4c 40 cc bc ed 28 aa bd 7d 52 06 3e 83 6c 07 3e
       -0.024933003 -0.08308587 0.13117404 0.13224988
000180 45 0c d1 3d 6b 88 b6 3d 28 90 03 be cf 1f bb bd
       0.10207418 0.089127384 -0.1284796 -0.091369264
000190 d1 c8 5c 3d 79 a9 e2 bd 21 c8 d1 bb 96 e9 8f 3b
       0.05390245 -0.110674806 -0.006402031 0.0043918593
0001a0 4b a1 f3 bd 79 83 5c 3c f9 9e 53 3d 36 1e df 3d
       -0.118959986 0.01345908 0.05166528 0.10894434
0001b0 e0 ff 78 bd 9c 89 86 bd ff d0 a4 b9 4a d1 67 3e
       -0.060790896 -0.06569216 -0.00031436232 0.22638431
0001c0 67 66 ca 3d c2 06 4e 3d c0 45 28 bc 8a 0c a8 bc
       0.09882813 0.050299414 -0.010270536 -0.020513792
0001d0 b7 5c bc bd df cd c8 3d f0 37 7e 3d 4c 52 61 bb
       -0.091973715 0.09804892 0.062065065 -0.0034381328
0001e0 2e 53 d0 3b b1 3a ae 3d 99 b3 d3 bc 83 3d 8c 3d
       0.006357572 0.08507288 -0.025842475 0.0684767
0001f0 81 1a 99 3d 32 90 84 3d b3 c3 2d 3d c2 03 24 3d
       0.07475758 0.064728156 0.04242296 0.040042646
000200 6d 45 59 3e 2c d7 0f 3b 3b 27 e4 bc f7 9d 1f 3e
       0.2121789 0.002194832 -0.027850738 0.15587603
000210 70 36 d1 3b d3 46 6e bd 30 d4 12 3e 16 62 1c 3d
       0.0063846633 -0.058173012 0.14338756 0.03817948
000220 95 59 8e 3d dc 70 c3 3b 0a 56 ab bc ce 3a 01 bb
       0.0695068 0.0059643816 -0.02091505 -0.0019718888
000230 8c f0 41 bd 5a 74 86 bd 25 2b 04 bd 85 76 1c be
       -0.047348544 -0.06565161 -0.03226771 -0.15279587
000240 9d 5a 1b 3d 12 5c 45 be a3 9d 53 bd 3e 06 b3 3d
       0.037928212 -0.19273403 -0.051664006 0.08741425
000250 f2 7e 20 bd 8e 28 68 bc f7 35 80 bd ac 38 71 bb
       -0.039183564 -0.014169825 -0.06260293 -0.003680746
000260 66 08 c2 3d aa bf f2 bc 24 e7 86 bd c1 ea e0 ba
       0.09474258 -0.029632408 -0.06587055 -0.0017159806
000270 3d 2e 3e 3d 6e f8 f9 3c 3e b0 0d 3e a5 2d 53 bd
       0.046430815 0.030513968 0.13836762 -0.051557202
000280 ed 38 53 bd 01 96 46 bd 67 51 11 be 2d e8 2d 3d
       -0.05156796 -0.0484829 -0.14191209 0.04245775
000290 5c 36 26 bd 86 91 25 be 8d b4 8c bd 28 bf e2 bd
       -0.040579185 -0.16168794 -0.06870375 -0.110716164
0002a0 61 c2 9f bb ef 14 3c 3e e7 f9 0b be 85 ce 06 3c
       -0.0048754667 0.1836736 -0.13669549 0.008227949
0002b0 85 70 33 3b aa 46 ff 3d 30 a9 d0 3d 39 b5 39 3e
       0.00273803 0.1246465 0.1018852 0.18135537
0002c0 06 6e a6 bc 45 2e 42 3d 23 fd ad bc 0e 70 1c bd
       -0.020316135 0.047407407 -0.021238869 -0.0381928
0002d0 fb c1 00 3e bd 11 93 3d 88 42 b4 39 aa 28 b2 bb
       0.12573998 0.07181118 0.00034381845 -0.0054369764
0002e0 1c d6 d1 3d d3 dd aa 3d 6b 35 90 bc 6e 96 c9 3d
       0.10245916 0.08343091 -0.017603597 0.09843145
0002f0 c1 69 41 bc 87 63 1b 3d b2 36 36 3d 40 ad 2d 3e
       -0.011804999 0.037936714 0.044485755 0.16960621
000300 d1 f5 a9 3d 58 a5 86 3d 06 9b f3 bc 7e d7 c2 3b
       0.08298839 0.065745056 -0.029737007 0.005946099
000310 bd 00 00 3e af 48 81 bd 55 d4 d1 bd ed f0 b1 3d
       0.12500282 -0.063126914 -0.10245577 0.08688531
000320 f2 9d 97 3c 7e 38 08 be 2b e7 b9 3d d1 6a 2d be
       0.018507931 -0.133028 0.09077295 -0.16935278
000330 ae a6 5e 3b 8d 4d 15 bd b0 10 0f bc cb 9c 12 3d
       0.003397386 -0.03645091 -0.008732006 0.03579406
000340 99 f2 f8 3d ab d5 90 bd b2 11 bb 3b 7f ea 58 3d
       0.12155647 -0.07072004 0.0057088966 0.052958008
000350 9d d8 f2 bc 0f 95 23 be 6d d8 9d bd e1 94 9c bc
       -0.029644305 -0.1597483 -0.077072956 -0.01911396
000360 35 55 2c 3e f5 a7 c0 3d fa 3f 08 3e 68 27 73 bd
       0.16829379 0.09407035 0.13305655 -0.059363753
000370 f4 1c 95 bd 05 d3 be 3c 9e c8 95 bd a2 25 7a 3b
       -0.07280913 0.023293981 -0.07313655 0.0038169404
000380 54 7a 2e 3d c7 78 50 bd 37 75 0d 3a 54 f3 5c be
       0.04259713 -0.050896432 0.00053961895 -0.21577197
000390 44 46 10 3e 76 4a 57 3a 2e 1e 04 3e 96 91 d9 bc
       0.14089304 0.00082126947 0.12902138 -0.026558679
0003a0 17 1c 13 3d 42 b9 20 bc 28 ad 7e 3e 96 5d cf 3d
       0.03591546 -0.009809794 0.24870741 0.10125272
0003b0 ba 21 ce bd ee b7 c4 bd 32 ce 7f 3d 54 23 1f bd
       -0.100650266 -0.09605394 0.062452503 -0.03885205
0003c0 ba de 28 3e ce 73 ae bd 48 d8 e0 bc 6f d9 02 3e
       0.16491213 -0.08518182 -0.027446881 0.12778257
0003d0 9e 0f 1c bc 34 d8 2d bd ec 58 ea bd 38 c8 07 bc
       -0.009525208 -0.042442515 -0.11442742 -0.008287482
0003e0 dc ec 33 bd bf f0 04 3d dd 03 2d 3e f5 05 86 bd
       -0.04392706 0.032456156 0.16896005 -0.06544105
0003f0 5e c7 cc 3b 29 bd 43 be 1b 5f 13 3e 9e f6 1d 3d
       0.0062493524 -0.19115128 0.14391749 0.03856527

critic.network_body.linear_encoder.seq_layers.2.bias f4 [128]
000000 00 00 00 00 00 00 00 00 00 00 00 00 00 00 00 00
       0.0 0.0 0.0 0.0
000010 00 00 00 00 00 00 00 00 00 00 00 00 00 00 00 00
       0.0 0.0 0.0 0.0
000020 00 00 00 00 00 00 00 00 00 00 00 00 00 00 00 00
       0.0 0.0 0.0 0.0
000030 00 00 00 00 00 00 00 00 00 00 00 00 00 00 00 00
       0.0 0.0 0.0 0.0
000040 00 00 00 00 00 00 00 00 00 00 00 00 00 00 00 00
       0.0 0.0 0.0 0.0
000050 00 00 00 00 00 00 00 00 00 00 00 00 00 00 00 00
       0.0 0.0 0.0 0.0
000060 00 00 00 00 00 00 00 00 00 00 00 00 00 00 00 00
       0.0 0.0 0.0 0.0
000070 00 00 00 00 00 00 00 00 00 00 00 00 00 00 00 00
       0.0 0.0 0.0 0.0
000080 00 00 00 00 00 00 00 00 00 00 00 00 00 00 00 00
       0.0 0.0 0.0 0.0
000090 00 00 00 00 00 00 00 00 00 00 00 00 00 00 00 00
       0.0 0.0 0.0 0.0
0000a0 00 00 00 00 00 00 00 00 00 00 00 00 00 00 00 00
       0.0 0.0 0.0 0.0
0000b0 00 00 00 00 00 00 00 00 00 00 00 00 00 00 00 00
       0.0 0.0 0.0 0.0
0000c0 00 00 00 00 00 00 00 00 00 00 00 00 00 00 00 00
       0.0 0.0 0.0 0.0
0000d0 00 00 00 00 00 00 00 00 00 00 00 00 00 00 00 00
       0.0 0.0 0.0 0.0
0000e0 00 00 00 00 00 00 00 00 00 00 00 00 00 00 00 00
       0.0 0.0 0.0 0.0
0000f0 00 00 00 00 00 00 00 00 00 00 00 00 00 00 00 00
       0.0 0.0 0.0 0.0
000100 00 00 00 00 00 00 00 00 00 00 00 00 00 00 00 00
       0.0 0.0 0.0 0.0
000110 00 00 00 00 00 00 00 00 00 00 00 00 00 00 00 00
       0.0 0.0 0.0 0.0
000120 00 00 00 00 00 00 00 00 00 00 00 00 00 00 00 00
       0.0 0.0 0.0 0.0
000130 00 00 00 00 00 00 00 00 00 00 00 00 00 00 00 00
       0.0 0.0 0.0 0.0
000140 00 00 00 00 00 00 00 00 00 00 00 00 00 00 00 00
       0.0 0.0 0.0 0.0
000150 00 00 00 00 00 00 00 00 00 00 00 00 00 00 00 00
       0.0 0.0 0.0 0.0
000160 00 00 00 00 00 00 00 00 00 00 00 00 00 00 00 00
       0.0 0.0 0.0 0.0
000170 00 00 00 00 00 00 00 00 00 00 00 00 00 00 00 00
       0.0 0.0 0.0 0.0
000180 00 00 00 00 00 00 00 00 00 00 00 00 00 00 00 00
       0.0 0.0 0.0 0.0
000190 00 00 00 00 00 00 00 00 00 00 00 00 00 00 00 00
       0.0 0.0 0.0 0.0
0001a0 00 00 00 00 00 00 00 00 00 00 00 00 00 00 00 00
       0.0 0.0 0.0 0.0
0001b0 00 00 00 00 00 00 00 00 00 00 00 00 00 00 00 00
       0.0 0.0 0.0 0.0
0001c0 00 00 00 00 00 00 00 00 00 00 00 00 00 00 00 00
       0.0 0.0 0.0 0.0
0001d0 00 00 00 00 00 00 00 00 00 00 00 00 00 00 00 00
       0.0 0.0 0.0 0.0
0001e0 00 00 00 00 00 00 00 00 00 00 00 00 00 00 00 00
       0.0 0.0 0.0 0.0
0001f0 00 00 00 00 00 00 00 00 00 00 00 00 00 00 00 00
       0.0 0.0 0.0 0.0

critic.value_heads.value_heads.extrinsic.weight f4 [1, 128]
000000 a1 5f 6c bd 89 46 a2 3d 77 ab 4b bc 2e 2f 36 3e
       -0.057708386 0.0792361 -0.012431017 0.17791435
000010 e1 87 99 bd 03 b5 0f 3d b9 4c 06 3e 19 f6 af bd
       -0.0749662 0.035084736 0.13115205 -0.08591861
000020 91 9a 98 bd 38 a2 1c be f1 b3 f9 bc ca c7 3e be
       -0.07451356 -0.15296257 -0.03048131 -0.18630901
000030 78 6a 5e bd a6 78 16 be e8 aa cc 3d 84 c9 21 3e
       -0.054300755 -0.14694461 0.09993535 0.15799528
000040 66 a9 04 be fa 5c 53 3d 52 de 56 bd 6d df 1d bd
       -0.12955245 0.05160234 -0.052458115 -0.038543154
000050 0d d9 cb bd c3 d4 39 bd 66 12 b6 bd 08 d0 a6 3d
       -0.099535085 -0.04536892 -0.08890228 0.081451476
000060 06 c3 1b bd 97 df 50 bd 8f 15 13 bd 91 2f 1a 3e
       -0.038027786 -0.050994482 -0.03590923 0.15057208
000070 2c 5e 10 3d b7 37 29 3e 74 b4 79 bc 9a 39 5b 3e
       0.03524606 0.1652516 -0.015240777 0.21408692
000080 2b 9c 22 3d 89 95 d6 bd be 31 ea 3d 47 5d 42 bb
       0.039699715 -0.1047774 0.11435269 -0.0029657648
000090 59 ca 38 3e 97 c6 2f 3d 7f 3c be bd 25 20 fe 3d
       0.1804594 0.042914 -0.092888825 0.12408475
0000a0 1d 6a 96 3c 0e 90 cf 3d 15 e1 05 3e 65 b7 26 be
       0.018361146 0.10134898 0.13074143 -0.16280897
0000b0 d1 4c 2f be fd 11 93 3d 10 f3 6c bd 0f e4 26 3e
       -0.17119147 0.07181165 -0.05784899 0.16297935
0000c0 76 72 79 3d 5a 50 94 3d c3 9c 2d be a0 f5 cb bd
       0.060900174 0.07241888 -0.16954331 -0.099589586
0000d0 38 75 05 be 66 1e 48 be b1 46 9f bd eb 91 44 be
       -0.13032997 -0.19542846 -0.07777155 -0.19196288
0000e0 af 43 11 be b2 7d 46 3e b7 32 28 be 4a 8e ca bd
       -0.14185975 0.19383886 -0.16425596 -0.09890421
0000f0 82 14 34 3d 33 61 e7 bd ae 0f 3c be fc fc 61 3d
       0.04396487 -0.11297836 -0.18365356 0.055172905
000100 83 7f 55 3e 5e ba 34 3e 7f 0b 24 be 6a 98 54 bd
       0.20849423 0.17649218 -0.1602001 -0.051903166
000110 09 54 83 3d aa 55 05 3e 6a 4a 4e 3e f7 55 e4 bc
       0.06412513 0.1302096 0.20145574 -0.027873022
000120 81 52 15 3c 6c 8b a2 bd 79 d7 28 bc 9e fd 97 bd
       0.009113909 -0.07936749 -0.010305279 -0.074214205
000130 25 48 ac bd 24 31 cb 3d 0a d8 54 be eb a6 f4 bd
       -0.08412198 0.09921482 -0.20785537 -0.119458996
000140 2a 45 01 3e ca 70 43 3e da ff 07 be f4 38 8d bd
       0.1262404 0.19085994 -0.13281193 -0.068956286
000150 aa 32 51 bc 66 4f 3a be 4d 13 00 be b8 be f5 3d
       -0.012768427 -0.1819435 -0.12507363 0.11999267
000160 6e 4a 92 3c 8c 67 88 bd 96 c3 37 3d 49 99 73 bd
       0.017857756 -0.06660375 0.04486426 -0.059472356
000170 a6 7c b9 3c 3f 36 2a be ea 37 0c 3e 14 76 1c 3e
       0.022642445 -0.16622256 0.13693205 0.15279418
000180 50 82 88 bc 34 7d 46 3d 49 25 81 bc 84 c7 de 3c
       -0.0166637 0.048459247 -0.01576485 0.027194746
000190 a2 65 8e bd fe ca 30 be 76 b3 2a 3e a7 3a b9 3c
       -0.06952979 -0.17264935 0.16670021 0.022610975
0001a0 b5 c5 a0 bd 36 59 36 3e a4 ee 35 be 15 18 10 bd
       -0.078502096 0.17807469 -0.17766815 -0.035179216
0001b0 7f 99 46 3e 19 64 27 3e 16 7c e3 3d 82 5a 1b bd
       0.19394492 0.16346778 0.11107652 -0.03792811
0001c0 96 74 15 3e c1 cc c0 bd 7d dc f1 3d 2f 5c 1a 3d
       0.14595255 -0.09414054 0.11809633 0.03768557
0001d0 8e 21 fa 3d 06 c0 92 3d 6f 5f e8 bc 45 62 04 be
       0.12213431 0.07165532 -0.028365819 -0.12928112
0001e0 3e dc 27 be 39 93 b4 bd 0c 04 e2 3c c0 46 d0 bd
       -0.1639261 -0.08817143 0.02758982 -0.101697445
0001f0 a8 f0 32 be a0 07 bb 3d 05 ce d4 3d 54 ad 0c 3e
       -0.17474616 0.09132314 0.103908576 0.13737994
