ArmRobot/Assets/Config/results/in2Robot/AgenteRobot/AgenteRobot-19511.onnx (onnx, 147177 bytes, 22 tensors)

170 f4 [115]
000000 98 95 ea 3b 98 95 ea 3b 98 95 ea 3b 98 95 ea 3b
       0.0071589462 0.0071589462 0.0071589462 0.0071589462
000010 98 95 ea 3b 98 95 ea 3b c1 df 25 3c 98 95 ea 3b
       0.0071589462 0.0071589462 0.010124148 0.0071589462
000020 78 73 eb 3b 98 95 ea 3b 98 95 ea 3b 69 6b ec 3e
       0.007185396 0.0071589462 0.0071589462 0.46175697
000030 98 95 ea 3b 62 a3 e1 3e 72 06 30 3d 55 46 ed 3b
       0.0071589462 0.44069964 0.042974897 0.0072410502
000040 ab f7 34 3d 6f 61 c5 3e fb e7 c9 3e 46 fd cd 3e
       0.044181507 0.38550898 0.394348 0.40232295
000050 b3 30 c3 3e 70 36 03 3e 1f 91 12 3e bd 1b 07 3e
       0.38123092 0.12813735 0.14313172 0.13194175
000060 57 8b e5 3e d6 70 c6 3e de ab f6 3e f9 a2 c0 3e
       0.4483287 0.38757962 0.48178 0.37624338
000070 71 ee 32 3e 6a 55 57 3e 02 c3 3b 3e 4f f5 e5 3e
       0.1747377 0.21028677 0.18336108 0.44913718
000080 e2 34 d1 3e 10 b8 f6 3e e7 28 f2 3e 4e 8d 46 3e
       0.4086066 0.48187304 0.4729683 0.19389841
000090 c7 6f 71 3e 0e 19 51 3e 74 90 f4 3e 58 b8 e6 3e
       0.23577796 0.20419714 0.4776646 0.45062518
0000a0 97 84 fe 3e 62 0d ea 3e ae e1 50 3e 12 d8 7e 3e
       0.49710533 0.45713335 0.2039859 0.24887112
0000b0 3a f1 5b 3e b8 7c fa 3e 6b 91 f5 3e 38 a1 f8 3e
       0.2147874 0.48923278 0.47962508 0.485605
0000c0 36 5b ee 3e 2c 56 5f 3e 35 31 28 3f 15 aa 75 3e
       0.46553963 0.21810216 0.65700084 0.23990662
0000d0 80 5e 02 3f b6 b0 ef 3e 00 85 02 3f bc 31 e9 3e
       0.50925446 0.46814507 0.5098419 0.45545757
0000e0 67 74 75 3e 70 31 2a 3f 85 7f 87 3e 80 5e 02 3f
       0.23970185 0.66481686 0.26464477 0.50925446
0000f0 b6 b0 ef 3e 00 85 02 3f bc 31 e9 3e 05 d7 74 3e
       0.46814507 0.5098419 0.45545757 0.23910148
000100 f1 a7 29 3f b8 05 87 3e 80 5e 02 3f b6 b0 ef 3e
       0.66271883 0.2637155 0.50925446 0.46814507
000110 00 85 02 3f bc 31 e9 3e 67 72 2d 3f 59 8f 28 3f
       0.5098419 0.45545757 0.6775269 0.6584373
000120 b9 d9 36 3f b4 11 17 3f 46 b9 31 3f 1f ea 1a 3f
       0.7142597 0.5901139 0.6942333 0.6051349
000130 3b 32 33 3f e1 5e 27 3f 43 d2 2e 3f e3 bd 23 3f
       0.6999852 0.6537915 0.68289584 0.6396162
000140 99 d1 2e 3f 4d f3 26 3f 19 0d 2f 3f b2 ac 2a 3f
       0.6828857 0.65215 0.6837936 0.6666976
000150 c1 55 27 3f f9 88 29 3f 98 95 ea 3b eb e3 9a 3e
       0.65365225 0.6622463 0.0071589462 0.30252013
000160 7b e1 68 3e 92 a0 b6 3e b3 1e 3c 3e 0a 35 1e 3c
       0.22742264 0.3566938 0.18371086 0.0096562
000170 ab 76 a8 3d 94 bb 42 3e 3d 07 92 3e e7 c7 3c 3e
       0.08225759 0.19016868 0.28521147 0.18435632
000180 31 1a 22 3e d0 0e 91 3e fa 81 ab 3d 98 95 ea 3b
       0.15830304 0.28331614 0.083744004 0.0071589462
000190 98 95 ea 3b 98 95 ea 3b 98 95 ea 3b 98 95 ea 3b
       0.0071589462 0.0071589462 0.0071589462 0.0071589462
0001a0 98 95 ea 3b 98 95 ea 3b 98 95 ea 3b 98 95 ea 3b
       0.0071589462 0.0071589462 0.0071589462 0.0071589462
0001b0 55 db b0 3e 1b 03 b3 3e 5d 34 b4 3e 93 22 ad 3e
       0.34542337 0.34963307 0.351962 0.3381544
0001c0 55 b4 b2 3e fa 04 b0 3e 40 99 ae 3e
       0.34903207 0.34378797 0.34101295

action_model._discrete_distribution.branches.0.bias f4 [3]
000000 da 94 42 bb 6f 63 2d ba 7b 1f 6c 3b
       -0.0029690773 -0.0006614243 0.0036029506

action_model._discrete_distribution.branches.0.weight f4 [3, 128]
000000 d6 2a 36 3b 4a 06 a0 3c e3 ee fb 3b 4e 14 d5 bb
       0.0027796528 0.019534249 0.0076883896 -0.0065026646
000010 fb 1b 05 ba 2d 44 35 bc 71 93 96 3c 02 48 a7 bb
       -0.0005077717 -0.011063618 0.018380852 -0.0051050195
000020 09 49 73 bb e0 67 58 bb 6f 07 72 bc af 42 74 bb
       -0.003712239 -0.0033020899 -0.01477228 -0.0037271192
000030 86 89 ec 3b 6c e2 03 bc 5a 30 8f 3c 8c 7e 58 bc
       0.0072185425 -0.008049589 0.01747911 -0.013213765
000040 25 c2 88 bb b5 5f 64 3c b8 39 d0 3b 03 64 97 3b
       -0.0041735345 0.013938834 0.006354537 0.0046200766
000050 f3 41 09 bc 82 b1 4d bc 73 7b 97 bc 92 57 21 bb
       -0.00837754 -0.012554528 -0.018491482 -0.0024618846
000060 59 1e 48 bc 3d 8e c8 3b fa 27 e9 bb 11 31 b5 bb
       -0.012214267 0.0061204717 -0.0071153613 -0.005529531
000070 ce 65 e3 bb 2c 8b 27 3c 63 d2 d3 3c e7 4c 65 3c
       -0.0069396263 0.010226052 0.025857156 0.013995386
000080 48 99 ac bb c9 e0 f0 bb f5 87 48 3c 7e a1 11 bc
       -0.005267296 -0.007351015 0.012239446 -0.0088886
000090 4a 1d 59 bc 00 18 7d bc e3 5f 29 bc 4c c4 0f 3c
       -0.013251612 -0.015447617 -0.010337803 0.008774828
0000a0 a8 8f 01 bc 36 a7 0c 3c 95 85 b6 bc b4 89 74 bc
       -0.0079077855 0.008584788 -0.022280494 -0.014925409
0000b0 10 9e 8a bb b3 60 c8 bc fc 2e 36 bc 2d 54 6f bc
       -0.0042302683 -0.024460172 -0.0111196 -0.014607471
0000c0 79 62 b4 bc a4 27 b6 bb fd da d9 3a e6 d8 17 bc
       -0.022019612 -0.0055589247 0.001662105 -0.009268021
0000d0 90 f8 63 ba 2c f2 8f bc 51 e6 27 3c af 01 ec ba
       -0.00086964015 -0.017571531 0.010247783 -0.0018005873
0000e0 a2 c8 6c bc 7e 5d 44 3c cd b4 aa 3b bf 07 08 3d
       -0.014452131 0.011985181 0.0052095414 0.033210512
0000f0 13 94 a7 bc 50 73 b3 3a 9a 3f 43 bb c6 76 8e 3c
       -0.02045635 0.0013690982 -0.0029792548 0.01739062
000100 88 db db b8 45 c1 26 3c 4f e5 21 bc 8a 5f 3f bc
       -0.00010483625 0.010177915 -0.009881332 -0.011680493
000110 88 3c 01 bb e1 77 b6 bb f1 c8 78 ba e7 cd af bb
       -0.0019719917 -0.00556849 -0.0009490392 -0.0053651216
000120 ad e7 85 bc 90 0b 8a bc 52 8a 08 3b d3 c9 52 bc
       -0.016345823 -0.016851217 0.0020834398 -0.012865501
000130 31 d9 ee bc b9 54 e3 bb 79 c9 e1 3b a5 47 1d 3c
       -0.0291563 -0.00693759 0.0068904725 0.009599601
000140 5c eb 9b 3b e2 b5 a6 bb 23 3e 84 3b e1 cf 1f 3c
       0.0047582816 -0.0050876 0.0040357276 0.009754152
000150 e3 fa b4 3a 9f eb a5 bc d0 65 ed bb 8d 2b ad 3c
       0.001380768 -0.020253954 -0.007244803 0.02113893
000160 82 9d 75 3c 8f 12 94 ba 07 a8 e2 3b fe 4c e6 bb
       0.014991166 -0.0011297035 0.006917003 -0.007028221
000170 73 fd 45 3b be 7a 1e 3b 3e 77 3c 3c e1 b0 a5 bc
       0.0030210882 0.0024182047 0.011503039 -0.020225944
000180 42 7c bd 3b 48 f4 d0 bc cf 67 94 3b 2a d0 3c 3a
       0.005782635 -0.025507107 0.0045289765 0.000720265
000190 59 a3 8f bc d5 09 f2 bc b8 47 3b bc ec 19 ef 39
       -0.017533945 -0.029545704 -0.011430673 0.00045604946
0001a0 6d 7d a1 bc a5 35 45 bc 7d 78 90 3c 25 4d 0a bc
       -0.019713128 -0.012036716 0.017635578 -0.008441244
0001b0 b2 69 cb 39 ac 27 0c 3c 55 3d 0a 3c 99 ae 0c 3c
       0.00038797926 0.00855438 0.008437474 0.008586549
0001c0 ce 4d 9a bc ba f1 42 3c f2 27 ae 3b 1c dc c6 3c
       -0.018835928 0.011898452 0.0053148204 0.024274878
0001d0 70 6e 90 bc df a4 7e 3c 7e e6 9e 38 12 e2 31 3c
       -0.017630786 0.015542238 7.5769596e-05 0.010857122
0001e0 7b cb 2c 3c c2 f5 5b 3c e5 c4 e4 3c a8 1a 82 3c
       0.01054656 0.013425292 0.027925918 0.015881851
0001f0 f2 de 74 bb 8e d3 a5 39 bb ec 0f 3b 5c 05 b9 3b
       -0.003736433 0.00031628873 0.002196117 0.005646391
000200 14 54 3c bc 8f 9e 23 bc 3a 38 94 3b f7 dd 00 bb
       -0.011494655 -0.009986534 0.0045233043 -0.0019663551
000210 c0 92 3c 3c 21 d6 81 bb e5 da 13 3b 85 0b 01 3b
       0.011509597 -0.0039622937 0.0022560891 0.0019690704
000220 54 76 3f bb 01 f4 cd 3b dd 10 c3 bc 4e 8e 4b 3c
       -0.0029214816 0.006285191 -0.023811752 0.012424065
000230 59 7f df bb 19 76 f3 ba bc e0 5e 3c 48 96 6c 3a
       -0.006820601 -0.0018574625 0.013603386 0.0009025079
000240 1c b8 4a bc 0d c5 9e 3a 55 a8 89 3c 5f c8 43 bc
       -0.012372997 0.0012113169 0.0168039 -0.011949628
000250 9f e6 66 3c 52 a9 90 3b 3d fb 23 b9 86 9c e2 bb
       0.01409307 0.004414716 -0.00015638485 -0.0069156317
000260 11 11 89 bb 5a 22 a1 ba aa 79 ce bb 8a 69 6b 3b
       -0.0041829427 -0.0012293563 -0.0063011246 0.003592106
000270 1b bd 7c bb 47 32 ed bb ef c0 40 bb e3 39 e2 3b
       -0.0038564864 -0.0072386595 -0.0029411872 0.0069038733
000280 cc ac 50 3c b0 6c 11 3b d9 69 1f bc 33 c1 2e bc
       0.0127365105 0.0022190027 -0.009729826 -0.0106661795
000290 b7 03 8b bc 76 9b 7e 3b 9a 0d a6 3b 7c b2 b4 bb
       -0.016969545 0.0038849986 0.0050675394 -0.005514441
0002a0 4a 21 0c 3c 76 b9 8e 3b e6 d9 bd 3a 7b 09 f9 bb
       0.008552859 0.0043556048 0.0014484494 -0.007600007
0002b0 59 de c7 3b 45 22 ea bb a6 a6 26 bc d8 8a 30 3c
       0.006099504 -0.0071451985 -0.010171568 0.01077529
0002c0 f5 e2 8d bb c2 99 55 39 bf e3 ae bc da 6b 2a bb
       -0.004330034 0.00020370542 -0.021348832 -0.0026004226
0002d0 c8 9b 61 bb e7 26 b9 b9 29 fb 82 3b f4 4f 84 3c
       -0.0034425128 -0.00035314934 0.003997226 0.016151406
0002e0 03 78 99 3b 70 f0 6e 3b c0 53 36 bc cc 70 e5 bb
       0.004683496 0.003645923 -0.011128366 -0.007001972
0002f0 99 1a 1f b9 87 ef 34 bc 70 b1 cc 3b 80 53 a5 bb
       -0.0001517333 -0.011043436 0.006246738 -0.0050453544
000300 7a 74 d1 bb e9 e4 be bb 1c b8 28 b9 e2 cf 35 3c
       -0.006392059 -0.005825628 -0.00016090315 0.011096926
000310 af 29 8a 3c 32 2d e9 bb 28 f4 16 3c af 22 13 bc
       0.01686558 -0.0071159834 0.009213485 -0.008980437
000320 42 36 e9 bb 10 33 16 bc 9b b0 07 3c d8 35 7d bb
       -0.0071170637 -0.009167448 0.008281852 -0.003863683
000330 dc 35 da ba e6 cc 73 3a 76 95 5e 39 04 fb 5c 3b
       -0.0016648131 0.00093002466 0.00021227248 0.0033718953
000340 cc d3 99 3a 6b 1a 46 3b 68 7c 4c 3c af 2c 87 bc
       0.0011736094 0.0030228149 0.012480833 -0.016500799
000350 2c b9 4c bb 3d 86 21 bc 2e 66 2f bc 89 46 63 3c
       -0.00312383 -0.009858665 -0.010705514 0.013871797
000360 39 6b 09 bc 34 20 12 3c 0a 8c cc bb 78 e5 4f 3c
       -0.00838738 0.008918811 -0.00624228 0.012688987
000370 57 dc 59 bc 09 9e 81 3c 59 81 a5 3c 23 64 a7 3a
       -0.013297162 0.015822427 0.02020328 0.0012770932
000380 1b ab 6f bc 17 f2 8f bb d8 18 be bb a2 50 bc b9
       -0.014628197 -0.004392873 -0.0058013014 -0.0003591823
000390 fb 7a 0b bc 2d f8 9e bc 66 26 8f 3b 1f 15 19 3c
       -0.008513208 -0.019405449 0.004368591 0.009343415
0003a0 a6 20 14 3c 28 4b d4 bc 58 a7 3b bc d9 7b 18 3c
       0.009040987 -0.025914744 -0.011453472 0.009306871
0003b0 0e d1 a2 3b bf e7 37 bc ee ba 1a 3c 34 f7 45 3c
       0.004968769 -0.011224686 0.009443982 0.012082864
0003c0 7a 29 9c 3b d1 a4 2b 3b 3b 6d 78 ba e7 10 15 3c
       0.0047656866 0.0026190768 -0.0009476726 0.009098268
0003d0 08 64 f7 3a e8 69 04 bb 6e 09 97 bc 2d b4 54 3c
       0.0018874416 -0.0020204727 -0.018437114 0.01298241
0003e0 e6 1d e8 3b 77 01 51 3b a5 33 af bb 7f 56 e9 bb
       0.0070836423 0.0031891742 -0.0053467327 -0.007120907
0003f0 86 5b b7 bb e9 1b 10 3c 15 ac b6 bc 32 5e 40 3b
       -0.0055956272 0.008795717 -0.022298852 0.002935302

action_model._discrete_distribution.branches.1.bias f4 [3]
000000 4a 8d 79 3b f5 0b 87 bb 88 50 12 3b
       0.00380786 -0.0041212984 0.0022325832

action_model._discrete_distribution.branches.1.weight f4 [3, 128]
000000 d5 6b 6c bb 95 50 35 3c 6b c6 a7 bc fc 91 d7 3a
       -0.0036075015 0.011066576 -0.020480355 0.0016446705
000010 25 3a 14 ba be 39 db 3a f8 1b 04 ba 21 4a 26 3c
       -0.0005654416 0.0016725583 -0.0005039568 0.01014951
000020 44 b6 87 bc 4d ff 53 3c 18 4f 1f 3c 7c d3 b6 3b
       -0.016566403 0.012939286 0.009723447 0.00557941
000030 9b 1f d2 bb 64 a6 a1 3b 34 12 28 bb 09 35 19 bc
       -0.006412459 0.0049331654 -0.0025645616 -0.0093510235
000040 24 ca 09 38 a5 9d 98 3a 21 c1 98 3c 99 80 66 ba
       3.2851603e-05 0.0011643661 0.018646779 -0.0008792966
000050 ea b9 26 bb 15 61 12 3c fd 23 c3 39 0f 77 2e 3b
       -0.0025440403 0.008934279 0.00037220112 0.0026621257
000060 6a 02 50 3b 43 ec 49 bc fc 64 28 bc 7e cc 0c bc
       0.003173972 -0.012324396 -0.010277983 -0.008593677
000070 f3 d6 37 bc e7 1d 27 3c 40 62 3c bc 38 54 6c 3a
       -0.0112206815 0.0102 -0.011498034 0.0009015235
000080 41 66 0f bb 7e b3 b8 3a 10 73 39 bb 45 80 23 3c
       -0.0021881016 0.0014091579 -0.0028297342 0.009979312
000090 39 51 bc bb 21 98 4f bc 94 1a 5a 3b ca c5 6a 3c
       -0.005746987 -0.012670548 0.0033280002 0.014329383
0000a0 2c 6b 21 bc 77 bc 1f bb 0d 77 7f 3c e5 8a aa b9
       -0.009852212 -0.0024373808 0.015592349 -0.0003252841
0000b0 40 fc 73 3c 2c 30 df ba e4 67 36 3c f9 23 5c 3b
       0.014891684 -0.0017027906 0.011133168 0.0033590777
0000c0 23 7e 30 3c 11 0e 86 bb 10 05 be bb e4 0e 28 3c
       0.010772261 -0.0040910323 -0.0057989433 0.010257456
0000d0 2f 90 a7 3a a0 b8 5f b9 ec c3 0c 3b 32 4f 7c bc
       0.0012784059 -0.00021335715 0.0021479083 -0.015399741
0000e0 e1 a5 8d bc 13 fb 32 3c a0 3b 7f 3b f0 50 43 3c
       -0.017291011 0.010924119 0.0038945451 0.0119211525
0000f0 77 d7 cd 3c 80 0e 36 bb b1 3c d0 bb 4f 12 85 bc
       0.025127156 -0.0027779639 -0.006354891 -0.016244082
000100 12 71 f0 3b 1a 93 d2 3b 3d 2a a4 3b 2e 6f c8 bc
       0.007337698 0.0064262273 0.005009918 -0.024467077
000110 d0 8b 1f 3c 7b 29 9f bc d0 c0 a3 3b 7d 56 a1 3c
       0.009737924 -0.01942896 0.0049973503 0.019694561
000120 b4 3b 8e 3b fa 0a ff bb 3c 1f bc 3c d1 6b 6d 3c
       0.0043406133 -0.007783291 0.022964112 0.014491037
000130 d1 6f 5b bc 69 42 3b 3b ce 7b 05 bb 2e af 16 bc
       -0.013393358 0.002857352 -0.0020367983 -0.0091970395
000140 60 1b 1a 3c a0 f2 b5 39 3b 24 16 3b 7c 3c a0 3b
       0.009405941 0.0003470378 0.0022909779 0.004890023
000150 e7 38 2d bb 49 7f d3 3b 7d 2e 12 bb 72 c4 95 3c
       -0.0026431622 0.0064543826 -0.0022305541 0.018282149
000160 83 ee 8b 3c bf 1f 68 bb e3 e4 3b 3c 5e 43 cf bb
       0.017081505 -0.0035419313 0.011468145 -0.0063251695
000170 a1 cb 9d 3a 4d eb 96 bb 40 2b d1 ba 73 4e 95 39
       0.0012038836 -0.0046056868 -0.0015958324 0.00028477944
000180 ec 49 9c 3b 75 cb 1e 3c 4a 96 06 3c 6e e9 6d bb
       0.0047695544 0.009692063 0.008214543 -0.0036302465
000190 b1 fe a0 3b b3 55 d2 bb 09 a4 26 bc fb f4 9b bc
       0.004913174 -0.0064189075 -0.010170945 -0.019037714
0001a0 0b 76 7d bc 69 26 8d 3c f7 19 d0 3c 71 37 b5 bb
       -0.015470038 0.01723023 0.025403006 -0.005530291
0001b0 09 ef 3c bc 42 11 36 3c 32 d5 d4 bb 7e da 11 bc
       -0.0115316 0.011112513 -0.0064951414 -0.00890219
0001c0 a9 b3 00 bc f5 f2 68 3c 21 00 19 3b c3 78 c2 3a
       -0.007855334 0.014218082 0.0023346024 0.0014837015
0001d0 e0 89 03 ba 51 0e 9b 3a 1f 36 30 bc 41 23 3f 3c
       -0.00050177984 0.0011829828 -0.010755091 0.01166612
0001e0 5a 04 b4 bc 84 29 66 bc 29 ec 03 3c 49 08 bd 3b
       -0.021974731 -0.014047984 0.00805191 0.00576881
0001f0 f2 a8 f7 ba fb b1 ae 3c c0 6e 20 3c 5d a3 ad bb
       -0.0018894954 0.021325102 0.00979203 -0.0052990154
000200 6a dd cf 3b 6f f9 64 bc d4 17 cb 3b cf 6c d1 bb
       0.0063435333 -0.013975485 0.006197909 -0.006391145
000210 29 83 cf bb 47 0e 4b 3b d9 3a 02 bb 57 b7 56 bb
       -0.006332774 0.0030983852 -0.0019871502 -0.0032763088
000220 3b 09 aa 3b aa 49 3b 3a 93 42 13 3c c1 18 af 3b
       0.0051890886 0.00071444607 0.0089880405 0.005343527
000230 8a 5b 27 3c a9 5f c6 3b 96 13 b0 3b 96 1e d2 3a
       0.010214696 0.006053884 0.0053734286 0.0016030844
000240 f5 ee 5e 3c c3 df 96 3c 04 39 e4 bb f9 2e c3 3a
       0.0136067765 0.018417245 -0.0069648046 0.0014891318
000250 6d cb 68 bc e9 1b c3 bb 11 93 09 3a ab 64 77 3c
       -0.014208657 -0.005954255 0.000524805 0.015099685
000260 d2 48 27 3b 41 c9 00 3d 8e 74 e1 3b d8 c5 2c 3c
       0.0025525582 0.03144193 0.0068803495 0.0105452165
000270 e7 6c 18 bb c1 da 97 ba ae 24 61 3b b3 5c 43 bb
       -0.002325827 -0.001158558 0.0034354138 -0.0029809892
000280 fb d8 9a 3a b6 6c a7 3b fc 28 b1 3b fb 5b 7e 3a
       0.0011813933 0.005109395 0.005406497 0.0009703037
000290 87 4c 68 3b 77 9b 14 bc c2 67 f3 bb 10 dd b9 bc
       0.0035446004 -0.009070269 -0.0074281404 -0.022688419
0002a0 0b 95 0b bc 0f b6 95 bb c9 dc 99 bc d7 bc f6 bb
       -0.008519421 -0.004568822 -0.018782036 -0.0075298357
0002b0 99 1e 29 bb e6 75 fc bb 80 21 b0 bb e5 83 1d bc
       -0.002580559 -0.0077044843 -0.0053750873 -0.009613966
0002c0 3c a5 e6 bb 31 01 11 3c af ff 61 3c cc d6 e4 bb
       -0.0070387404 0.008850382 0.01379387 -0.0069836136
0002d0 3f 4a 99 bc 41 91 09 bc 76 d7 36 3c 61 83 5c 3c
       -0.018712161 -0.008396448 0.011159768 0.013459058
0002e0 c6 8e 1b bb 8b 31 47 bb 4a e2 3d bb 8c a2 9f bb
       -0.0023736223 -0.003039452 -0.002897399 -0.004871672
0002f0 b2 a3 5a bc 6b 47 ce bb c3 2f 6c 3a bd fb aa bb
       -0.013344692 -0.006295135 0.00090098026 -0.005217998
000300 75 7e e3 3a 30 68 15 bc 9a fc 4d 3b eb 35 f2 3b
       0.0017356413 -0.0091190785 0.003143108 0.0073916814
000310 3c b0 0e bc 1a 63 72 3c be 66 8b 38 62 13 31 3b
       -0.00870901 0.0147941355 6.647174e-05 0.002701961
000320 18 aa 89 3c 46 0b ae 3b d4 4d 0f bc 58 f1 20 bc
       0.01680474 0.0053114025 -0.008746583 -0.009823166
000330 af 5d b4 3b 7d ac 84 3c 47 9d 11 3b 32 1a 28 ba
       0.005504332 0.01619553 0.0022218989 -0.0006412595
000340 fc fd 4d 3b da c5 b5 bb 95 9b 0b bc d6 cf 22 bb
       0.0031431904 -0.0055472674 -0.00852098 -0.0024843118
000350 ac 61 09 3b 2b 0a f9 3b 90 e7 3e 3b 8d 44 74 3c
       0.0020962758 0.007600089 0.0029129721 0.014908922
000360 49 de ce bb fe a9 41 3c 74 5e 97 bc 16 fd 5b bc
       -0.0063131195 0.011820314 -0.018477656 -0.01342704
000370 90 8b ca 3b 83 22 8e bb 6f e3 07 bc c9 65 1b 3c
       0.006181188 -0.00433761 -0.0082939705 0.009484717
000380 64 d9 0a bc 6e 32 15 bc ca 3b 53 bc bb 05 54 bc
       -0.0084746815 -0.009106262 -0.012892673 -0.012940819
000390 01 04 44 3a d5 d9 72 bc b3 fb ab bb bd 2b cb 3b
       0.0007477403 -0.014822443 -0.0052485107 0.0062002824
0003a0 f3 f5 9c 3b 56 ee 35 3b 7a 03 5e bc ea e0 df bc
       0.0047900616 0.0027760467 -0.013550634 -0.027328927
0003b0 3a c4 24 bc c6 bc a2 bb 84 10 cb bb 34 cb 1b bc
       -0.01005655 -0.004966351 -0.006197037 -0.009508897
0003c0 b9 58 9f bb 17 e0 10 bc 3e 44 30 3c 7b e8 b1 bb
       -0.0048628715 -0.00884249 0.010758458 -0.005429325
0003d0 06 df 10 bc b6 f5 00 bc 4f 66 33 3a 35 b6 79 3a
       -0.008842235 -0.007871082 0.0006843553 0.0009525747
0003e0 86 a5 cc bb 37 eb 73 bc 31 67 82 3b 09 cf 4b bc
       -0.006245318 -0.014887623 0.0039795865 -0.012439498
0003f0 c2 d0 d3 ba 0a f4 cc 3b 24 c8 af bb 7c bb 64 bb
       -0.0016160237 0.0062546777 -0.005364435 -0.0034901788

action_model._discrete_distribution.branches.2.bias f4 [3]
000000 eb cb b9 3b 39 ab 1e bc c3 10 83 3b
       0.005670061 -0.009684377 0.003999801

action_model._discrete_distribution.branches.2.weight f4 [3, 128]
000000 6a 6d e3 3b 57 16 32 3c 19 dd 67 bc ad 2a ae 3c
       0.0069405334 0.010869584 -0.014151835 0.021260584
000010 6a ff 67 3c 3d ca 3b b9 34 c7 b9 3a 9c 4b a7 bb
       0.014160017 -0.0001790905 0.0014173747 -0.005105449
000020 05 d2 58 bb a5 af b2 3c 29 47 8e ba 53 a2 09 3b
       -0.0033084166 0.02181227 -0.0010854948 0.0021001294
000030 38 cb 61 bc 21 1f 70 3a 4c 9c 16 3c 26 34 f9 bb
       -0.013781361 0.0009159912 0.0091925375 -0.0076050935
000040 28 78 d1 3a 2a 92 7b bc a7 a0 7e 3c 32 0c 02 3c
       0.0015981244 -0.015354672 0.015541232 0.007937478
000050 57 08 ae 3c 68 c5 b2 bb 32 d1 09 3c b5 9d 6c 3c
       0.021244211 -0.0054556616 0.008411692 0.014441897
000060 3e 1d 16 3a 80 64 d9 bc a6 bd b9 bb ae 15 47 bc
       0.00057264033 -0.02653718 -0.00566836 -0.012151165
000070 08 d4 93 bb 79 79 8f ba 3f b4 0d bc 04 59 09 3b
       -0.00451136 -0.0010946236 -0.008648931 0.0020957598
000080 ba 78 97 bc 7d 29 74 bc 02 c5 3d 3c 8e 15 28 bc
       -0.018490184 -0.01490247 0.011582615 -0.010259045
000090 10 ef 7c 3b 21 60 05 bb e2 8d 96 ba 43 33 33 3c
       0.003859464 -0.0020351487 -0.0011486376 0.010937515
0000a0 90 4c 43 bc 96 a9 b7 bb b0 82 ab b8 1c 8f 0d 3c
       -0.011920109 -0.005604933 -8.178258e-05 0.008640077
0000b0 2d 21 3c 3c d7 39 de 3a e2 06 7e 3c 2b 9d 02 bc
       0.011482519 0.0016954493 0.015504571 -0.007972042
0000c0 8d 65 2b bc 26 60 58 bb 9c f3 07 bb 9f c8 63 3b
       -0.010461223 -0.0033016293 -0.0020744568 0.003475703
0000d0 26 cd 16 3c f7 52 bf 3c e1 af 1c bc 62 b4 41 bc
       0.009204185 0.02335499 -0.009563417 -0.011822792
0000e0 38 c4 a8 3b 98 37 21 bc aa 10 9a 3b 77 95 b1 3b
       0.005150344 -0.009839915 0.0047016935 0.005419429
0000f0 43 70 34 3b 9c 87 d7 bb 15 4b b1 ba 0f af 13 39
       0.0027532734 -0.006577445 -0.0013526405 0.00014084227
000100 98 81 ac bb 6a c6 84 bb 24 69 8e bb 7b 83 c5 bb
       -0.005264472 -0.004051973 -0.00434603 -0.0060276366
000110 8a 47 f7 ba 0b 59 d5 3b dd a9 35 3c 69 f2 a3 bb
       -0.0018865925 0.006510859 0.011087862 -0.005003263
000120 ba 89 32 3c 13 8f 64 ba aa 0c 36 3b a6 7e 12 bb
       0.010897094 -0.00087188295 0.0027778544 -0.002235332
000130 ab 7c 5f 3c b5 a8 bd bb 3b 9d 92 ba 3f 11 d7 3b
       0.013640563 -0.0057879337 -0.0011185774 0.006563335
000140 ab e3 17 38 19 fe 59 3b 19 a4 5f 3b e0 61 d6 3b
       3.6213238e-05 0.0033263026 0.003412491 0.0065424293
000150 24 d5 8e 3b 80 0c b9 3b 78 d1 89 3c b1 48 f4 3b
       0.0043589044 0.005647242 0.016823515 0.0074549546
000160 df 6e a9 bb b5 b3 8f 3b 2c 97 ad bc b9 88 42 3b
       -0.0051706876 0.0043854364 -0.021190248 0.0029683544
000170 74 2a 14 3c 51 e8 0b bc ed 1d a1 bb a7 59 9e 3c
       0.009043325 -0.008539275 -0.0049168975 0.019329859
000180 f9 7d d0 39 98 32 0d bc d8 cb 9d bc 71 9b fc bb
       0.00039766709 -0.0086180195 -0.01926224 -0.0077089597
000190 5b f9 9a 3a c9 a3 90 ba ad b1 92 ba 7a 3c 2d bc
       0.0011823581 -0.001103514 -0.0011191868 -0.010573501
0001a0 80 aa 9a bc ef 44 e4 3c 25 32 a1 3c 5a a1 57 bc
       -0.018880129 0.027864901 0.019677231 -0.013161028
0001b0 e8 74 4a 3c 6e d4 26 3c 63 86 1a 3b e5 a8 68 3b
       0.012356974 0.010182483 0.0023578636 0.003550106
0001c0 29 55 71 3c cf aa 12 3c 79 ec 9b bb 4d 4c 64 bc
       0.014729776 0.008951857 -0.0047584143 -0.013934207
0001d0 74 fb 31 3c ae 56 ab 3c ae fa dc 3b fb 60 fe bb
       0.010863174 0.020915356 0.0067437505 -0.007763026
0001e0 d7 df a1 bb fb a0 6c bb 12 28 02 3c 54 7f 50 bc
       -0.004940014 -0.0036106694 0.007944124 -0.01272567
0001f0 b6 97 03 bc 9c 45 b2 bb 07 21 0c 3c 50 91 57 bc
       -0.008031776 -0.005440427 0.008552796 -0.013157204
000200 8b 23 9c bc 08 08 e5 3b fa 8f 36 3b 9d d2 f8 bc
       -0.019059917 0.006989483 0.0027856813 -0.030373866
000210 29 97 c4 3b d9 be b0 bc 8e e6 2e 3c b7 78 56 3b
       0.005999465 -0.021575378 0.010675086 0.003272576
000220 8f 0c 23 bb 7a 31 6b b9 3f a2 74 3a bf 0d 69 bc
       -0.0024879312 -0.00022429778 0.0009332038 -0.014224469
000230 b9 c5 1a bc d0 58 51 3c 0f e0 cb ba 6f 5c d6 3b
       -0.009446555 0.012777522 -0.0015554446 0.0065417807
000240 45 b6 18 bc 80 27 2b 3c 0d ce 31 bc 94 39 d7 39
       -0.0093208 0.010446429 -0.010852349 0.00041050895
000250 3a 18 26 3c c3 b3 93 bc 6a 68 ea bb bd a4 13 bc
       0.010137612 -0.018030053 -0.0071535604 -0.009011445
000260 1e d4 e4 bb cc 4a 27 3c 08 47 d2 ba 52 48 28 3c
       -0.006983294 0.010210704 -0.0016042897 0.010271149
000270 20 30 42 3c 6a 77 3a bc dc 1d 8f 3c b1 00 aa bc
       0.011852294 -0.01138101 0.017470293 -0.020752283
000280 9c 20 98 bb 0d 5d 9d bb c5 87 14 bb d5 d1 98 3b
       -0.004642559 -0.0048023523 -0.0022663933 0.004663686
000290 44 2b fc b9 37 78 8f bb fa a2 28 bb 19 b8 82 bb
       -0.0004809742 -0.0043783444 -0.0025731907 -0.0039892313
0002a0 ee 3e ae bb 3d 75 0e bc 11 97 0c bc bd 2d 04 3b
       -0.0053175604 -0.008694944 -0.008580939 0.0020168864
0002b0 31 29 20 ba a5 54 36 bb 6b ca 69 bc ce e1 3d 3c
       -0.00061096536 -0.0027821448 -0.014269452 0.011589481
0002c0 ff 5c 09 bb df d0 b9 3a 04 ad e2 bb 7b af f8 ba
       -0.002095997 0.0014176628 -0.0069175977 -0.0018973196
0002d0 ee 10 67 bc 66 6f 55 bc ef f4 a2 3b 1b bd 7c 3c
       -0.014103157 -0.013027048 0.004973046 0.015425946
0002e0 ae c5 cc ba 80 98 0a 3b fc 67 92 bc a1 98 31 3c
       -0.0015622878 0.0021148026 -0.01787185 0.010839612
0002f0 b6 1f 48 bc 0b 36 48 bc 4f c5 90 bc 87 3a 2c bc
       -0.012214592 -0.012219916 -0.01767221 -0.010512001
000300 ff c1 a9 3c fb ce ad bc 0c c4 27 b9 eb 35 1e bc
       0.020722387 -0.02121686 -0.00015999394 -0.00965641
000310 5f 64 a9 3a 88 28 15 3c db a4 2b 3b e9 7e 3e 3c
       0.001292359 0.009103902 0.002619079 0.011626937
000320 11 26 b3 bc fe d6 eb 3b 6e be 2b bc 60 f2 c7 bc
       -0.021868737 0.00719726 -0.010482414 -0.024407566
000330 0b 31 f1 3b eb 1b aa 3c 4b c5 1f bc e6 dc 50 3c
       0.0073605827 0.020765265 -0.009751628 0.012747979
000340 e2 24 09 ba 21 be 50 bb 51 ea 42 bb 0c 4b 0e 3c
       -0.0005231631 -0.0031851607 -0.0029741714 0.008684885
000350 4e 6c cb 3a 02 58 98 bc 87 f3 82 ba 71 76 fe ba
       0.0015519948 -0.018596653 -0.000999079 -0.001941396
000360 1f 45 ef bb 06 1f a2 bb f0 60 1b 3c ad 6a 79 3c
       -0.007301941 -0.004947546 0.009483561 0.015223187
000370 16 ef 73 bb e8 0e 15 3c 30 42 04 bc 1d e8 ec bb
       -0.0037221364 0.009097792 -0.008072421 -0.0072298185
000380 3b be 02 bc 0d fb dc bb f6 a9 4c bb 44 06 3f bc
       -0.007979925 -0.006743795 -0.0031229234 -0.011659209
000390 44 dc 29 bb ed 0a eb 3b 22 92 b7 bc 91 72 11 3c
       -0.0025918642 0.0071729333 -0.022408549 0.008877412
0003a0 a6 34 ef bb b8 35 a3 bb 4c c2 e0 3b a1 2f f2 3b
       -0.0072999774 -0.004980769 0.0068590995 0.0073909317
0003b0 40 a9 b3 bb 9b 76 89 ba ec 4e 41 bb ea 50 4f bc
       -0.0054828227 -0.0010487618 -0.0029496504 -0.012653569
0003c0 7b 59 01 bc 1f 24 4b bc 4b f8 34 3c 89 5a 39 bc
       -0.007894869 -0.012398749 0.011045526 -0.011313089
0003d0 9c f8 83 3c 0d 39 a0 ba 29 1b 29 3b 67 87 cb ba
       0.016109757 -0.0012224034 0.0025803542 -0.0015528024
0003e0 6a c9 1d 3c 68 42 04 bc e7 6d bd bc a1 ee c7 3b
       0.00963054 -0.008072473 -0.023123695 0.006101445
0003f0 50 de 91 3b 56 c2 d9 bb f6 bd 0a 3c 97 03 0a bc
       0.0044515505 -0.006645481 0.008468142 -0.008423707

action_model._discrete_distribution.branches.3.bias f4 [3]
000000 48 bf 30 bb b0 f8 a7 39 65 57 97 3a
       -0.0026969481 0.0003203801 0.0011546431

action_model._discrete_distribution.branches.3.weight f4 [3, 128]
000000 1c 2e 39 3c c0 b4 6d 3b 9b ca e9 3b 26 41 08 bc
       0.011302497 0.0036271065 0.007134748 -0.008316314
000010 1c 94 a8 bc a8 44 8a bb 3a 63 0f 3c a9 7b 44 3b
       -0.020578437 -0.0042196102 0.008751685 0.0029980934
000020 f5 a6 67 bc 24 43 38 ba d4 30 55 3c a7 ad 05 bb
       -0.014138927 -0.00070290477 0.01301213 -0.0020397694
000030 f7 db 24 bc e3 e0 17 bc cf 28 b9 bb ce a4 a8 3b
       -0.010062209 -0.009269926 -0.0056506167 0.0051465994
000040 4f 1d f8 3b 8d e5 bb 3a db ce ba bb 3b aa dc bb
       0.007571853 0.0014335379 -0.0057009286 -0.0067341602
000050 af 46 1f 3c f9 0a e3 bb b6 a0 b6 3b d6 6c 12 3c
       0.009721442 -0.0069287983 0.0055733575 0.008937081
000060 4d e0 2b bb 3c 98 87 bb 9b b3 6b bc 63 13 90 3a
       -0.0026226223 -0.004138021 -0.014386083 0.0010992106
000070 72 7b 78 3c 54 c1 50 3b 05 d4 29 3c eb 89 67 bb
       0.01516615 0.0031853514 0.010365491 -0.0035330008
000080 f4 34 d8 38 8f 51 32 3c c0 72 d6 3a a7 28 e2 bb
       0.00010309546 0.010883703 0.0016361102 -0.006901819
000090 e2 2c 53 bc 2f 3b 47 bc ed 59 1c bc 44 9c 2e ba
       -0.012889119 -0.012160107 -0.009542924 -0.00066608586
0000a0 2b e0 d2 3a 36 9c 5f bb 27 37 04 bb 0d 1d 75 bb
       0.0016088536 -0.0034120209 -0.0020174475 -0.0037401349
0000b0 a4 8d e9 ba 9b f2 9d 3c 5c fc 82 3b 9c 22 1f bc
       -0.0017818701 0.019280722 0.0039973687 -0.009712841
0000c0 61 91 05 3c 0c 4e ea ba 78 82 31 b9 81 59 a7 bc
       0.008152337 -0.0017876043 -0.00016928639 -0.020428421
0000d0 d0 ed a4 bb 5e 01 43 3b 7b 12 fa ba 03 de 92 bc
       -0.0050332323 0.0029755454 -0.0019078994 -0.017928129
0000e0 db 50 e4 3b 95 34 3b 3a 2f 27 b6 3b 8b 8a 72 3b
       0.0069676465 0.0007141319 0.0055588703 0.0037008848
0000f0 7e 79 45 bc e2 ae ec 3a d3 9f e5 bb 91 6b ae bb
       -0.012052892 0.001805749 -0.007007578 -0.0053228815
000100 62 bd 5c bc 9d cf 8a bb 71 40 83 3a 9a a8 9e 3b
       -0.013472887 -0.004236175 0.0010013712 0.004841876
000110 2b 78 82 bc a1 05 58 bc 14 25 12 3b a4 6c e4 bb
       -0.015926441 -0.013184936 0.0022299932 -0.006970959
000120 3e 05 38 3c a5 8c c9 3a 56 a3 55 bb 28 64 dd 3a
       0.011231719 0.0015376998 -0.0032598577 0.0016890811
000130 7c 00 2f b9 96 8f 2f 3c 5c 58 7f b9 df 91 a3 bb
       -0.00016689481 0.010715386 -0.00024351612 -0.0049917544
000140 23 a8 b9 bb 70 e9 1c 3a b4 7d 52 3c 7f b7 99 bc
       -0.0056657954 0.00059857126 0.012847353 -0.018764256
000150 93 19 a7 3c 9b d5 2a bc 3d ae 48 bb 82 cf 34 bc
       0.020397937 -0.010426904 -0.0030621432 -0.011035802
000160 ea 00 6c bc 0a 43 22 bc 17 da 2c 3b 0a 7f a5 bc
       -0.014404515 -0.009903679 0.002637511 -0.020202179
000170 93 4f 2a bc 8a 15 47 3a c0 6a d8 3b da da 07 bb
       -0.010394949 0.0007594457 0.0066045225 -0.002072981
000180 e5 4e 19 bb 2a 3a b2 3b ab 45 a4 bb d4 56 a6 ba
       -0.0023392972 0.0054390626 -0.005013188 -0.0012690672
000190 77 96 a3 b6 1c 9e e8 bb d3 13 8b 3c ff 6b f1 bb
       -4.875295e-06 -0.007098926 0.016977226 -0.0073676105
0001a0 5d 17 8f bc 8b 83 c6 bb 16 63 3e bc f9 a2 a8 3b
       -0.017467195 -0.0060581616 -0.011620304 0.005146381
0001b0 27 50 60 bc d0 7f c9 bb 83 d7 66 37 1b eb 82 3b
       -0.013690985 -0.0061492696 1.3759246e-05 0.003995312
0001c0 80 de 97 ba 62 08 88 bc da f6 8f 3b c0 5b e7 b9
       -0.0011586696 -0.01660556 0.0043934407 -0.00044128112
0001d0 03 66 34 bb 7a d9 14 3b 87 f5 d4 bb 96 54 d7 3a
       -0.0027526624 0.0022712634 -0.0064989957 0.0016428407
0001e0 35 43 33 3c 6d c4 98 bb f9 4d 09 3c 50 6c 0e bc
       0.010941316 -0.0046620877 0.008380407 -0.008692816
0001f0 23 03 01 3d 38 9f 0f b8 42 6b 56 3c 9d cc df 3b
       0.031497132 -3.424214e-05 0.013087096 0.0068298117
000200 32 f5 f8 ba 52 bd 13 bc 7c b3 43 3c 1a be b6 3b
       -0.0018993972 -0.009017305 0.011944648 0.005576861
000210 4b 5b 4d 3c 7f 55 a8 bb ea bf a5 bb 83 f4 11 3b
       0.012533973 -0.005137145 -0.0050582783 0.0022270984
000220 2e 6c 9e 3b ef 8a 61 3c c2 e2 50 3b 8b a3 6f 3b
       0.0048346734 0.0137660345 0.003187344 0.0036565985
000230 d0 bd e0 bb 67 0b 0c 3c 6b b5 0b bc d3 76 be 3b
       -0.006858565 0.00854764 -0.00852714 0.005812505
000240 10 3d 55 bc a9 9d 0e 3c 78 08 17 bc 05 51 c9 3b
       -0.013015047 0.008704581 -0.009218328 0.0061436915
000250 bc dc c2 ba 2b 47 da bb dc 01 4c 3b 3f 29 54 3c
       -0.0014866809 -0.006661316 0.0031129038 0.012949287
000260 de 74 44 3c a2 00 be bb 76 c0 15 bb 77 eb f9 bb
       0.011990754 -0.0057984153 -0.0022850311 -0.0076269465
000270 75 14 b8 3b 15 c5 b1 bc 05 b7 23 bc da a4 2a 3b
       0.005617673 -0.021700421 -0.009992366 0.00260382
000280 aa 26 f0 3b 24 8e df 3b ec 63 c1 bb 03 d5 5b bb
       0.007328828 0.0068223644 -0.005901804 -0.0033543713
000290 89 1f cc bb d0 f3 60 3b 61 43 40 bc 43 a3 13 3c
       -0.006229345 0.003432501 -0.011734814 0.009011093
0002a0 ef f5 89 bc 1b 03 0f 3c ac 91 c7 3a ee 35 5f bb
       -0.016840903 0.008728768 0.0015225909 -0.0034059244
0002b0 61 03 a6 bb 6a 47 f0 ba e9 0b 1e bc da 21 f2 3b
       -0.0050663208 -0.001833183 -0.009646394 0.0073892893
0002c0 dc d6 a2 3b cf 3a bd bb 4e 66 53 bb 10 83 7f ba
       0.004969461 -0.005774833 -0.0032257023 -0.0009747008
0002d0 a7 83 99 3c 28 f5 75 3c ca c1 a9 3c fd 28 9c bb
       0.018739535 0.015012063 0.020722289 -0.0047656284
0002e0 3f 41 3c ba 4a 7f 92 bc b0 45 34 bc 1c 7d 87 bc
       -0.0007181353 -0.017882962 -0.011002943 -0.016539149
0002f0 da 1e 2c 3c 85 f6 5c bc 16 42 9a bb c6 ed 4c bc
       0.010505402 -0.013486509 -0.004707585 -0.0125078615
000300 a3 3d cf 3a 47 45 75 bb 86 10 fc bb 90 f4 ea 38
       0.0015811216 -0.0037425326 -0.0076923994 0.00011203543
000310 03 19 09 bc 2e e5 a7 3b cb b0 6f bc a4 d8 54 bb
       -0.00836778 0.005123756 -0.014629553 -0.003247776
000320 fc ed ec bb 78 9b 56 3c 0e 97 c8 bb 42 4a 37 3b
       -0.0072305184 0.01309859 -0.0061215227 0.0027967845
000330 88 46 e6 39 c9 00 1e bc 12 8c 58 bc 32 9c bc 3b
       0.00043921568 -0.009643742 -0.013216989 0.0057559246
000340 95 b0 05 bc da 26 4d ba 92 e3 66 bc bc 20 8c 3c
       -0.008159776 -0.0007825919 -0.014092343 0.017105453
000350 24 40 d9 3a 55 34 c5 3b c0 0d 57 3b 83 37 4c 3c
       0.0016574902 0.0060182014 0.0032814592 0.012464407
000360 46 c3 0d bc e5 3a 9a 3b d5 33 86 3a d4 21 22 bb
       -0.008652514 0.004706728 0.0010238836 -0.0024739401
000370 75 f0 79 3b 7b 1c 87 3c 5a dc 82 bb d5 2a 96 3c
       0.0038137708 0.016493073 -0.003993553 0.01833097
000380 2b dd c0 3a 9f cf 65 bc 82 07 a1 3b d9 5f 47 3b
       0.0014714351 -0.0140265515 0.004914225 0.003042212
000390 fd c2 3f 3b 82 fc de 3b c3 db f2 bb a5 9e 2f 3c
       0.002926051 0.0068050036 -0.0074114515 0.010718976
0003a0 4c 19 d6 bb 21 0d 21 bc 25 95 21 bc c7 d3 fd ba
       -0.0065337773 -0.00982979 -0.009862219 -0.0019365483
0003b0 7b 65 36 3c 24 93 28 3b 07 34 37 bb fc f8 ea 3a
       0.011132593 0.0025722468 -0.0027954595 0.0017926986
0003c0 12 bf ed bb 91 a5 f6 bb 23 fa 28 bb e0 b4 17 bc
       -0.0072554434 -0.0075270613 -0.0025783859 -0.009259433
0003d0 76 f6 f9 3b 9d a7 0c bc d0 30 50 3b 81 32 8a 3b
       0.0076282574 -0.008584884 0.0031767376 0.0042174463
0003e0 7c 59 1b 3c 3b 6b 6b 3c 48 9f a0 bb 32 c8 5d bc
       0.009481784 0.014368827 -0.0049018003 -0.0135365
0003f0 ab 0c 5c bb 7d 9f 14 3b 3f b2 26 ba b5 8a 23 bc
       -0.0033576887 0.002267807 -0.0006358958 -0.009981801

action_model._discrete_distribution.branches.4.bias f4 [3]
000000 25 4d dd 3b d3 5a 9f bb 78 fe 72 b8
       0.006753581 -0.004863122 -5.793429e-05

action_model._discrete_distribution.branches.4.weight f4 [3, 128]
000000 5f cc e1 bb 58 d1 3c bb 65 92 a5 bc 44 51 78 3c
       -0.006890818 -0.0028811302 -0.020211408 0.015156094
000010 90 26 b9 ba c0 47 72 bb 0e 4c 45 3c 96 d9 1f b9
       -0.0014125872 -0.0036969036 0.012042059 -0.00015244479
000020 72 39 1b 3c bd 9c 33 3b d2 4a 6b 3b ff db cf bc
       0.009474145 0.0027406656 0.003590275 -0.025373457
000030 76 9d 4d 3b 90 13 7e bc ad e6 b3 bb e2 41 83 3b
       0.0031374372 -0.015507594 -0.005490145 0.0040056566
000040 f1 45 d2 3b 13 c8 a4 3c 5f e6 a2 bb 31 cf 72 3b
       0.006417029 0.020114934 -0.00497131 0.0037049765
000050 1c a2 13 3b 92 61 35 3c 52 b5 90 ba 0e bf b3 3c
       0.0022527045 0.011070626 -0.0011040366 0.021941688
000060 dc ed 1f 3b 95 7a 03 bc c5 fc 21 bc bb bd 6b 3b
       0.002440325 -0.008024831 -0.009886925 0.0035971242
000070 2b 64 02 bb c2 31 4e bc b1 09 b2 bb 34 74 3d 3c
       -0.001989613 -0.012585105 -0.005433284 0.0115633495
000080 eb a3 e1 3b b1 64 3f 3c 38 38 3e 3c 16 f9 54 3c
       0.0068859956 0.011681722 0.011610083 0.01299884
000090 14 13 02 bc 45 6d cd 3b 2e 80 83 3c f7 5f bc 3c
       -0.007939119 0.0062691295 0.016052332 0.022994978
0000a0 0e 16 d3 3b 81 41 94 3b 00 28 13 bc b1 e7 2a 3c
       0.006441838 0.0045244102 -0.008981705 0.010431216
0000b0 cd fa 0c 3c 32 c8 c9 3c d4 32 6e bb e4 75 e2 bb
       0.008604717 0.024631593 -0.0036346214 -0.0069110263
0000c0 b2 74 8f bc dd ea a0 bb e5 28 ca ba 06 73 1d bc
       -0.0175117 -0.0049108104 -0.0015423564 -0.009609943
0000d0 9e 53 40 3b 65 2f 99 bb e6 eb 15 bb 27 9f 8b 3b
       0.0029346715 -0.0046748393 -0.0022876202 0.004260916
0000e0 a6 5b d2 b9 17 93 b1 3b a9 41 d4 bb 05 f9 c6 3c
       -0.00040122605 0.005419146 -0.006477554 0.024288664
0000f0 ad 07 d1 39 a7 b4 a5 bb 55 77 dc b9 3f f1 da bb
       0.00039869305 -0.005056936 -0.0004205058 -0.006681591
000100 e1 1a ed bb bc 79 87 3c 54 70 4a 3b a6 82 97 3c
       -0.00723587 0.01653754 0.0030889707 0.018494915
000110 0a 9e 0a bc 32 f0 38 3c 4e cb a7 3c 69 c6 91 bb
       -0.008460531 0.011287736 0.020482685 -0.004448701
000120 41 31 09 bc df 51 4f bb 27 2d b2 bb e5 08 0c bb
       -0.008373559 -0.0031634492 -0.0054375115 -0.0021367606
000130 6a 0c 32 3c 41 c2 0e bc 6f 7d b2 bb 85 5d be ba
       0.010867218 -0.008713306 -0.0054470818 -0.0014523721
000140 f7 88 15 bb 17 8d b8 3a e1 59 21 bc 18 30 42 3c
       -0.0022817233 0.0014080134 -0.009848089 0.011852287
000150 a4 2e 3b 3c 09 d7 e4 3b 1f 17 99 bb 57 43 cc bb
       0.011424694 0.006983642 -0.0046719457 -0.0062336135
000160 0a e2 18 3c 51 23 b2 bb 7e 97 23 3c 5b 11 fa ba
       0.009331236 -0.005436339 0.009984849 -0.0019078659
000170 5a 86 03 ba b2 08 f1 bb 4a 9e ed 3b 02 57 2a bc
       -0.00050172734 -0.007355773 0.0072515355 -0.010396721
000180 64 69 23 bc 27 1c 3a 3c bd d0 0a bc 15 3e fa b9
       -0.009973858 0.011359251 -0.008472619 -0.0004772997
000190 2c 77 1d bb f1 de d7 39 15 19 bb 3c 09 e9 9d bc
       -0.002402733 0.000411741 0.022839108 -0.019276159
0001a0 7f c8 4d ba d7 59 5a bb 51 4a 36 bb 07 8c e7 bb
       -0.00078500056 -0.003331771 -0.0027815292 -0.007066253
0001b0 a3 19 40 3c aa 6a b9 bc 88 a2 bd 3a c3 0c a3 3b
       0.011724862 -0.02263387 0.0014467994 0.0049758865
0001c0 33 76 f5 bb 7a 14 8f 3c f6 51 21 3b 2c 6f e2 3b
       -0.007490897 0.017465819 0.0024615503 0.0069102254
0001d0 9e 44 06 3c 88 ac f4 3b 2c 87 28 3c 5e 54 aa bb
       0.008195071 0.0074668564 0.010286134 -0.0051980456
0001e0 b6 18 2c 3b d1 85 03 ba da 25 59 3c 1b dc ce 3a
       0.0026259846 -0.00050171936 0.013253653 0.0015782149
0001f0 6c 9a d1 b8 14 7c d7 39 43 9d 5c 3b b2 0c fe bb
       -9.99466e-05 0.0004110044 0.0033663071 -0.0077529782
000200 77 b2 d0 bb 0a 06 02 3b e9 fa c8 39 d6 f2 2e bb
       -0.006368931 0.0019840025 0.00038333915 -0.0026695034
000210 58 65 88 3b 5d 8c 24 bc 98 6a 74 3c 10 db 8b 3b
       0.0041624717 -0.010043231 0.014917992 0.0042680576
000220 39 ce 91 bb a0 3f d2 bb 32 c1 32 3b aa 70 ad bc
       -0.0044496325 -0.006416276 0.0027275798 -0.021171886
000230 2d 7a a2 bb 50 e1 81 3c 32 50 56 ba b3 c7 9b 3b
       -0.004958412 0.015854508 -0.0008175402 0.0047540306
000240 21 98 5a 3c 2b 90 44 3b 56 fe 16 3b dd e9 d8 39
       0.013341934 0.0029993157 0.002303978 0.00041372972
000250 e6 5a 90 3b c5 54 84 3b cd 18 91 bc 49 60 ab bc
       0.004405367 0.0040384256 -0.017712021 -0.020919936
000260 a2 3b 25 3b 54 c7 56 bc cc f9 44 bc f6 c6 ce 3a
       0.0025212546 -0.013109047 -0.012022447 0.0015775848
000270 9c 9a 34 bb 06 3d 5e bc 84 27 b2 bb 3c 78 39 3b
       -0.0027557975 -0.013564354 -0.0054368395 0.0028300425
000280 5c 42 83 3c 82 72 ec 38 a6 66 4b bc 67 7b f8 bb
       0.016022854 0.00011274686 -0.01241461 -0.00758307
000290 e4 80 1a bc f7 3e 18 bb 34 c8 35 3b ea 40 1f bc
       -0.009430144 -0.002323089 0.0027737739 -0.009720067
0002a0 53 5f 73 3a fa cf 41 3b df 86 3b bb 6b a8 b4 bb
       0.0009283919 0.0029573427 -0.0028614325 -0.005513241
0002b0 47 d8 9d 3a 5a 81 be ba f9 b0 bb 3b f3 e2 13 bc
       0.0012042605 -0.0014534399 0.005727884 -0.009026277
0002c0 29 4a 82 ba 30 fe a3 3b 1a 98 85 3b b5 53 bf bb
       -0.0009940314 0.0050046667 0.00407697 -0.005838836
0002d0 04 e5 6b bb b7 13 97 3b 8c f4 57 bb 27 09 b5 39
       -0.0035994658 0.0046105045 -0.0032952158 0.0003452983
0002e0 d0 7c 0a bc 64 d1 aa 3c 1a 70 c7 3b 40 ae 31 3a
       -0.008452609 0.020851798 0.0060863616 0.00067779794
0002f0 2d fb 91 3b 7c 90 6c 3b 1f 90 14 bc 69 4a 41 bc
       0.0044549913 0.0036096862 -0.009067564 -0.011797526
000300 fc 6b 0a 3c a1 e4 dc bc 94 7f 74 bc f9 bb 18 bc
       0.008448597 -0.026964488 -0.014922995 -0.00932216
000310 bb 57 6a bc e9 fa 3f 3b 32 7e 8d bc 2a 9c 18 b9
       -0.014303143 0.0029293841 -0.017272089 -0.00014554025
000320 0c e0 30 3c 91 07 2f bb 8f 9d 9f 3a b9 a2 b1 3a
       0.010795604 -0.002670739 0.0012177693 0.0013552523
000330 bc 26 0c bc 15 6d 13 3c 5e 5f 73 3c 69 fb d9 3b
       -0.008554157 0.008998175 0.01485428 0.006652285
000340 08 ea b1 3a a3 f0 73 3c d7 ae 40 bc 2e 25 1a bc
       0.0013573775 0.014888915 -0.011760435 -0.009408278
000350 e4 dc 0b 3c 49 a8 a0 bb 11 93 ce 3b 62 08 92 3c
       0.008536551 -0.0049028737 0.006304153 0.017826263
000360 eb d2 45 3c 11 f8 bb 3b b5 f9 b3 3b db 54 4b 3b
       0.012074213 0.005736359 0.005492414 0.003102592
000370 53 81 8c 3a d3 70 0b 3c 94 9f 35 3c de bb a4 bb
       0.0010719694 0.008510786 0.01108541 -0.0050272783
000380 5c 02 9a 3c da 57 8a bc 8b f3 07 3c ff 10 0c 3c
       0.018799953 -0.016887594 0.008297811 0.008548974
000390 e6 4c 21 bc d6 3b ee 3b b3 a9 90 39 b5 00 a8 36
       -0.009844994 0.0072703166 0.00027592256 5.0068725e-06
0003a0 d8 7d d1 3b 99 a9 8d 3a b8 2c 22 3b 83 6d b3 bb
       0.0063931756 0.001080799 0.0024745893 -0.0054757013
0003b0 c6 09 18 3c ee 3a 8e 3c 81 c0 48 bb b2 f7 8c bc
       0.009279674 0.017362084 -0.003063232 -0.017207954
0003c0 83 45 17 bc 0a 95 93 bc cf 95 09 3c a0 e8 03 3b
       -0.0092328815 -0.018015403 0.008397534 0.002012767
0003d0 da 87 a4 3a d4 6c c3 bc 52 e5 f7 3a b6 e6 e9 bc
       0.0012552694 -0.023855604 0.0018912947 -0.028552394
0003e0 f7 f2 e9 3a 6e cd 01 3b 09 de 20 3c 39 33 25 bc
       0.0017848898 0.0019806284 0.009818562 -0.010083013
0003f0 47 5e b8 bc 14 35 52 ba 04 06 6c bb 04 7a a2 3c
       -0.022505892 -0.00080187735 -0.0036014328 0.019833572

action_model._discrete_distribution.branches.5.bias f4 [3]
000000 46 83 78 3b a1 09 d1 3b 1a 46 dd bb
       0.0037920042 0.0063793217 -0.0067527415

action_model._discrete_distribution.branches.5.weight f4 [3, 128]
000000 cf b9 10 bc f7 6d 01 bb c5 87 f9 3b b0 3b 17 bc
       -0.008833363 -0.0019749382 0.007615062 -0.009230539
000010 ab b5 7c bc 9f e1 a8 bb d1 00 c9 3b ba 29 0b 3b
       -0.015424172 -0.0051538493 0.0061341305 0.0021234588
000020 52 fe 13 3c f7 7a e3 3b 62 b0 87 3b f2 6d 6f 3c
       0.009032803 0.006942149 0.0041408995 0.014613615
000030 1a ae 2c 3b f5 a1 26 3a 53 a9 5a bc e4 e0 38 3c
       0.002634889 0.0006356531 -0.013346034 0.011284087
000040 ac 89 b5 bb 92 fa 1e 3b ee 7e f6 bb 84 d7 9d 3a
       -0.0055400934 0.0024258238 -0.0075224554 0.0012042378
000050 5a 8c b8 ba ca a8 47 3c 7c 0a 61 3c 27 0f 14 3b
       -0.0014079914 0.012186239 0.01373541 0.002259204
000060 58 94 c4 3b f2 c6 7d 3c 6b df 3e 3c e6 69 68 bb
       0.0059991293 0.015489327 0.011649947 -0.003546351
000070 f7 76 4f bc 99 d3 1d 3c 1b 52 8d bb 85 49 da ba
       -0.012662641 0.009632968 -0.0043127663 -0.0016653991
000080 08 81 57 bc a7 e5 3a ba ac 4e 03 3c dd 77 0c bc
       -0.013153322 -0.0007129558 0.008014362 -0.0085734995
000090 05 84 56 3c fa e9 1c 3c 12 cb 94 3c fb 15 4b bb
       0.013092999 0.009577269 0.018163238 -0.0030988443
0000a0 ef 9c 7c bc 8b 7f cc bb 14 d7 51 bc c7 32 3e bc
       -0.015418275 -0.0062407902 -0.012807626 -0.011608786
0000b0 fc 6d f1 ba f4 d5 d1 bb 29 b7 12 bc 32 b7 a6 ba
       -0.0018419619 -0.006403679 -0.008954802 -0.0012719391
0000c0 80 97 29 3b 3a e1 1b 3c c8 12 55 3c 67 7c 40 3c
       0.0025877655 0.009514147 0.013004966 0.01174841
0000d0 a1 ca e2 3b 3b d1 f0 39 cd 6a 05 bc 9c e2 b5 3c
       0.006921128 0.00045932256 -0.008143139 0.022202782
0000e0 7c 77 76 3b 18 db a9 3a fa 57 53 bc eb b7 e6 3b
       0.003760784 0.0012958972 -0.012899393 0.0070409677
0000f0 29 9f a7 bb 34 5d 9c bb 7b 75 cd 39 dd 47 08 bc
       -0.005115409 -0.004771853 0.00039188177 -0.008317915
000100 65 f7 60 3a 92 ab 38 bc eb 74 9d bb 90 35 95 bb
       0.00085817865 -0.011271374 -0.0048051975 -0.0045535043
000110 c3 82 59 bb 40 38 83 ba 07 1a 60 3c 97 da 09 bb
       -0.0033189512 -0.0010011271 0.01367808 -0.002103483
000120 d3 6f 92 3c 77 76 c4 3b 53 97 c7 bb a9 5b 6d bc
       0.017875588 0.0059955674 -0.0060910373 -0.0144871855
000130 53 22 af bb be 0b dd 39 63 01 af bc d0 f3 4d 3b
       -0.005344668 0.00042161153 -0.021362966 0.003142584
000140 8e bf 65 3b ee 1d 28 bc 86 8f 02 bc 2c ea 64 bb
       0.0035056802 -0.010261042 -0.007968789 -0.0034929616
000150 7c c9 1d 3c e2 85 75 3b 9c 55 9f 3c e2 9b c2 3b
       0.009630557 0.0037463834 0.019450001 0.005938993
000160 83 fe 86 bb 29 41 02 3c 64 f0 17 bc 25 29 0b bb
       -0.0041196956 0.007950106 -0.009273622 -0.002123424
000170 0c 51 04 3c eb 94 d1 bb ea 1c 8a 3c 6d 64 8e 3c
       0.008075964 -0.0063959262 0.01685949 0.017381871
000180 58 37 8e 3a f5 db ea 3b 96 86 73 bc a7 4c b2 bb
       0.0010850234 0.007167334 -0.014863631 -0.0054412666
000190 7c ee aa bb 55 9e a9 ba a3 d6 5f bb e2 90 b6 3c
       -0.005216418 -0.0012940863 -0.0034155033 0.022285882
0001a0 10 35 08 3c 8f 3e 25 3b 41 96 0c bb 9b 44 0f bc
       0.008313432 0.002521429 -0.0021451863 -0.008744384
0001b0 c9 4d 14 bb 43 02 a9 ba e7 57 e4 3b a8 35 a8 3b
       -0.0022629371 -0.0012894351 0.0069684866 0.0051333494
0001c0 36 5e 2d ba 63 c5 cb b9 e2 ec e3 3b 77 50 4d 3c
       -0.0006613465 -0.00038866242 0.006955729 0.012531391
0001d0 8a 58 8e bb ea 82 87 bb 5f 39 dc 3b 55 80 04 3b
       -0.004344051 -0.004135479 0.0067207064 0.0020218093
0001e0 3d 39 56 3c 6a 51 5e 39 57 d2 b6 ba 2a bd 0f 3c
       0.01307517 0.00021201899 -0.0013948184 0.008773128
0001f0 7f 0a c4 bb 1d 21 7b 3c aa 39 9a 3c 01 6a b1 3b
       -0.0059826965 0.015327719 0.018826324 0.005414248
000200 a4 1e 00 3a 94 21 8c 39 c3 50 c6 bb 3c 43 c2 bb
       0.00048873783 0.00026727899 -0.006052108 -0.005928425
000210 4e 87 f2 ba 93 28 d8 bb d7 91 79 3b 09 b8 96 3b
       -0.0018503459 -0.0065966337 0.0038081312 0.0045995754
000220 5f a7 90 bb c3 65 90 3b 86 c1 45 38 f2 5b 19 3c
       -0.0044144834 0.004406662 4.7148693e-05 0.0093603
000230 8e 28 85 3b b4 16 80 bc 8b 84 b4 35 64 e0 ce bb
       0.0040636724 -0.015635826 1.344962e-06 -0.0063133705
000240 7e 07 34 bb 96 eb 52 3c 3c 8a 43 3c ee a8 ab 39
       -0.0027470286 0.012873551 0.011934813 0.00032741524
000250 cf 95 64 3c 3c 27 5e bc ab 6b fe 3b fe 52 0f 3c
       0.013951733 -0.013559159 0.0077643 0.008747814
000260 44 bf 29 3b bc c0 15 ba b1 e9 8a bc ac a5 59 3c
       0.0025901357 -0.00057126186 -0.016957136 0.013284128
000270 b2 70 eb bb 39 db 4d 3c 44 db 01 3c f4 c8 cd bb
       -0.007185065 0.012564474 0.007925812 -0.006280059
000280 00 c1 37 b9 15 66 0f 3b a9 2a 39 3a 22 0a ed 3b
       -0.00017524138 0.0021880914 0.0007063547 0.007233874
000290 d6 00 3a bb 0f 45 4f bb 63 ea e2 3b 4b 01 ef 39
       -0.0028381846 -0.0031626855 0.0069249137 0.00045586596
0002a0 bb 78 2f bc fd ca 6d 3c f5 1c 4f 3c 9c a2 58 3c
       -0.010709937 0.014513728 0.012641181 0.013222363
0002b0 8f 6c 04 3c d4 81 21 3c 72 40 69 3c 21 c4 1e bc
       0.008082523 0.009857614 0.014236556 -0.009690315
0002c0 81 76 33 ba e6 9b f3 3b 27 db ae 3b e5 1f 00 bb
       -0.00068459666 0.007434356 0.0053361836 -0.001955026
0002d0 0e a1 8c 3b b7 69 c9 bb 14 db 8c ba 22 b8 7c bc
       0.00429166 -0.0061466354 -0.0010746443 -0.01542476
0002e0 68 9b 95 3c f6 71 71 ba d5 2e 17 bc c6 d0 98 bc
       0.01826258 -0.0009210402 -0.009227474 -0.018654238
0002f0 8a a7 a8 3b c2 4a 7b 3a cb b4 a3 3c 1a db 9d 3b
       0.0051469253 0.000958603 0.01998367 0.0048173787
000300 e0 e9 92 bc 90 6c b6 bc a1 29 26 bc 73 89 4b 3b
       -0.017933786 -0.022268564 -0.010141761 0.0031057268
000310 dc 08 cf bb 07 6f bc bb 88 cd 15 3b bc da 22 3c
       -0.006318195 -0.00575054 0.0022858102 0.009939846
000320 1e b9 b4 3b 68 29 56 bb d6 f8 cd bb b3 72 32 3b
       0.0055152318 -0.0032678489 -0.006285767 0.002722901
000330 b5 6f 9a 3c e4 63 6f bc 5e 52 86 bb df 78 3e bc
       0.018852094 -0.014611218 -0.0040991744 -0.011625498
000340 46 43 41 3b 68 71 df 3b 5c 99 15 3b 9c 2e 0b bc
       0.002948956 0.006818939 0.0022827005 -0.008494999
000350 48 ee 8d 39 a3 bb 43 3c 27 14 20 bc 6b ed b6 39
       0.0002707115 0.011946592 -0.00977043 0.00034890635
000360 8c 8c 39 3c d1 8f f7 bb 04 94 fa 3b 66 fc 19 bc
       0.011325013 -0.007554986 0.0076470394 -0.009398555
000370 9c 41 97 3a 40 e6 02 3c 31 d9 2d bc a4 bc 7f 3b
       0.0011539939 0.007989466 -0.0106108645 0.003902235
000380 51 9d 06 3c 0b f8 21 3c 39 41 1b bc 65 08 1e bc
       0.008216218 0.009885798 -0.0094759995 -0.009645556
000390 4e 84 9a 3b 51 a4 75 3c 08 7c 8c 3c e7 65 73 3c
       0.004715479 0.014992789 0.017148986 0.014855838
0003a0 e2 24 83 3b 18 17 3a 39 ac f3 2a bb a9 6a c8 bc
       0.0040021995 0.00017746945 -0.002608518 -0.024464922
0003b0 83 14 19 3b df 1e 70 3b 6b 89 af 3c cc 52 5a 3b
       0.0023358173 0.0036639494 0.02142783 0.003331351
0003c0 f7 83 56 3c 5f d9 64 bb b5 db 25 3b 20 5d 3e bb
       0.013092986 -0.0034919602 0.0025307958 -0.0029047206
0003d0 52 db c3 39 f3 ee 56 bb 60 41 84 3c 41 57 e2 3b
       0.00037356705 -0.0032796233 0.016144454 0.006907374
0003e0 20 fc cd bb 78 48 f1 3b 56 55 15 3b 86 43 7a bb
       -0.006286159 0.0073633753 0.002278646 -0.003818722
0003f0 5a d3 d2 3b 7a 54 1a 3b d7 fd ff 3b be 48 2b bc
       0.0064338865 0.0023548887 0.0078122425 -0.010454355

action_model._discrete_distribution.branches.6.bias f4 [3]
000000 4e aa 66 bb f2 3d 59 bb f0 f4 db 3b
       -0.0035196724 -0.0033148495 0.0067125484
