ArmRobot/Assets/Config/results/in2Robot/AgenteRobot/AgenteRobot-0.onnx (onnx, 147177 bytes, 22 tensors)

170 f4 [115]
00000000: 0000 803f 0000 803f 0000 803f 0000 803f
00000010: 0000 803f 0000 803f 0000 803f 0000 803f
00000020: 0000 803f 0000 803f 0000 803f 0000 803f
00000030: 0000 803f 0000 803f 0000 803f 0000 803f
00000040: 0000 803f 0000 803f 0000 803f 0000 803f
00000050: 0000 803f 0000 803f 0000 803f 0000 803f
00000060: 0000 803f 0000 803f 0000 803f 0000 803f
00000070: 0000 803f 0000 803f 0000 803f 0000 803f
00000080: 0000 803f 0000 803f 0000 803f 0000 803f
00000090: 0000 803f 0000 803f 0000 803f 0000 803f
000000a0: 0000 803f 0000 803f 0000 803f 0000 803f
000000b0: 0000 803f 0000 803f 0000 803f 0000 803f
000000c0: 0000 803f 0000 803f 0000 803f 0000 803f
000000d0: 0000 803f 0000 803f 0000 803f 0000 803f
000000e0: 0000 803f 0000 803f 0000 803f 0000 803f
000000f0: 0000 803f 0000 803f 0000 803f 0000 803f
00000100: 0000 803f 0000 803f 0000 803f 0000 803f
00000110: 0000 803f 0000 803f 0000 803f 0000 803f
00000120: 0000 803f 0000 803f 0000 803f 0000 803f
00000130: 0000 803f 0000 803f 0000 803f 0000 803f
00000140: 0000 803f 0000 803f 0000 803f 0000 803f
00000150: 0000 803f 0000 803f 0000 803f 0000 803f
00000160: 0000 803f 0000 803f 0000 803f 0000 803f
00000170: 0000 803f 0000 803f 0000 803f 0000 803f
00000180: 0000 803f 0000 803f 0000 803f 0000 803f
00000190: 0000 803f 0000 803f 0000 803f 0000 803f
000001a0: 0000 803f 0000 803f 0000 803f 0000 803f
000001b0: 0000 803f 0000 803f 0000 803f 0000 803f
000001c0: 0000 803f 0000 803f 0000 803f
1.0 1.0 1.0 1.0 1.0 1.0 1.0 1.0
1.0 1.0 1.0 1.0 1.0 1.0 1.0 1.0
1.0 1.0 1.0 1.0 1.0 1.0 1.0 1.0
1.0 1.0 1.0 1.0 1.0 1.0 1.0 1.0
1.0 1.0 1.0 1.0 1.0 1.0 1.0 1.0
1.0 1.0 1.0 1.0 1.0 1.0 1.0 1.0
1.0 1.0 1.0 1.0 1.0 1.0 1.0 1.0
1.0 1.0 1.0 1.0 1.0 1.0 1.0 1.0
1.0 1.0 1.0 1.0 1.0 1.0 1.0 1.0
1.0 1.0 1.0 1.0 1.0 1.0 1.0 1.0
1.0 1.0 1.0 1.0 1.0 1.0 1.0 1.0
1.0 1.0 1.0 1.0 1.0 1.0 1.0 1.0
1.0 1.0 1.0 1.0 1.0 1.0 1.0 1.0
1.0 1.0 1.0 1.0 1.0 1.0 1.0 1.0
1.0 1.0 1.0

action_model._discrete_distribution.branches.0.bias f4 [3]
00000000: 0000 0000 0000 0000 0000 0000
0.0 0.0 0.0

action_model._discrete_distribution.branches.0.weight f4 [3, 128]
00000000: 24d4 233c 2838 4aba 5a4a 873c 8a70 1d3c
00000010: 1732 ceba 8b67 2cbc 9ddf 1c3c e661 833c
00000020: 8012 77bc 3db9 02bc 4f7d 69ba 9fcd a83b
00000030: bf61 dc3b 2f57 e2ba 8cf1 ab3c 6ddc f93a
00000040: 53b0 6e3c adca b4bb e34c 4ebc 440a 103c
00000050: ca10 01bc d2aa 893b cfd6 f7ba 839a e53b
00000060: f75c 81bb e2af 91ba 561b 0f3b c206 00bc
00000070: 34d4 a0bc d594 733b fa4a c53b 95aa 18ba
00000080: e36e f13b 3ecd 033c f383 20bc d82f a9bb
00000090: 8f37 f73b 5b3d 11bc 4a20 7e3b 6bd9 8dbb
000000a0: 7ab9 19bb 2717 2bbc 3d2b e4bb d66c 46bb
000000b0: af7b 9f3a 1e82 47bc eb8b 82bc 705c adbb
000000c0: 6b93 5cbc 75b6 3abc 3a7f a03b c163 0cbb
000000d0: d72b 47bc b1ed 283b 4cf3 323b cd0c b3bb
000000e0: 31bc 153b 421e 97bc f301 c8ba 9bf0 8d3c
000000f0: 4204 683c 3f03 663c 4575 53bb 265a 303c
00000100: 20ab 593b 1973 abbb 4d5a 2b3c c55e 5bbb
00000110: 7b98 8cbb 5c66 8cbb 1703 d4ba 5963 8d3c
00000120: 3333 05bc 0b20 cbbb 4f79 ef3b 87e2 e9bb
00000130: 3bd1 693b 7f5f d8bb 335b e839 eafd 97bc
00000140: d302 c73b 8f02 553c f1d7 b4bb 9cb2 313c
00000150: ef25 e0bb 7348 a3ba 1265 d93b f867 bb3b
00000160: 8983 b9bb 9292 11bc 71a7 20bb 507c 2bbc
00000170: 8b3b a8bb 1d63 27bc b55c 9fbb 8a07 d53b
00000180: d4bd b3bb 78fa d03b 59e6 bbba a23d 4e3c
00000190: 26a5 9cb8 9370 243b fd13 4dbc 2eb5 2bbc
000001a0: 8d33 01bb 28a1 263c 3363 99bb 2adf 94bc
000001b0: e397 8fbc 5fbe 6bbb ca44 cabb 411e 03bc
000001c0: 0db2 583b 50c4 14bc 3031 4ebb cda3 d9ba
000001d0: b2d8 48bc eec8 c53b 97a6 053c f774 193c
000001e0: 437e 8bbb 70bf d539 084c d1ba 6a45 43bc
000001f0: 9bbc f4bb af97 59bc 5789 313b 96af 15ba
00000200: 4fc4 8ebc d3b1 dc3b af19 bab9 529f 8239
00000210: 749d 81bb fb18 733b e72e 453b c487 cabb
00000220: 5986 a43c ef49 75bc 4eb9 003c ff63 48bc
00000230: bf9c 113c 4e84 903b e750 c13b 839d a9bb
00000240: d718 d2bb c399 b9bb 3e3c afbb 4dc6 7abb
00000250: a7b4 d03a 9e54 3e3c 4e6c 4abb 5513 25bb
00000260: e092 ec3c 5fa7 a6bb 683d d73b 775d 473a
00000270: cb30 263b 5da3 afbb a337 13bc 488a 183b
00000280: 448b 28bb 0dbe 973c 4216 53bb b284 76bb
00000290: 3fd6 82ba 1a22 133c beac cc3b 7079 813c
000002a0: 930b 633a b324 023c 0045 fe3b 7a6a 423c
000002b0: 0cfa 023c 8fdb bdbb a541 593c ef3c 193c
000002c0: 0abb e03b 3b44 aebc 1b6f 0d3c e239 d2ba
000002d0: 132e 1cbc d551 ccba 860f bf3a 065e 00bb
000002e0: c237 6eb8 b731 d83b a8cb e03a 8838 8bbb
000002f0: 7b15 49bb c203 6dbb dbce 5f3c 37ef 72bc
00000300: a68b 333c 0d19 573b 119c c839 47c2 6d3a
00000310: b60b b039 d75e d33b 0f85 a3ba c662 313b
00000320: 93e5 4c3c 5f65 cb3b 52de b63b eb5e 883a
00000330: 93c8 86bb 70ff a5bc c574 7dbc b7b0 cabb
00000340: 4564 05bc d06e b03a b361 33bc fb86 bb3b
00000350: 0218 db3b aaee 42ba 8842 323b 6293 42bc
00000360: 3d82 463b c9ab 4cbc 2fbf 2fbc d3e4 75bb
00000370: e87b 073c b944 8cba b417 163c e22d 323b
00000380: 3e66 823b 62c3 dd3b 63df 213c 686a c3ba
00000390: 6f79 3abc 6d08 54bc f221 953c 7604 b83b
000003a0: 515d 943b 88ed 66bb 60c0 513c 6889 863c
000003b0: 3ac3 023c 2b4e ccbb b3cc 3bbc f354 743c
000003c0: 10d6 2c3b 5808 99ba ff97 a83c fb8e b83b
000003d0: b86f 513c cea2 433b c088 dcbb b358 bfba
000003e0: 1b32 143c e60c b539 527f 2a3c 3fc1 38bc
000003f0: 690f acbb 03ef 363b 85b6 aabc c746 e4bc
0.009999309 -0.00077140564 0.016514946 0.009609351 -0.0015731481 -0.010522733 0.009574798 0.016037893
-0.015080094 -0.007978735 -0.0008906917 0.005151465 0.0067255194 -0.0017268414 0.020989202 0.0019062884
0.014568406 -0.005517325 -0.012591573 0.00879151 -0.007877538 0.0042012716 -0.0018908622 0.0070069446
-0.00394785 -0.0011115039 0.0021836362 -0.007814111 -0.019632436 0.0037167568 0.006020901 -0.00058237585
0.007367955 0.008044539 -0.009797084 -0.005163174 0.007544465 -0.008864726 0.003877657 -0.0043288968
-0.00234565 -0.010442532 -0.006963162 -0.0030277274 0.0012167598 -0.012177018 -0.015935859 -0.0052905604
-0.013462882 -0.01139604 0.004897979 -0.0021421763 -0.012156448 0.002577644 0.002730566 -0.0054641725
0.0022847767 -0.018447045 -0.001525937 0.017326644 0.014161171 0.01403886 -0.0032265943 0.010763681
0.003321357 -0.0052322266 0.010458541 -0.0033473235 -0.004290638 -0.004284663 -0.0016175237 0.017259287
-0.008129883 -0.006198888 0.0073081623 -0.0071376 0.003567769 -0.006603181 0.00044318437 -0.018553693
0.0060733347 0.013001098 -0.0055189063 0.010845806 -0.0068404595 -0.0012457505 0.006634363 0.005719181
-0.005661432 -0.008885043 -0.0024513865 -0.01046665 -0.005134051 -0.010216502 -0.0048633465 0.006501143
-0.0054852758 0.0063775145 -0.0014335617 0.012587937 -7.469421e-05 0.0025091514 -0.012516973 -0.010480208
-0.0019714565 0.010170259 -0.004681015 -0.01817282 -0.01752848 -0.0035971624 -0.006172751 -0.008002819
0.003306511 -0.009080008 -0.0031462424 -0.0016604603 -0.012258695 0.0060359156 0.008157394 0.0093662655
-0.004256995 0.00040769158 -0.0015968094 -0.011918405 -0.0074687726 -0.013280793 0.0027089918 -0.0005710063
-0.017427592 0.0067350655 -0.0003549582 0.00024914235 -0.0039555375 0.0037093747 0.003008777 -0.0061807353
0.020083593 -0.01497124 0.00785668 -0.012230872 0.008887469 0.004410303 0.005899537 -0.0051762476
-0.0064116525 -0.005664082 -0.0053477576 -0.003826517 0.0015922979 0.011616854 -0.0030887309 -0.0025188525
0.02887863 -0.00508587 0.0065685995 0.0007605175 0.0025358673 -0.0053600506 -0.008985433 0.0023275781
-0.0025717774 0.01852324 -0.0032209312 -0.0037615714 -0.0009982063 0.008980298 0.0062461784 0.015804976
0.00086610875 0.00794332 0.0077596903 0.011866206 0.007994186 -0.0057939957 0.01326028 0.009352907
0.0068582343 -0.02127277 0.008632447 -0.0016038979 -0.009532469 -0.0015588353 0.001457677 -0.0019587292
-5.679555e-05 0.0065977233 0.0017150538 -0.0042486824 -0.003068297 -0.003616557 0.013660158 -0.014827541
0.010958588 0.0032821328 0.0003826325 0.0009069782 0.0003357806 0.006450515 -0.0012475568 0.002706693
0.012505907 0.0062071527 0.005580702 0.0010404264 -0.004113266 -0.020263404 -0.015469735 -0.006185617
-0.008141582 0.0013460759 -0.010948586 0.005722878 0.0066862116 -0.00074360764 0.00272003 -0.011875959
0.003029003 -0.012492129 -0.010726734 -0.0037520423 0.008269288 -0.0010701633 0.009160925 0.0027187993
0.0039794734 0.006767676 0.00987992 -0.0014909031 -0.011381491 -0.012941462 0.018204663 0.005615766
0.0045277257 -0.0035236795 0.012802213 0.016422942 0.007981116 -0.0062349043 -0.011462378 0.014912832
0.0026372708 -0.001167546 0.02058029 0.005632279 0.0127829835 0.0029851678 -0.006730169 -0.0014598578
0.009045149 0.0003453262 0.010406332 -0.011276542 -0.0052508605 0.0027913458 -0.020838985 -0.02786578

action_model._discrete_distribution.branches.1.bias f4 [3]
00000000: 0000 0000 0000 0000 0000 0000
0.0 0.0 0.0

action_model._discrete_distribution.branches.1.weight f4 [3, 128]
00000000: 37ca 55bc 1390 313a 3400 9fbb afa8 76bc
00000010: 7f7b 6a3b 21ab 8dbc eb6f 9fbb 861f 96bb
00000020: 0cae 1a3c 4f06 30bc 6b87 bd3b 3dc8 e13b
00000030: db49 00ba 3fd8 90ba afde b0bb f780 f9ba
00000040: f708 59bc f277 2d3c 6d13 2eba c81d b03b
00000050: efd9 353c df3b 333a 2ac9 abba afcd e43b
00000060: d85d 3d3c 3412 94bc f89f a0bb bf46 1d3c
00000070: c38d b8ba 500d 6d3a 4d9e b8bb 8fb8 bebb
00000080: 2cbb 18b9 b3cf e63a 60f6 53bb 7c4d 1bbc
00000090: b814 613b 00d0 79bc c60a a6bb 8334 d63b
000000a0: 5b31 d6ba abdc 62bc 5fa4 3739 ab2c 0e3b
000000b0: 2991 8cbc e748 7aba 5d29 87bb ff13 21bc
000000c0: ff2c 34ba 6021 05bc 28f3 ee3b 4a0e 023c
000000d0: a06a 463b 9e2b 853b 8150 343c 98a5 3d3c
000000e0: 23dc 56bc 7f9d 413c d3b6 283c 958a 3cba
000000f0: 2013 6fbc c0d5 48bc c39b 0fbc ab9a 11ba
00000100: f3b5 42bc 207a 52bc 584d 3ebc 4701 a1bb
00000110: 67b7 bbbb ae5e 0a3c 583f d4ba 7e18 20bc
00000120: dfeb 5fbc af16 743a 8f88 88bc c9e8 29bb
00000130: 27d1 de3b 6de4 9fbb 8d14 d8bb 57f1 4cbc
00000140: 35d4 fdbb 0500 ea3a 31fd 2bbb 2989 3abc
00000150: e241 13b9 3f95 dc3a ef45 12bc 5ec7 b9b9
00000160: 9700 95bc 2bb8 2abb 0bca 173c bd2a 173c
00000170: 41e0 8abb 7594 f9bb 3a9d 523c 294e a83b
00000180: 5df5 9abb 5bc5 abbb e722 0cbc ca01 7c3b
00000190: 8697 a1bb e980 013c 8dca 2b3c 78fd c13b
000001a0: bb2e 473c 067a 9937 cde6 6c3a e587 8fbb
000001b0: 8843 103c fba9 31bc f48b 033c a81d f93b
000001c0: bba3 693c c8fd d83b df47 963b 87c8 37bc
000001d0: bf65 153c f073 313c e10e 823b afee 03bc
000001e0: adc5 dc3b 1765 22ba bbf2 36bb 2bc9 b23b
000001f0: fabd a7bc 3b22 713b 40df 66bb 483c eebb
00000200: c177 3b3b b7ca 883b 88f1 553a ab9e d83b
00000210: 765a b03c fa68 f7ba 8f0a 00bc ad24 f439
00000220: a2b8 473b 8b81 5f3a 67a4 71bb 9e2e 95ba
00000230: decc 83bc ef4d 01bc 389a af3a 8ff7 01bc
00000240: 22b0 bebc 1da8 7a3c 57b0 523c b38a 31bc
00000250: 03cc 0d3b 9718 1f3c e58f 88ba 1ec9 23bc
00000260: 2311 18bc 2f0d f63b 1d25 5b3a 71cc 0fbc
00000270: baeb 0bbc fd8b 623c a2be ddbb cb9d be3b
00000280: 3335 bb3b 72ac d23b 731f efba e3d3 83bb
00000290: 75e9 e23b 13de 573b 1449 323c 33b2 0ebc
000002a0: afcc 963b ad8d ff3b e749 b2bb 9824 a23b
000002b0: c8c5 47bb 098d bbbb 817d 8dbb 784e 3cbc
000002c0: 7be6 fdba 2059 d3b9 6e2e 43bc 2f55 ccbc
000002d0: 74e9 2b3b 4db4 61bc 0c49 9bbb eb71 5dbc
000002e0: 76fb 313c 3c4a 89bb 9bc3 9b3c a8b5 05bb
000002f0: fa79 953c c2cb 4fbc 0b11 febb 378f 043b
00000300: 0af9 4ebc c716 233b f7a7 663c b957 1fbb
00000310: 157a 6b3c c6c4 36bc cbe9 3b3c ff8a e83b
00000320: 4f6e c3bb a77e acbc bcab 3e3b 8316 f63b
00000330: 5f38 f13a a51c e8bb 5b46 1a3c cbe3 a53b
00000340: a507 e43a 1f39 4cbb 414e 2abb 6b1b b7b9
00000350: 67e1 463c 7f24 6f3c ff1c 0f3c c8c0 f4bb
00000360: 20af 12bc 358f fe3b b21e 6abb 67a0 82bb
00000370: 4b7d a43b 6375 8839 851b e9ba 276d 363a
00000380: 7f2b 633a 0ce6 c03a c588 763b 708b db3a
00000390: 68e2 53ba e634 093c c576 4c3c e04e 6ebb
000003a0: 071d 8c3c 03ef 6c3b 1d3e 2dbb cc11 15bb
000003b0: 03b0 8d3c 8b52 6c3b 4a23 3bbc 68d6 eaba
000003c0: 2717 013b 1446 913c 2542 e4bb 9595 7f3c
000003d0: 904e e3ba 1a76 81bc 38f2 ed3b c2bd 8cbb
000003e0: 63f9 71bc d154 8b3c c2cc 4dbb 27d0 103c
000003f0: 7b53 87bc d374 ea3b 5d05 26bc 7d27 6bbc
-0.0130487 0.0006773483 -0.004852319 -0.015054866 0.0035779176 -0.017293515 -0.0048656366 -0.0045813946
0.00944091 -0.010743692 0.0057839653 0.0068903253 -0.0004893818 -0.0011050774 -0.0053976397 -0.0019035627
-0.013246766 0.010587679 -0.0006640468 0.005374644 0.011099323 0.00068372296 -0.0013106216 0.006982527
0.011558019 -0.018075086 -0.0049018823 0.009599387 -0.0014080334 0.0009042816 -0.0056341053 -0.005820341
-0.00014565577 0.0017609507 -0.0032342896 -0.009478923 0.0034344625 -0.015247345 -0.0050672023 0.0065370216
-0.0016341613 -0.013846557 0.00017513473 0.0021694105 -0.017159062 -0.00095476065 -0.004124804 -0.009831428
-0.000687316 -0.008125633 0.00729217 0.007937977 0.0030275956 0.0040640375 0.011005522 0.011575125
-0.013114008 0.011817335 0.010297495 -0.0007192281 -0.014591962 -0.012257993 -0.008765164 -0.00055543584
-0.0118842 -0.0128465 -0.01161512 -0.0049134823 -0.0057286504 0.008445425 -0.0016193194 -0.009771464
-0.013667076 0.00093112414 -0.016666679 -0.0025926104 0.0067998352 -0.0048795254 -0.0065942467 -0.012508712
-0.0077462443 0.0017852789 -0.0026243443 -0.011385241 -0.00014043556 0.0016829147 -0.008927806 -0.0003543449
-0.018188758 -0.0026049714 0.009264479 0.009226498 -0.004238159 -0.0076165744 0.012854869 0.0051362705
-0.0047289566 -0.0052420325 -0.008553243 0.0038453215 -0.004931393 0.00790427 0.010485304 0.0059201084
0.0121571375 1.8295843e-05 0.00090370775 -0.0043802136 0.008805163 -0.010843749 0.008028973 0.0076024123
0.014260228 0.00662205 0.0045862044 -0.011217243 0.009118496 0.010830864 0.003969059 -0.008052512
0.006737432 -0.0006194873 -0.0027915675 0.00545611 -0.02047633 0.0036794085 -0.0035228282 -0.0072703697
0.0028605314 0.004174556 0.0008161296 0.0066107116 0.02152751 -0.001887589 -0.007815017 0.00046566632
0.003047504 0.00085260783 -0.0036871673 -0.0011381691 -0.0160889 -0.007892116 0.0013397401 -0.007932558
-0.023277346 0.01529887 0.0128594255 -0.010836291 0.0021636493 0.0097104525 -0.001041886 -0.009996681
-0.009281429 0.007508896 0.00083597173 -0.00877677 -0.008540088 0.013827321 -0.00676711 0.00581715
0.005713129 0.0064292485 -0.0018243626 -0.0040230616 0.006924803 0.0032938763 0.010881681 -0.008709478
0.004602037 0.0077988715 -0.0054409388 0.00494821 -0.0030482877 -0.0057236 -0.0043179397 -0.011493318
-0.0019371057 -0.0004031146 -0.011912925 -0.024942962 0.0026231678 -0.013775897 -0.0047389325 -0.01351593
0.010863176 -0.0041897576 0.01901417 -0.0020402465 0.01824664 -0.012682857 -0.0077534965 0.0020226964
-0.012632618 0.0024885403 0.014078132 -0.0024313761 0.014372368 -0.011155313 0.011469315 0.0070966478
-0.0059640775 -0.021056486 0.002909406 0.007510008 0.0018403641 -0.007083493 0.009416188 0.0050625554
0.0017397298 -0.0031161977 -0.0025986584 -0.00034924908 0.012138701 0.014596104 0.008734941 -0.0074692704
-0.008952886 0.0077685365 -0.0035723862 -0.0039864066 0.005019819 0.000260274 -0.0017784691 0.0006959014
0.0008665844 0.0014716997 0.0037618142 0.001674993 -0.00080827484 0.008374428 0.012479489 -0.003636293
0.017103685 0.0036153204 -0.0026434727 -0.0022746203 0.017295843 0.0036059942 -0.011421988 -0.0017916681
0.0019697638 0.017733611 -0.006965893 0.015599628 -0.0017342139 -0.015803386 0.0072615407 -0.004295082
-0.014768931 0.017008217 -0.0031402563 0.00883869 -0.016519299 0.00715504 -0.010133115 -0.014352676

action_model._discrete_distribution.branches.2.bias f4 [3]
00000000: 0000 0000 0000 0000 0000 0000
0.0 0.0 0.0

action_model._discrete_distribution.branches.2.weight f4 [3, 128]
00000000: 85c9 18bb 0840 d73b 1850 123b 439f 0f3c
00000010: ae21 023b bdf0 adbb 2543 05bb 0da3 513c
00000020: 2f4a 8e3c e385 1cbc 1b9a 69bc 836e d7ba
00000030: 2573 78bc ebf1 113c cb56 3ebb 51a3 1dbb
00000040: dfbe 2fbb 6806 883c ea0d 303c d2af 15bc
00000050: 9f12 0dbb 3974 b83b d594 7b3b 4d6e 67bc
00000060: e77d f3bb 3012 e8bb 6bd4 62bb a796 9ebc
00000070: eaff 51bc cd91 05bc e1f1 4a39 de51 98b8
00000080: 1b39 2ebc d0bc 19bc 1397 08bc e68f 023c
00000090: 6956 a93c 6e46 983c d38e 873a 2bfe 8c3c
000000a0: ebf8 b23b 8f23 0dbc e93f 8ebb e757 f9bb
000000b0: dbec babb b769 e63a c54d b43b 267f 9f39
000000c0: a357 a13a d099 0fbc 9a79 57bc ffc3 113c
000000d0: b3d9 d1bb a895 02bc fec6 01bb 0e28 85bb
000000e0: 6ab0 283c d046 0cbc 6aba 79bc 0a86 a33c
000000f0: e84c 1fbc 08fd 183b c1b9 9f3a 23af 243c
00000100: 3778 7b3b 623a 0d3b 1e05 48b9 b570 573c
00000110: 5771 b9bb 6da8 a23b 9291 0fba 84a9 28bc
00000120: 8f3a b23b 4e80 2c3c 028d fb3b 4774 3abb
00000130: 10d4 d1ba 8b7a 6abb 24af 263c 553c 3ebc
00000140: 0dd2 b93b 87d5 343b 0f2a 013c a793 653b
00000150: 507d a63b 4b95 363b ae28 12bb b749 913b
00000160: fa8f d43b 6f25 26bb a5b3 8a3c eb9e 9a3a
00000170: 8fb5 863b 1058 e93b 4877 e0bb 4df1 e2bb
00000180: 28f5 6dbc 1ab8 48bb 96ea 05bb 7da4 423b
00000190: a352 c6bb a002 cd3b f712 d1ba 94e4 033c
000001a0: 9d6f 8939 aa82 5fb8 8be9 a53b c010 d7bb
000001b0: ef32 333b e064 16bc ea73 bf3b fb9c fb3b
000001c0: 9baa 94bb 2fab 7cbb 0b42 fb3a c784 fe3b
000001d0: fba1 e2bb 4725 db39 bf8f ddbb 9065 c63b
000001e0: bce0 b5bc c007 983b 2fef 853b 8382 6aba
000001f0: b1cb aa3b 132d f236 8bdd 20bc cd2e fe3b
00000200: 930b ffbb 1903 20bc 1744 10bc 8ade e2bb
00000210: 69f2 343c 2611 3bbc 63dc 1abb 9740 b33a
00000220: b5cb e2ba ce60 a3bc 53fc dfbb 6743 663b
00000230: 98c5 6dbb 376b 373c 9ff2 55bb 72a0 7b3c
00000240: 2eb0 c1bb 2725 3b3c 290c 17bc e519 e73a
00000250: 2b5b 8c3c b9d4 19bb 67ee d1b9 d5bf e0bb
00000260: 5bca 1ebc ff67 22bb e3f4 07bc 23a6 023b
00000270: 632a f03a 35c6 c8bb eb41 96bc 521d cb3b
00000280: 88fe c43a baae d9bb eacd 89bb 9156 0b3b
00000290: 026f dbbb 7b25 6cbb bbda 90ba 2a8f cf3b
000002a0: 82f3 1d3c 03e1 97bb 359d 003b a147 33bc
000002b0: b5ab eebb fdc8 32bb 6a52 703c 95bb 893b
000002c0: fbe8 04bc 45e1 1c3c 5a99 613c 1aec 373c
000002d0: 2236 5d3b 0cc9 363c dbb8 283b 852d 0f3c
000002e0: 9e7f af3a 4533 223b 0bcf cabb 03bf 9b3b
000002f0: d781 55bc 0027 6c3b 59b2 13bc c717 283b
00000300: bfab 4a3c 5b36 85bc 8e21 8c3b e845 a3bb
00000310: ef01 263b fe97 abbb 4b0d bd3b ad11 7fbb
00000320: f894 2a3c 85d5 c0bb 9ecb a1bb 7ba9 593b
00000330: 9ae1 133c b2a0 6fbc 96d4 983a 2f01 d4bb
00000340: a577 8ebc a823 1b3c 076e f33b bab0 233c
00000350: d865 edba 7713 8bbb 5518 1e3b a3bb a5bc
00000360: 0bc2 56ba 4b4c 79bc bea8 1c3a eb15 83bb
00000370: 025c 6f3b 8c67 afbb 7392 ddbb 5635 1fbc
00000380: 05d2 2abc 39f8 3d3b eb61 babb ff8a 4ebb
00000390: 2ffb 55ba 972d d9bb f3d0 13bc 2b7f 7bbb
000003a0: 8bfb c43a a7e0 17b7 ab68 1cbb 6987 a73c
000003b0: 3f77 6dbb a8fb 4fbc 2b81 4dbc 9639 b7bb
000003c0: cba9 f13b 5f5f 0e3c 6744 353a c669 02bc
000003d0: 61b5 823b cef8 05bc a333 25ba a3db c83a
000003e0: 7525 7bba 1f35 4e3c dbf6 0d3c 45f7 6238
000003f0: a55d 143c 4d72 583b e520 f83b 2ff6 703b
-0.0023313474 0.0065689124 0.0022325572 0.008765998 0.00198565 -0.0053082393 -0.002033421 0.012795222
0.017369358 -0.009553405 -0.014257933 -0.0016436133 -0.015164171 0.008907775 -0.0029043432 -0.0024053643
-0.002681665 0.016604617 0.010745505 -0.009136157 -0.0021525992 0.005629089 0.0038388271 -0.014125419
-0.00743078 -0.0070822462 -0.0034611474 -0.019358946 -0.012817362 -0.008152437 0.00019354328 -7.263174e-05
-0.010633732 -0.009383395 -0.0083368 0.007968878 0.020671086 0.018588271 0.0010342248 0.01721104
0.0054618022 -0.008614435 -0.004341115 -0.0076093557 -0.005704505 0.0017579113 0.005502435 0.00030421576
0.0012309443 -0.008764699 -0.013151551 0.008896827 -0.0064041256 -0.007970251 -0.0019802446 -0.004063613
0.010295967 -0.008561805 -0.0152421985 0.019961376 -0.009722926 0.0023344178 0.0012186096 0.0100515215
0.0038371214 0.0021549691 -0.00019075393 0.01314943 -0.005659263 0.0049639256 -0.0005476709 -0.010294322
0.0054391096 0.010528637 0.0076767216 -0.0028450654 -0.0016008634 -0.0035778608 0.010173593 -0.011611064
0.005670792 0.0027593093 0.007883563 0.0035030635 0.0050808564 0.0027859982 -0.002230208 0.0044338363
0.00648689 -0.0025351902 0.016931364 0.0011796629 0.004110999 0.0071210936 -0.006850157 -0.006925738
-0.014523782 -0.0030627311 -0.0020434014 0.0029700093 -0.0060523315 0.0062564164 -0.0015951087 0.008050103
0.00026213835 -5.3289034e-05 0.005063241 -0.006563276 0.0027343591 -0.009179324 0.0058426755 0.0076786256
-0.0045369393 -0.0038554182 0.0019169463 0.007767293 -0.0069162822 0.0004179871 -0.0067615206 0.0060545877
-0.022201888 0.0046395957 0.004087351 -0.00089458394 0.00521227 7.2174093e-06 -0.009818445 0.007757044
-0.007783362 -0.009766364 -0.008805296 -0.0069235014 0.011044123 -0.011417663 -0.0023629896 0.0013675865
-0.0017303141 -0.019943621 -0.0068354993 0.003513539 -0.0036281105 0.011194996 -0.0032645834 0.015358077
-0.005910895 0.011422432 -0.009219208 0.0017631619 0.017133316 -0.002347274 -0.0004004121 -0.0068588057
-0.0096918 -0.0024781225 -0.008298132 0.001993545 0.0018323179 -0.0061271437 -0.018341979 0.0061985636
0.001502947 -0.0066431435 -0.004205455 0.0021261314 -0.006696583 -0.0036033082 -0.0011051515 0.006334205
0.009640576 -0.004634978 0.0019624953 -0.010942371 -0.0072836527 -0.0027280443 0.014668087 0.0042032697
-0.0081121875 0.009575193 0.013769472 0.011225725 0.003375419 0.011156332 0.0025744948 0.00873888
0.0013389473 0.0024749797 -0.006189232 0.004752995 -0.0130314445 0.0036033988 -0.009014689 0.0025648938
0.012370049 -0.01626127 0.004276461 -0.0049826987 0.0025330742 -0.0052366247 0.005769407 -0.0038920448
0.0104114935 -0.0058848285 -0.004937603 0.003321259 0.009025956 -0.014625715 0.0011660035 -0.0064698677
-0.017391035 0.00946895 0.0074288878 0.009990865 -0.0018112017 -0.0042442637 0.002412339 -0.020231074
-0.0008192367 -0.015215944 0.0005976072 -0.0040004156 0.0036523347 -0.00535292 -0.006761843 -0.009717306
-0.010426049 0.0028987064 -0.0056879423 -0.0031515954 -0.00081627344 -0.006627749 -0.009021985 -0.0038375359
0.0015028579 -9.052607e-06 -0.0023866098 0.02045031 -0.0036234406 -0.012694277 -0.012543003 -0.0055915816
0.007374977 0.00868973 0.0006914795 -0.007959789 0.003988907 -0.008176995 -0.0006301945 0.0015324246
-0.00095804717 0.012585907 0.008664812 5.4112887e-05 0.00905553 0.0033027113 0.0075722807 0.003676783

action_model._discrete_distribution.branches.3.bias f4 [3]
00000000: 0000 0000 0000 0000 0000 0000
0.0 0.0 0.0

action_model._discrete_distribution.branches.3.weight f4 [3, 128]
00000000: f3d4 0abc f15f 30bc 8436 99ba 275c 4fbb
00000010: d360 90bb a805 8dbb 2676 85bc 1b8b 6abc
00000020: 77f2 3d3c d374 a4bb 9f3e 433b bd48 dfbb
00000030: d6a8 443c d3c9 6ebc 3b14 893b 8215 0cbb
00000040: f6bf b9ba 531a 19bb 644c 2dbc ef9d 9a3b
00000050: b490 103c 029d 9d3a 4a67 143c e8a8 a93c
00000060: 1f78 5cbc ef38 bc3c 79e1 91bc 2ff3 1cbc
00000070: 0b66 ccba 933e bc3b ff76 23bc f270 7fbb
00000080: 8994 be3b 1859 013c 47ef 753b ed4e 1dbb
00000090: 6d73 d83b 0cc1 053b 9a6d 743b 5988 c2bb
000000a0: 7353 6c3b 83c1 6dbb 7aef 333b 2f23 1dbc
000000b0: cf5a 353c d51a fdba ac2b 873c f89d 52bb
000000c0: 432b 013c 7651 233b b2b4 f3bb 4b0b 16ba
000000d0: d07a 55bb 266c ca3c 44e3 91bc e53f 06bb
000000e0: 60c4 b2bb 4433 85bc 378b 123c 9b7f b43a
000000f0: 3ac0 7a3b 0811 203b 65ef 2d3c 2d63 533c
00000100: 4f39 8dbc 08ad 64bb b742 9fba 5f14 1d3c
00000110: 2241 a03c a508 69bb 38ef 9b3b 0485 353c
00000120: 4025 92ba d210 12bb 380c 953b d449 16bc
00000130: e5e1 80bc d6c5 12bc 9e3d 833c 0a60 27ba
00000140: bca6 ad3b f578 443b 63eb f03a f20c fcbb
00000150: ef70 a1bb 6a1b 623c 91a2 3bbc ee41 8b3b
00000160: b1ca 103a 3396 3b3b c73e 9b3c f6a6 32bb
00000170: b7cf 0a3a cb9c 173c cf65 1bbc 006c 4e3b
00000180: 30fb 58bc 67d5 27bb e3fc 53bc 0b7d 483c
00000190: 8862 5c3b 709a eabb 0b71 603b 159d 363b
000001a0: 6d8c 6b3c 9adf ed3b 7df6 9b3b 97a4 f7ba
000001b0: bf96 b93b b366 153c 68e9 01bc 0719 b7bb
000001c0: 39b7 843c 6fd4 aabc 0f17 273c c7f8 653a
000001d0: 8f1e 873b e870 01ba 337b b03b c738 803b
000001e0: fa4b ca3b 3670 05bb 22d8 e9ba f64c 99bb
000001f0: 0fea a2bb 337c ad3c 9bfa 183a f245 8ebb
00000200: 6257 83ba a403 86bb 2ae9 52bb 3fb2 bfbb
00000210: 185a 94bc c7ed 233c 9fea 583b 0fd1 bf3b
00000220: bbc7 93bb bb44 21bc c5f1 c4bb 62e4 9abc
00000230: ed23 b4bb 3b8b f3b7 e994 29bc b315 18bc
00000240: e52d 86bc 22c3 aabb 15ef 61bb fbd2 38bc
00000250: 6d31 a73c 9d0b a83a 5348 603c 4ae3 3e3c
00000260: 9b59 093c 03f8 09bc 0b04 1cbc 0d6f dc3b
00000270: 7f27 4abb fb3a f2ba 5ca3 10bc 2da2 873c
00000280: 534d 5ebc 1341 60bc 1382 6f3b 7d76 a83b
00000290: 1446 8abc b765 853b bf04 8d3b 0ffe 733c
000002a0: 63de d5bb b0b2 52bb 7bb9 a6bc d453 0dbc
000002b0: cf94 a6bb 1db1 fabb e7fe 393c 3810 f4bb
000002c0: 8bea 81bb 2285 183c 2a23 84bb bfdb 11bb
000002d0: 051a 79bc da58 113c c0e9 e9bb 7316 c93b
000002e0: efdf 713c 4375 a8bb edc6 58ba a2dc b73b
000002f0: 37bc 2fbc 9d58 59bb 34a4 a13b 6b43 6cbb
00000300: ab38 d9bb 1f1b 9e3c ff31 f3ba a917 b0bb
00000310: 2aa1 c63b b118 07bc 1757 0ebc e3fa acb7
00000320: 27d7 5c3c 4be8 c23b 4d14 83bb ba30 683c
00000330: 6529 46bc f887 6cbc d737 10bb 0e71 1bbc
00000340: 39fe 073b 08e4 2c3c 1f96 203c 77a2 f5bb
00000350: e812 53bb 8871 763b 9b3a 86ba 9f1d 60bb
00000360: cf60 d2bb 2009 c2ba ad5b 823b 95fd e53b
00000370: 39aa 293c 535e 4f3c e5a9 d53a b34c 1ebc
00000380: 3dba 2abc cbd9 79bb b74d b43c e8d4 ebbb
00000390: 1b00 173a 82f8 b5bb 5b28 9dbb e88c fa3b
000003a0: f2a8 ce3b 1b0a ddba 4250 d83b 4982 363b
000003b0: ab26 203b e9d9 aabc b101 173c 1fe1 fa3b
000003c0: c34a e8bb efe0 a13b be12 4c3c 65cb 2cbc
000003d0: 9d61 7ebc ab71 83bb 0e79 05bc 3562 61bb
000003e0: 438d 903a bf2d 413c e63e 1c3c b2a2 573b
000003f0: 6fb1 fcbb 4d37 723c a71c ff3a 376f 10bc
-0.008473623 -0.010765062 -0.001168922 -0.003164062 -0.0044060736 -0.004303653 -0.01629169 -0.014315392
0.011593453 -0.0050188093 0.0029791964 -0.006814091 0.012003144 -0.014574486 0.00418332 -0.0021375124
-0.0014171589 -0.0023361638 -0.010577295 0.004718534 0.008823562 0.0012024941 0.009057829 0.020710424
-0.0134563735 0.022976367 -0.017807709 -0.009579464 -0.0015594376 0.005744764 -0.009977101 -0.0038977233
0.0058160466 0.007894777 0.0037526654 -0.0024003342 0.0066055567 0.0020409254 0.0037296773 -0.005936664
0.0036060482 -0.0036278672 0.0027455972 -0.009590908 0.011069014 -0.0019310365 0.016500317 -0.0032137614
0.00788385 0.002492038 -0.007437312 -0.00057237287 -0.0032574423 0.024709772 -0.017808564 -0.0020484861
-0.0054555386 -0.016259797 0.008944324 0.001377094 0.0038261549 0.0024424214 0.010616158 0.012902063
-0.01723924 -0.0034893174 -0.001215062 0.009587376 0.019562308 -0.003555813 0.0047587417 0.011079077
-0.0011150017 -0.0022287858 0.0045485757 -0.009172875 -0.015732715 -0.008958301 0.016020592 -0.00063848554
0.0052994173 0.0029979323 0.0018380698 -0.007691973 -0.004926793 0.013800481 -0.011452333 0.004249803
0.00055233674 0.0028623461 0.018950833 -0.002726016 0.0005295234 0.009253691 -0.009484722 0.0031497478
-0.0132434815 -0.0025609375 -0.012938711 0.012236844 0.0033628065 -0.0071595237 0.0034247066 0.0027864624
0.014376742 0.0072593214 0.0047596083 -0.0018893656 0.0056637223 0.009118724 -0.007929184 -0.0055877003
0.016200649 -0.02085325 0.010198369 0.00087727275 0.004123516 -0.0004937784 0.0053857802 0.0039130184
0.006173608 -0.0020361072 -0.0017840902 -0.004678364 -0.0049717496 0.021177387 0.0005835683 -0.004341834
-0.0010020549 -0.0040897895 -0.0032182434 -0.005850106 -0.018109366 0.010005421 0.003309883 0.005853779
-0.0045098937 -0.009843047 -0.0060102665 -0.01890773 -0.0054974467 -2.9032692e-05 -0.010350444 -0.009282517
-0.016379306 -0.00521125 -0.003447478 -0.01128077 0.02040931 0.0012820844 0.013689118 0.01165087
0.00838318 -0.008420947 -0.009522448 0.0067271055 -0.0030846295 -0.0018480712 -0.00882801 0.016556824
-0.01356824 -0.01368739 0.0036546036 0.005141078 -0.016879119 0.0040709632 0.0043035443 0.014892115
-0.0065267547 -0.0032149963 -0.020352116 -0.008625943 -0.0050836573 -0.007650508 0.011352277 -0.0074482225
-0.0039647273 0.009309085 -0.004032512 -0.0022256223 -0.015203957 0.0088712815 -0.007138461 0.0061367094
0.014762863 -0.005140932 -0.00082693883 0.0056110183 -0.010726026 -0.003316439 0.0049329046 -0.0036050926
-0.00662907 0.019300042 -0.0018554329 -0.0053739143 0.0060616927 -0.008245633 -0.008687756 -2.0620826e-05
0.013479031 0.0059481016 -0.004000223 0.014171774 -0.01209483 -0.014436714 -0.002200594 -0.009487404
0.0020750894 0.010552414 0.009801417 -0.007496174 -0.0032207314 0.003760429 -0.0010240854 -0.0034197343
-0.006420232 -0.0014803745 0.0039782138 0.0070187547 0.010355526 0.012656766 0.0016301243 -0.009661841
-0.010420379 -0.00381242 0.022009714 -0.0071970113 0.00057602086 -0.005553306 -0.0047960705 0.007646192
0.006306761 -0.0016863974 0.0066013644 0.0027848652 0.002443711 -0.02085586 0.009216712 0.007656231
-0.0070889904 0.0049401443 0.01245564 -0.01054654 -0.0155262025 -0.004011353 -0.0081465375 -0.0034390811
0.0011028427 0.011790692 0.0095364805 0.003290337 -0.0077115814 0.014783693 0.0019463495 -0.008815578

action_model._discrete_distribution.branches.4.bias f4 [3]
00000000: 0000 0000 0000 0000 0000 0000
0.0 0.0 0.0

action_model._discrete_distribution.branches.4.weight f4 [3, 128]
00000000: 1c4d 343b 2ffe d4bb e43c 2eba 1720 89ba
00000010: 5b92 a0bb fdd9 08bc af25 123b 1f61 98bb
00000020: b73b 79bc 5d0a d33a f5cc b7bb 3324 b93b
00000030: dfae c1bb 88c3 31bc 38a8 4fbc 03da dfbb
00000040: 5d4e 96bb ed72 54bb e7bf 43bc 5d07 fabb
00000050: 2dd9 56bb d74c 0aba f544 eebb 2124 2bba
00000060: 384e 3cbc 5fb0 22bc 3e42 323c b3a6 c2b9
00000070: 6213 bc3b 4a8c 0dbc a12c 33b9 a743 b93b
00000080: 7f78 0ebc c717 42bb af4e 7e3a 7dca 4dba
00000090: dffc 86b9 8dd8 c5ba 0b55 33bc 4a96 7cbb
000000a0: 6970 88bc bf39 a9bb 367e 19bc 8f0c 2fbc
000000b0: 6698 be3b d07a eb3b 1d89 95b9 fc91 ab3b
000000c0: 9ad6 8f3b 8103 083c f352 01bc 4fe5 0ebc
000000d0: b8f8 dfba e655 b9bb dacf 0b3c 361f 9c3b
000000e0: f36f ccbc a942 c23b 18e1 5abc 9b54 fcbb
000000f0: b8fd 6d3b 8606 8a3c 8961 423b 924d 30bc
00000100: df0b a1ba 12b2 0c3b 82ff 413b af0e b6bb
00000110: 7344 a1bb 6b24 05bb ba73 ea3b 1fc5 ccbc
00000120: 6b9a 273a 6fe6 213c 356a 0f3b 6053 b03c
00000130: 03a2 153c 57df a43a a054 4f3c a866 2b3c
00000140: d76f 773a 13d3 eebb 65e3 d2bb 0a2a 23bc
00000150: 3bbb e33a 0a8f 96bc 775f 233c 06eb 89bc
00000160: 1f34 833b 5025 2bbc 0f6f ec3b 0faa abbc
00000170: a5ef 5dbb aaf1 cfbb 8db5 d2bb 8382 84bc
00000180: 55b9 68bc 1b2d 9c3b a514 d039 cb24 9fb9
00000190: b9ca 123a c0b5 ed3b 1f6e 763b 775e 59bc
000001a0: e5e5 cabb 4dce 0e3b e3b6 83ba ea1f b03b
000001b0: 7b91 8cb8 e07d 953c f72b b83a ebf0 d03a
000001c0: c3c3 babb 5be7 063c bf5e a9bc b3d2 04bc
000001d0: 6d35 683c 2b88 deba a26a 513c 9002 9abc
000001e0: 9bda 1a3c ab23 d8bb d919 02bc 70f5 9abc
000001f0: f433 28bb d45e b4bb 6750 0e3c dda4 9abb
00000200: d785 2abc d94b 1e3c 4790 0dbc a652 45bb
00000210: 4fea 593c 2218 943c e12c caba c16b 323b
00000220: 3b53 993b 8beb 17bc c5db 7bbc 38a8 d73a
00000230: 33f2 6e3c defa abba 9e47 2fbc 8660 cc3b
00000240: fa35 b0bb c42d 933b 9b4c 37bb 3bd4 19bc
00000250: 2be4 8a3b d729 abbb 5cc0 a4bb 0763 813c
00000260: 7fab 17bb e81b 7a3c 73b6 57bc 8abf 593a
00000270: dee3 403c 5d4b 06bc 3291 f7bb bf10 57bb
00000280: 623f 4dbc ba0d 9c3c 3b7c 6e3c 77ff 9dba
00000290: b8d5 3fbc dbbc 323b c2d5 843b 808d 7abc
000002a0: 4b85 073c 7b65 4ebb 30e0 c1b9 2bb0 c43a
000002b0: 1f7b 6b3c a254 eabb ea0e 0bbc 7925 31bb
000002c0: d31e 083b 97e3 f03b 0f2a f43a 4f98 5cbc
000002d0: 3bb3 0abc d18f 2abc a786 0dbc 0f21 1f3c
000002e0: 3a77 213b 9acc 213c a4c1 17bc d226 68ba
000002f0: 02e6 7fba 5fb7 8aba de05 a8bb af03 26bb
00000300: c85a 1d3c c8e8 cf3b d0f5 70bc 0bde dcbb
00000310: 5280 503b 4907 9f3a bdc1 d139 9667 9e3b
00000320: 2d4e 43bb b6b6 243b e010 3c3c e63d 22bc
00000330: d386 d83b c227 bfbb efd5 853b c79d 64ba
00000340: 5f2a 06bc b3d9 713c b723 0e3b db4c 54bc
00000350: 6244 c5bb 6887 77bb bf62 af3c bbf6 d039
00000360: 937a 63bb 706f 84bb 5b5b bb39 8db1 06bc
00000370: 3654 bebb b3d4 eb3a b0c3 7d3c 091f 80bb
00000380: 0fa3 78bc 6571 773c 7afb f2ba 339a aa3b
00000390: 34ae 16bb bc96 933c f7bb 8b3b 3635 b5bb
000003a0: e7ca 953b 2d49 53bc 6014 d53b fb72 94bb
000003b0: 0adb 463b 8b18 ac3b f795 55bb 12a6 53bb
000003c0: 6a74 013b 5f6c 053b 2bbc 01bb 54b6 323b
000003d0: 71f7 a9bb 05fc 023c cb34 99ba 904f 673c
000003e0: 7270 23ba f2c7 a33b 1737 423c 4f85 933b
000003f0: 395f 993b 17a4 6c3b 8f90 d93a b7ee 26ba
0.002751178 -0.0065000276 -0.00066466467 -0.0010461834 -0.0049002594 -0.008352754 0.0022300293 -0.0046502496
-0.015211991 0.0016101111 -0.0056091496 0.0056500672 -0.005910739 -0.010849841 -0.012674384 -0.006831409
-0.0045869783 -0.0032417134 -0.011947609 -0.0076302723 -0.0032783255 -0.0005275732 -0.007271404 -0.0006528516
-0.011493258 -0.009929745 0.010880051 -0.00037126764 0.0057396153 -0.008639405 -0.00017087396 0.0056538167
-0.008695721 -0.0029616223 0.0009701056 -0.00078503025 -0.00025746875 -0.0015094444 -0.010945569 -0.0038541728
-0.016655164 -0.0051643546 -0.00936847 -0.010684147 0.005816507 0.0071862713 -0.00028521652 0.0052359086
0.004389596 0.008301617 -0.007893312 -0.008721664 -0.0017087674 -0.005655992 0.008533442 0.004764463
-0.024955725 0.0059283567 -0.013359331 -0.0077005154 0.0036314558 0.016848814 0.0029660186 -0.010760682
-0.0012286863 0.0021468443 0.0029601757 -0.0055559496 -0.00492149 -0.0020315896 0.007154909 -0.024996338
0.00063935545 0.0098816 0.0021883373 0.021524131 0.009132865 0.0012578767 0.0126544535 0.010461487
0.00094389677 -0.0072883456 -0.006435799 -0.009958753 0.0017374525 -0.018378753 0.009971491 -0.0168357
0.004004016 -0.010445908 0.0072153877 -0.020955114 -0.0033864763 -0.0063459473 -0.006430334 -0.016175514
-0.014204343 0.004766119 0.00039688233 -0.00030354256 0.0005599666 0.0072543323 0.0037602258 -0.013267151
-0.0061919563 0.0021790445 -0.0010049011 0.005374898 -6.702818e-05 0.018248498 0.0014051188 0.001594094
-0.005699606 0.00823387 -0.020675061 -0.008106875 0.014172894 -0.0016977837 0.012781771 -0.01880005
0.009451534 -0.006596049 -0.007940733 -0.018915862 -0.0025665732 -0.0055044685 0.008686162 -0.0047193603
-0.0104078865 0.009661638 -0.008640355 -0.0030109077 0.013300492 0.018077914 -0.0015424752 0.002722487
0.0046791113 -0.009272466 -0.015372221 0.0016453331 0.014584112 -0.0013121029 -0.010698227 0.0062370924
-0.0053775283 0.0044915397 -0.0027969244 -0.009388979 0.0042386255 -0.0052234936 -0.005027814 0.01579429
-0.002314299 0.015265442 -0.013166058 0.00083064346 0.011773078 -0.008196679 -0.0075551504 -0.0032816378
-0.012527319 0.019049514 0.014555986 -0.0012054284 -0.011708669 0.002727321 0.004053802 -0.015292525
0.008271526 -0.0031493593 -0.0003697886 0.0015006115 0.014372616 -0.0071512023 -0.0084874425 -0.0027030392
0.0020770326 0.0073513496 0.0018628257 -0.013464048 -0.008465583 -0.010410265 -0.008638061 0.009712472
0.0024637715 0.009875441 -0.009262476 -0.00088558823 -0.0009761752 -0.0010583213 -0.0051276525 -0.0025331785
0.0096041635 0.0063448884 -0.014707044 -0.006740337 0.0031814766 0.0012132908 0.00040007933 0.0048341257
-0.0029801235 0.0025133318 0.011478633 -0.009902453 0.006607869 -0.005833597 0.0040843408 -0.00087210204
-0.008188813 0.014761376 0.0021688768 -0.012957777 -0.0060201148 -0.0037769917 0.02140939 0.0003985668
-0.003471051 -0.0040416047 0.00035735485 -0.008221042 -0.0058083786 0.0017992466 0.01548855 -0.0039099497
-0.015175595 0.015102719 -0.0018538081 0.0052063703 -0.0022992017 0.018016212 0.0042643505 -0.005530025
0.004571307 -0.012895864 0.006502673 -0.0045303083 0.003034296 0.005251949 -0.0032590607 -0.003229503
0.0019753226 0.0020358784 -0.0019795995 0.002726932 -0.005186968 0.007994656 -0.0011688707 0.01411809
-0.0006234712 0.0049982006 0.011853955 0.0045019756 0.004680541 0.0036108547 0.0016598868 -0.0006367969

action_model._discrete_distribution.branches.5.bias f4 [3]
00000000: 0000 0000 0000 0000 0000 0000
0.0 0.0 0.0

action_model._discrete_distribution.branches.5.weight f4 [3, 128]
00000000: df05 d7bb 0f0f 613c 689e cdbb c2a7 cbbb
00000010: 92e9 a5bb 2ff7 a83b 1d26 2e3c d535 e13b
00000020: 6970 12ba e053 37bc 25ed ce3c e201 4dbb
00000030: a414 313b 077a 293a a091 0d3c 84d6 923b
00000040: b7f3 bb3b 5902 4b3c 651e 913b 2162 ca3c
00000050: eb1d 7c3c cdad ea3b 50b8 9d3a 0e87 993b
00000060: d707 cb3a 496a 91bc 5c23 113c 2079 9c3b
00000070: bf50 783c 878f 40bc 6375 b53c 602e 283c
00000080: e32d 02bb 2157 823c bac5 623b 73a1 95ba
00000090: 0373 91bb a3c4 02bb 3e75 9bb6 0aea f6bb
000000a0: 0fb6 f23b dbf0 c0bb 9f87 f7bb 2aff 28bc
000000b0: d046 253b 0c0a 8bbb 2185 83bb c705 55bb
000000c0: 7a6b d03b 8db4 1fb9 06cf 823b bb0a 4cbc
000000d0: 3898 393c 1625 15bb 45c2 30bc 83c5 5d3c
000000e0: e2f8 643c b5a2 debb a743 703c a420 9f3b
000000f0: b0e8 32bb 37a6 fabb 6ddb 883c 8809 ebbb
00000100: 1d46 f3bb 0b10 8abb e52c b13a d167 2b3c
00000110: 2c8d 27ba 23af 87bb 0fa2 41bb f210 343b
00000120: 6a61 f43b 763a b63b 1b9b 75ba 4fa2 5a3c
00000130: 6574 163c b32d 6f3b 33ee 65ba 581a 6dbb
00000140: d703 033a 2519 7c3b 822b 44bc 8304 1f3c
00000150: 9d75 a7bb 4a4b 68bc c26b db3b 0f1d 62bb
00000160: d223 8a3b b355 e33c 4fe0 a1bb 0771 3bb9
00000170: f77e ad3b daf5 86bc e3f2 c93a 7aa2 d53b
00000180: 8d63 58bc dde3 933b 996f 07ba 0e64 96bb
00000190: 1e98 11bc f909 49bc 136f 01bc 2ee2 2e3c
000001a0: b371 eaba 5f37 2e3c 9d57 ff39 e5a9 ee3b
000001b0: db39 04bb 768c 13bc bf2a f73a 2e5e 4bbc
000001c0: a756 0f3b f024 dfbb 0319 b93c c3f9 33bc
000001d0: f326 87bc 24cf 80bb 8f11 983b 916a 28bb
000001e0: 0a4d 50bc 9796 b93b cacb 9f3b 8b1b ad3b
000001f0: 13d3 cdbb bbbf 01b9 4b11 0cbc 9583 ef3b
00000200: 6403 143c 1bf6 4f3c 6f25 f8ba 3fe1 4bbc
00000210: dfd3 75bc 5819 b23b 2804 423c 4b36 3ebc
00000220: 7d3f 263c 00a4 5cbb 8963 84bb be19 b7bb
00000230: a731 483c e6d4 08bc 0ac1 d7bb cb76 92bb
00000240: dd6a 6abc efb7 4d3c e5bc 4fbc 2ebf 053b
00000250: 68a8 15bc b3ec a3ba cc87 993b aa61 57bb
00000260: 5b3a 2abb df83 323c 77bd 933b c542 ca3a
00000270: ef7f 0cbc 846d 26bc 9694 05bc 6797 313c
00000280: ed84 863c be75 9d3c 5fdd 8d3b 5ff4 173c
00000290: 2860 693b 8229 9b3c 7352 30bc a748 c6ba
000002a0: 8ca6 22bc a76b 363c 67f9 4ebc 58d0 653c
000002b0: 1389 3b3b 1fa2 70bc 8707 7cbc cf96 f739
000002c0: da17 5f3c e8be 60bc 8506 c5bb 3f9f a43a
000002d0: cf8b 2e3c eaf6 7dbc f2eb e2ba e8a9 f9ba
000002e0: c07a e5bb aba8 3e3c 0e15 32bb eb6a e43b
000002f0: 571f 4a3c efe9 07bc 325a c53b 820d 57bb
00000300: 8a78 bd3a e792 6f3b 9395 bbbb b306 e5bc
00000310: 6510 27bc cbe1 b63a efaa 9dba c2dc d7ba
00000320: 23c2 6c3c f923 b83b 7772 c9bb c7d0 a0bb
00000330: 0765 adbb 16b5 04bc 4af5 00bb e252 1abc
00000340: baa6 3b3a 22ca d33b 5e0d 473c 0bf3 cf37
00000350: abc8 8c3b 2ec4 1bbc 6a65 8dbb 0ad8 2b3b
00000360: f14d 8dbc f25e 04bc fa79 b6b9 b592 d43b
00000370: d2ee 313c 7b5a e8bb 12c1 3c3c a55f bcbc
00000380: 2df9 de3a 8acd 273c d3e1 df3b 6ae9 b7bb
00000390: c4e3 28bc 7ffa 70bc a7e1 71bb 467e c53c
000003a0: c6d6 0f3c 7f18 193a dfb7 fd3b 2d0f 913c
000003b0: c906 1b3a 8bee 2c3c 3e46 4a3c 7fdb 40bc
000003c0: 8509 21bc ddf3 67b8 713f 813c 45ac f73b
000003d0: 971d 0b3b 2d85 4abc bc18 9abc d591 a4bb
000003e0: 8876 623c ea50 d83b 67d0 8b3c 0b46 b9bb
000003f0: 910c c8bc 2741 4d3b e383 0bbc f22e babb
-0.006561979 0.0137365 -0.006274987 -0.0062150666 -0.005063244 0.0051564197 0.010629204 0.0068728724
-0.00055862084 -0.011189431 0.025259564 -0.003128164 0.002702036 0.0006465022 0.008640677 0.0044811387
0.00573584 0.012390696 0.004428672 0.024704995 0.015387992 0.007161832 0.0012033079 0.004685289
0.0015490007 -0.017750876 0.008858528 0.0047751814 0.01515597 -0.01175297 0.0221507 0.010264963
-0.0019863776 0.015910687 0.0034602717 -0.0011415913 -0.0044387593 -0.001995363 -4.6330088e-06 -0.007535224
0.007406957 -0.005888087 -0.007554009 -0.010314742 0.002521921 -0.004243141 -0.004013673 -0.0032504664
0.0063604685 -0.00015230682 0.0039919643 -0.01245373 0.011327796 -0.00227577 -0.010788505 0.01353586
0.013975354 -0.0067942985 0.014664567 0.004856186 -0.0027299337 -0.007649209 0.016706193 -0.007172767
-0.0074241296 -0.0042133383 0.0013517408 0.0104617635 -0.00063915807 -0.004140751 -0.0029546057 0.002747592
0.0074579017 0.0055611683 -0.0009369121 0.013344361 0.009183024 0.0036495745 -0.0008771151 -0.0036179032
0.00049978256 0.0038467136 -0.011973264 0.0097056655 -0.005110456 -0.014178107 0.0066961953 -0.0034502184
0.004215696 0.027750826 -0.0049400697 -0.00017875816 0.0052946764 -0.016474653 0.0015407469 0.006519613
-0.0132073285 0.0045132474 -0.00051664707 -0.004589564 -0.008886365 -0.012270444 -0.007900017 0.010674043
-0.0017886668 0.010633319 0.00048702667 0.0072834366 -0.0020176086 -0.0090056565 0.0018857344 -0.012412591
0.0021871717 -0.006809823 0.022594934 -0.010984841 -0.016498065 -0.003930943 0.004640765 -0.0025698284
-0.01271368 0.0056637037 0.0048765885 0.0052828244 -0.0062812655 -0.00012373824 -0.008549045 0.007309387
0.0090340115 0.012692953 -0.0018932055 -0.01244384 -0.015004127 0.00543515 0.011841811 -0.011609624
0.010146973 -0.0033667088 -0.004040186 -0.0055877855 0.012218869 -0.00835154 -0.0065842913 -0.0044697276
-0.014307705 0.01255606 -0.012679313 0.0020408141 -0.009134389 -0.0012506455 0.0046853777 -0.0032864609
-0.0025974724 0.010895698 0.00450867 0.0015431276 -0.008575424 -0.0101579465 -0.008153101 0.01083932
0.016420806 0.019221183 0.004329368 0.009274571 0.0035610292 0.01894069 -0.010761845 -0.0015127853
-0.009927403 0.011134065 -0.012632704 0.014026724 0.0028615638 -0.01468709 -0.015382654 0.00047223872
0.0136165265 -0.013717391 -0.00601274 0.0012559666 0.01065345 -0.015500763 -0.0017312749 -0.0019047828
-0.0070031583 0.011636893 -0.0027173194 0.0069707534 0.012336574 -0.00829552 0.006022715 -0.0032814448
0.0014455479 0.0036556066 -0.0057246177 -0.027957296 -0.01019678 0.001395279 -0.0012029092 -0.0016468989
0.014450583 0.0056195226 -0.0061476785 -0.0049077007 -0.0052915844 -0.008099815 -0.0019677454 -0.009419175
0.0007158328 0.006463305 0.012149183 2.4789499e-05 0.0042963824 -0.009507222 -0.004315068 0.0026221299
-0.01724908 -0.008079277 -0.00034804625 0.0064872154 0.010860162 -0.0070908642 0.011520641 -0.022994826
0.0017011516 0.010241875 0.0068323403 -0.005612542 -0.01030821 -0.01470816 -0.003690818 0.024108063
0.008779233 0.0005840137 0.0077428664 0.017707432 0.0005913792 0.01055492 0.012345849 -0.011771082
-0.00982893 -5.5301807e-05 0.015777322 0.007558378 0.0021227354 -0.012360853 -0.018810622 -0.0050222673
0.013822205 0.0066014426 0.017067147 -0.0056541017 -0.024420055 0.0031319351 -0.008515331 -0.005681866

action_model._discrete_distribution.branches.6.bias f4 [3]
00000000: 0000 0000 0000 0000 0000 0000
0.0 0.0 0.0

action_model._discrete_distribution.branches.6.weight f4 [3, 128]
00000000: c7b0 2abb da1d 60bb d973 2a3b 6f89 c035
00000010: 85a9 4ebc 8f14 8fbc 13f6 bc3b c775 1dbc
00000020: cb81 54bc cff7 e33b bf60 933a 7a0f 223b
00000030: 6d74 393c ef15 273c 2fa3 3dbb 678f 593b
00000040: 224a 44bb cc06 3ebc c520 ebba e7a5 8bba
00000050: a9b1 0db9 a566 933a 3ab2 f8ba 436e b03b
00000060: cf85 a439 68f5 52bc 133e bbb9 b1cf afbb
00000070: c638 253c a2ce 323c 6283 80bc 778e 383b
00000080: 74ca 3abc e7b0 d1bb 0363 993b 5278 523b
00000090: 5f45 2fbc 2cbb 813c e620 853a 53d5 77bb
000000a0: 9212 ff3b d5db 9fbb 4711 043b 4efe 2cbc
000000b0: 5f38 1a3c eb06 683c 5866 463c 4364 0dbb
000000c0: bf97 1f3c 92c4 51bb a92e a63b 678c 95bb
000000d0: d766 e43b 7722 053c 31ef 01bc 99ec 21bc
000000e0: 816c 93bb 8262 2d3b 43c0 a3bb b235 103b
000000f0: b244 2b3c a22b e1bb 0a2c 9ebb 5bb9 a9ba
00000100: f77a 653c cb01 0bbb dcaa 0bbc 856c 653a
00000110: 7623 363c 42d1 bd3a 27f8 823b 022f 94bb
00000120: dbc9 3a3c b1f8 33bb 37c4 e5ba 7048 2abc
00000130: 2f76 48bb 83cd 9f3c 0064 7ebc b8f4 4e3c
00000140: 1a74 a63a 0f19 4f3b 234e 03bc fb2e 163b
00000150: c211 913b b26b b1bb 22b7 ddbb 9ef2 08bb
00000160: f31c 643b a2f0 bbbb b387 873c 3c7e a5bb
00000170: a2e9 e13b 361e 3dbc 4aaf abbb 4de2 6ebc
00000180: 9b53 1e3b 0a1e f0b8 34fa 01bc 9add c6bb
00000190: 0b31 133b 0fd4 8f3c c341 ff3b fb1e 07bb
000001a0: 6804 563a 3f55 10bb 1ac9 2cbc 92b8 95bb
000001b0: ef63 5a3b fb0f 16bb d12d 4539 62e7 0e3c
000001c0: 67d9 093c 8736 0dbc dd35 ed3b 1077 a53b
000001d0: a0cb d7bb 5722 703c 5812 0cbb 3499 8e39
000001e0: 46bd 27bc 0dbe 63bb 39af 8a3b 23f0 31bb
000001f0: 9279 1a3c 3ff6 83bb 3e15 82b9 a3d7 ac3b
00000200: da9c c33a 7978 cc3a 21a1 98bc 10f9 55ba
00000210: c562 4dbb 2d81 233c 73f6 7ebc 993b 143b
00000220: b787 2a3b 5a9a 9cbc 9848 873b 5d5e 6d3c
00000230: c2e8 153c f734 2ebb efdc 9f3b 795e b1ba
00000240: 156a 603c 3264 8639 9fa3 00bc 5221 483c
00000250: cafd 133c 2867 84bb 5ac7 fe3b 7239 bfbb
00000260: a932 c53b 5958 aa3b f71e 263c e3c7 5fbb
00000270: aba1 0bbc 47f1 d53a 396a 98ba da5e 64bc
00000280: c971 4bbc a7b1 3d39 bffc 29ba c385 7d3c
00000290: 1030 7f3b 4ea2 2abc c3d1 09b9 1dcb eabb
000002a0: 05ff 6c3c 2782 e03b 57dd afbc 65db 56bc
000002b0: cbbb 78bc bb0e 76bb b2ff 673b 87dc 80ba
000002c0: 13b9 0bbb 7267 c6bb 0093 a3bb 8e86 1cbc
000002d0: 3773 d83b 2d5f 213b 1a70 133c 46af 41bb
000002e0: 070b 463c af95 d33b 53fd a3bb 3e32 1f3c
000002f0: 6b8a 703c 920a b3ba c88e 313c 10eb 563a
00000300: 0729 e63a 6b46 b93b a076 c0ba 1dc1 b1bc
00000310: af9b 1d3b df91 763b 4b8e 0abc 2b23 56bc
00000320: 163c 26bc bc9d 93ba 07d4 68bb 5ec6 443c
00000330: 6366 4e3c 18fe 4e3c a8a8 a1bc 151c 903b
00000340: e86b 4ebc 03db 193c bb65 e13a ff68 2a3c
00000350: 8180 213b e7e5 473a 652c 793b 65f0 b1bb
00000360: 8b18 803b 84a6 b33b 270c a93b 6b67 373c
00000370: bb54 8d3b 93b5 e23a 1733 01bc 1058 bd3b
00000380: 2342 76bc a06a eebb 7a01 fdba 5b48 bc3b
00000390: 601a 853b d935 43bc e623 2bbc 2ab4 5f3b
000003a0: 2546 923b ddc4 d73b 4f81 1c3c 0b47 05bc
000003b0: 028b fd3a 90b0 ea3a 2f06 4dbb 657d 81bb
000003c0: 6e26 c8bb ebe0 b539 c0ef a23b 3d39 603b
000003d0: ba4c 69bb 04eb 103c 65cf a1bc 6e4f 1dbc
000003e0: c979 103b d842 753c 63ed 83bc 1059 4bbb
000003f0: 1c5c c63a cf50 97ba 4df9 8dbc 6f6a 4f3c
-0.002604531 -0.003419748 0.0026008992 1.4345113e-06 -0.012613659 -0.017465858 0.005766639 -0.0096106
-0.012970398 0.0069570313 0.0011244043 0.0024728463 0.011319262 0.0101981005 -0.0028936376 0.0033197047
-0.0029951413 -0.0115983 -0.0017938843 -0.0010654301 -0.00013512991 0.00112458 -0.0018974014 0.005384238
0.00031380213 -0.012875892 -0.00035713668 -0.005365335 0.010084337 0.010913523 -0.015687648 0.0028161088
-0.011400808 -0.006399262 0.0046809926 0.0032115174 -0.010697692 0.01583632 0.0010156899 -0.003781636
0.007784196 -0.004878501 0.00201519 -0.010558678 0.009412854 0.014161806 0.012109362 -0.0021574653
0.009740769 -0.0032008034 0.0050714803 -0.0045638564 0.0069702673 0.008125893 -0.007930563 -0.009883069
-0.0044990187 0.002645642 -0.0049972846 0.002200466 0.01045339 -0.0068716565 -0.004827027 -0.0012948917
0.014006368 -0.0021210785 -0.008524623 0.00087518274 0.011116853 0.0014481919 0.003996867 -0.0045222053
0.011400665 -0.0027461464 -0.001752979 -0.010393247 -0.003058802 0.019507175 -0.015526772 0.012631588
0.0012699396 0.003160063 -0.008014235 0.0022916186 0.0044271657 -0.0054144496 -0.006766216 -0.0020896564
0.0034807294 -0.005735473 0.016544199 -0.0050504487 0.0068943063 -0.011542847 -0.005239402 -0.0145803215
0.002415872 -0.00011449687 -0.007933188 -0.0060688974 0.0022459652 0.017557172 0.007789822 -0.002061783
0.0008164109 -0.0022023467 -0.010545993 -0.0045691216 0.0033323725 -0.0022897709 0.00018804452 0.008722158
0.008413649 -0.008618957 0.007239087 0.0050495937 -0.0065855533 0.014656625 -0.0021373238 0.00027198496
-0.010237997 -0.003475073 0.004232314 -0.002715119 0.009428399 -0.0040271576 -0.0002481136 0.0052747293
0.0014924065 0.0015599868 -0.01863152 -0.00081624184 -0.0031339389 0.009979528 -0.015561688 0.002261853
0.0026020834 -0.01911657 0.004128527 0.01448783 0.009149732 -0.0026581862 0.0048786323 -0.0013532183
0.013697167 0.00025633123 -0.00785151 0.012214975 0.009032676 -0.0040406175 0.0077752294 -0.0058357054
0.006018002 0.00519852 0.0101392185 -0.0034146241 -0.008522431 0.0016322517 -0.0011628337 -0.01393863
-0.012417265 0.00018090625 -0.00064845005 0.015473786 0.003893856 -0.010414673 -0.0001314348 -0.0071653263
0.014465098 0.006851453 -0.021467848 -0.013113831 -0.015181492 -0.00375454 0.003540021 -0.0009831347
-0.002132003 -0.006054812 -0.004991889 -0.009553565 0.0066055316 0.002462338 0.008998895 -0.0029553934
0.01208759 0.0064570527 -0.005004564 0.0097165685 0.014681439 -0.0013659766 0.010837264 0.0008198479
0.0017559835 0.0056541464 -0.001468379 -0.021698529 0.0024049093 0.0037623567 -0.008456777 -0.013069908
-0.010146162 -0.0011262218 -0.0035526769 0.012010185 0.012597653 0.012633823 -0.019733742 0.004397879
-0.012598969 0.009390595 0.0017196456 0.01040101 0.0024643245 0.00076255057 0.0038020846 -0.0054302686
0.0039091757 0.0054824967 0.0051589194 0.01119409 0.004313079 0.0017296545 -0.007885716 0.00577832
-0.015030417 -0.0072758943 -0.0019302808 0.00574593 0.004061982 -0.011914694 -0.010445571 0.0034134486
0.0044639283 0.006584747 0.009552314 -0.008134614 0.0019343796 0.0017905403 -0.0031284203 -0.003951716
-0.006108097 0.00034690587 0.004972428 0.0034213804 -0.003559871 0.008845095 -0.019752214 -0.009601457
0.0022045246 0.01496955 -0.016104406 -0.0031028427 0.0015133652 -0.0011544469 -0.01733079 0.012659653

action_model._discrete_distribution.branches.7.bias f4 [3]
00000000: 0000 0000 0000 0000 0000 0000
0.0 0.0 0.0
