ArmRobot/Assets/results/gripCorrected/TouchCubeMoveGail/TouchCubeMoveGail-3999955.onnx (onnx, 140863 bytes, 20 tensors)

action_model._discrete_distribution.branches.0.bias f4 [3]
000000 29 2f 9c 3c bb 13 d8 bc 31 d7 d8 3b
       0.019065456 -0.026376596 0.0066174497

action_model._discrete_distribution.branches.0.weight f4 [3, 128]
000000 dd 70 b4 bd da 44 f6 3c 62 b6 88 3d 24 95 12 3e
       -0.088105895 0.030062128 0.06675412 0.14314705
000010 2f a1 c7 bd 05 31 f8 bd cb c2 e7 3c 57 79 a3 bc
       -0.0974754 -0.12118725 0.028291127 -0.01995532
000020 39 3e 03 3e a8 11 80 bd 3d 9f f8 3d 5b 78 43 3d
       0.12816705 -0.06253368 0.12139747 0.0477222
000030 2b 8d ce 3c 07 4c 84 3c e8 aa 3a 3d 5b 83 14 3d
       0.025213799 0.016149534 0.045573145 0.036258083
000040 f9 1c ad bd bd 50 55 3d ed 7a a0 3d d8 7a 27 bc
       -0.08452792 0.05207895 0.07835946 -0.010222159
000050 c5 72 41 bc 16 4d 67 3c 75 36 b7 3d 7b 84 b5 3c
       -0.011807148 0.0141175 0.08945934 0.022157898
000060 9d 59 0d 3e 6e 0d ad 3d 37 00 0f be d1 21 36 3d
       0.13803716 0.08449827 -0.13964926 0.044465844
000070 f8 5e 16 bd f1 70 30 3d 26 ee 18 be a4 ee be 3c
       -0.036711663 0.04307646 -0.14934596 0.023307152
000080 c8 67 0c be 8b 88 7c bc 92 02 1e 3d 44 21 2c 3e
       -0.13711464 -0.015413414 0.03857667 0.16809565
000090 9b b5 10 3d e5 28 ee bd 73 05 e8 bc 73 55 09 be
       0.035329442 -0.11628894 -0.02832291 -0.13411503
0000a0 67 ef 92 bd f2 9b 19 bd 56 18 16 3e de df 8a 3d
       -0.071745686 -0.037502237 0.14657721 0.067809805
0000b0 15 ab 7d b9 1e fe d3 ba be 09 19 3c 45 02 da 3d
       -0.00024191693 -0.0016173755 0.009340702 0.10644964
0000c0 dc a0 17 bc 0b b1 93 bd 34 ce d8 3d c2 61 9e bd
       -0.00925466 -0.07211503 0.10586205 -0.077334896
0000d0 cb 9e 39 bd f7 f2 5c 3d 86 fa c5 bd 0d c8 b1 3c
       -0.045317452 0.053942647 -0.09666924 0.021701837
0000e0 6e f3 a4 bd 52 b2 1d bc 66 89 f6 3d dc e5 df bd
       -0.08054243 -0.009625034 0.120379254 -0.10932514
0000f0 1f ce 69 3d 67 01 55 3c 3c 4b 17 ba 38 4a 9a bd
       0.057081338 0.013000823 -0.00057714037 -0.07533687
000100 c6 af e8 3b 14 6e f7 3c 8a 39 ca 3d 49 3b 86 bd
       0.007101032 0.030203857 0.09874256 -0.065542765
000110 d3 f0 07 bd e1 5a ba bd 67 ac b9 bd 33 8f bf bc
       -0.033188652 -0.09099365 -0.09066086 -0.023383712
000120 0b 97 f8 bc 1d dc 84 bd 16 66 9b bd 0f 78 0b bd
       -0.03034546 -0.06487296 -0.07587831 -0.034050044
000130 ee 39 99 3c 16 65 57 3d 0a ff 9d 3d b8 c5 34 bd
       0.01870438 0.052586637 0.077146605 -0.04413387
000140 00 d5 5d bc 76 36 a5 bd 30 77 cd bd db b8 be bd
       -0.013539553 -0.08067028 -0.10032499 -0.09312602
000150 f8 b5 87 bb 33 bc f5 3c b6 d3 56 3d cc ff ec bd
       -0.0041415654 0.029996967 0.052447997 -0.11572227
000160 c2 9a 24 bd 0e 19 8f 3c df 2d 48 bd 0f fe be bd
       -0.04018665 0.017468002 -0.04887187 -0.093258016
000170 10 37 3b bd 80 be 38 bc e8 da d1 3b f8 17 ad bc
       -0.04570681 -0.0112758875 0.0064042695 -0.021129593
000180 93 4a b1 ba d8 dd 82 bd c0 9f e3 bd cd 2c 92 3d
       -0.0013526253 -0.063899696 -0.11114454 0.07137451
000190 9f 91 9f bc 56 b4 5a 3d ad 31 a8 bd 03 b2 1f 3d
       -0.019478617 0.053394638 -0.082126 0.038988125
0001a0 92 32 6c 3c eb f8 0f 3e 1f ba cd 3d f9 b5 11 be
       0.014416354 0.14059798 0.100452654 -0.14229573
0001b0 40 61 80 3d 20 b0 e7 3b e7 d1 72 bd 65 33 2a bd
       0.06268549 0.0070705563 -0.05928221 -0.04155292
0001c0 e6 f7 27 bd e7 c3 07 3c f8 e5 36 bd 96 31 c7 3d
       -0.0410079 0.008286453 -0.04465291 0.09726255
0001d0 d3 32 86 3d c1 04 07 be 1f a8 e0 3d ec ae ad 3d
       0.06552663 -0.13185407 0.109695666 0.08480629
0001e0 91 42 11 3d 0e 55 62 bd 50 f3 07 bb 5c 3a 66 bd
       0.035463873 -0.055256896 -0.002074439 -0.056208
0001f0 57 b4 a8 3c 32 8b c8 bd 1e 8a 08 3d 0e 9a 9d bc
       0.020593805 -0.097921744 0.033334844 -0.019238498
000200 68 4b 47 bc 12 5a 9e bc 40 1d 3a bc cd 7d b7 bc
       -0.012163974 -0.019330058 -0.011359513 -0.022398854
000210 c5 d3 9f 3c 80 18 3a 3d d1 96 92 bb 0e 4d 25 3d
       0.01951016 0.04543352 -0.004473545 0.04035669
000220 d0 c5 fa 3b 02 9f c8 3c 9f 09 3f bd 44 d6 d1 bc
       0.0076529756 0.024489883 -0.046640035 -0.025614865
000230 bb f0 77 bc 31 94 27 bc 10 ca e3 3c c9 43 46 ba
       -0.015133078 -0.010228203 0.027806312 -0.00075632014
000240 c0 26 84 bc f8 da d1 3c 79 df 9f bd 62 25 c5 3c
       -0.016131759 0.025617108 -0.07806296 0.024065677
000250 3c c4 fb 3c 70 92 35 3d b2 c2 98 bb f0 f5 c1 3a
       0.03073322 0.044329107 -0.0046618814 0.0014798027
000260 5b b1 cc bd 84 00 b5 bc 64 00 63 3d 7b 4d c8 bc
       -0.09994765 -0.022094972 0.055420294 -0.024451008
000270 ec 0e 9b ba d1 a3 09 3b 30 04 76 3d d1 3a 9f bc
       -0.0011830009 0.0021002183 0.060062587 -0.019437226
000280 7e 35 cd 3c ba 57 f0 3b 8e 3e 6a 3c e4 6a 79 3c
       0.025049921 0.0073346766 0.014297141 0.015223239
000290 a9 7c 2d bd 96 5a 19 3c 51 17 a3 bc f1 dd 1d 3d
       -0.042355213 0.009359976 -0.019908579 0.038541738
0002a0 24 2e d2 3c 95 00 69 3d 6d 33 8a bb f5 4b be 3c
       0.025656767 0.05688532 -0.004217556 0.023229579
0002b0 9e 00 a6 bb 22 15 24 bd e2 b0 c3 3c 8f d5 04 3d
       -0.0050659915 -0.040059216 0.023888055 0.032430228
0002c0 9b 93 42 3d 1d 69 fd 3c 0a bc 1e bc 78 7e 84 3c
       0.04750405 0.030933911 -0.009688387 0.016173586
0002d0 3c 7d 95 3c 0b 58 92 3c 4d 3e 26 3d 5a 5a 01 bd
       0.018248193 0.017864248 0.04058676 -0.031580307
0002e0 50 81 4b 3d 07 08 86 bb 32 75 36 bd 96 b9 b8 3b
       0.04968387 -0.0040903124 -0.04454536 0.005637358
0002f0 98 79 87 bb 6b bb 66 bc 66 ae da bc ab 6a 14 3d
       -0.004134368 -0.01408277 -0.026694488 0.03623454
000300 f3 6d 05 bd 5d b2 a3 bb c2 73 88 bd dd 5f 30 3d
       -0.03257556 -0.004995628 -0.06662704 0.043060172
000310 73 22 dc bc e3 03 81 3d 0a 80 43 bb 9b cd 00 3d
       -0.026871895 0.062995695 -0.0029830956 0.03144608
000320 38 49 a5 3c 2f f4 26 3d 38 55 82 bc 6c 53 d1 3c
       0.020176515 0.040760215 -0.015909776 0.025552474
000330 77 e1 d1 bc 33 d4 d5 3c 37 0b 99 3c 19 5b 29 bd
       -0.025620205 0.026102161 0.018682105 -0.041346643
000340 ef 92 69 bc 25 f8 b9 3c 87 f3 1d 3d ef 9b 9d 3d
       -0.014256223 0.022701332 0.038562324 0.076957576
000350 b2 19 0d bc cf 9b c9 3c 1c 26 4b 3c 4c 55 8f bc
       -0.008612083 0.024610428 0.012399223 -0.017496727
000360 57 ec d4 3c 19 79 8b 3b 48 a3 70 3c f2 11 3e 3c
       0.025991602 0.0042563793 0.014687367 0.011600958
000370 bc 03 67 3c 61 ee 54 bc aa 2e 8e bc ac 8a 80 3c
       0.014100011 -0.012996287 -0.017356236 0.015691124
000380 3a a0 85 bc 5c 3b 31 3c 17 6f c5 bc a9 6c 10 bd
       -0.016311754 0.010817375 -0.024100823 -0.035259876
000390 dd a6 29 ba 1d 9a 2f 3c 67 8d 98 bc 00 8a fb bc
       -0.0006471703 0.010717896 -0.018622113 -0.030705452
0003a0 6d 24 a1 3c 76 4b 9b bc 11 33 21 bd 2c 97 37 3c
       0.01967069 -0.018956881 -0.03935534 0.011205476
0003b0 75 8d 25 3d 68 12 b1 bc 21 94 1f 3c 66 6b 8a 3d
       0.040418107 -0.021615222 0.0097399065 0.06758766
0003c0 84 06 e8 3b df 69 8a bd b2 ef 0d 3d 10 4b 86 3c
       0.007080855 -0.067584746 0.03465242 0.016393214
0003d0 6d cc a4 bd 9e 59 b3 3c dc e1 30 bd d2 81 14 3c
       -0.080468036 0.021893319 -0.043184146 0.009064155
0003e0 42 26 c5 bb 79 e8 b2 bc de 27 96 bc 69 10 d5 bc
       -0.0060165236 -0.021839367 -0.018329557 -0.026008802
0003f0 36 78 59 bc ae d8 2d bb b4 b8 01 3c 6f 7a e7 bc
       -0.013273289 -0.0026526856 0.007917572 -0.028256623

action_model._discrete_distribution.branches.1.bias f4 [3]
000000 87 ea e5 3c eb f7 b5 3c d7 51 6f bd
       0.028065933 0.022212943 -0.058427658

action_model._discrete_distribution.branches.1.weight f4 [3, 128]
000000 a8 cb 11 be 57 22 44 3d bd 5c 94 3d e9 9c 41 3d
       -0.14237845 0.04788431 0.07244251 0.04726878
000010 51 48 c3 bb 53 78 71 3c 9b ae 85 bc f8 82 0b 3c
       -0.0059595485 0.01473816 -0.01631861 0.008515112
000020 f6 db a3 3d bd 15 13 3e 5e 23 7b 3d 8d b7 34 bd
       0.080009386 0.14363761 0.061313026 -0.04412036
000030 a2 dd ad bd b5 b2 91 bb d1 25 b5 bc c9 f4 92 bc
       -0.08489539 -0.0044463524 -0.022112759 -0.017938988
000040 3b a7 a6 bd a5 01 c4 3c 0b 88 fa 3c 30 8c 67 3c
       -0.081373654 0.023926565 0.030582448 0.014132544
000050 d1 f0 2f 3d c0 0b a9 bb d2 fb bf 3c 7c f4 35 3d
       0.04295427 -0.0051588714 0.023435507 0.04442261
000060 b3 97 0c 3d 33 5f b8 3c 54 6f c3 3d 57 cd 43 bd
       0.03432436 0.022506332 0.095427185 -0.04780325
000070 49 f5 0a bd 79 2c 16 bc f2 a8 05 3b b7 d2 f0 bd
       -0.03392533 -0.009165877 0.0020394889 -0.11758941
000080 59 e1 45 3b a1 a8 c2 3c 2c 68 9c bc d9 a7 12 3d
       0.0030194132 0.02376205 -0.019092642 0.035804603
000090 9d 49 40 3d c3 23 1a bd d8 54 c7 bc a1 4b 77 3c
       0.046945203 -0.03763176 -0.024332449 0.015093715
0000a0 81 f6 2b 3c fc 4c f4 bc d0 78 e3 3c e6 7c b9 3d
       0.010495783 -0.029821865 0.027767569 0.090570256
0000b0 30 e0 0c bd 52 10 92 bd 07 2b c4 bc 89 17 f2 bb
       -0.03439349 -0.07132019 -0.023946298 -0.0073880595
0000c0 63 cc 55 bd b0 fe 92 3d 97 59 7d 3d 79 a9 11 be
       -0.05219687 0.07177484 0.061853018 -0.14224805
0000d0 b4 19 2d 3c f6 04 87 bc c6 ff cb bd 39 e5 88 bd
       0.01056521 -0.016481858 -0.09960894 -0.06684346
0000e0 bf 9b f3 bc 77 b3 03 3b 69 81 d6 3b ff a9 3d bd
       -0.029737351 0.0020095983 0.0065461886 -0.0463047
0000f0 ae 4e ae 3c 4e f5 7e 3d b9 b7 33 3c 8d c8 a9 bd
       0.021277752 0.06224566 0.010969096 -0.08290205
000100 c1 19 9d 3c 6b da 75 bd 06 19 1a bd 6d 37 b8 3c
       0.01917732 -0.060022753 -0.03762152 0.022487367
000110 38 d2 13 bd 63 69 82 bd 9d 72 ad 3c 41 46 f6 3a
       -0.036089152 -0.06367757 0.021172816 0.0018789248
000120 50 53 36 bd a0 f0 e6 bd a8 bd 48 bb 51 54 fb bc
       -0.044513047 -0.11276364 -0.0030630622 -0.030679854
000130 45 c0 f2 bd a8 9b b8 3d 94 2f 5d 3d 20 a5 ba bb
       -0.11853079 0.09014064 0.054000452 -0.005695954
000140 8d 82 1e 3d 2c d6 ab bd 89 8a a7 3d 85 f1 7f bd
       0.03869872 -0.083904594 0.0818072 -0.06248619
000150 a6 02 a2 bd 74 40 b3 3c 1a 24 a5 3d 3c ae 1a be
       -0.079106614 0.02188132 0.080635265 -0.15105528
000160 18 15 ae 3d 13 f5 97 bd 9c 4e c2 bd 2d f9 c9 bc
       0.08500117 -0.07419791 -0.0948765 -0.02465495
000170 2e 1e fb bd 5e 1f 96 bc 28 b2 98 bd d7 df b6 3c
       -0.12261616 -0.018325504 -0.074558556 0.022323532
000180 d0 74 21 bd 6c d6 36 bd 14 0e 00 be 86 23 1e bd
       -0.03941804 -0.044638082 -0.1250537 -0.038608097
000190 f9 8f 73 3c dd dc 73 bc 26 05 18 bd 8d 11 11 3d
       0.014865869 -0.014884201 -0.037114285 0.03541713
0001a0 0f 29 9f bd d9 eb 6a 3d 28 f4 67 3c 7a 4c a7 bc
       -0.07771503 0.057353828 0.0141573325 -0.020422209
0001b0 5e 58 a9 3c 10 09 a8 bd 24 bf 7b bc 53 01 dd 3c
       0.02067202 -0.082048535 -0.015365396 0.02697817
0001c0 8b 95 9f bd d9 45 cc bc 2c c3 67 3d 09 a3 26 3d
       -0.07792195 -0.02493565 0.056582615 0.040682826
0001d0 53 72 dd ba 01 d6 1e 3d 69 9e b1 3c 11 05 88 3d
       -0.0016895033 0.03877831 0.021681981 0.06641591
0001e0 3e 98 12 3d b4 b6 ae bd 75 1e 18 bc 63 2c f8 bd
       0.03578972 -0.085309416 -0.009284605 -0.12117841
0001f0 ef 97 44 bd 74 ce 89 bd db 0f 9c bb d0 29 99 bd
       -0.047996458 -0.06728831 -0.0047626323 -0.07478678
000200 a4 f4 4d 3c 11 ee 1d 3d d7 5d ae 3c d2 ff b9 3c
       0.012570534 0.038557116 0.02128498 0.022704992
000210 88 e4 cc 3b 08 c6 7b bc b6 f3 d4 bb 79 d9 7f 3c
       0.006252829 -0.015367039 -0.006498779 0.015615814
000220 7c 11 8f 3b 59 5a 3c bd b9 bf c4 3b bb 99 f9 3a
       0.004366098 -0.0459846 0.0060043004 0.0019043008
000230 92 e3 d0 bc fc c0 2b 3d 85 48 30 b8 f8 04 c2 3c
       -0.025499139 0.04193209 -4.202921e-05 0.02368401
000240 ef e3 59 3a df b4 26 bc ee ad 11 3d 09 d0 3d 3d
       0.0008311858 -0.010174959 0.035566263 0.046340976
000250 f4 8a 82 bc 6f 3d af 3c 59 fa b3 3c 28 1e 8e 3c
       -0.015935399 0.021391599 0.021969961 0.017348364
000260 f9 d4 32 3d 0f 3c 1b 3c e6 6d 46 bd 80 f9 23 bb
       0.043660138 0.009474768 -0.04844465 -0.002502054
000270 28 57 e8 3a 94 ab 01 3c 8c 4b 1d 3c 3b 45 85 bb
       0.001772617 0.007914443 0.009600531 -0.004067091
000280 38 92 36 3c 70 8d f7 3a b0 c0 5a 3d 04 f0 83 3c
       0.01114326 0.0018886756 0.053406417 0.01610566
000290 93 62 51 bc e2 87 77 3c 2c 02 65 3c 26 f2 00 bd
       -0.01277985 0.015108081 0.013977569 -0.03148093
0002a0 f9 be 26 3d 38 a9 5a bb 2e d9 e6 3c 08 0c 4b 3c
       0.04070947 -0.0033365022 0.028179731 0.012393005
0002b0 4c c4 24 3c eb cc 53 3b 72 3b 94 bc 2f 46 ed 3c
       0.010056566 0.0032318186 -0.018094752 0.02896413
0002c0 75 19 95 3c 31 cf 0d 3b 58 ac 7a 3d 9a 96 d6 bb
       0.018200615 0.0021638388 0.061199516 -0.006548715
0002d0 34 9b fc 3c 0a 60 7b ba f9 9d 40 3c 8f 42 b2 bc
       0.030835725 -0.0009589201 0.011756414 -0.021760253
0002e0 88 6b 1e 3c 07 a1 cc 3b f6 ad 90 3c f0 f1 94 3c
       0.009669192 0.006244782 0.017661076 0.018181771
0002f0 94 ce fa bc 56 2b 86 3c b4 21 9e bc 0c db 0e 3d
       -0.030616082 0.016378086 -0.01930318 0.034876868
000300 7a a0 47 3d 45 1f 92 3c e8 bd 11 3d 49 01 ab 3c
       0.048737027 0.017837176 0.0355815 0.020874636
000310 ae 0f 22 ba 81 20 9f 3c e3 d9 91 bc 72 82 e6 bb
       -0.0006182146 0.019424679 -0.017804092 -0.0070345933
000320 2e a6 f9 3c 2b 80 81 3c fb 9e 07 3d 40 6d fb 3b
       0.030474748 0.015808186 0.0331106 0.0076729357
000330 af 97 44 3c 1d 2b e1 bc 48 e1 aa 3c 1e 67 a7 3c
       0.011999055 -0.027486378 0.020859376 0.020434912
000340 35 27 14 3d 58 42 dc bc 3a 85 b4 3b 69 7c a3 3b
       0.036170203 -0.026887104 0.005509046 0.004989196
000350 97 0c 14 ba 3a 40 f1 bc cf 9d 80 bb 2e 4a 7f 3c
       -0.0005647628 -0.02944957 -0.0039250623 0.015581651
000360 88 3f 8f 3b e9 4d 6a 3c 5c 72 64 bc 25 9e 39 3c
       0.004371587 0.014300802 -0.013943281 0.0113292085
000370 47 dd a1 ba 7a 9a f5 bc 29 da 04 3d 2a 8b 4e 3d
       -0.0012349271 -0.029980887 0.032434616 0.050425686
000380 17 fc f0 3c ba 75 97 3c 18 65 1d 3d c7 e1 ea 3a
       0.02941708 0.018488754 0.03842649 0.001792007
000390 ba f4 54 ba 94 6d 01 3d be e7 6b 3c 6d 65 c3 bc
       -0.00081236253 0.031598642 0.014398513 -0.023852075
0003a0 30 52 13 3b 84 38 ce bb f0 d4 10 3d e7 36 2e 3c
       0.0022479407 -0.0062933583 0.035359323 0.010633207
0003b0 17 e9 67 3d 7d 71 95 3c 06 b6 60 ba 52 7b 00 3d
       0.056618776 0.018242592 -0.00085720455 0.031367607
0003c0 df 9d 07 bd 21 40 f5 3c 47 a4 8a 3b ad f3 39 3c
       -0.033109542 0.029937806 0.004231009 0.011349601
0003d0 e2 0e 13 3c ec bf 07 bd e2 ce 4e 3b 8a 46 19 3d
       0.008975716 -0.033142015 0.0031556417 0.037420787
0003e0 87 ed 11 3d 22 67 e6 3c 75 45 80 3c 62 f5 b3 bb
       0.035626914 0.02812535 0.01565812 -0.0054918984
0003f0 e0 52 d6 ba e1 76 e8 3c 66 6e ed bc c7 29 13 3d
       -0.0016351603 0.028376998 -0.028983306 0.035928514

action_model._discrete_distribution.branches.2.bias f4 [3]
000000 db 84 14 bd 8e 8e f8 3a 44 a2 08 3d
       -0.036259513 0.0018963383 0.033357874

action_model._discrete_distribution.branches.2.weight f4 [3, 128]
000000 c2 b2 e1 3c 8b 04 f2 bb bb d6 3f bd c0 df f4 bd
       0.027551059 -0.0073857955 -0.046835642 -0.119567394
000010 1c 2a 81 bd 4c 49 d7 bc 55 e5 69 bd a3 59 b1 bd
       -0.0630686 -0.026280068 -0.057103474 -0.08659675
000020 32 a9 46 bb bf b2 f5 3c 75 33 b7 bc ce 1f 62 3d
       -0.003031325 0.02999246 -0.022363404 0.055206113
000030 5d 0e e0 3c 62 8e 67 bd de a4 fc b9 c4 b5 b5 bc
       0.027350599 -0.05653227 -0.0004818802 -0.0221814
000040 04 55 72 3c 26 41 0c bd 0d f6 e1 3c 36 f3 20 be
       0.014790777 -0.034241818 0.027583146 -0.15717778
000050 f6 52 31 bd 62 59 d1 bd 67 bf bb 3d b2 4b a4 3d
       -0.04329201 -0.102221265 0.091673665 0.0802225
000060 49 18 59 bc f2 df 6b bd c0 ca 54 bd cf 68 3d 3e
       -0.013250419 -0.057586618 -0.05195117 0.18497013
000070 01 3b cf bc f0 df 95 bd 1c 18 85 bd cd 32 97 3d
       -0.02529669 -0.07318103 -0.06498739 0.07382736
000080 12 13 2d bd b9 72 c1 bd 8d 01 ac bc 56 b8 7d 3c
       -0.042254515 -0.0944571 -0.020996833 0.015485844
000090 5c 48 b0 3d 56 b8 9c bc 10 96 c2 3b 0d 7d 93 bc
       0.086075515 -0.019130867 0.005938299 -0.018003965
0000a0 1b c9 0c 3d e3 eb 4f bd f7 21 f2 bb e7 eb 2e bd
       0.034371477 -0.05076207 -0.007389303 -0.042705443
0000b0 8d 54 cc 3d a6 84 63 3d 75 68 56 3d bf c0 01 bc
       0.09977064 0.055546425 0.05234571 -0.007919489
0000c0 7c 9c 82 bd 6d c8 ce bd 09 89 f6 bd a4 47 e0 3c
       -0.06377503 -0.10096822 -0.12037856 0.02737791
0000d0 b3 92 f5 3d 53 09 ae 3b 60 60 91 3d c6 56 bf 3d
       0.11990871 0.00531117 0.0709846 0.093427226
0000e0 ff ee 3d bd f3 dd a3 bd 02 b5 d6 3d c0 73 bc bc
       -0.046370503 -0.08001318 0.10483743 -0.023004413
0000f0 e0 28 64 3d b6 05 b4 3d 74 b7 29 3d 17 c3 02 bd
       0.055703044 0.08790152 0.04143472 -0.031924333
000100 38 7d 9a 3c 48 fc 42 3c 16 a2 68 3d ad bb 89 bd
       0.018858537 0.011900969 0.056795202 -0.067252494
000110 2c b1 f2 3d 0e 80 c3 3b af 12 4f 3d d0 e7 0a be
       0.11850199 0.005966193 0.050554927 -0.13564992
000120 00 3e 9f bd 1a f0 53 3d d2 f3 56 bb d9 65 03 3d
       -0.077754974 0.05174265 -0.0032799137 0.03207955
000130 72 d2 83 3d fb 20 c7 3c e3 a6 05 bd 89 4f fb bc
       0.06436624 0.024307719 -0.03262986 -0.030677574
000140 f6 98 99 bd 4f c6 fc 3c b5 46 ba bd 42 1e 65 bd
       -0.07499878 0.03085628 -0.090955175 -0.05593706
000150 de 0a 6e 3d f3 b2 c3 3c c9 16 f6 bc 7b 7c 06 3d
       0.058115833 0.02388904 -0.030040162 0.032833558
000160 16 03 66 bd e5 cf 94 bc c6 2b cc 3c eb 1c df 3d
       -0.056155287 -0.018165538 0.024923217 0.108941875
000170 7b cf 9d 3b c1 1c fb 3d d2 f4 96 bd e0 aa 82 bb
       0.0048159934 0.12261344 -0.073709145 -0.003987655
000180 bb 87 8a 3d f4 58 a7 3d df 44 77 3d 0f 35 60 bd
       0.0676417 0.08171263 0.060368415 -0.0547381
000190 ff 14 b0 3d ec 85 91 bd b3 13 c0 3d c3 f8 33 3e
       0.08597755 -0.07105622 0.09378757 0.17575364
0001a0 73 f8 f4 3d 63 8c 5a 3d 0d 9a a3 bb 69 18 bc 3d
       0.119614504 0.05335654 -0.0049927295 0.09184343
0001b0 6a 48 8f bd 73 e2 af 39 a8 00 5f bd 90 38 04 be
       -0.06996234 0.0003354732 -0.054443985 -0.12912202
0001c0 c5 29 9f 3c a5 a5 d0 bb 85 99 02 be f8 29 b0 bd
       0.019429097 -0.0063674026 -0.12753876 -0.08601755
0001d0 96 d2 48 bd 9e 6c 7a 3d f0 0d 05 bd 90 f5 80 bd
       -0.049028955 0.06113874 -0.032483995 -0.06296837
0001e0 39 b6 d5 3d 4a 77 bc 3d 1a ce 8c bd ea e1 4a 3d
       0.10435147 0.0920244 -0.06875248 0.049531855
0001f0 44 55 61 3c 0e 93 92 bb f1 e1 1e 3d 76 06 83 3d
       0.013753239 -0.0044730967 0.038789693 0.06397717
000200 8c b3 b1 3b e8 18 7d bc b1 31 bf 3c 10 6d ae bb
       0.005423015 -0.015447833 0.023339124 -0.00532306
000210 0d ac 74 3c 96 c0 16 bc a1 07 c0 bb d0 26 b3 b9
       0.014933598 -0.0092011895 -0.0058602844 -0.00034170458
000220 cf 4c 8f bc 1f 84 b5 3c ef 9b 65 3c ad 3f a2 3c
       -0.01749268 0.022157727 0.014014228 0.019805754
000230 cc bf a5 3b de a0 fe 3b ce ed ad bc 4c 48 e7 3c
       0.0050582644 0.0077706417 -0.021231558 0.028232716
000240 06 9c 89 3b d0 e9 56 3b 93 cb 92 3c fb 38 b2 3c
       0.0041995076 0.0032793172 0.017919337 0.021755686
000250 9d 26 03 3d 1c 51 d9 3b fd d3 ca bc e4 0a 94 ba
       0.032019246 0.0066319834 -0.024759287 -0.001129475
000260 d9 8e 6c 3c 57 85 b6 3b 56 42 5d 3c 17 a0 3a bd
       0.014438354 0.0055700946 0.013504585 -0.04556283
000270 ae a4 94 bc e8 20 e9 3c b4 1a 52 3b 06 7b 9b bb
       -0.018144932 0.028458074 0.0032059373 -0.00474489
000280 3b fa 5b bc 6f b4 6b 3c 7b 77 32 bd 5e b4 16 bc
       -0.013426359 0.01438628 -0.043570977 -0.009198276
000290 5e 16 72 bc a7 bf 31 bc 84 e7 2a bd 42 18 b2 bc
       -0.014775841 -0.010848916 -0.041724697 -0.021740083
0002a0 23 24 fb 3c 02 a8 9f 3b 6b 4d 07 bc 6e 2f 72 3c
       0.03065688 0.004872323 -0.008258204 0.014781816
0002b0 9f 59 b7 bc 7c 1e 3a bc f7 2d 33 bd f2 25 2f 3c
       -0.022381602 -0.011359807 -0.043745007 0.010690199
0002c0 87 aa d5 3c 5b 5c 4c 3c 10 4f d2 3c 81 a2 3e bc
       0.02608229 0.012473191 0.025672466 -0.011635424
0002d0 ab a4 16 3c 0d 72 2a bc 63 cf dd 3a a2 64 33 bd
       0.009194533 -0.010403168 0.0016922768 -0.043797143
0002e0 c7 dc a1 bc 4a 10 fb 3c 6b 11 20 bd 19 fe 24 3b
       -0.019758595 0.030647416 -0.03907911 0.0025175868
0002f0 26 3d 05 bc ef 7d 42 3c e0 f3 e4 bc 87 d1 91 3c
       -0.008132255 0.011870845 -0.02794832 0.017800106
000300 cb 0b 8e bc 73 21 33 3d b0 14 31 bd 73 6d 91 bc
       -0.017339608 0.04373307 -0.04323262 -0.017752385
000310 51 ae 96 3b 49 8c 66 3b 35 b4 31 bc 3a fe b4 3c
       0.004598417 0.0035178831 -0.010846187 0.02209388
000320 70 f0 83 3b dc 79 29 bc ef 98 9b 3c 12 62 41 3b
       0.004026465 -0.010343995 0.018993823 0.0029507917
000330 09 e4 3a 3c 4e 0f b3 bc 5e 99 dc 3b 68 7a 8a 3b
       0.011406907 -0.021857884 0.00673215 0.0042260177
000340 d2 3b 52 3d 5f f5 1c bd 1e 04 9f 3c c6 ad 39 3d
       0.05132658 -0.03831994 0.019411143 0.04533174
000350 7d 8c 3a 3c 66 c8 56 bc c3 91 0c 3d 32 e7 8f bb
       0.011386034 -0.013109302 0.034318697 -0.0043915743
000360 e4 e1 b2 bb 4b d5 1f bc 87 49 31 bc 14 bb 45 bc
       -0.005459057 -0.009755443 -0.010820753 -0.012068529
000370 dc 0c c5 bc 02 4e 9f bc 68 3d bf 3b 2f d7 a1 3c
       -0.024053983 -0.019446377 0.0058361776 0.019755928
000380 0a f3 3d bd 3c 01 9c 3c c4 73 df 3c 20 a2 e6 3b
       -0.04637436 0.019043557 0.027276881 0.00703837
000390 78 68 45 3a 5c 5d 28 3c 26 33 d1 bc 83 bb 64 bc
       0.00075305207 0.010276165 -0.025537085 -0.013960722
0003a0 22 e2 52 bd df ae 02 bd c7 17 14 3c 0d 66 10 bc
       -0.05148519 -0.03190505 0.009038872 -0.008813393
0003b0 68 7a b8 3c ad d7 26 bd 5b 92 73 b8 d7 3e e1 bc
       0.022519305 -0.04073303 -5.807202e-05 -0.027495785
0003c0 99 5b 9f bb 2c 2e 01 bc 0c 44 4d 3b b0 5a 40 bc
       -0.004863214 -0.007884543 0.0031321077 -0.011740372
0003d0 83 26 8c 3c 65 f9 00 3c 86 3f d2 3b 03 87 81 3c
       0.017108208 0.00787196 0.006416264 0.015811449
0003e0 8c 02 3d 3d ea 89 b2 bb 3d 13 1b 3c 80 aa c8 bc
       0.046145007 -0.0054485695 0.009465036 -0.024495363
0003f0 59 1d b9 3b 4a d6 11 3c 06 22 c8 bc 9f 55 9d bc
       0.0056492505 0.008901188 -0.024430286 -0.019205866

action_model._discrete_distribution.branches.3.bias f4 [3]
000000 bf 52 a6 3b 7f b6 8e 3c 55 5c a6 bc
       0.005075782 0.017421005 -0.0203077

action_model._discrete_distribution.branches.3.weight f4 [3, 128]
000000 d2 d7 39 bd 18 70 25 bd a0 b8 82 3d ae f2 e1 3c
       -0.045371838 -0.040390104 0.06382871 0.027581539
000010 c5 86 c2 bd 05 e2 f3 3c 8b 85 57 bd 1e cd 32 3c
       -0.094983615 0.02977086 -0.05261759 0.010913162
000020 8d 66 c9 3c b5 a7 0f 3c 53 71 32 3d 92 d3 57 3c
       0.024585033 0.008768012 0.043565106 0.013173001
000030 73 4b 2d bd 39 9e 3f bc 9f c6 88 bb eb 0b cc 3c
       -0.042308282 -0.011695438 -0.004174068 0.024908027
000040 37 73 84 bb af 6c 91 3d 7e c9 6a 3d 1d 11 1a 3d
       -0.004042055 0.07100808 0.057321064 0.037613977
000050 25 19 e5 3a 16 ec cc bc e5 2a 5c 3d d9 2b 8f 3c
       0.0017478807 -0.025014918 0.053751845 0.017476963
000060 7a 4c f8 3c 3c a3 88 3d 6a f7 e6 bc e8 97 62 bd
       0.030309904 0.066717595 -0.028194148 -0.05532065
000070 9a 83 a1 3d b8 ea 50 bd 1b ac 41 bb b7 28 a4 3c
       0.07886429 -0.051005095 -0.0029552046 0.020038946
000080 00 44 28 3d 4c 70 29 bb 40 53 af 3c 81 71 30 bc
       0.041080475 -0.0025854288 0.021402001 -0.010769249
000090 c4 a3 67 bd 9f 9e 9e 3b 49 e3 88 bd 92 c5 25 bd
       -0.056552663 0.0048406865 -0.06683976 -0.04047162
0000a0 39 49 01 3d 0d 08 d3 bd 0e 22 2c 3c d5 a6 20 3d
       0.03156397 -0.1030427 0.010506166 0.039221603
0000b0 a3 02 75 bc df 2b 67 bd ad 01 ff bd 9d dc 6d bd
       -0.014954242 -0.056438323 -0.124514915 -0.05807172
0000c0 eb 33 f2 3b 74 d3 33 bc 8f 84 15 3d e7 f0 59 bd
       0.007391443 -0.010975707 0.03650337 -0.053208258
0000d0 fb bf 8d bd be 24 9d 3d 5b df bd ba 53 50 34 bd
       -0.06921383 0.07673024 -0.0014486121 -0.044021916
0000e0 a5 b5 f4 3c 94 4e 06 be b3 6e 03 3d 0e 66 cc 3d
       0.029871771 -0.13115913 0.032087993 0.09980403
0000f0 74 73 9c bd 9c c3 1b bc 00 5b 0f be 51 c9 77 bb
       -0.076392084 -0.009507086 -0.13999557 -0.0037809203
000100 fb 16 fd bb bc 89 5f 3d 2a e6 76 bd 07 73 12 3d
       -0.0077236868 0.054574713 -0.060278095 0.03575423
000110 f6 a5 c6 3c 85 ea a8 3c 06 8b 9c bd e8 2e 9d bd
       0.024249058 0.02061964 -0.07643704 -0.07674962
000120 d3 31 99 3d 4e 9c b2 bb 53 25 37 3c 0b 12 01 be
       0.07480206 -0.005450762 0.011178332 -0.12604539
000130 d7 18 d9 bc 1e fb 37 3d dd 62 16 bd 0d 48 7b 3c
       -0.026501102 0.04491722 -0.036715377 0.015337002
000140 71 30 f6 3c fe 6c 6b 3d 6b 02 b8 3c d4 d7 e0 bc
       0.030052396 0.05747699 0.02246209 -0.027446665
000150 40 99 92 bd e7 14 7d bd 58 36 f4 3b db b5 43 bd
       -0.07158136 -0.061787512 0.0074527673 -0.047780853
000160 26 9f 54 3d 3f 51 9f 3d 39 2f 1a bb 53 80 96 3d
       0.05190959 0.07779168 -0.0023526682 0.07348695
000170 f5 06 47 bd 64 60 b2 bc a7 dc cd bd f2 fd 89 3d
       -0.04859062 -0.021774478 -0.10051852 0.06737889
000180 31 ed a4 bc 46 2a b1 bd 64 21 a4 3c 6e 03 37 3d
       -0.020132633 -0.08650641 0.020035453 0.044681005
000190 5f cc 51 bd 54 9c 3e 3d b0 a2 c4 bb 37 5f 61 bd
       -0.051220294 0.046535805 -0.006000839 -0.055022445
0001a0 d6 0b 87 bc aa 01 ea bc 23 34 34 3c 9e d6 0c bd
       -0.016485136 -0.028565247 0.0109987585 -0.034384362
0001b0 70 7f 16 3d de 28 ce bd af 12 91 bd f5 33 2f 3c
       0.036742628 -0.100663885 -0.07083642 0.01069354
0001c0 5f 3a 73 bd 02 47 9e 3b 72 a8 2a bc c0 6a 89 3c
       -0.05938184 0.004830242 -0.010416137 0.016774535
0001d0 0c 57 0a bc 37 c1 21 3d 14 02 07 3d 56 7f 21 3c
       -0.008443605 0.039490905 0.032960966 0.009857019
0001e0 bf a4 23 3d 6e 38 23 3d 24 56 44 bd 10 d7 08 bd
       0.039952036 0.039848737 -0.047933713 -0.033408225
0001f0 80 36 d6 3d 57 8e a7 bb dc 3e 7c bd 50 ef e7 3c
       0.10459614 -0.005113404 -0.061583385 0.028312355
000200 0f 12 04 3c 52 2a ab bc ff 26 78 3c d5 d8 bf 3c
       0.008060946 -0.020894203 0.015146016 0.023418823
000210 51 bd d8 3c 34 70 c3 bc dd e1 e8 bc 66 6f 16 3d
       0.02645746 -0.023857214 -0.028428013 0.03672733
000220 bb 28 8b 3c a2 ad d1 3c 62 ae 2c 3d f6 e8 e4 3c
       0.016987195 0.02559549 0.042158492 0.027943116
000230 76 b7 ae 3c 65 49 27 bb 73 4b 59 bc 69 be 2d bc
       0.021327715 -0.0025525924 -0.013262617 -0.010604479
000240 85 da 45 bc 19 89 0e 3c 77 d3 68 bc 32 8d cb 3b
       -0.012076025 0.008699679 -0.014210573 0.0062119
000250 ee 67 8b 3c 51 41 44 3d 24 2a a5 3c e0 a9 6f bc
       0.017017331 0.047913853 0.020161696 -0.014627904
000260 21 e2 b4 bc 28 5f 69 bc fa 95 26 3c 5e 42 89 b8
       -0.022080483 -0.014243878 0.010167593 -6.545031e-05
000270 47 7c 1f 3d d5 dd 31 3d b0 b0 8a bc ca 8d b1 3c
       0.03893688 0.043424446 -0.016929954 0.021674056
000280 08 e2 8e bc e7 52 06 3c 6b a1 8b bc d5 cb d5 3b
       -0.017441764 0.008198476 -0.017044744 0.006524543
000290 9e df 22 3d e7 f8 ab bc 8a ba d2 3c 3f 04 c6 3c
       0.03976404 -0.02099271 0.025723714 0.024171947
0002a0 e9 3e ff 3c 3c 5f b5 3c f8 2e 00 3d a2 4a 17 bc
       0.031157928 0.022140138 0.031294793 -0.009234102
0002b0 d4 16 4a bd d5 21 5a bc 3b df 3e bc 0c e4 08 3d
       -0.049338177 -0.01331373 -0.011649902 0.033420607
0002c0 df 9f 01 3d 60 08 a0 3c c8 9f 9e 3a 4e c6 d0 bb
       0.031646606 0.019535244 0.0012102062 -0.006371296
0002d0 87 bc ae 3c a2 3e ce 3c e3 9e b3 bc d8 5c 5a bc
       0.021330131 0.02517635 -0.021926349 -0.0133278
0002e0 ec 41 a2 bc ea 3a 8b bb f3 c2 aa bc 5d 49 7f bb
       -0.019806825 -0.0042489665 -0.020844912 -0.003895364
0002f0 03 68 9e 3c 2d fb 4a 3c a1 aa 79 3c 91 4f dc 3b
       0.019336706 0.012388987 0.015238435 0.0067233522
000300 a9 cd 5d bd bc 37 38 3c cb f5 42 3c 3f 18 03 3d
       -0.05415121 0.011243757 0.011899422 0.032005545
000310 bb 1b 58 bb 07 3f b8 bc e6 4e 41 3d c6 ba 37 3b
       -0.0032975513 -0.022490991 0.047194384 0.002803491
000320 ae d8 8c bb 9d 2c 05 3b 20 5e 22 3d f1 6b b6 bc
       -0.004298291 0.002032078 0.039640546 -0.022268267
000330 ac 34 22 3b f3 8d 19 bc ff db 4b 3c db 96 15 3c
       0.0024750633 -0.009372222 0.012442588 0.009130205
000340 11 d3 57 3c fd 94 14 3c 66 6e 35 3d 6d 0c 5d 3b
       0.013172881 0.009068725 0.044294737 0.003372933
000350 9d 72 c4 bb fc 2d 26 3c 45 3a a6 3c b0 32 45 bc
       -0.0059951083 0.0101427995 0.020291457 -0.012036011
000360 37 bc d6 3c a8 3f 27 3d 62 9e 26 3c 03 dd 2a bb
       0.026212795 0.04083219 0.010169597 -0.0026071675
000370 0f b6 a0 3c be a9 81 3c 75 20 c8 3c 1a 35 7b 3c
       0.019618062 0.01582801 0.02442954 0.015332485
000380 8d bc d3 bc be b1 11 3c bb 7e dd 3c ee 42 5d 39
       -0.025846744 0.008892475 0.027037969 0.00021101136
000390 69 99 83 3c 1c 5b 8a 3c 32 1a 58 bb 9d f1 4a 3c
       0.016064363 0.016889147 -0.0032974598 0.012386707
0003a0 44 ed 32 bd 49 6a 0b 3d c5 fd 08 bd 09 48 9b 3b
       -0.043683305 0.03403691 -0.03344514 0.004738812
0003b0 05 d1 c5 bc bb ea 0f 3d 79 ef 35 bc 12 43 b2 3c
       -0.02414752 0.035135966 -0.011104458 0.021760497
0003c0 3c 31 f4 3c 63 54 be ba 1b 23 47 3c d8 25 02 3d
       0.029808633 -0.0014520999 0.012154366 0.03177437
0003d0 fe 02 a8 3c c4 36 7c bc a9 25 ed 3c e5 9f 00 3c
       0.02050924 -0.0153939165 0.028948622 0.007850622
0003e0 db 34 02 3c ff 7c 29 3c e6 3f 33 3d 2d a5 57 3d
       0.007947172 0.010344743 0.04376211 0.05264776
0003f0 cd 42 58 3c 8a 18 16 3c f3 52 20 3b 4b 93 f5 3c
       0.01319952 0.009161124 0.0024463504 0.029977461

action_model._discrete_distribution.branches.4.bias f4 [3]
000000 54 ed 32 bc e3 bb a2 3c 5d 6e f7 bb
       -0.010920841 0.019864982 -0.007550998

action_model._discrete_distribution.branches.4.weight f4 [3, 128]
000000 c7 c1 03 3d a1 70 07 3d da 12 fc 3c ef b0 30 bc
       0.032167222 0.033066396 0.030770708 -0.010784372
000010 bf 34 98 3d 70 f6 01 3d cb 47 14 3d 5e f2 89 3d
       0.074319355 0.03172916 0.03620128 0.06735681
000020 bf 95 15 3d 02 c0 8f 3c cb 55 85 bd 9c fe 89 bd
       0.036519762 0.017547611 -0.06510504 -0.06738016
000030 a6 5e 8e bb 78 bd d6 3d 3d 7f 6e 3d 63 cf b8 3c
       -0.004344779 0.10485357 0.058226813 0.022559827
000040 ef b5 3e bc b6 83 6e bd 90 07 70 bc 34 47 6d 3b
       -0.011640056 -0.058231078 -0.014650241 0.003620577
000050 2f 00 9a 3d c1 92 e0 bc 7d 67 7e 3d 36 c1 8c 3d
       0.07519566 -0.027413728 0.062110413 0.068727896
000060 f5 d7 2c bd a0 d4 43 3c 7f 9c 8c bb d5 59 d7 bc
       -0.04219814 0.011952549 -0.0042911167 -0.026287952
000070 c8 ab c0 3d 41 fa 05 3d 69 78 07 3c e7 a3 98 bc
       0.09407765 0.032709364 0.008268454 -0.018632842
000080 7f b4 8e bc 4b f8 b4 bc c4 de ec 3d 8d d7 97 bd
       -0.017420052 -0.022091052 0.11565927 -0.0741416
000090 61 0d e6 bd 6f 08 51 3d 48 a6 15 3e 64 9b 65 bc
       -0.112330206 0.051033434 0.14614213 -0.014014099
0000a0 e6 0f ce bc 7e 7b 7d bb b5 b6 30 be 72 dd 7b bb
       -0.025154065 -0.0038678343 -0.17257197 -0.0038431552
0000b0 94 91 ac 3d 96 61 98 bc de f3 f1 3c 75 f7 f3 bc
       0.08426204 -0.01860122 0.02953523 -0.029781083
0000c0 62 a7 38 bd 0d c9 83 bc d7 83 c8 bc 25 9a e0 bb
       -0.045081504 -0.01608708 -0.024476929 -0.006854313
0000d0 2c a7 0f 3d 0d fe 80 bd 43 0f 43 3d ea ed c6 3b
       0.035071537 -0.06298456 0.047621977 0.006070842
0000e0 8d da 6a 39 14 65 16 bb 17 68 89 3c 31 e4 fe bc
       0.00022397396 -0.002294843 0.016773267 -0.03111467
0000f0 db a9 ab bd 14 75 ae bd 08 a9 cc bc 5a db 2c 3d
       -0.08382007 -0.08518425 -0.024982944 0.042201377
000100 72 36 b0 3d b7 79 c6 ba 59 b9 0d 3d 38 0a 0e 3c
       0.086041346 -0.0015142475 0.03460059 0.0086694285
000110 e0 8c 93 bc 06 43 2e 3d b0 81 f3 bd 9b e3 ae 3c
       -0.01801151 0.042544387 -0.1188997 0.021348765
000120 08 f0 0d bc a7 7e 34 3d f1 73 28 3c d0 cc 97 3c
       -0.008663185 0.044066098 0.010281549 0.01853028
000130 36 09 00 3d 60 b5 4f bc ea a5 82 3b 06 94 c4 ba
       0.031258784 -0.0126775205 0.0039870637 -0.0014997728
000140 0c 6d 99 bd 24 74 c8 3c 1d a2 5e bb 34 d0 8e bc
       -0.07491502 0.024469443 -0.0033971139 -0.017433263
000150 7d 15 7a 3c 9b 03 b7 bc be f7 06 3c e3 6c bb 3c
       0.015263912 -0.022340586 0.008237777 0.02287907
000160 54 18 98 3c 51 95 76 3d 01 e3 44 3d 4c 67 6f 3c
       0.018566288 0.060200993 0.04806805 0.01461203
000170 4f 46 06 3a db fb cd bd 37 88 74 3d 15 b5 b1 bd
       0.0005122171 -0.10057803 0.059700217 -0.08677117
000180 e5 0e 0f 3e 52 67 7e bd 73 8e a4 bc 5e f1 10 bb
       0.13970526 -0.062110253 -0.020087456 -0.0022116522
000190 f3 8d 07 be 98 a2 a9 bc 76 76 58 bd 7a c5 c4 bc
       -0.13237743 -0.020707414 -0.05284735 -0.024019945
0001a0 57 90 a3 3d 73 48 18 be 04 fa af 3b 7f d2 4b 3c
       0.07986515 -0.14871387 0.0053703804 0.012440323
0001b0 b4 86 2e bd ae 30 8a 3d 86 0d 36 3d f9 40 ff 3c
       -0.04260893 0.06747566 0.04444649 0.031158911
0001c0 1c 87 5b 3d 77 c1 10 3d 81 8c 37 bd 74 de 56 bd
       0.053595647 0.035340752 -0.04481173 -0.05245824
0001d0 cf 79 04 be 5e 65 55 bd b4 78 53 be d9 45 4e 3b
       -0.12937091 -0.052098624 -0.20651513 0.0031474738
0001e0 aa 4c 8c bd 89 0d 57 3d 11 0c 2c 3c 75 fc 01 3d
       -0.0685056 0.052503143 0.010500924 0.031734902
0001f0 a0 4d 90 3b da 40 0a 3d 19 13 b9 bd 7a e3 6f 3d
       0.004403785 0.033753254 -0.09036846 0.058566548
000200 99 ca 06 bd 43 da 0f 3d 07 d4 cb 3b 51 3b 14 3c
       -0.032908056 0.03512026 0.006220344 0.009047345
000210 dc e6 e3 ba c2 6f bd 3a b3 82 bf 3c 62 9a 20 bc
       -0.0017387527 0.0014452862 0.023377752 -0.009802433
000220 97 a3 2f 3c a5 3d 9a 3c 32 bd f5 3c 19 cd 48 ba
       0.010720155 0.018828223 0.029997442 -0.00076599565
000230 8f 8c 21 bb e3 6f 26 bd e2 5b be bc d7 70 74 3c
       -0.002465043 -0.040634047 -0.023237173 0.014919481
000240 cf 35 e6 3c 0a c1 17 3c 85 78 cd 3c f8 05 45 bc
       0.02810183 0.009262333 0.025081882 -0.012025349
000250 69 cc fb ba 8f ef 82 ba b1 d4 06 3b 4b 9e 07 bd
       -0.0019210699 -0.0009989607 0.0020573551 -0.033109944
000260 a2 b2 5d 3d 8e 18 86 3c bd 09 6e bb 83 67 9a bc
       0.054125436 0.01636913 -0.0036321722 -0.018848186
000270 49 e1 86 3c 08 b6 72 3c 63 53 c7 bb b9 d7 50 bc
       0.016464846 0.014813907 -0.0060829385 -0.012746745
000280 db e7 f9 bb 5f 16 a6 3c 58 c9 cf bc 38 85 cf 3c
       -0.0076265163 0.02027434 -0.025364563 0.025332078
000290 e1 36 62 3d e7 8d 42 bc 07 c5 1f bc b5 0e cb bc
       0.055228118 -0.0118746525 -0.009751565 -0.024787286
0002a0 35 1d 5c 3c 62 3e 5a bb af 7a b1 bb 68 ed db 3c
       0.013434698 -0.0033301343 -0.0054162364 0.026846603
0002b0 0e 2a 10 bd 72 0a 3f 3d fa 3a 5e bd 16 d8 27 3c
       -0.035196356 0.04664082 -0.054255463 0.01024439
0002c0 1d ef 46 bc 4c b2 02 bc c0 f2 01 3d 17 ca c6 bc
       -0.01214197 -0.00797708 0.031725645 -0.024266286
0002d0 12 42 d0 3c 68 24 f9 bb ab ff 77 bc f8 42 b0 3b
       0.02542213 -0.007603217 -0.01513664 0.005379077
0002e0 91 a8 e2 bb 6a fa d8 3c 06 47 6a bd 66 8f 65 bc
       -0.0069170673 0.026486594 -0.05719664 -0.01401124
0002f0 bc 51 8d 3a 79 c3 f9 3b 49 32 79 3c f6 f0 9a bb
       0.0010781805 0.007622179 0.015209743 -0.004728432
000300 5d f6 15 bb 7f e0 98 3b f7 ce c4 bb ee 6c 1c bb
       -0.002288244 0.004665434 -0.0060061174 -0.0023868638
000310 bd 86 21 3d 98 26 33 bc 51 16 f3 3c e4 3e 5a bc
       0.039435137 -0.010934494 0.029673727 -0.013320658
000320 21 34 42 bd 40 21 7f bb 02 17 2b 3b 7d 50 10 bd
       -0.047412995 -0.003892973 0.0026106243 -0.03523301
000330 c9 f4 8a 3b 20 6a be bc 3c a5 a1 3c 05 a7 aa bc
       0.0042406064 -0.023243964 0.01973211 -0.020831594
000340 0b c1 20 3b aa 5d b2 bc 77 8c 67 3c 73 5f 17 3c
       0.0024529125 -0.021773178 0.0141326105 0.009239065
000350 fa 15 23 3d 0e f6 58 3c 3d 08 35 3c 8c 7c b4 3c
       0.03981588 0.013242258 0.011049327 0.022032045
000360 67 fc 1e 3b 21 19 df ba 61 b8 08 bd 25 45 88 bc
       0.002425933 -0.0017021039 -0.033378962 -0.016634533
000370 b7 88 25 bb bb 42 d2 3b 30 f3 2f 3c b8 17 ad 3c
       -0.002525849 0.0064166463 0.010739133 0.021129474
000380 14 eb 96 bc 42 20 3f 3d 97 c0 9b 3c e7 c9 d2 bb
       -0.01842264 0.046661623 0.019012732 -0.00643276
000390 da 4f 1e 3c 02 be 86 3b 36 9f e2 bc 50 36 3c 3c
       0.009662593 0.004112006 -0.027663808 0.0114875585
0003a0 be 89 2b bd f9 e5 19 3d 2e 77 5c bc df 39 c7 3c
       -0.041879408 0.037572835 -0.013456149 0.024319587
0003b0 f7 f0 72 3c 44 80 34 bc 64 6b 1d bd 60 60 90 bc
       0.014827958 -0.011016909 -0.038432494 -0.01762408
0003c0 bb d2 95 ba b9 78 20 bd d5 d6 ce 3b de a9 90 3c
       -0.00114306 -0.03917763 0.006312231 0.017659124
0003d0 bb 44 0b 3d 4a 38 0a 3d 8c 90 4b 3d 47 15 9f 3c
       0.034001093 0.033745088 0.049698398 0.019419326
0003e0 c6 99 60 bb 50 7f 56 3c 5f 95 5a 3c 08 85 f8 bc
       -0.0034271344 0.013091877 0.013341277 -0.030336872
0003f0 df 59 69 bd 9f e9 a0 bc 30 ca 9c ba 22 d5 68 bb
       -0.056970473 -0.01964265 -0.0011962112 -0.0035527428

action_model._discrete_distribution.branches.5.bias f4 [3]
000000 7b be c7 bc 68 a3 2d 3c 78 5a 3d 3c
       -0.02438282 0.010598041 0.011557214

action_model._discrete_distribution.branches.5.weight f4 [3, 128]
000000 20 9e f9 bb 90 14 4f 3a ec 8e 93 3d d1 c8 c3 3b
       -0.007617727 0.00078994874 0.072049946 0.005974867
000010 d8 9e 5c bd 69 c1 51 3d c3 b9 fd 3d 9d 3d ba 3d
       -0.053862423 0.05120984 0.12388947 0.09093783
000020 3a 2a 24 3b fb 4e 92 3c 6b 42 ca 3d 79 f9 4a bd
       0.0025049583 0.017859926 0.098759495 -0.049554322
000030 a9 c7 a8 3b 62 b8 85 3d 1c 65 cf 3c fa dc 23 3b
       0.0051507545 0.06529309 0.025316767 0.0025003538
000040 9f e5 1a bb 48 a8 33 3d a9 39 a4 bc 87 80 6b bc
       -0.00236354 0.043861657 -0.020047026 -0.014373905
000050 a7 24 32 ba 09 bd 78 bd 63 a7 de bc 3b 7d b7 bd
       -0.0006795623 -0.060727153 -0.027179426 -0.08959433
000060 46 f4 03 3c e1 53 b4 39 11 db 8e 3c 98 86 52 3c
       0.008053845 0.0003439477 0.017438443 0.012849472
000070 6f 4f 4d 3d d7 6d 2c bd 2a 65 15 3d 4c d3 38 bd
       0.050124582 -0.04209694 0.03647343 -0.045123383
000080 a7 4f cf 3b 99 d9 a0 bc 2e 79 6b 3c a4 8b 62 bd
       0.006326634 -0.019635009 0.014372153 -0.055308953
000090 40 0f f7 3d 10 25 bf 3d d0 58 33 3b 4d 08 dd bc
       0.120634556 0.09333241 0.0027366169 -0.026981497
0000a0 a4 55 b7 bd 2b 65 d8 bd 6c 9a 24 bc 35 0a 61 bc
       -0.089518815 -0.10566171 -0.010046583 -0.013735344
0000b0 4d 3a ac 3b 06 44 e0 3c 99 02 8a 3d 38 18 94 bc
       0.0052559734 0.027376186 0.06738777 -0.018077955
0000c0 ac f1 8c bd c6 f4 43 bd 79 8c 65 3c 60 ce 1f 3b
       -0.06882033 -0.047840856 0.014010542 0.0024384484
0000d0 42 db 90 bd ac 03 11 3e 48 50 01 3d 27 24 38 3b
       -0.0707307 0.14161557 0.031570703 0.002809772
0000e0 d2 12 b6 3c 47 02 07 3d 4d 04 ce 3c e3 96 b3 bc
       0.022225771 0.032961156 0.025148535 -0.021922534
0000f0 37 0d 10 bd 5f 20 15 bd ab 0d 3e 3d b1 fa a2 bc
       -0.035168853 -0.036407825 0.046399754 -0.01989493
000100 1e 7c 2e 3d 0c c8 d1 3c 66 c6 77 bd 5c b7 80 bc
       0.042598836 0.025608085 -0.060491942 -0.015712433
000110 f0 92 ae bc b9 89 ac 3b c6 b3 22 3e 16 28 15 3d
       -0.0213103 0.0052654413 0.1588889 0.036415182
000120 11 fc e3 3c 0b df 8e 3d 50 75 8e bd b9 c6 54 3d
       0.027830156 0.06976136 -0.06955969 0.05194733
000130 68 a1 1a bd 21 4c 94 bd d2 d5 3a bd c4 47 23 3e
       -0.037751585 -0.07241083 -0.04561407 0.15945345
000140 d3 81 5f 3d f1 b1 69 bd ef 7a 2d 3c b8 12 9c bd
       0.05456717 -0.057054464 0.010588392 -0.07620758
000150 0e f9 a0 bd 68 fd 0c 3b ee a1 20 bd ac 15 b9 3c
       -0.078600034 0.0021513347 -0.03921693 0.022593342
000160 e6 2d 6d bd 7b 03 d6 3c 76 82 9f 3c a2 07 07 bc
       -0.0579051 0.026124706 0.019471388 -0.008241566
000170 85 4b 8e bd 78 ce c2 3d 3e d6 5f bb 20 84 ae 3c
       -0.06947998 0.09512037 -0.0034154798 0.021303236
000180 25 8d 87 3d 1a a3 ad 3d 5f a8 b7 bc f8 7f 96 3d
       0.06618718 0.08478375 -0.022419153 0.07348627
000190 4e 28 d5 3c 45 9d 8c 3c 35 6b 38 bd a9 fb 82 bd
       0.026020195 0.017164836 -0.045024116 -0.063956566
0001a0 87 84 9e 3d 06 bf e0 bc 95 50 c8 3d df 21 7b bd
       0.07740121 -0.027434837 0.09780995 -0.0613116
0001b0 05 71 23 bc c8 d5 94 bd 3f c4 d8 3d 2c 15 99 bd
       -0.009975676 -0.07267338 0.10584306 -0.07474741
0001c0 3c 13 d5 bc 80 af d3 3d 12 f8 25 bd 6c b5 b2 bc
       -0.026010148 0.10336208 -0.04051978 -0.021815024
0001d0 a1 59 ab 3d 62 93 3c 3c 11 b8 ba bc f3 a6 6c bd
       0.08366705 0.011509748 -0.022792848 -0.057776403
0001e0 d0 21 89 3d 30 a1 5f 3d 40 2e d1 bd c7 81 a8 bd
       0.06695902 0.05459708 -0.102138996 -0.08227878
0001f0 cd d1 b8 3d 0d 6f 1e 3b 2c 4c d9 bd 5d e0 65 3d
       0.09024391 0.0024175078 -0.10610232 0.056122173
000200 7b 25 4d 3c 9e fa 35 3b 64 d2 5e bc c1 19 ce bb
       0.012521143 0.0027767788 -0.013599966 -0.006289691
000210 94 7b 6d bc b6 37 07 3d 97 76 e8 3c ad 5e 01 3d
       -0.014494795 0.033012114 0.02837686 0.03158443
000220 28 8e 20 3c 46 ea 12 bc 2d d1 e9 bc b9 32 cd 3a
       0.009799518 -0.008966988 -0.028542126 0.0015655375
000230 34 e7 33 3c 0e 40 24 3c 3a 70 6f 3d b6 45 c4 3c
       0.010980416 0.010025037 0.058456637 0.023959022
000240 61 5e 0f bd ad 0a a3 3c 8e 11 0d 3c 4b 72 53 3c
       -0.035002116 0.019902552 0.008610142 0.012905668
000250 0b 76 a7 3c e6 fc 6e 3c 67 cf 1c bd 4b 7f e4 3c
       0.02044203 0.014586663 -0.03828373 0.02789273
000260 c2 b9 11 bc 2d b6 7e 3c 14 90 06 bc d6 7c 39 bc
       -0.008894386 0.015546364 -0.008213062 -0.011321267
000270 6e e6 9c 3c 5c e8 40 3d e1 39 b8 3c 95 cf 4b 3c
       0.019152846 0.047096595 0.022488536 0.012439628
000280 b1 4b bc 3b d2 ed 88 3c 6f 05 c6 3c 69 53 12 3d
       0.005746328 0.016714964 0.024172513 0.035724077
000290 09 34 8f bc 0c f5 fa 3b d1 3c 4f 3c b7 f8 d3 39
       -0.017480867 0.0076586064 0.012648777 0.00040430363
0002a0 86 55 09 bd 05 ce 16 3b b5 57 ca bc c2 76 34 bc
       -0.033528827 0.002301098 -0.024700025 -0.011014642
0002b0 cf 6a 05 3d 18 63 75 3b 88 b9 c0 3b 14 60 80 bc
       0.032572564 0.0037443098 0.005881492 -0.015670814
0002c0 c9 65 a8 3c c7 0c 19 37 47 5a 6c bb fd 66 46 3c
       0.020556347 9.122486e-06 -0.0036064552 0.012109515
0002d0 25 65 f3 bb 05 18 83 bc 6e 99 88 3c ae e7 59 3d
       -0.007427829 -0.016002664 0.016674723 0.053199463
0002e0 a1 02 e9 3b 5d cf 8e 3c f6 4f 15 3d 16 8e c3 3a
       0.007110909 0.017432863 0.03645321 0.0014919664
0002f0 a2 58 48 bc a3 cd d0 bc 20 a5 93 bc cd f2 0f bd
       -0.012228163 -0.02548868 -0.018023074 -0.035143662
000300 4e e2 ae 3c 21 b1 2a bd 41 b5 c3 3c 3f 49 f5 3c
       0.021348145 -0.04167283 0.02389014 0.029942153
000310 91 25 0f ba 21 32 fb 3c 89 94 09 bc f6 28 dc 3c
       -0.0005460615 0.030663552 -0.00839723 0.026875
000320 2e 2b 94 3b 31 21 66 3d 79 05 83 bc 41 f3 58 3b
       0.004521749 0.056183998 -0.01599382 0.0033103975
000330 f0 91 b0 3b 5d 4d 00 3c 22 c0 05 bd 94 8e 56 bb
       0.005388491 0.007830945 -0.032653935 -0.0032738792
000340 0b 46 06 bd 48 58 24 bc 91 a0 ab bc 07 f1 bb bc
       -0.032781642 -0.0100308135 -0.020950587 -0.02294208
000350 dc 95 11 bc 24 7e 84 3c 57 f4 a6 3b de 06 94 3c
       -0.008885827 0.01617343 0.0050950455 0.01806968
000360 d4 c1 36 bc ed b7 2f 3d ad 04 6b 3c ad 4e b3 3c
       -0.011154611 0.042900015 0.0143443765 0.021888101
000370 09 4e 88 bc a8 e9 f2 bb fe 54 41 bc 77 a5 56 bd
       -0.016638773 -0.007413108 -0.011800049 -0.052403893
000380 0c 5f 0b 3d eb 1d f3 bc 84 a5 de bb 2b 3b 8f bc
       0.03402619 -0.029677352 -0.0067946333 -0.017484268
000390 1b 73 79 3b a6 d6 8c 3c 55 9f 3a bc 2f cb c7 3c
       0.0038062993 0.017192196 -0.011390527 0.024388878
0003a0 7e 6a d3 3a 9f fa a9 3b 00 f5 e6 3c 3c ae d4 3c
       0.001612976 0.005187347 0.028192997 0.025961988
0003b0 a2 e5 83 bc 1a d2 c2 3c 29 14 a2 3c a1 31 7a 3c
       -0.016100708 0.023781825 0.019785004 0.0152706215
0003c0 28 56 a8 bc 38 e7 b4 3c f0 cc 4a bc d6 76 f2 bb
       -0.020548895 0.02208291 -0.0123779625 -0.0073994203
0003d0 0a 6f 2b 3b fe e0 a8 3b fe 3d ae bc 09 3f 38 3c
       0.0026158714 0.0051537743 -0.021269795 0.0112454975
0003e0 d5 cc 12 bd 6e 6c 52 3c 19 0a 4b 3c c4 d8 53 bb
       -0.035839874 0.012843234 0.012392544 -0.0032325247
0003f0 86 9c 11 bc b4 7a 3a 3c 26 88 c2 3c df 6a be 3c
       -0.008887416 0.011381794 0.023746561 0.02324432

action_model._discrete_distribution.branches.6.bias f4 [3]
000000 c6 f1 a1 b9 06 94 63 3a 74 66 63 3b
       -0.00030888448 0.000868142 0.0034698518
