ArmRobot/Assets/results/gripCorrected/TouchCubeMoveGail/TouchCubeMoveGail-999989.pt (torch, 790615 bytes, 75 tensors)

network_body.linear_encoder.seq_layers.0.weight f4 [128, 105]
000000 de ff a7 bd c3 63 0f bd e4 13 90 bc a0 90 f2 bd
       -0.082031 -0.03500725 -0.01758761 -0.11843991
000010 64 de 94 bd 30 bb 8e bd a9 2a b4 bd 62 40 6e bc
       -0.0726898 -0.06969297 -0.08797199 -0.014541717
000020 f1 41 fb bd 11 68 57 be a2 07 6c 3c 88 25 82 bd
       -0.12268437 -0.21035792 0.014406117 -0.06354815
000030 11 32 c3 3c 8f ba c8 3d 68 eb 85 bd 6e bc 71 3d
       0.023827584 0.09801208 -0.06539041 0.05901759
000040 57 d6 9a 3d 1c 49 18 3d 25 e2 3e be 86 a6 96 3d
       0.07560413 0.037179098 -0.18640955 0.073559806
000050 66 74 9a bd 66 4b 60 3e ca 4f 63 bc b9 74 e8 bd
       -0.075417325 0.21903762 -0.013874004 -0.11350388
000060 88 1f 25 bd 8d d3 58 3c 1b 8f 1d 3e d9 fc d3 bd
       -0.040313274 0.013234031 0.15386622 -0.10350961
000070 ef 01 72 bd a3 2b f6 bd e5 01 7c 3e 39 d2 e4 38
       -0.059083875 -0.12020042 0.24610098 0.00010911044
000080 3e 1b a0 bb 4d 93 5b bd 6f ab c5 3d 8a da 80 3d
       -0.00488606 -0.053607274 0.09651839 0.06291683
000090 9a cd 0a 3e 7a 97 28 bd 5c 20 f5 b9 e0 f5 f4 3d
       0.13554993 -0.041160084 -0.0004675415 0.119609594
0000a0 40 9b 85 bc 15 1b bd 3c 2f fa fd 3d 1a 58 a0 3d
       -0.01630938 0.023084203 0.12401234 0.07829304
0000b0 d3 d9 4c bd 97 3a f2 bd 75 92 31 3d 6c 04 05 bd
       -0.05001242 -0.118275814 0.043352563 -0.03247492
0000c0 61 b7 81 3d ca ed 2b 3b f0 22 0a bc e3 2c 15 bd
       0.06333805 0.0026234263 -0.008431181 -0.03641976
0000d0 7f 8b 08 bd c6 83 85 3d 4a 14 7f 3d 06 51 eb 3c
       -0.03333616 0.065192744 0.06227521 0.028725158
0000e0 51 d2 c2 bd e3 6a ab bc 40 15 b2 3d a9 8b bb bd
       -0.09512771 -0.020924991 0.08695459 -0.091574974
0000f0 d5 75 2f 3e 34 f7 87 be 3b 7c 99 bd 62 6b 2d be
       0.17134793 -0.2655579 -0.07494398 -0.16935495
000100 aa 26 b6 3d 40 95 1d 3e 2c 71 a0 39 a4 70 b5 bd
       0.08894093 0.15388966 0.00030601898 -0.08859375
000110 9f a2 69 3d 50 28 06 ba 4c 38 a1 3c 30 08 f4 3d
       0.057039853 -0.00051177014 0.019680165 0.11915624
000120 2a 0c df 3c 99 3d c4 3d f5 a0 b1 bd c3 72 26 3d
       0.02722748 0.09582061 -0.08673278 0.04063679
000130 99 64 05 be c2 3c 97 bd 94 1b 44 be a0 db aa bb
       -0.13026656 -0.073846355 -0.19151145 -0.0052141696
000140 68 b4 57 be 1a 84 37 3e 37 24 a7 bd 4c e3 3f 3d
       -0.21064913 0.17921486 -0.08161204 0.046847627
000150 44 6b f7 3d 38 66 db bd e1 8f a2 3a 66 36 b6 bd
       0.12081006 -0.10712856 0.0012402498 -0.088970944
000160 79 f6 98 3d 6f 69 cf 3c a2 96 ef bc e3 6c e6 bd
       0.07468886 0.02531883 -0.029246632 -0.11251237
000170 ca 85 1a bd 39 1c 00 3d cc 8b a6 bb df 2e 04 3c
       -0.037725247 0.031276915 -0.005082583 0.008067816
000180 5f 35 1c bd c6 31 b3 3c f5 94 9d 3d 07 76 67 3c
       -0.038136836 0.02187432 0.07694427 0.014127261
000190 73 c4 c2 3b e4 97 bb 3d 31 cf b2 bc 35 50 e4 bd
       0.0059438287 0.0915983 -0.021827312 -0.11148111
0001a0 ad f4 5a 3e 92 76 b0 bd 9f 6b 5c bc 6b ad 80 be
       0.21382399 -0.086163655 -0.013453393 -0.25132307
0001b0 e7 6f 12 3d 61 22 98 bd 46 dd 6d 3d 5b cb cc 3d
       0.03575125 -0.07428432 0.05807235 0.099997245
0001c0 9c 4b 10 3d 4e 29 9e bd 3f 19 0b bc f0 d5 e4 3d
       0.035228357 -0.07722722 -0.008489906 0.11173618
0001d0 66 5c 6a bc 37 67 ed 3d 74 dc 6f bc 18 9d 08 bd
       -0.014304256 0.11591952 -0.014639962 -0.03335294
0001e0 2f 94 0b 3e bb 03 60 3e 1d 24 55 be 19 8f 97 bd
       0.13630746 0.21876423 -0.20814557 -0.074003406
0001f0 d8 a6 e0 bd f0 95 c8 bd 23 9e 58 bd b5 7d d0 bc
       -0.10969323 -0.09794223 -0.052885186 -0.025450567
000200 78 f1 73 bc 1e 5f bb bd 16 4b 5c 3d 91 85 27 bc
       -0.014889114 -0.091490015 0.053782545 -0.010224716
000210 ab 0f 04 bd 6f 1c a9 3d b6 02 56 3e 69 b6 95 3d
       -0.032241505 0.082573764 0.20899472 0.073101826
000220 7f 73 89 bd ed 6a 75 bd 64 91 fc bc c5 ce dc 3d
       -0.06711482 -0.059916425 -0.030831046 0.10781626
000230 e9 31 21 3d 5b fb ae 3c ea d5 24 3e 48 72 4c bd
       0.03935424 0.02136009 0.16097227 -0.049913675
000240 86 5c dd bc a9 f7 40 3d 00 29 1f 3e 8f 75 36 3d
       -0.027021658 0.047111187 0.15542984 0.044545706
000250 c4 61 50 bc 92 dd 80 3c 95 ee f2 bd aa 52 ab bd
       -0.012718622 0.015730653 -0.11861912 -0.08365376
000260 43 ab fc 3c 52 b9 66 bb 88 ca 08 3e a1 d5 e1 3d
       0.030843383 -0.0035205674 0.1335851 0.110270746
000270 4b 5c d9 3c 67 b7 20 3e f4 6d dc 3c 4c af 84 bd
       0.026533267 0.15694962 0.026907898 -0.06478748
000280 0d a7 d5 bd f0 17 01 bd af b7 d4 3d 60 9a 42 3e
       -0.10432253 -0.03151697 0.10386597 0.19004202
000290 c2 d4 eb bd db 27 be 3d d6 24 07 be aa b9 af bc
       -0.1151519 0.092849456 -0.13197646 -0.021450836
0002a0 a0 bf de 3d 4d 87 07 bd 99 ce 69 bd a0 c8 a9 3d
       0.10876393 -0.033088017 -0.057081793 0.08290219
0002b0 0a aa 86 3d b6 27 82 3e 1e 40 a2 3d 92 c1 3b 3e
       0.06575401 0.25420922 0.07922386 0.1833556
0002c0 c5 15 91 3d 05 3d 40 3e d8 80 63 be 05 61 bc be
       0.0708423 0.18773277 -0.22217119 -0.3679277
0002d0 cf 44 f5 3d ea ef e6 bc b1 24 16 be 9b b0 b1 3d
       0.11976015 -0.028190572 -0.14662434 0.08676263
0002e0 5b 1d a5 bc 0b fa 84 bd f1 26 3a bc 86 44 45 be
       -0.0201556 -0.064930044 -0.011361823 -0.19264421
0002f0 58 c2 ba bc d4 29 e7 bb c2 70 7a bd 82 ac 90 3d
       -0.022797748 -0.007054547 -0.06114269 0.07064153
000300 a3 c8 92 bd af 66 74 3d 90 47 80 bd 06 07 69 3e
       -0.07167175 0.05966824 -0.062636495 0.22756585
000310 bb 76 fd 3d 71 fa 73 be a2 fc 0a be 38 31 39 bd
       0.12376162 -0.23826005 -0.13572934 -0.045212954
000320 a2 56 3f bd 7d a1 8d bd c4 23 8d 3d 42 67 1a be
       -0.04671348 -0.06915567 0.068915874 -0.15078452
000330 ab 19 21 be 1d b9 d2 bd 2a ac c5 3c c4 85 f4 bc
       -0.15732448 -0.10289214 0.024129946 -0.02984894
000340 8e dd 81 3c 89 23 4d bc 44 5d 27 bd 2b 61 79 3e
       0.015852716 -0.012520679 -0.04086043 0.24353473
000350 b7 4f a5 3d ac 65 5b 3d af a1 36 3e e7 92 12 3e
       0.08071845 0.05356376 0.17835115 0.14313851
000360 d0 97 5b bd 54 58 96 bc 8c 8e d6 3c cd a9 34 3d
       -0.053611577 -0.018352665 0.026191019 0.044107247
000370 bb 18 ea bd 91 76 89 3d fb 36 28 3a d6 a4 24 bd
       -0.11430498 0.06712068 0.0006416884 -0.040196262
000380 a9 c9 6d 3e f7 af 9d ba 4c 11 88 3c 99 a0 23 be
       0.23221458 -0.0012030591 0.01660981 -0.15979232
000390 aa e8 a9 bd 85 af ef 3d a3 be d1 bd 8c c4 d7 3d
       -0.0829633 0.117033996 -0.10241439 0.10535535
0003a0 ba fb c5 bc 46 50 a3 3d 3b 72 0b be 72 64 14 be
       -0.024167884 0.07974295 -0.13617794 -0.14491442
0003b0 c4 11 1b 3e 13 e8 9f 3d c5 7d c5 3c 2a f3 a6 bd
       0.15143496 0.078079365 0.024107823 -0.081518486
0003c0 c8 40 10 be 92 20 31 3e 8d 9b e2 3d 25 d7 a5 3d
       -0.14087212 0.17297581 0.11064825 0.08097676
0003d0 36 e7 5a bd 40 86 8c 3d 1d 84 31 bd db 56 d9 bc
       -0.053443156 0.06861544 -0.043338884 -0.026530674
0003e0 44 a1 01 3d 31 19 91 bd 87 e0 74 be f3 08 7b be
       0.031647936 -0.07084883 -0.23913775 -0.24515133
0003f0 0e da b9 39 cf a1 94 3d 17 6c 18 bd 9b b1 55 bc
       0.00035448413 0.07257425 -0.037212458 -0.013042833

network_body.linear_encoder.seq_layers.0.bias f4 [128]
000000 b9 62 6b 3c f4 c4 64 3d 30 b5 b1 3c f5 1a 71 3c
       0.014366799 0.05585189 0.021692842 0.0147159
000010 e0 e0 30 3c 10 b7 c3 bc 3d 12 2c 3b a9 23 ad 3c
       0.010795802 -0.023891002 0.0026255988 0.021135168
000020 06 2c 84 3c cf 86 30 bc da 68 34 3c f0 f7 cf 3c
       0.016134273 -0.010774328 0.011011327 0.02538678
000030 6e dc 6c 3c e1 f3 ee 3c 10 64 91 3c de 7a 56 3c
       0.014456851 0.029169025 0.017747909 0.013090817
000040 05 ab 9e bb 89 8f 89 bc e0 2d 47 3b 03 cd 6c 3c
       -0.0048421645 -0.016792076 0.0030392334 0.0144531755
000050 c9 12 37 3b 97 63 f0 39 d6 ca 6d 3c 28 28 37 3c
       0.002793478 0.00045850567 0.014513692 0.011179008
000060 38 af 24 bc 3c f1 da 3c 33 2e 52 3d 6f 91 33 bc
       -0.010051541 0.026726358 0.05131359 -0.010959967
000070 b9 e2 01 3d 3b ee ae bb 34 a7 65 3d a4 eb cf 3c
       0.03171036 -0.005338458 0.05606766 0.025380917
000080 7d 0d 9c 3c f6 a3 ce 3c 9a b2 b1 3c 34 86 89 3d
       0.0190494 0.025224667 0.02169161 0.0671505
000090 05 a6 01 3d 24 a4 41 3d c2 1e ae 3c 5e 97 a2 ba
       0.03165247 0.047275677 0.0212549 -0.001240473
0000a0 33 1a f0 bb f2 ed 65 3d 59 a1 02 3d 88 50 82 3c
       -0.007327342 0.056135125 0.031892154 0.01590754
0000b0 32 89 79 3b 3d a3 a9 39 10 47 84 3c df 1d 1d 3c
       0.003807616 0.00032355814 0.016147166 0.009589641
0000c0 bf fc 21 3d 49 83 a7 3c aa 6b f1 3c 78 2c a3 3c
       0.039547678 0.020448344 0.029470284 0.019918665
0000d0 c2 e1 f3 3c 67 7e 14 3d 71 69 c8 3c 40 76 a6 3c
       0.029770736 0.03625336 0.02446434 0.020320058
0000e0 fd 98 ac 3c 79 f4 83 3c ae 56 84 3c aa bb bd 3c
       0.021069044 0.016107785 0.016154613 0.023160774
0000f0 f6 23 09 bb ba d8 1e bc 48 a1 a8 3c 34 c7 54 3d
       -0.0020925975 -0.009695226 0.020584717 0.051947787
000100 d6 86 75 3c e9 c1 7d bb 9c 90 26 bb 79 cb c3 3c
       0.014985761 -0.0038720316 -0.0025415784 0.023900734
000110 6c 58 d6 3c 81 6b 14 3b 09 3e f2 3c b8 5a 18 3d
       0.02616521 0.0022647085 0.029570596 0.03719589
000120 1d db db 3b a7 89 06 3c 57 f5 2c 3c 85 d6 ac ba
       0.00670947 0.00821153 0.01055654 -0.001318649
000130 7d 83 04 3c e8 ff 2f 3d 5b 8d 4f 3d 66 50 87 bc
       0.00808799 0.04296866 0.050671916 -0.01651783
000140 58 6c b4 3c 68 5c 48 3d 8a a2 73 3c 79 5b 74 bc
       0.022024319 0.04891625 0.014870295 -0.014914387
000150 c9 0f d8 3c 9c 45 5a 3d a2 75 97 3d f6 51 f7 3c
       0.026374714 0.05328904 0.073954836 0.03019045
000160 28 9d 01 3d 91 00 18 3d 4a d1 19 3d e3 f9 05 3d
       0.031644017 0.037109915 0.03755311 0.032709014
000170 c3 54 ea 3b 97 b8 f7 3b e9 7c f7 3c ca 4d c2 3c
       0.0071512177 0.0075598466 0.030210929 0.023718733
000180 72 14 fa bb e7 95 2f 3c 97 8c 26 3d 6b 42 56 3d
       -0.007631832 0.010716892 0.04066142 0.052309435
000190 1b 8c 6c 3d b3 55 84 bc d5 ae a3 3c 23 d7 71 3c
       0.057750802 -0.016154146 0.019980827 0.014760765
0001a0 11 32 05 3d 1b 3a 84 bc d1 8a 7d 3c 99 75 cf 3c
       0.03251845 -0.016140988 0.015474991 0.02532463
0001b0 a9 9d 2b 3d 8f 5d a8 39 e8 67 8a 3c 05 01 40 3c
       0.041898403 0.00032113164 0.01689525 0.011718993
0001c0 bd 20 a6 3c a1 69 99 bc 63 b5 04 3d 98 8d 32 3c
       0.020279283 -0.018727126 0.032399546 0.010898016
0001d0 34 07 e4 bc 6f 63 c2 bc 7d 9c 0d bb db 2c 14 3d
       -0.027835466 -0.023729054 -0.0021608167 0.03617559
0001e0 ac d7 04 3d 63 e5 cc 3c 1e 02 3f 3b 2a 1d b3 3c
       0.032432243 0.025011724 0.002914555 0.021864492
0001f0 bd ca 31 3d fa 14 9f 3c f3 5a 92 3c 39 2d 57 3c
       0.043406237 0.019419182 0.017865634 0.0131333405

network_body.linear_encoder.seq_layers.2.weight f4 [128, 128]
000000 5b 3e 47 3c 69 f9 18 bc b4 77 17 be e8 9e 5e 3d
       0.012160863 -0.009336808 -0.14791757 0.054350764
000010 51 1b ef 3c aa da 8d bc 0b 7c 5a 3d 0a f2 ee bd
       0.02918783 -0.017316181 0.053340953 -0.11667259
000020 f3 b4 1e 3e 6c 4e b6 3b 36 23 11 be 33 8c 7a be
       0.15498714 0.005563548 -0.14173588 -0.24467544
000030 26 e7 55 be 02 9c 12 3d 86 55 4f 3d 53 69 9b bd
       -0.20888957 0.035793312 0.05061867 -0.075884484
000040 8f 99 d3 bc 14 4b 92 bd 66 b5 1c 3e 90 85 16 bc
       -0.025830058 -0.07143226 0.15303573 -0.009187117
000050 3d 32 44 3c e7 cf 31 3c 55 a5 b2 bd 04 da 27 bc
       0.011974868 0.01085279 -0.08722941 -0.01024485
000060 0f 28 41 be 2b 44 6c be 78 45 13 3e 7a 3b d9 3c
       -0.18862937 -0.23072879 0.14381969 0.026517618
000070 11 25 38 be 51 9a a1 bd 3f b4 aa bd 48 36 ad 3d
       -0.1798289 -0.07890762 -0.083351605 0.08457619
000080 ea d1 98 3d 0e 6d 34 3d 9b 91 cd bd 14 aa fd 3b
       0.07461913 0.044049315 -0.10037538 0.007741222
000090 aa d8 29 3e ac c8 e0 bd e4 2f 1c be 3d bb 48 bc
       0.16586557 -0.10975775 -0.15252644 -0.012251672
0000a0 40 c9 0c 3e 72 6c a3 3d 0a 5b 16 bd d7 69 20 be
       0.13748646 0.07979669 -0.036707915 -0.15665375
0000b0 ba b5 0c bd 1c c8 01 3e 14 36 4e 3e 60 5e d3 bd
       -0.034352995 0.12673992 0.20137817 -0.10320735
0000c0 52 51 38 3e 79 3a 81 bd a1 7a b1 bc e0 16 9a bd
       0.17999771 -0.06309981 -0.02166492 -0.07523894
0000d0 a8 c9 85 3e 25 bf 42 bd d3 d9 f0 bd 6c 98 bc bd
       0.26130414 -0.04754557 -0.11760297 -0.0920876
0000e0 6d 33 bc bc ca 0e 16 bd 40 a3 0d 3d 36 6f 50 3d
       -0.02297374 -0.036635198 0.034579515 0.05088731
0000f0 c3 61 09 3c 7c 64 85 bc 38 bb 4d bd 24 19 7f be
       0.008385125 -0.016283266 -0.050227374 -0.24911934
000100 35 fe c5 bb 41 ce 49 3e 51 9b 60 3d 60 f6 04 3d
       -0.0060422667 0.19707586 0.05483562 0.032461524
000110 12 7d 05 3d 75 bd 16 be dc f7 62 3d f9 c4 05 bc
       0.03258998 -0.1472071 0.05541216 -0.008164638
000120 dc a6 28 bd b1 ef ad 3e d8 03 c7 3e d1 b1 e2 3c
       -0.041174755 0.33971933 0.3887012 0.02767268
000130 be 66 98 3d e0 6a f5 3d 92 9f 17 bc 3c 99 ab bc
       0.074414715 0.119832754 -0.009254353 -0.020947091
000140 61 95 69 bd 06 39 26 be 45 8d 22 be 17 68 30 be
       -0.057027224 -0.1623269 -0.15874203 -0.17227207
000150 53 af 99 3d df 3b 8d bd 96 80 8e 3c 5a ab ef 3d
       0.075041436 -0.06896185 0.017395299 0.117026046
000160 9a 6e d5 3d b6 0b 37 ba cf df 87 3c 01 9b 2c 3d
       0.10421486 -0.0006982641 0.016586212 0.04214001
000170 90 4f 82 bd a7 cd ec bd 92 76 b6 bd 4f f3 dc bc
       -0.063628316 -0.115626626 -0.08909334 -0.026971487
000180 ab 5a b3 bd fe 68 13 bd a9 35 97 bd 50 d3 6f bc
       -0.08757528 -0.0359888 -0.07383282 -0.014637783
000190 94 32 0b be b9 a6 b2 bd 83 66 06 3d 6f 18 52 be
       -0.13593513 -0.08723206 0.032812607 -0.20517133
0001a0 27 9d 8f bd be 9d 1b bd 85 18 a3 bd 22 e4 4e 3e
       -0.07012396 -0.03799223 -0.07963661 0.20204213
0001b0 1b 34 22 be 45 3a 11 be de 6e 49 bc e2 09 b7 3d
       -0.15840189 -0.14182384 -0.012294499 0.08937432
0001c0 07 8a 2d 3d bb ec e0 bb 03 85 2d 3d 2b 1c 8f 3d
       0.04236796 -0.006864158 0.042363178 0.069877945
0001d0 aa a6 ad 3c 74 a3 1e bd fc 2d a1 3b e0 c3 38 bb
       0.021197636 -0.0387301 0.004918812 -0.0028192922
0001e0 27 08 2b 3d 94 46 e3 bc 47 31 b2 3a 58 d9 aa 3d
       0.04175582 -0.027743615 0.0013595008 0.08342236
0001f0 d0 71 f6 3c 53 09 d2 3d 43 dc c8 3b 18 ba e9 3c
       0.030083567 0.10255685 0.006129773 0.02853112
000200 6b 35 b8 3d 74 09 21 3e eb a1 fe 3d 34 f6 80 3d
       0.08994564 0.15726262 0.12433227 0.062969595
000210 f8 cc 69 bc 0e ab 8d 3c b4 30 0c be 86 85 0d 3c
       -0.01427006 0.01729348 -0.13690454 0.0086377915
000220 a9 3c b7 bc 21 3b 8b 3c 41 80 27 3e e7 ec 5b 3c
       -0.022367792 0.016995968 0.16357519 0.013423181
000230 95 16 62 bc 9f a5 61 bd a1 16 13 be 80 ca ba bb
       -0.013799329 -0.05508959 -0.14364101 -0.0057004094
000240 aa 89 e6 3a 99 53 0d bd 4e 6e ef 3b cc 97 02 3c
       0.0017588635 -0.034503553 0.0073068505 0.0079707615
000250 17 23 d7 3d 05 69 02 bd b5 9c 05 bd d0 ca 43 be
       0.1050474 -0.031838436 -0.03262015 -0.19120336
000260 26 7c 20 3c cc ed ae 3d 1b c1 73 3e fc 0f 54 3c
       0.009795224 0.0854145 0.23804133 0.012943264
000270 dd c2 e6 3d 87 50 5c 3d ea 49 d9 bd 7f 1e 01 be
       0.11267636 0.053787734 -0.10609801 -0.1260929
000280 48 ab b6 3d 2a 78 df 3c b8 90 5d 3c 83 c9 2a 3d
       0.08919388 0.027278978 0.013523273 0.041696083
000290 6f 28 2d bd da ef 15 bd 0f 79 1d bd 98 0d 46 3d
       -0.04227489 -0.036605693 -0.03844553 0.048352808
0002a0 1b 89 f9 bd b1 9a 96 bd 06 1c 15 3e 81 48 75 3e
       -0.12184354 -0.07353724 0.14561471 0.2395344
0002b0 fe 09 89 bd 44 0e 94 be 20 5b ba 3d dc be fc 3c
       -0.06691359 -0.28917134 0.09099412 0.030852728
0002c0 12 16 2a 3c a3 98 33 3e 72 7e 38 3e 08 11 96 bc
       0.010381239 0.17538695 0.18016985 -0.018318668
0002d0 40 c0 35 3d f9 6f 8b bd d9 45 4f bc bd 26 92 3c
       0.044372797 -0.068084665 -0.01265093 0.017840737
0002e0 fa 5e 68 bd df 06 f9 bc c5 86 81 be 12 21 89 bd
       -0.0567312 -0.030398784 -0.25298133 -0.06695761
0002f0 b4 ac 53 bd 2f 0f a3 3c 18 c7 15 be 6e e2 47 3d
       -0.051678374 0.019904701 -0.1462673 0.048799925
000300 9a 81 04 3c fe 96 ff 3d 3c 47 26 3d 0a a1 2c 3b
       0.00808754 0.12479971 0.04059528 0.0026341104
000310 45 45 98 bd a1 8c 23 3d f2 b0 44 3e f1 d3 8b bd
       -0.07435087 0.039929036 0.19208124 -0.06827534
000320 62 c8 28 be 34 28 39 bd df 7d 53 be 6c 11 8e bd
       -0.1648269 -0.045204356 -0.20653485 -0.06936917
000330 57 32 e1 3d 0f ea 8f bb ef 2f bc 3d 2c fe 10 bd
       0.1099593 -0.0043919156 0.0918883 -0.035398647
000340 c0 a4 a4 bc b1 e9 9d bd a8 37 a1 bd bb 1d 9f bc
       -0.02009809 -0.07710589 -0.07871944 -0.019423356
000350 7c d6 c7 bc b6 24 4e 3d 61 0c 51 bd ee 5a 39 bc
       -0.024394266 0.05032798 -0.051037196 -0.011313183
000360 b9 8b f8 3c 75 9c be bd 7b 35 fc bd c6 6d f9 3c
       0.030340062 -0.093071856 -0.12314888 0.030447852
000370 df cc 70 bd 0e 71 a8 b9 ca ba 11 bc 99 49 ba 3c
       -0.05878913 -0.0003212769 -0.008894632 0.022740172
000380 06 14 96 3d d7 ce cf 3d ee fc 3a 3c 98 12 04 be
       0.07328038 0.101468734 0.011412842 -0.12897718
000390 7d 23 1b bd 3d d8 5d 3d 4b 33 a9 bd 2e 0c 1d 3d
       -0.03787564 0.0541613 -0.082617365 0.038341694
0003a0 4f 50 8c bd 5f f4 b2 3d 5a 6b c0 3d 31 9a 64 bd
       -0.06851255 0.08738016 0.09395476 -0.05581111
0003b0 05 40 41 3e 45 81 ac 3b 89 a1 e1 3d eb b6 d2 bc
       0.18872078 0.0052644336 0.110171385 -0.025721988
0003c0 f9 69 9d 3d 90 3d 85 bc 07 ed 84 bd 7e 60 71 3d
       0.07686228 -0.016264707 -0.06490522 0.058929913
0003d0 a5 eb 59 3d 39 eb 8d bb 95 55 f1 3c 2a b3 1b 3c
       0.053203244 -0.0043310192 0.029459754 0.009503165
0003e0 d4 ed 5b 3d 3f b8 96 3a c4 c6 a0 3d e4 fc 18 3d
       0.053693607 0.0011499001 0.078504115 0.03735055
0003f0 1e 88 d4 bd 4f 55 22 be 64 ec 91 3c fe ab 1b 3e
       -0.10377525 -0.15852855 0.017812915 0.15202329

network_body.linear_encoder.seq_layers.2.bias f4 [128]
000000 1a f7 ed 3c dd 55 da 3b ea ed b0 3c 90 6b a0 3c
       0.029048491 0.0066630677 0.021597821 0.01958254
000010 b6 c8 89 3b 6a 6a 22 3c 41 79 3c 3b 4e fc 84 3a
       0.004204835 0.009913066 0.0028758796 0.0010145993
000020 e0 de b9 3c aa 47 dd 3c e1 94 db 3c c6 8e 77 3b
       0.022689283 0.027011711 0.02680439 0.0037774309
000030 69 40 1b bc 23 74 93 3c 56 9e 6c 3b 39 e1 18 3c
       -0.009475806 0.017999714 0.0036105118 0.009331041
000040 a1 96 31 bc e0 17 f1 3c 9d 55 73 3c 03 e8 a6 3c
       -0.010839135 0.02943033 0.014851955 0.020374304
000050 ae 6a 54 bb a5 22 58 3c 31 4f 43 3d 02 72 d7 ba
       -0.003241222 0.013191854 0.047682945 -0.0016437175
000060 e0 78 56 bb 2e b1 b1 bb 8b 89 2b 3c 6e af 86 3c
       -0.0032725856 -0.005422733 0.0104698045 0.016441073
000070 77 54 58 ba 74 4d a3 bc c0 6d 80 3c e6 46 a0 3b
       -0.00082523323 -0.019934393 0.015677333 0.0048912643
000080 b1 65 d1 3c 7a e0 cb bb 28 93 e8 3c 78 ee 61 3c
       0.025561186 -0.006221828 0.028390482 0.013789766
000090 15 80 91 3c 77 a8 70 3c 26 1d 11 3d 48 7a 69 3c
       0.01776127 0.014688603 0.03542819 0.0142503455
0000a0 60 f4 8b 3c 1a a2 02 3c f8 02 0c 3d 58 da b3 3c
       0.0170843 0.007973218 0.03418252 0.0219547
0000b0 e7 89 1b 3b 41 46 29 bb d0 4c 3d 3a ee 2f a5 3c
       0.002373332 -0.0025829228 0.0007221224 0.020164456
0000c0 dc de 19 3c 7a 3d a6 3c 1b 8e 10 3d 75 d1 00 3b
       0.009391513 0.020292986 0.035291772 0.0019656096
0000d0 be ef 04 3d 4d 31 c3 3c a9 7a b5 3c de cf c6 bb
       0.0324552 0.02382722 0.022153215 -0.00606726
0000e0 bf b7 6e 3c 89 19 b5 bc ef 38 6f 3c 96 18 b5 3c
       0.014570176 -0.022106903 0.014600976 0.02210645
0000f0 ed 46 f9 3b 1b 92 c7 3b 5f c6 2d bc 68 30 1b 3b
       0.007607332 0.006090415 -0.010606377 0.0023679975
000100 e9 cd aa 3c 4b 85 f2 3b 23 79 6e 3b 0c e5 1b 3c
       0.020850139 0.0074011437 0.003638812 0.009515058
000110 7d 2e 77 3c f0 fc 5b 3b 31 a0 6c 39 bc 66 0b 3c
       0.015086767 0.003356751 0.0002256639 0.0085083805
000120 6d 60 14 3d 17 a2 60 3c 8b 34 58 3b 23 be 6a bc
       0.03622477 0.01371052 0.0032990302 -0.014327559
000130 27 c9 a0 3a 1f 45 b7 3c f8 2e 49 3c 09 12 7f 3c
       0.0012266979 0.022371827 0.012279265 0.015568265
000140 57 2b bf 3b af 38 ad bc 4a 3a ad 3c ba c9 a5 3a
       0.005834024 -0.021145193 0.021145958 0.001264862
000150 0e 09 09 3c 7a 7c 8d 3c 66 d7 99 3c db 50 a2 3b
       0.008363975 0.01727127 0.018779468 0.0049534864
000160 d5 19 a4 3c 61 32 5e 3b 91 4d 87 bc 2c ff ff 3c
       0.020031849 0.003390454 -0.016516479 0.031249605
000170 4a 12 9c 3a 02 64 35 3c 29 82 d7 3b bd 8a 1d 3c
       0.0011907306 0.011071207 0.0065767956 0.009615597
000180 2e fb b6 3c 7e 7e 80 3b 1f 12 21 3d 39 65 2e 3c
       0.022336569 0.003921329 0.039323922 0.010644251
000190 09 02 9e 3c d0 3f 41 3c b8 80 00 3d ba e0 3c 3d
       0.01928808 0.011794999 0.031372756 0.046112753
0001a0 2f 95 99 3c 2d e4 88 3c 24 73 cb 3c cd 6d 0e 3d
       0.018747894 0.016710365 0.024835177 0.034772683
0001b0 ef cc 26 3c cf 8b 1a 3c 39 f8 58 ba f2 2c b5 3c
       0.010180696 0.009432747 -0.0008276734 0.022116158
0001c0 3e 72 83 3c c1 a2 f2 3c 13 7a c1 3c 69 de 2e 3c
       0.016045686 0.029618623 0.02361778 0.010673144
0001d0 04 01 65 3c 98 f6 36 bc d8 33 a9 3c aa 02 d7 3c
       0.013977293 -0.011167191 0.020654604 0.026246388
0001e0 33 c2 e6 3c 70 5e 86 3c a3 05 80 bc aa 0b ea 3c
       0.028168773 0.016402453 -0.015627688 0.028570015
0001f0 df 09 0b 3d 93 a9 08 3c c4 b2 e1 39 94 00 1b 3d
       0.03394496 0.008341211 0.00043048535 0.03784235

action_model._discrete_distribution.branches.0.weight f4 [3, 128]
000000 75 7a 39 bd a5 7e be 3c e5 a3 86 3d 40 a9 e2 3d
       -0.0452828 0.023253748 0.06574229 0.11067438
000010 61 2a 90 bd b3 0a 97 bd 48 c0 c4 bb f6 c4 ac 3c
       -0.07039333 -0.073750876 -0.006004367 0.021090012
000020 ea 3f 02 3e 18 07 a5 bc d6 4d 94 3d 40 5f 2d 3c
       0.12719694 -0.020144984 0.072414085 0.010581791
000030 76 95 58 3c 50 5d 43 bb 21 e9 77 3d 06 27 01 3d
       0.013219228 -0.0029810257 0.060525063 0.031531356
000040 05 1e 19 bd ef 37 67 3d 98 5c 13 3d ea a1 41 3c
       -0.037382144 0.056449827 0.035976976 0.0118183885
000050 e3 b2 c2 3c 87 7a 5d 3d 56 81 69 3d a4 d3 b1 3c
       0.02376694 0.05407193 0.05700811 0.021707363
000060 6f 22 12 3d be dc e1 3c 40 eb a7 bd d0 f7 b7 3c
       0.03567737 0.027571078 -0.08199167 0.022457033
000070 80 fa 3b bc 41 f2 4c bc 75 ee 9b bd 85 f3 d7 3c
       -0.011473298 -0.01250893 -0.076138414 0.026361236
000080 40 78 c9 bd 36 d6 9d bc fe 1e 51 3d 2b 88 e8 3d
       -0.09837389 -0.019267183 0.051054947 0.11354097
000090 e4 42 c2 3b 6f 56 ad bd 99 2b 45 bd 97 48 94 bd
       0.005928384 -0.084637515 -0.04813728 -0.07240408
0000a0 14 4f ff bc 17 57 94 3b bc 8d ee 3d 16 2e b8 3d
       -0.031165637 0.0045269835 0.116481274 0.08993165
0000b0 6d 5d c6 3b 5f 88 3f bd ed 08 c0 3c d0 1b a4 3d
       0.0060536177 -0.046760913 0.023441756 0.08013117
0000c0 52 2e e6 3b d7 56 24 bd 8d c3 97 3d b6 d4 5e bd
       0.007024565 -0.04012188 0.07410345 -0.054402076
0000d0 68 28 04 bd 49 ac 84 3d bd 5e 5b bd 9b cb 8f bc
       -0.032265097 0.06478173 -0.053557146 -0.017553141
0000e0 7c f5 8a bd 04 a8 b9 bc 45 f6 70 3d dc 5a 70 bd
       -0.06785104 -0.022663124 0.05882861 -0.0586804
0000f0 1b ae 53 3d 8e 05 8e bb 46 b7 be bc 2a df ba bc
       0.05167971 -0.0043341583 -0.023280751 -0.022811491
000100 7d 4a 9b bc 6f f6 f6 3c 66 d4 95 3c 5c 88 e6 bb
       -0.018956417 0.030146806 0.018289756 -0.0070352983
000110 56 db 35 bd 2f 71 02 bd 63 d6 56 bd 8c 3e fe bb
       -0.04439863 -0.03184622 -0.05245055 -0.007758921
000120 da a8 fe ba 28 1a ae bc be 5c 56 bd b5 71 e0 3a
       -0.0019428984 -0.021252707 -0.05233454 0.0017123731
000130 8c fe d9 3b 2a 59 a2 3d a1 f5 53 3d c1 26 4a bd
       0.006652659 0.07927163 0.05174792 -0.049353365
000140 92 bc b2 3a 5c 35 80 bc 2b 44 20 bd 28 c4 8c bc
       0.0013636521 -0.015650444 -0.03912751 -0.017183378
000150 76 38 a6 bb f4 d7 4d ba 7e 5f 7c 3d 15 da b6 bd
       -0.0050726486 -0.0007852309 0.061614506 -0.089283146
000160 6d 52 ee ba 69 83 84 3c 6f 2c c8 bc f6 34 87 bd
       -0.0018182524 0.016175942 -0.02443525 -0.06601898
000170 f3 cf 1e bb 91 c3 34 bc 4a f0 12 bc d0 a8 47 3b
       -0.0024232834 -0.011032955 -0.008968422 0.003046561
000180 13 5c f7 bc 04 4d 28 bd 7b 3c 8b bd bf 73 e8 3c
       -0.030195272 -0.041089073 -0.06798645 0.028375505
000190 ca 60 f1 bc 8b 6d 3a 3d 7b 5b 3a bd 1c b0 b8 bc
       -0.029465098 0.045514625 -0.0454974 -0.022544913
0001a0 1c cf 9f 3c c7 9c a4 3d 94 7a 90 3d 94 5e f0 bd
       0.019507937 0.080377154 0.0705463 -0.11736789
0001b0 3c 6e 87 3d 26 70 8d bc 89 3e 90 bd 5b 31 80 bb
       0.066128224 -0.01726539 -0.07043178 -0.0039121336
0001c0 84 de 0e bc ba 5b 0b bd 07 fd 06 bc cd 6b 92 3d
       -0.008720044 -0.034023024 -0.008239037 0.071494676
0001d0 01 96 19 3c dc 37 a4 bd 36 37 a2 3d f2 ea a1 3d
       0.009374143 -0.08018467 0.07920687 0.079061404
0001e0 a8 ed 99 3c 16 3c 7f bc 6d ad 85 bc e5 50 06 bd
       0.018790081 -0.01557829 -0.016318047 -0.03279199
0001f0 28 a5 dd 3c 2d a0 79 bd 59 a0 c9 3c 94 3c 8d bc
       0.027056292 -0.06094377 0.024612593 -0.0172408
000200 4f 07 22 bd 1a e3 8d bc 5d a6 cc bc 3c 35 38 bd
       -0.03955775 -0.017320205 -0.024981672 -0.044972643
000210 a4 6d de 3a db a0 c3 3c 77 88 b4 3a 4b 23 26 bc
       0.0016969931 0.023880413 0.001377358 -0.01014025
000220 bd 42 03 bd fe 4f 63 3c c8 a4 28 bd 02 b6 6c bc
       -0.03204607 0.013874052 -0.041172773 -0.014447691
000230 42 47 78 ba 55 c5 75 3c 08 21 3b 3c e0 12 4e bd
       -0.00094710675 0.015000661 0.0114214495 -0.05031097
000240 10 87 a9 bc fa 5e 46 bc 00 0b 90 bd 15 b1 a1 bc
       -0.020694286 -0.012107605 -0.07033348 -0.01973776
000250 ba 04 5e bc ff 0b 68 bc 7c 01 9a bb 2e db ed b9
       -0.013550932 -0.014163016 -0.004699884 -0.00045367464
000260 16 9e 78 bd 71 62 d1 bc 44 6a 83 3c 42 99 21 3a
       -0.060697637 -0.025559636 0.016041882 0.00061645
000270 e3 31 84 bc 70 1a 56 bc 12 9a 8b 3c 12 08 a5 bc
       -0.01613707 -0.013067827 0.01704124 -0.02014545
000280 6e ee 1a 3b 38 ec 83 bc f2 0b 28 bb 71 5b 36 3c
       0.002364065 -0.016103849 -0.0025641886 0.0111302
000290 a5 dd 40 3a a6 ff e9 3b 6f 88 3e 3b 24 a0 ea 3c
       0.00073572464 0.0071410714 0.002907302 0.028640814
0002a0 c4 8b 9a 3b 98 35 ed 3c f7 ef 89 bc 57 5c c2 bc
       0.0047163684 0.02895622 -0.016838057 -0.023725672
0002b0 97 86 27 3c 3f 69 3e 3c c0 f0 c3 3c 2c 9b 5c bb
       0.01022496 0.011621772 0.02391851 -0.0033661826
0002c0 82 fc 33 bb 99 49 a1 bb eb 17 83 bc 47 86 6f 3c
       -0.0027463739 -0.0049221036 -0.016002616 0.014619417
0002d0 5e d3 16 3c 06 c6 19 bc e9 9a 12 bc 5b cc 65 3c
       0.009205667 -0.009385591 -0.008948066 0.014025773
0002e0 75 1c 1d 3d 43 6c bb bb 18 19 ae bb c7 3b b8 bc
       0.038357217 -0.005719693 -0.00531305 -0.022489442
0002f0 8c d8 b9 bc 9d 55 40 bb 8e fc 01 3c 8a b4 2b bc
       -0.022686265 -0.0029347904 0.007933749 -0.010480056
000300 ad d5 89 3a 27 fc 83 bc 82 13 76 bc 01 3d 89 3c
       0.0010515951 -0.016111447 -0.015019299 0.016752722
000310 9e 9f 18 bb 45 69 a4 3c e3 73 10 3c a4 c5 a6 3c
       -0.0023288499 0.020069728 0.008816692 0.020357914
000320 b1 7d f5 bb 35 0c b6 ba 6c b6 78 bc 51 dc f2 3b
       -0.00749179 -0.0013889136 -0.0151802115 0.0074115177
000330 b6 f7 bb bc b7 4b a4 bc 5f ba 4a 3c a5 6e 66 bc
       -0.022945266 -0.020055635 0.012373536 -0.014064466
000340 18 f7 e7 bc ab ce 8d 3b 24 e2 0f 3b a2 c2 9c 3a
       -0.028316066 0.0043276153 0.0021954859 0.001195986
000350 01 12 64 bc f8 d4 e0 3c e6 0b 93 bc 62 89 f9 bc
       -0.013920308 0.027445301 -0.01795001 -0.030461017
000360 64 72 70 3c cd e8 b3 bc 75 49 84 bb 10 17 81 3c
       0.01467571 -0.021961594 -0.004037077 0.015758067
000370 bd 1d c7 bb ab 43 0d 3c be 62 6f bc 27 93 a4 bc
       -0.006076543 0.00862209 -0.014610944 -0.020089699
000380 e7 2b 8d 3c d3 af c7 bb 49 be 4c bd d8 3a e9 bc
       0.017232848 -0.006093958 -0.049986158 -0.028470442
000390 49 1c c3 3c 2b b4 e2 bc f8 e3 0e 3a 42 47 06 3c
       0.023817198 -0.027673801 0.000545084 0.0081957
0003a0 c3 27 46 3c 2a 76 18 bb 11 06 1a bd 87 6e f8 3b
       0.012094441 -0.002326379 -0.03760344 0.0075815353
0003b0 b5 5d 02 bc 38 a5 98 bb 43 67 88 3c ff 82 74 3c
       -0.007956912 -0.0046583675 0.016650802 0.01492381
0003c0 14 18 78 bc a2 fa f4 bb 70 60 87 3b 4c 45 4e bc
       -0.015142459 -0.007476167 0.0041313693 -0.012589764
0003d0 bc fc d0 bc 5c 41 9f bb a8 09 18 bd fa ac c0 bc
       -0.025511138 -0.0048600864 -0.037118584 -0.023519982
0003e0 fb 5c 08 3c fc 57 ef bc 0b 7e 5e bc 9a 87 f8 bc
       0.0083229495 -0.029216759 -0.013579856 -0.030338097
0003f0 d0 13 55 ba 66 4b 6e bc eb 91 4e ba 7f 66 a1 bc
       -0.00081282575 -0.014544344 -0.000788002 -0.019702194

action_model._discrete_distribution.branches.0.bias f4 [3]
000000 2f 1a 95 3c bf 9d 23 bd 3a 90 a3 3c
       0.018200962 -0.03994536 0.019966234

action_model._discrete_distribution.branches.1.weight f4 [3, 128]
000000 27 9c ac bd 40 3d 68 3d 33 af 84 3d 3f 4c db 3c
       -0.08428221 0.056699038 0.06478729 0.026769755
000010 d4 39 ad 3c a7 d8 ac 3c b4 27 2b bc ee bc 42 3d
       0.021145739 0.021099402 -0.010446478 0.04754346
000020 72 6a 8a 3d 58 9f d5 3d 16 fd 37 3d ab bf 1c bd
       0.06758584 0.10430783 0.044919096 -0.038268726
000030 42 1a 91 bd 7d a7 fa 3b c0 b7 a2 3c 2b ce 16 3b
       -0.070850864 0.0076493607 0.01986301 0.002301107
000040 93 06 d6 bb 16 39 5b bb aa fb 19 3d a5 fc 98 3c
       -0.0065315454 -0.0033450774 0.03759352 0.018675158
000050 f7 d3 38 3d 01 fb ae bb 85 96 19 3c a3 d3 5d 3d
       0.04512402 -0.0053399806 0.009374266 0.05415691
000060 58 c8 56 3d 91 73 0f 3a 72 e6 83 3d 6b ea 2b bd
       0.052437156 0.0005472238 0.06440438 -0.041971605
000070 14 7a 93 3b e0 01 9c bc 37 e7 3f 3c 27 d6 bf bd
       0.004500637 -0.019043863 0.011712841 -0.09367018
000080 ab c6 e9 3c 7a f6 bd 3c 8a 8b 06 3d 2e 05 54 3b
       0.028537115 0.023188818 0.03284792 0.003235172
000090 b8 6e 80 3b 42 c5 f9 b9 d9 6e dc 3b 1e 47 aa 39
       0.0039194487 -0.0004763995 0.0067270813 0.00032477913
0000a0 ea 1d 7f 3c b7 34 3a bd a3 f9 c8 ba d4 49 96 3d
       0.015571097 -0.04546043 -0.0015333187 0.073383
0000b0 60 a6 92 ba 69 02 d7 bc 2a 1a 95 bc f2 c9 28 bd
       -0.00111885 -0.026246266 -0.018200953 -0.041208215
0000c0 89 b4 15 bd 06 c6 79 3d 05 68 36 3d ef de bc bd
       -0.036549125 0.060979865 0.044532795 -0.09222209
0000d0 07 c1 02 3c 2f 6b 73 bc 84 42 26 bd 3a d3 23 bd
       0.007980592 -0.0148570975 -0.040590778 -0.039996363
0000e0 27 11 8d bc 12 a0 4a bb 57 ed 2d 3a aa c1 a1 bc
       -0.017220093 -0.0030918163 0.00066347927 -0.019745667
0000f0 aa 8e 8f bc 29 d4 2c 3d c3 8d 87 3a a6 0f ee bc
       -0.017524082 0.04219452 0.0010341931 -0.029060196
000100 a5 11 f8 3c 42 37 03 bd c4 a1 d3 bc 14 bf 34 3d
       0.030281851 -0.03203512 -0.025833972 0.04412754
000110 7b be a6 bc d4 e3 a0 b9 ce cc 36 3c 34 44 26 3c
       -0.0203545 -0.00030687323 0.011157228 0.010148097
000120 c9 30 cc bb f5 28 6d bd 4e 6e 68 3c 9b 47 28 bc
       -0.0062314016 -0.057900388 0.014186455 -0.010270978
000130 44 9e 94 bd a8 07 8e 3d ff 4f 00 3d 2d 5c fe 3b
       -0.07256749 0.06935054 0.03132629 0.007762453
000140 41 00 37 3d 20 bd d6 bc d1 2f a4 3d d0 cd f4 bc
       0.044677977 -0.026213229 0.08016933 -0.029883295
000150 69 50 7a bd a1 92 29 bc 35 75 78 3d ee 27 80 bd
       -0.06111184 -0.0103499 0.060658652 -0.06257616
000160 9d ba a9 3d 53 6a 27 bc 39 e3 59 bd f3 e8 13 bc
       0.08287547 -0.010218221 -0.053195212 -0.009027707
000170 77 b7 c7 bd 59 15 da bc fb f3 b2 bc b5 80 e6 3c
       -0.0975179 -0.026621507 -0.021844855 0.028137544
000180 17 75 80 bc bc d1 8c bc f2 22 85 bd a8 4e 0a bd
       -0.015680833 -0.017189853 -0.06500806 -0.03376642
000190 15 87 1e bd dc 91 45 bc 9a eb 00 bd c0 d3 bc 3b
       -0.038703043 -0.012058701 -0.031474687 0.0057625473
0001a0 77 83 79 bd 8b 25 a7 bb 86 e2 cf 3b b1 6a ab 3b
       -0.06091639 -0.005100911 0.0063441424 0.0052312245
0001b0 08 f5 71 3c 86 cf 75 bd d8 ec 08 bb eb cf 20 3d
       0.014767893 -0.060012363 -0.0020893123 0.039260786
0001c0 03 6e 26 bd 62 d9 1f bd 71 fd 55 3d ca e9 92 3b
       -0.04063226 -0.03902567 0.052243654 0.0044834362
0001d0 ad c5 81 3c 57 b4 ee 3c 89 73 c7 3a ab b6 4d 3d
       0.01584133 0.029138727 0.0015216927 0.050223034
0001e0 05 70 a9 3c 28 f0 40 bc 92 7a 0b bc 19 2e 9a bd
       0.020683298 -0.011776008 -0.00851311 -0.07528324
0001f0 d4 77 94 bc e7 a2 46 bc b0 91 1c bd bb 5a 04 bd
       -0.018123545 -0.0121238 -0.038224876 -0.03231309
000200 ea 47 94 bc 27 6d a6 3c 5e 8e 93 3a 9d 87 f7 3b
       -0.018100698 0.02031572 0.0011257639 0.007554008
000210 e6 d0 34 3c dd 97 26 bc 45 c7 9e bb 97 b7 84 bc
       0.011036133 -0.010168043 -0.004845532 -0.016200824
000220 a9 d5 d7 bc fa e8 4b bc bd e0 a6 b9 dc 63 07 3c
       -0.026346998 -0.012445683 -0.0003182943 0.008263554
000230 db 34 35 bd a3 e4 43 3d 95 31 c3 bc 64 dd 63 bc
       -0.04423986 0.047825467 -0.023827353 -0.013907764
000240 93 82 cd bc a4 f0 5a 3c 97 1e db bb b6 dd bc 3c
       -0.025086677 0.013363037 -0.006686996 0.023054939
000250 f1 fb 2c bd c2 e3 52 3b 4c 2e b3 3c f5 e4 78 bb
       -0.042232458 0.0032179211 0.021872662 -0.0037978266
000260 e0 25 29 bb 82 89 6f bb bc e2 07 bd 21 35 0a 3c
       -0.0025809929 -0.0036550467 -0.033175215 0.0084355185
000270 96 89 db 3a 4d d2 92 bc de 0f 0e bb 6c f2 83 3c
       0.0016749378 -0.017922545 -0.0021676938 0.016106807
000280 bc e3 c3 3b f0 28 fd bb f6 30 05 3d f6 a3 40 3c
       0.005978076 -0.0077258274 0.032517396 0.011757841
000290 31 4a 10 3d a8 99 a5 3b 45 87 85 ba e9 16 4d bc
       0.035227004 0.0050537176 -0.0010187408 -0.012517669
0002a0 bc 6d f3 3c 52 8c d4 3a 32 29 bb 3c d3 2e 77 bb
       0.029715411 0.0016216135 0.022846792 -0.0037717118
0002b0 35 4f 91 3c 7a 55 44 bc f3 7a 04 3a ca 39 d3 3c
       0.017737964 -0.01198327 0.0005053721 0.025784392
0002c0 b8 71 c4 3c b8 9f dc bb 09 16 03 3d c8 2f 30 3c
       0.023980007 -0.006732907 0.032003436 0.010753579
0002d0 b9 59 03 3d 73 75 d4 3c 99 e2 0a bc 6c a7 f6 bb
       0.032067988 0.02593491 -0.008476877 -0.0075272825
0002e0 36 57 b3 3c e3 cf 9e bb b7 ac 94 3c c0 34 cf 39
       0.021892171 -0.0048465594 0.018148763 0.00039521419
0002f0 11 d2 bc bc 73 47 3f 3c f9 ea e3 3b 15 dc 43 3c
       -0.023049386 0.01167475 0.006955501 0.011954327
000300 1f 2c 10 3d 99 fa 33 bc 80 1f b3 3c f6 be b1 3b
       0.035198327 -0.01098504 0.021865606 0.0054243756
000310 46 1c 55 bc 8a 73 af bc b1 0f 9c 3b f2 0e 3f bc
       -0.013007229 -0.021417398 0.0047626127 -0.011661278
000320 7f d3 17 3d c0 e6 00 bc 44 90 93 3c 9b d1 9a 3c
       0.037066933 -0.007867515 0.018013127 0.018898776
000330 9c 7f 84 bc b0 2b 25 bd 1a a2 be 3c fe 5e c6 3c
       -0.01617413 -0.040324867 0.023270655 0.024215218
000340 6b 2d a1 3c 8d 21 99 bc 8b 45 f4 3b ef 8f 11 bc
       0.019674977 -0.018692756 0.007454579 -0.008884414
000350 47 d3 a8 bc 76 3c 85 bb 54 ac b4 bc 19 56 fa 3b
       -0.020608557 -0.0040660454 -0.022054829 0.007639658
000360 b0 db 50 bb 61 71 f0 3b 21 ca b5 3a 68 c2 bd 3b
       -0.0031869225 0.0073377346 0.0013869443 0.0057909973
000370 1f a7 a2 3b 91 55 77 bc 37 94 ad 3c f7 c0 e7 3c
       0.00496377 -0.015096084 0.021188838 0.028290255
000380 59 31 fa 3c 26 8f 3c 3c 79 20 41 3c 28 45 09 3c
       0.030541109 0.011508739 0.011787527 0.008378305
000390 80 a5 15 3d 33 79 05 3d 8c b8 80 3c ef 98 94 bc
       0.036534786 0.032586288 0.015712999 -0.01813933
0003a0 29 2c 0b 3d c7 90 b7 3c f6 6f 05 3d 4a 13 9d bb
       0.03397766 0.022407902 0.032577477 -0.004793559
0003b0 da c6 d4 3c 6d 64 8d 3c e4 19 03 3c 78 eb c1 3c
       0.025973726 0.0172598 0.008001778 0.02367185
0003c0 de b5 1c bc dc 39 89 3d 10 2d 36 bc 86 8e ad 3c
       -0.009564845 0.06700489 -0.011119142 0.021186125
0003d0 a2 93 98 3b 79 19 48 bd 59 27 0b bc e7 83 5c 3c
       0.004656271 -0.048852418 -0.008493268 0.013459182
0003e0 a1 4a d5 3c 97 00 cf 3b d2 46 5c 3b c8 ee 10 bd
       0.026036562 0.006317209 0.0033611548 -0.03538397
0003f0 fe 9b b3 3c ba 01 24 bb 70 2e 34 bd 3b 45 c0 3c
       0.021924969 -0.0025025443 -0.0439896 0.023470512

action_model._discrete_distribution.branches.1.bias f4 [3]
000000 46 4a c1 3c 4e dc 6a 3c 2f 44 2a bd
       0.023594987 0.014334751 -0.04156893

action_model._discrete_distribution.branches.2.weight f4 [3, 128]
000000 60 62 05 3a 7c ab ea 3a 25 0b c0 bb 9f c9 93 bd
       0.00050882064 0.001790389 -0.0058607035 -0.072161905
000010 63 90 41 bd 5f 91 0c 3c a9 43 c5 bc 48 dc a9 bc
       -0.04725684 0.008579581 -0.024080114 -0.020734921
000020 53 6b 5b 3b bf 20 4e 3d 1f bd 1c 3c 35 b8 28 bc
       0.0033480718 0.050324198 0.009566574 -0.010297825
000030 b1 0f b2 3b 03 a9 99 bc ed 94 5f 3c ed 17 39 3c
       0.0054339995 -0.018757349 0.0136463465 0.011297208
000040 ec 79 40 bc 64 47 93 3b b6 06 e3 3c 68 02 a7 bd
       -0.011747818 0.0044945944 0.027713161 -0.08154756
000050 37 47 72 3c 8a c2 91 bd 37 16 32 3d 43 2a 5a 3d
       0.014787487 -0.071171835 0.043478217 0.05326296
000060 66 c0 55 bc 22 b3 6e bb da 3c d0 bb 1b a7 60 3d
       -0.01304636 -0.003642269 -0.0063549103 0.054846864
000070 21 75 e1 bc 81 98 83 bc b3 79 64 bd f7 6f 23 bb
       -0.027521672 -0.01606393 -0.055780124 -0.0024938562
000080 1f 3f 26 bd 38 49 0d bd 84 f3 95 bc d2 b9 ae 3c
       -0.04058754 -0.034493655 -0.018304594 0.02132884
000090 dd 65 2a 3d 5b 13 3c bc 68 ab 89 3c 9f 3a bc bb
       0.04160105 -0.011479224 0.016805366 -0.005744293
0000a0 c8 eb fa 3a 7d 00 5b bd de 56 43 bc 21 bf 11 bc
       0.0019143755 -0.053467263 -0.011922566 -0.008895666
0000b0 f2 ef 8a 3d 21 0d 8e 3c 0d f5 0a 3d 0f 76 29 3c
       0.06784047 0.017340245 0.033925105 0.010343089
0000c0 68 63 82 bd 70 8b 19 bd a9 07 7e bd 6b 3f 26 bc
       -0.063666165 -0.037486494 -0.062019024 -0.010146956
0000d0 d0 f5 ad 3d 8e 19 dd 3c e6 68 47 3d 6d 81 16 3d
       0.08494151 0.026989724 0.048684023 0.036744524
0000e0 35 a3 23 bd f1 15 f5 bc 95 cc 7b 3d 19 d0 12 bd
       -0.03995057 -0.029917689 0.0614744 -0.03584299
0000f0 8f 5b 44 3c 91 7b 6b 3d b8 62 c8 3c ca f7 63 bd
       0.01198472 0.05749089 0.024461135 -0.055656232
000100 6b 2a fa 3c f8 2f 56 bc 3e 4b d1 b9 53 c1 58 bd
       0.030537805 -0.01307296 -0.00039919646 -0.052918743
000110 2d 88 a5 3d ce 64 91 ba 83 4b 0b 3d ce a5 2d bd
       0.08082614 -0.0011092664 0.03400756 -0.04239445
000120 08 4b 92 bd 54 9d 8b 3c 73 4c 19 bb d0 3e aa 3c
       -0.07143217 0.017042793 -0.0023391515 0.020781904
000130 e9 c1 85 3c 1e 8c 90 3c 12 4b c1 bc 1a 3c 22 bd
       0.016327815 0.017644938 -0.023595367 -0.0396081
000140 07 39 9b bc 31 1f be bc 16 74 f0 bc 30 7b 44 bd
       -0.018948091 -0.023208233 -0.02935223 -0.047969043
000150 ed e7 8d 3c d8 28 4f 3d ee d0 53 bb 3c 6e 77 3b
       0.017322505 0.05057606 -0.0032320577 0.0037754914
000160 8e 5d e4 bc 07 0e e9 bc 46 a8 10 bd 87 12 a4 3d
       -0.027876642 -0.028449072 -0.035316728 0.08011346
000170 7d 47 5a bd 39 7a 7e 3d 69 2d 62 bd da 03 60 bc
       -0.053290833 0.06212828 -0.055219088 -0.013672793
000180 82 b6 6c 3d 6c 6c 37 3d 73 f2 41 3c 71 fb e0 bc
       0.05779124 0.044781134 0.01183759 -0.027463647
000190 c6 8c 6e 3d 73 6f 0c bd a0 f2 19 3d 60 0a 06 3e
       0.05823972 -0.034285974 0.0375849 0.13089895
0001a0 17 d7 48 3d b6 8e e7 3c 07 2d 4c 3c 17 2f a2 3d
       0.04903325 0.028266292 0.012461907 0.07919138
0001b0 f8 e4 92 bc f5 9b 39 bd d9 c4 17 bd 63 8d 93 bd
       -0.017931446 -0.045314748 -0.037052963 -0.07204702
0001c0 43 e7 e6 bc 46 a0 50 bb 71 81 b5 bd 5c 36 5c bd
       -0.028186446 -0.0031833812 -0.088625796 -0.05376278
0001d0 7b b1 3c bd d4 48 19 3d a4 9d 32 bd df 59 bf bc
       -0.046067696 0.03742297 -0.04360737 -0.023358284
0001e0 c1 21 91 3d ef 30 f7 3c 80 06 1b bd bd e1 32 bc
       0.07086516 0.0301747 -0.037847996 -0.010918078
0001f0 20 33 4d bb 73 0d 12 bd 24 52 08 3c 6a 20 3b 3d
       -0.003131099 -0.035657357 0.008320365 0.04568521
000200 80 1f c1 3c 7d ff 91 bb 12 2f ac 3c 1f 6c f8 bb
       0.02357459 -0.0044555054 0.021018539 -0.0075812484
000210 94 4a 1f 3c 68 c5 7d bb 89 8f 51 3a 8a f2 1e bd
       0.009722371 -0.00387224 0.00079941057 -0.038805522
000220 00 81 55 bc 58 d1 60 3c bd 26 56 3c 06 6d 34 3d
       -0.013031244 0.013721786 0.013070759 0.044049285
000230 03 f8 9b 3c e9 d9 ae 3c 6f 2f e7 bb ca 99 8f bc
       0.01903916 0.021344142 -0.007055215 -0.017529387
000240 c2 18 82 3c 59 3d e8 bc 59 c8 42 3c b8 d2 d0 3b
       0.015880946 -0.028349565 0.011888587 0.006372776
000250 f2 ac 95 3b 00 62 6e ba 8d 39 12 bd b5 77 44 3c
       0.004567736 -0.00090935826 -0.035699416 0.011991431
000260 20 3b 08 3d 65 81 fa bc 07 2d 25 bc b9 03 c1 3c
       0.03325951 -0.030579278 -0.010081536 0.023561345
000270 4c 2a a6 bc 38 fa fd 3c fe a9 2d bc 2a 6b 13 bc
       -0.02028384 0.031003103 -0.010599611 -0.008997718
000280 1b 9d 51 bc dc 07 e9 ba 0b 63 5a bc 27 cf c4 bb
       -0.0127938045 -0.0017778832 -0.013329278 -0.00600614
000290 9b 3a b6 3c 18 0e 79 bc 45 00 02 bd df 65 f4 bc
       0.022244742 -0.015201114 -0.03173854 -0.029833732
0002a0 14 88 40 3d 8c 48 74 bc aa f9 f8 3b 95 01 90 3c
       0.047004774 -0.014909875 0.0075981217 0.01757888
0002b0 f7 8c 47 bb 4f da 19 3d de 90 f3 bc da 4f 96 3b
       -0.0030449012 0.03756171 -0.029732164 0.0045871558
0002c0 6d 65 7f 3c 26 24 85 b9 56 6f b2 3c f5 e6 e1 39
       0.015588147 -0.0002539467 0.021781605 0.0004308742
0002d0 c4 6c 61 3c ff dd 46 bd 44 fd bf 3b bb e1 aa 3b
       0.013758842 -0.048551556 0.005859049 0.0052148975
0002e0 c9 86 21 bd 65 b9 95 3c 31 b4 55 bc f8 35 1f 3c
       -0.03943518 0.01827688 -0.013043449 0.009717457
0002f0 db 5f 57 3c d8 4f ee 3c 57 f9 43 bc f9 92 9a 3c
       0.013145412 0.029090807 -0.011961303 0.01886891
000300 1c 9a 5b 3c 69 48 54 3d c2 fc 8f 3a a3 42 fb bc
       0.013403442 0.05182687 0.0010985362 -0.030671423
000310 f7 3c 67 3c e6 8f f7 bb 0b 70 7f bc bc aa 95 bc
       0.014113656 -0.007554996 -0.015590678 -0.018269889
000320 a7 c1 ab ba 35 ed ec bc 48 06 e4 3b f5 82 d0 3b
       -0.0013103978 -0.028921703 0.0069587566 0.0063632675
000330 da a4 88 3c ae 72 c1 bc a1 08 b1 3c b7 1b 90 3c
       0.01668017 -0.023614254 0.02161056 0.01759134
000340 4b 9e 01 3d f2 6f 63 bb 1c c8 6c 3b 65 80 5e 3c
       0.0316451 -0.0034704176 0.0036130017 0.013580416
000350 71 ac 96 3c da da b1 bc a6 57 b2 3c dc 8c a7 3b
       0.018392773 -0.021710802 0.02177031 0.0051132273
000360 d9 88 35 bc 8f 7f 89 bb a1 37 08 bb cb 98 04 3a
       -0.01107999 -0.0041961144 -0.002078511 0.00050581683
000370 4a 2c 6f bc 85 29 f3 3b 79 ed fc 3a a5 1e 86 3c
       -0.014597962 0.007420721 0.0019296847 0.016372034
000380 2c 7f 7d bc 9f b1 02 3d 2b 08 35 3d d9 ee fb 39
       -0.015472215 0.031907674 0.044197243 0.00048052406
000390 b0 0e fb ba 1e 34 31 b9 54 ab 3b bc 3f bc 68 3b
       -0.0019154157 -0.0001689945 -0.011454422 0.0035512594
0003a0 40 76 42 bd ec c0 30 bc bc 57 98 3c 80 85 80 3b
       -0.047476053 -0.010788184 0.018596523 0.0039221644
0003b0 44 65 be 3c e2 79 cb 3b 01 80 e8 bb 45 44 23 bd
       0.023241647 0.006209598 -0.0070953374 -0.03986003
0003c0 d1 6f 4a bb a6 8c 07 3c 5c 06 a0 ba a8 2a 7e bc
       -0.0030889402 0.008273279 -0.0012208926 -0.0155131
0003d0 0e 8e d8 3c f9 e9 22 3b 85 11 92 3c c3 59 3d 3c
       0.026434924 0.0024858697 0.01783062 0.011557045
0003e0 4e a3 31 3d 34 de de 3b 9f c8 9c 3b 9b 41 cf 3c
       0.04336863 0.006801391 0.004784658 0.025299838
0003f0 de f0 92 bc be ae b1 3c c1 45 60 bc d0 de 57 bc
       -0.01793712 0.021689769 -0.013688506 -0.013175681

action_model._discrete_distribution.branches.2.bias f4 [3]
000000 8d 2d dc bc e2 c7 1c 3c e2 3a 7c 3c
       -0.026877189 0.00956914 0.015394898
