ArmRobot/Assets/Config/results/TFM-Test/TouchCubeMoveGail/TouchCubeMoveGail-473511.onnx (onnx, 147394 bytes, 25 tensors)

discrete_act_size_vector f4 [1, 8]
00000000: 0000 4040 0000 4040 0000 4040 0000 4040
00000010: 0000 4040 0000 4040 0000 4040 0000 4040
3.0 3.0 3.0 3.0 3.0 3.0 3.0 3.0

network_body.observation_encoder.processors.0.normalizer.running_mean f4 [86]
00000000: 0000 0000 0000 0000 0000 0000 0000 0000
00000010: 0000 0000 0000 0000 d6fd 7f3f 82e8 85b3
00000020: c53b b03d 217e 78b3 6f5c a932 7464 773e
00000030: 228e cbb2 1ca1 343f 9046 b2bc 018a 1b3e
00000040: c13d 55bc 0b22 8cbd 986e 4c3e 2476 87be
00000050: 785a 143f 0774 f53b d17e 6f3e 6c8c 66bd
00000060: 4c09 f7bd bb7b 173e 4a1c cabe 43ef da3e
00000070: a1c4 7f3d a3d9 6a3e 21db 9dbd 9927 8ebe
00000080: 9232 89be 000e 1f3d b0a2 3a3e a74a aa3d
00000090: a7f6 6a3e c394 9cbd 399e 72be 9013 8ebe
000000a0: b187 023d f33a 1b3e 1def cf3d efbe 6a3e
000000b0: 6e2a 9abd abbe 7bbe a5f8 6abe e2f6 05bc
000000c0: f4f9 2a3e e321 fc3d ec85 623e 573a 99bd
000000d0: 3c2d 90be 8d64 e2bd d278 41bd 0372 f5bd
000000e0: a90b 143e 0514 543e f595 66bd 3c2d 90be
000000f0: 8d64 e2bd d278 41bd 0472 f5bd f106 133e
00000100: 4fc1 513e b949 67bd 3c2d 90be 8d64 e2bd
00000110: d278 41bd 0472 f5bd c729 ad3e 0b20 4f3e
00000120: 09bf 393e b6dd 263f 7eda 1f3e 310e 093f
00000130: af0c 90be e13f 34be 4950 ccbc 0ad5 de3e
00000140: 7b5b 893e 00a4 9c3e 3133 96be 6662 2d3e
00000150: e769 84be db30 703e
0.0 0.0 0.0 0.0 0.0 0.0 0.999967 -6.235588e-08
0.0860515 -5.7856713e-08 1.9716223e-08 0.24159414 -2.3696945e-08 0.70558333 -0.021762162 0.15189363
-0.013015212 -0.06842431 0.19964063 -0.26457322 0.57950544 0.007490638 0.2338822 -0.05628626
-0.1206232 0.14793293 -0.39474708 0.42760667 0.06244338 0.22934584 -0.07707811 -0.27764586
-0.26796395 0.03883171 0.18226123 0.0831502 0.22945653 -0.076455615 -0.2369317 -0.277493
0.031867687 0.15159206 0.10153029 0.22924398 -0.07527624 -0.24584453 -0.22946413 -0.008176537
0.16696912 0.12311151 0.221214 -0.074818306 -0.2815951 -0.11054335 -0.047234364 -0.11984637
0.14457573 0.20710762 -0.056295354 -0.2815951 -0.11054335 -0.047234364 -0.119846374 0.14358117
0.20483898 -0.05646679 -0.2815951 -0.11054335 -0.047234364 -0.119846374 0.33820936 0.20227067
0.1813928 0.65182054 0.15610692 0.5353728 -0.28134677 -0.17602493 -0.024940627 0.4352191
0.26827607 0.30593872 -0.2933593 0.16932067 -0.25862047 0.23456137

network_body.observation_encoder.processors.1.normalizer.running_mean f4 [29]
00000000: aa88 003d 9382 1f3f 4e3f a940 8665 ec40
00000010: f3a7 893e 271f 9e3c 77dd c4bd 889f d83d
00000020: 2249 6c3e 85a8 72bd 3f00 273e f284 58be
00000030: 4212 17bd 3baf b739 0356 44bd a9e2 d73a
00000040: 0c69 50bb 78bc fe3b b68e 4bbb ee5e 673b
00000050: 8e2d 64bd 05c0 9b3b ab89 b73e bcbb ae3e
00000060: 55c3 f93e 44b9 183f 199d 0c3f 3d71 cf3e
00000070: 23dd 1f3f
0.031380333 0.62308615 5.2889776 7.387393 0.26885948 0.019301964 -0.096125536 0.10577303
0.23074773 -0.059242744 0.16308688 -0.21144465 -0.036882646 0.00035035037 -0.04793359 0.0016470748
-0.0031800894 0.007773932 -0.0031060404 0.0035304385 -0.055707507 0.004753115 0.3584722 0.34127605
0.4878184 0.5965769 0.5492721 0.4051608 0.624468

network_body._body_endoder.seq_layers.0.weight f4 [128, 115]
00000000: 4caf cd3d e448 6cbd a37e 213d 2614 cb3c
00000010: 6d19 23be 9d5c f9bd d375 083d fe2a 0d3b
00000020: f4fd db3d 0c34 e9bd b94b 28bd 5a75 353e
00000030: 59b7 19be 5087 693d 653e 81bd f166 bc3c
00000040: c106 90bd 2cef 4c3c c918 7c3d f7d1 cf3d
00000050: af07 883d db73 3cbd 7f0f e13c 7e97 f1bc
00000060: fbc7 22be 1696 823d 8fb2 fbbd dc5c be3d
00000070: 863a 45be 925d 173e 87d6 003b 26c4 1dbd
00000080: cb13 1b3e 8b4b d5bb 8b67 453e f173 0bbe
00000090: 993c c33b 2b22 02bd e682 34be 33fd bcbd
000000a0: c023 0bbe 4fdd 6abb dfea 00bd 45d4 41be
000000b0: d279 c6bc 58af ba3d 12b2 f83c 151e 88bd
000000c0: d639 093e dc69 12bc acc8 e83d 9428 86bb
000000d0: 1c4a 3b3b 5bd5 19bd 656e 0bbd d013 73bd
000000e0: 2505 88bc 4bb3 dd3c 77db 393e 15e3 0ebe
000000f0: 4373 33bd 8ef9 14bc a07c 033e e4fd c83d
00000100: cc29 25bc c679 e63c 0ba8 763d 1a6b 27bd
00000110: fc5c 5f3d 256d cf3d 8a2c f43d c84e bd3d
00000120: d4ec 333d 1aa2 10be 35e3 e6bd 6adb 2ebd
00000130: 90d6 3e3e 0543 71be dd51 d13b 61cd 37be
00000140: a24c 383c 798d 4fbd 345d 863d 1892 37bd
00000150: c71c aebb 6586 73bd 2dcd 713e bd5d a33d
00000160: c5d5 013d 2ece 51bd aff8 143e cc35 6ebd
00000170: 3979 0bbd 45de cb3d f3db 14be 1f1b d0bd
00000180: a8c7 943d 5f61 893d 87b1 bc3d 9d11 5ebd
00000190: a913 3bbc 2b99 1f3e ae16 82bd c994 15bd
000001a0: aaf9 fdbd 27dc 0c3d a488 a3bd bc5a 923e
000001b0: cd0e e93d 7b48 9abd f4aa a4bc d9c3 82bd
000001c0: 1760 223d 2ffa 0dbe 16ed 6a3e 7315 ddbc
000001d0: 0721 083c 4cc2 efbc 5d05 b43d 8ede babd
000001e0: 61ab d1bd 48b8 d43d d735 6abc a8d6 febc
000001f0: 3374 933d 2508 0bbc 8871 be3c 721f 9ebd
00000200: 6da7 623d 7063 03bd 8f5d 1abd 8c32 63bd
00000210: aa9e 72bd c923 3dbc 3325 4d3e d40b 173d
00000220: d0a5 35be 8329 333c ddbe 083e 352b d9bc
00000230: 4dd7 a03c 5de4 da3b 8aaf 073d 6d91 cebd
00000240: 7e44 663e f2fa ef3d 2c92 a43b 42f8 993c
00000250: 8835 093e eeb8 81bc 266c f3bd b8f7 62bc
00000260: ec6b 67be 7af2 44bd c64f b83d 61db 2f3e
00000270: b1a6 2f3d 35e5 47bd 81d1 f43d 0e48 3cbd
00000280: 3684 acbc 29ac cb3c fe7d da3d a4d9 73bc
00000290: d92e 1f3e 682b 173e 9c66 37bd 7c5b 15bc
000002a0: b0cf 05be ad4b d4bd 8258 ef3d cfa0 133e
000002b0: 25cb c0bc ee62 87be 556f b6bb dc14 cebd
000002c0: a08c 06bd ca43 4b3d ef2a d7bd d36a 0b3e
000002d0: 91e2 0e3c 29a9 cd3d a39c 91be 6867 173e
000002e0: 5f9c 863d 56e6 363e fba5 403e 2e5d 2dbe
000002f0: c308 323e 1916 fb3d 1034 f43d 273b d0bd
00000300: f083 193b 2d60 61bd 5452 ccbd e605 95bb
00000310: bf9c 7ebd 8d5e 2cbe f27a f73d b85a 023e
00000320: a7cf df3d 3632 76bd b989 713b 85a4 23bd
00000330: 9670 c63d 631d 33be 7ddd 0d3e 73ae d9bd
00000340: 654c 0d3e 497c 773c e1f1 bdbd 8136 5cbe
00000350: 1c73 76bc 168c 1c3a 60b1 f8bd fe27 163c
00000360: 500c fc3b c437 febc c8f1 453b 5272 bb3c
00000370: 6ede c1bd 7b7d 5f3b 98a8 58bc f496 123d
00000380: 958f 63bc c17c c13d 3b5c 3cbd af12 903d
00000390: ab52 68bd 45c1 19bc ac60 643e ee7f 7c3c
000003a0: ab7e 193b 5811 19bc f8ab c93c a820 ba3c
000003b0: e54c 9c3c d4d9 4fbd 7768 c93a 0461 5c3d
000003c0: bf58 ba3d d284 5d3d 9344 493c 67b1 b6bd
000003d0: 8476 1c3e af3d a0bd fc7c a53d e031 97bd
000003e0: e866 33bd 9d9a 69bd 2af0 97bc 2b7b 4b3d
000003f0: 1d81 853d e1f0 e23d 8fb1 4bbe f106 703d
0.10043201 -0.0576867 0.03942741 0.024789881 -0.15927668 -0.12175868 0.03331549 0.0021540518
0.10741797 -0.1138688 -0.04108784 0.17720547 -0.15011348 0.05701381 -0.06310729 0.022998305
-0.07032538 0.012508195 0.061547074 0.101474695 0.066420905 -0.046008926 0.02747321 -0.029491182
-0.15896599 0.06376283 -0.12289917 0.09295055 -0.19260606 0.14781788 0.0019659118 -0.03851714
0.15144269 -0.0065092496 0.1927778 -0.13618447 0.0059581515 -0.031770866 -0.17628059 -0.092279814
-0.13587856 -0.0035837477 -0.03147399 -0.1892863 -0.02422801 0.091154754 0.030358348 -0.06646363
0.13400969 -0.008936372 0.113664 -0.0040941928 0.0028578108 -0.037556987 -0.034040827 -0.059345067
-0.016604016 0.027063033 0.18150125 -0.13953812 -0.043811094 -0.009092702 0.1284051 0.09814051
-0.010080766 0.028134238 0.060218852 -0.040873624 0.054532036 0.101282395 0.11922558 0.09243542
0.04392703 -0.14124337 -0.11273805 -0.04268972 0.18636537 -0.23560722 0.0063879327 -0.1794944
0.011248739 -0.05067203 0.06560746 -0.04481706 -0.005313489 -0.05945434 0.23613425 0.079768635
0.031698007 -0.05122202 0.1454799 -0.058156773 -0.034051154 0.09954504 -0.14537029 -0.10161423
0.07264644 0.06708025 0.09213548 -0.054216016 -0.011418262 0.15585773 -0.06351982 -0.036518846
-0.12401135 0.03438964 -0.079850465 0.2858485 0.11379776 -0.07533356 -0.020101048 -0.06385011
0.03964242 -0.13864969 0.22942004 -0.026987767 0.008308656 -0.029267453 0.087900855 -0.0912448
-0.10237766 0.10386711 -0.014295063 -0.031108215 0.071998976 -0.0084858285 0.023247495 -0.077208415
0.05533545 -0.032077253 -0.03768688 -0.055468127 -0.059233345 -0.011544176 0.20033722 0.036876515
-0.17739034 0.01093519 0.13354059 -0.02650986 0.019633913 0.006680055 0.03312639 -0.100863315
0.22487065 0.11717786 0.005022308 0.018795136 0.13399327 -0.015835252 -0.11885862 -0.013853006
-0.22599763 -0.048082806 0.089995906 0.1717353 0.04288358 -0.048802573 0.11954022 -0.045967154
-0.021059137 0.024862366 0.10668562 -0.014883433 0.15545215 0.14762652 -0.04477559 -0.00911605
-0.13067508 -0.103659965 0.116868034 0.14416812 -0.023534367 -0.26442665 -0.005567471 -0.10062572
-0.032848954 0.049625196 -0.10506236 0.13614969 0.00872101 0.1004203 -0.28439817 0.1478554
0.06572794 0.17861304 0.18813317 -0.16930076 0.17386155 0.12260074 0.11923993 -0.101675324
0.0023424588 -0.05502336 -0.0997664 -0.0045478223 -0.062161203 -0.16832943 0.12083997 0.12729919
0.109282784 -0.06010648 0.003685577 -0.03995182 0.09689443 -0.17491679 0.13854022 -0.10628977
0.13798673 0.0151053155 -0.0927465 -0.21505167 -0.015042093 0.0005971802 -0.121432066 0.009164808
0.0076918975 -0.03103245 0.0030203927 0.02288166 -0.09466253 0.0034101892 -0.01322379 0.03578849
-0.013889213 0.09447623 -0.045986395 0.070348136 -0.056719463 -0.009384458 0.22302502 0.01541136
0.0023421447 -0.009342514 0.024618134 0.02272065 0.019079635 -0.050744846 0.0015366216 0.05380346
0.09098958 0.054081745 0.012284416 -0.089205556 0.15279585 -0.07824265 0.080804795 -0.0738256
-0.04379931 -0.057032216 -0.018547136 0.04967801 0.06518767 0.110811 -0.19891952 0.05860037

network_body._body_endoder.seq_layers.0.bias f4 [128]
00000000: 5a24 0a3d 7580 b93c 3f4c c4bc 878e 5b3c
00000010: a1ad 83bb 0c7c 1fbd 7541 df3d 2e90 10bd
00000020: c04e dd3c 0c56 f1bc 1135 47bd 5dae 27bd
00000030: 642d 91bc 918f 6f3c 2d78 043d 6cc8 67bb
00000040: e741 debb f843 cf3c 1b98 44bc be6a b3bc
00000050: b7b4 e3bc 1f33 1a3d e5ce b53c ddc8 4bbd
00000060: fc2f 26bd c200 d5bc 4a96 2e3b 2fd7 de3d
00000070: be80 11bc 5351 0a3d 560e 40bd c0b2 97bd
00000080: 6ebe 06bd abb0 58bb 2ba4 e43c 6d91 ef3b
00000090: 0499 28bb c434 ed3c 80b9 213d 2a3c 81bb
000000a0: 8a8e ea3b ff12 0dbd af35 1cbd 92e1 853d
000000b0: 19d3 3a3d ce26 82bc 8b5c 2a3d e30d 27bd
000000c0: cf36 773d 9a4b a7bb ca88 9f3d fec0 11bd
000000d0: dbcd 02bd db18 923d 9bd3 21bd a7d8 0dbd
000000e0: 82fc 94bc 5f82 39bd 38f1 a73b d17d 2cbd
000000f0: d27f 43bc e5a1 993d 788a 59bc 915d 2fbd
00000100: 96f9 1c3d 97c2 2abd 9159 723c 0722 af3c
00000110: 6104 b93c f044 883d f293 5e3c 442a a9bc
00000120: 3643 73bd 3020 f5ba 542f aa3c 6b32 c9bc
00000130: f8d9 5e3d 4816 2ebd 86f7 a9bd 31fd 2b3d
00000140: 5cc9 a7bc 323a 3a3d a605 9f3c e9c0 143c
00000150: a463 473c 19ff 70bc bb6b 183d 396a b73c
00000160: ecb4 833c 335d 4cbd 27d6 70bd 5860 41bd
00000170: 38a9 2cbc ce34 c63d 6341 753d b6cb e73b
00000180: a582 fe3c 3696 25bc 4615 3fb9 5b3c e8bc
00000190: dd55 073c f040 4bbd fb73 83bc 1c2f b13d
000001a0: 4db2 0b3d 4650 ef3b 7f94 1dbd 48f5 1c3d
000001b0: c1d0 c83d 9fef 34bd 9715 dfbb b427 8f3c
000001c0: 9f43 95bb f383 86bc 4cf9 61bd 4d7c 0fbd
000001d0: 4c46 acbb fc75 9cbc 550a f8bb a211 acbc
000001e0: 6213 b5bc 58f2 c33c 1ec7 03bc f5c0 25bd
000001f0: 449d ae3a 452e dd3b ae29 013d 88f7 f1ba
0.033726074 0.02264426 -0.023962138 0.01340068 -0.004018501 -0.03893666 0.10901157 -0.03529375
0.02701509 -0.029459976 -0.048634592 -0.04093777 -0.01772184 0.014621631 0.03234117 -0.0035367263
-0.0067827585 0.025300965 -0.011999155 -0.021901485 -0.027796132 0.03764641 0.022193382 -0.049752105
-0.040573105 -0.026001338 0.0026639872 0.10880887 -0.008880792 0.033768963 -0.04688867 -0.07407141
-0.03289645 -0.0033064287 0.027910313 0.0073110373 -0.002572597 0.028955825 0.039483547 -0.0039439397
0.0071581053 -0.034441944 -0.038137134 0.06537165 0.045611475 -0.015887644 0.041592162 -0.040784728
0.060355004 -0.005105448 0.07789762 -0.035584442 -0.0319346 0.07133647 -0.039508443 -0.034630444
-0.018186811 -0.045290347 0.005125191 -0.042112175 -0.01193233 0.07501582 -0.013277642 -0.04281384
0.03832396 -0.04168948 0.014791862 0.02137853 0.022585096 0.06653774 0.013585078 -0.020650037
-0.05939027 -0.0018701609 0.020774521 -0.024560174 0.05440709 -0.042501718 -0.082991645 0.04198951
-0.020481758 0.045465656 0.019411873 0.0090791965 0.012169752 -0.0147092575 0.037212115 0.022389518
0.016077481 -0.04989357 -0.05879798 -0.04721102 -0.010538392 0.096780404 0.05987681 0.007073845
0.031068156 -0.010106614 -0.00018223104 -0.028349092 0.0082602175 -0.049622476 -0.016046515 0.086515635
0.034105588 0.0073032705 -0.038471695 0.038319856 0.09805442 -0.044173833 -0.0068079936 0.017474987
-0.00455518 -0.01642034 -0.05516939 -0.03503065 -0.0052574035 -0.019099228 -0.007569591 -0.021004502
-0.022103969 0.02391927 -0.008043079 -0.04046722 0.0013322015 0.0067499005 0.03153389 -0.0018460611

network_body._body_endoder.seq_layers.2.weight f4 [128, 128]
00000000: d2ce c6bd d5a8 5cbe 53c7 643d a43d 5bbe
00000010: 5b03 3e3e 0111 99b8 a768 dbbb 6edd 493e
00000020: 6239 ef3c c6c0 9d3d 3574 0ebb 4a8c cd3c
00000030: abdf 663d bc63 00bc c93b 6e3e b410 193e
00000040: 8140 8a3d feb7 c9bc cd3b a03e bb49 d1bd
00000050: 8c1f 8dbb 7291 df3d b7b7 61bd 18ce 30bc
00000060: 0409 80bc 90b7 043e 7481 c6bd fdd8 a9ba
00000070: c9aa 16be e127 84bd 82fe ce3b 0bbe a8bd
00000080: c3b9 113d 9f23 3e3d 72bb 3d3c b557 4ebe
00000090: b0c6 143c 22da 02bd 28a0 afbc 6f84 483e
000000a0: a1ed c3bd 4aea 45bd e605 b83d 850d 43be
000000b0: cac0 343d b68a 9b3d ca2b 103d f537 253e
000000c0: 1ff5 dabd a9f9 723d ba79 823d d1f7 cabd
000000d0: 97c9 31be c8ff 8fbe 25e7 313d 7249 dcbd
000000e0: 9798 243c 60c0 13be 5dc7 ca3c 0158 04bd
000000f0: 4277 853c e86d d43d b608 8a3c 74c8 6b3d
00000100: c8da 19bd e392 993d 0dbd 52be 440e 8c3d
00000110: 2030 da3d ec23 acbc 60ca 69bd 222c 8abd
00000120: 1fd5 003b 9c9e 5e3d 62d4 7b3d aab2 7f3d
00000130: 77fa 1ebc 803e a33c b314 a13b 5de6 eb3c
00000140: 1c0c 20bd dbb3 8ebd 4d05 9dbc 4952 923d
00000150: 707c 89bc 0c38 163d c1f6 63bc bfc4 9e3c
00000160: c93c 70bd 8e0a 09bd 28c9 e6bc e237 163e
00000170: 77fb cfbc c68b 3a3d b0db 30bd 7853 2f3e
00000180: a817 3c3d 33e6 3d3d 9ef3 433e a91c 233d
00000190: f92d 003e 81cc 513d eb31 3d3d d9cd c5bd
000001a0: f882 20be d9b7 59bb ad3f 1d3e 936d 04be
000001b0: 0c8c 2ebd cb69 c4bc 0e22 0f3e a0a0 b93b
000001c0: 7744 e4bd bdaa 123d 25df c93d dc50 faba
000001d0: 5838 bf3d 538a 363d 5f33 18be a026 e63d
000001e0: de0a 0d3d 900d 8d3d 9a15 b93d 25d7 943d
000001f0: a1d9 ea3d bbb8 c2bc 10f1 be3d 4d08 803e
00000200: 6a10 04be 1831 03be 991b 7b3d 50bd b13b
00000210: 0d17 4c3b bb32 cebc 6fc7 ee3d 5d2f 3a3e
00000220: 03bc 883d 05ae 58bd b755 aebc a5d0 a7bd
00000230: eb1a 16be b5c0 103d 6b49 963d 4643 8d3d
00000240: 0236 59be 1f8f e5bd 3827 ddbd f376 253d
00000250: 93c7 4e3e 7b5f 23bb 6383 393c 679d a13e
00000260: 479e f9bd 9439 d03b 637a 44bd 45c5 a7bd
00000270: cdb9 07be 5a40 d53c 4e24 2bbe 6aa9 ba3d
00000280: 1d41 94bc 3d0e 80bd dae1 cabd bae8 8a3d
00000290: 8e02 863d 3362 af3d f9a9 8dbd 776e 74bd
000002a0: b817 513d 8162 b5bd 7580 853d 599e 8e3d
000002b0: ddfb f7bb ec61 acbc 33e3 a83d 51fc 81bd
000002c0: 81d8 003e 1e90 423d 1d76 e3bd 2d9a 3dbd
000002d0: b9ef 73bd 6c61 773d 20dc a5bc e66c fb3c
000002e0: 1470 b0bc 5b00 25b8 c91b 82bd 5382 3abd
000002f0: 3b2f d8bd c157 a43d 2d8f 3c3d 222b 77bc
00000300: d87e ac3d 63be 963c 406e ccbd 371f d03d
00000310: a5a4 f6ba b657 19be 99bf 1c3e 09f1 0a3e
00000320: c1a5 883c 530e 073d 6da2 abbb 66a6 8bbc
00000330: 8dd8 313c 3326 d73a 06c0 aa3c b600 373e
00000340: d18b b93c 5a43 efbd 25a0 fa3d 3a4e e13d
00000350: 1a40 41be 3ba1 dd3b cecd 67bc c114 0b3e
00000360: 0bbe 2abc e034 fc3d a605 63bb b33a ddbd
00000370: 655f 6b3d 833e 183c 03c0 463d d81a 19bd
00000380: 15f0 32bd 2012 3cbd 6495 e23d 62d6 1dbd
00000390: 4360 d13d 98e8 36bd 0707 2a3d ff1b 073e
000003a0: 6622 713c af8e 42bd 18c6 febc 2d6e 88bd
000003b0: 14b7 343e 912c 773d c163 193e 0369 d138
000003c0: 2b5f aebc 7520 83bd 50bc 923c e477 8f3b
000003d0: 13b0 123e 3649 5c3d cca0 9e3d bc88 98bd
000003e0: 2d2d 503d 68cb 2ebe 7778 e13b fe18 de3c
000003f0: 4e12 72bc bc00 b83c 1918 873d 61ad 2cbe
-0.097074166 -0.2154878 0.055854153 -0.21410233 0.18555968 -7.298776e-05 -0.006695825 0.19713375
0.029202167 0.07702784 -0.0021736745 0.02509131 0.05636565 -0.0078362785 0.23264994 0.14947778
0.067505844 -0.024623867 0.31295624 -0.10219141 -0.004306739 0.10916413 -0.055106845 -0.010791324
-0.015629299 0.12960649 -0.0969266 -0.0012958344 -0.14713587 -0.06452919 0.006316961 -0.08239373
0.035577547 0.04642069 0.011580335 -0.20150645 0.009080574 -0.03194631 -0.021438673 0.1958177
-0.095668085 -0.04831914 0.089855 -0.19048126 0.04412917 0.075948164 0.03519801 0.16134627
-0.106912844 0.059320126 0.06370874 -0.099105485 -0.17362057 -0.28124833 0.043433327 -0.10756196
0.010046146 -0.14428854 0.024753267 -0.03231049 0.016292218 0.103725255 0.016849857 0.057564214
-0.03756216 0.074987195 -0.2057993 0.068386585 0.1065371 -0.021013223 -0.057077765 -0.06746699
0.001965828 0.05435048 0.06148184 0.062426247 -0.00970327 0.019927263 0.0049157976 0.02879637
-0.03907405 -0.069678985 -0.019167567 0.07144601 -0.01678297 0.036674544 -0.013913811 0.019380925
-0.05865172 -0.03345733 -0.02817209 0.14669755 -0.025388462 0.045543455 -0.04317826 0.17121685
0.045920998 0.046362113 0.19135901 0.039822254 0.12517537 0.05122042 0.046190184 -0.09658403
-0.1567496 -0.0033221154 0.15356322 -0.12932424 -0.042614028 -0.023976227 0.13977835 0.0056649
-0.11145871 0.03580736 0.098570146 -0.0019097584 0.093369186 0.04456551 -0.14863347 0.11237836
0.034434192 0.068873525 0.09037323 0.07267598 0.11467291 -0.023769727 0.09323323 0.25006333
-0.12896886 -0.12811697 0.061305616 0.005424179 0.003114167 -0.025170675 0.11659133 0.1818213
0.066764854 -0.052900333 -0.021281106 -0.08194093 -0.14658706 0.03534003 0.07338222 0.06897597
-0.21212009 -0.11208939 -0.10798496 0.040396642 0.20193319 -0.0024928737 0.011322829 0.315654
-0.12188392 0.00635452 -0.04796828 -0.08191923 -0.13254471 0.026031662 -0.16713068 0.091143444
-0.018097455 -0.06252716 -0.09906359 0.0678267 0.06543456 0.08563652 -0.06917185 -0.05967566
0.05104801 -0.08856679 0.06518642 0.06963796 -0.0075678662 -0.021042787 0.0824646 -0.06346954
0.1258259 0.047500722 -0.11106513 -0.04628961 -0.05955479 0.060395643 -0.020246565 0.030691575
-0.021537818 -3.9339397e-05 -0.06352956 -0.045534443 -0.105558835 0.0802455 0.04603498 -0.015085967
0.08422631 0.01840133 -0.09981966 0.10162204 -0.0018817378 -0.14974865 0.15307464 0.1356851
0.0166806 0.032972645 -0.0052378685 -0.017047118 0.010854852 0.0016414582 0.020843517 0.17871365
0.022649677 -0.11682768 0.122375764 0.11001249 -0.18872109 0.006763605 -0.014148189 0.13582136
-0.010421286 0.123147726 -0.0034640818 -0.108022116 0.057464022 0.009292248 0.04852296 -0.037379116
-0.04368599 -0.045915723 0.1106365 -0.03853453 0.102234386 -0.044655412 0.041510608 0.13194273
0.014717674 -0.047499355 -0.031100318 -0.06661639 0.17647964 0.060345236 0.1497946 9.9854566e-05
-0.021285614 -0.06402675 0.01791206 0.0043783057 0.1432498 0.053780757 0.07745513 -0.07447955
0.050824333 -0.17069781 0.0068808156 0.027111527 -0.014774872 0.022461288 0.06596393 -0.16863014

network_body._body_endoder.seq_layers.2.bias f4 [128]
00000000: d471 bebc f01a 09bd f7e7 ffbb e66f 3c3d
00000010: 3666 e43c 1b4b bebb cb5b 523d f2f3 8e3c
00000020: 9e36 14bc 0d5c 3f3b 9c7d 353c 3276 28bd
00000030: 67d9 213c 88ff c9bb 33ef 32bd cbb1 c7bb
00000040: 4745 8fbb afef 10bd e05b 65bc 8c8f f33c
00000050: 7181 323d 8632 1f3c 74f9 023d 68d1 b2bc
00000060: a226 08bc e61f 0cbc 92b8 0abc f2d2 fbba
00000070: 0dca bcbb 9d94 1ebc eb8d 18b8 63b6 2d3d
00000080: 7cd6 bbbc 43ec 143d 0334 cebc 7a56 14bd
00000090: b0f9 c8ba cfca 993c 8083 08bc c2b5 8abb
000000a0: 49fc 0fbc a501 33bd 56e9 f1bb 5168 333c
000000b0: b62f a6ba 7715 5cbd 2dd2 51bc c20a 4c3b
000000c0: 0dc3 40bd 2bae 9d3c d2d6 963b 701b 393c
000000d0: 1c57 05bd 1b06 953c f4cf 52bc 217d 19bd
000000e0: 5104 32bd cf82 743b cbff 94bc a61c 3c3c
000000f0: dd6f e5bc 6b30 16bd aa03 a3bb 6a8b a1bc
00000100: bbec ecbc 1a79 1dbd b914 adbc f61c e9ba
00000110: 0a37 bc3d 607a c0bc e264 d2bb 74ca 12bc
00000120: da41 e9bc 9a6f 3cbd 072b 8e3c b6db 99bb
00000130: b121 c23c c1e4 c7bc f3b3 04bc 1077 36bd
00000140: f815 023d fa70 09bc f555 df3c 9607 853b
00000150: 4004 5ebc 6f8e 1fbd 0b65 e23c e1db 22bd
00000160: 02b6 75bc 1d16 0b3d 1c04 05bd 0e1f c93c
00000170: 890f 5cbc a3b8 e9bc 9fc6 36bd 53dd e83c
00000180: e372 64bc 0fba 83bd c821 963a acb0 8abb
00000190: 41d8 553c 7f7f 603b 8315 9dbc ddf8 b2bc
000001a0: 1f89 4fbb 548b 883b 79ab 51bc 29cd 0fbd
000001b0: fb39 01bd 7f21 14bc 5411 f3bc a5ee ccba
000001c0: ace9 55bb 23dc 2bbd ac83 13bb 9cb1 83bc
000001d0: ca60 d13c 1acc 26bd 3733 3bbb d041 2b3d
000001e0: d363 16bd a895 bf3b df8a 04bd 8775 e8bc
000001f0: cb26 d63c 4307 85bc 790f e93a 07a0 233c
-0.023247637 -0.033472955 -0.007809635 0.046005152 0.02788077 -0.005807293 0.05135707 0.017450307
-0.009046225 0.0029199154 0.011077311 -0.041128345 0.009878493 -0.006164495 -0.04368515 -0.0060941926
-0.004372272 -0.03538483 -0.0139989555 0.029731534 0.043580476 0.009716636 0.03197618 -0.021828368
-0.008309992 -0.008552527 -0.008466857 -0.0019212647 -0.005761391 -0.009678987 -3.6371795e-05 0.042410266
-0.022929423 0.03635813 -0.025171285 -0.036215283 -0.0015333202 0.018773464 -0.008332133 -0.004233093
-0.008788177 -0.04370274 -0.007382552 0.010950164 -0.0012679014 -0.053731408 -0.0128064575 0.0031134342
-0.047061015 0.019248089 0.0046032453 0.0112980455 -0.032553777 0.018191388 -0.012866963 -0.037472848
-0.043461148 0.0037309413 -0.018188378 0.01148144 -0.028007442 -0.03666727 -0.004974802 -0.019719798
-0.028921476 -0.03844557 -0.021128045 -0.001778512 0.09190185 -0.023495853 -0.0064207176 -0.008959401
-0.028473783 -0.04600487 0.017354501 -0.004695381 0.023697706 -0.02440107 -0.008099544 -0.04454714
0.031759232 -0.008388752 0.027262667 0.004059742 -0.013550818 -0.038954195 0.027636072 -0.039760474
-0.014997007 0.033956636 -0.032474622 0.02455094 -0.013431438 -0.028530424 -0.044623014 0.028425848
-0.013943407 -0.06431972 0.0011454159 -0.0042324867 0.013052047 0.003425568 -0.019175297 -0.021847183
-0.0031667424 0.004167 -0.01279723 -0.035107765 -0.031549435 -0.009041189 -0.029671349 -0.0015635086
-0.00326405 -0.041957986 -0.0022508902 -0.016075902 0.025558848 -0.04072199 -0.0028564462 0.04181081
-0.036716294 0.005846698 -0.032359 -0.028376354 0.026141545 -0.016238814 0.00177811 0.009986884

action_model._discrete_distribution.branches.0.weight f4 [3, 128]
00000000: d2db e7bc 2e3d 8a3c 7d4c a0bc 3817 8ebc
00000010: 7fa4 2dbc 66dd 903c aa01 29bc c6ac bdbd
00000020: 54d9 22bc 9386 243d 3b4c 62bd 68c9 903c
00000030: 2206 8bbd 81f8 e23c 09b5 25bd 43bf 78bc
00000040: 7818 0dbc 5b93 48bd 1ba6 b3bd 4723 17bc
00000050: 83f3 08bd ada0 cbbc 132c 48bd 3a36 1abc
00000060: e66f 4cbd 2cd8 20bd 733d a83b 38d9 07bd
00000070: 98ef 3bbd 4ae2 b03c 89da 55bc 94e8 0bbd
00000080: 7c7c 583c d84b 9ebd 5055 a2bc 4387 9fbd
00000090: 7721 69bd 4104 1ebd a9c6 68bd 59df 2f3d
000000a0: f219 a53b e16a 18bd 0577 503d ff3b 7b3b
000000b0: cfc0 06bd b192 6d3b 7b2e 74bd ed36 1bbc
000000c0: ffa5 7bbd 9703 d1bb 0c91 3dbc a60b f7bc
000000d0: 7769 803c 2b65 5a3d b1b3 4abb 2431 8ebc
000000e0: 6f0c 4abd 2667 a6bd 09e3 15bc 903e 95bd
000000f0: b78e babd 587d 2fbd 58ce 3dbc 7bff 5b3c
00000100: f55c 953b 0335 56bd 181a 75bc 873d a7bd
00000110: 0a52 be3d 08aa b43d 0dee e93a c5d6 913b
00000120: 2c01 90bd 9e26 98bd 245e 453c ebaa a83c
00000130: e27b 633c be58 03bc e29b b1bd 8a04 d83c
00000140: ba73 a03d b54d d93c 93db e03b fc2e 43bd
00000150: 297d debc f69a c03c db11 733b 8360 0bbc
00000160: 27b9 7f3b be9c 97bc eea4 0bbd 2264 97bc
00000170: c7fb bbbc 4eea 50bd c0c4 b3bc 3145 e53d
00000180: a744 dbbc 9584 3bbd 48aa 1fbb 7f7f 8ebd
00000190: 0b1a 1a3c c8fb 3839 e81a 1fbd 7ccb c23d
000001a0: 8474 a4bc 6a37 90bd 28c8 89bd b64b 713b
000001b0: 95c5 75bd 8b6b d23c 9edf 57bc af14 bebc
000001c0: 8e5d a03c ba9c b1bd 4770 c03d 67a9 0d3d
000001d0: 5704 2bbd f381 09bd d8df c93d f1ac 6ebd
000001e0: bfc9 02bc 4f4f 393c cc57 21bc 3be3 243c
000001f0: eaa7 95bc 66ec 38bc fb94 afbc cebb 8e3b
00000200: 5e4c 3bbd 526c c53a 302d aebc 976f 063c
00000210: 5f89 61bc f545 503d 4fe9 30bd 5d06 07bc
00000220: e4ec 44bb a424 74bc f84e 0a3c 8b59 a73c
00000230: 5303 09bc 669f e1bc 7330 0bbd 8e07 8cbc
00000240: 5abf 443c 6c60 88bc c975 23bd 5e1f 99bc
00000250: 50df 16bc 8b7e e93c 42fd 41bd 1a02 4bbc
00000260: 2081 46bb a649 0bbc bd49 9d3c 2798 493a
00000270: bbff dfbb b1b3 54bc 85be 5abc 9edb ef3b
00000280: efb2 b9bc bedd 82bc d6a2 c6bb d69c b0bc
00000290: fffe 72bd d51a 0b3d c85e c13b f3d5 f43b
000002a0: d581 f43b 8341 d43b bbfb a2bc 2d6e 353d
000002b0: 9e1c 0b3c 4e64 053c c89a 033c 9dc3 87bc
000002c0: a86e 353c f95c 083d fa83 9fbc bc73 0f3c
000002d0: 4a09 01bd c7d9 dd3c daf7 583c fc24 7bbc
000002e0: a9ad a9bc fb73 ea3b 2e6f 333c 6bdd 43bb
000002f0: 26f6 97bc 384b 9fbc d05e 043c bab1 bb3c
00000300: 3e5d 9d3c 9a16 c0bb eb91 53bc 1b23 88bc
00000310: b83a bfba ce50 f63c 488f c53c 9b22 4ebd
00000320: 9bb2 17bb 3394 cb3b 337b 953c 1506 403c
00000330: 56e2 5d3c 4829 5cbc 3563 de3a 662a a7bb
00000340: e8e2 05bc ad4e 02bd ac4f dfbc 6587 afbc
00000350: 5aec 9fbc 6c0e d8bb 51f4 f0bc 494d 5c3c
00000360: bb20 19bb 51d0 b53b 2923 153a 9b66 2d3a
00000370: 5ba6 a5bc 03ab 5e3b 66ab 753c 283f 033c
00000380: 34e4 a23b 431e ba3a ad66 1bbc 2ed7 d5bc
00000390: 485c 44bc 71eb f0bc 985a f8bc 4002 f43c
000003a0: 6f14 69bc 818a 913c e617 803b e74e a73c
000003b0: 6287 d8bc 7234 a23c 8ca9 e2ba fec9 963b
000003c0: 277f 9dbd 9e35 593c 5b8e 083b 0eac 46bc
000003d0: e7d4 803c 886b 1cbd acc9 e8bc 8867 3f3b
000003e0: 8921 17bd 7b1d d43c d7f3 553c 3494 3b3a
000003f0: 4296 d6bb f087 d83c f102 3fbc 69b3 273c
-0.02830306 0.016874876 -0.019567722 -0.017345056 -0.010598301 0.017683696 -0.010315338 -0.092614695
-0.00993951 0.040167402 -0.05524848 0.017674163 -0.06788279 0.027706387 -0.04045585 -0.015182319
-0.008611791 -0.048968654 -0.087719165 -0.009224719 -0.033435356 -0.02485689 -0.048870157 -0.009412343
-0.049911402 -0.039268658 0.0051342784 -0.03316614 -0.04588279 0.021592278 -0.013052591 -0.03415735
0.013213273 -0.0772931 -0.01981607 -0.07789471 -0.05691668 -0.038578276 -0.056830082 0.04293761
0.0050384933 -0.037211303 0.050894756 0.003833532 -0.03289872 0.0036250765 -0.05961464 -0.009473545
-0.061437603 -0.006378602 -0.011570226 -0.030156922 0.01567529 0.053319138 -0.0030929858 -0.017357416
-0.049328264 -0.08125143 -0.009148368 -0.072873235 -0.09109252 -0.042844146 -0.011584841 0.0134276105
0.0045582005 -0.05229665 -0.0149598345 -0.08166032 0.092929915 0.088214934 0.0017847434 0.0044506514
-0.070314735 -0.07429241 0.012046371 0.020589313 0.013884516 -0.008016763 -0.086723104 0.026369352
0.07834573 0.026526311 0.006862113 -0.04765223 -0.02715929 0.023511391 0.00370895 -0.008506897
0.0039020272 -0.018507358 -0.034092836 -0.018480364 -0.022947205 -0.0510047 -0.021944404 0.11194838
-0.026766134 -0.045780737 -0.002436297 -0.06957912 0.009405623 0.00017641403 -0.03884402 0.09511468
-0.02007509 -0.070418194 -0.0672763 0.003681881 -0.060002882 0.025686046 -0.013175873 -0.023203222
0.01957586 -0.08672471 0.09396415 0.034585383 -0.041752186 -0.033571195 0.09857148 -0.0582704
-0.00798267 0.011310413 -0.009847593 0.010063942 -0.018268544 -0.0112868305 -0.021433344 0.004355884
-0.045727126 0.0015062189 -0.021261781 0.008205316 -0.013765662 0.050847966 -0.04319125 -0.008241263
-0.0030048424 -0.014901314 0.008441679 0.02042844 -0.008362609 -0.027541827 -0.03398175 -0.017093446
0.012008512 -0.01664754 -0.03990725 -0.018691715 -0.009208515 0.028502723 -0.047360666 -0.012390638
-0.0030289367 -0.008501446 0.0192002 0.0007690214 -0.0068359054 -0.012982295 -0.013351087 0.0073198816
-0.02266833 -0.015974876 -0.006061892 -0.02155916 -0.059325214 0.033961136 0.0059011914 0.007471794
0.0074617662 0.006477536 -0.019895425 0.044294525 0.00849071 0.00814159 0.008032508 -0.016572768
0.011073746 0.03329179 -0.019472111 0.008755621 -0.031503 0.027081383 0.013242686 -0.015328642
-0.02071269 0.007154939 0.0109518 -0.0029886614 -0.01854999 -0.019445047 0.008079246 0.022911895
0.0192095 -0.0058620693 -0.0129132075 -0.016618302 -0.0014589643 0.030067828 0.024116173 -0.05032597
-0.0023147229 0.006212735 0.018247223 0.0117202 0.013542732 -0.013437577 0.0016966822 -0.00510149
-0.008171774 -0.031813312 -0.02725967 -0.021426866 -0.01952188 -0.006593516 -0.029413374 0.013446161
-0.0023365456 0.005548515 0.0005689138 0.00066147157 -0.020220926 0.0033976443 0.014994478 0.008010663
0.0049710516 0.0014199693 -0.009484929 -0.026103582 -0.011984892 -0.029409142 -0.030316636 0.02978623
-0.014226063 0.01776624 0.003909099 0.020423366 -0.026431743 0.019800398 -0.001729296 0.004601716
-0.07690268 0.013257412 0.0020836804 -0.012125982 0.01572652 -0.038188487 -0.028416477 0.0029205997
-0.036897216 0.025892964 0.013058624 0.0007155568 -0.006548674 0.026432008 -0.011658416 0.010235646

action_model._discrete_distribution.branches.0.bias f4 [3]
00000000: 88c6 83bc 15bf 8ebc 9498 e53c
-0.016085878 -0.0174251 0.028026856

action_model._discrete_distribution.branches.1.weight f4 [3, 128]
00000000: f0dc 98ba 5eb2 2bbb d7ee 3d3a 9ca2 493d
00000010: 4206 b63c e0a4 22bd 07b0 d73b cbd7 74bd
00000020: 3c60 c53c a965 17bb 12d1 b7bc 1f82 cbbc
00000030: b0c7 17bd 5863 a83c 2602 2bbd bc97 ce3b
00000040: 8576 913c 6b13 bb3c b4fe e4bb be86 19bd
00000050: d9b7 3ebb f858 1bbd fae3 873a 299c 0abc
00000060: d2a1 45bd f42c 9fbb dc79 f6bc 97b3 023d
00000070: 672d b3bc 654b a0bc 2fc7 9d3b 81dd d63c
00000080: 7db1 eb3c c564 963c 7cc2 b7bb b058 c1bc
00000090: 03b9 e3bb ed7f 0fbb 4ea6 31bd dcf9 67bd
000000a0: e58b be3b 730c cbbb b1c5 193d c773 22bc
000000b0: 9bac 35bc 640d 03bd f67a 40bd 6971 13bd
000000c0: 21c3 d2bc 54f6 92bd 9186 37bd 16a2 9abd
000000d0: e280 7ebc 56e2 a73c 6830 363d e003 babc
000000e0: 936c 2c3c dfc6 8abd deca 55bc 3357 12bd
000000f0: 56bb f2bc 36cb 3dbd 23f3 4b3a b839 2ebd
00000100: dcac 95bd 2ca8 7fbc 2587 533b cb1d b33b
00000110: 7fb6 1bbc ac5a adbc c9ef 28bc 2b00 6fbd
00000120: 44e5 56bc 9b8c 4fbb 659f 323c 1e7e 27bd
00000130: 3ec5 44bb 74bd 44bd adaa 85bd 0a5a 8fbd
00000140: dd62 0e3d ef0f 1fbc 6808 0fbc 22aa 223c
00000150: 3f81 bfbd 0972 a1bc 76db 903d d2c7 59bb
00000160: 3810 8bbd 0c49 83bb 5dd9 93bd b1c5 c13c
00000170: 008b 52bd e5eb c5bc 9d83 8ebd 6484 38bc
00000180: 9d6f fabc a953 75bd 16e0 42bc 6d6f 00bc
00000190: 9c12 8d3c 4a2c 87bc a0d3 0f3d 3165 92bd
000001a0: 897e 083c 1cf0 053c 6921 92bc 884c 38bd
000001b0: 5403 82bc 9333 c7bd e298 07bd 408c d8bc
000001c0: 9e69 fd3c 8d6d 9fbd b3c1 83bc 4175 3dbc
000001d0: 21cd 1e3d 9854 00bd 2f64 9dbc f4c2 27bd
000001e0: 5700 95bd 7a66 783c 5c65 49bd 98c0 c9bc
000001f0: cb57 1cbc 7c48 c03b 2635 8c3c 1c35 d03c
00000200: fddd 42bc 1579 a1ba 9ffc 1f3d 844a 5a3c
00000210: d9e5 3bbb b69e 253b 9e65 923c 21d4 953c
00000220: 946e a93c ef64 84bc f694 163d 00af 8d3c
00000230: 370d 973c 6deb 853c 3056 1cbc abef 6f3c
00000240: e5f3 8aba ef96 4fbd d046 06bc 9d61 ccbc
00000250: 2f9f 8a3d 4a89 0a3b 8c05 1b3d 6123 c5bb
00000260: 1c6b 8abc 053f 9d3a a573 1bbd 5e85 e439
00000270: bb9f e33c 5c2d 0abc 0f16 4b3a 745c 4e3c
00000280: fb97 12bc 7db4 bf3c 0222 253d 8bff b3bc
00000290: 3bdf 1b3c a779 30bd cdd5 6abd 6347 df3b
000002a0: 7f7e 153c cb4d b6bc 6e02 683c dcf3 b93c
000002b0: f9a5 0c3d b1a4 70bd 1fd9 99bc 9da4 15ba
000002c0: 14d9 15bb d547 fb3b 4007 44bb 3f13 2e3c
000002d0: 55a4 833b 1646 eb3b f51b d4ba 82db 8eba
000002e0: 4c61 68bc 42d9 6a3c 1144 2bbd 3687 a13a
000002f0: 9f57 cdbc 1ebf 25bc 1be7 9c3c 5eb5 fbbc
00000300: 7b83 ae3b 47fb edbc 6e8b a53a 2c30 e83c
00000310: ea50 5f3c 659a e4bd 6aa1 efbc 968d 15bc
00000320: e132 76bb 72ce dabc d741 7cbc 4c73 13bc
00000330: a9fb e93c 8797 d7bb dd63 b23c 474a 7d3c
00000340: a8bb ef3c 9752 bdbc d25d 643c 7cb9 6939
00000350: f5a8 22bd 09a2 583b 6742 8a3c c9a5 0dbd
00000360: c3dd 1cbd 3a86 3bbd 5ca2 1bbd 2967 f83b
00000370: 2caa 1bbc 31a2 1cbb 8722 d0bc 9d86 a0bb
00000380: c598 8bbc 77d0 26bd ac1c 803c 91ae 8db8
00000390: e1ae 253a 1661 143c 55f8 debc f484 39bc
000003a0: 7675 c13c fbd0 19bd 64b8 83bc cd93 843c
000003b0: a8db 743b 0d62 d03b 8747 2c3d 33c3 213d
000003c0: d377 16bd 9622 dcbc 4e92 eebc 3afb 5dbc
000003d0: 31f4 533c 92a1 873a 4e79 c4bc f582 133d
000003e0: eb20 e4ba 4548 9a3c 4f07 00bd 1f79 01bc
000003f0: e4e0 b13c 4ac8 47bc 439d 2dbc 9ee5 843c
-0.0011662524 -0.0026198844 0.0007245368 0.049227342 0.02221978 -0.03970802 0.0065822634 -0.05977611
0.02409374 -0.0023101366 -0.02243856 -0.02484232 -0.03705567 0.020555183 -0.041750096 0.0063047092
0.01775671 0.022836408 -0.006988371 -0.037482016 -0.002910128 -0.037926644 0.0010367625 -0.008460083
-0.048250027 -0.0048576538 -0.030087404 0.03190955 -0.021872235 -0.0195672 0.0048150043 0.026228668
0.028771156 0.018358598 -0.005607901 -0.02360186 -0.0069495453 -0.0021896318 -0.04337149 -0.05663477
0.0058150166 -0.0061965524 0.03754205 -0.009915299 -0.011088516 -0.031995192 -0.046992265 -0.03599683
-0.02572781 -0.071758896 -0.044806067 -0.07550447 -0.015533658 0.020493668 0.044479758 -0.022706926
0.010523933 -0.06776213 -0.013048856 -0.03572769 -0.029630344 -0.046336375 0.00077800656 -0.042535514
-0.07308361 -0.01560406 0.0032276597 0.005466198 -0.00950396 -0.0211614 -0.0103110755 -0.05834977
-0.013116185 -0.00316695 0.01090226 -0.04089176 -0.0030024792 -0.04803224 -0.065266944 -0.069995955
0.034762252 -0.009708389 -0.008730032 0.009928258 -0.093508236 -0.019707697 0.07073109 -0.0033230674
-0.06790203 -0.0040065106 -0.07219193 0.023653837 -0.051402092 -0.024160335 -0.06958697 -0.011262033
-0.0305708 -0.059894238 -0.011894247 -0.007839066 0.017220788 -0.01650061 0.03511393 -0.07148207
0.00833095 0.008174922 -0.017838197 -0.04499486 -0.015870728 -0.09726634 -0.033104785 -0.026434064
0.030934151 -0.07784567 -0.016083574 -0.0115636 0.038769845 -0.031330675 -0.01921281 -0.040957406
-0.072754554 0.015161151 -0.04916893 -0.024627969 -0.009542416 0.005868016 0.017115187 0.02541595
-0.011893746 -0.001231941 0.039059278 0.01332343 -0.0028670935 0.00252716 0.01787072 0.018289628
0.02068261 -0.01616141 0.036763154 0.01729536 0.018438919 0.016347611 -0.009542033 0.014644544
-0.0010601251 -0.05068105 -0.008195594 -0.02494889 0.06768643 0.002113896 0.037847087 -0.0060161804
-0.016896777 0.0011996931 -0.037952084 0.00043586915 0.027786126 -0.008433666 0.00077471224 0.012595285
-0.008947368 0.023401493 0.040315636 -0.021972438 0.0095136715 -0.043084767 -0.057332803 0.00681393
0.009124397 -0.022253891 0.0141607355 0.022699289 0.03433797 -0.058750812 -0.01878029 -0.0005708428
-0.0022864984 0.007668475 -0.0029911548 0.010624706 0.0040173926 0.0071799858 -0.0016182648 -0.0010899159
-0.014183354 0.014334025 -0.04181296 0.0012323621 -0.025066195 -0.010116367 0.019153168 -0.030726131
0.0053257323 -0.029050482 0.0012630054 0.028343283 0.013630131 -0.11162261 -0.029251773 -0.009127995
-0.0037566947 -0.026709769 -0.015396557 -0.008999657 0.028562384 -0.0065793428 0.021776134 0.015459604
0.029264286 -0.023110671 0.013938384 0.0002228971 -0.03971191 0.0033055565 0.016877366 -0.034581933
-0.038297426 -0.045782305 -0.037996635 0.007580657 -0.009501021 -0.0023900385 -0.025407089 -0.0048988597
-0.01704062 -0.04072615 0.015638672 -6.7559195e-05 0.00063203095 0.00905635 -0.027218023 -0.011323202
0.02361558 -0.037552815 -0.016079135 0.016183758 0.003736237 0.006359345 0.0420604 0.039492797
-0.036735367 -0.02687196 -0.029122498 -0.013548667 0.012936638 0.0010347834 -0.023983624 0.036013562
-0.001740483 0.018833289 -0.03125697 -0.007902413 0.021713682 -0.012193749 -0.010596576 0.016222771

action_model._discrete_distribution.branches.1.bias f4 [3]
00000000: d632 813c 471c 203b 4f58 69bc
0.01577131 0.0024430917 -0.014242246

action_model._discrete_distribution.branches.2.weight f4 [3, 128]
00000000: 7c47 1cbd 1f5d 0b3d 621f cbbc cd3e 053d
00000010: f114 a5bb d6ad 1e3a 5060 403d c14b 463d
00000020: 6a7a a6bc 885c cabc 1937 403d 130f 55bb
00000030: 285e d03b 61da e1bc 7f43 4cbd 1abd f3bc
00000040: 5e50 f9bc 125c 4abd 043b 91bc d578 49bd
00000050: 7741 863d 68a6 96bc 5d47 143d 940a 13bd
00000060: a22f ddbc bc07 953c 5816 91bb b000 77bc
00000070: 2e1b 1f3c 63f5 b7bc b97b 3cbd ae5a 1ebc
00000080: 7fc8 57bc ced8 00bd 6ca0 1dbd 44b1 12bd
00000090: 2b4d 10bd b698 4b3d 9fb8 59bc b7ce 24bd
000000a0: ac30 423d d2a9 46bd 279d 153d 38d2 19bd
000000b0: 6276 3fbc 22d0 8d3c 2a16 73bc 2393 1abd
000000c0: eb0a 06bd 166a b8bc b30b 253c 9255 05b9
000000d0: ed02 dcbb e50a 13bc 0d44 5fbd f491 e9ba
000000e0: e097 90bc 4c8f 6fbc ba69 10bd c865 183d
000000f0: 5582 2cbd ac30 04bd 650c 1fbb f3ae b7bc
00000100: daf4 1f3d be47 7ebd b962 cdbc 5a68 4e3a
00000110: 508c 103d 5c14 e63b 7acf 21bd 27db 32bd
00000120: 4ee5 29bc 3acf d4bc 49e1 cabc aa81 f0bc
00000130: 5996 53bd 46d9 84bc f5e5 d5bb 49dc e03a
00000140: 9962 64bd 8824 89bc 777c c8bc 6c3f 1ebd
00000150: 0798 81bc 1e09 dbbc 99c7 b2bc 16a0 cebc
00000160: b9f6 05bd 85b1 1cbd ee02 34bd f93a 9dbd
00000170: 679c 603b 2e20 52bd fec7 793c d2c8 72bb
00000180: 4e60 52bc c24c 00bc ebf7 0f3d b7f9 7ebc
00000190: ae75 21bd 4f59 cabb 883a 13bc 913f 983d
000001a0: 8491 a8bc 6eaa 693c 0627 f7bc 6818 f5bc
000001b0: a8a1 48bb 6c2e 91bc 1e3c df3b 317e 1cbd
000001c0: 7735 a5bc 45ed 0dbd eb25 86bd a546 34bd
000001d0: 0b5a 3fbc 4d3f 6fbc 558c 863d fcd7 723a
000001e0: 2963 d6bc 5bcc 8cbd c985 203c 4e4e aebc
000001f0: 3034 3dbc 219d 96bd 9c06 1bbd 3be8 95bb
00000200: f388 9b3c 88b2 8ebb 29a8 143b 1c7f 6dbd
00000210: abd4 123d 35aa d2bc 4483 853c 074b cbbb
00000220: e56f 003c 6cb2 1439 7b00 7abc 7396 df3b
00000230: f9cf efbb dce9 253d 2607 793d d0b4 e8bb
00000240: 46c5 db3c 0233 c63c ba3b 833c d607 1e3c
00000250: 441e 1c3c a734 12bd 99d1 4d3c 2fe6 163c
00000260: 025a 123c 37cc b8bc ab02 9a3c fc1c f93c
00000270: 15b8 07bc eab7 77bc b8ff 8a3c 56b6 3cbb
00000280: 42f3 fabb 57d2 c2bc 997f a1bb 8783 a43c
00000290: aa1a 81bc 7732 233c 5881 3d3d 1551 47bd
000002a0: ac64 e5bc 06d5 aa3c 9914 63bc 5c20 19bd
000002b0: 2c02 133d ccdc e63c 921f dbbc 351c 84bc
000002c0: c2cd 763d 7a7d fd3c d953 48bc de94 0f3d
000002d0: 1e40 63bc 8a66 32bd 6881 bdbc 4ba4 08bc
000002e0: 159e a1b9 4714 11bb dff8 b03d d5f7 f4bc
000002f0: c155 853b a009 c73c f145 943c dcdc b73d
00000300: e680 fd3b e16d 983c b0f2 ec3a 8175 11bc
00000310: cbe9 653c 21be 9b3d 9211 a03c ee67 44bc
00000320: 828f c63c 84c9 f3ba 487d 5fbc 26af 5ebc
00000330: d314 9e3b bb6f 9a3c 694d 803c e1f5 3c3d
00000340: 0e26 91bc becb 86bb 29f7 f7bc 7a86 5fbc
00000350: 5052 a4ba a4e6 ea3c 6f6d 013b 966c 573d
00000360: 7364 843d dc4a d9bc 0433 013d 1ee0 96bb
00000370: 8b2d 8bbc 8dc8 903c df8e 273d 7954 8ebc
00000380: 8e4a aabc 7a12 df3c c0cc 0c3c ca2f 4fbc
00000390: 9ec5 ad3b 8c12 183d 2c8a a03c 6705 c1bc
000003a0: c108 ca3c 9a64 2b3d fa84 5c3c 1b2b e5bc
000003b0: a4b7 b13c bdf7 ca3c f919 ef3b 7249 d0bc
000003c0: e14e f3bb 82cd a83c c839 c53c f3ee 573c
000003d0: 6700 6d3c fda8 cd3a fea3 013d 8905 a23b
000003e0: e414 913c b826 b33c 93be ab3c 385a feba
000003f0: 5443 3b3c 37fb 933c 34a5 d13b d503 a0bc
-0.03815411 0.034024354 -0.024795238 0.032530595 -0.005037897 0.0006053125 0.04696685 0.04841209
-0.020322043 -0.024702325 0.046927545 -0.0032510206 0.0063588805 -0.027569951 -0.049869057 -0.029753257
-0.03043383 -0.04940421 -0.017728336 -0.0491875 0.06555455 -0.018389896 0.03620087 -0.03589876
-0.027000252 0.018192165 -0.0044277124 -0.0150758475 0.00971107 -0.022455877 -0.04601643 -0.009665174
-0.013170361 -0.03145676 -0.03848307 -0.035813585 -0.035229843 0.049706183 -0.013288646 -0.0402362
0.0474097 -0.048501797 0.036526825 -0.037553996 -0.0116859395 0.01731116 -0.014836827 -0.037737977
-0.032725256 -0.022511523 0.01007359 -0.00012715746 -0.006714216 -0.008974765 -0.054508258 -0.0017819987
-0.017650545 -0.014621567 -0.03525708 0.03720644 -0.04211648 -0.03227298 -0.0024268862 -0.02242229
0.039051868 -0.062080137 -0.025071489 0.0007873826 0.035290062 0.00702147 -0.039504506 -0.04366603
-0.010369612 -0.02597772 -0.024765627 -0.029358704 -0.051657055 -0.016216885 -0.006527657 0.0017155494
-0.055758093 -0.016741052 -0.024473412 -0.038634703 -0.015819563 -0.026737746 -0.021823691 -0.02522282
-0.032705996 -0.038255233 -0.043948106 -0.07677264 0.003427291 -0.05130022 0.015245436 -0.0037045968
-0.012840344 -0.0078308005 0.035148542 -0.015562466 -0.03941887 -0.006175197 -0.008986123 0.07433999
-0.0205772 0.014261825 -0.030169975 -0.029918864 -0.0030613933 -0.017722331 0.0068125864 -0.038206283
-0.020167096 -0.034650106 -0.06550201 -0.044012684 -0.011679183 -0.014602494 0.06569735 0.00092637516
-0.02617033 -0.06874915 0.009797522 -0.021277573 -0.011548087 -0.07354189 -0.0378481 -0.004574803
0.0189862 -0.0043547787 0.002268324 -0.05798255 0.035847347 -0.025715927 0.016297944 -0.0062040123
0.007839178 0.00014180847 -0.015258904 0.006823355 -0.0073184934 0.04050623 0.060797833 -0.0071016327
0.026827466 0.024194244 0.01601969 0.009645423 0.0095287 -0.035694744 0.012562179 0.0092101535
0.008932592 -0.022558315 0.0188001 0.030409329 -0.008283635 -0.015119532 0.01696764 -0.0028795204
-0.007658393 -0.023781938 -0.004928541 0.020082248 -0.015759785 0.009960762 0.04626593 -0.04866131
-0.028002106 0.02085353 -0.013859891 -0.037384376 0.035890743 0.028181456 -0.026748452 -0.016126731
0.06025482 0.030943621 -0.012227022 0.03505408 -0.013870267 -0.04355482 -0.023132995 -0.008339952
-0.00030826093 -0.002213733 0.086412184 -0.029903332 0.0040690606 0.024296582 0.018099757 0.089776725
0.007736313 0.018607082 0.0018077698 -0.008878113 0.014032791 0.076046236 0.019539628 -0.011987669
0.024238352 -0.0018599485 -0.013640709 -0.013591563 0.00482426 0.018852105 0.015661912 0.046132926
-0.017718341 -0.0041136434 -0.030269222 -0.013642902 -0.0012536738 0.028674431 0.0019749065 0.05259379
0.06464472 -0.026524954 0.031542793 -0.0046043536 -0.01698949 0.017673755 0.040907737 -0.017374264
-0.020787504 0.02723049 0.008593738 -0.012645671 0.005303099 0.037127063 0.019597135 -0.023562146
0.024662377 0.041843988 0.013459438 -0.027974656 0.021694012 0.024776334 0.0072967974 -0.025425646
-0.0074251746 0.020605806 0.024075404 0.0131795285 0.014465428 0.0015690621 0.031650536 0.0049445075
0.017710157 0.021869048 0.020964896 -0.0019405549 0.0114296265 0.018064125 0.0063978676 -0.019533077

action_model._discrete_distribution.branches.2.bias f4 [3]
00000000: edbe e83a 2196 00bc 1afb 1d3c
0.0017757096 -0.0078482935 0.009642387

action_model._discrete_distribution.branches.3.weight f4 [3, 128]
00000000: c935 2c3d 1832 803a a56e 433c b1f8 2a3d
00000010: fb39 413d f240 b2bb 3d49 f8bc 19dc 9fbc
00000020: 4605 2e3d f1df 29bc 6684 10bd 405a 953c
00000030: 7cf5 2abd 14e0 943a c047 663d d255 ab3c
00000040: 465c 553c d7be 8d3c 48c2 8a3c d1c5 d73b
00000050: 90b0 b43c 740f 0bbc 1a96 10bd 010a 7d3c
00000060: 28bb 1e3c 9aa3 7d3c 863f d93c 36d0 203d
00000070: 2a94 a1b9 bcf2 ee3c b0a5 0dbd 232b 34bc
00000080: 3aeb 10bb bfbc 80bd dd97 a73c ffad ee3c
00000090: af00 863b df56 03bd 018c 613d 704d 09bc
000000a0: a1f1 a9bc 9ba4 6f3d 5c5a d4bc d340 88ba
000000b0: 224a 3d3c 33b4 9f3c 5714 6d3d fb21 8d3c
000000c0: eb27 1ebd 3806 4b3d 053f ce3c 6239 adbc
000000d0: 0511 d73c 9a49 0abd c7ab e93c f760 803c
000000e0: 0f13 d73c db86 9bba 51a6 dc3c 7f64 8d3c
000000f0: 80b6 803c 90c1 793c f326 4e3c 27c5 a7bc
00000100: f6b5 1bbd 3815 863c 3602 47bc cf57 843c
00000110: bfdd 1cbd d044 593c 1dca 0b3d 35bc 243d
00000120: e635 9f3c 0769 0a3d 9f38 073c d486 113d
00000130: 121f 683d ac8a 3cbd f4e7 1d3d 2bb6 90bc
00000140: 0009 1dbd 8e62 8a3c 5d0c f3bb 7a69 d2bb
00000150: c030 323c e1e3 5b3d 1daa bf3b a0cb 493d
00000160: 53c3 f33c b29f 4ebd 11f8 a43c 5d76 293d
00000170: c5a1 483c c27c 693d 8541 9abc e322 c2bc
00000180: eb07 3a3c bce3 f83c 3109 763b 32dd b2bc
00000190: cbd6 983b 3654 5c3c eb9a 773d 7e4d 21bc
000001a0: 3370 123b 6512 053d 8192 a43c e3df 2abb
000001b0: 27f2 413d d07f 343d 6591 c1ba 1aac 8f3c
000001c0: 7a9a 473b cc3f 433c f780 61bd 58ca 6b3c
000001d0: 23b3 223d 09aa 2b3d 97e5 fe3b 86af 58bd
000001e0: a52b c93c b45c f8bc 7c59 9abc 8cae 6a3c
000001f0: 550a babc cb57 50bc e4b2 ac3c 5cd2 863d
00000200: 2597 07bd 83b4 423c 5618 e9bc 8808 33bd
00000210: 4f17 17bd 88a2 dfbc 0be6 c3bc 6019 5a3c
00000220: eb4c 8ebc 3aa9 d63c 2237 ed3c f3de 973c
00000230: ab50 36bb 00d4 37bd 3622 bebc c905 bbbc
00000240: 8bd5 853c 8aad 313c 8e18 54bc 31dd 9b3c
00000250: cd08 a03b f05c f3bb fb71 15bd b463 973a
00000260: 5f06 023d b1c8 bc3b 6477 47bc 781b e9bc
00000270: 3f37 edbb b45e 673b 29b4 91bc 8396 3f3c
00000280: e431 bd3b 8378 85bc 961b 16bc 7bbb 363c
00000290: f6ce 15bd e6c1 47bc 375a c0bc d96e 783c
000002a0: 53a6 a13c 0f03 4cbc a038 9a3b 3abb 2ebc
000002b0: bf36 1fbc b597 01bb 3816 66bc 270e a2bb
000002c0: 2d09 18bb 41fb fc3b 0ee2 393b 4c55 b6bc
000002d0: bfcd 1dbc 8ae2 e93c 16be f33b 8c4f 46bb
000002e0: b294 9cbc 1023 1fbc db17 1dbc 96ce 2f3b
000002f0: 7b03 a93c 4db2 523c 6ef0 66bd f0ff 4bbc
00000300: e524 943b 5a16 f43c 56f6 963c dc8f 8abc
00000310: c60c b5bc 81fc ecbc 30e1 3abc 71e6 1cbd
00000320: 8093 913b 1067 5fbc bd36 d73c bc94 9bbc
00000330: ecf0 3dbd 3d38 083c 8e5d 38bc 0c78 9dbc
00000340: 2cd9 00bc 15ff ea3b 8b95 8d3c 4232 0bbc
00000350: 19d4 50bc 537e 6dbc 918d 20bd a719 91bc
00000360: e992 40bd e1ec 0e3d 023f ecbb e075 8ebc
00000370: 40b9 ce3c 1a06 473c fb90 2fbb 63fe 20bd
00000380: 5218 4bbc 9872 dcbb 90f6 dfbb 9268 253d
00000390: 5ff3 b2bc 1204 e7bc e11b a8bc 828f b0bc
000003a0: 6b8a 3cbc 3fe6 5fbc 070b 3bbc 197d b2bb
000003b0: 94cf d0bb 2ec7 16bd 84c7 9ebc 8b0a 36bc
000003c0: 2da8 093c d486 6e3b 35e2 273c 27d9 393c
000003d0: c6eb 08bd 1e44 2ebc 1bfc 67bd f003 80bc
000003e0: e146 b5bb e86b 3f3b 7292 0cbd e3cb 15bc
000003f0: 1b28 00bc 861c 653c 7b3f ff3b 0bcf 55bd
0.04204348 0.0009780554 0.011928235 0.041741077 0.047174435 -0.005439871 -0.03030836 -0.01951413
0.042485498 -0.010368333 -0.035282515 0.018231511 -0.04173802 0.0011358284 0.05622077 0.020914946
0.013022488 0.017302914 0.016938344 0.006584861 0.022056848 -0.008487571 -0.035299398 0.01544428
0.009688176 0.0154809 0.026519548 0.039261065 -0.00030818704 0.02916848 -0.03458184 -0.010996613
-0.0022112862 -0.062860005 0.020458156 0.029135702 0.004089437 -0.03206527 0.05506516 -0.008380279
-0.0207451 0.05850659 -0.025921993 -0.0010395296 0.011553319 0.019495105 0.057880726 0.017228117
-0.038612287 0.049566478 0.025176534 -0.021145526 0.026253233 -0.0337616 0.028524293 0.015671236
0.026254205 -0.0011865752 0.026934775 0.017259834 0.015712023 0.015243903 0.012582528 -0.020479752
-0.03801533 0.01636754 -0.012146523 0.016155152 -0.03829741 0.013261035 0.034128297 0.04021855
0.01943488 0.033791568 0.008253246 0.035528973 0.056670256 -0.046030685 0.038551286 -0.01766499
-0.03833866 0.016892698 -0.0074172453 -0.006421265 0.010875881 0.05368412 0.0058491365 0.049266458
0.029756224 -0.050445266 0.020137819 0.041372646 0.0122456 0.057003744 -0.01883007 -0.023698276
0.011354427 0.03038203 0.00375421 -0.02183399 0.004664277 0.013447812 0.060450476 -0.009845136
0.0022344708 0.032488246 0.02008939 -0.0026073388 0.047350075 0.044067204 -0.0014768062 0.01753812
0.0030457065 0.011917066 -0.05505463 0.014391504 0.03972162 0.041910205 0.007778834 -0.052901767
0.024556944 -0.030317642 -0.018841498 0.014323842 -0.022710005 -0.012716244 0.021081395 0.065830916
-0.033103127 0.011883858 -0.028453987 -0.043709308 -0.036887463 -0.02729918 -0.023913404 0.013311714
-0.017370662 0.02620374 0.028956953 0.018538928 -0.0027819078 -0.044879913 -0.023209672 -0.022829907
0.016337177 0.010844598 -0.012945307 0.01902637 0.0048838616 -0.0074268505 -0.036485653 0.00115501
0.031744357 0.005761229 -0.012174461 -0.028455481 -0.007239252 0.003530425 -0.017786102 0.0116936
0.0057737697 -0.016292816 -0.00916185 0.011153097 -0.036574326 -0.012192225 -0.023480518 0.015163147
0.01973263 -0.012451901 0.0047064573 -0.0106647555 -0.009717642 -0.0019774262 -0.014043383 -0.0049455347
-0.0023198829 0.0077203815 0.00283635 -0.02225747 -0.009631573 0.028550405 0.0074384315 -0.0030259816
-0.019113872 -0.009712949 -0.009588207 0.0026826016 0.020631542 0.012859893 -0.056381635 -0.012451157
0.0045209997 0.029795814 0.018428009 -0.0169143 -0.022100817 -0.028928997 -0.011406228 -0.038305704
0.004442632 -0.013635412 0.026271218 -0.01899182 -0.04637234 0.0083141895 -0.011252774 -0.019222282
-0.007864278 0.0071715214 0.017283222 -0.008495869 -0.0127458805 -0.01449545 -0.03919751 -0.017712427
-0.047015104 0.034893874 -0.0072096596 -0.017390192 0.025234818 0.012147451 -0.0026789296 -0.039305102
-0.012395935 -0.006727528 -0.0068348125 0.04038293 -0.021844564 -0.028200183 -0.020521106 -0.021552805
-0.011507611 -0.013665735 -0.011416203 -0.0054470417 -0.0063724015 -0.036811046 -0.019382246 -0.011110912
0.008401913 0.0036396282 0.010246803 0.011343277 -0.033427976 -0.010636358 -0.05663691 -0.015626878
-0.005532131 0.0029208604 -0.03431935 -0.009142849 -0.007822062 0.013983851 0.00778955 -0.052199405

action_model._discrete_distribution.branches.3.bias f4 [3]
00000000: c29e e53b 03f8 463c 4956 e0bb
0.007007451 0.012144092 -0.0068462235
