ArmRobot/Assets/results/curriculum1/TouchCubeMoveGail/TouchCubeMoveGail-17499985.pt (torch, 790615 bytes, 75 tensors)

network_body.linear_encoder.seq_layers.0.weight f4 [128, 105]
-0.038739882 -0.09190906 0.027022181 -0.04429172 0.06881657 -0.010818489 0.0603819 -0.07549614
0.2504379 0.13301003 -0.13850915 -0.10783027 -0.13999408 -0.1325036 -0.24211144 0.17573568
0.07653291 -0.14474298 -0.07883589 0.07488715 0.11747512 0.022455085 -0.057370692 -0.025446182
0.057318475 0.028628897 -0.13428377 -0.06696667 0.02733655 -0.07687438 -0.13878621 -0.20750028
0.15810697 -0.14037798 0.01204724 -0.09171433 0.05995508 -0.17210974 -0.21052596 -0.098317996
0.1433116 -0.030740311 -0.04531407 -0.13882141 -0.05779698 -0.18248247 -0.109551884 0.027633289
-0.2345233 0.012058966 0.0758739 -0.21732686 -0.2559141 -0.059110858 0.13256754 -0.31269026
-0.01753434 0.28661308 0.034156688 -0.21887863 -0.08584319 -0.009844333 -0.3799466 -0.14655764
0.06759847 0.034913916 -0.25909206 -0.1525469 -0.049812432 -0.42995337 0.1098473 -0.2512269
0.111671284 0.13408715 -0.22331461 -0.15451388 -0.13836326 -0.28727832 -0.06816233 0.023188835
-0.20620434 -0.18333377 -0.10504615 -0.07586079 -0.11270664 0.0046578096 0.073656015 0.20394558
0.22646493 -0.7021924 -0.056457542 0.065939106 -0.2215571 1.0119232 0.08724798 -0.31211594
-0.16192661 -0.031815015 -0.07866363 -0.11186108 -0.027424306 -0.17885485 -0.009560658 0.20771311
-0.10870656 0.027178956 -0.015280076 0.05224158 -0.109282926 0.113265246 -0.06370876 0.09719089
-0.10719634 -0.13166907 0.072669916 -0.20397107 0.015626738 0.2082524 0.17354341 0.12077359
-0.0007764912 0.024608301 0.2452965 -0.1765827 0.066063 0.09985409 0.13937494 -0.18859789
0.08648838 -0.08529395 0.0514257 0.0009621964 -0.19817732 0.09034919 -0.12136991 0.07175546
0.029281454 0.10353449 -0.1888982 0.022080358 0.042320687 -0.02622261 0.14184625 -0.071205445
-0.048703816 0.08853238 0.020350052 0.005305469 -0.24665184 -0.15832978 -0.0003858161 0.010094653
0.021537293 -0.059239134 0.1804976 -0.396651 -0.08633386 -0.07241931 0.056419596 -0.16234353
-0.021623053 0.11436232 -0.48855236 -0.2785756 -0.060888376 0.17576097 0.06631781 0.063584834
0.057595447 -0.6387061 -0.046964206 -0.11177208 0.20966431 -0.029325988 -0.0974248 -0.07811772
0.0647265 0.21309806 -0.03269001 -0.0345629 -0.005303151 -0.09950157 -0.038806587 -0.02607934
-0.0073953304 0.06074168 0.0015728637 0.06148545 0.10116475 -0.11082602 0.03942061 0.094294846
-0.051821116 -0.046227973 0.45424196 0.0988998 -0.25570872 0.08270148 -0.6448564 0.36130747
0.2610027 -0.16940433 -0.11393893 -0.24022697 0.037425477 -0.0508768 -0.027154082 -0.13705789
0.032032955 -0.11730717 -0.11527746 -0.026329098 0.095105544 0.07226112 -0.19044365 0.035867997
-0.17432901 -0.16756652 -0.20977005 -0.00047465862 -0.07630879 -0.028194604 -0.028583216 -0.12168467
0.13321397 -0.1367725 -0.020743262 0.019192278 -0.24781404 0.25057277 0.031500384 0.11305314
0.08394655 -0.075008996 0.02327612 -0.16535643 -0.004011538 0.044807572 0.058557484 0.09723067
0.11050015 -0.1768402 -0.07527299 -0.009480909 0.034027305 0.060765803 0.23894085 0.16735396
0.06139655 -0.11707819 -0.16718048 0.025117531 0.14839357 0.05586796 0.006331294 -0.026099443
00000000: b6ad 1ebd d13a bcbd 9f5d dd3c 3c6b 35bd
00000010: b4ef 8c3d 0840 31bc 0353 773d b89d 9abd
00000020: 6539 803e c833 083e 58d5 0dbe 1ed6 dcbd
00000030: 9c5a 0fbe 06af 07be 10ec 77be 0ef4 333e
00000040: 49bd 9c3d 8137 14be b674 a1bd 6f5e 993d
00000050: cc96 f03d baf3 b73c 88fd 6abd 8374 d0bc
00000060: c7c6 6a3d 2687 ea3c af81 09be d225 89bd
00000070: e7f0 df3c 5170 9dbd f91d 0ebe f47a 54be
00000080: cbe6 213e 3fbf 0fbe c961 453c b9d4 bbbd
00000090: 7593 753d 893d 30be 1e94 57be f25a c9bd
000000a0: 47c0 123e 1bd3 fbbc 3f9b 39bd 3327 0ebe
000000b0: 87bc 6cbd afdc 3abe bd5c e0bd 355f e23c
000000c0: e026 70be f892 453c c663 9b3d ef8a 5ebe
000000d0: 2c07 83be 3a1e 72bd c9bf 073e f018 a0be
000000e0: 2da4 8fbc f3be 923e e2e7 0b3d b821 60be
000000f0: 8ece afbd 204a 21bc 5c88 c2be 3513 16be
00000100: 1171 8a3d e501 0f3d b7a7 84be 4135 1cbe
00000110: 1f08 4cbd d922 dcbe 9ff7 e03d d0a0 80be
00000120: eab3 e43d 244e 093e 96ac 64be e338 1ebe
00000130: 19af 0dbe 2516 93be b198 8bbd 83f6 bd3c
00000140: 3b27 53be d9bb 3bbe 7022 d7bd e75c 9bbd
00000150: bdd2 e6bd 8aa0 983b f7d8 963d 1cd7 503e
00000160: 6ce6 673e e2c2 33bf 0640 67bd 150b 873d
00000170: dddf 62be b386 813f 12af b23d a9cd 9fbe
00000180: 17d0 25be 7650 02bd 661a a1bd 6c17 e5bd
00000190: f0a8 e0bc ba25 37be 4ea4 1cbc bfb2 543e
000001a0: 8ca1 debd 67a6 de3c 4959 7abc 44fb 553d
000001b0: bacf dfbd 9cf7 e73d bd79 82bd 040c c73d
000001c0: c189 dbbd 42d4 06be f7d3 943d cbdd 50be
000001d0: a503 803c 1e40 553e 5db5 313e 2558 f73d
000001e0: 718d 4bba 5997 c93c 012f 7b3e 18d2 34be
000001f0: 0a4c 873d 4d80 cc3d 4eb8 0e3e ce1f 41be
00000200: d220 b13d 98ae aebd c1a3 523d e83b 7c3a
00000210: ffee 4abe ff08 b93d ca90 f8bd 87f4 923d
00000220: a9df ef3c e409 d43d 886e 41be dee1 b43c
00000230: 7558 2d3d cdd0 d6bc 2540 113e 29d4 91bd
00000240: a77d 47bd 7750 b53d 27b5 a63c 80d9 ad3b
00000250: 4d92 7cbe 3421 22be 5c47 cab9 0b64 253c
00000260: fa6e b03c bca4 72bd 5dd4 383e d715 cbbe
00000270: cfcf b0bd 9350 94bd 3c18 673d 623d 26be
00000280: d422 b1bc cb36 ea3d 8923 fabe 76a1 8ebe
00000290: 1766 79bd affa 333e a2d1 873d c438 823d
000002a0: 34e9 6b3d 3e82 23bf 8a5d 40bd c3e8 e4bd
000002b0: 3eb2 563e 0e3d f0bc a786 c7bd 2ffc 9fbd
000002c0: 548f 843d 6136 5a3e f6e5 05bd d491 0dbd
000002d0: 0ec6 adbb 7bc7 cbbd a8f3 1ebd 57a4 d5bc
000002e0: 8754 f2bb 45cc 783d 8c28 ce3a 2bd8 7b3d
000002f0: 772f cf3d c1f8 e2bd 8177 213d a81d c13d
00000300: 6142 54bd 8b59 3dbd 6792 e83e fa8b ca3d
00000310: 41ec 82be 655f a93d 4f15 25bf 4bfd b83e
00000320: 25a2 853e 5478 2dbe d058 e9bd 0ffe 75be
00000330: 754b 193d 3164 50bd 3d72 debc e758 0cbe
00000340: fd34 033d be3e f0bd 9716 ecbd 1fb0 d7bc
00000350: b2c6 c23d a3fd 933d a903 43be 52ea 123d
00000360: 4e83 32be 8f96 2bbe f6cd 56be 9adb f8b9
00000370: c847 9cbd 5ff8 e6bc 5927 eabc d035 f9bd
00000380: 3e69 083e 170e 0cbe c6ed a9bc 2039 9d3c
00000390: f7c2 7dbe 134b 803e 8c06 013d 6888 e73d
000003a0: 2bec ab3d 519e 99bd 90ad be3c 3253 29be
000003b0: 3873 83bb 2588 373d f9d9 6f3d e020 c73d
000003c0: e74d e23d 9915 35be ba28 9abd d155 1bbc
000003d0: 3760 0b3d 90e5 783d e9ac 743e d65e 2b3e
000003e0: f37a 7b3d b1c6 efbd 5c31 2bbe 48c3 cd3c
000003f0: 7cf4 173e cdd5 643d be76 cf3b 80ce d5bc

network_body.linear_encoder.seq_layers.0.bias f4 [128]
0.18538399 -0.023117041 -0.124331184 0.18272139 0.07070755 0.011613626 -0.06764848 0.31982654
0.0525218 -0.09292731 0.11344443 0.097757086 0.16663086 0.21089919 0.35966858 0.18502674
-0.12211317 -0.05032435 0.043160703 -0.057597738 -0.0860909 0.19689551 0.121867284 -0.06179001
-0.123455025 -0.023329334 0.041313764 -0.096460685 -0.07988664 -0.12533885 0.16518052 0.035934694
0.3400006 0.23000959 0.14176911 0.19049706 -0.026481695 0.08603002 -0.07655841 -0.14463516
0.264083 -0.014604541 0.24980864 -0.064894184 -0.12078868 -0.10523909 0.30940318 -0.09661658
0.17357203 -0.0062978193 -0.1295572 -0.032222614 0.02344903 -0.06619743 0.14602494 0.19629101
0.055486586 0.05092588 -0.13795969 -0.009406176 -0.10558986 0.11045953 0.28460935 -0.16313477
-0.08728311 0.06506627 0.1264394 -0.028337538 -0.029385459 -0.012928299 0.03141231 -0.059715495
-0.10454137 0.25425914 0.11239922 -0.092401475 -0.06567135 0.042277552 0.32134923 0.22886425
-0.13695914 0.1426493 -0.027134413 -0.14235748 0.074612126 0.017330825 0.26165766 -0.02400936
0.20841974 -0.08623419 -0.009699927 -0.02564337 -0.07247386 0.39803126 -0.018865077 -0.13090475
-0.116448544 0.02002859 0.011165886 -0.123652026 -0.030947942 0.01553023 -0.014781119 -0.11612581
0.12365929 0.2862167 -0.07040989 0.01116678 0.014950959 -0.05768036 0.1614636 0.10600163
0.19992428 0.008605899 0.01952137 0.039513864 0.17407258 0.24451667 0.12281219 0.28159526
0.26741374 -0.036541097 0.11171682 0.091539584 -0.06883343 0.18496224 0.15837376 -0.06722933
00000000: 4dd5 3d3e f35f bdbc 59a1 febd 511b 3b3e
00000010: 1fcf 903d 1447 3e3c 498b 8abd 4ec0 a33e
00000020: 1921 573d ac50 bebd 8e55 e83d de34 c83d
00000030: 48a1 2a3e f5f5 573e 7b26 b83e a677 3d3e
00000040: 7816 fabd e820 4ebd 47c9 303d 9beb 6bbd
00000050: 6d50 b0bd fa9e 493e 8e95 f93d 8617 7dbd
00000060: fdd5 fcbd 291d bfbc 9f38 293d 2e8d c5bd
00000070: 9b9b a3bd d458 00be 1525 293e 4230 133d
00000080: 8f14 ae3e a287 6b3e ec2b 113e a911 433e
00000090: 24f0 d8bc 8230 b03d a8ca 9cbd 3d1b 14be
000000a0: e335 873e e247 6fbc d6cd 7f3e 3ee7 84bd
000000b0: 0e60 f7bd 9887 d7bd 186a 9e3e eade c5bd
000000c0: debc 313e f05d cebb a5aa 04be dcfb 03bd
000000d0: 2e18 c03c 8592 87bd 9087 153e 8300 493e
000000e0: e745 633d a897 503d 4e45 0dbe 5d1c 1abc
000000f0: 7f3f d8bd 9b38 e23d 51b8 913e cd0c 27be
00000100: 7dc1 b2bd 7741 853d 5479 013e 2024 e8bc
00000110: c6b9 f0bc 37d1 53bc 32aa 003d 3c98 74bd
00000120: c919 d6bd 412e 823e 9031 e63d fc3c bdbd
00000130: b37e 86bd 3a2b 2d3d e387 a43e 645b 6a3e
00000140: 043f 0cbe a812 123e fd48 debc 29c6 11be
00000150: 3ece 983d 60f9 8d3c fef7 853e 47af c4bc
00000160: fc6b 553e 8d9b b0bd 71ec 1ebc 0b12 d2bc
00000170: 2d6d 94bd c1ca cb3e ef8a 9abc e50b 06be
00000180: 937c eebd ff12 a43c 1ff1 363c 463d fdbd
00000190: 8a86 fdbc 8172 7e3c 822c 72bc 5ed3 edbd
000001a0: 1541 fd3d ff8a 923e 0f33 90bd dff4 363c
000001b0: def4 743c 3e42 6cbd b756 253e 6217 d93d
000001c0: f3b8 4c3e c2ff 0c3c 48eb 9f3c 4ad9 213d
000001d0: 1540 323e 9462 7a3e f584 fb3d 412d 903e
000001e0: 74ea 883e 1eac 15bd cacb e43d 1b79 bb3d
000001f0: 8bf8 8cbd be66 3d3e bb2c 223e 88af 89bd

network_body.linear_encoder.seq_layers.2.weight f4 [128, 128]
-0.021851966 -0.15838614 0.14421524 0.051628742 0.11961232 0.08497795 0.076891296 -0.37951672
-0.057134237 0.20169911 -0.080492586 0.20002654 -0.08956426 -0.25993663 -0.12694599 -0.12949328
0.14776541 0.10359301 0.057516705 0.06669831 0.1401668 -0.15043058 -0.027463686 0.20068942
0.115976125 0.021289324 -0.17644243 0.12525558 0.06933029 0.043723017 -0.14121674 -0.09710277
-0.19737396 -0.16100891 0.12914796 -0.33859172 0.035564035 -0.0031871716 0.018105734 0.10092002
-0.18305524 -0.0020237823 -0.013657813 -0.06337192 -0.09358556 0.0774042 0.04233818 0.13552245
-0.19264549 -0.03823145 0.017344736 -0.057912167 0.020044344 0.22704394 -0.21939549 0.038362347
-0.10579323 0.085190944 -0.055895694 -0.07789906 -0.044647187 0.09580331 0.056800667 0.19199581
0.053953253 0.017999487 0.00023334769 0.032524582 0.14371912 0.0017966796 -0.040001206 0.16568054
0.17304693 -0.2408097 -0.005449702 0.2917345 0.1688794 -0.038401395 0.05837664 0.0074777575
0.065418355 -0.15000524 -0.08227404 0.038535707 -0.06839962 0.032794673 -0.44501147 0.04534327
-0.14122343 0.12888046 -0.0114485 0.094549656 0.15318124 -0.2500473 -0.08048045 0.06745701
0.09463299 0.09884862 -0.18148029 0.045391157 0.044395566 -0.122230284 -0.03853711 0.12843266
-0.0630508 -0.2225234 0.014469038 -0.07876804 -0.29598433 0.19534448 -0.05321537 -0.024384478
-0.033986498 0.07800518 -0.03769867 -0.07114588 -0.1007047 -0.46744028 0.11363537 -0.30631855
0.061401427 0.11204163 0.03169995 0.11403511 -0.160732 -0.24013563 -0.14526308 0.13687557
-0.02032251 -0.17755218 0.0021227242 -0.023387544 -0.34203574 -0.08075994 0.1637713 -0.4424923
0.014064019 0.13248296 -0.47297212 -0.05728785 -0.099564135 -0.19750133 -0.10981063 -0.19150692
-0.032370325 0.08346507 0.057358503 0.15179694 -0.05310078 -0.2495704 -0.09731308 -0.06259934
0.15255672 -0.096662275 -0.020280493 0.20667306 0.2653566 0.08762689 0.11950247 -0.18167788
-0.31002536 -0.10861855 -0.04577654 -0.12989375 0.17112614 0.00017573884 -0.0417105 0.117546156
-0.22292027 -0.09003999 -0.20522453 0.1578588 0.15205766 0.1025169 -0.19186106 0.045480534
-0.50799114 0.12554629 0.095759906 -0.14010338 -0.11136464 0.0674724 -0.10001278 -0.0663629
-0.17109472 0.1373697 -0.049783647 0.048223983 0.1560395 0.106484994 -0.095096424 0.2815914
-0.10377242 -0.010795255 -0.075840324 -0.10490075 0.048502676 0.016095242 0.09395667 -0.07217332
0.040089417 -0.24342185 -0.17239851 0.21181904 -0.033650257 -0.1473388 -0.104639314 -0.10452224
0.14821698 -0.28184494 0.15791222 0.16859329 -0.03167861 -0.0142843 -0.2940147 0.046014477
0.02311658 0.2653375 -0.1454296 -0.0060608024 -0.028871423 -0.4263432 -0.09153502 0.14098282
0.20494932 -0.07120537 -0.02807843 0.18023121 0.025172807 -0.14214842 -0.27927038 0.0577681
-0.045489024 -0.35031644 0.04130729 -0.077177264 -0.047810424 0.082915746 -0.1319847 -0.09719298
-0.2896128 0.28385624 -0.1792576 -0.04674548 -0.3950705 -0.23610222 -0.23587483 -0.18712991
-0.005674749 0.022619523 -0.1128901 -0.1223198 0.19912763 -0.2713713 0.041098166 0.12004953
00000000: e502 b3bc fa2f 22be 29ad 133e a978 533d
00000010: 4ef7 f43d eb08 ae3d 2f79 9d3d 0450 c2be
00000020: 9705 6abd 368a 4e3e 4cd9 a4bd c2d3 4c3e
00000030: 776d b7bd 6a16 85be 21fe 01be e399 04be
00000040: d14f 173e 9228 d43d a396 6b3d 2099 883d
00000050: e387 0f3e 790a 1abe 86fb e0bc 8781 4d3e
00000060: e484 ed3d f366 ae3c 53ad 34be 0043 003e
00000070: 0afd 8d3d e816 333d 1f9b 10be d1dd c6bd
00000080: 661c 4abe 85df 24be 5d3f 043e e55b adbe
00000090: 98ab 113d dedf 50bb 7a52 943c 28af ce3d
000000a0: d572 3bbe 6fa1 04bb 05c5 5fbc 23c9 81bd
000000b0: c9a9 bfbd 1886 9e3d cd6a 2d3d 66c6 0a3e
000000c0: dc44 45be 9598 1cbd 8c16 8e3c 4f35 6dbd
000000d0: 0934 a43c 357e 683e 36a9 60be d621 1d3d
000000e0: 1faa d8bd 9778 ae3d e2f2 64bd 8b89 9fbd
000000f0: f8df 36bd 8734 c43d d1a7 683d 8d9a 443e
00000100: 16fe 5c3d a973 933c cbae 7439 7f38 053d
00000110: 1b2b 133e 907e eb3a 4ed8 23bd 29a8 293e
00000120: 3733 313e d196 76be 6a93 b2bb 395e 953e
00000130: b9ee 2c3e c84a 1dbd 581c 6f3d fa07 f53b
00000140: 0ffa 853d f99a 19be 4b7f a8bd 9ed7 1d3d
00000150: 1a15 8cbd b553 063d 8bd8 e3be ddb9 393d
00000160: e09c 10be 3df9 033e 7d92 3bbc 40a3 c13d
00000170: 8bdb 1c3e 3306 80be efd2 a4bd e726 8a3d
00000180: f1ce c13d 2571 ca3d f8d5 39be 14ec 393d
00000190: 20d8 353d df53 fabd 17d9 1dbd da83 033e
000001a0: c720 81bd 2ddd 63be 8b0f 6d3c 2351 a1bd
000001b0: 428b 97be 6208 483e 5cf8 59bd f5c1 c7bc
000001c0: 6d35 0bbd 2ec1 9f3d ec69 1abd eeb4 91bd
000001d0: 443e cebd 5554 efbe a9b9 e83d c9d5 9cbe
000001e0: 1080 7b3d 1576 e53d cfd7 013d 3d8b e93d
000001f0: ee96 24be 1de6 75be d8bf 14be 1c29 0c3e
00000200: 647b a6bc 3dd0 35be 671d 0b3b 3c97 bfbc
00000210: 4f1f afbe 7865 a5bd aab3 273e 5a8e e2be
00000220: c56c 663c 9da9 073e 6729 f2be aaa6 6abd
00000230: 48e8 cbbd ca3d 4abe 65e4 e0bd 641a 44be
00000240: bf96 04bd bcef aa3d c0f0 6a3d a870 1b3e
00000250: 3480 59bd 628f 7fbe 154c c7bd 1534 80bd
00000260: d437 1c3e dff6 c5bd 4723 a6bc 1aa2 533e
00000270: d2dc 873e ba75 b33d b6bd f43d c409 3abe
00000280: a5bb 9ebe 6773 debd 2e80 3bbd de02 05be
00000290: b13b 2f3e 8946 3839 a1d8 2abd 0abc f03d
000002a0: 3645 64be e366 b8bd 6126 52be bda5 213e
000002b0: 01b5 1b3e 61f4 d13d 3a77 44be cc49 3a3d
000002c0: b50b 02bf 358f 003e c51d c43d 4377 0fbe
000002d0: 2513 e4bd f82e 8a3d 80d3 ccbd 46e9 87bd
000002e0: 7433 2fbe a5aa 0c3e f0e9 4bbd 8386 453d
000002f0: d2c8 1f3e ce14 da3d eac1 c2bd bf2c 903e
00000300: a286 d4bd 95de 30bc 2c52 9bbd 34d6 d6bd
00000310: beaa 463d 2bda 833c 5b6c c03d 9bcf 93bd
00000320: cd34 243d 9443 79be 3c89 30be 17e7 583e
00000330: dad4 09bd fbdf 16be 234d d6bd c20f d6bd
00000340: 31c6 173e fb4d 90be beb3 213e b8a3 2c3e
00000350: 6ec1 01bd b208 6abc 1889 96be ad79 3c3d
00000360: fb5e bd3c 51da 873e 7feb 14be b299 c6bb
00000370: c383 ecbc a849 dabe b676 bbbd cd5d 103e
00000380: 3cde 513e 1fd4 91bd bc04 e6bc 888e 383e
00000390: 3437 ce3c 5b8f 11be 87fc 8ebe 3e9e 6c3d
000003a0: b352 3abd ad5c b3be d531 293d 1d0f 9ebd
000003b0: ddd4 43bd bbcf a93d ff26 07be 1d0d c7bd
000003c0: 2148 94be 9b55 913e 4e8f 37be 3078 3fbd
000003d0: ae46 cabe c8c4 71be 2c89 71be fc9e 3fbe
000003e0: 3ff3 b9bb 944c b93c ed32 e7bd ce82 fabd
000003f0: 1de8 4b3e 2ef1 8abe 8d56 283d 87dc f53d

network_body.linear_encoder.seq_layers.2.bias f4 [128]
-0.004481645 -0.050674144 -0.020838797 -0.06685092 -0.022933902 -0.029393148 -0.050689254 0.021724733
-0.04505848 -0.09617214 -0.041588303 -0.11709857 0.0014128261 0.06958819 -0.05486808 -0.08879786
0.10406984 0.025939373 -0.03999645 0.009317823 -0.036915712 -0.06186597 -0.044585995 -0.088268444
-0.052801054 -8.544584e-05 -0.058618005 0.005363132 0.013261399 -0.08402933 -0.101282075 -0.05954282
-0.072692834 -0.067893274 0.016163804 -0.028712902 -0.04170909 -0.003302627 0.008139237 0.009868848
-0.032076765 -0.03861001 -0.0260062 -0.07831432 -0.024551028 -0.028115269 -0.017796619 0.011079845
-0.030756127 -0.01928577 -0.016191814 -0.018255478 -0.022709223 -0.0036234513 0.019968297 -0.007684694
-0.011940222 -0.036684513 0.014329248 0.037327424 -0.08373935 -0.03404754 0.06120437 -0.012575532
-0.026696626 -0.055017497 -0.05892105 -0.08712618 -0.082481615 -0.058929723 0.058057934 -0.0071994327
-0.039945718 -0.007321897 -0.038686804 -0.007490277 -0.058277655 -0.0743353 -0.013220971 -0.069957994
-0.08882033 -0.09612056 0.0093665095 -0.029843932 -0.090217255 -0.051052563 -0.018645504 -0.020967478
-0.059016015 -0.04878138 -0.05629405 0.010994587 -0.09718593 0.055144407 -0.024547026 -0.05217411
-0.013869823 -0.10204214 -0.02178933 -0.017396409 0.031506814 0.010285453 0.059211574 -0.029254321
-0.06357195 -0.09832662 -0.009996576 0.003693759 0.03951882 -0.060455415 -0.05428893 -0.10064786
-0.040268935 -0.047696766 -0.052351147 -0.020572959 0.074977554 -0.045639686 -0.034226988 -0.044770624
-0.040957753 0.017274637 -0.043706182 -0.005031632 -0.041300822 -0.003014196 -0.049782153 -0.011662602
00000000: c3da 92bb b18f 4fbd 20b6 aabc 23e9 88bd
00000010: e1df bbbc e6c9 f0bc 899f 4fbd 11f8 b13c
00000020: 3e8f 38bd e6f5 c4bd 7f58 2abd 60d1 efbd
00000030: 942e b93a 4184 8e3d 5abd 60bd a7db b5bd
00000040: 9122 d53d cf7e d43c 51d3 23bd c8a9 183c
00000050: ee34 17bd 2c67 7dbd ce9f 36bd 16c6 b4bd
00000060: eb45 58bd 6331 b3b8 6f19 70bd 36bd af3b
00000070: 5746 593c 9217 acbd fa6c cfbd 2ce3 73bd
00000080: fbdf 94bd a10b 8bbd f469 843c 5237 ebbc
00000090: 27d7 2abd e370 58bb 6f5a 053c f3b0 213c
000000a0: ed62 03bd 8825 1ebd f40a d5bc 4263 a0bd
000000b0: 3d1f c9bc fe51 e6bc 37ca 91bc 3d88 353c
000000c0: 46f4 fbbc 31fd 9dbc b2a4 84bc 838c 95bc
000000d0: b108 babc 6d77 6dbb 8e94 a33c e3cf fbbb
000000e0: eca0 43bc 8042 16bd 39c5 6a3c a4e4 183d
000000f0: 897f abbd 6f75 0bbd 6fb1 7a3d 9b09 4ebc
00000100: e2b2 dabc 075a 61bd 3357 71bd 366f b2bd
00000110: 1fec a8bd 4b60 71bd 28ce 6d3d 38e9 ebbb
00000120: 1f9e 23bd 86ec efbb 0e76 1ebd ff70 f5bb
00000130: 8db4 6ebd 1b3d 98bd c69c 58bc 2346 8fbd
00000140: 6fe7 b5bd dbda c4bd fd75 193c 437b f4bc
00000150: d3c3 b8bd 7e1c 51bd 75be 98bc fdc3 abbc
00000160: c7ba 71bd fcce 47bd 9794 66bd a422 343c
00000170: 6b09 c7bd 1adf 613d d816 c9bc 85b4 55bd
00000180: 413e 63bc 78fb d0bd 897f b2bc ea82 8ebc
00000190: 4a0d 013d 5184 283c d687 723d c2a6 efbc
000001a0: 0332 82bd 785f c9bd aec8 23bc fe12 723b
000001b0: 7cde 213d 19a0 77bd 125e 5ebd 7720 cebd
000001c0: 0af1 24bd af5d 43bd 286e 56bd 9f88 a8bc
000001d0: d58d 993d aef0 3abd 9931 0cbd 6761 37bd
000001e0: 51c3 27bd 8a83 8d3c 4105 33bd 63e0 a4bb
000001f0: 0d2b 29bd d189 45bb 5fe8 4bbd 8014 3fbc

action_model._discrete_distribution.branches.0.weight f4 [3, 128]
0.10723882 0.015731856 0.0077717993 0.06090262 -0.13895008 -0.24746127 0.16579464 -0.053810406
0.04565831 -0.06780974 -0.107624575 -0.16443926 -0.07827021 -0.18656644 -0.06484487 -0.051320788
0.089054905 0.06795786 0.035012364 -0.11302037 -0.085107155 -0.10096251 -0.013109053 -0.08514678
-0.044703048 0.10144868 0.15601915 -0.16281016 -0.025328845 -0.088301785 -0.26194745 -0.023469979
0.05289508 -0.029616479 0.0081307255 -0.18096323 0.036262553 0.06736996 -0.03459308 0.001585538
0.09253143 -0.012836698 0.008312061 -0.063173056 -0.017325865 0.031622585 -0.0576532 0.034340724
0.076002456 -0.18921433 -0.10885355 -0.08004498 0.015096446 -0.035595752 -0.0776655 -0.041231483
0.06861093 0.028196098 -0.05456175 -0.04405475 -0.21758375 -0.061796393 -0.07468071 0.02084827
-0.015369531 -0.13783364 -0.014620823 -0.080540806 0.034598447 -0.21752457 0.05228741 0.044053257
-0.022757078 0.08543107 -0.10895127 -0.2402301 0.028443241 -0.13649859 -0.07698841 -0.14722335
-0.06159448 -0.21267457 -0.054653265 0.1011981 -0.09558251 -0.048350584 0.010137491 -0.076285355
-0.11637489 -0.119980656 -0.08506184 -0.1843745 -0.15505348 0.10739402 0.0004237699 -0.028317224
0.071693964 -0.23474851 0.03994211 -0.10232282 -0.005893042 -0.04587749 -0.16401048 0.10948609
-0.16373543 -0.18850009 -0.072180316 0.102463394 0.060915604 0.01883041 0.034204364 -0.097562924
-0.14127542 -0.17664374 0.013116378 0.013086591 -0.056355204 -0.07645633 -0.1596833 0.010279331
-0.010020388 -0.025390876 -0.13447537 0.019390846 0.025561118 0.048124295 0.07184244 -0.13059509
-0.02654749 -0.055228017 0.16746005 -0.21052569 0.026573563 0.14267176 -0.024661105 0.05616149
-0.0123711 -0.109348126 -0.034502633 -0.070584975 -0.03219475 -0.04530349 -0.061151296 0.07818874
-0.041709542 -0.039442502 -0.013642117 0.0349193 -0.04148313 -0.2325829 -0.021284672 0.007083284
-0.07348636 0.13230711 0.0875515 0.11621109 0.03339867 -0.2203436 -0.2708691 0.1527085
-0.18062402 -0.12053618 0.17561984 0.13815287 -0.12403775 0.14156899 -0.0029317732 0.05795208
0.050843615 0.16980574 -0.055283334 -0.015455098 0.10663116 0.12617674 0.2554093 0.013636822
-0.07420981 -0.025601316 0.035152577 0.13161154 0.13898182 0.086304896 -0.0020808931 0.03493432
0.10828432 0.04250268 0.006639126 -0.0067182775 -0.19233896 0.0860821 0.024675176 0.08108152
0.04618507 0.06808452 0.05718658 0.008051812 0.016480327 0.0015891076 0.05212789 -0.0289896
0.12931302 0.029919619 0.13858943 -0.0025598432 0.14340065 -0.046294007 -0.043718074 0.00047632607
-0.19253628 -0.23366144 -0.12177615 0.113302395 -0.25537497 0.14399834 0.034192774 0.08945128
-0.041364912 -0.1351445 -0.07493525 0.115459025 -0.19752793 -0.011574459 -0.091698624 0.069988675
0.10409266 -0.0991995 0.016850157 0.14813216 0.004433694 0.074321866 0.068607345 0.073524006
-0.29807246 -0.2581374 0.025812177 0.025446838 0.0023384874 -0.05781911 -0.01865193 -0.26413345
0.016526952 0.12556277 0.06579424 0.09067134 0.021264862 0.17569125 0.06309466 0.05842806
0.007715755 0.08159144 0.006689406 0.18882018 -0.056379303 0.011654764 -0.053481773 0.14176807
00000000: 07a0 db3d 18e0 803c 94aa fe3b 0775 793d
00000010: ee48 0ebe 7d66 7dbe 12c6 293e 4d68 5cbd
00000020: 3504 3b3d d5df 8abd 466a dcbd c462 28be
00000030: 224c a0bd 460b 3fbe 63cd 84bd bf35 52bd
00000040: 6b62 b63d 7e2d 8b3d 2069 0f3d 3977 e7bd
00000050: a94c aebd 6fc5 cebd 5ac7 56bc 6f61 aebd
00000060: 8b1a 37bd 53c4 cf3d 7cc3 1f3e b5b7 26be
00000070: 707e cfbc 91d7 b4bd fa1d 86be 1d44 c0bc
00000080: 83a8 583d 429e f2bc bc36 053c 6d4e 39be
00000090: 0b88 143d 43f9 893d 79b1 0dbd d4d1 cf3a
000000a0: 1e81 bd3d 0451 52bc 502f 083c e060 81bd
000000b0: f9ee 8dbc af86 013d c325 6cbd dca8 0c3d
000000c0: 2da7 9b3d 67c1 41be 9cee debd 9fee a3bd
000000d0: 1557 773c dacc 11bd 170f 9fbd 58e2 28bd
000000e0: e383 8c3d 81fb e63c 247c 5fbd c172 34bd
000000f0: 46ce 5ebe 371e 7dbd 33f2 98bd fec9 aa3c
00000100: 7cd0 7bbc 4324 0dbe 2d8c 6fbc 94f2 a4bd
00000110: 1ab7 0d3d c3be 5ebe 532b 563d 3071 343d
00000120: 0d6d babc 7cf6 ae3d d821 dfbd e1fe 75be
00000130: cd01 e93c 49c6 0bbe 19ac 9dbd b8c1 16be
00000140: 7e4a 7cbd 5dc7 59be 1adc 5fbd f340 cf3d
00000150: c3c0 c3bd 430b 46bd b817 263c 7f3b 9cbd
00000160: f555 eebd 6bb8 f5bd e734 aebd abcc 3cbe
00000170: 57c6 1ebe 65f1 db3d 6f2d de39 86f9 e7bc
00000180: 49d4 923d ea61 70be 579a 233d a08e d1bd
00000190: 6b1a c1bb 09ea 3bbd 5df2 27be 3e3a e03d
000001a0: 43aa 27be 2b06 41be 46d3 93bd 54d8 d13d
000001b0: a482 793d 3b42 9a3c e019 0c3d 12cf c7bd
000001c0: 81aa 10be 19e2 34be 14e6 563c 2469 563c
000001d0: b7d4 66bd 2395 9cbd 0584 23be a46a 283c
000001e0: 8e2c 24bc 8700 d0bc e9b3 09be 8dd9 9e3c
000001f0: 8d65 d13c fb1d 453d 2122 933d b8ba 05be
00000200: 1f7a d9bc c636 62bd a67a 2b3e 0c94 57be
00000210: cdb0 d93c 8c18 123e 1606 cabc 9709 663d
00000220: 27b0 4abc e9f1 dfbd a252 0dbd db8e 90bd
00000230: a4de 03bd 2790 39bd c879 7abd 6b21 a03d
00000240: a0d7 2abd 768e 21bd 3083 5fbc 8a07 0f3d
00000250: 37ea 29bd 362a 6ebe 315d aebc e51a e83b
00000260: 0480 96bd 847b 073e 334e b33d 1400 ee3d
00000270: 0bcd 083d c1a1 61be 5baf 8abe 9e5f 1c3e
00000280: 81f5 38be acdb f6bd b0d5 333e f277 0d3e
00000290: 8107 febd 76f7 103e fe22 40bb 295f 6d3d
000002a0: 6541 503d 8ee1 2d3e c770 62bd 6137 7dbc
000002b0: 7061 da3d 7a34 013e 02c5 823e fa6c 5f3c
000002c0: 50fb 97bd dab9 d1bc 26fc 0f3d 2dc5 063e
000002d0: 4051 0e3e 9fc0 b03d 985f 08bb 4a17 0f3d
000002e0: 2bc4 dd3d 4a17 2e3d 078d d93b ff24 dcbb
000002f0: 81f4 44be d04b b03d 9823 ca3c 110e a63d
00000300: 8e2c 3d3d e66f 8b3d 7a3c 6a3d bfeb 033c
00000310: c001 873c 9a49 d03a 0e84 553d 997b edbc
00000320: a26a 043e fd19 f53c 63ea 0d3e 0bc3 27bb
00000330: 9fd7 123e c99e 3dbd b911 33bd 67bb f939
00000340: 3b28 45be f244 6fbe c665 f9bd 160b e83d
00000350: 82c0 82be 4d74 133e b90d 0c3d 3c32 b73d
00000360: 416e 29bd 5263 0abe a777 99bd c875 ec3d
00000370: c344 4abe cda2 3dbc 7dcc bbbd 3956 8f3d
00000380: 882e d53d 1c29 cbbd 5709 8a3c f5af 173e
00000390: 8548 913b 1036 983d 0282 8c3d c193 963d
000003a0: f49c 98be 962a 84be 0f74 d33c e375 d03c
000003b0: 4f41 193b bbd3 6cbd efcb 98bc 803c 87be
000003c0: 8863 873c 8793 003e 21bf 863d e5b1 b93d
000003d0: a633 ae3c 68e8 333e c637 813d 4352 6f3d
000003e0: 72d4 fc3b 6a19 a73d ce32 db3b 145a 413e
000003f0: fced 66bd a0f3 3e3c b40f 5bbd a62b 113e

action_model._discrete_distribution.branches.0.bias f4 [3]
-0.05147415 0.05791744 -0.0145351095
00000000: 8fd6 52bd d63a 6d3d ab24 6ebc

action_model._discrete_distribution.branches.1.weight f4 [3, 128]
-0.14990455 0.076224595 0.35400876 0.11822184 -0.055639233 0.08826244 0.15097 -0.038858272
0.19075683 -0.06547354 -0.02944031 -0.07608168 0.022964004 -0.15706833 -0.065401286 0.114948116
-0.0011535297 0.21072452 -0.5253293 -0.008520654 -0.12789798 -0.25798532 0.110708706 0.0075170514
-0.51305956 -0.03317319 0.045835588 0.016914034 0.022155834 -0.11521815 -0.360428 -0.004164183
-0.01327227 -0.3111545 -0.12683581 0.22972876 -0.088831194 0.14521722 -0.021593094 -0.18293786
-0.5933706 0.16328667 0.21400255 -0.13955744 -0.49325138 0.40614825 0.0034221422 0.025466334
0.10582826 -0.06810451 -0.06113449 -0.039020676 0.0060596345 -0.24934144 0.041243505 -0.12654741
0.17280596 -0.14643627 0.07899986 0.034363516 -0.39035293 0.15492451 0.17210433 0.1750606
0.17495635 -0.04231163 0.07382248 -0.26087227 0.13882613 -0.09729736 0.1609883 0.16186896
0.113823414 -0.037064888 -0.10270995 -0.16460675 -0.024901424 -0.16237903 -0.086089626 -0.12580284
-0.23171856 -0.2544247 0.02860623 0.094858825 -0.3051389 0.14387523 0.017215671 0.160765
-0.008198018 -0.055632763 -0.43964738 -0.051647335 -0.18594864 0.014030234 -0.09314168 0.035001937
-0.22547466 -0.10571236 -0.044612188 -0.1465545 -0.012274725 -0.074723 0.07552263 -0.41264853
-0.13596593 -0.29417905 -0.11028878 -0.056157537 0.022627601 0.0058667245 0.058400333 -0.17832498
0.04826048 -0.16144627 0.102254555 -0.32342222 0.04561926 0.01113699 0.049364228 -0.020960564
-0.38836217 -0.026135288 -0.07760063 0.31615022 0.15451132 0.09485705 0.10559624 -0.12412478
-0.025307085 0.01408554 -0.23329161 0.067440115 -0.07352699 -0.18679342 0.100463815 0.0049476353
-0.079833865 -0.14937533 0.048812397 -0.17272297 0.08247405 0.001184274 -0.0054173605 -0.045065966
0.066176176 -0.0062702615 0.13046667 -0.009982195 0.08741014 -0.0687161 0.10213959 -0.063327104
0.1186545 -0.0629773 -0.11586455 -0.041994143 0.011713652 -0.006572015 -0.26321733 -0.13316119
0.02567288 0.12474529 0.106126115 -0.23494156 -0.09835077 -0.17511374 -0.0042753513 -0.055153534
0.18077405 -0.12848334 0.03507847 -0.1399821 0.11375316 -0.20222616 -0.023504626 -0.02029577
-0.108177625 -0.042751223 -0.009702198 -0.11659436 -0.008035876 0.074292295 -0.008352308 0.0058878404
-0.075707465 -0.030545393 0.041437875 -0.0017707038 -0.17222539 -0.15304706 0.0021865421 -0.12059898
0.025052791 -0.002889227 0.028102454 -0.17961064 0.072889544 -0.012274723 -0.019411894 -0.021546628
-0.116406515 0.033679068 0.0031558473 -0.0035328798 -0.04018174 0.040070955 0.088654466 -0.2618723
-0.17646591 -0.20726603 0.056842394 -0.16654769 -0.120050095 -0.07561578 -0.046477836 -0.08595402
0.017011365 -0.004861926 -0.01187635 0.012248364 -0.24533516 -0.010311917 -0.059791785 -0.051873524
0.12541185 -0.077019446 0.062469773 0.06536335 0.013696102 -0.11827497 0.010486886 0.18870668
-0.13458467 -0.23846439 -0.060467664 0.11684356 -0.014706191 0.046123393 0.06790697 0.025882127
-0.1344285 -0.0069288695 0.04731259 0.10011717 0.00069204194 -0.08002751 -0.0778099 -0.01643831
0.105195716 -0.08207561 -0.00070739636 -0.24370807 0.014469831 -0.002020977 0.019588538 0.059176147
00000000: 9480 19be a41b 9c3d a340 b53e 4b1e f23d
00000010: f7e5 63bd f0c2 b43d e197 1a3e da29 1fbd
00000020: c255 433e fe16 86bd ce2c f1bc b6d0 9bbd
00000030: 021f bc3c 85d6 20be 1cf1 85bd eb69 eb3d
00000040: 0932 97ba 2bc8 573e fb7b 06bf 379a 0bbc
00000050: b0f7 02be a716 84be 3fbb e23d 9951 f63b
00000060: df57 03bf 9ce0 07bd 19be 3b3d 4d8f 8a3c
00000070: 2780 b53c 7ef7 ebbd 058a b8be b373 88bb
00000080: ef73 59bc a54f 9fbe 3fe1 01be 043e 6b3e
00000090: 21ed b5bd d3b3 143e 00e4 b0bc 1054 3bbe
000000a0: 23e7 17bf 9f34 273e 7c23 5b3e 25e8 0ebe
000000b0: 728b fcbe aaf2 cf3e 0546 603b c69e d03c
000000c0: 7dbc d83d 617a 8bbd 2968 7abd 25d4 1fbd
000000d0: e68f c63b 5d53 7fbe f3ee 283d a595 01be
000000e0: 0cf4 303e 64f3 15be aeca a13d c2c0 0c3d
000000f0: 57dc c7be 88a4 1e3e 1e3c 303e 1643 333e
00000100: c227 333e f64e 2dbd 3e30 973d 0d91 85be
00000110: 7028 0e3e d743 c7bd 1eda 243e fac0 253e
00000120: 401c e93d 5ad1 17bd 9859 d2bd ac8e 28be
00000130: 12fe cbbc b046 26be c24f b0bd 76d2 00be
00000140: a147 6dbe f443 82be 9d57 ea3c 5845 c23d
00000150: 2a3b 9cbe 0754 133e e107 8d3c 959f 243e
00000160: fb50 06bc 2edf 63bd 7619 e1be 288c 53bd
00000170: 5269 3ebe 11df 653c 11c1 bebd 315e 0f3d
00000180: d4e2 66be b97f d8bd 45bb 36bd 6212 16be
00000190: ee1b 49bc 5f08 99bd 9cab 9a3d ab46 d3be
000001a0: a73a 0bbe a39e 96be 15df e1bd 7205 66bd
000001b0: 855d b93c a73d c03b 3035 6f3d d39a 36be
000001c0: c8ac 453d 2c52 25be d66a d13d 9997 a5be
000001d0: 43db 3a3d ec77 363c 2532 4a3d 7db5 abbc
000001e0: 68d7 c6be ac19 d6bc 14ed 9ebd 71de a13e
000001f0: 3738 1e3e 6a44 c23d d742 d83d 2235 febd
00000200: ce50 cfbc 09c7 663c ffe3 6ebe 0b1e 8a3d
00000210: 5295 96bd c646 3fbe f9bf cd3d c61f a23b
00000220: f07f a3bd d9f5 18be 82ef 473d 4ade 30be
00000230: 28e8 a83d a439 9b3a 1d84 b1bb 1797 38bd
00000240: 6087 873d c476 cdbb 0e99 053e 5c8c 23bc
00000250: 1604 b33d 07bb 8cbd 902e d13d a4b1 81bd
00000260: 2101 f33d 3efa 80bd 654a edbd 0d02 2cbd
00000270: 9eea 3f3c 0f5a d7bb 6cc4 86be 685b 08be
00000280: ee4f d23c 757a ff3d a658 d93d 8594 70be
00000290: 216c c9bd 0451 33be 3f18 8cbb ace8 61bd
000002a0: d51c 393e 2391 03be 71ae 0f3d 7857 0fbe
000002b0: 6bf7 e83d 6014 4fbe c68c c0bc 5143 a6bc
000002c0: 3b8c ddbd e81b 2fbd f8f5 1ebc 06c9 eebd
000002d0: e8a8 03bc 8f26 983d 1ed8 08bc c9ee c03b
000002e0: 840c 9bbd 553a fabc c3ba 293d f616 e8ba
000002f0: da5b 30be 5eb8 1cbe 174c 0f3b 99fc f6bd
00000300: 833b cd3c 2f59 3dbb 1e37 e63c daeb 37be
00000310: 1d47 953d eb1b 49bc b105 9fbc 8e82 b0bc
00000320: 8a66 eebd 10f3 093d 55d2 4e3b e387 67bb
00000330: 9c95 24bd 7121 243d 7990 b53d 2014 86be
00000340: 7bb3 34be 8c3d 54be 92d3 683d 7a8b 2abe
00000350: d3dc f5bd 72dc 9abd 8b5f 3ebd a908 b0bd
00000360: 6b5b 8b3c cb50 9fbb 0695 42bc 5dad 483c
00000370: 2439 7bbe 51f3 28bc 3be8 74bd 5579 54bd
00000380: f76b 003e 5fbc 9dbd 4ee0 7f3d 38dd 853d
00000390: 9e65 603c 263a f2bd 30d1 2b3c 533c 413e
000003a0: 90d0 09be 0230 74be f1ac 77bd ad4b ef3d
000003b0: 3cf2 70bc e2eb 3c3d cf12 8b3d c106 d43c
000003c0: a0a7 09be 920b e3bb d9ca 413d 3b0a cd3d
000003d0: 266a 353a 77e5 a3bd cc5a 9fbd a2a9 86bc
000003e0: da70 d73d 4217 a8bd 9170 39ba 9c8e 79be
000003f0: df12 6d3c 5e72 04bb 2478 a03c b062 723d

action_model._discrete_distribution.branches.1.bias f4 [3]
-0.00047160618 0.023746122 -0.021201735
00000000: e941 f7b9 3a87 c23c 43af adbc

action_model._discrete_distribution.branches.2.weight f4 [3, 128]
-0.2172786 -0.009307705 0.04128531 0.01901128 -0.06777672 0.017963348 -0.06966482 0.03532757
-0.023668166 -0.065211475 0.021068372 -0.04347273 0.008082059 0.052710522 -0.05259818 -0.048010033
-0.16862567 -0.03286318 0.07138517 -0.029736219 -0.07522431 -0.022701945 -0.048741203 -0.05037929
0.0068035405 0.071076736 0.04932513 0.1361811 -0.08594786 -0.053257678 -0.30214953 0.011506563
-0.07775841 0.050767172 0.03070774 -0.080517635 -0.06956557 0.030981824 -0.011060928 -0.12922727
0.11357412 -0.09883747 -0.08323335 -0.08322913 0.088723995 0.027745286 0.036168218 -0.095871754
0.027504206 0.06928068 -0.08204413 0.020936536 -0.017561035 0.057815153 -0.19229126 -0.076466784
0.012238218 0.010168218 -0.015342932 -0.105121225 -0.22628932 -0.115665585 0.017247895 0.005893706
0.026244795 -0.086132 -0.100058205 -0.049105413 0.03064507 -0.084766835 -0.015436313 0.0020208189
-0.0711355 0.01877083 0.03620634 -0.015159369 0.065104306 -0.025393005 -0.09893338 -0.07229043
-0.1844822 -0.23576503 0.10088808 0.050127566 -0.20820291 -0.00745321 0.024357496 -0.014345438
-0.09622074 -0.049593855 -0.007817525 0.04736925 -0.11389546 0.03290907 -0.009130934 -0.08670855
0.02787833 -0.08238574 -0.028825248 0.10845413 -0.10347078 -0.06564398 0.026189176 0.12027399
-0.18398432 -0.19800255 -0.056646682 -0.032421686 -0.0651206 -0.123281576 -0.046809703 -0.13476798
-0.01718563 -0.016716216 -0.08537364 0.06434235 -0.023213485 -0.037319083 -0.04316304 0.14870866
0.010368554 0.0060302857 -0.042316142 0.03552534 -0.066308044 0.026595121 0.024864024 -0.034929145
-0.01862767 -0.014857214 0.017828675 0.034396537 0.030585635 0.018619817 0.04635975 -0.01992559
0.025326947 -0.13534395 -0.06622968 -0.058333103 0.05295531 -0.0041477503 0.015372899 -0.010954579
-0.042493746 -0.04646667 -0.043293282 0.032239687 0.0030205543 -0.06141364 -0.010478109 0.009907653
-0.064122766 0.007314634 0.070179835 0.002436994 -0.03477988 -0.10513757 -0.26733717 -0.000565711
-0.045730762 -0.051791307 0.015511313 -0.045490474 -0.10749428 0.026640128 -0.0036116743 -0.02962741
0.005106384 0.0057340264 -0.020460699 -0.122822165 -0.044460457 -0.00621999 0.02682785 -0.010831902
-0.026735106 -0.016879128 0.03615149 0.0049897484 0.050313167 0.027552355 -0.0100031905 -0.013434819
0.025644643 -0.002758224 -0.004340797 0.05322304 -0.17439495 -0.032848686 0.0005690021 -0.021734584
-0.021431454 -0.044730444 0.05730219 -0.10297198 0.028393466 -0.09594602 0.058214743 0.035749424
0.008199415 0.05357712 -0.0032434866 0.023370113 0.021925375 -0.0600518 -0.03722071 -0.12637079
-0.16043226 -0.26889375 -0.03468457 0.028016228 -0.16943371 0.022327682 -0.021275828 0.032298196
-0.063468605 -0.034511887 -0.08168714 0.0681135 -0.19568487 0.06668266 -0.0721685 0.026786484
0.034516666 -0.17103058 -0.009674888 -0.09449843 0.010922296 0.025844662 0.044341918 0.030025648
-0.23534876 -0.21566373 -0.055893805 0.00672868 -0.022786843 0.02097287 0.026122728 -0.11579492
-0.03207792 -0.02830463 0.073357835 -0.004755535 -0.009449608 0.021315545 0.001407779 0.032468252
-0.0106564285 0.044122677 0.006523144 0.008440634 -0.029144373 0.03018245 0.014342813 0.020471219
00000000: 487e 5ebe 587f 18bc c91a 293d 8bbd 9b3c
00000010: 85ce 8abd df27 933c 6eac 8ebd a4b3 103d
00000020: bee3 c1bc 988d 85bd 9497 ac3c 7610 32bd
00000030: 9d6a 043c fde6 573d 3071 57bd 2ba6 44bd
00000040: 35ac 2cbe 8b9b 06bd 6332 923d 5f99 f3bc
00000050: 340f 9abd 6ef9 b9bc dba4 47bd 845a 4ebd
00000060: 3cf0 de3b ae90 913d 2609 4a3d 0f73 0b3e
00000070: 6e05 b0bd b924 5abd 58b3 9abe 0686 3c3c
00000080: cd3f 9fbd 3df1 4f3d cc8e fb3c 6ee6 a4bd
00000090: 6578 8ebd 98cd fd3c e538 35bc 2754 04be
000000a0: 8c99 e83d 4d6b cabd 3f76 aabd 0974 aabd
000000b0: edb4 b53d 154a e33c 2025 143d 6958 c4bd
000000c0: 8050 e13c 07e3 8d3d c106 a8bd 1983 ab3c
000000d0: 29dc 8fbc 95cf 6c3d 00e8 44be 9e9a 9cbd
000000e0: cf82 483c 9998 263c ec60 7bbc cc49 d7bd
000000f0: 63b8 67be 14e2 ecbd 754b 8d3c fd1f c13b
00000100: 53ff d63c f965 b0bd 51eb ccbd c222 49bd
00000110: 5f0b fb3c 3c9a adbd 97e8 7cbc b76f 043b
00000120: 7daf 91bd 49c5 993c 194d 143d 015f 78bc
00000130: 6855 853d fe04 d0bc 959d cabd 010d 94bd
00000140: e7e8 3cbe 636c 71be 699e ce3d 9052 4d3d
00000150: 2533 55be 0f3a f4bb 5f89 c73c 2109 6bbc
00000160: 610f c5bd ed22 4bbd 1415 00bc 4206 423d
00000170: 0642 e9bd a9cb 063d ea99 15bc 4194 b1bd
00000180: 1861 e43c dbb9 a8bd ed22 ecbc 331d de3d
00000190: 7de8 d3bd 5a70 86bd af8a d63c 3652 f63d
000001a0: 6366 3cbe 2ec1 4abe 5a06 68bd 9acc 04bd
000001b0: f35d 85bd 0d7b fcbd 88bb 3fbd 9e00 0abe
000001c0: e1c8 8cbc 72f0 88bc 60d8 aebd ecc5 833d
000001d0: 352a bebc e5db 18bd bacb 30bd 1547 183e
000001e0: dee0 293c b499 c53b b153 2dbd 0583 113d
000001f0: 83cc 87bd 03de d93c a3af cb3c dd11 0fbd
00000200: 0e99 98bc ac6b 73bc 710d 923c 62e3 0c3d
00000210: ba8e fa3c 9688 983c b9e3 3d3d fe3a a3bc
00000220: 757a cf3c 9b97 0abe 6da3 87bd b1ee 6ebd
00000230: abe7 583d dae9 87bb 9dde 7b3c d67a 33bc
00000240: ec0d 2ebd d653 3ebd 4c54 31bd c30d 043d
00000250: 7ef4 453b de8c 7bbd 60ac 2bbc b553 223c
00000260: cc52 83bd 99af ef3b 72ba 8f3d fab5 1f3b
00000270: 5975 0ebd 5e52 d7bd 6be0 88be 394c 14ba
00000280: 2e50 3bbd 1f23 54bd 2a23 7e3c 3854 3abd
00000290: f625 dcbd 663c da3c d7b1 6cbb 2fb5 f2bc
000002a0: 7453 a73b 80e4 bb3b 329d a7bc 308a fbbd
000002b0: 2b1c 36bd 0fd1 cbbb 14c6 db3c 4a78 31bc
000002c0: 9503 dbbc 1946 8abc 9613 143d 0b81 a33b
000002d0: 2e15 4e3d 7ab5 e13c 6ce4 23bc b71d 5cbc
000002e0: b714 d23c 52c3 34bb 3f3d 8ebb 6700 5a3d
000002f0: 9794 32be 588c 06bd 1629 153a ba0c b2bc
00000300: 0491 afbc 4537 37bd b4b5 6a3d f9e2 d2bd
00000310: 6a99 e83c 597f c4bd 9572 6e3d fd6d 123d
00000320: d756 063c af73 5b3d ad90 54bb ae72 bf3c
00000330: d89c b33c e0f8 75bd be74 18bd 5867 01be
00000340: 5b48 24be 71ac 89be 6811 0ebd 4a82 e53c
00000350: 0880 2dbe 8be8 b63c a54a aebc 1d4b 043d
00000360: d4fb 81bd 565c 0dbd 964b a7bd 177f 8b3d
00000370: 9d61 48be eb90 883d 14cd 93bd 546f db3c
00000380: 5961 0d3d a422 2fbe 6c83 1ebc 6588 c1bd
00000390: 6ef3 323c 2fb8 d33c df9f 353d 59f8 f53c
000003a0: 44ff 70be f4d6 5cbe e7f0 64bd 427c dc3b
000003b0: 79ab babc 4ccf ab3c 55ff d53c e325 edbd
000003c0: 2364 03bd 1ddf e7bc a23c 963d 52d4 9bbb
000003d0: 87d2 1abc f09d ae3c 3a85 b83a 6efd 043d
000003e0: 4d98 2ebc fbb9 343d 19c0 d53b 964a 0a3c
000003f0: 2ec0 eebc 2f41 f73c 1efe 6a3c 42b3 a73c

action_model._discrete_distribution.branches.2.bias f4 [3]
0.0023048625 -0.013821433 0.005836632
00000000: 2d0d 173b 4b73 62bc 3841 bf3b

action_model._discrete_distribution.branches.3.weight f4 [3, 128]
-0.120892644 -0.01771365 0.20442376 -0.021947354 0.058514275 0.037581813 0.08289925 -0.08583389
-0.03911154 -0.03361623 -0.08826189 -0.10269695 -0.0029698655 0.032416318 0.019915383 0.018771753
0.055016115 0.1641333 -0.20697208 0.10408948 -0.055585403 -0.106881 -0.1045247 -0.09551309
-0.25091615 0.10179351 0.14559272 0.09965187 -0.076020174 -0.19410095 -0.2940763 0.06792086
-0.13266467 -0.24490854 0.06286811 0.01938978 0.03864194 0.12495195 -0.061733123 0.042478427
-0.17477791 0.045751937 -0.041030835 0.008247813 -0.17953199 0.1808586 0.0892953 -0.12773006
0.24154824 -0.09399484 0.014315143 0.06405877 -0.0039427364 -0.017812276 0.04336133 0.12074365
0.045278814 0.099346824 0.041446447 0.02315524 -0.27210313 0.047200225 -0.053455316 0.06654798
0.031837527 -0.06118785 -0.010060141 -0.052193403 0.060352974 -0.12598339 0.065019496 0.0085700415
0.047175463 -0.115730934 0.0063511864 0.077442765 0.11465589 -0.14998515 -0.09912993 -0.11262608
-0.10165246 -0.26191095 0.029885361 0.20141384 -0.1315932 0.04399029 0.048481394 0.08116248
-0.13724658 -0.09145274 -0.22063306 0.015202136 -0.183997 0.04937242 -0.08622571 -0.00922163
0.014748166 -0.15566759 0.051868256 0.02162786 -0.1095707 0.02470205 0.004715252 -0.03713258
-0.124819376 -0.20327638 -0.10374024 0.09285062 -0.054943077 -0.045078084 -0.0028952465 -0.22663821
-0.063822776 -0.06107146 0.07239557 -0.04614548 0.080996856 -0.016631579 0.0074379514 -0.13189335
-0.06598927 0.016789133 -0.093731 0.1340147 0.057473395 0.08855483 -0.00046540363 -0.049250145
0.04661796 -0.015564246 -0.064603485 0.026978694 -0.078924894 -0.020769617 -0.31366894 -0.040262263
0.081897706 0.23995602 0.15242863 0.15916802 0.042450834 0.019088699 -0.01833255 0.11807303
0.016287247 -0.06322553 0.045354668 0.05644033 0.06304096 0.13762614 0.011871858 0.1514154
0.08201792 -0.095182166 -0.021969274 -0.022822488 -0.01210287 0.28969854 0.3002385 -0.07398136
0.003817947 0.14266482 -0.08788243 0.026820235 0.084420994 -0.05321763 0.020057166 0.09112553
0.030539766 -0.083237454 -0.16726132 0.2533167 -0.018604994 0.0017210783 -0.2045126 0.045759734
-0.07744139 0.053476635 -0.031181844 0.0036356503 -0.036080223 -0.031987205 -0.001715474 0.008280896
0.043035235 0.042679742 0.021284191 0.0048111393 0.24404448 -0.07620495 -0.03832806 -0.008055744
0.04778196 -0.061199024 -0.062026314 0.15586461 -0.07007755 0.03495615 -0.013506789 0.11775435
-0.0643434 0.009205543 -0.040366393 0.024661837 -0.07349613 0.022694245 0.16565278 0.24189058
0.16568816 0.2527782 0.013764891 -0.05701151 0.14824753 -0.0885601 0.00936602 -0.01230901
0.18865648 0.18345645 0.118615374 -0.0046225847 0.36998624 -0.014273332 0.122377746 -0.04996195
-0.26630217 0.13314737 -0.319851 0.083826534 0.030065613 0.057340823 0.0011819113 -0.15248135
0.25490424 0.29515484 0.10022988 -0.33387712 0.030920086 0.01304425 -0.0856502 0.19582622
0.13530208 -0.045990277 -0.2338515 -0.03245548 -0.045144904 -0.08790146 -0.079564705 0.036393408
-0.043219354 0.0051534874 0.020338316 0.039216004 -0.108682804 0.027411917 -0.01432366 0.0032519572
00000000: 9096 f7bd 371c 91bc 7654 513e f0ca b3bc
00000010: aaac 6f3d 63ef 193d 15c7 a93d aec9 afbd
00000020: 6c33 20bd 2cb1 09bd a6c2 b4bd c752 d2bd
00000030: 13a2 42bb f9c6 043d 9625 a33c 38c7 993c
00000040: 9458 613d 8f12 283e 7df0 53be de2c d53d
00000050: 85ad 63bd 6de4 dabd 0c11 d6bd 5e9c c3bd
00000060: 1578 80be 1e79 d03d 4216 153e 4816 cc3d
00000070: 77b0 9bbd 66c2 46be 2b91 96be 181a 8b3d
00000080: 3fd9 07be 4ec9 7abe ffc0 803d 51d7 9e3c
00000090: 0347 1e3d cfe6 ff3d dfdb 7cbd dcfd 2d3d
000000a0: fbf8 32be 6266 3b3d f30f 28bd d621 073c
000000b0: 3cd7 37be ff32 393e 74e0 b63d abcb 02be
000000c0: 6c58 773e 5e80 c0bd 108a 6a3c 3f31 833d
000000d0: 1232 81bb 0deb 91bc a69b 313d 7248 f73d
000000e0: 4776 393d 5976 cb3d c0c3 293d 0fb0 bd3c
000000f0: 1a51 8bbe 0655 413d f6f3 5abd 4f4a 883d
00000100: 1168 023d 1ca0 7abd 4ad3 24bc c0c8 55bd
00000110: ae34 773d ca01 01be f128 853d 5c69 0c3c
00000120: 0f3b 413d 5704 edbd 9d1d d03b 509a 9e3d
00000130: b5d0 ea3d b595 19be a204 cbbd 81a8 e6bd
00000140: 2a2f d0bd 3119 86be 25d2 f43c 6e3f 4e3e
00000150: 5ec0 06be 2a2f 343d 6d94 463d 8438 a63d
00000160: 5e8a 0cbe 934b bbbd a2ed 61be 6112 793c
00000170: b669 3cbe bc3a 4a3d 1b97 b0bd 5216 17bc
00000180: 4ba2 713c 5367 1fbe cf73 543d e92c b13c
00000190: 9a66 e0bd f45b ca3c 6782 9a3b 5518 18bd
000001a0: 4da1 ffbd af27 50be c375 d4bd 7728 be3d
000001b0: fe0b 61bd cca3 38bd 2dbe 3dbb d913 68be
000001c0: 84b5 82bd 1126 7abd 2144 943d 0b03 3dbd
000001d0: aee1 a53d f33e 88bc 0fba f33b 0d0f 07be
000001e0: 6225 87bd 5d89 893c 0af6 bfbd 263b 093e
000001f0: 3969 6b3d 3c5c b53d 6b01 f4b9 85ba 49bd
00000200: 79f2 3e3d 2e01 7fbc d54e 84bd 6c02 dd3c
00000210: 60a3 a1bd 0b25 aabc 3799 a0be 0bea 24bd
00000220: fcb9 a73d 08b7 753e 4016 1c3e f1fc 223e
00000230: ede0 2d3d e75f 9c3c 252e 96bc 46d0 f13d
00000240: d56c 853c 637c 81bd d1c5 393d fa2d 673d
00000250: 9e1b 813d deed 0c3e 2e82 423c a30c 1b3e
00000260: 03f9 a73d deee c2bd e8f8 b3bc 3af6 babc
00000270: 1e4b 46bc 5e53 943e dcb8 993e 8a83 97bd
00000280: 8636 7a3b ba16 123e b4fb b3bd 1cb6 db3c
00000290: eae4 ac3d bbfa 59bd ed4e a43c 06a0 ba3d
000002a0: 882e fa3c 6678 aabd 8d46 2bbe bab2 813e
000002b0: 8069 98bc ce95 e13a c06b 51be 8f6e 3b3d
000002c0: 9799 9ebd 510a 5b3d 1171 ffbc 1744 6e3b
000002d0: dbc8 13bd 0405 03bd c1d9 e0ba 98ac 073c
000002e0: b745 303d f4d0 2e3d 2f5c ae3c c3a6 9d3b
000002f0: cce6 793e 5711 9cbd e2fd 1cbd 3dfc 03bc
00000300: 04b7 433d d4ab 7abd 4e0f 7ebd f99a 1f3e
00000310: d284 8fbd 2e2e 0f3d 944b 5dbc 3129 f13d
00000320: 79c6 83bd d9d2 163c 3b57 25bd 9f07 ca3c
00000330: 2485 96bd 48e9 b93c e2a0 293e 2ab2 773e
00000340: 28aa 293e 256c 813e 2386 613c e784 69bd
00000350: 33ce 173e ff5e b5bd ef73 193c bbab 49bc
00000360: 2a2f 413e 02dc 3b3e 9eec f23d 0d79 97bb
00000370: d66e bd3e b2da 69bc 2fa1 fa3d e7a4 4cbd
00000380: c258 88be c957 083e 83c3 a3be 3fad ab3d
00000390: 294c f63c 36de 6a3d 5dea 9a3a 1224 1cbe
000003a0: cf82 823e 891e 973e 5345 cd3d f1f1 aabe
000003b0: 1f4c fd3c 8db7 553c 5f69 afbd ab86 483e
000003c0: a18c 0a3e 4d60 3cbd c576 6fbe 0af0 04bd
000003d0: dde9 38bd ae05 b4bd d2f2 a2bd 4111 153d
000003e0: c706 31bd 96de a83b 8a9c a63c f6a0 203d
000003f0: 1795 debd f58e e03c c9ad 6abc ca1e 553b

action_model._discrete_distribution.branches.3.bias f4 [3]
0.025433606 0.04708896 -0.07911262
00000000: 235a d03c 5ae0 403d cc05 a2bd
