ArmRobot/Assets/results/curriculumRotacion/TouchCubeMoveGail/TouchCubeMoveGail-1499996.onnx (onnx, 142911 bytes, 20 tensors)

action_model._discrete_distribution.branches.0.bias f4 [3]
0	0x3c568b03	0.013094666
1	0xbcdfa661	-0.027301015
2	0x3c071b0e	0.008246196

action_model._discrete_distribution.branches.0.weight f4 [3, 128]
0	0xbcdba5de	-0.02681249
1	0x3d2159ed	0.0393924
2	0xbc8bb683	-0.017054802
3	0x3d29f098	0.041489214
4	0xbd45ab13	-0.048258852
5	0x3e10af98	0.14129484
6	0x3da97059	0.08273382
7	0xbda0b9d4	-0.07847944
8	0xbd2807fd	-0.041023243
9	0x3d78fef3	0.060790014
10	0x3d0800cc	0.033203885
11	0xbe245b92	-0.16050556
12	0xbe08c62f	-0.13356851
13	0x3d440424	0.04785551
14	0x3cc935f6	0.024561863
15	0x3d4e7c47	0.05041149
16	0xbd7c138e	-0.061542086
17	0x3befda37	0.0073197144
18	0x3d2f5c96	0.042812906
19	0xbd24ef75	-0.040267427
20	0xbd3d3969	-0.04619733
21	0x3d65fa8e	0.05614715
22	0x3cc95831	0.024578186
23	0xbcd225b0	-0.025652736
24	0xbda629a1	-0.08113409
25	0x3d3a60ef	0.0455026
26	0xbd58695c	-0.052834854
27	0xbd89a529	-0.06720955
28	0x3bce6398	0.0062984936
29	0xbdd95430	-0.106117606
30	0xbd272439	-0.04080603
31	0xbd5145a5	-0.05109181
32	0x3d83db86	0.06438355
33	0x3d49e6d6	0.049292408
34	0x3c7029bb	0.014658387
35	0x3d9a7e10	0.07543576
36	0xbcf5acba	-0.029989589
37	0x39c39c2a	0.0003730965
38	0xbca498e9	-0.020092444
39	0x3d91ec50	0.07125151
40	0xbc062034	-0.008186389
41	0xbc894823	-0.01675803
42	0xbd853a8f	-0.0650531
43	0xbc208cf0	-0.009799227
44	0x3d127477	0.0357556
45	0x3d79d082	0.060989864
46	0xbd8ab190	-0.067721486
47	0x3d07fbbb	0.033199053
48	0x3dea72b4	0.11447659
49	0x3c36a663	0.011148068
50	0x3d25a90b	0.040444415
51	0xbce3edb4	-0.027823307
52	0x3d7fef4b	0.062484067
53	0xbd2b3dad	-0.041806865
54	0x3dfa9c96	0.12236898
55	0x3de41628	0.111370385
56	0x3a5c9658	0.0008414737
57	0x3c1a8315	0.009430666
58	0xbd8f51ce	-0.06998025
59	0xbd6ee7a7	-0.05832639
60	0x3c1dbc53	0.0096274195
61	0x3d51a64e	0.05118399
62	0xbcb111b9	-0.021614896
63	0xbdb40243	-0.08789494
64	0x3d217a9b	0.039423566
65	0x3dd8632d	0.10565791
66	0x3d992c67	0.07479172
67	0xbc6e1d3c	-0.014533337
68	0xbd06fb4e	-0.032954507
69	0x3dd527d2	0.10407986
70	0x3d3e57ca	0.04647044
71	0xbdc33b57	-0.095328026
72	0xbca167bf	-0.01970279
73	0x3d2ccc1b	0.042186838
74	0x3cf9d4b4	0.030496933
75	0x3deee49c	0.116646975
76	0xbdd4b6b4	-0.1038641
77	0x3d886d28	0.06661445
78	0x3c6ef337	0.014584354
79	0x3c594d33	0.013263035
80	0xbcaa7f33	-0.020812606
81	0xbc94aa74	-0.018147685
82	0xba9ec241	-0.0012112336
83	0xbcfb2403	-0.03065682
84	0xbdf23751	-0.11826957
85	0x3d46d0a0	0.048538804
86	0x3c677375	0.014126648
87	0x3d0737e4	0.033012286
88	0x3d00ade2	0.031415828
89	0x3d109369	0.03529683
90	0xbc51585b	-0.012777413
91	0x3d718776	0.058967076
92	0x3dfaa16c	0.1223782
93	0x3d9c86fe	0.07642935
94	0xbcf50d4b	-0.029913565
95	0x3c89916c	0.016792975
96	0xbd1b7702	-0.03795529
97	0xbe175d64	-0.1478172
98	0xbc9da8ab	-0.019245466
99	0xbe2f9f2f	-0.17150567
100	0xbdbb9d40	-0.091608524
101	0x3d5fea87	0.054667022
102	0xbcfdac11	-0.030965837
103	0x3dd0dd71	0.101984866
104	0x3c462882	0.012094619
105	0x3d248ae9	0.040171538
106	0x3e01b93d	0.12668319
107	0xbda05af4	-0.07829848
108	0x3da135ac	0.07871565
109	0xbdaab7e0	-0.083358526
110	0x3d9046c6	0.07044749
111	0x3ba60732	0.0050667757
112	0x3d83d288	0.0643664
113	0xbd00b6c1	-0.031424288
114	0xbcc9881d	-0.024601037
115	0x3dc31ab8	0.095265806
116	0x39048a20	0.00012639957
117	0xbb918bf2	-0.0044417316
118	0xbd6e0ffc	-0.058120713
119	0xbd7cf622	-0.061758168
120	0x3cc54540	0.024080873
121	0x3d3491e9	0.044084463
122	0xbc9e31fd	-0.019310946
123	0xbd944824	-0.07240322
124	0xbd8e1f49	-0.06939561
125	0xbc3c5699	-0.011495256
126	0x3daf2d46	0.08553557
127	0x3ce7de20	0.02830416
128	0xbcd4e8f7	-0.025989993
129	0x3c96214c	0.018326424
130	0xbd03511a	-0.032059766
131	0xbc0c24c9	-0.008553692
132	0x3c1199b4	0.008886743
133	0xbc8f5f13	-0.01750139
134	0x3c754357	0.014969668
135	0xbc6bb1a9	-0.014385619
136	0x3c047e5b	0.008086766
137	0xbc136d86	-0.00899828
138	0xbc959334	-0.018258668
139	0xbcf25df8	-0.029585823
140	0xbd622ae3	-0.05521668
141	0x3b61c1f6	0.0034447885
142	0x3ce55f4f	0.027999548
143	0xbc452851	-0.012033538
144	0xbcc88cbc	-0.02448117
145	0x3c9f1a3a	0.019421685
146	0xbcc58dc2	-0.024115447
147	0x3ceeb296	0.02913789
148	0xbc8da52b	-0.017290672
149	0xbd0141a0	-0.031556726
150	0xbbf6569a	-0.007517648
151	0x3c53ea91	0.012934343
152	0xbc7e3afc	-0.015516993
153	0xbd1c9559	-0.038228367
154	0xbd231ab9	-0.039820407
155	0xbcb791f1	-0.022408457
156	0xbd113382	-0.035449512
157	0x3ce8c7af	0.028415529
158	0x3915e21a	0.00014293977
159	0x3c76428c	0.015030514
160	0xbd56c0d1	-0.052429978
161	0xbc9b067c	-0.01892399
162	0x3cb8d95a	0.022564579
163	0xbc1ef9e0	-0.0097031295
164	0x3ca67d33	0.020323372
165	0xbd0e197f	-0.034692284
166	0xbcbf41ff	-0.0233469
167	0x3c81add4	0.015829958
168	0x3cab7c42	0.020933274
169	0x3b1e374a	0.0024141842
170	0x3d2a63d3	0.041599106
171	0xbca24195	-0.019806663
172	0xbbb64980	-0.005562961
173	0x3ce30b06	0.027715217
174	0xbc14929b	-0.009068157
175	0xbc8b093b	-0.016972175
176	0xbd51028a	-0.051027812
177	0x3bf460ba	0.00745782
178	0xbce13d6f	-0.027495114
179	0xbcf43252	-0.02980915
180	0xbd109e6c	-0.035307333
181	0xbb9fcc2d	-0.0048766346
182	0xbc2e9b9d	-0.010657218
183	0xbd0d1d74	-0.034451917
184	0xbcce9402	-0.02521706
185	0xb8b25df3	-8.505201e-05
186	0xbcddde13	-0.027083432
187	0xbd1dfba1	-0.03857005
188	0x3c108906	0.008821731
189	0x3cc3524c	0.023842953
190	0xbd07d652	-0.033163376
191	0xbbe63909	-0.007025842
192	0x3d510ae0	0.05103576
193	0x3bac5825	0.005259531
194	0x3adc638e	0.0016814338
195	0xbcd764f8	-0.026293263
196	0xbcf0bc29	-0.029386597
197	0x3bc16550	0.00590197
198	0x3c5bdffb	0.0134201
199	0xbd0c6f35	-0.034285743
200	0x3cc17509	0.023615377
201	0x3ccbb9e2	0.02486891
202	0x3c9ae206	0.018906604
203	0x3cfd7eb3	0.030944204
204	0xbc3b7430	-0.0114412755
205	0x3b4cbcbe	0.0031240429
206	0xbcaccf83	-0.021095043
207	0xbca8c366	-0.020600986
208	0x3b646986	0.0034852936
209	0x3cacc8e1	0.02109188
210	0x3c011727	0.007879055
211	0xbae3bab9	-0.0017374373
212	0xbc5331a7	-0.012890256
213	0x3c23293a	0.00995856
214	0xbce48961	-0.027897539
215	0xbd877de4	-0.066158086
216	0xbd4d08c3	-0.050057184
217	0x3cd94601	0.026522638
218	0x3d0cc106	0.03436377
219	0xbcc1769b	-0.023616126
220	0x3c1ded76	0.009639135
221	0xbc37fe97	-0.011230133
222	0xbb2a9897	-0.0026030892
223	0xbd387380	-0.045032024
224	0xbbff2fe4	-0.0077876914
225	0xbd237ba0	-0.03991282
226	0x3d18dc23	0.037319314
227	0xbc9a20aa	-0.018814404
228	0xbbdd406b	-0.006752064
229	0xbcfab037	-0.030601604
230	0xbcecaf02	-0.028892044
231	0xbd8266eb	-0.06367286
232	0x3c87dbb5	0.016584257
233	0xbb805ee5	-0.0039175623
234	0x3b74000a	0.0037231469
235	0x3c5ccda7	0.013476766
236	0xbcae13e0	-0.021249712
237	0xbd1a7bfe	-0.037715904
238	0xbcbdc3a4	-0.023164578
239	0x3d00e6e7	0.031470206
240	0x3b422962	0.0029626717
241	0xba3b82c4	-0.00071529695
242	0x3d0fdcc6	0.035122655
243	0x3b6e2e83	0.003634364
244	0xbcc96f4a	-0.0245892
245	0xbc32e513	-0.010918873
246	0x3cb597bc	0.02216708
247	0x3d25b5e4	0.040456668
248	0x3c1dfd3f	0.009642898
249	0x3a61b9e0	0.00086107664
250	0x3cc84d9e	0.024451073
251	0xbd0781ec	-0.033082888
252	0x3c75075e	0.01495537
253	0x3cc07a76	0.023495894
254	0x3d2100c9	0.03930739
255	0x3c36c60a	0.011155615

action_model._discrete_distribution.branches.1.bias f4 [3]
0	0xbd0cd62c	-0.034383938
1	0xbb781858	-0.0037856307
2	0x3cfc1208	0.030770317

action_model._discrete_distribution.branches.1.weight f4 [3, 128]
0	0xbd7ce662	-0.061743148
1	0x3cd05823	0.025432652
2	0xbd4d7d07	-0.050168063
3	0x3d02cfeb	0.031936567
4	0x3d0bf297	0.0341669
5	0xbcef362a	-0.029200632
6	0x3c952cf2	0.018209908
7	0xbd2238f9	-0.039605115
8	0xbd9b5bb0	-0.075858474
9	0xbb28ccc0	-0.0025756806
10	0x3c7053af	0.014668389
11	0xbda52771	-0.080641635
12	0xbaabc869	-0.0013105992
13	0xbd395724	-0.04524912
14	0xbba91695	-0.0051601627
15	0x3cbcb71c	0.023036532
16	0xbc255f19	-0.010093474
17	0x3c3eaa32	0.011637257
18	0xbd194fc7	-0.037429597
19	0xbcc02df2	-0.023459408
20	0xbae5249e	-0.0017482226
21	0xbce05b9d	-0.027387435
22	0xbc7155a1	-0.014729888
23	0xbda36db0	-0.079799056
24	0xbddfb463	-0.10923078
25	0xbda4f61e	-0.08054756
26	0x3a2c6c9c	0.00065774634
27	0x3ca87178	0.020561919
28	0xbda0572d	-0.078291275
29	0xba826590	-0.0009948481
30	0xbd0960c4	-0.03353955
31	0x3bdbce14	0.006707916
32	0x3afd975c	0.0019347477
33	0xbcf40f6f	-0.029792516
34	0xbbde713e	-0.006788402
35	0xbd495f22	-0.04916299
36	0xbd38cd9f	-0.04511797
37	0xbd31e1d3	-0.043428253
38	0x3c8cd281	0.01719022
39	0x3d1c8b0a	0.038218535
40	0x3d280e1d	0.041029084
41	0xbd875dcd	-0.06609688
42	0x3cf50aa7	0.029912306
43	0x3d809bf1	0.062797435
44	0xbc989bff	-0.018629072
45	0x3c6f761a	0.01461556
46	0xbe1761e5	-0.14783438
47	0x3c3d91ac	0.011570375
48	0xbd312da3	-0.043256413
49	0x3d81bb39	0.06334538
50	0xba1a77c4	-0.000589248
51	0xbd60726f	-0.054796632
52	0xbc16ffb5	-0.009216239
53	0xbdb6bb49	-0.089224406
54	0xbd154d81	-0.036450867
55	0xbc20fbad	-0.009825629
56	0xbd9516eb	-0.07279762
57	0x3cdc1842	0.026867036
58	0xbcbebde4	-0.023283906
59	0xbd92b087	-0.07162576
60	0xbcc53efb	-0.024077883
61	0x3ab7d768	0.0014025988
62	0xbc7cd127	-0.015430725
63	0x3d5fd6c1	0.054648165
64	0x3cd58f18	0.026069209
65	0x3bd412a5	0.006471949
66	0xbd5e235b	-0.054232936
67	0xbd96d10e	-0.07364093
68	0xbdcadcba	-0.099053815
69	0xbcab4a99	-0.020909594
70	0xbcf78088	-0.030212656
71	0xbd74b89f	-0.05974638
72	0x3d89957b	0.06717964
73	0x3d6d1a03	0.057886135
74	0xbbfb3c9a	-0.0076671364
75	0xbcdfba3e	-0.027310487
76	0xbe053ceb	-0.1301152
77	0xbb369cf9	-0.002786456
78	0xbdb14849	-0.086563654
79	0xbb8a3642	-0.004217894
80	0xbcefc342	-0.02926791
81	0x3d4f3f27	0.050597336
82	0xbc21f1bf	-0.009884297
83	0xbaba2c4d	-0.0014203876
84	0xbd61f158	-0.055161804
85	0x3cc723c8	0.024309054
86	0xbdfc6c61	-0.12325359
87	0xbd7dff4e	-0.062011056
88	0xbdef776f	-0.11692702
89	0xbda884c7	-0.0822845
90	0x3bd6f4d3	0.006559947
91	0xbd5bfb2f	-0.053706344
92	0xbd44d5b0	-0.04805535
93	0xbcc940cc	-0.02456703
94	0xbc0a855b	-0.008454646
95	0xbd6ad801	-0.057334904
96	0xbc5b10bc	-0.013370689
97	0xbd383fb1	-0.044982616
98	0x3d28de26	0.041227482
99	0xbcdbcadb	-0.026830127
100	0xbdace80a	-0.084426954
101	0xbc8f747b	-0.017511597
102	0xbc077eec	-0.008270007
103	0xbd0e6108	-0.034760505
104	0xbd056568	-0.03256741
105	0xbdc02849	-0.09382684
106	0xbc78ef1c	-0.015193727
107	0x3d13361a	0.035940267
108	0xbbf7f57c	-0.007567106
109	0xbd387e69	-0.04504243
110	0xbbbd3d87	-0.005775157
111	0x3d89a9d8	0.06721848
112	0x3c91ce96	0.017798703
113	0xbd166760	-0.03671968
114	0x3b0d185c	0.0021529412
115	0xbca820f6	-0.02052353
116	0xbd898658	-0.06715077
117	0xbc2716c7	-0.010198302
118	0x3c33d070	0.010974988
119	0x3d065230	0.032793224
120	0x3cd0b70c	0.025477909
121	0x3c171f5d	0.009223786
122	0x3ceee8c0	0.029163718
123	0xbdff4e41	-0.124660976
124	0x3da06e53	0.07833543
125	0x3d380a6c	0.044931814
126	0xbbf274f6	-0.0073991967
127	0xbb4be1e1	-0.0031109976
128	0xbd67e103	-0.056611072
129	0xbc08906d	-0.008335215
130	0xbd586faa	-0.052840866
131	0xba0774bf	-0.0005167238
132	0xbcb02e8c	-0.02150657
133	0xbc38ab40	-0.011271298
134	0x3d057637	0.03258344
135	0xba889e5d	-0.0010423172
136	0x3c426c5f	0.011866658
137	0xbd1f3ab6	-0.03887435
138	0x3c8c3b7e	0.017118212
139	0xbcfbdbf7	-0.030744536
140	0xbd4c8934	-0.049935535
141	0xbcf2f2cf	-0.029656796
142	0xbc8432b6	-0.016137462
143	0xbafd9083	-0.0019345436
144	0xbcae3f4a	-0.021270413
145	0x3d5736ac	0.052542374
146	0x3ba7f5bd	0.00512573
147	0x3cb463b9	0.022020208
148	0x3d295006	0.041336082
149	0xbd0003c4	-0.03125359
150	0x3c8f5c6d	0.017500127
151	0xbca13e79	-0.01968311
152	0xbd5700ba	-0.052490927
153	0xbd0f09fe	-0.03492164
154	0x3cedabab	0.029012522
155	0xbcc1806c	-0.023620807
156	0xbd19c9ab	-0.03754584
157	0xbd5724e0	-0.0525254
158	0xbcea5b00	-0.028607845
159	0x3a3149e8	0.0006763027
160	0x3d30b9cc	0.04314594
161	0xbc2f36ba	-0.0106942
162	0x3d3176d5	0.043326218
163	0x3c025eb2	0.007957147
164	0xbc9dae53	-0.019248163
165	0xbd237d63	-0.0399145
166	0x3cdc2c5c	0.026876621
167	0xbc5ccc1b	-0.013476397
168	0xbcf27a23	-0.029599255
169	0xbbfd0e86	-0.0077226786
170	0xbcc4136f	-0.023935048
171	0xbc10baab	-0.008833568
172	0xbc21b175	-0.009868969
173	0x3d6f21bd	0.058381785
174	0xbd4bc5cd	-0.049749184
175	0x3d038cdf	0.032116767
176	0x3c8ad797	0.016948504
177	0x3c5a2263	0.0133138625
178	0xbc62bf84	-0.013839606
179	0x3c79dd04	0.015250448
180	0x3bdb7b66	0.00669806
181	0xbd7627dd	-0.06009661
182	0x3b325221	0.0027209597
183	0xbcbb7c9c	-0.022886567
184	0xbd18a464	-0.03726615
185	0xbcda9b89	-0.026685493
186	0xbd8084f6	-0.0627536
187	0xbced2c5b	-0.028951814
188	0xbab7f164	-0.0014033732
189	0x3d83c7ad	0.064345695
190	0x3d4a3111	0.0493632
191	0xbce67734	-0.028133012
192	0x3d32d53b	0.043660384
193	0x3c9411b0	0.01807484
194	0x3cffdbea	0.031232793
195	0xbd8ad7a6	-0.06779413
196	0xbd7ea416	-0.062168203
197	0x3d4d28a2	0.05008758
198	0xbafe7e0a	-0.0019416225
199	0xbd01d4d4	-0.03169711
200	0x3ca3642d	0.019945228
201	0x3b8eefcd	0.0043620826
202	0x3d9d4ad3	0.07680287
203	0x3cd0b11c	0.025475077
204	0xbd474b56	-0.04865583
205	0x3bafe943	0.005368383
206	0xbd19ed5f	-0.03757989
207	0xbc994d40	-0.018713593
208	0x3d001292	0.03126771
209	0x3cfc59c6	0.030804526
210	0x3b6901ca	0.0035554045
211	0xbbad6f3d	-0.0052928017
212	0x3d03e334	0.0321991
213	0x3c52a140	0.012855828
214	0xbd62f335	-0.05540772
215	0xbd5aa14c	-0.05337648
216	0xbd88c173	-0.066775225
217	0xbc8ec430	-0.017427534
218	0x3c2071c8	0.009792753
219	0xbb218d46	-0.0024650856
220	0x3a291bf9	0.00064510066
221	0x3c723a01	0.014784337
222	0xbd66364c	-0.056204125
223	0x3ade6299	0.001696664
224	0x3b449739	0.0029997362
225	0xbd20280c	-0.03910069
226	0x3a93bade	0.0011270901
227	0xbcfb5dfe	-0.030684467
228	0x3cb3ed14	0.021963634
229	0x3c2156bb	0.009847338
230	0x3b3ec1a1	0.002910711
231	0x3c17147e	0.009221194
232	0x3ac56b47	0.0015061878
233	0xbbc82961	-0.0061084484
234	0x3c53fd53	0.012938815
235	0xbc4baf5d	-0.012431947
236	0x3d6812c7	0.056658532
237	0x3c6c4292	0.0144201685
238	0x3c852ce2	0.016256753
239	0x3ca1ee24	0.019766875
240	0x3cbb8879	0.022892224
241	0xbab1d11f	-0.0013566351
242	0xbd07d67f	-0.033163544
243	0xbc25b380	-0.010113597
244	0xbcf164b1	-0.029466959
245	0xbc9e6207	-0.019333852
246	0x3d295996	0.0413452
247	0xbcbb383b	-0.022853961
248	0xbc622ea4	-0.013805065
249	0xbc6cb297	-0.014446876
250	0x3d540832	0.05176563
251	0xbd331e39	-0.043729994
252	0xbc4a11e6	-0.012333369
253	0xbd0c27a5	-0.034217495
254	0x3cac2d0b	0.021017572
255	0x3afaed6f	0.0019144247

action_model._discrete_distribution.branches.2.bias f4 [3]
0	0xbd3a8056	-0.045532547
1	0x3cb6559d	0.02225762
2	0x3c4abc2a	0.012373963

action_model._discrete_distribution.branches.2.weight f4 [3, 128]
0	0xbd7999d4	-0.060937718
1	0xbd0ca82c	-0.03434007
2	0x3cce8363	0.025209134
3	0xbe414760	-0.18874884
4	0x3cf482aa	0.029847462
5	0xbd59ba0b	-0.05315594
6	0xbd701675	-0.058615167
7	0x3dff7542	0.12473537
8	0xbcc33512	-0.023829017
9	0xbce80441	-0.02832234
10	0x3da85074	0.0821847
11	0xbe780ecd	-0.24224396
12	0xbe175c61	-0.14781334
13	0x3bf7a5c6	0.0075576035
14	0x3b9a7fa9	0.0047149253
15	0x3d297e4f	0.041380223
16	0xbd925a1c	-0.07146093
17	0xbe38e727	-0.18056928
18	0xbb013a0f	-0.0019718444
19	0x3ddd070a	0.10792358
20	0xbd048d55	-0.032361347
21	0x3d28f9a0	0.041253686
22	0xbe151134	-0.14557344
23	0xbd75f529	-0.060048256
24	0xbb1b3f34	-0.0023688795
25	0x3d69593d	0.05696987
26	0x3d847346	0.06467299
27	0x3db3f9c8	0.08787876
28	0xbcb3b9b3	-0.021939134
29	0x3e0810af	0.13287614
30	0xbd8fe453	-0.07025971
31	0x3dd60a31	0.104511626
32	0xbcd87d42	-0.026426915
33	0x3d04cee5	0.032423873
34	0xbdd02dc3	-0.10164978
35	0xbc910b4c	-0.017705582
36	0xbc8c0417	-0.017091794
37	0xbd61b465	-0.05510368
38	0xbdfb66f5	-0.12275497
39	0x3c8b8e4d	0.017035628
40	0x3dcf4203	0.101200126
41	0xbd9169bf	-0.071002476
42	0x3d7defa2	0.06199611
43	0x3d9ab273	0.07553568
44	0xbdd1168d	-0.10209379
45	0x3bf6937e	0.0075249067
46	0xbc25a6c5	-0.010110562
47	0xbc9f7a4d	-0.019467497
48	0xbdea0900	-0.11427498
49	0x3c78ed1c	0.01519325
50	0x3d6efdb8	0.058347434
51	0xbcde555c	-0.027140312
52	0x3de8bc79	0.11364073
53	0xbd88bded	-0.066768505
54	0xbb8351c8	-0.004007552
55	0x3c9d6115	0.019211331
56	0x3decebdb	0.11568423
57	0xbd192a15	-0.03739365
58	0x3cf7f4f4	0.03026817
59	0xbe0123ff	-0.12611388
60	0xbc84b388	-0.016198888
61	0xbcd1aede	-0.025596078
62	0xbe2aa552	-0.16664627
63	0x3d360007	0.04443362
64	0xbd71e9bb	-0.059060793
65	0x3bd2a34a	0.006428157
66	0xbdee7cfd	-0.116449334
67	0xbca77ef8	-0.020446286
68	0xbd27cbbc	-0.04096578
69	0xbd6c553b	-0.05769847
70	0xbcf54ca2	-0.029943768
71	0xbdb8e5d4	-0.09028211
72	0xbdc0fe94	-0.09423557
73	0x3da71c94	0.08159748
74	0xbe240afb	-0.16019814
75	0xbd21de85	-0.03951885
76	0x3ce8d6ba	0.028422702
77	0xbdabbb43	-0.08385327
78	0xbcd56383	-0.026048427
79	0x3d0ff832	0.035148807
80	0x3df6c9c9	0.12050206
81	0xbd9fa504	-0.07795146
82	0x3dce9cb9	0.10088486
83	0xbd701666	-0.05861511
84	0x3dfb1ae3	0.122609876
85	0x3b8c5f6b	0.0042838356
86	0x3d1a1b12	0.037623473
87	0x3dca362b	0.09873613
88	0xbc30a79e	-0.010782151
89	0x3da6f9d7	0.08153122
90	0x3ccad477	0.024759514
91	0xbcfc349c	-0.030786805
92	0x3db0804b	0.0861822
93	0xbe0d33f5	-0.13789351
94	0x3e0b1011	0.13580348
95	0x3dd2c418	0.10291308
96	0xbe2708c6	-0.1631194
97	0xbe4d6e8a	-0.20061699
98	0x3d58323f	0.052782293
99	0xbe86c46c	-0.26321733
100	0xbdeaab6c	-0.114584774
101	0xbe2c94d1	-0.16853644
102	0xbe69fb7c	-0.2284984
103	0xbe332d4a	-0.17497745
104	0xbdab6a5b	-0.08369895
105	0xbcc8bab8	-0.024503097
106	0xbd1acf64	-0.03779544
107	0x3d94eae8	0.07271367
108	0xbd69d11a	-0.05708418
109	0xbd3d5bce	-0.04623013
110	0xbe36ceaa	-0.17852274
111	0x3d778e13	0.060438227
112	0xbd5feff4	-0.054672197
113	0xbd5b526c	-0.0535454
114	0x3d493f86	0.049132846
115	0xbd6c56b5	-0.057699878
116	0xbdad4189	-0.084597655
117	0x3df6e7ea	0.12055953
118	0x3d0d34dc	0.03447424
119	0x3da27856	0.079331085
120	0x3dd9ec7a	0.106408074
121	0xbda28dc8	-0.07937199
122	0x3b959fe1	0.004566178
123	0x3d1ba95b	0.038003307
124	0xbd5538bb	-0.052056056
125	0x3dcee36b	0.1010197
126	0x3d8fe9b9	0.07027001
127	0xbcbd8c3f	-0.023138164
128	0x3ceacf6a	0.028663356
129	0x3d6f8c3c	0.058483347
130	0x3ce0597f	0.027386425
131	0xbc8e0dfc	-0.017340653
132	0x3c7235f4	0.014783371
133	0x3d58fde1	0.052976493
134	0xbd2c88ae	-0.042122535
135	0xbb094b1f	-0.0020949317
136	0x3d1ff46f	0.03905147
137	0x3cdaaa73	0.026692605
138	0xbc5341cd	-0.012894106
139	0xbd19a070	-0.03750652
140	0x3d83c71d	0.06434462
141	0x3d05fe6d	0.032713342
142	0xbb852714	-0.0040634964
143	0x3ca4c572	0.02011368
144	0x3bd0493b	0.006356386
145	0xbd9f5509	-0.07779891
146	0x3d2ce886	0.04221394
147	0xbc0ffde0	-0.008788556
148	0x3c30b8e8	0.010786273
149	0x3d720f43	0.059096586
150	0xbc32621a	-0.010887647
151	0x3d00db43	0.031459104
152	0x3c98fe71	0.018676015
153	0x3d2aabd7	0.041667785
154	0x3c07ae50	0.008281305
155	0xbca626a9	-0.020282106
156	0x3d925524	0.071451455
157	0xbd204d7f	-0.039136406
158	0x3c0569c8	0.008142896
159	0xbd2602f8	-0.040530175
160	0xbcac9dcb	-0.021071335
161	0x3cdcd365	0.02695627
162	0xbadf472e	-0.0017034763
163	0x3c949e05	0.018141756
164	0x3d0a18af	0.033714946
165	0x3d15dac6	0.03658559
166	0x3cdb039a	0.026735116
167	0x3cafe9eb	0.021473845
168	0xbcbffadd	-0.02343505
169	0x3c598a8b	0.01327766
170	0xbc92f2bc	-0.01793801
171	0x3c8c6e60	0.017142475
172	0x3c880683	0.016604668
173	0xbd08e974	-0.033425763
174	0x3bf61682	0.0075100074
175	0x3c6367a1	0.0138796875
176	0x3ce0e415	0.027452508
177	0xbcd912ec	-0.02649828
178	0x3cf56753	0.029956495
179	0x3cf98ed9	0.030463623
180	0x3c892d77	0.016745312
181	0x3d1f3755	0.038871128
182	0x3c4d37a7	0.012525476
183	0x3d811f9e	0.063048586
184	0x3d2fe24d	0.042940427
185	0x3b5cb133	0.0033674955
186	0x3d17be65	0.03704681
187	0x3ceaaf45	0.028648028
188	0x3ca69eff	0.020339487
189	0x3d581ef4	0.052763894
190	0xbd3d6833	-0.04624195
191	0xbb4029a7	-0.0029321702
192	0xbb2439e2	-0.0025058915
193	0xbd37516d	-0.044755388
194	0xbcaa637c	-0.020799391
195	0x3d2219aa	0.039575256
196	0x3d05d974	0.032678083
197	0x3cab7c57	0.020933313
198	0x3cb8fc9a	0.022581387
199	0x3d23ec4d	0.040020276
200	0x3a88a40c	0.0010424866
201	0xbc03a6a8	-0.008035339
202	0xbcd5c742	-0.02609599
203	0x3bb0eb25	0.005399125
204	0x3c082680	0.00830996
205	0x3cb5b18f	0.022179393
206	0x3cac5f45	0.021041522
207	0xba367434	-0.00069600646
208	0x3bce0fb0	0.006288491
209	0xbad04693	-0.0015890173
210	0xbba4abee	-0.0050253784
211	0xbbe9e6aa	-0.007138093
212	0xbcb3c22b	-0.021943172
213	0xbbc17e29	-0.005904932
214	0x3d587640	0.052847147
215	0x3d6f4a96	0.05842074
216	0x3d769b13	0.060206484
217	0x3c277165	0.010219906
218	0xbcaabc52	-0.020841751
219	0x3d1b0397	0.03784522
220	0x3cdfbf40	0.027312875
221	0x3be4fd65	0.006988215
222	0xbc4d823e	-0.012543259
223	0xbcb0751f	-0.021540223
224	0xbe0d1721	-0.13778354
225	0xb7923d2d	-1.7433043e-05
226	0xbd3161ff	-0.043306347
227	0x3c79e642	0.015252652
228	0xbceaee1c	-0.028677993
229	0x3ce2e386	0.027696382
230	0x3c6c9ff0	0.014442429
231	0x3d1e0cc0	0.038586378
232	0xbc1a11fa	-0.0094037
233	0xbb9d4fc0	-0.0048007667
234	0x3d274f48	0.040847093
235	0xbc70b399	-0.014691257
236	0xbd34367e	-0.04399728
237	0x3b5202c5	0.0032045108
238	0xbb1e24f1	-0.0024130906
239	0xbce33551	-0.027735384
240	0x3cfdbce4	0.03097386
241	0x3cecce61	0.028907003
242	0x3cfddca6	0.030989002
243	0x3d404fce	0.046951108
244	0x3c8da9ce	0.017292883
245	0x3c4a4c87	0.012347347
246	0x3c7860a8	0.015159763
247	0xbcc1a6f8	-0.023639187
248	0xbbe2d84e	-0.006922758
249	0xbd936cdc	-0.07198498
250	0xbd971097	-0.07376211
251	0x3c65495c	0.013994541
252	0xbcca38b3	-0.02468524
253	0xbd055626	-0.03255286
254	0xbd3c4b84	-0.045970455
255	0x3c35efd6	0.011104545

action_model._discrete_distribution.branches.3.bias f4 [3]
0	0x3c0d5477	0.008626095
1	0x3b4d89f8	0.0031362753
2	0xbc1184f9	-0.008881801

action_model._discrete_distribution.branches.3.weight f4 [3, 128]
0	0xbd0b1e86	-0.033964656
1	0x3cd97795	0.026546279
2	0xbba7ba35	-0.005118633
3	0x3c8e2cc1	0.017355325
4	0x3cbb5a4e	0.022870209
5	0xbcdba21b	-0.026810696
6	0x3c7f9a5c	0.015600767
7	0x3caf8f90	0.02143076
8	0x3ca69fd0	0.020339876
9	0x3cd11890	0.025524408
10	0x3d5165bc	0.051122412
11	0xbd58973e	-0.05287861
12	0xbdddae1c	-0.10824224
13	0xbcacb65c	-0.02108305
14	0x3c6e079b	0.0145281805
15	0x3d5b5aba	0.05355332
16	0x3d2047ba	0.039130904
17	0xbcdb74cb	-0.02678909
18	0x3cd40a7b	0.025883904
19	0x3c839be6	0.01606555
20	0x3bb1f191	0.0054304083
21	0xbcdca935	-0.026936153
22	0x3c93f24f	0.018059878
23	0xbcc5b459	-0.024133848
24	0xbcda871b	-0.026675751
25	0x3bbb556e	0.005716971
26	0x3d5854e9	0.05281535
27	0x3cff5284	0.031167276
28	0xbc87d14d	-0.016579295
29	0xbc08ba7a	-0.008345241
30	0x3c892de0	0.016745508
31	0xbc15d42d	-0.009144825
32	0x3d49f3c9	0.049304757
33	0x3c442f70	0.011974201
34	0xbb5694ce	-0.0032742503
35	0x3c0c64e1	0.008568973
36	0xbc7b237b	-0.015328283
37	0xbd14fec3	-0.036375772
38	0xbd47c4e6	-0.04877176
39	0x3dad8953	0.08473458
40	0xbd2186c8	-0.039435178
41	0xbd90c889	-0.07069499
42	0x3c98fb34	0.01867447
43	0xbc7301d0	-0.014831975
44	0x3c3f92fe	0.0116927605
45	0x3d090ca4	0.03345932
46	0xbdb84aab	-0.08998617
47	0x3c89ba30	0.016812414
48	0xbc2505db	-0.010072197
49	0xbd14fea8	-0.03637567
50	0x3d49304e	0.049118333
51	0xbc5b06b6	-0.013368299
52	0xbb1ffd4a	-0.0024412447
53	0xbda08ea3	-0.07839706
54	0x3ba123f0	0.004917614
55	0x3cf3459f	0.029696284
56	0xbcf24f11	-0.029578717
57	0xbcdfb5a1	-0.027308287
58	0xbcdf3bcd	-0.027250195
59	0xbcd7c81c	-0.026340537
60	0xbb02652f	-0.0019896736
61	0xbc67fb3e	-0.014159022
62	0xbc0fcc68	-0.008776762
63	0x3d3b502c	0.045730755
64	0x3c3e354e	0.0116093885
65	0xbd93bb8d	-0.07213507
66	0xbdca3cfb	-0.09874912
67	0xbbe057b6	-0.0068463935
68	0xbd1e484c	-0.038643166
69	0xbd08fab5	-0.033442218
70	0x3cbba234	0.022904493
71	0xbd629ab7	-0.05532333
72	0x3d95640e	0.072944745
73	0x3d2742af	0.04083508
74	0xbd9ab345	-0.07553724
75	0xbd012b5d	-0.031535495
76	0xbd8ed033	-0.069733046
77	0xbc242d97	-0.010020635
78	0xbd184b5f	-0.037181254
79	0xbd5ed380	-0.05440092
80	0xbca97f05	-0.02069045
81	0xbcdc4934	-0.026890375
82	0x3aa27814	0.0012395405
83	0x3c766bc2	0.01504034
84	0x3c02fe37	0.00799518
85	0x3c1f4eca	0.009723375
86	0xbd924a3e	-0.07143067
87	0xbd902c71	-0.070397265
88	0xbe0251c4	-0.12726504
89	0xbc47f822	-0.012205156
90	0xbd89b0bd	-0.06723163
91	0x3bf1dfed	0.0073814304
92	0xbd20eb4c	-0.039286897
93	0x3d24a701	0.04019833
94	0xbc65f5c8	-0.01403565
95	0x3ca0eb19	0.019643353
96	0xbd8f3138	-0.069918096
97	0xbda4a4ef	-0.08039271
98	0xbcef1fe0	-0.029190004
99	0xbd8353ad	-0.06412444
100	0xbc709cc6	-0.014685815
101	0xbcaffe6c	-0.021483622
102	0xbc84db00	-0.016217709
103	0xbd44c383	-0.048038017
104	0xbb996c8a	-0.0046821283
105	0xbd831e43	-0.06402256
106	0x3bf05680	0.0073345304
107	0x3d3445cd	0.04401188
108	0x3cf9b4fb	0.030481806
109	0xbced071c	-0.028934054
110	0x3d0ed8bd	0.034874666
111	0x3c5beeb6	0.013423612
112	0xbb543cdb	-0.0032384905
113	0xbada3d6d	-0.0016650386
114	0x3d143c71	0.036190454
115	0xbcb5ddf2	-0.022200558
116	0xbc985818	-0.018596694
117	0xbb8c3f50	-0.0042800084
118	0xbcb2a513	-0.02180723
119	0x3c460b3a	0.012087638
120	0x3d5c9fe6	0.05386343
121	0xbd7d016a	-0.061768927
122	0x3d9cbf61	0.0765369
123	0xbca851de	-0.02054685
124	0x37ebf69b	2.8129018e-05
125	0x3c96ae8b	0.018393775
126	0x39127d1b	0.0001397025
127	0xbb1a6839	-0.0023560657
128	0xbd13f750	-0.036124527
129	0xbb7f90fd	-0.0038996332
130	0xbc19213b	-0.009346302
131	0xbcd7a524	-0.026323862
132	0x3b554d88	0.0032547433
133	0xbce9d84f	-0.028545527
134	0x3c4c310a	0.012462864
135	0x3c08d0bc	0.008350547
136	0xbc8214bd	-0.01587903
137	0xbc6d8f5d	-0.0144995125
138	0xbcd0dc6c	-0.02549573
139	0xbc32d09d	-0.010913995
140	0xbc7c15ce	-0.015386058
141	0xbbba2108	-0.005680207
142	0xbc1439ae	-0.009046955
143	0xbcb8d015	-0.022560159
144	0xbd366718	-0.04453191
145	0x3cf8c875	0.030369023
146	0xbc900a22	-0.017582957
147	0x3d0f88b4	0.03504248
148	0xbbfaebad	-0.0076574893
149	0xbbc33405	-0.005957129
150	0xbc474995	-0.012163539
151	0x3c5cb7c8	0.013471551
152	0xbc9d260e	-0.019183185
153	0xbc601e06	-0.013679033
154	0x3bb7b45a	0.0056062164
155	0xbb09edec	-0.0021046354
156	0x3c8c2f1a	0.017112304
157	0xbbfa6ae9	-0.007642139
158	0xbba59168	-0.005052734
159	0x3bdbd492	0.00670869
160	0xbc649d40	-0.013953507
161	0xbba9c8a1	-0.0051813875
162	0x3c327464	0.0108920075
163	0xbc79f167	-0.015255309
164	0xbb8f7d3d	-0.0043789432
165	0xbcc462e5	-0.023972938
166	0x3ae2ca93	0.0017302803
167	0xbd3170f1	-0.0433206
168	0xbbe5b889	-0.0070105237
169	0x3b3b71ce	0.0028601768
170	0x3c452a1e	0.012033967
171	0xbc838548	-0.016054764
172	0xbbf87a90	-0.00758297
173	0x3ba8a4c4	0.0051465947
174	0xbc401e65	-0.011725997
175	0xbc015ffa	-0.007896418
176	0xbc88fc06	-0.016721737
177	0x3ce33ee3	0.027739948
178	0xbcc2c421	-0.023775162
179	0x3c3605fb	0.011109824
180	0xbb5c996e	-0.0033660787
181	0xbb2a251b	-0.0025962058
182	0xbcdef477	-0.02721618
183	0xbd3dfe5d	-0.046385158
184	0xbbef0532	-0.0072943205
185	0x3ad5e9b5	0.001632026
186	0xbcdb7653	-0.02678982
187	0xbc178b3a	-0.009249503
188	0x3bb3dd0e	0.0054889983
189	0x3c909b76	0.017652255
190	0x3bec86ab	0.007218202
191	0xbbfb7e06	-0.0076749353
192	0x3b1dc117	0.002407139
193	0x3c4a980a	0.0123653505
194	0x3ca637ee	0.020290341
195	0xbca0968d	-0.019603038
196	0xbb6aecbc	-0.003584667
197	0x3b7750db	0.0037737403
198	0xbcaff1d2	-0.021477614
199	0x3b4a73b5	0.003089172
200	0xbbd1b821	-0.0064001237
201	0xbb84963c	-0.0040462296
202	0x3c349560	0.011021942
203	0x3d00194f	0.031274136
204	0xbba8eba4	-0.0051550437
205	0x3c84671e	0.016162451
206	0xbcb5de7e	-0.02220082
207	0xbb18c0d5	-0.0023308296
208	0x3c00dd4f	0.007865264
209	0x3c4e1be3	0.012579891
210	0xbb01eb87	-0.0019824223
211	0x3c82ecca	0.01598205
212	0x3c88b1dd	0.016686374
213	0xbcd358f3	-0.02579925
214	0x3cabf7e4	0.020992227
215	0xbca38935	-0.019962886
216	0xbc0b19e0	-0.008490056
217	0x3b88765a	0.004164499
218	0x3c964a45	0.018345961
219	0xbb90b1c0	-0.0044157207
220	0x3bc70612	0.0060737217
221	0xbcf7828e	-0.03021362
222	0x3c809665	0.015696714
223	0xbc9ffe1e	-0.019530352
224	0x3b9b87c7	0.0047464105
225	0xbc0cb094	-0.008587021
226	0x39fe2038	0.0004847066
227	0x3aa3387e	0.0012452749
228	0x3bc2bb81	0.0059427624
229	0xbcdd136f	-0.026986806
230	0xbd327629	-0.043569718
231	0xbd595277	-0.05305716
232	0x3c29ae71	0.0103565315
233	0xbbdfe4d3	-0.006832698
234	0xbc515d4d	-0.012778592
235	0xbbc0ffc7	-0.005889866
236	0xbb1b5232	-0.0023700115
237	0xbc7af339	-0.015316778
238	0xbc147fca	-0.00906367
239	0x3c18f1aa	0.009334961
240	0xbc9be4b9	-0.019029962
241	0xbc81e77a	-0.015857447
242	0xbc5136eb	-0.012769441
243	0xbc66fd75	-0.014098515
244	0xbb956b55	-0.004559914
245	0xbc233db5	-0.009963443
246	0xbbc5ba75	-0.0060341903
247	0x3cf6c1ab	0.030121645
248	0xbcba5bc4	-0.022748835
249	0x3b98ca14	0.0046627615
250	0x3c4f102f	0.012638136
251	0xbc9b790c	-0.018978618
252	0x3cc49433	0.023996448
253	0xbb88e94b	-0.0041782013
254	0x3be1941f	0.0068841125
255	0xbc7d71a2	-0.015468987

action_model._discrete_distribution.branches.4.bias f4 [3]
0	0xbd024525	-0.031804223
1	0x3b4bdfdc	0.0031108772
2	0x3cc7b876	0.02437995

action_model._discrete_distribution.branches.4.weight f4 [3, 128]
0	0xbc879af1	-0.016553374
1	0xbd498048	-0.049194604
2	0x3d3045f6	0.04303547
3	0xbe3e6158	-0.18591821
4	0x39ad719e	0.00033081783
5	0xbd32c211	-0.043642107
6	0x3c7e868f	0.015535011
7	0x3db4942c	0.08817324
8	0xbcf555f4	-0.029948212
9	0x3d874419	0.066047855
10	0xbc81823e	-0.015809175
11	0xbdd567ef	-0.104202144
12	0xbdc4e697	-0.09614294
13	0xbcd6ab8c	-0.026204847
14	0xbd4dd7af	-0.05025452
15	0xbd2013fc	-0.03908156
16	0xbdcbd7bb	-0.09953257
17	0xbdbd27ab	-0.09236082
18	0x3c33b128	0.01096753
19	0xbcad6621	-0.021166863
20	0xbcb89895	-0.022533694
21	0xbd111fae	-0.035430603
22	0xbd7f5b7b	-0.062343102
23	0x3c889295	0.016671458
24	0xbc4c9c41	-0.012488426
25	0xbca83db2	-0.020537231
26	0x3da288af	0.079362266
27	0x3d9dae9c	0.0769932
28	0xbd23dcad	-0.040005375
29	0x3d7420b9	0.05960152
30	0xba05d0a7	-0.0005104639
31	0x3da1f547	0.07908111
32	0x3cc068fd	0.023487562
33	0x3d549cfa	0.051907517
34	0x3cd510ca	0.026008982
35	0xbc6e0827	-0.014528311
36	0xbca3cfa9	-0.019996481
37	0xbdb4a043	-0.0881963
38	0xbd2f8eb0	-0.042860687
39	0xbe1f9dd0	-0.15587544
40	0x3d06890f	0.032845553
41	0xbd9d3121	-0.07675386
42	0x3d94fa84	0.072743446
43	0xbbef1982	-0.007296742
44	0xbcff9974	-0.031201102
45	0x3d940634	0.07227746
46	0xbc847814	-0.016170539
47	0xbd7595db	-0.059957366
48	0xbdad888e	-0.08473311
49	0xbc2c60a8	-0.0105210915
50	0xbd4f12ed	-0.05055516
51	0x3cd98629	0.02655323
52	0x3d3e2361	0.04642046
53	0xbd434312	-0.047671385
54	0xbd67ad29	-0.056561623
55	0xbcc40f23	-0.023932999
56	0xbc97888d	-0.01849773
57	0x3c9583a8	0.018251255
58	0x3d5a0821	0.05323041
59	0xbd08b80c	-0.033378646
60	0xbcc16f7d	-0.023612732
61	0xbdb5ca6e	-0.08876501
62	0x3cd4b94d	0.025967265
63	0x3b863137	0.0040952223
64	0x3c67b120	0.014141351
65	0x3dc443be	0.09583233
66	0xbd688e5c	-0.05677639
67	0xbd064718	-0.032782644
68	0xbcee5fd5	-0.02909843
69	0xbd8faa24	-0.070148736
70	0xbd1b6612	-0.03793914
71	0x3dd2fbfb	0.10301968
72	0xbc5b93e2	-0.013401957
73	0x3d055209	0.032548938
74	0xbd70e069	-0.058807764
75	0xbbd04cf6	-0.0063568307
76	0x3cd2c6b1	0.02572951
77	0xbd40fb66	-0.047114752
78	0xbc8c07d4	-0.017093576
79	0x3d043329	0.032275353
80	0xbca42de4	-0.020041414
81	0xbcf4ebdb	-0.02989762
82	0x3d882a06	0.0664864
83	0x3dcccf0d	0.10000429
84	0x3ca668d1	0.020313652
85	0xbd3069e0	-0.04306972
86	0x3d1b12f5	0.037859876
87	0xbcd8f1c1	-0.026482465
88	0x3d0c60ce	0.034272008
89	0xbd6b69b8	-0.057473868
90	0x3d63b401	0.055591587
91	0xbd1aafd1	-0.037765328
92	0xbc44e418	-0.012017272
93	0xbdbf0ae6	-0.093282506
94	0x3dc073ab	0.09397062
95	0x3db47dcd	0.08813057
96	0xbd6ebaf4	-0.05828376
97	0xbde05101	-0.1095295
98	0x3d1aed80	0.037824154
99	0xbd6d217a	-0.057893254
100	0xbd76c2ee	-0.060244493
101	0xbe0682be	-0.13135812
102	0xbe13f4ab	-0.14448802
103	0xbd74cade	-0.05976378
104	0x3a16590e	0.0005735316
105	0xbcf5a008	-0.029983535
106	0x3cacb00e	0.021080043
107	0x3dac461b	0.08411809
108	0x3d527c3e	0.051388018
109	0xbd61f76d	-0.055167604
110	0xbe0decb1	-0.13859822
111	0x3cc42ffb	0.02394866
112	0xbc9dbe30	-0.019255728
113	0xbd87825c	-0.06616661
114	0x3be54ae8	0.006997455
115	0xbc91c1c2	-0.017792586
116	0xbc65ef97	-0.014034173
117	0xbcfe0202	-0.031006817
118	0x3dbe1855	0.09281985
119	0x3d87857b	0.06617256
120	0x3c8b64e5	0.017015884
121	0x3d9a2216	0.075260326
122	0xbd252bbb	-0.040324908
123	0x3c25aeba	0.010112459
124	0x3d894a1f	0.067035906
125	0x3d84454b	0.06458529
126	0x3df12b3a	0.11775823
127	0xbcf9fc56	-0.030515831
128	0xbbb94783	-0.005654277
129	0xbb123e71	-0.002231505
130	0x3b234fd2	0.0024919403
131	0x3cbfc421	0.023408951
132	0x3c7e26dd	0.015512195
133	0xbda06c5d	-0.07833169
134	0x3a839922	0.0010040144
135	0x3ced1b58	0.028943703
136	0x3ca5b807	0.020229353
137	0x3d485767	0.04891148
138	0xbcc0cb3e	-0.023534413
139	0x3dfb746b	0.12278064
140	0x3dfab180	0.12240887
141	0xbd88fee0	-0.066892385
142	0xbd947917	-0.072496586
143	0xbd65571b	-0.055991273
144	0x3c94e5fe	0.018176075
145	0x3d9c8032	0.07641639
146	0x3bab464e	0.005226887
147	0xbd0a34ea	-0.03374187
148	0x3ca3497a	0.019932497
149	0xbd24362a	-0.040090717
150	0xbc9c4131	-0.019074054
151	0xba0bb19e	-0.0005328896
152	0x3c9f71d7	0.019463463
153	0xb984f2f8	-0.00025358028
154	0xbc8c46d8	-0.017123625
155	0xbce8a53f	-0.028399108
156	0x3c7600f3	0.015014875
157	0x3d0cfa78	0.034418553
158	0x3c44f2c1	0.012020768
159	0x3d17a76b	0.037024897
160	0xbc5df47f	-0.013547062
161	0xbca4f63e	-0.020136949
162	0xbc0b485e	-0.00850114
163	0xbd1f4dc8	-0.038892537
164	0x3c398af9	0.011324638
165	0x3c3bca07	0.011461741
166	0x3dcd26d1	0.10017169
167	0xbd124e99	-0.035719488
168	0x3c3c96e6	0.011510586
169	0x3c3c8a13	0.011507529
170	0x3ccc847f	0.024965523
171	0xbc279925	-0.010229384
172	0xbc2f73ab	-0.01070873
173	0x3d5d0327	0.053958084
174	0x3d253ee7	0.04034319
175	0x3c5b935b	0.0134018315
176	0x3ca914ed	0.020639861
177	0x3c200397	0.009766481
178	0xbcc7d297	-0.02439241
179	0x3d21dd26	0.039517544
180	0xbd0533a5	-0.032519955
181	0xbb9eb9bb	-0.004843918
182	0xbd64695f	-0.055764552
183	0xbd681491	-0.05666024
184	0xbc7ca78e	-0.0154208075
185	0x3d6df2c6	0.058092855
186	0x3cb3f4e5	0.02196736
187	0x3d63574a	0.055503167
188	0xbd3f4a1d	-0.04670154
189	0xbd425beb	-0.04745094
190	0x3d6e0d2e	0.058118038
191	0xbd446f5b	-0.04795776
192	0x3d2505c9	0.04028872
193	0xbcc491e1	-0.023995342
194	0x3cae0b0c	0.021245502
195	0x3ce396fe	0.02778196
196	0x3c917b55	0.017759005
197	0xbd19049f	-0.037357923
198	0xbd2f21c2	-0.042756803
199	0x3d8b2f72	0.06796159
200	0xbb0e3753	-0.0021700456
201	0x3c5e498a	0.013567338
202	0x3d82dea2	0.0639012
203	0x3dd60372	0.10449876
204	0x3c587bd1	0.013213114
205	0x3c80de38	0.015730962
206	0xbc13af6d	-0.009013993
207	0xbc8b8945	-0.017033229
208	0xbc42ef2e	-0.011897845
209	0xbb3c0d90	-0.0028694607
210	0xbcff952b	-0.031199059
211	0x3cf894c9	0.030344384
212	0x3d580d05	0.05274679
213	0xbcbf11ca	-0.023323912
214	0xba390bfb	-0.0007058975
215	0x3b324036	0.0027198917
216	0x3cdd622d	0.027024353
217	0xbcc1f132	-0.023674581
218	0x3ca44a49	0.020054953
219	0xbcf845ee	-0.030306783
220	0xbcbba36a	-0.02290507
221	0xbcb54d80	-0.022131681
222	0xbb5a4612	-0.0033305925
223	0x39f78d9e	0.00047217024
224	0x3dc91f28	0.09820396
225	0x3dc76e02	0.09737779
226	0xbb548f32	-0.0032433984
227	0x3e0f5b5c	0.13999695
228	0x3ca21f01	0.019790174
229	0x3bc46f58	0.0059947185
230	0x3dbe19f5	0.09282295
231	0x3a9a318e	0.0011764036
232	0x3af15289	0.0018411438
233	0xbccc7dce	-0.024962332
234	0xbd83ee44	-0.0644193
235	0x3ca4ca84	0.020116098
236	0xbd8204be	-0.06348561
237	0xbc040691	-0.008058206
238	0xbbbcf811	-0.0057668765
239	0xbc90eaed	-0.017690146
240	0xbd2b61e5	-0.041841406
241	0x3ca5d6fc	0.020244114
242	0xbda4dfb1	-0.08050478
243	0xbd32fce4	-0.043698207
244	0x3b510474	0.0031893523
245	0xbd445e5d	-0.047941554
246	0x3da3c03d	0.07995651
247	0x3cde45ba	0.027132858
248	0xbd2a495a	-0.04157386
249	0x3db182c5	0.086675204
250	0xbbf76094	-0.007549355
251	0x3cdc0fc2	0.026862983
252	0xbc9d1990	-0.019177228
253	0xbccb9416	-0.024850886
254	0xbd119a44	-0.03554751
255	0xbcbc1c73	-0.022962784

action_model._discrete_distribution.branches.5.bias f4 [3]
0	0xbaecd5b7	-0.0018069063
1	0xbbc1b98e	-0.0059120124
2	0x3bcda5a3	0.006275849

action_model._discrete_distribution.branches.5.weight f4 [3, 128]
0	0x3cec1d36	0.028822523
1	0xbd8724d7	-0.065988235
2	0x3d95b03d	0.073090054
3	0xbcc4f2bd	-0.024041528
4	0xbd3e8b96	-0.04651984
5	0x3ca2c4fb	0.019869318
6	0xbd454368	-0.048159987
7	0xbbf03e2c	-0.00733163
8	0xbd269b91	-0.040675703
9	0x3cb83bd9	0.022489475
10	0x3d760b1a	0.06006918
11	0xbd733bd5	-0.059383232
12	0x3d54a7b6	0.051917754
13	0x3d1cf448	0.038318902
14	0x3c04c9ab	0.008104722
15	0x3da02b1d	0.07820723
16	0x3b9127dd	0.004429801
17	0xbde84ac9	-0.11342389
18	0x3d2ca042	0.04214502
19	0x3c73f1cb	0.014889191
20	0x3d9386d3	0.0720345
21	0x3de5c422	0.1121905
22	0xbcfaaedd	-0.03060096
23	0xbc60be7e	-0.013717292
24	0x3c86925c	0.016427211
25	0x3d122721	0.035681847
26	0xbc38ef49	-0.011287519
27	0x3d5e8959	0.054330204
28	0xbbc67ad7	-0.006057124
29	0x3d8610f5	0.06546203
30	0xbc8b8edd	-0.017035896
31	0x3d569a97	0.052393522
32	0x3d9a21ed	0.07526002
33	0x3c9a3895	0.018825809
34	0xbdc6f783	-0.09715178
35	0x3cac9c0a	0.021070499
36	0x3c6b8d7f	0.014376997
37	0x3d420517	0.047368135
38	0x3d30e3b8	0.04318592
39	0xbbfdffa6	-0.007751423
40	0x3cbb7521	0.022883
41	0xbd22f1d2	-0.0397814
42	0xbd051f6b	-0.032500666
43	0x3dfad624	0.12247875
44	0xbc2128e9	-0.009836414
45	0xbdab0da7	-0.08352213
46	0x3d308ff2	0.043106027
47	0x3d7445ed	0.059637
48	0x3ced885e	0.028995689
49	0x3ba17a9a	0.0049279453
50	0x3d5c77b9	0.053825114
51	0xbb8f9422	-0.0043816725
52	0x3db6eaa7	0.08931475
53	0xbc2c6733	-0.0105226515
54	0x3c0383cb	0.008027027
55	0x3da99299	0.082799144
56	0x3d173514	0.036915854
57	0xbcb1972e	-0.021678533
58	0x3cb97a55	0.02264134
59	0x3c05c4a4	0.008164559
60	0x3c18a1a1	0.009315879
61	0x3c67b5fa	0.014142508
62	0x3bdd4540	0.00675264
63	0x3ccb70ff	0.024834154
64	0xbd374dc0	-0.044751883
65	0x3d8a71dc	0.06759998
66	0xbd78f0d3	-0.060776543
67	0x3d25b82c	0.040458843
68	0x3ceba928	0.028767183
69	0xbd435e4f	-0.04769736
70	0xbb2d8e62	-0.0026482572
71	0x3d5e178a	0.054221667
72	0xbde557dc	-0.111983985
73	0xbcac5ff6	-0.021041851
74	0xbe1d0f26	-0.1533781
75	0xbabb2102	-0.0014276805
76	0x3ca76355	0.020433107
77	0xbd3de8f7	-0.04636475
78	0x3c79f542	0.015256228
79	0x3e070012	0.1318362
80	0x3b812c09	0.003942017
81	0xbdb6c7c6	-0.089248225
82	0x3d1431e3	0.03618039
83	0xbd6e9ffe	-0.05825805
84	0xbcc8468c	-0.024447702
85	0xbd4817a1	-0.04885066
86	0x3d056d8e	0.032575183
87	0x3dbafa97	0.091298275
88	0x3d691b96	0.056911074
89	0x3d13eff1	0.036117498
90	0xbc646d8d	-0.013942135
91	0x3c929db8	0.017897472
92	0x3aa2cbc0	0.0012420341
93	0xbd86cebc	-0.065824
94	0x3dcbc55c	0.09949753
95	0x3bdd3acc	0.006751394
96	0xbe22fe73	-0.15917377
97	0x3c101c97	0.008795879
98	0x3bf2119f	0.0073873545
99	0x3c8b6e49	0.017020361
100	0xbb8a9b5d	-0.0042299465
101	0xbd6181c0	-0.05505538
102	0x3b8a9548	0.0042292215
103	0x3d19ae89	0.037519965
104	0xbd3bfdbc	-0.045896277
105	0xbd1727ac	-0.03690307
106	0x3cf219a1	0.029553236
107	0xbc3819f5	-0.011236657
108	0xbd35648f	-0.044285353
109	0x3cfe40a2	0.031036679
110	0xbc89c0de	-0.016815599
111	0xbcb98c54	-0.022649921
112	0xbdaf2662	-0.08552243
113	0xbd2707c1	-0.04077888
114	0xbaa01337	-0.0012212758
115	0x3af082a6	0.0018349483
116	0xbc0815f2	-0.008306013
117	0x3d9587a0	0.07301259
118	0x3d005d79	0.031339142
119	0xbd511f8a	-0.05105547
120	0x3d7a842c	0.061161205
121	0xbbfd727d	-0.0077345953
122	0xbdd34d34	-0.1031746
123	0x3d2de19b	0.042451482
124	0x3cbc28eb	0.02296873
125	0x3cac137a	0.02100538
126	0x3c1136f4	0.0088631995
127	0xbd1495dc	-0.03627573
128	0xbc940b98	-0.018071935
129	0x3c803eec	0.015655003
130	0xbd259bbd	-0.040431727
131	0x3d789c22	0.060695775
132	0xbc0b5ecd	-0.008506489
133	0x3bdec77f	0.006798684
134	0x3d6dc366	0.058047675
135	0xbcc94e8e	-0.02457359
136	0x3ce8eef1	0.028434249
137	0xbd2802bd	-0.041018236
138	0xbc866393	-0.016404903
139	0x3d9b1391	0.07572091
140	0x3c74ba4a	0.014936993
141	0xbd23eb1e	-0.040019147
142	0xba0e97c3	-0.00054394844
143	0xbd13b41d	-0.03606044
144	0x3c4f6aa8	0.012659706
145	0x3de8fdff	0.11376571
146	0xbd499e22	-0.049223073
147	0x3b51e9c1	0.0032030197
148	0xbc2008a0	-0.009767681
149	0xbd891f24	-0.06695393
150	0x3d0088fd	0.031380642
151	0x3bdc2ae9	0.0067189825
152	0xbb9ffe4b	-0.004882609
153	0xbb959a34	-0.0045655016
154	0x3bfe33e5	0.007757651
155	0xbce253e0	-0.027627885
156	0xbd1dc173	-0.038514566
157	0xbd8cf4cf	-0.06882631
158	0xbc37ac49	-0.01121051
159	0xbd569c8b	-0.052395385
160	0xbc02ccf6	-0.007983437
161	0xbcac08e9	-0.021000342
162	0x3d90a89a	0.07063408
163	0x3c036b53	0.008021194
164	0xbc636c7d	-0.013880846
165	0xbc15caf3	-0.009142625
166	0x3cb490e6	0.02204175
167	0x3cb04c46	0.021520745
168	0x3c65f61b	0.014035727
169	0x3d4befa3	0.049789082
170	0x3c028335	0.0079658525
171	0xbdc4195a	-0.09575148
172	0x3c960dbc	0.018317096
173	0x3d650c71	0.05592007
174	0xbbde2d60	-0.0067803115
175	0xbca8e2f2	-0.020616028
176	0xbc2882c8	-0.010285087
177	0x3cf589c8	0.029972926
178	0xbd159e57	-0.036527958
179	0xbc46ba34	-0.012129355
180	0xbcedbf84	-0.029021986
181	0x3b054eb3	0.0020341098
182	0x3cc30b2e	0.023809042
183	0xbdae1dbd	-0.08501766
184	0xbcfdaefc	-0.030967228
185	0x3bfd1ae8	0.0077241547
186	0xbcbe21dc	-0.023209505
187	0x3c1fbac9	0.009749123
188	0x3c244282	0.010025622
189	0xbb314a26	-0.0027052253
190	0x3d351602	0.04421044
191	0xbc97c53c	-0.018526666
192	0x3c76c7a9	0.015062251
193	0xbc64b252	-0.0139585305
194	0x3d794612	0.06085784
195	0xbaf54d4c	-0.0018715053
196	0xbbf68065	-0.00752263
197	0x3d342417	0.04397973
198	0x3ab104c8	0.0013505453
199	0xbcd90aa1	-0.026494326
200	0x3da34e41	0.0797391
201	0x3bcdc3ac	0.0062794294
202	0x3e058be0	0.1304164
203	0x3d04f940	0.032464266
204	0xbc5ac450	-0.013352469
205	0xbc71ccc8	-0.014758296
206	0xbc906f8a	-0.017631311
207	0xbd96855b	-0.07349654
208	0x3bb7eb19	0.0056127426
209	0x3da66153	0.08124032
210	0xbcd3657d	-0.02580523
211	0x3c0c7c4c	0.008574557
212	0xbcd803c0	-0.026368976
213	0x3ccff241	0.02538407
214	0xbd2c52f3	-0.042071294
215	0xbd88a197	-0.06671446
216	0xbd07ef1e	-0.033187024
217	0xbc75bec5	-0.014999096
218	0xbd26ee6b	-0.040754717
219	0xbc829d72	-0.015944216
220	0x3c8dbf7b	0.017303219
221	0x3d6c1716	0.057639204
222	0xbda658fe	-0.08122443
223	0xbb928835	-0.0044718035
224	0x3e00173f	0.12508868
225	0x3d4321dd	0.047639716
226	0xbaaaca45	-0.0013030252
227	0x3d43e8fc	0.047829613
228	0x3d8b41cd	0.0679966
229	0x3d246024	0.04013075
230	0x3d0b8237	0.03405973
231	0x3ca8254e	0.0205256
232	0x3cfbb34e	0.030725148
233	0x3c0060ee	0.00783561
234	0xbb8b4475	-0.004250104
235	0x3c600daf	0.013675137
236	0x3cd00aeb	0.025395831
237	0x3c5a0033	0.013305712
238	0x3cfb376e	0.03066608
239	0x3c9d9cde	0.01923984
240	0x3d8045e1	0.06263328
241	0x3d326b27	0.04355922
242	0xbd55c1f7	-0.052186932
243	0x3c80601f	0.015670834
244	0xba89d347	-0.0010515236
245	0xbd449181	-0.047990326
246	0xbc432813	-0.01191141
247	0x3cdbec96	0.026846211
248	0xbd13538e	-0.035968356
249	0x3d57d96b	0.05269758
250	0x3db74416	0.08948533
251	0xbd078079	-0.033081505
252	0x3d296690	0.041357577
253	0xbcfc8384	-0.03082443
254	0x3c1ccbc6	0.009570068
255	0x3d5f00f2	0.05444426

action_model._discrete_distribution.branches.6.bias f4 [3]
0	0x3c77f275	0.01513349
1	0x3b035434	0.0020039203
2	0xbc7b0062	-0.0153199155

action_model._discrete_distribution.branches.6.weight f4 [3, 128]
0	0xbd34c0e0	-0.044129252
1	0xbd337305	-0.043810863
2	0xbcbb0e98	-0.022834107
3	0xbd8df5b6	-0.06931631
4	0xbab6bbcd	-0.0013941467
5	0xbc818285	-0.015809307
6	0xbd3ce265	-0.046114344
7	0xbcc6f066	-0.024284553
8	0xbc120650	-0.008912638
9	0x3c3a3596	0.011365315
10	0xbcc8c510	-0.02450803
11	0xbdd161c9	-0.10223729
12	0xbd611e8e	-0.05496078
13	0x3c93acf1	0.0180268
14	0xbb42f658	-0.0029748883
15	0xbc4f6aa1	-0.0126597
16	0xbc746e81	-0.014918924
17	0xbd7d060e	-0.061773352
18	0x3bcec41b	0.0063099987
19	0xbbc68777	-0.006058629
20	0x3aff60a7	0.0019483761
21	0xbc2a2fdb	-0.010387386
22	0xbc30a81c	-0.010782268
23	0x3a024a0f	0.0004970142
24	0x3c9e3ce1	0.019316139
25	0x3c83cafa	0.016087998
26	0xbd1ad8c1	-0.03780437
27	0xbb92c597	-0.004479121
28	0x3d41bff5	0.047302205
29	0xbcca26c4	-0.024676688
30	0x3cdd5439	0.0270177
31	0xbcbe5051	-0.023231657
32	0xbcfc607b	-0.030807724
33	0x3bc51f1a	0.0060156705
34	0xbc0fcfe4	-0.008777592
35	0x3b8a40a7	0.004219133
36	0xbb5842fb	-0.0032998908
37	0xbc8bd2a1	-0.01706821
38	0xbd304956	-0.04303869
39	0xbc7c75b4	-0.015408922
40	0xbc56821d	-0.013092545
41	0xbcb436da	-0.021998812
42	0xbd2d80f3	-0.042359304
43	0x3b6ba1cc	0.0035954593
44	0xbc28aad2	-0.010294633
45	0xbd249f54	-0.04019101
46	0xbd190e8c	-0.03736739
47	0xbca40864	-0.020023532
48	0xbceb9928	-0.028759554
49	0x3b6d4229	0.0036202765
50	0xbb47f7b6	-0.0030512637
51	0xbcbd942d	-0.023141945
52	0xbc6bf0cb	-0.014400671
53	0x3c827edd	0.015929634
54	0xbad4c7c2	-0.0016233849
55	0x3b0f65b2	0.0021880683
56	0x3c395cb8	0.01131361
57	0xbb85a5c2	-0.0040785978
58	0xbb690a01	-0.0035558941
59	0xbae78588	-0.0017663697
60	0x3c8ea8e4	0.017414518
61	0x3b8b7021	0.00425531
62	0xbd5a6d39	-0.05332682
63	0x3c92f493	0.017938888
64	0x3c6d5ae4	0.014487002
65	0xbb3ee527	-0.0029128285
66	0xbd91b166	-0.07113914
67	0xbbca89a5	-0.0061809593
68	0xb972df19	-0.00023162029
69	0x3c0c7b75	0.008574356
70	0x3cc34f7d	0.023841614
71	0xbc1c4eb2	-0.009540247
72	0x3aee8083	0.0018196258
73	0xbd5de476	-0.054172955
74	0xbce837d1	-0.028346928
75	0xbd2ba277	-0.041902985
76	0xbc0edcd0	-0.008719638
77	0x3cc3c9a1	0.023899855
78	0xbbffdb80	-0.007808149
79	0xbc2431be	-0.010021625
80	0xbbbf57e6	-0.0058393357
81	0xbcde8673	-0.02716372
82	0x3aa453ac	0.0012537143
83	0x3c0f0037	0.008728079
84	0xbd3200d1	-0.04345781
85	0xbb88b192	-0.0041715587
86	0xbc81d0e9	-0.015846686
87	0xbd15a741	-0.03653646
88	0xbd6d9c52	-0.058010407
89	0x3ca8f79e	0.020625886
90	0x3d51c28b	0.05121092
91	0xbbdfd380	-0.0068306327
92	0x3bedbb48	0.0072549917
93	0xbd0fc8f0	-0.03510374
94	0xbcf1a2c5	-0.02949656
95	0x3b28f1dc	0.0025778925
96	0xbd4d3ab3	-0.050104808
97	0xbd8158a7	-0.06315737
98	0xbd169a87	-0.036768463
99	0xbd80c773	-0.06288042
100	0xbd1aac89	-0.0377622
101	0xbd8c2475	-0.06842891
102	0xbd9dcb39	-0.07704777
103	0xbd7df946	-0.062005304
104	0x3c8e7954	0.017391838
105	0x3ca18be5	0.019720027
106	0xbc0b1d5a	-0.008490885
107	0x3cb3a220	0.021927893
108	0xbc0f243f	-0.008736669
109	0xba5cceaa	-0.00084231293
110	0xbc18ac0f	-0.009318366
111	0x3a05d069	0.0005104603
112	0xbdbd00df	-0.09228682
113	0x3cf7f05e	0.030265983
114	0x3d03b4a6	0.0321547
115	0xbca4c96f	-0.020115582
116	0xbc20c989	-0.009813675
117	0xbce98017	-0.02850346
118	0xbbf0e797	-0.0073518264
119	0xbd484910	-0.048897803
120	0xbb5775c4	-0.003287659
121	0xbd787644	-0.060659662
122	0xbca4438f	-0.020051746
123	0x3bddeb35	0.0067724236
124	0xbcf005ab	-0.029299578
125	0xbc16d82a	-0.009206811
126	0xbd739ad9	-0.059473846
127	0xbc27e4fa	-0.010247463
128	0x3b662043	0.0035114444
129	0xbc16c8c7	-0.0092031425
130	0xbc16d7e1	-0.009206743
131	0x3d42de48	0.047575265
132	0xbd3088af	-0.0430991
133	0x3d23efbe	0.040023558
134	0x3cee921d	0.029122407
135	0xbb2f1eb9	-0.0026721193
136	0xbb7c054b	-0.0038455303
137	0x3d485bbc	0.04891561
138	0x3b86aea2	0.0041101733
139	0x3d0610d3	0.03273089
140	0x3d0041dc	0.03131281
141	0x3ca0804e	0.01959243
142	0xba92768b	-0.0011174245
143	0x3c6ff0f1	0.014644847
144	0xba819fd5	-0.0009889553
145	0x3c576f43	0.013149085
146	0x3ceb7296	0.028741162
147	0xb6c91401	-5.9925956e-06
148	0x3b9807b7	0.0046395916
149	0x3c127192	0.00893821
150	0x3b44ad42	0.0030010496
151	0xbc7fc56d	-0.015611035
152	0xbbb776ec	-0.0055988934
153	0xbbd1d5d9	-0.0064036665
154	0x3baf3a27	0.0053475085
155	0xbc26e423	-0.010186228
156	0x3b819d29	0.0039555025
157	0xbd099ce9	-0.033596907
158	0xbc0b2184	-0.0084918775
159	0xbc23b65b	-0.009992207
160	0x3caccae9	0.021092849
161	0x3aeb45db	0.0017949896
162	0xbba19146	-0.004930648
163	0x3c96eea7	0.018424345
164	0xbc9cf64d	-0.019160414
165	0x3c2e4011	0.010635392
166	0x3d09fed6	0.033690296
167	0x3cfeba35	0.03109465
168	0x3c80eda0	0.015738308
169	0xbc419e64	-0.011817548
170	0xbca561ec	-0.020188294
171	0x3bf545d2	0.00748513
172	0xbbdb6f2b	-0.006696602
173	0x3d0ace70	0.03388828
174	0x3cfc8910	0.030827075
175	0x3c798004	0.015228275
176	0x3d1ef908	0.038811713
177	0xbbefdbb1	-0.0073198904
178	0x39eca4e1	0.00045136272
179	0x3c694828	0.014238395
180	0x3cb45b30	0.022016138
181	0x3c46f791	0.012143985
182	0x3c86934f	0.016427664
183	0x3d2ece70	0.042677343
184	0xbb9a6b16	-0.0047124727
185	0x3ca54963	0.020176595
186	0xbbaa716a	-0.0052015083
187	0x3ae236ad	0.0017258726
188	0xbc7b0782	-0.015321614
189	0x3cc2ea55	0.023793379
190	0x3c63ce50	0.013904169
191	0xbd146b00	-0.036234856
192	0x3cd4ff2c	0.026000582
193	0x3cc2b4df	0.023767887
194	0x3c459a9b	0.012060787
195	0x3be4dccf	0.0069843302
196	0x3a01dd18	0.0004953905
197	0x3cce5e35	0.025191406
198	0x3aef714a	0.0018268016
199	0x3c6e61a0	0.014549643
200	0xbb61946f	-0.0034420749
201	0xbcfb0396	-0.030641358
202	0x3d1b9bef	0.037990507
203	0x3c4807da	0.012208903
204	0x3c147c2b	0.009062807
205	0x3cf60c2b	0.030035099
206	0xbc05269b	-0.00812688
207	0x3cf714e2	0.030161325
208	0x3a796781	0.00095140195
209	0x3cb913cf	0.022592453
210	0xbc606b47	-0.013697452
211	0xbc8c7487	-0.017145408
212	0xbc295fad	-0.010337752
213	0xbb3fd2b8	-0.0029269885
214	0x3c4098b3	0.011755156
215	0x3c3d51f5	0.011555185
216	0x3cd62e1a	0.02614503
217	0xb8bf753e	-9.129428e-05
218	0xbcbeeef6	-0.023307305
219	0x3b687c5a	0.003547451
220	0xbc5281f9	-0.012848371
221	0x3c2c82e2	0.010529252
222	0xbc8261a9	-0.015915709
223	0xbbaed53f	-0.0053354795
224	0x3cf08727	0.02936132
225	0x3cced8e6	0.02524991
226	0x3b35217c	0.0027638366
227	0x3ca53413	0.020166432
228	0x3c3e88f3	0.011629331
229	0x3cda478a	0.02664544
230	0x3cee29d2	0.029072676
231	0x3cbd5a7a	0.023114432
232	0xbcde5a47	-0.027142657
233	0x3ceef6a9	0.029170351
234	0x3cdcc5fa	0.026949871
235	0xbc3eca5e	-0.011644928
236	0xbc035fe5	-0.0080184685
237	0x3c11c261	0.008896441
238	0x3d16c528	0.036809117
239	0xbb256b49	-0.002524095
240	0x3c213452	0.009839134
241	0xbd05c43d	-0.03265785
242	0xbc748e7d	-0.01492655
243	0x3ca55d6b	0.020186147
244	0xbc1ca34f	-0.00956042
245	0x3c691bac	0.014227789
246	0xba485c28	-0.0007643127
247	0xbd4009f6	-0.0468845
248	0xbc5b88b6	-0.013399294
249	0x3d13d5ca	0.036092557
250	0x3c00831a	0.007843757
251	0xbbd01f0d	-0.006351358
252	0xbc7b0439	-0.015320831
253	0xbbcc3d52	-0.006232896
254	0xbcccc08f	-0.024994163
255	0x3c441b72	0.011969434

action_model._discrete_distribution.branches.7.bias f4 [3]
0	0xbcb8b9e4	-0.022549577
1	0x3b79d899	0.0038123487
2	0x3c8db88e	0.017299917
