ArmRobot/Assets/results/testCubeCloser/TouchCubeMoveGail/TouchCubeMoveGail-8499994.pt (torch, 790615 bytes, 75 tensors)

network_body.linear_encoder.seq_layers.0.weight f4 [128, 105]
0.0786497 -0.093539484 -0.14360787 0.015371334 -0.0041660587 -0.045815066 0.03981667 -0.17654163
0.027611587 0.099312305 0.12672108 -0.102377325 -0.106565975 -0.11251002 0.048418466 -0.13145132
0.060167853 -0.0383779 -0.004171638 0.030760812 -0.12533276 0.01112189 0.062492937 0.092027746
-0.112137005 -0.19455352 -0.19593124 -0.056201484 0.14139147 -0.32093465 0.12144443 0.0070793405
-0.09273829 -0.12026218 0.101189256 -0.00074040284 -0.28979686 0.088078305 -0.1126358 0.17205524
-0.06649635 0.07431619 0.097962424 -0.21258853 0.078541875 -0.0011474334 -0.008530314 -0.04249098
0.07436081 -0.07526422 -0.2518448 0.19944054 -0.10820986 -0.025368495 0.09412416 -0.035641663
0.1906197 -0.22606723 0.033073716 0.21448775 -0.039162517 0.042137526 0.17527066 0.0016592838
-0.40901566 0.110920236 -0.07542703 -0.06864265 0.20353046 -0.035623774 0.051387507 -0.017103216
0.14210592 -0.109391324 0.029378245 -0.07531386 0.03365435 0.3259392 0.0530521 0.05438795
0.24925384 0.10471589 -0.010430878 0.04003097 0.05204911 -0.110355936 -0.17984335 0.12223347
0.14553405 0.13071647 0.058840502 -0.13410994 0.03443747 -0.17454463 0.4320176 -0.039903827
0.30410978 -0.16384962 0.18660699 -0.2049667 -0.046558578 -0.05955649 0.16640987 0.29624358
0.13598605 0.08310266 -0.052659225 -0.027693575 -0.17041034 0.13236852 -0.04918947 -0.08237818
-0.012888852 -0.021537527 -0.019614713 -0.10011186 -0.06289725 0.066142276 -0.05893782 0.15651989
-0.0723109 0.16144256 -0.033041995 -0.00095993193 -0.08501493 0.1560772 0.08577052 0.23290107
0.17761667 -0.055344958 -0.043872043 0.11255265 -0.004145705 -0.024621097 0.12102423 0.18710814
-0.09258846 -0.0832026 0.06343169 0.074195385 0.07536656 0.02089122 0.13927847 0.14401574
-0.04010606 0.035776127 -0.093487166 0.13711229 0.006149649 -0.040049654 -0.11863775 0.10890098
-0.05441727 0.0046933712 0.0069734002 0.25271827 -0.04794997 -0.024721267 -0.19617802 0.07878043
-0.06884476 -0.06664701 0.20924382 -0.1451081 0.037840676 -0.045047153 0.023650907 -0.07531643
-0.0005854247 0.07650285 -0.03602635 0.110925674 0.060080353 0.01733335 0.08426993 0.0069949096
-0.08695922 -0.13449599 0.006326723 0.24591292 0.0015972131 -0.011874599 0.086795345 -0.054291666
0.28901017 -0.48026726 -0.3455951 -0.025842391 -0.07763687 0.050684016 -0.16232046 -0.010933311
0.034654353 -0.077673055 0.20269668 -0.008448844 0.09413045 0.087331764 -0.07036477 -0.20155242
0.1480512 -0.06259074 0.3352378 -0.030629758 0.054353748 -0.16353725 0.33998957 -0.078040406
-0.05006962 -0.22464469 -0.015043804 0.019228151 0.019619174 0.06619795 0.08190021 -0.12314622
0.16090155 0.08210682 0.06099617 0.074728936 0.11663304 -0.22234645 -0.00075959053 -0.17060375
0.18012565 0.03828534 0.1577965 0.07764723 0.13247351 -0.099786654 -0.038691755 0.1547591
0.100868136 0.08571052 0.25686198 0.07519243 -0.21644853 -0.030152613 0.16371486 -0.032688897
-0.15575065 0.1799771 -0.004601003 -0.11927972 0.07175798 0.09908192 0.105476975 0.025532424
0.21069427 -0.098550625 -0.010269195 0.021714838 0.12984729 0.1902032 -0.0041591492 0.07887325
00000000: 1813 a13d a191 bfbd f10d 13be 0cd8 7b3c
00000010: 6f83 88bb 94a8 3bbd ce16 233d 54c7 34be
00000020: b231 e23c 4064 cb3d 2cc3 013e 34ab d1bd
00000030: 433f dabd a76b e6bd 7152 463d 2d9b 06be
00000040: 9172 763d 2532 1dbd 3cb2 88bb 19fe fb3c
00000050: 3b57 00be 9638 363c 98f8 7f3d 0b79 bc3d
00000060: 16a8 e5bd 0a39 47be 33a2 48be 8733 66bd
00000070: edc8 103e 8c51 a4be dbb7 f83d d0f9 e73b
00000080: 93ed bdbd 054c f6bd 503c cf3d 9817 42ba
00000090: 4160 94be 6662 b43d 99ad e6bd 402f 303e
000000a0: 3d2f 88bd 1633 983d 86a0 c83d cfb0 59be
000000b0: 90da a03d 7a65 96ba bbc2 0bbc 060b 2ebd
000000c0: 7b4a 983d 2124 9abd cdf1 80be 243a 4c3e
000000d0: 229d ddbd 97d1 cfbc 2bc4 c03d fefc 11bd
000000e0: d031 433e 2b7e 67be 4e78 073d ada2 5b3e
000000f0: e068 20bd 6698 2c3d 277a 333e 537c d93a
00000100: 806a d1be 262a e33d 7d79 9abd 8594 8cbd
00000110: 4a6a 503e 3cea 11bd b57b 523d 0b1c 8cbc
00000120: 3784 113e 8f08 e0bd a5aa f03c 273e 9abd
00000130: 25d9 093d 81e1 a63e 294d 593d e6c5 5e3d
00000140: 663c 7f3e 4975 d63d 46e6 2abc 84f7 233d
00000150: 7331 553d 4b02 e2bd db28 38be 8b55 fa3d
00000160: e106 153e 8ada 053e bd02 713d 1e54 09be
00000170: 4e0e 0d3d d4bb 32be 6931 dd3e 3272 23bd
00000180: 47b4 9b3e 32c8 27be e715 3f3e cae2 51be
00000190: 35b4 3ebd 82f1 73bd 5967 2a3e 3dad 973e
000001a0: ed3f 0b3e ba31 aa3d 33b1 57bd a3dd e2bc
000001b0: 0c80 2ebe 9d8b 073e e67a 49bd e4b5 a8bd
000001c0: c32b 53bc 786f b0bc 09af a0bc 7207 cdbd
000001d0: 46d0 80bd 9a75 873d c968 71bd c046 203e
000001e0: bd17 94bd 3351 253e 0b57 07bd f1a3 7bba
000001f0: 4f1c aebd b4d2 1f3e 74a8 af3d 9e7d 6e3e
00000200: 25e1 353e 65b1 62bd 2cb3 33bd 0182 e63d
00000210: b2d8 87bb 2fb2 c9bc 8ddb f73d 4799 3f3e
00000220: 059f bdbd 2066 aabd 79e8 813d c0f3 973d
00000230: c859 9a3d 1024 ab3c 049f 0e3e dd78 133e
00000240: 4146 24bd fd89 123d 3376 bfbd 2a67 0c3e
00000250: ff82 c93b 1b0b 24bd 59f8 f2bd 7a07 df3d
00000260: a5e4 5ebd daca 993b 1f81 e43b 4a64 813e
00000270: 3067 44bd 4184 cabc e4e2 48be a257 a13d
00000280: 7bfe 8cbd 3a7e 88bd 0344 563e 3897 14be
00000290: d3fe 1a3d 5d83 38bd 8cbf c13c 803f 9abd
000002a0: 3077 19ba 87ad 9c3d 5e90 13bd 002d e33d
000002b0: d116 763d abfe 8d3c b795 ac3d 8e35 e53b
000002c0: ad17 b2bd 51b9 09be 6650 cf3b 99d0 7b3e
000002d0: 9459 d13a ae8d 42bc c2c1 b13d f060 5ebd
000002e0: 24f9 933e 97e5 f5be d7f1 b0be 6cb3 d3bc
000002f0: 1400 9fbd 0b9a 4f3d 5637 26be a121 33bc
00000300: b9f1 0d3d 0d13 9fbd b88f 4f3e 056d 0abc
00000310: 77c7 c03d ffda b23d 681b 90bd c263 4ebe
00000320: bc9a 173e 932f 80bd 4aa4 ab3e 42eb fabc
00000330: 09a2 5e3d 4f76 27be 1d13 ae3e a6d3 9fbd
00000340: cd15 4dbd 4209 66be 4a7a 76bc 5b84 9d3c
00000350: 64b8 a03c ca92 873d 4cbb a73d 1634 fcbd
00000360: 60c3 243e 9f27 a83d 1fd7 793d 7c0b 993d
00000370: 4edd ee3d caae 63be 421f 47ba c0b2 2ebe
00000380: dc72 383e 17d1 1c3d 6895 213e 8305 9f3d
00000390: 23a7 073e f25c ccbd 3f7b 1ebd 2b79 1e3e
000003a0: f493 ce3d ff88 af3d 6a83 833e 7dfe 993d
000003b0: afa4 5dbe 9d02 f7bc dea4 273e cbe4 05bd
000003c0: 197d 1fbe eb4b 383e 03c4 96bb ed48 f4bd
000003d0: d9f5 923d 76eb ca3d 5004 d83d 6029 d13c
000003e0: 3dc0 573e e9d4 c9bd 2040 28bc 51e3 b13c
000003f0: b0f6 043e a1c4 423e 7949 88bb 4c88 a13d

network_body.linear_encoder.seq_layers.0.bias f4 [128]
-0.02112946 0.039525248 0.0010023839 0.03950299 0.029814694 -0.003609246 0.049032956 0.030016162
0.084659144 0.02119069 0.007531217 0.0069763055 0.0493483 0.028607942 -0.010462805 0.024906565
0.02124937 0.011235824 -0.003856458 0.0011471047 0.043817095 0.05585359 0.017385509 -0.031213224
0.034222793 0.015108257 -0.014080427 -0.0454764 -0.010529382 0.030660355 0.041713905 0.03466576
-0.009542459 0.018760344 0.021822028 0.023351926 -0.022624858 0.028087474 -0.0022722713 -0.018714031
0.0018785024 0.03471065 0.0053713555 0.03771335 -0.0068976195 0.06484772 0.053474817 -0.002800561
-0.033606756 -0.01931806 -0.012131464 0.0060875732 0.1095763 -0.029079167 -0.010088994 0.044659853
0.012784469 -0.0070388303 -0.014274734 0.011873789 0.012171128 0.004286326 0.02903127 -0.017162632
0.06654303 0.021577895 0.006608252 0.012059774 0.05461824 -0.00013166579 0.027861934 0.0092090145
-0.010690911 -0.027171807 0.0552534 -0.007662894 0.039560627 0.02416208 0.033800486 0.022665722
0.042222783 0.0022266028 0.0919704 0.02938242 0.024703676 0.035192393 -0.024712443 -0.0072018728
0.042831387 0.04813038 0.018407919 0.015149888 0.013467201 -0.010798667 0.024581544 -0.044967536
0.0136100305 0.008745919 -0.015397147 0.0041710148 0.06415867 0.027088258 0.027261212 -0.022875419
0.031562317 0.04606894 0.014291732 0.025085405 -0.010107694 0.022740688 -0.022646775 -0.012952709
-0.022059985 -0.02100883 0.029171126 0.0385643 -0.01597436 -0.029809419 0.088012986 0.002918824
-0.0021891252 -0.0028077231 0.041601 -0.029794777 -0.03942485 -0.019215144 0.042407025 0.07087855
00000000: b017 adbc 3ae5 213d 6c62 833a e3cd 213d
00000010: f23d f43c 1a89 6cbb c8d6 483d 74e4 f53c
00000020: c661 ad3d 1998 ad3c 6dc8 f63b 7e99 e43b
00000030: 7121 4a3d 345b ea3c 2f6c 2bbc da08 cc3c
00000040: 2913 ae3c 7616 383c a1bc 7cbb 725a 963a
00000050: 8e79 333d bcc6 643d 0e6c 8e3c e0b2 ffbc
00000060: 332d 0c3d 9f88 773c 97b1 66bc 7645 3abd
00000070: 6e83 2cbc 6d2b fb3c 33dc 2a3d affd 0d3d
00000080: f957 1cbc 4baf 993c 1cc4 b23c 8a4c bf3c
00000090: c457 b9bc b417 e63c 63ea 14bb 2b4e 99bc
000000a0: 1538 f63a c12c 0e3d 3202 b03b 5079 1a3d
000000b0: 6d05 e2bb e2ce 843d 6908 5b3d 9e89 37bb
000000c0: 3da7 09bd e840 9ebc 0cc3 46bc 447a c73b
000000d0: 8a69 e03d 6f37 eebc 4f4c 25bc 40ed 363d
000000e0: f375 513c fda5 e6bb 93e0 69bc 488a 423c
000000f0: 6969 473c 4f74 8c3b fcd2 ed3c a698 8cbc
00000100: b647 883d 20c4 b03c 098a d83b 5c96 453c
00000110: 60b7 5f3d c40f 0ab9 b63e e43c 68e1 163c
00000120: ee28 2fbc 6997 debc 6451 623d 0419 fbbb
00000130: 530a 223d 8eef c53c 6172 0a3d 77ad b93c
00000140: ccf1 2c3d 32ec 113b fa5a bc3d 67b3 f03c
00000150: 5d5f ca3c e625 103d c071 cabc b0fd ebbb
00000160: f76f 2f3d 5d24 453d 34cc 963c 3c37 783c
00000170: 89a5 5c3c e4ec 30bc 3c5f c93c e12f 38bd
00000180: 9bfc 5e3c 0b4b 0f3c 5144 7cbc 02ad 883b
00000190: 9f65 833d 32e8 dd3c e852 df3c 3b65 bbbc
000001a0: 7d47 013d c9b2 3c3d de27 6a3c e87f cd3c
000001b0: be9a 25bc ae4a ba3c bb85 b9bc 9937 54bc
000001c0: 24b7 b4bc b61a acbc 49f8 ee3c 99f5 1d3d
000001d0: a9dc 82bc e232 f4bc 2740 b43d be49 3f3b
000001e0: 6d77 0fbb c701 38bb cf65 2a3d 2d14 f4bc
000001f0: f47b 21bd 1469 9dbc fdb2 2d3d c628 913d

network_body.linear_encoder.seq_layers.2.weight f4 [128, 128]
0.11650971 -0.18140055 -0.00179062 -0.17138593 0.00030373083 0.12067145 0.1212571 0.18038261
-0.22045086 -0.029134678 -0.0018136089 0.017770695 0.07234436 0.13435136 -0.074842006 -0.10184624
-0.053374827 0.05083066 0.044226367 -0.11012552 0.023332149 -0.09454465 -0.15618192 -0.08608669
0.08270274 -0.24021381 -0.03666311 -0.0052405866 -0.052216887 0.12799631 -0.002993502 -0.009983807
0.0012084793 -0.06263937 -0.11311032 0.020059714 -0.06257022 -0.03748714 -0.04996375 0.16001876
-0.043436985 0.0067778747 -0.13032676 0.09864994 -0.14500177 0.15406479 -0.05450989 -0.058014642
0.15434523 0.031828456 -0.13652304 0.04655332 -0.12249339 -0.018285176 -0.17286178 -0.019053863
-0.041502826 -0.022858188 -0.036520373 0.12577833 0.084308855 0.014527664 0.028986773 0.025715042
0.078007266 -0.040304907 -0.07399593 0.029812869 0.011823703 0.020097792 -0.006239118 -0.034183186
-0.0194266 0.026969101 -0.0805849 0.08045349 0.12272721 0.14955613 -0.06374811 -0.008366262
-0.01277855 0.15926312 0.018295005 0.0037365316 -0.0041687987 0.029001875 0.045774907 -0.042250775
-0.034505263 -0.057451155 -0.022679554 -0.1244235 -0.26607835 -0.22833864 -0.1254087 0.06731897
0.011890443 -0.050464462 -0.097602345 0.010951634 -0.07418162 0.11202247 -0.0909625 -0.037580714
0.027100068 0.2095416 -0.016643189 -0.03698511 -0.0022836754 0.12520106 -0.0016395386 -0.0316099
-0.2821406 -0.040566865 0.083684206 0.017138945 -0.10291947 0.10084695 -0.043571956 -0.003771953
0.07427674 -0.09604038 0.04813831 -0.1250153 -0.021339748 -0.045169905 0.18397674 -0.038311288
-0.0624355 0.046140593 0.0036312938 0.00406647 -0.05833903 -0.11980047 0.2542138 0.007030053
-0.13587084 -0.09737569 -0.017695833 -0.10938218 0.042127244 0.08962483 -0.10269704 -0.12282583
-0.059672758 -0.077572994 0.044120215 -0.024192037 -0.069628544 -0.024077937 -0.08519067 0.08018076
-0.13382044 0.1387773 -0.11470998 -0.00018118587 0.053561192 0.16828151 0.066840135 -0.10337383
0.022813506 0.12497904 0.25551015 0.004831698 -0.03467474 -0.18258587 -0.028066447 -0.044916663
-0.10988012 0.17116255 -0.10113314 0.029382873 -0.061980173 -0.041838337 0.034682136 -0.1939969
-0.11984326 -0.15188383 -0.08325377 -0.043506783 -0.0052156043 -0.023389561 0.046360902 0.20671864
0.07688002 -0.022232404 -0.13239425 0.13024041 0.059259385 0.14154267 0.13371482 -0.11890806
0.13349521 -0.019659333 -0.18707098 -0.11558634 -0.10819124 0.039826695 0.060825434 -0.124368876
0.21814936 0.11422712 -0.048185054 -0.12005816 0.032551143 -0.008783596 0.068188384 -0.14813867
0.04403961 -0.01712509 0.34780067 -0.10504346 0.006618607 -0.0033682568 0.06497428 0.058984037
-0.0518062 0.124487065 -0.15950586 -0.101065405 0.1094863 -0.051347002 -0.23296162 -0.015643168
-0.115914375 -0.0023344727 0.20261322 0.06595723 -0.11331929 -0.084136955 0.13646266 -0.016526561
0.22474505 0.028319558 0.0015692262 -0.017542735 -0.05244227 -0.005546892 0.011021328 0.062148605
0.020436794 -0.077179395 0.06228976 -0.037408896 0.007630568 0.018336775 0.013743164 0.088916615
0.036811974 -0.107799314 0.17078887 -0.01419837 -0.045826085 -0.17430924 -0.17431255 -0.17034441
00000000: a59c ee3d 11c1 39be 3db3 eaba cb7f 2fbe
00000010: 103e 9f39 9822 f73d a455 f83d 38b6 383e
00000020: dfbd 61be d9ab eebc 9eb6 edba d993 913c
00000030: 4829 943d 6793 093e c446 99bd c394 d0bd
00000040: 909f 5abd cf33 503d b526 353d 7d89 e1bd
00000050: 1023 bf3c a0a0 c1bd 27ee 1fbe 384e b0bd
00000060: 0e60 a93d 9cfa 75be 0f2c 16bd 3ab9 abbb
00000070: 60e1 55bd 7711 033e a12e 44bb 1f93 23bc
00000080: d665 9e3a 1249 80bd 62a6 e7bd 4554 a43c
00000090: d124 80bd 1e8c 19bd caa6 4cbd f5db 233e
000000a0: fbea 31bd ef18 de3b 6174 05be fb08 ca3d
000000b0: 587b 14be 29c3 1d3e c345 5fbd c3a0 6dbd
000000c0: ad0c 1e3e 8e5e 023d b2cc 0bbe b2ae 3e3d
000000d0: d1dd fabd cbca 95bc ae02 31be d916 9cbc
000000e0: defe 29bd 1841 bbbc 6396 15bd 09cc 003e
000000f0: 1faa ac3d 7005 6e3c ab75 ed3c 5aa8 d23c
00000100: 46c2 9f3d c216 25bd 2e8b 97bd 1e3a f43c
00000110: 34b8 413c 20a4 a43c 8471 ccbb ab03 0cbd
00000120: 8824 9fbc 4eee dc3c b209 a5bd cdc4 a43d
00000130: 6758 fb3d 3e25 193e 5e8e 82bd a512 09bc
00000140: 205d 51bc df15 233e 68df 953c 99e0 743b
00000150: 6b9a 88bb 5795 ed3c 787e 3b3d 260f 2dbd
00000160: 6455 0dbd e751 6bbd 79ca b9bc bfd1 febd
00000170: 6c3b 88be 9bd1 69be 236b 00be 87de 893d
00000180: 22d0 423c d3b3 4ebd bde3 c7bd 7b6e 333c
00000190: 88ec 97bd 096c e53d 8c4a babd 3cee 19bd
000001a0: f600 de3c 1392 563e 4c57 88bc b37d 17bd
000001b0: b7a9 15bb b534 003e c9e5 d6ba 6279 01bd
000001c0: bc74 90be 7129 26bd a062 ab3d f966 8c3c
000001d0: 71c7 d2bd d988 ce3d 8278 32bd df32 77bb
000001e0: 671e 983d d2b0 c4bd ad2c 453d 0304 00be
000001f0: b2d0 aebc 1404 39bd 6664 3c3e 4cec 1cbd
00000200: 5ebc 7fbd ebfd 3c3d 00fb 6d3b 0640 853b
00000210: e8f4 6ebd f359 f5bd 5028 823e 5c5c e63b
00000220: ba21 0bbe e86c c7bd daf6 90bc c403 e0bd
00000230: 9e8d 2c3d 398d b73d d352 d2bd 1c8c fbbd
00000240: 6c6b 74bd 97de 9ebd 66b7 343d 612e c6bc
00000250: 6999 8ebd 183f c5bc 7278 aebd cf35 a43d
00000260: 3a08 09be a31b 0e3e 11ed eabd b6fc 3db9
00000270: fb62 5b3d fd51 2c3e 7be3 883d a9b5 d3bd
00000280: 64e3 ba3c 03f5 ff3d 3ad2 823e 3853 9e3b
00000290: 1a07 0ebd caf7 3abe 9beb e5bc 89fa 37bd
000002a0: d408 e1bd 3c45 2f3e e41e cfbd 5ab4 f03c
000002b0: ecde 7dbd ad5e 2bbd db0e 0e3d 20a7 46be
000002c0: 6270 f5bd 6f87 1bbe f480 aabd 2b34 32bd
000002d0: a9e7 aabb 779b bfbc eee4 3d3d 0dae 533e
000002e0: 4673 9d3d bb20 b6bc 5c92 07be be5d 053e
000002f0: f8b9 723d 90f0 103e 8aec 083e 1286 f3bd
00000300: f8b2 083e 9c0c a1bc 898f 3fbe 88b8 ecbd
00000310: 5e93 ddbd 5121 233d 1724 793d 1cb5 febd
00000320: 8c62 5f3e e9ef e93d b15d 45bd 0de1 f5bd
00000330: 5954 053d 12e9 0fbc 5aa6 8b3d aab1 17be
00000340: e162 343d eb49 8cbc ee12 b23e 0721 d7bd
00000350: e6e0 d83b f9bd 5cbb 3c11 853d 3f99 713d
00000360: bd32 54bd 13f3 fe3d 8155 23be 61fb cebd
00000370: 5a3a e03d 3c51 52bd 7e8d 6ebe 1a26 80bc
00000380: 8464 edbd f4fd 18bb d779 4f3e 9614 873d
00000390: f213 e8bd ff4f acbd debc 0b3e b662 87bc
000003a0: 9123 663e 6bfe e73c 7eae cd3a c8b5 8fbc
000003b0: b5cd 56bd b4c2 b5bb cd92 343c 898f 7e3d
000003c0: 106b a73c 3b10 9ebd 8c23 7f3d 123a 19bd
000003d0: d809 fa3b 0137 963c 022b 613c ea19 b63d
000003e0: 27c8 163d e3c5 dcbd 47e3 2e3e 48a0 68bc
000003f0: 22b4 3bbd 1f7e 32be fd7e 32be c46e 2ebe

network_body.linear_encoder.seq_layers.2.bias f4 [128]
0.0022751784 0.006604158 -0.0044601485 -0.0046659308 -0.00853489 0.0076284567 0.020820994 0.0018232442
-0.010303926 -0.006401355 0.0037342792 -0.0025732396 0.024008296 -0.042975586 0.02859906 0.00031393295
0.00030259855 -0.021175222 -0.021303765 -0.0023317353 -0.02978075 -0.030952753 -0.008340661 0.03966826
0.034778044 0.01413877 -0.043748155 -0.0056283865 -0.0014693027 -0.027784897 -0.006428269 0.034719963
-0.023630481 -0.011886346 -0.0123026725 -0.03206885 0.009012886 -0.010754503 -0.0021612227 -0.027541704
0.032386824 -0.03999181 -0.0019970597 -0.019029304 0.0074954354 -0.010717523 0.006150489 -0.01123869
-0.00042628357 -0.006830734 -0.038370583 0.021448562 -0.00548866 0.005849695 0.025076775 -0.026128663
-0.007220141 -0.060210347 0.012759412 0.006569103 0.0043946723 -0.018005649 0.01998638 -0.043104876
0.0006964824 -0.011818734 -0.019290827 -0.024944613 -0.004462345 -0.023645526 -0.00026272002 0.0025249792
0.0040327855 -0.023714824 -0.016888311 -0.021912577 -0.00023368941 -0.027442763 -0.027251838 -0.0316598
0.025849871 0.01092521 0.014478993 -0.0017371472 -0.008580687 -0.003403779 0.0085266 0.010189633
0.023679992 -0.001489021 -0.027814254 -0.027198853 0.019111482 -0.004935261 -0.007284302 -0.0053491164
0.0076156305 0.0038482114 0.021935305 0.017442856 0.009422526 -0.0007272475 0.02001882 -0.005733356
-0.0010409232 -0.015893215 0.017160017 0.0024281438 -0.0069925506 -0.004944975 -0.019029256 -0.016968096
0.022740731 -0.036469955 -0.008622093 -0.019754795 0.010731795 0.011931191 0.015337215 0.0077675986
-0.00036054372 0.019991122 -0.0015279688 0.010932415 0.019171316 0.0031895305 -0.009023883 -0.0012077652
00000000: 291b 153b b167 d83b 7026 92bb aae4 98bb
00000010: ecd5 0bbc 22f8 f93b ca90 aa3c ecf9 ee3a
00000020: ccd1 28bc 75c2 d1bb cfba 743b cca3 28bb
00000030: 0cad c43c 2b07 30bd 9348 ea3c 5e97 a439
00000040: 17a6 9e39 a977 adbc 3c85 aebc 07d0 18bb
00000050: c2f6 f3bc a190 fdbc 45a7 08bc 2f7b 223d
00000060: 6c73 0e3d 4da6 673c 4431 33bd 546e b8bb
00000070: 9e95 c0ba 279d e3bc 3ba4 d2bb 8536 0e3d
00000080: b694 c1bc f3be 42bc 2691 49bc a05a 03bd
00000090: c9aa 133c a833 30bc 4da3 0dbb 249f e1bc
000000a0: 0ca8 043d 74ce 23bd 1ae1 02bb 58e3 9bbc
000000b0: 459c f53b 8d98 2fbc 0b8a c93b 7b22 38bc
000000c0: d07e dfb9 5ad4 dfbb 792a 1dbd e5b4 af3c
000000d0: 38da b3bb ccae bf3b cf6d cd3c c70b d6bc
000000e0: ef96 ecbb 209f 76bd da0c 513c a141 d73b
000000f0: 2f01 903b 9580 93bc 7aba a33c bd8e 30bd
00000100: 2594 363a 5da3 41bc cc07 9ebc a558 ccbc
00000110: dd38 92bb 43b4 c1bc afbd 89b9 1f7a 253b
00000120: 7525 843b 9745 c2bc 5b59 8abc 0182 b3bc
00000130: 860a 75b9 a5cf e0bc 3f3f dfbc b5ad 01bd
00000140: 1cc3 d33c a7ff 323c 4c39 6d3c fdb0 e3ba
00000150: 0396 0cbc ef11 5fbb 27b3 0b3c 6bf2 263c
00000160: 8bfc c13c 412b c3ba b8da e3bc 21d0 debc
00000170: af8f 9c3c f8b7 a1bb 27b1 eebb a447 afbb
00000180: 8a8c f93b 4632 7c3b abb1 b33c 52e4 8e3c
00000190: f060 1a3c c1a4 3eba 82fe a33c e0de bbbb
000001a0: 966f 88ba 7d32 82bc 2a93 8c3c 7e21 1f3b
000001b0: c421 e5bb 7509 a2bb 3ee3 9bbc ad00 8bbc
000001c0: c54a ba3c 8561 15bd ae43 0dbc cfd4 a1bc
000001d0: 69d4 2f3c 0b7b 433c f148 7b3c 5787 fe3b
000001e0: 5c07 bdb9 6cc4 a33c 2046 c8ba df1d 333c
000001f0: 2a0d 9d3c 7107 513b e9d8 13bc e04d 9eba

action_model._discrete_distribution.branches.0.weight f4 [3, 128]
-0.06173689 -0.111891404 -0.025037834 -0.022836836 -0.0033892784 0.026382886 0.054954283 -0.10043741
0.07747917 -0.040513046 0.06271023 0.09766285 0.0068792794 0.06616112 -0.11704153 0.060948655
-0.11983618 -0.1270197 -0.041360326 -0.06338517 0.120341316 0.054150205 -0.11818118 0.010175163
-0.09251727 -0.12690987 -0.018850815 -0.010060419 -0.025187224 -0.15804793 -0.17968057 -0.071673006
0.1622967 -0.1979503 0.004542241 0.14948446 -0.088848844 0.014870401 0.09202092 -0.044798452
-0.019140435 0.02702596 0.16297163 -0.02084429 -0.042642605 0.021299662 -0.00934957 -0.016171768
0.07536956 0.05825145 -0.124340065 -0.14006904 -0.09355109 -0.08286538 -0.10005834 -0.042618554
0.06611673 0.0281526 0.10613422 0.062845215 -0.13937177 0.074441954 -0.023085395 -0.06158457
-0.13219926 -0.0814811 -0.09092332 0.16315724 0.13591859 0.005664911 0.016666172 0.13206626
0.07724446 -0.038265638 0.0060816323 0.0005304174 -0.07214799 -0.02592874 0.14311038 0.023347039
-0.06530709 0.004527266 -0.16019769 -0.15346946 0.054798193 0.10254181 -0.13334255 -0.01532229
-0.042386264 -0.021258894 -0.07515103 -0.14471392 0.060867198 0.012068193 -0.061295424 -0.03473053
0.042443648 -0.0243368 -0.0230023 0.09803483 -0.0833451 0.056960758 -0.12327094 -0.075677626
0.10193933 0.047488406 -0.11612187 0.06341339 -0.06684206 -0.021547303 -0.1835187 0.003315946
-0.02291604 -0.033639867 0.09734082 -0.07757935 -0.092661016 0.18494035 -0.13038653 -0.029473692
0.12579548 -0.099630244 0.019186927 0.19581278 0.06505245 -0.036449358 0.0597861 0.005023403
0.015757995 -0.002654609 0.06225131 0.023940643 0.04849183 -0.009345493 0.010565541 -0.0735053
-0.008265788 0.054196585 -0.028492115 -0.04050869 0.011351838 0.0045195012 0.012628028 -0.021900197
0.049998697 0.090915285 -0.0060551967 0.033674892 0.003401857 0.017497228 0.008377672 -0.024130143
-0.018687384 0.011129817 -0.02917683 0.0132889645 0.015977016 0.04370781 0.0006460324 0.07608792
-0.054181084 0.09017063 0.0028337738 -0.07637318 0.019985456 0.04405396 -0.022885893 0.026671194
-0.019518476 0.027261114 -0.011494864 -0.06010146 -0.043493688 0.0067729577 0.06012969 -0.00022197427
-0.0005554839 0.03324773 0.061578326 0.052342962 0.008817746 0.05538296 0.0027950304 0.0053142444
-0.019569535 -0.0063490504 0.0043398333 -0.00038424548 0.0124687 -0.006992372 0.00074202934 0.028664995
0.07307058 0.05372641 0.027631195 -0.030699357 -0.023604708 0.0037935274 0.03141154 -0.00053822104
0.011603516 0.0045868685 0.029046815 -0.016664604 -0.04871655 0.0300336 -0.039361976 -0.008603821
0.043316916 -0.030462358 -0.021200886 0.038029753 -0.024877297 -0.023997797 0.019764856 0.049927108
0.01798984 0.03985549 -0.046743613 0.003708394 0.006085828 0.00727497 0.0409596 0.018561345
-0.0164444 -0.002380398 0.043603826 0.02386349 0.036936574 0.021411177 0.04313516 -0.021463925
-0.04093361 -0.0011250189 0.062406853 0.027944785 0.015430484 -0.029300759 0.02638324 0.029803172
0.0071485713 0.009624499 -0.01280113 0.026566131 -0.012611935 -0.03373246 0.0618405 -0.011726218
0.011092847 -0.011401327 -0.009309674 -0.038635314 0.04973364 -0.011251342 0.005095936 0.092856556
00000000: d2df 7cbd 5227 e5bd 251c cdbc 5114 bbbc
00000010: a81e 5ebb ec20 d83c be17 613d 21b2 cdbd
00000020: 66ad 9e3d 02f1 25bd 396e 803d 7603 c83d
00000030: 946b e13b 7b7f 873d 78b3 efbd 4ca5 793d
00000040: ac6c f5bd 7411 02be 7269 29bd 16d0 81bd
00000050: 8275 f63d 9bcc 5d3d f908 f2bd bab5 263c
00000060: b279 bdbd a9f4 01be 066d 9abc 75d4 24bc
00000070: 7055 cebc 51d7 21be 2ffe 37be 4cc9 92bd
00000080: 1b31 263e 7cb3 4abe 14d7 943b 7412 193e
00000090: 62f6 b5bd fba2 733c 7775 bc3d 957e 37bd
000000a0: 67cc 9cbc 8c65 dd3c 09e2 263e a5c1 aabc
000000b0: 03aa 2ebd a17c ae3c f02e 19bc a87a 84bc
000000c0: 5b5b 9a3d 1399 6e3d 01a6 febd 426e 0fbe
000000d0: b797 bfbd 53b5 a9bd 63eb ccbd cb90 2ebd
000000e0: 3568 873d 48a0 e63c e65c d93d feb4 803d
000000f0: 79b7 0ebe 0675 983d 951d bdbc 1a40 7cbd
00000100: 3e5f 07be 90df a6bd 0136 babd b112 273e
00000110: 3e2e 0b3e b8a0 b93b 7f87 883c 613c 073e
00000120: 5832 9e3d 6ebc 1cbd 6e48 c73b b60b 0b3a
00000130: 53c2 93bd 8268 d4bc 878b 123e 4a42 bf3c
00000140: b9bf 85bd 7659 943b dd0a 24be 1927 1dbe
00000150: 1274 603d 7101 d23d f38a 08be 580a 7bbc
00000160: 389d 2dbd 2227 aebc c9e8 99bd e32f 14be
00000170: e24f 793d acb9 453c e910 7bbd 9a41 0ebd
00000180: 64d9 2d3d f85d c7bc 526f bcbc 7cc6 c83d
00000190: d6b0 aabd af4f 693d 7975 fcbd dffc 9abd
000001a0: 91c5 d03d 3483 423d 4ed1 edbd e1de 813d
000001b0: 7de4 88bd f883 b0bc 53ec 3bbe 5850 593b
000001c0: 6bba bbbc f5c9 09bd a05a c73d ece1 9ebd
000001d0: 0fc5 bdbd 0161 3d3e 0c84 05be d072 f1bc
000001e0: 88d0 003e f10a ccbd e72d 9d3c 2583 483e
000001f0: 383a 853d ec4b 15bd 45e2 743d 5c9b a43b
00000200: e916 813c f3f8 2dbb 3bfb 7e3d 2b1f c43c
00000210: 5e9f 463d d71d 19bc 171b 2d3c f289 96bd
00000220: 3a6d 07bc 3dfd 5d3d 4c68 e9bc 71ec 25bd
00000230: 0ffd 393c 5318 943b cae5 4e3c 0b68 b3bc
00000240: 6fcb 4c3d cb31 ba3d ac6a c6bb afee 093d
00000250: b1f1 5e3b 5956 8f3c 8142 093c 94ac c5bc
00000260: 4916 99bc d659 363c 3f04 efbc f5b9 593c
00000270: 3be2 823c f606 333d 805a 293a fcd3 9b3d
00000280: fcec 5dbd 61ab b83d d6b6 393b 8b69 9cbd
00000290: 8ab8 a33c ed71 343d 327b bbbc 8c7d da3c
000002a0: 36e5 9fbc b352 df3c f454 3cbc f32c 76bd
000002b0: 7026 32bd b0ef dd3b 8d4a 763d c4c1 68b9
000002c0: e59d 11ba c62e 083d 8e39 7c3d 9365 563d
000002d0: 4f78 103c 3ed9 623d d42c 373b 1d23 ae3b
000002e0: 4a50 a0bc b20b d0bb 2935 8e3b 8e74 c9b9
000002f0: 8549 4c3c 4520 e5bb bf84 423a dad2 ea3c
00000300: 07a6 953d 3910 5c3d d15a e23c 387d fbbc
00000310: a95e c1bc d49c 783b 63a9 003d 6717 0dba
00000320: ac1c 3e3c 714d 963b 96f3 ed3c 3584 88bc
00000330: 018b 47bd 0609 f63c 063a 21bd 0af7 0cbc
00000340: 146d 313d 328c f9bc 7bad adbc 16c5 1b3d
00000350: 79cb cbbc 0797 c4bc e8e9 a13c 5e80 4c3d
00000360: 6e5f 933c 833f 233d 3b76 3fbd 8708 733b
00000370: a06b c73b df62 ee3b 41c5 273d f60d 983c
00000380: 68b6 86bc 7400 1cbb ed99 323d 5e7d c33c
00000390: ce4a 173d 7e66 af3c 7eae 303d 1dd5 afbc
000003a0: 00aa 27bd 5f75 93ba 549e 7f3d 76ec e43c
000003b0: 24d0 7c3c 2508 f0bc aa21 d83c c825 f43c
000003c0: 903e ea3b 13b0 1d3c d5bb 51bc 37a1 d93c
000003d0: 4aa2 4ebc 0c2b 0abd 774c 7d3d 531f 40bc
000003e0: c6be 353c a2cc 3abc 9a87 18bc 1040 1ebd
000003f0: 80b5 4b3d 8c57 38bc cffb a63b 942b be3d

action_model._discrete_distribution.branches.0.bias f4 [3]
0.026976775 -0.022844313 -0.0040284186
00000000: 66fe dc3c ff23 bbbc d300 84bb

action_model._discrete_distribution.branches.1.weight f4 [3, 128]
-0.091500245 0.062753536 0.010007779 -0.09249794 -0.06689699 0.10105992 -0.02247132 0.004248852
-0.06646166 0.043080665 -0.08085671 0.015467015 0.088418 0.050827917 -0.01328015 -0.06803056
-0.08597312 0.02891183 -0.077876896 -0.19839932 -0.012638349 -0.09139566 0.0054270076 0.008363237
-0.06517541 -0.025506565 0.076514885 0.116056114 -0.08660021 0.023199681 -0.005881943 0.066000685
0.015335022 -0.12291141 0.022399211 -0.0013873995 0.11180077 0.10213697 -0.06672919 -0.10813944
-0.07243875 0.032542683 0.010244744 -0.08461769 -0.12680468 0.06265229 -0.04282897 -0.05549272
-0.11646807 0.011337817 -0.15239067 0.09206117 0.041982487 0.14878275 -0.10240093 -0.093470454
0.016645424 0.08421832 -0.0047771395 -0.0033570894 0.018800756 -0.11601725 0.05594895 -0.08856509
0.10502703 0.047408134 -0.0332432 0.0058011524 0.008840698 0.010448111 -0.075276315 -0.07062473
-0.0074703223 -0.0474834 -0.14312653 0.027457291 -0.03288021 0.084983535 0.07283773 0.058467146
0.10275663 -0.054443788 0.05683544 -0.01539614 -0.0628968 0.010647908 -0.101796605 0.11505493
-0.06682993 0.085922316 0.063023224 -0.08574275 -0.01849822 0.09031549 0.119150884 -0.018494392
-0.0060264748 -0.014165727 -0.1025231 0.046986803 0.13052812 0.05046903 0.0696818 -0.006811541
0.053494852 0.029808126 -0.034986824 -0.11448503 0.09388787 -0.11359438 -0.102413386 0.06913672
-0.06274266 -0.0025421104 -0.00015665343 -0.07735283 -0.11926356 0.07526701 0.030664548 -0.09279971
0.046064813 -0.077771 0.0037325027 0.031627227 -0.017579546 0.039655603 0.0065984167 0.041561976
0.017461978 -0.036221974 0.018319828 0.012710283 -0.020648226 0.0053898054 0.07664317 -0.006898067
0.06811176 0.0012508522 -0.018783389 0.073362395 -0.013972813 0.033320483 0.014064431 0.06507254
0.026373003 -0.02346185 -0.03388622 0.0020118116 0.056473687 -0.029605443 0.044120193 0.014765429
0.028515361 0.011191145 -0.0104680015 0.019894596 -0.026119167 -0.027227808 0.006567524 -0.07079687
0.08820297 -0.056888644 0.10877923 0.04418546 0.021381265 -0.0130405 0.0761692 -0.093846515
0.0013783082 0.0041352236 0.017055264 -0.0032819714 0.03378383 0.048870273 0.06576689 0.028527733
0.033147722 -0.019457983 -0.0010075314 -0.021322113 -0.03150995 -0.0463251 0.014005612 -0.06623753
0.033108525 -0.08312195 0.00949947 0.009335477 -0.006970707 0.040995922 0.042303603 -0.104011334
-0.03544773 -0.032456897 0.018698758 0.030010443 -0.020533677 0.047911555 0.04261804 -0.0075614625
0.01386947 0.03612179 -0.04123777 0.028399136 0.052648455 0.056118865 0.039696857 0.030703828
-0.017526329 0.024329213 0.017303012 -0.0032461332 -0.023398766 0.02501547 0.08927576 -0.05463328
0.04872136 0.011923464 -0.0131156575 0.012490361 0.0072108647 -0.0036435002 -0.04844309 0.02615815
0.088345096 0.0043141344 0.038094293 0.019193638 -0.0017500946 0.041252982 0.04687581 0.06027765
0.06435493 0.021168705 -0.038448535 0.024987051 -0.008214884 0.03037824 0.054434586 0.04837269
0.04778485 0.012952158 0.011977566 0.011471021 0.012641508 0.06725721 0.0017330372 0.0070817336
-0.023710595 0.032764204 -0.010440961 0.052635122 0.026666215 0.021817226 0.011979977 -0.008491611
00000000: 7b64 bbbd ed84 803d abf7 233c 8f6f bdbd
00000010: 4a01 89bd 81f8 ce3d c615 b8bc f439 8b3b
00000020: 0d1d 88bd 5a75 303d 3498 a5bd 5d69 7d3c
00000030: 7f14 b53d ef30 503d fc94 59bc 9b53 8bbd
00000040: ad12 b0bd 81d8 ec3c ec7d 9fbd 3129 4bbe
00000050: 1411 4fbc a62d bbbd 0ad5 b13b f505 093c
00000060: af7a 85bd 25f3 d0bc d6b3 9c3d d4ae ed3d
00000070: 735b b1bd 420d be3c 50bd c0bb 5e2b 873d
00000080: be3f 7b3c fab8 fbbd 8d7e b73c 67d9 b5ba
00000090: cdf7 e43d 302d d13d 50a9 88bd 3678 ddbd
000000a0: c45a 94bd 7a4b 053d 92d9 273c 0a4c adbd
000000b0: 16d9 01be d84f 803d 6e6d 2fbd 564c 63bd
000000c0: d086 eebd 40c2 393c 4d0c 1cbe 918a bc3d
000000d0: d4f5 2b3d 815a 183e 94b7 d1bd 706d bfbd
000000e0: fc5b 883c a87a ac3d 8d89 9cbb 9d02 5cbb
000000f0: 0b04 9a3c 749a edbd ba2a 653d 9d61 b5bd
00000100: 6918 d73d 082f 423d 062a 08bd 9817 be3b
00000110: 93d8 103c 8e2e 2b3c 782a 9abd b3a3 90bd
00000120: 9bc9 f4bb f47d 42bd c38f 12be 1dee e03c
00000130: 66ad 06bd d90b ae3d f32b 953d 3f7b 6f3d
00000140: 1172 d23d 7300 5fbd 47cc 683d 1740 7cbc
00000150: 0ad0 80bd 9074 2e3c bd7a d0bd eba1 eb3d
00000160: 21de 88bd 0af8 af3d 5212 813d e599 afbd
00000170: 9489 97bc 54f7 b83d 6105 f43d 8d81 97bc
00000180: bc79 c5bb 5e17 68bc a2f7 d1bd 3c75 403d
00000190: 2aa9 053e 9db8 4e3d 55b5 8e3d 5933 dfbb
000001a0: 6b1d 5b3d 2c30 f43c 584e 0fbd 2177 eabd
000001b0: 4948 c03d 2ca4 e8bd 1cbe d1bd 8d97 8d3d
000001c0: 397f 80bd 8999 26bb 5643 24b9 296b 9ebd
000001d0: 7440 f4bd 9725 9a3d 3834 fb3c c60d bebd
000001e0: 75ae 3c3d 6746 9fbd 019d 743b 8d8b 013d
000001f0: fb02 90bc ea6d 223d 8837 d83b e43c 2a3d
00000200: 6c0c 8f3c 7e5d 14bd 7713 963c ca3e 503c
00000210: 7826 a9bc f79c b03b 18f7 9c3d 2e09 e2bb
00000220: 2e7e 8b3d a3f3 a33a 9fdf 99bc 063f 963d
00000230: 3aee 64bc 0f7b 083d 806e 663c c044 853d
00000240: 320c d83c 1133 c0bc 47cc 0abd 99d8 033b
00000250: f450 673d 1d87 f2bc 60b7 343d b3ea 713c
00000260: 0c99 e93c 105b 373c fb81 2bbc fef9 a23c
00000270: ddf7 d5bc da0c dfbc 6234 d73b f3fd 90bd
00000280: c2a3 b43d 1104 69bd a5c7 de3d d0fb 343d
00000290: c327 af3c d2a7 55bc 99fe 9b3d 9a32 c0bd
000002a0: 59a8 b43a c580 873b 7bb7 8b3c 5816 57bb
000002b0: ea60 0a3d 322c 483d cbb0 863d feb2 e93c
000002c0: e8c5 073d 5966 9fbc 250f 84ba b6ab aebc
000002d0: 9410 01bd 63bf 3dbd cb77 653c 8ba7 87bd
000002e0: ce9c 073d d73b aabd aaa3 1b3c d4f3 183c
000002f0: 876a e4bb 57eb 273d 8b46 2d3d e503 d5bd
00000300: a431 11bd 86f1 04bd 232e 993c 76d8 f53c
00000310: 3e36 a8bc e83e 443d 4190 2e3d 25c6 f7bb
00000320: c63c 633c 71f4 133d f0e8 28bd 4ea5 e83c
00000330: e8a5 573d e5dc 653d 2c99 223d 9886 fb3c
00000340: 6093 8fbc 0f4e c73c 0cbf 8d3c 14bd 54bb
00000350: c5ae bfbc 3eed cc3c 36d6 b63d 25c7 5fbd
00000360: 0c90 473d a25a 433c 0ee3 56bc 5fa4 4c3c
00000370: 1e49 ec3b cac7 6ebb 436c 46bd 9e49 d63c
00000380: 46ee b43d 955d 8d3b c308 1c3d fa3b 9d3c
00000390: 6e63 e5ba e3f8 283d d900 403d b2e5 763d
000003a0: 84cc 833d fe69 ad3c 367c 1dbd a5b1 cc3c
000003b0: b997 06bc c9db f83c cdf6 5e3d 7122 463d
000003c0: 0cba 433d 4a35 543c 8e3d 443c f3f0 3b3c
000003d0: 541e 4f3c 26be 893d 1427 e33a e30d e83b
000003e0: b93c c2bc c233 063d 9110 2bbc ed97 573d
000003f0: 1b73 da3c 0aba b23c aa47 443c 6620 0bbc

action_model._discrete_distribution.branches.1.bias f4 [3]
0.05210333 0.04678266 -0.12877391
00000000: 4d6a 553d 2d9f 3f3d 4fdd 03be

action_model._discrete_distribution.branches.2.weight f4 [3, 128]
0.09441038 0.11983174 0.04746702 0.051826358 0.1298693 0.10253335 -0.047912117 -0.04710466
-0.0453975 -0.044870313 -0.023151314 -0.106594704 -0.0816824 -0.023078779 0.053480063 0.0741307
0.08193428 -0.066306606 0.038044196 0.12606058 -0.015354019 0.048930664 0.00059544476 -0.017652918
0.030679945 0.0075344034 0.06511735 0.00047816185 0.11960762 -0.060340773 -0.013595885 0.036939908
-0.106772035 0.10700737 -0.102105886 -0.12158111 -0.06330724 0.07542234 -0.13022771 0.06255079
0.02899761 0.009190057 -0.022690076 -0.03912985 -0.054986026 -0.09040572 -0.15541926 0.00029723288
-0.016466921 0.010225953 0.08455463 0.04187413 0.12123589 0.08887055 0.046580534 -0.007823892
-0.11925033 -0.0077494606 0.107031316 -0.04401073 -0.116291635 0.04701588 0.062026065 0.06365657
0.04633091 0.043590013 0.08416812 -0.056837715 0.035611615 -0.012982803 0.085580155 0.031044044
0.098218605 -0.00044155645 0.06764547 -0.0562455 0.03746118 0.07013521 -0.1357201 -0.049836207
0.0041151578 0.032469153 -0.046388946 -0.11231717 0.13886279 0.055050425 0.07655944 0.047225963
0.017651629 -0.0497944 -0.030467236 0.045506492 -0.0019121092 -0.00058959745 0.065467924 0.12297775
-0.112535715 0.05317409 -0.053218562 -0.07639444 0.03255431 -0.10439434 -0.07436303 0.05709726
-0.041486192 -0.06520656 -0.086561784 0.049448535 -0.043132856 0.013205522 0.09390897 -0.046839304
-0.04906014 -0.033401366 0.0808494 0.123636305 -0.019386556 -0.09317236 0.10548513 0.07359694
-0.027464462 -0.016770352 0.08134363 -0.036564987 -0.059615284 -0.04012151 -0.023114366 -0.06869871
0.018753216 0.03094756 0.007286072 0.066290736 -0.009631242 -0.034203358 -0.03469268 -0.016726589
0.042310312 -0.0192419 0.011463142 -0.0021866343 0.0378176 -0.03751735 0.04901056 0.00767704
0.023042005 -0.03819321 -0.016687702 0.010833527 0.034025103 0.014429983 0.02514779 0.020362718
0.029874029 -0.01723719 0.038114972 0.011082144 0.031989146 0.006434251 0.002543536 -0.037661396
0.0013713697 0.017163912 -0.015291075 0.036519837 0.04744232 -0.014410099 0.06413586 -0.0018963765
0.016191076 -0.038725007 0.009721219 0.012275107 0.006254372 0.0064649014 -0.024700362 0.020279119
-0.0064457 -0.024618454 0.0022519198 0.02031654 0.010132755 0.01653593 -0.00041884332 -0.02211982
0.03172776 0.004742658 -0.019738328 0.020004887 -0.009997199 0.012994445 0.027868485 0.001020188
0.012171686 -0.021995794 0.0048995065 0.08566631 0.099716805 0.0083706165 0.010474095 0.03336372
0.017418155 0.055855557 0.01457231 0.0757354 0.038869984 -0.015052799 0.060745966 0.018522829
0.021859495 0.02278681 0.056913365 -0.01853708 0.012421978 0.039395005 0.046076316 -0.0060965396
-0.00015348378 0.023793377 -0.0030790616 0.03691978 -0.02924467 0.0063164933 0.0047889175 -0.05207366
-0.041563362 0.01981018 -0.06971232 -0.002154161 -0.027184581 0.0011689643 -0.018067434 0.02207068
0.035531376 -0.005818766 -0.09246161 0.057122923 0.020652086 0.0017449362 0.010336675 0.023915175
-0.041722324 -0.050888944 -0.009863044 0.05005659 0.032965533 0.017421927 -0.026883667 -0.0040950705
0.032065265 0.022409372 0.020755501 0.035019364 -0.0226847 0.018360112 0.048500042 0.00013355254
00000000: 3b5a c13d 586a f53d c76c 423d e047 543d
00000010: 75fc 043e 01fd d13d 7f3f 44bd d1f0 40bd
00000020: bbf2 39bd efc9 37bd d3a7 bdbc 534e dabd
00000030: 1a49 a7bd b50f bdbc e90d 5b3d d6d1 973d
00000040: 29cd a73d c2cb 87bd 3bd4 1b3d 0616 013e
00000050: 6c8f 7bbc 856b 483d 9f17 1c3a da9c 90bc
00000060: 8254 fb3c 28e3 f63b 3f5c 853d ccb1 fa39
00000070: d7f4 f43d e327 77bd 46c1 5ebc 4d4e 173d
00000080: 4cab dabd ae26 db3d e41c d1bd 84ff f8bd
00000090: 3aa7 81bd 0777 9a3d 6a5a 05be a11a 803d
000000a0: 658c ed3c e591 163c 8ae0 b9bc 9f46 20bd
000000b0: 0739 61bd a226 b9bd 3a26 1fbe ecd5 9b39
000000c0: a3e5 86bc c18a 273c fa2a ad3d 3584 2b3d
000000d0: 864a f83d c301 b63d 3bcb 3e3d c82f 00bc
000000e0: 8439 f4bd 30ef fdbb 3c33 db3d 9844 34bd
000000f0: 4f2a eebd b993 403d 0b0f 7e3d 605e 823d
00000100: 7bc5 3d3d 718b 323d 5660 ac3d aace 68bd
00000110: 7cdd 113d d3b5 54bc a644 af3d 1450 fe3c
00000120: d626 c93d b480 e7b9 b589 8a3d ae61 66bd
00000130: e570 193d 0da3 8f3d 36fa 0abe 0d21 4cbd
00000140: 72d8 863b 60fe 043d 5602 3ebd 8b06 e6bd
00000150: 0c32 0e3e 8e7c 613d 32cb 9c3d 0370 413d
00000160: 269a 903c 36f5 4bbd 6d96 f9bc 0465 3a3d
00000170: bd9f faba 378f 1aba 0c14 863d c2db fb3d
00000180: 2079 e6bd 13cd 593d b5fb 59bd b074 9cbd
00000190: ab57 053d b3cc d5bd a54b 98bd d1de 693d
000001a0: 6ded 29bd 048b 85bd 4e47 b1bd 8c8a 4a3d
000001b0: 14ac 30bd f95b 583c 5953 c03d 92da 3fbd
000001c0: 49f3 48bd dfcf 08bd 5f94 a53d 0835 fd3d
000001d0: 8ed0 9ebc 26d1 bebd 9608 d83d feb9 963d
000001e0: 27fd e0bc fa61 89bc 7d97 a63d 2bc5 15bd
000001f0: 282f 74bd 7456 24bd 575a bdbc e9b1 8cbd
00000200: 58a0 993c bd85 fd3c 00c0 ee3b 70c3 873d
00000210: 5bcc 1dbc d218 0cbd e919 0ebd 3306 89bc
00000220: 944d 2d3d 30a1 9dbc e7cf 3b3c a34d 0fbb
00000230: a1e6 1a3d cbab 19bd 4cbf 483d ae8f fb3b
00000240: 96c2 bc3c 7c70 1cbd a6b4 88bc 1b7f 313c
00000250: e85d 0b3d bc6b 6c3c bd02 ce3c b7cf a63c
00000260: 61ba f43c 0235 8dbc 721e 1c3d e291 353c
00000270: 0d07 033d 69d6 d23b 74b1 263b d642 1abd
00000280: 88bf b33a 559b 8c3c 6b87 7abc d395 153d
00000290: e152 423d 5618 6cbc a959 833d d68f f8ba
000002a0: 26a3 843c 1d9e 1ebd bf45 1f3c 881d 493c
000002b0: 7af1 cc3b 86d7 d33b 6a58 cabc 6520 a63c
000002c0: 7336 d3bb a4ac c9bc f294 133b df6e a63c
000002d0: db03 263c 5c76 873c 3398 dbb9 a034 b5bc
000002e0: f8f4 013d 4d68 9b3b 46b2 a1bc 4ae1 a33c
000002f0: 4bcb 23bc a7e6 543c 734c e43c d4b7 853a
00000300: c06b 473c 8630 b4bc 0a8c a03b d171 af3d
00000310: 5338 cc3d e924 093c 8a9b 2b3c 65a8 083d
00000320: 85b0 8e3c ccc8 643d b3c0 6e3c 291b 9b3d
00000330: 2236 1f3d 04a0 76bc c3d0 783d 30bd 973c
00000340: af12 b33c 67ab ba3c fd1d 693d 13db 97bc
00000350: 8d85 4b3c a85c 213d 85ba 3c3d 7bc5 c7bb
00000360: 7df0 20b9 54ea c23c 15ca 49bb 3239 173d
00000370: 8592 efbc 96fa ce3b 5aec 9c3b 314b 55bd
00000380: 583e 2abd f548 a23c 55c5 8ebd d32c 0dbb
00000390: 33b2 debc ef37 993a 2802 94bc 92cd b43c
000003a0: 5989 113d 59ab bebb 835c bdbd baf9 693d
000003b0: 902e a93c 58b6 e43a 285b 293c c2e9 c33c
000003c0: 07e5 2abd ed70 50bd 9b98 21bc 2408 4d3d
000003d0: de06 073d 6eb8 8e3c 233b dcbc f12f 86bb
000003e0: de56 033d dc93 b73c 7107 aa3c 7770 0f3d
000003f0: 44d5 b9bc f267 963c fba7 463d 3d0a 0c39

action_model._discrete_distribution.branches.2.bias f4 [3]
-0.035837624 0.005907541 0.027108783
00000000: 79ca 12bd 0c94 c13b 3d13 de3c

action_model._discrete_distribution.branches.3.weight f4 [3, 128]
0.0064543476 -0.07773025 0.028186273 -0.0012330307 -0.027663052 0.011848292 0.043880098 0.040854402
-0.033316873 0.09469586 -0.06948121 -0.046341017 0.041860953 -0.045283534 -0.0889295 -0.01858473
-0.004849205 0.060561456 0.07724614 0.027688164 0.035045784 0.046866994 0.08897947 -0.1328096
-0.10423354 0.013146132 -0.016139857 -0.063445814 0.0001387331 0.007075261 0.026381541 -0.14438678
-0.011209384 0.010707151 -0.07264807 -0.02726779 0.013672461 -0.042997986 -0.022249693 -0.0049192715
0.09609414 0.079404615 -0.046024807 -0.0353762 -0.040482845 0.058516975 -0.003222462 -0.06587322
-0.03763476 0.060080454 0.063638195 -0.017581295 0.011900861 0.013373991 -0.055064283 -0.00917319
0.080298655 0.01137265 0.025146363 -0.028806888 -0.019374572 0.09152401 0.017515646 0.0012379178
0.012243745 -0.05956772 -0.042940434 -0.0018992615 0.011701963 0.0028925918 -3.1521136e-05 0.0052270205
0.069965445 0.015694462 -0.04085052 0.053173985 -0.023198873 0.04443061 0.006819454 0.020165201
-0.014080031 -0.101586014 -0.043147527 0.046103634 -0.012439415 -0.010693071 0.040078457 -0.018083634
-0.06286641 -0.15006772 0.00066133245 0.02347013 -0.06571763 -0.010073424 -0.10004437 0.017735675
-0.028535772 -0.024907665 0.043407127 0.028884336 -0.06434246 0.03599047 -0.021854253 0.18138547
0.027664049 0.0066640317 -0.011065542 -0.0023820805 -0.08442321 -0.04446137 -0.0068136277 0.048000354
-0.07846429 -0.013375076 0.08568156 0.038387902 0.014586826 -0.015360367 0.0057232566 -0.029525904
0.08801103 0.05051747 -0.0595761 -0.030180989 0.09434889 0.0327813 0.060759682 -0.03458053
-0.014539122 -0.005594058 0.030868428 0.03229467 -0.011141569 -0.021630904 -0.01288988 0.024734575
0.002062942 -0.048348017 -0.0422055 0.0057126908 0.00057002273 -0.00072228524 0.06863654 -0.059211142
-0.01317066 -0.014794437 -0.014298531 0.0005349679 0.023727227 0.0016211598 -0.0065615685 0.0014308835
0.02685883 -0.029211184 0.012670873 -0.011768859 -0.025164355 -0.001962315 -0.0110405525 0.018835634
0.016915666 -0.022612654 -0.008097517 0.06081882 0.012023947 0.03213733 0.010153263 0.03840119
-0.02276533 0.034606233 0.075238556 0.011777268 0.03684464 -0.0059140567 -0.018372275 -0.017875094
-0.01010696 0.01615379 -0.03709788 0.024558824 0.059433095 0.02849316 -0.005557113 0.06938244
0.022734381 0.014886003 0.008298176 -0.027003724 0.026011063 0.0073406636 0.01649698 0.04886751
0.048189998 0.013948148 0.021105047 0.054192714 0.019830972 -0.037731774 -0.010116117 0.005673823
0.06889181 -0.009813347 -0.010563892 0.04291691 0.0075292485 0.018048245 0.07036609 0.009917422
-0.0016445157 -0.011420607 0.030211668 0.024915913 -0.023663616 0.018970411 -0.031535774 0.0054307054
0.024999725 0.042725455 -0.010455071 -0.0061258585 0.055984758 0.035608206 -0.003873913 0.0109326
-0.022413272 -0.095064566 -0.024259642 -0.011082909 -0.008372154 0.0038229004 -0.010158375 -0.027602898
0.009019702 0.036725227 0.015307226 0.0021295955 0.024550982 0.0026217743 -0.0011641042 -0.006605054
0.0022807943 -0.050622374 0.027004503 -0.015713235 -0.00506114 0.052823808 -0.022563271 0.0032870239
0.04844177 0.0070137815 -0.022849154 -0.01174924 -0.009119425 0.013345783 0.015668461 0.04450944
00000000: fe7e d33b 0a31 9fbd e6e6 e63c a59d a1ba
00000010: a09d e2bc 571f 423c 9ebb 333d f256 273d
00000020: 4677 08bd e7ef c13d 2a4c 8ebd 14d0 3dbd
00000030: 6476 2b3d 3a7b 39bd ab20 b6bd 013f 98bc
00000040: 14e6 9ebb 4a0f 783d 3933 9e3d 4ad2 e23c
00000050: 2b8c 0f3d 9bf7 3f3d de3a b63d 3dff 07be
00000060: 6578 d5bd e062 573c bc37 84bc e1ef 81bd
00000070: e278 1139 97d7 e73b 1a1e d83c 21da 13be
00000080: 90a7 37bc 0c6d 2f3c 83c8 94bd b360 dfbc
00000090: 7502 603c a81e 30bd fd44 b6bc d731 a1bb
000000a0: 01cd c43d e39e a23d 8284 3cbd a2e6 10bd
000000b0: 57d1 25bd 7faf 6f3d f12f 53bb 8ae8 86bd
000000c0: e826 1abd ec16 763d be54 823d a606 90bc
000000d0: d4fb 423c 951e 5b3c 168b 61bd 264b 16bc
000000e0: 9f73 a43d 5a54 3a3c bfff cd3c 6cfc ebbc
000000f0: 6cb7 9ebc f170 bb3d f97c 8f3c a141 a23a
00000100: fd99 483c 48fd 73bd 4fe2 2fbd a4f0 f8ba
00000110: 97b9 3f3c a391 3d3b 9035 04b8 6d47 ab3b
00000120: 0b4a 8f3d ac91 803c e052 27bd f7cc 593d
00000130: 900b bebc dffc 353d ba75 df3b 7e31 a53c
00000140: eeaf 66bc 540c d0bd 76bb 30bd 2ad7 3c3d
00000150: b0ce 4bbc fe31 2fbc 4f29 243d 2124 94bc
00000160: 1bc0 80bd 5aab 19be 455d 2d3a 6e44 c03c
00000170: f796 86bd 010b 25bc 10e4 ccbd 684a 913c
00000180: dac3 e9bc 290b ccbc accb 313d d89e ec3c
00000190: fbc5 83bd be6a 133d b107 b3bc 1dbd 393e
000001a0: b79f e23c f35d da3b 3f4c 35bc ae1c 1cbb
000001b0: 13e6 acbd 201d 36bd da44 dfbb 059c 443d
000001c0: e3b1 a0bd 2323 5bbc d079 af3d a23c 1d3d
000001d0: 95fd 6e3c 0caa 7bbc 288a bb3b 4fe0 f1bc
000001e0: 203f b43d 68eb 4e3d 1206 74bd 1f3e f7bc
000001f0: fe39 c13d af45 063d 25df 783d 50a4 0dbd
00000200: 7f35 6ebc 5c4e b7bb c9df fc3c 6a47 043d
00000210: 218b 36bc 4b33 b1bc 1330 53bc 2aa0 ca3c
00000220: 6c32 073b 9208 46bd addf 2cbd 8631 bb3b
00000230: 946d 153a be57 3dba 5091 8c3d 6287 72bd
00000240: c0c9 57bc 5e64 72bc 6344 6abc 173d 0c3a
00000250: 9a5f c23c 197d d43a 6d02 d7bb 7c8c bb3a
00000260: 0d07 dc3c 4b4c efbc 7e99 4f3c 2cd2 40bc
00000270: 7a25 cebc 2f9a 00bb 6fe3 34bc 304d 9a3c
00000280: b992 8a3c 2c3e b9bc 73ab 04bc 281d 793d
00000290: 1700 453c 6fa2 033d df59 263c 914a 1d3d
000002a0: 5b7e babc 44bf 0d3d ac16 9a3d 71f5 403c
000002b0: 68ea 163d b4ca c1bb 7481 96bc ca6e 92bc
000002c0: aa97 25bc f454 843c f2f3 17bd 962f c93c
000002d0: 1e70 733d 7d6a e93c 7118 b6bb 6118 8e3d
000002e0: 743d ba3c 6ce4 733c 13f5 073c ea36 ddbc
000002f0: 2715 d53c f389 f03b ad24 873c 4c29 483d
00000300: e062 453d c686 643c 7ee4 ac3c 2ef9 5d3d
00000310: 9074 a23c a28c 1abd 12be 25bc 7aeb b93b
00000320: 2617 8d3d 29c8 20bc 2d14 2dbc a4c9 2f3d
00000330: eab7 f63b ead9 933c 191c 903d af7c 223c
00000340: ca8c d7ba 7f1d 3bbc 767e f73c 751c cc3c
00000350: 33da c1bc d667 9b3c a82b 01bd 0ff4 b13b
00000360: 39cc cc3c e300 2f3d bf4b 2bbc 6dbb c8bb
00000370: 4650 653d e9d9 113d 7ae1 7dbb a61e 333c
00000380: 0a9c b7bc 36b1 c2bd 28bc c6bc 1795 35bc
00000390: 5c2b 09bc a089 7a3b 506f 26bc 791f e2bc
000003a0: 5fc7 133c 316d 163d 29cb 7a3c af90 0b3b
000003b0: 241f c93c 13d2 2b3b db94 98ba 356f d8bb
000003c0: 6179 153b 6859 4fbd 8c38 dd3c 0bb9 80bc
000003d0: ebd7 a5bb c75d 583d 9cd6 b8bc 1c6b 573b
000003e0: e16a 463d ddd3 e53b 262e bbbc e27f 40bc
000003f0: a469 15bc 45a8 5a3c 255b 803c 884f 363d

action_model._discrete_distribution.branches.3.bias f4 [3]
-0.0049001104 0.0053078495 0.0033811016
00000000: 1b91 a0bb 78ed ad3b 7995 5d3b
