ArmRobot/Assets/results/normalizado3/TouchCubeMoveGail/TouchCubeMoveGail-1499999.onnx (onnx, 146657 bytes, 22 tensors)

170 f4 [114]
00000000: 280a 563a 280a 563a 280a 563a 280a 563a
00000010: 280a 563a 280a 563a f258 973a 280a 563a
00000020: 93d4 563a 280a 563a 280a 563a 1165 e93e
00000030: 280a 563a b6b2 853e 5c38 033d 8b7e 583a
00000040: 1bb4 243d 3f84 923e 3493 b43e 5c48 5b3e
00000050: 4541 843e 462d f13d 0777 c33d 285b eb3d
00000060: 6804 693e da4e c63e 2e37 a13e 22eb 963e
00000070: 97aa 313e 34cc fe3d 3b7c 193e 7731 b23e
00000080: 85de ac3e 5420 9d3e 20fd be3e 1673 453e
00000090: ef25 0a3e 1126 1e3e a7e8 cd3e 433d a73e
000000a0: f26c b33e 6632 ad3e 6327 553e 6e96 143e
000000b0: 66fc 223e 4600 c53e bf52 b43e dba0 cf3e
000000c0: 4fb4 ac3e 3e18 763e d9a7 1f3e 3529 2c3e
000000d0: f7db d33e 7664 9f3e 375b f03e f7ce c03e
000000e0: 8bbe 873e 2717 1e3e 2895 2d3e f8db d33e
000000f0: 7664 9f3e 385b f03e f7ce c03e d497 863e
00000100: 23a1 1f3e 8a65 293e f8db d33e 7664 9f3e
00000110: 385b f03e f7ce c03e 2ee6 fe3e 02f2 1f3f
00000120: ecfb db3e 57ed 863e b7a1 d03e 1239 2a3f
00000130: 895c 123f fbd9 143f b961 eb3e 1fff d13e
00000140: d3da ed3e 5e96 163f ea31 fb3e d7d1 123f
00000150: fd28 293f 2a15 243f 280a 563a f8be b93e
00000160: 6e2a 9b3e 671d 6f3c e5d6 6b3c b937 c43c
00000170: 7c12 4d3e 6420 643e c073 0f3e 9683 4a3e
00000180: d6d2 663e 7e52 0d3e 280a 563a 280a 563a
00000190: 280a 563a 280a 563a 280a 563a 280a 563a
000001a0: 280a 563a 280a 563a 280a 563a ab6d ba3e
000001b0: bd98 b13e 5635 ca3e acd9 873e efc4 d83e
000001c0: 08cd 913e 345a 873e
0.00081649655 0.00081649655 0.00081649655 0.00081649655 0.00081649655 0.00081649655 0.0011546894 0.00081649655
0.0008195128 0.00081649655 0.00081649655 0.4558492 0.00081649655 0.26112908 0.03203617 0.00082586025
0.040210824 0.2861652 0.35268557 0.21414322 0.25831047 0.11776213 0.09544187 0.11491996
0.22755587 0.38732034 0.3148741 0.29476267 0.17350231 0.124412924 0.14988796 0.34803364
0.3376352 0.30688727 0.37302494 0.19282183 0.13491033 0.15444209 0.40216562 0.32663926
0.35044056 0.33827513 0.20815806 0.1451051 0.15916595 0.3847677 0.3521938 0.4055241
0.33731315 0.24032685 0.15591373 0.16812594 0.41378757 0.31131333 0.4694459 0.37657902
0.2651256 0.1543852 0.1695143 0.4137876 0.31131333 0.46944594 0.37657902 0.2628771
0.15588813 0.1654264 0.4137876 0.31131333 0.46944594 0.37657902 0.49784988 0.6247865
0.4296564 0.2635295 0.4074838 0.6649333 0.5717245 0.5814511 0.45972994 0.41014954
0.46456012 0.5882319 0.4906152 0.5735144 0.6607817 0.64094794 0.00081649655 0.3627851
0.3030581 0.014594412 0.014394497 0.023952352 0.20026582 0.22277981 0.14008999 0.19776759
0.22541365 0.13801 0.00081649655 0.00081649655 0.00081649655 0.00081649655 0.00081649655 0.00081649655
0.00081649655 0.00081649655 0.00081649655 0.36411795 0.34686843 0.39493817 0.26533258 0.42337748
0.2847674 0.26436007

action_model._discrete_distribution.branches.0.bias f4 [3]
00000000: 1e98 47bc 3ff7 3dbc 4ad5 433c
-0.012182264 -0.011594593 0.011952708

action_model._discrete_distribution.branches.0.weight f4 [3, 128]
00000000: fdac c23c aaa3 5dbd f2ec 51bd 7fc1 22be
00000010: dba6 c4bc 85ba fb3c a6da c23d 462a 07bd
00000020: f34e c6bc 336d c53c 3646 dab9 d9c2 0f3d
00000030: c2d6 4cbd a82d 373d 3400 2d3d d1e2 9b3c
00000040: ee04 013d 57a2 7e3c 2230 0a3d 5bc8 e33d
00000050: 70d2 063d 9f06 7cbe 5c0f aabd db0d 983d
00000060: 07fc 3dbe d3af 40bc a3cf 203d 8aa1 a9bd
00000070: e461 5ebd eaad d5bd c70c efbc 098b 8bbd
00000080: cf76 cd3b 265d 673d bdf7 133b 2a24 88bc
00000090: f67a 70bc 9d9b f4bc 3eec e73a f490 21bd
000000a0: e98f 91bd 4d33 bdbd f481 633d dd9d 59bd
000000b0: 0803 ed3c 0c3b 043c e987 d23c 4d55 a4bd
000000c0: 6f2a 2dbd 23ba c6bc 4ce0 9ebc 73ff 56bd
000000d0: 381f e43c 9e78 9aba eef7 aa3c 2a62 12bd
000000e0: 1ae9 41be 9bef 06bc a97e 123d 3e2f f43c
000000f0: fc55 513c 01f8 f2bd 7486 273c a246 83bc
00000100: ad5b 093d 7797 92bd b1e1 923d aeea 2b3d
00000110: 940d 103d ab3e 97bd 899c 3d3c ea0e 10bd
00000120: 16a0 ddbc 6867 8cbc c07a ccbb 7484 f93c
00000130: d428 e4ba 1a0e 0d3d 2e2a ba3d f6aa 5c3a
00000140: 86a0 59bd fb19 093c d8b0 d6bd 52e1 e13c
00000150: e23f 8f3d 594c 7dbc 0f7f 263d 10d5 49bd
00000160: 8a19 8d3d 2d06 98bb 187b 5fbc 4ff0 d63c
00000170: 8027 41ba 9fc5 e93c 641d a6bc d008 513d
00000180: 22c8 63bd da8f 0d3d 4063 9c3d 407b bebc
00000190: 9e50 aa3d 0ff3 8ebd dc6a be3c ea8a edbc
000001a0: 36e9 c6bc c320 9b3a cb59 aaba 95cc d739
000001b0: dfba 833c 6014 d9bc 7907 efbd ba60 1b3c
000001c0: c8be 203d e45c c43b 0e8a 4dbd 2cca 24bd
000001d0: 8057 82bc a021 0bbb 55d4 57bd 4e69 e83c
000001e0: 0844 7c3d 3d13 89bc 7032 523c 0aa3 7fbd
000001f0: 9fe6 8cbd a50f 21be a9ec f6bd 6986 5f3c
00000200: 2eb4 8b3c 2840 83bd 312c d23c be19 b7bd
00000210: d4db 9bbb dea2 c6bb 29e9 3cbb 1005 18bc
00000220: 11fd a83c cae6 9d3b d422 38bd 6838 6d3c
00000230: 8579 87bd a8e4 0bbc 4ff1 683c 21b0 363d
00000240: e5d6 0f3d 0f8f 3c3d 1c97 66bd cebf 12bc
00000250: 79a0 2abd e9fe 183c d5e0 e53c 8a1a 14bd
00000260: 5c30 7ebd 1d5f db3a 4d45 20bd b7ed b03d
00000270: 0d26 803b 9323 533d b2ce 083d 783d 073d
00000280: 4fd6 5dbd df2b 2e3c d4fa 183c 9264 f8bc
00000290: 316d 8dba 58c8 92bc 7ed4 513a 7caf 42bc
000002a0: 4e7d 70bd 6a08 90bb 1a43 92bc 7646 05bc
000002b0: f47c 03bd 0418 34bc 90e1 22bc 4864 52bc
000002c0: 37fa 033d 7f8f a43c f193 bcbc 605e 9d3c
000002d0: d900 8b3d c421 4a3c 3802 b8bc 461d b53b
000002e0: 7db8 29bd 3188 953c ad7b 59bc 6d60 983c
000002f0: b6a8 71bb b5f3 08bd dc66 d5bc 8081 75bc
00000300: b241 013d 8280 1abc 5c20 603d 9346 833d
00000310: d77f 133d 9fd9 9d3b 22fb 69bc 5e14 6cbc
00000320: a1bd 77bd fae9 243b 7e4b b03d 019e 97ba
00000330: 4a6d d1ba 81a2 513d 30be b2bc 0863 283d
00000340: 05d1 a03c 5cf0 ba3b c630 d43a ff2a 543b
00000350: e4f4 48bc 6224 073d 5e5c 99bc f809 1a3e
00000360: 0d6d 5bbb 4b29 60bd 5776 1fbd bb79 b43c
00000370: 4630 1dbd b864 8cbc dc9e 6a3d c42a 03bc
00000380: 29b4 3c3d 9c0c 1fbd f3ae 923b 001c ad3b
00000390: 8234 8fbc 97da ed3c dfd0 b93b ed3f 7a3b
000003a0: 2a0c 0dbd 83d1 783c dae7 6e3c e774 0abd
000003b0: e3a6 f4bc d3f5 9c3c abf6 85bd fd13 60bb
000003c0: 4e5a dabb 8bcd af3c 17f5 c2bc eb66 3abb
000003d0: cfa4 133c 165e 533d 5c0c 4c3c 6769 aa3c
000003e0: 8468 723d 19b8 95bd 757b 46bc 3ce9 db3c
000003f0: 008c 803c b28f bfbd 68a1 90bd 03d4 e43b
0.023764128 -0.05411116 -0.05125136 -0.15894125 -0.024005344 0.030728588 0.0951436 -0.0329993
-0.024207568 0.024099922 -0.0004163251 0.03509793 -0.050009497 0.044721276 0.04223652 0.019029053
0.031498842 0.0155416345 0.03373731 0.11122199 0.032915533 -0.24611901 -0.08303711 0.07424518
-0.18553172 -0.01176067 0.039260518 -0.08282764 -0.054292575 -0.10433562 -0.029180897 -0.06813628
0.0062702666 0.056485318 0.0022578083 -0.016618807 -0.014677754 -0.029859358 0.0017694307 -0.03944488
-0.07107527 -0.092383005 0.055543855 -0.053129066 0.02893211 0.0080707185 0.025699573 -0.08024082
-0.042276796 -0.024258679 -0.019394062 -0.05248971 0.027846918 -0.0011785214 0.020870175 -0.035738148
-0.18936577 -0.008235837 0.035765324 0.029807683 0.012776848 -0.11863709 0.010224927 -0.016024891
0.033534694 -0.07157796 0.071719535 0.041971855 0.0351692 -0.07385 0.011572965 -0.035170473
-0.027053874 -0.017139152 -0.006240219 0.030458666 -0.0017407187 0.034437276 0.090900764 0.0008417809
-0.053131603 0.008368011 -0.10482949 0.027573261 0.069946066 -0.015460097 0.040648516 -0.049275458
0.06889637 -0.004639408 -0.013640188 0.026237635 -0.00073682517 0.028536616 -0.020277686 0.051033795
-0.055610783 0.034561016 0.07636118 -0.02325213 0.08316158 -0.069799535 0.023244314 -0.028996903
-0.024281126 0.0011835325 -0.0012996731 0.0004116042 0.016080318 -0.026498973 -0.11671347 0.009483511
0.039244443 0.0059925187 -0.050180487 -0.04023187 -0.015910864 -0.002122976 -0.05269273 0.028370526
0.061588317 -0.016732806 0.012829408 -0.062411346 -0.06879925 -0.15728624 -0.12056858 0.013642886
0.01705369 -0.06408721 0.025655838 -0.08940457 -0.00475643 -0.0060618958 -0.0028825498 -0.009278551
0.020628484 0.004818772 -0.04495509 0.01447878 -0.06614975 -0.008538403 0.014217689 0.044601563
0.03511705 0.04603487 -0.056296453 -0.008956863 -0.041656945 0.009338119 0.02806131 -0.036158122
-0.062057838 0.001673672 -0.03912859 0.086390905 0.003910786 0.051547598 0.033400245 0.033017606
-0.05415946 0.010630577 0.009337146 -0.030321393 -0.0010789988 -0.017917797 0.0008004381 -0.011882659
-0.05871325 -0.0043955343 -0.017854262 -0.008134475 -0.032101586 -0.010992054 -0.009941474 -0.012841292
0.032221045 0.020087956 -0.023019763 0.01921004 0.06787271 0.012337152 -0.022461995 0.0055271713
-0.041435707 0.018253418 -0.0132741155 0.018600667 -0.0036874241 -0.033435542 -0.026050024 -0.0149844885
0.031556793 -0.009430053 0.05471836 0.06409945 0.03601059 0.004817202 -0.014281066 -0.014409153
-0.06048358 0.0025163875 0.08608149 -0.0011567475 -0.0015978005 0.051180366 -0.021819204 0.04111007
0.019630918 0.0057049226 0.0016188852 0.003237426 -0.012265418 0.03299368 -0.018720802 0.15042865
-0.0033481747 -0.05472688 -0.038931217 0.022030702 -0.038376115 -0.01713787 0.057280406 -0.008005802
0.04607025 -0.038830385 0.004476422 0.005282879 -0.017481092 0.029034896 0.0056706513 0.0038185075
-0.03443543 0.01518667 0.014581645 -0.033802893 -0.029864734 0.019160187 -0.06541189 -0.0034191601
-0.006663597 0.021460315 -0.023798509 -0.0028442692 0.009011461 0.0516034 0.012454119 0.020802213
0.059181705 -0.073105045 -0.012114395 0.026844613 0.015691757 -0.093535796 -0.07062036 0.0069832816

action_model._discrete_distribution.branches.1.bias f4 [3]
00000000: 7459 ebbc 81c8 813c b695 da3b
-0.028729178 0.015842678 0.006670679

action_model._discrete_distribution.branches.1.weight f4 [3, 128]
00000000: ce90 a23b 53fe 5d3d 42d7 76bd 3187 ddbd
00000010: e94a 8f3d 83c4 043d ce6f 463d 1f2e 13bd
00000020: 8a39 fc3c 40bd 33bd 5d3e 9fbb b825 31bc
00000030: d380 d7bd ed56 a9ba e5ea 8b3c f3a1 0dbb
00000040: 78ac 833c ac28 543d b99a 173d 7d82 363d
00000050: 2668 85bb 6f8b 1abe 6783 36bd d162 083d
00000060: a31b d3bd 9313 3abd 3204 6f3d 09ac 93bd
00000070: 6af7 e7bc fe2b b4bd a570 3fbd bd6b 91bd
00000080: ead1 d7bc c025 f53b aaf9 9d3c 515e c1bd
00000090: 976c 023b b661 6cbd 6772 0ebd ada4 483d
000000a0: 8f9b d0bd 3c3d 22be fe39 373b 55aa edbd
000000b0: 9991 c1bc 27f7 4dbd de5d 34bc 8072 05be
000000c0: 62f7 f8bc 3f94 8abd 225c 99ba 66b3 84bd
000000d0: 1be9 ed3a fd2d ad3a 89f2 343d adea fdbd
000000e0: 8edc 83bd ccc8 243c ae41 86bc eaee c3bc
000000f0: 8dfe 34bd 07d2 18be 81cd 3dbc 2bcf d7bc
00000100: 3a7d b3bd 2069 acbc 25b0 3b3c f46f c43d
00000110: 9ddd 813c 5165 29bd 3c6c 3cbc ea9a df3c
00000120: 2cd8 02bd 840e 76bb d0f9 42bd a7af b03d
00000130: 05d1 65bd 1d14 2ebd 298d 54bc 51dd 003c
00000140: 5fa8 c43c 9647 923d 2383 1cbe 91c9 b73c
00000150: 2c60 2fbc 1bec eabc 9cb2 e93d 27a5 a9bd
00000160: 9e4c 483c 5d9d 643d 3407 afbc 571d 0a3d
00000170: 542b 6f3c b355 4cbd f5d4 893d 5961 333d
00000180: 89e2 babc 5e2d 58bd 0d4e ce3c 185b d03d
00000190: 619c 0c3d 9fb3 5ebd 42e4 813c 1159 20bd
000001a0: 9b81 a638 e1ca 13bd 053d 0fbd 0281 67bc
000001b0: 6be2 0bbd 3f7b a03d 6d79 01be c12e 30bd
000001c0: 1396 003d f81b 673d 324d dfbc ecb2 d2bc
000001d0: d191 043c f3ab a03d 3368 05bd 62eb 0ebd
000001e0: 08a6 cabc 2ea6 02bd 238a 36bd eef0 213c
000001f0: 7d04 34bd 6ebf d6bd a11f c3bd fc1f ab3d
00000200: 3ac9 8f3b 3f4a 273d 22ca 9fbc f27b f93c
00000210: 5064 b9bc db04 20bd 162b 943c 71da 62bd
00000220: 9b63 2d3a e6d8 ddbc aa0e 1c3d 181a 84bc
00000230: 095d 3f3d bd2f bf3c 843c 12bd cbee b9bd
00000240: a58f 91be d3d4 b4ba d040 243d b3cd 5dbd
00000250: 88c8 683c 8bb7 12bd d998 21bd 25c4 d63c
00000260: 6996 453d b582 ca3c 148c 9d3d c079 8b3c
00000270: d0ea bfbd 501c 5fbc 9dcc 09bd 44dd 70bd
00000280: 0e4b ddbb 58ba a23c fb89 44bc 2e59 25bc
00000290: c4df 623d 34d1 0f3d 01bc 39bd 5728 103b
000002a0: 7d17 903d fd02 e33b 628d dbbc cf47 a5bd
000002b0: e7b9 9f3c dbe4 05bc f3fb 333d 1b23 8ebc
000002c0: 7ae1 17be 8d89 d53c 69f5 9fbc 1d6e 213d
000002d0: 118f d4bc 4544 8cbc b63e 23bb 2f86 003d
000002e0: 7d80 823b a21b 20bd c11e 8f3b ba8e 923c
000002f0: 6086 96bc 121a 1c3d b618 ac3c bf33 013c
00000300: 7e93 9abc 1bbe 8abd f4a7 44bc 857c 60bd
00000310: 401e 2d3a 9f8c d7bc 5226 26bd b3f5 0abd
00000320: 964a 4b3d c88d f6bd 9798 51bd e9c7 f93c
00000330: bfc0 af3c 574a 89bd e3c0 8fbc c647 20bd
00000340: 64d9 50bd bbd5 043d ed23 13bc 5be2 efbb
00000350: a969 9aba e332 05bc 4184 eebc c060 28be
00000360: bc90 053c 49e3 873c b53a f7bc 47a9 77bc
00000370: d22a 0b3d 5fb2 28bc b446 843b d0d1 273c
00000380: 2bce 3fbd e822 6e3d 42bc 9d3c 93eb d2bb
00000390: dbcc e8bc c4a9 95bd cf23 42bd 3023 a4b9
000003a0: d63f 0bbd 5866 8cbc c606 803d 59ea 55bb
000003b0: 7690 083d d21b 57bc 2f9c 343d 0382 39bc
000003c0: 9b76 613d 08a0 37bd acaa 393d d515 79bd
000003d0: 1083 18bc d67d 3abd fe77 0cbd ae15 7d3c
000003e0: 647e 4f3b 892e 513d 5894 e63c a07b 973a
000003f0: fae8 be3c e3af 203b 6a63 c03c 6eb9 cbbc
0.0049611097 0.05419762 -0.06026388 -0.10816801 0.0699671 0.03241397 0.04844647 -0.035932656
0.030789156 -0.043881655 -0.004859729 -0.0108122155 -0.10522618 -0.0012919583 0.01707978 -0.0021611422
0.01607345 0.0517966 0.03701279 0.044558037 -0.0040712534 -0.15092252 -0.04455891 0.033297364
-0.10308006 -0.045428824 0.05835361 -0.072105475 -0.028316218 -0.08797453 -0.046738286 -0.071006276
-0.026345212 0.007481307 0.019284088 -0.094418176 0.001990115 -0.057710372 -0.03477707 0.048985172
-0.101859204 -0.15843672 0.002795815 -0.11604754 -0.023628997 -0.05028453 -0.011008708 -0.1303196
-0.030391399 -0.06766557 -0.0011700431 -0.0647953 0.0018151136 0.0013212558 0.044176612 -0.123982765
-0.06438552 0.010057639 -0.01638874 -0.023917634 -0.04418807 -0.14923869 -0.0115846405 -0.026343903
-0.087641194 -0.021046221 0.01145557 0.09591666 0.015852744 -0.04135639 -0.011500414 0.027295548
-0.03194444 -0.0037545273 -0.04760152 0.08627253 -0.05610754 -0.04249965 -0.012973108 0.007865266
0.024006067 0.0714256 -0.152844 0.022434982 -0.0107040815 -0.028677037 0.1141102 -0.082834534
0.012225298 0.055814136 -0.02136574 0.033719387 0.014597733 -0.049886417 0.067300715 0.04379401
-0.022813099 -0.05277764 0.025183702 0.10173625 0.034328822 -0.05437052 0.015855912 -0.03914744
7.939638e-05 -0.036082152 -0.034970302 -0.014129879 -0.034151476 0.07836007 -0.12643977 -0.043013338
0.031393122 0.056423157 -0.02725849 -0.025720082 0.008091406 0.07845297 -0.032570075 -0.034892447
-0.024737373 -0.031896763 -0.04456533 0.009884102 -0.043949593 -0.10485731 -0.09527517 0.0835571
0.0043880017 0.04084229 -0.019505564 0.03045461 -0.02263084 -0.03906713 0.018086951 -0.055384103
0.00066142686 -0.027080964 0.038099922 -0.016125724 0.046719585 0.023338193 -0.035702243 -0.09078749
-0.28429905 -0.0013796337 0.040100873 -0.05415125 0.014207967 -0.03581957 -0.039452408 0.026216576
0.048239145 0.02472053 0.076927334 0.017025828 -0.09370959 -0.01361759 -0.0336424 -0.058804765
-0.006753332 0.019864246 -0.011995788 -0.010092063 0.05538918 0.03511162 -0.04534531 0.00219967
0.0703573 0.0069278465 -0.026800815 -0.08070337 0.019497825 -0.008172239 0.04394145 -0.017350724
-0.14832106 0.026066566 -0.0195262 0.039411653 -0.025947126 -0.017122397 -0.0024909205 0.031377967
0.003982602 -0.039088853 0.00436768 0.017890323 -0.018374622 0.0381108 0.021007877 0.007885872
-0.018869158 -0.06774541 -0.012002934 -0.05480625 0.0006603934 -0.02631217 -0.04056389 -0.033925723
0.049631678 -0.120387614 -0.05117091 0.030490832 0.021454213 -0.06703632 -0.01754803 -0.03913095
-0.05098857 0.03243039 -0.008980733 -0.007320685 -0.0011780757 -0.008129808 -0.029115798 -0.16443157
0.008152183 0.01658787 -0.03017936 -0.015116042 0.033976384 -0.010296433 0.004036749 0.010242894
-0.046827476 0.058138758 0.019254807 -0.006436774 -0.028417995 -0.07307771 -0.04739743 -0.00031306734
-0.033996426 -0.017138645 0.06251292 -0.0032640903 0.033340894 -0.0131291915 0.04409426 -0.011322501
0.05504475 -0.044830352 0.04532878 -0.060811836 -0.0093085915 -0.045530163 -0.03429412 0.015447063
0.0031661028 0.05106977 0.028146908 0.0011557229 0.023304451 0.00245189 0.023484904 -0.024868693

action_model._discrete_distribution.branches.2.bias f4 [3]
00000000: 22ba 39bc 56ed 8b3b f002 cc3b
-0.011335881 0.004270236 0.006225936

action_model._discrete_distribution.branches.2.weight f4 [3, 128]
00000000: c329 20bc c8df 1fbd a2e1 ce3c 0b25 11bd
00000010: 9fdd 023e ef9b 03bd 7b85 9b3b a391 e93b
00000020: db01 993c ac75 02bd 5179 e4bc cff4 7b3a
00000030: af2e 07be 9cd3 bcbd 1531 dbbc 0044 16be
00000040: 00bc f6bc 970f 803c 7536 2fbd 81fc 143c
00000050: 23a1 293d e5c3 eb3c d860 5a3d 3fca f0bc
00000060: 41ee 79bd 7225 32bc fa05 863d 87d2 573d
00000070: 3fc4 b8bd a23c 7c3c ae05 d93d 96bb 833d
00000080: cb65 88bd 7654 3a3b 4b4b 3c3c 5f80 873c
00000090: eb21 bdbd c426 063d 63b4 c33c f8c8 5cbb
000000a0: 9350 a53d 102d 80bd 5d7b c1bc df78 c3b9
000000b0: effa 0dbd 882d 03bd 10b1 77bd 9345 1cbd
000000c0: 10be 603c fc82 9dbc f2bb 003c fb99 183d
000000d0: 2a5c fd3c 3895 f63c 45bd ee3d 5579 4ebd
000000e0: 50e8 98bd 84e6 30bc f0f9 eebc aea7 4cbd
000000f0: fe3b bebd 78a0 70bd c522 a93d 6034 3dbd
00000100: 8514 56bc 45a3 9cbd ae76 0abc 6379 443d
00000110: 4fd1 463b a9f1 753d 380b 22bd e7d8 87bd
00000120: d626 b9bc 8b9a 7dbd 59e3 8f3d 7487 9e3d
00000130: f6e3 85bd f956 7c3c b2cf de3a 188d babd
00000140: da49 363d 37f8 41bd 3b3b be3b 68ea 26bc
00000150: 1fdc 193c 6843 213d b476 19bb 6b79 453c
00000160: c13a f3bc 0746 b23d 52e7 a5bd 9c11 5cbc
00000170: 6e79 a53c 981b c6b9 5b7b 013e 8dc9 8e3c
00000180: 56bf d33d 9135 84bd 70d8 193d 1e19 283d
00000190: 25a8 86bc 881f 493c ccfe 12bd 2507 7b3d
000001a0: 754c b7bd 4720 a0bd 7aad 6cbd 1654 583c
000001b0: dc2b 80bd 8fee 2e3d c4af 423c 4016 043d
000001c0: 1956 92bd bc35 ce3c 96f2 5f3d 72a8 b6bd
000001d0: d646 0fbd 3048 133e b135 4f3c 2db5 b2bd
000001e0: 54e9 4cbb e8cf 8bbd 5f48 00bd c03b 383d
000001f0: 4eba 943c 4936 1cbd b26f 80bd c151 d5ba
00000200: 85c7 dc3c 36b9 863d 0e93 c33c ad96 7b3d
00000210: 3758 9cbd 074b 283d c86e 09bc 74f8 033d
00000220: ff14 2e3d 2e1d 5a3d 6178 323d 08be 543c
00000230: 1f64 c03c da53 043d 62ae 9e3d 1360 ad3d
00000240: ba21 08bd 3f15 92bc 6d3d ad3c c096 d7bc
00000250: ec50 31bd 1f07 4f3d ed4e 163d c023 4dbd
00000260: 0725 563d 1b55 07bd 6a94 1b3a 617f 1abc
00000270: 2f6a 3e3d e40d 1c3c a8a7 453d 303e 4e3d
00000280: f387 fdbc 82a7 e7bb ccfc 05b9 d37e f33c
00000290: a678 173d c44c 5d3c 12f9 313d 14d0 29bd
000002a0: 8c51 84bd 4da8 75bc 2c5b 0b3b a04b e93c
000002b0: f5c1 e63b 6fdb 00bc 1cc3 cbbc b7ce 613d
000002c0: 4d82 693d 60ae e83c f04c 953c dd34 f63c
000002d0: 4cbf 063b ce30 bb3c 7c92 baba fff5 31ba
000002e0: 1cdb 953c b257 333d 6f73 f1bc 82f3 9e3c
000002f0: 6843 5f3c 3089 243d b109 22bd 8cd9 573c
00000300: 0bd7 123d e740 443d 941a 8f3c 8228 c13c
00000310: 333d d0bc 1d1b a63d 77ae 963c 3a98 173d
00000320: 2571 653c 3508 30bd 1f81 42bb fbfb 7d3b
00000330: 0f69 243d 81d9 393d 7e8c 28bc 2804 583c
00000340: 9376 893a 1346 563c e12a 013d 479b b7bc
00000350: 8976 833b dbca 153d 1b30 aabc 7614 3cbc
00000360: cfad d4b8 583d 133c 51fc 1d3d 2b33 6a3c
00000370: 1ef8 a73c e196 803a 38fd 83bb 361a 27bd
00000380: ff65 3b3d f421 9fbc a0a9 dabb 7b58 f7bb
00000390: 99d3 8dbc 261c 473d 6e3b d53c caa6 083c
000003a0: 218b 383d 3c1a 743c 9cd0 efbb c4f2 b43c
000003b0: 2fb4 0e3d 611b 943c fc7c ed3b 607c 89bc
000003c0: 9912 d43b dd0c f33c c620 f93c bd43 0a3d
000003d0: da83 f9bc 496a 79bc 1352 c1bb feec 44bd
000003e0: a228 66bb 5310 c43c 8d4d 7e3a e978 6a3c
000003f0: 691c d53c e079 853d b199 423d 7485 f83c
-0.009775582 -0.039031774 0.025254074 -0.035435718 0.12779854 -0.03213113 0.0047461367 0.007127957
0.018677643 -0.031850502 -0.02788988 0.00096113695 -0.13201402 -0.09220049 -0.026756803 -0.14674377
-0.030118942 0.015632434 -0.042776544 0.009093405 0.041413438 0.028779933 0.053315014 -0.029393313
-0.061018232 -0.0108731855 0.06544109 0.05269101 -0.09021806 0.015395315 0.105967864 0.064322636
-0.066600405 0.002843169 0.011492561 0.016540704 -0.09234985 0.032751814 0.023889726 -0.0033689123
0.08072009 -0.06258595 -0.023618395 -0.00037283354 -0.034663137 -0.032025844 -0.060471594 -0.03815229
0.013717189 -0.019227497 0.00785731 0.037256222 0.030927736 0.03010045 0.11657194 -0.05040868
-0.07466185 -0.010797147 -0.029171914 -0.0499646 -0.09288786 -0.058746785 0.08258585 -0.046192527
-0.013066416 -0.07648329 -0.008451147 0.047967326 0.003033716 0.06004492 -0.03956148 -0.06633168
-0.022601526 -0.06191496 0.07025785 0.077406794 -0.06537621 0.015401595 0.0016999154 -0.09108943
0.044504024 -0.047355857 0.0058054007 -0.010187723 0.00939086 0.039370924 -0.00234167 0.012052874
-0.029691102 0.08704763 -0.081007615 -0.013431933 0.020199504 -0.00037786062 0.12644713 0.017430091
0.10339229 -0.064555295 0.037559927 0.04103958 -0.0164376 0.012275584 -0.035887524 0.06128611
-0.0895013 -0.078186564 -0.057782628 0.013203641 -0.062583655 0.042707976 0.011882726 0.03224778
-0.07145328 0.025172107 0.054674707 -0.08918847 -0.034979664 0.14383006 0.012647078 -0.08725963
-0.0031267004 -0.06826764 -0.03131902 0.044978857 0.018155243 -0.038137708 -0.06271304 -0.0016274975
0.026950607 0.06578295 0.023873832 0.061422992 -0.07634013 0.041087177 -0.008388229 0.032219365
0.042500492 0.053250484 0.043571834 0.01298476 0.023485241 0.03230653 0.07748105 0.0846559
-0.03323529 -0.017832397 0.021147454 -0.026317 -0.043290064 0.0505439 0.036696363 -0.050082922
0.052281406 -0.033040147 0.0005934896 -0.009429784 0.046487983 0.009524796 0.048255593 0.050352275
-0.030948615 -0.007069529 -0.00012778043 0.02972356 0.036980294 0.013507072 0.043450423 -0.041458204
-0.06460866 -0.014993739 0.002126406 0.028478444 0.0070421644 -0.007864817 -0.024873309 0.05512878
0.05700903 0.028403461 0.018225163 0.030054504 0.00205608 0.02285042 -0.001423433 -0.00067886704
0.018292956 0.043784805 -0.029473988 0.019403223 0.013626911 0.040169895 -0.039560024 0.013174426
0.035849612 0.04791346 0.017468728 0.023578886 -0.025419807 0.0811064 0.018393738 0.03701041
0.014004027 -0.042976577 -0.0029679013 0.0038754928 0.040139254 0.045373444 -0.010287402 0.013184585
0.0010487608 0.01307823 0.031535033 -0.02241291 0.004011933 0.03657041 -0.020774892 -0.011479488
-0.00010141322 0.008986793 0.038570706 0.014294426 0.020504054 0.000981059 -0.0040279888 -0.04079648
0.045751568 -0.01942537 -0.006673053 -0.0075483895 -0.017312812 0.04861083 0.026029315 0.008340547
0.04505456 0.014898833 -0.0073185693 0.022088416 0.034839805 0.018079462 0.0072475653 -0.01678294
0.0064719436 0.02966922 0.030411135 0.033756007 -0.03045838 -0.015223094 -0.0058996766 -0.048077576
-0.0035119434 0.023933565 0.0009700887 0.014311054 0.026014524 0.065173864 0.047509853 0.030337073

action_model._discrete_distribution.branches.3.bias f4 [3]
00000000: 2b2a 813c 94df cf3a a675 84bc
0.015767178 0.0015859478 -0.01616938

action_model._discrete_distribution.branches.3.weight f4 [3, 128]
00000000: e9d5 0c3d c9e6 343d 5279 253d cf42 4bbc
00000010: 2d5f b63a 98fa f03d 47a6 523a 1848 903d
00000020: 7275 b43d f836 b5bc 80d1 9e3c 736a 973a
00000030: b298 8c3c f875 153d fbf8 ca3d 1cae bf3c
00000040: 3256 293c f829 f73c 6a16 4d3c 59d7 5c3b
00000050: f5dc 70bd c9ee 7ebd 38da 813d 4ba9 8f3c
00000060: 73ee 84bd 4f09 1b3b 6866 0bbd b87c abbd
00000070: a4a7 e73c 30c1 56bd 53d9 923d 3ecb b4bc
00000080: 2e45 b03d 969c b5bd 2c57 f33c 72d8 3b3c
00000090: 565e 82bb 8ad4 59bd 50e5 dc3c c547 0c3d
000000a0: 5a68 c6bd 1032 f9bc b3fc 393a ddcf 69bc
000000b0: e628 903d 8317 993d 72ea 23bc 602a 49bc
000000c0: 2c61 be3d ce23 853b 0515 bd3d 45f0 babc
000000d0: 02e2 c73c 16a0 9c3a 7fa2 123d 5a55 f53c
000000e0: 8844 92bc e5f2 fe3d eae7 5a3d b471 cd3c
000000f0: 8c45 263d 5af3 02bd b14c 973c 23b4 a63d
00000100: 2edd 593d 8657 8a3d 169f 21bd 0e1a 8c3c
00000110: ea02 2b3a 36f1 fb3c 51a1 4b3d 810e f93d
00000120: d4fa a13c b9c5 123c 2ad2 64bd a70b 903c
00000130: a7b0 0a3c 0537 143d 3a00 26bc 9261 8abc
00000140: 2f04 8c3d f336 cf3c 6a4d e6bb 4981 c4ba
00000150: 0dee cc3b 5c9b aebc 425b bfbc f3c3 5bbd
00000160: da59 5dbb d276 703d 286b 9f3d cffc 553d
00000170: 28ac 673d 829d 683d afc8 66bc 02bf 9b3b
00000180: 275b 67bd 630e f6bc d0bb 4cbd a342 023c
00000190: b6c7 3d3c 6307 0d3d ec36 2c3d 1785 723d
000001a0: 1a5d 973d 9d91 343d 1a86 29bd fc72 ba3c
000001b0: 52fa 373d 3eaa f3bd 5991 a83b d971 57bd
000001c0: 7f2a 883d 97a7 e63c c86c 643d d72f b63d
000001d0: e53f c23d 061e 8fbd 8e68 b63d 833e 093d
000001e0: 9169 ac3b 03d4 85bd bf7e 053c c8fa 293c
000001f0: 6533 633c 0fd2 62bd 3d5f c33c d5b0 d93c
00000200: c5a2 78bb cada 6cbd 4bb6 84bc efab ee3a
00000210: 9e14 713b cf11 c4bd 32da 0dbc 8fdb debc
00000220: 094f 05bd 1bcc 773c 3b3c 2e3c af22 30bc
00000230: fd20 d23c e0e0 88bc a566 8bbd a7f2 a6bc
00000240: 80c1 04b8 946d e73b b4d7 d13b 2332 c7bc
00000250: 33af 953c 6562 8f3c ce30 f4bc 603e 05bc
00000260: fc49 7d3d c10e 803c fbeb 853d 4941 343d
00000270: 2c33 4f3b aec3 af3c 8c46 f1bc cb75 933c
00000280: da5f 7dbd f2c3 693d 4da8 62bc 4305 66bc
00000290: e77a 21bd fa6c a03d 61fb a0bc 173f d5bc
000002a0: 6c6b 153d 45ce eb3c 8e56 65bc 9136 f33a
000002b0: 4279 c3bc f27e 01bd e845 ef3c 4c75 29bc
000002c0: 921e dcba 8c86 ef3c 97e8 aebd 0615 283d
000002d0: 4536 f93b 81ae 46bc 553a 013d 4820 603a
000002e0: 9111 f03c 597c bebd 87a2 43bd c183 323c
000002f0: 2ab0 12bd fe49 9c3c dbd7 00bd 1e93 0abd
00000300: a31c 5cbb bc1a c3bc 8f22 87ba f62f 0c3d
00000310: d1a9 a43c 1cde 8c3a f349 28bd 318d 83bd
00000320: 6f8c a03c 7099 103c 7638 d73b 8e47 313d
00000330: 4332 2e3d f417 d7bc 4511 4b3c 6697 28bd
00000340: 5840 77bd c4c0 6fbc e77d 833c 62e9 45bd
00000350: 98d5 23bc 4b80 bc3c 32c0 91bc 3475 9b3b
00000360: fb6a 84bb 29ea c0bc b7da b0bd 5b6d 8f3c
00000370: df69 2bbd 2485 68bb 96e4 343d 2d8c 9db9
00000380: 5c1e 2f3d 802a 073d c6f1 883d 7b5a cc3b
00000390: 5138 473c 0527 d5bc 90aa 33bd 4a50 17bc
000003a0: 8cdc 28bd e7e2 04bd e556 243d d712 31bc
000003b0: 1bda ffbc fc4e 8a3b 6a2c 76bb b536 66bc
000003c0: f6c8 c43b 1bd3 46bc 3b0f be3b 1014 20bd
000003d0: d77c 8bbd 44df 6b3c 0412 d43a fd7c 5bbc
000003e0: f77f 1c3c 21a1 2d3d d26b b83b a35a 87ba
000003f0: a1e2 b1bc 81d7 173d d280 a1bc 47c3 783c
0.034383688 0.044165406 0.040398903 -0.012406065 0.0013913863 0.11766547 0.00080356415 0.07045001
0.088114634 -0.022120938 0.019387007 0.001155211 0.017162655 0.036489457 0.099107705 0.023398452
0.010335492 0.03017138 0.012517551 0.0033697693 -0.05880447 -0.062239442 0.0634045 0.01753678
-0.06490793 0.0023656671 -0.03403321 -0.083733976 0.02827818 -0.05243033 0.071703576 -0.02206957
0.08606945 -0.08867757 0.029704653 0.011465179 -0.003978531 -0.05318121 0.026964813 0.034248132
-0.09687872 -0.03041938 0.0007094845 -0.01427075 0.07039051 0.07475188 -0.010004627 -0.012278169
0.09295878 0.004063106 0.09232525 -0.022819648 0.024399761 0.0011949565 0.0357995 0.029947925
-0.017854944 0.12448672 0.053443827 0.025078632 0.04059367 -0.03197036 0.018469186 0.08139827
0.05318945 0.06754975 -0.039458357 0.017102268 0.00065235666 0.030754667 0.04971439 0.121609695
0.019772924 0.008958274 -0.05586449 0.017583681 0.008464969 0.036185283 -0.01013189 -0.016892228
0.068367355 0.025294757 -0.0070282714 -0.0014992143 0.006253964 -0.021314315 -0.023358945 -0.05365367
-0.003377548 0.058707066 0.0778411 0.05224305 0.056560665 0.056790836 -0.014085933 0.0047529945
-0.056483414 -0.030036157 -0.0499838 0.007950458 0.011583259 0.034430873 0.042044565 0.059208956
0.073908046 0.04408418 -0.041387655 0.022759907 0.04491646 -0.118977055 0.00514428 -0.052598808
0.066487305 0.028156085 0.055767804 0.088958435 0.09484843 -0.069881484 0.08906661 0.03350688
0.005261608 -0.06534579 0.008147894 0.010374732 0.013867234 -0.05537611 0.023849124 0.026573578
-0.0037938815 -0.05782584 -0.016200205 0.0018209199 0.003678597 -0.09573709 -0.008657979 -0.027204303
-0.032546077 0.015124346 0.010634477 -0.010750457 0.025650496 -0.016708791 -0.06806687 -0.020379378
-3.1651463e-05 0.0070626233 0.0064038876 -0.0243159 0.018272018 0.017502973 -0.029808428 -0.008132547
0.061838135 0.015632035 0.0653915 0.044007573 0.0031616194 0.021455612 -0.029452585 0.018000504
-0.06185899 0.057071634 -0.013834071 -0.01403934 -0.03942385 0.07833286 -0.019651117 -0.02603106
0.0364794 0.02878488 -0.013997687 0.0018555691 -0.023861531 -0.031615205 0.029208139 -0.010342907
-0.0016793779 0.029238962 -0.08540457 0.041035675 0.0076053464 -0.012126566 0.03154977 0.0008549732
0.029305251 -0.09301061 -0.04776242 0.01089567 -0.035812534 0.019078251 -0.031455856 -0.033831708
-0.0033586405 -0.023816459 -0.0010309982 0.034225427 0.020100506 0.0010747346 -0.04108615 -0.064234145
0.019598214 0.008825645 0.00656801 0.04328113 0.042528402 -0.026256539 0.012394254 -0.04116001
-0.060364097 -0.014633361 0.016051246 -0.048318274 -0.009999655 0.023010394 -0.017791841 0.0047441963
-0.0040410734 -0.023549156 -0.086354665 0.0175082 -0.041849013 -0.0035479749 0.04416331 -0.00030049813
0.042753562 0.032999516 0.066867396 0.006236372 0.012159423 -0.026019583 -0.043863833 -0.009235451
-0.041225955 -0.032442953 0.04012193 -0.010807714 -0.03123193 0.0042208415 -0.0037563094 -0.014051129
0.0060054017 -0.012135292 0.0058001555 -0.039081633 -0.06810921 0.014396492 0.0016179685 -0.013396499
0.009551994 0.042389993 0.0056280876 -0.0010326694 -0.02171451 0.037070755 -0.019714747 0.0151832765

action_model._discrete_distribution.branches.4.bias f4 [3]
00000000: f935 233c aabc 443b 0364 08bc
0.009961599 0.003001968 -0.008324626

action_model._discrete_distribution.branches.4.weight f4 [3, 128]
00000000: 3a56 ea3c 5dc8 183c 09ab 39bd db65 4fbd
00000010: 8cbc 6bbc 5266 443c 810c 7ebd 4842 87bc
00000020: 1d0f 7b3d 2d4a 2cbd bc7d 093d f120 053a
00000030: 12ce 92bd 91a6 19bc eba5 90bb 3697 14bc
00000040: 969c 0c3d 5429 173c b2de 84bb 3a14 fcbc
00000050: f7e4 d83d 6ab8 c0bd fb32 c1bc fffd acbd
00000060: 660b aabd 54b1 72bd 0c3e fa3c 15c4 aabc
00000070: 02f9 7fbd 72bb 7dbd acf8 5bbb 7ca8 323d
00000080: 76a2 8dbd 270a ff3c 26ea 00bd e5ad d2ba
00000090: 3da3 0a3d bd87 1dbd f94e 7b3d 3de5 8dbc
000000a0: 8fab 003d 4a50 0ebd f33b 583d 6d89 67bc
000000b0: 91d0 3fbc 760a 0dbd 0bc7 57bd 04bd 50bd
000000c0: ea32 a4bd 5ac3 7fbc a84f 5f3d f1ab 84bb
000000d0: 97eb ac3d 4598 db3c a6b8 043d 587b f9bc
000000e0: 877a 1dbd ee9f caba 832d 81bc 0757 7ebb
000000f0: 9115 3cbd c373 c8bd cdb4 90bc 9649 a4bd
00000100: db60 19bd 77fc 82bd b3f9 3d3d a6ae 883d
00000110: 700c b53d 113d b5ba d94b aabb 49df 04bd
00000120: fbb4 bbbc 424b 92bb 47d6 f2bb 1894 5e3d
00000130: 7919 1835 375d d03d 1ea4 273d 79ed c5bc
00000140: 586a 973d 0c71 833d 8a71 babd 864b 033d
00000150: acb1 65bc c66b 2fbd 18f7 1cbd 6244 efbd
00000160: 9364 203d 0329 933c e8c9 12bd 782a 8aba
00000170: 0fe4 01bd 6546 16bd f217 913d 2be4 6bbc
00000180: bfb3 683d 12ae 5d3d 6af8 c13c 8dbf 4c3d
00000190: befb 3a3c f930 a53c 8a73 78bc bd8a d8bc
000001a0: ca98 61bc 864b f13c 18c7 2e3c 5ca2 3fbd
000001b0: 5a7f 703b 7fce 3abd 1919 c2bc 6a30 363c
000001c0: 2679 e83c 748f 803b 14a4 bf3d d129 f0bb
000001d0: df84 7cbc 8cd1 9c3c f932 bebd d5c9 a8bd
000001e0: a5db 043d 5b6c b8bd 5639 073d 72f4 28bc
000001f0: 6f1e ddbc 068b 9abd 5ada 77bd bc3c 2b3d
00000200: 27c5 f0bb 41ec a33c b1c7 d5bb 50d7 943c
00000210: 4a31 06bc 9d23 ba3d 8956 443d 4b33 203d
00000220: 52e8 343c 2109 1e3b 289b 223d 92c2 0dbb
00000230: 9531 213d 6764 48bc c7e4 ca3d 9060 193d
00000240: 03b0 9bbd c503 e33b 8dd1 b2bb c699 aebc
00000250: 38ad 8fbd 32ad 1d3b 0742 1e3c d120 753c
00000260: d9bf a73d 7602 243d 766c 88bd e93f 3b3d
00000270: 09d6 1d3d c0ee 89bd 14f8 e73c 382c 333d
00000280: 5a6d b1bc 64a1 f5bb 10bf e93c 4dbb 953b
00000290: b6dc ff3c dbb3 dd3c 4d33 2a3c b4e7 7f3c
000002a0: 3694 1ebd a022 573d 071e 32bd d931 813a
000002b0: a2fd 24bc e6e5 27bd 9d96 2abc 92a5 193d
000002c0: 26e5 133d cc44 163d 7d12 63bd 6600 9d3d
000002d0: 9a9e 9bba 0b76 1abd d77e 3f3c e50c 2c3d
000002e0: 829b 533d 2089 403d 54f4 6dbc cf0f 76bc
000002f0: 89fc a4bc 38c1 733d 23c1 c4ba 6f58 003c
00000300: 44d2 9abc 8dfc 863c ae88 c3bc de4b 443c
00000310: ff84 d6bc 53fc d23c 30ca 85bd 0770 f0bc
00000320: e8e7 9f3a 6199 b2bd 2e6e d7bb 5bce acbc
00000330: 9877 333d 36b9 983d 53ac b2bd 4038 133d
00000340: f16b 8e3d 2933 2cbd 2448 17bc 1e04 b0bc
00000350: 121e 13bd c258 3bbc 17a7 593c a3e5 4dbd
00000360: 627a 44bc b392 883b 3bfc 5abc 20c6 1ebd
00000370: 44a6 2ebd 188a b9bb c2a0 753c eeaf 17bb
00000380: 7503 b43d a621 f63b f358 993c 4b05 9dbd
00000390: 8f1c 88bb 4f61 2a3d 2ad8 88bb 1e0d a63c
000003a0: 8485 a23c a8fe e4bc 157f 36bb 738c fc3c
000003b0: 6c41 cb3c 9f8e c73c 825f 2a3d 9320 e0bb
000003c0: 7466 93b9 a563 bebc 2038 f63c f632 6cbb
000003d0: 8168 17bd 820b 64bc 0e1e a1bc 7ee0 d3bc
000003e0: 7183 663c 4427 413d c848 0e3d b8cc 6cbd
000003f0: 0d89 7abb aa3b 393d 1d7a 3b3d 4d96 d2bc
0.02860557 0.009325114 -0.045329127 -0.050634246 -0.014388215 0.011987286 -0.062023643 -0.016511098
0.06129371 -0.042062927 0.033567175 0.0005078456 -0.07168211 -0.009378091 -0.00441431 -0.009069255
0.03432902 0.009226162 -0.0040548677 -0.030771364 0.105905466 -0.09410174 -0.02358388 -0.084468834
-0.08302955 -0.059251145 0.030547164 -0.020845452 -0.06249333 -0.06194634 -0.0033564968 0.04361771
-0.069157526 0.03113277 -0.0314733 -0.0016073553 0.033847082 -0.03845953 0.06135461 -0.017321223
0.03141361 -0.03474454 0.052791547 -0.014131886 -0.011707441 -0.034433804 -0.052680057 -0.05096151
-0.080175236 -0.01561054 0.054519325 -0.0040488173 0.08443373 0.026806006 0.032402657 -0.030454323
-0.03844693 -0.001545904 -0.015768772 -0.0038809197 -0.045919005 -0.09787705 -0.017664338 -0.08021848
-0.037445884 -0.0639581 0.04638071 0.066739365 0.08840263 -0.0013827403 -0.00519703 -0.032439504
-0.022913447 -0.004464538 -0.0074107978 0.054340452 5.666148e-07 0.10174029 0.040928 -0.024161087
0.0739333 0.06418046 -0.09103687 0.032054447 -0.014019411 -0.04282739 -0.038321584 -0.11682965
0.039158415 0.017963892 -0.035837084 -0.0010541221 -0.031711634 -0.036688227 0.07084645 -0.014397661
0.056812044 0.054121085 0.023678023 0.049987365 0.011412559 0.020164954 -0.015164265 -0.026433343
-0.013769338 0.029454958 0.010667585 -0.046785697 0.0036697001 -0.045607086 -0.023693608 0.011119941
0.02837808 0.003923351 0.09357467 -0.0073292037 -0.015412538 0.019142888 -0.09287066 -0.082416214
0.03243603 -0.09005042 0.033013664 -0.010312187 -0.02699205 -0.07546048 -0.06051097 0.041805968
-0.007347721 0.020010116 -0.006524049 0.018169075 -0.008190462 0.09088824 0.04793409 0.039111417
0.011041718 0.0024114328 0.03969875 -0.0021630866 0.039353926 -0.012230969 0.09906917 0.037445605
-0.07601931 0.0069279396 -0.0054571093 -0.02131356 -0.07015461 0.0024059531 0.009659297 0.014961437
0.08190889 0.04004141 -0.06661312 0.045715246 0.038534198 -0.06734991 0.028316535 0.043743342
-0.021658588 -0.007496046 0.028533489 0.004569447 0.031233173 0.0270633 0.010388208 0.015619207
-0.038715564 0.052523255 -0.043485668 0.0009856775 -0.010070236 -0.040990733 -0.010411886 0.037511416
0.036107205 0.036686704 -0.055437554 0.076660916 -0.0011872828 -0.03771023 0.011687956 0.042004485
0.051661976 0.047005773 -0.014523584 -0.0150184175 -0.02013995 0.05951044 -0.0015011173 0.007833584
-0.01889909 0.016477847 -0.023868885 0.011980979 -0.026186464 0.025755083 -0.06532705 -0.029350294
0.0012199851 -0.08720661 -0.0065744137 -0.021094492 0.043815225 0.07457201 -0.087242745 0.035942316
0.06954182 -0.042040978 -0.009233508 -0.021486338 -0.03591735 -0.011434736 0.013284466 -0.050267827
-0.011992069 0.0041678785 -0.0133658005 -0.038763165 -0.042639032 -0.005662214 0.014991941 -0.0023145634
0.08789722 0.0075113354 0.018719172 -0.07667025 -0.004153795 0.041596707 -0.0041761594 0.020269927
0.019839056 -0.02795346 -0.0027846743 0.03082869 0.024811469 0.02436 0.04159499 -0.0068398206
-0.00028114358 -0.023240874 0.03005606 -0.0036041117 -0.036964897 -0.013918759 -0.019667652 -0.025863882
0.014069424 0.047156587 0.03473738 -0.057812423 -0.0038228661 0.045222916 0.045770753 -0.025706435

action_model._discrete_distribution.branches.5.bias f4 [3]
00000000: 28ac 0f3c cdbc 6dbb 8856 4cbb
0.008769073 -0.0036275864 -0.0031179506

action_model._discrete_distribution.branches.5.weight f4 [3, 128]
00000000: 0203 27bc d2a6 943d f187 c03c ae6e 26bc
00000010: 4b8e 733d ee11 a9bb 655f 2abc 92e3 ddbb
00000020: 4530 aa3d 20f9 1a3d 1fcb 503c 6c6b 823c
00000030: 6688 953d 5b89 e23b 096a 663d 83da efbd
00000040: 0694 56be 25aa 9bbc d5e3 a53d 1d5c bbbd
00000050: 64ac 2a3d 750f 66bd 974a f63c a4b6 abbc
00000060: d799 f2bd 0c9b febc efcb 6ebd 727d 10be
00000070: 1a87 2d3c d62d e7bd 2df9 0cbc 1c08 18bd
00000080: b1c3 933d 6bcb 6e3c 49fd 09bd 4f6c 233d
00000090: 6eb5 d43c 2689 9dbb 29f3 493d 60af 85bc
000000a0: 27cb 363d 0722 35bd 2759 c53c 1567 0bbb
000000b0: b5b8 fc3d 4eeb 7b3d f7de 923b 2de5 823c
000000c0: 0cca cabc 7f27 2abd d378 133e e372 ebbd
000000d0: 25d1 993d 9c53 873d 1927 f43c 7fd3 313c
000000e0: ed91 85bd 000f 9d3c d4b6 80bd 572e 3a3d
000000f0: 6b10 723d 4740 b23b 08cc 31bd 04b8 5a3d
00000100: 8d3c da3d 2d0b 0fbc 4c1d 06bd 8373 09bc
00000110: befe 2fbc a0f9 6ebc 24b4 f63d fd39 853d
00000120: 2b2f 003d 39ac edbd e622 b63b 2c5e b53c
00000130: 575d 12bc 348c ccbb 23fe 97bd cacc 023d
00000140: 0650 4ebe 41fc 4f3d 31f8 ffbc 6aed 3a3d
00000150: a6e5 093d 67e2 a93d fe12 1d3d aceb 33be
00000160: c7b9 5cbc c144 013d 2e12 b43d b00b 9f3d
00000170: b75f b73d 614c 873c 15d9 52bd 6210 073b
00000180: 9739 68bc fdc7 eabb fd22 81bc 4b7e 17bd
00000190: 2100 8aba 4ad0 2e3c 542b 833d c491 303d
000001a0: 54fb 673d 7a31 343d 2f55 fb3c c6e4 063d
000001b0: 3e8e 0a3d 1258 3d3d 98eb 203c fc78 5ebd
000001c0: 9f20 9a3c 0ba2 f43d 0891 5a3d 6d5e 3d3d
000001d0: 1647 653d e82e 81bd 9934 4039 52f1 463d
000001e0: b7ff b7bc 4d80 2abd 4b0b 073c 10da 8a3d
000001f0: 4fff e63a d5db 86bd 5d7f cbbb f78f 373d
00000200: a88d 73bc e08a 0dbd e9b2 dd3b 3988 f3bb
00000210: 758f 4bbd 876a 813d 310e c63d fcb4 213d
00000220: 2bd4 2fbd 4846 82bd 8cbe fdbc 4d8f 853c
00000230: 9902 9abd 3b09 b6bb 4975 353c a7a9 ab3d
00000240: 2aed 793e 8021 cd3c 3b4d 54bd 742e cf3d
00000250: 4cc6 853d 3369 353d dace acb9 21a6 b93c
00000260: 5de7 5c3c 84f6 bbbd daf8 7a3d 7b78 d5bb
00000270: 487b 243d 8956 ac3d 9689 8e3c 2e79 cc3c
00000280: 2bb4 3fbc 2de8 82bd 117a fb39 73d3 803b
00000290: 43bf 94bb 0f6b 00be 8171 183c c206 0e3c
000002a0: 2885 33bd b5b3 26bd 2d4f 273d fdd0 de3c
000002b0: f2ad 85bd dc1c 08bd 9b8d 05bd 5716 28bb
000002c0: a1e6 b93d 460a a7bc 8807 bdbd 944e 01bd
000002d0: b718 8ebd 6781 25bd 9d52 abbc 139f 8bbb
000002e0: c6d7 4bbc 4e73 fa3c 12ca ff3d 9cb0 523b
000002f0: cdc7 92ba 9963 19bd 2cad 48bb 51fa 6ebd
00000300: 57f7 5fbd 00ea 2bbc 4289 543d 3b19 443d
00000310: 0c5c acbc 7e21 073d 0c87 8fbd c29d 36bc
00000320: 5c21 05bd bb96 1a3e 0820 a9bb 3519 363c
00000330: c674 88bb 4604 163d 4215 723d 10cd 383d
00000340: 6e44 693e 917f c83c ad9c 04bc 83b1 45bc
00000350: 426b 51bc 2056 f2bc 608d 9e3d 6104 6b3d
00000360: 4591 cf3c 6f81 a03c 4c7c 67bd 834a 1fbd
00000370: a97c c7bd adb2 f2bc d7d6 22bc f73f 6a3c
00000380: e175 a03a 762d 0bbd 82c0 c0bc c7ef b13d
00000390: 1e6d d33c f072 0b3d b682 563d 5878 a6bb
000003a0: 96ff 06bc d915 273c 088b 58bd 7cc1 04bd
000003b0: 705d 2bba 6a57 acbd a51e a4bc 801e bdbc
000003c0: 0e3f d2bc 5dc2 7abd 72c9 8fbc eb96 a53b
000003d0: 57d0 273b 77c7 903d 8ae0 a53c 6677 7dbc
000003e0: f86d 993c 8f3a 9abd 5e63 74bc a627 8abd
000003f0: 5a12 173d ac60 f33c 2d43 013d 5cd1 063b
-0.010193588 0.07258381 0.023502322 -0.010158224 0.059461873 -0.005159608 -0.01039872 -0.0067715133
0.08309988 0.03783524 0.01274374 0.015920363 0.073014066 0.0069133467 0.056253467 -0.117116
-0.20954904 -0.01900203 0.08100096 -0.091484286 0.04166831 -0.056167085 0.030064864 -0.020961113
-0.11845749 -0.031079791 -0.058299955 -0.14110354 0.010591293 -0.112880394 -0.00860433 -0.03711711
0.072150595 0.014574866 -0.033688817 0.039898213 0.025965419 -0.004807609 0.04930416 -0.016318977
0.044627335 -0.044221904 0.024090363 -0.0021271158 0.123399176 0.0615037 0.004482146 0.01597842
-0.024754547 -0.041541573 0.1440156 -0.11496522 0.07510594 0.06607744 0.0298038 0.010853647
-0.06521974 0.019172192 -0.06284872 0.04545435 0.05909769 0.0054397914 -0.04340747 0.053398147
0.106560804 -0.008730692 -0.032742783 -0.008389357 -0.010741888 -0.014585882 0.12046078 0.06505201
0.031294983 -0.116051145 0.0055583594 0.022139631 -0.008933387 -0.0062422995 -0.074215196 0.031933583
-0.20147714 0.050777677 -0.031246277 0.045636572 0.033666275 0.08295136 0.03834819 -0.1757037
-0.013472027 0.03155971 0.0879253 0.07765901 0.08953803 0.016515912 -0.051476557 0.002060913
-0.014173887 -0.0071649537 -0.015763754 -0.036985677 -0.0010528603 0.010669777 0.064047486 0.043107763
0.05663617 0.043992497 0.030680267 0.03293302 0.03382706 0.04622657 0.009821795 -0.0543146
0.018814383 0.1194497 0.05336097 0.04623263 0.055975996 -0.06307775 0.00018330141 0.048569985
-0.022460802 -0.041626263 0.008242439 0.06779873 0.0017623695 -0.065848984 -0.0062102512 0.04481503
-0.014865316 -0.03455627 0.0067657125 -0.0074320105 -0.04969736 0.063191466 0.096706755 0.03947924
-0.04292695 -0.06361061 -0.030974649 0.016303683 -0.07520027 -0.0055552996 0.011075326 0.08381968
0.24406877 0.025040388 -0.051831465 0.10116282 0.06531963 0.04428978 -0.00032960513 0.022662224
0.013482896 -0.091778785 0.06127248 -0.0065146065 0.040156633 0.08414943 0.01739959 0.024960127
-0.01170067 -0.0639194 0.00047965397 0.0039314567 -0.0045394017 -0.1254084 0.009304405 0.008668603
-0.04382816 -0.040698726 0.040846992 0.027199263 -0.06527318 -0.033230647 -0.03260575 -0.0025648081
0.09077192 -0.020390641 -0.09229952 -0.03156908 -0.06938308 -0.04040661 -0.020913417 -0.0042609065
-0.012441581 0.03057256 0.12489714 0.0032148724 -0.0011198461 -0.0374485 -0.0030620797 -0.05834419
-0.05467924 -0.010492802 0.05188871 0.047875624 -0.021039985 0.032990925 -0.0700818 -0.011146011
-0.032502517 0.15096562 -0.005161289 0.011114408 -0.004164311 0.03662517 0.059102304 0.045117438
0.2278001 0.02447489 -0.008093995 -0.012066248 -0.01278192 -0.029582083 0.07741809 0.057377223
0.025337825 0.019592969 -0.056515023 -0.03888942 -0.09740574 -0.029626215 -0.009938917 0.014297477
0.0012242162 -0.0339789 -0.023529295 0.08688312 0.025808867 0.03404516 0.05237075 -0.005080264
-0.008239647 0.01019808 -0.052866966 -0.032411084 -0.00065370556 -0.084151104 -0.020034144 -0.023085833
-0.025664832 -0.061220516 -0.017552111 0.005053391 0.0025606358 0.07069295 0.02024867 -0.015470361
0.018729195 -0.075307004 -0.014916269 -0.067458436 0.036882736 0.029709183 0.031558204 0.0020571565

action_model._discrete_distribution.branches.6.bias f4 [3]
00000000: 0a5c 53bc c36a 973b 7cbf 463c
-0.012900362 0.0046208813 0.012130614

action_model._discrete_distribution.branches.6.weight f4 [3, 128]
00000000: 1787 e43b 131c 983c 0eaa 393d a524 a1ba
00000010: 9cec 23bd 8d96 303d f14b a4bc 51b9 173d
00000020: 0f81 253d 64e1 4abc 9387 d73c f8c6 833b
00000030: 9d13 91bc ed8a 94bb 61ae 013d 7ac7 45bd
00000040: 0172 62bd 71d8 3a3b 62c0 38bc 8052 8d3c
00000050: 0e71 6bbc bdf2 5fbc 9698 4fbc 21b8 31bd
00000060: cb31 c7bb 77f7 b8bc 43e5 3cbd 46eb 49bc
00000070: 52d1 a63c 65b9 b53c 5a27 333d 5627 d33c
00000080: 0894 0d3d c33c b4bd 3353 ecbc 0d72 553b
00000090: b525 65bc 484d 90bd 8355 003d a3ce 4b3d
000000a0: 0aa8 ccbc 6c1a 5bbd 0b0f 2cbd f5a2 0d3d
000000b0: ad83 6c3c c155 8cba 1067 25bd dae8 033d
000000c0: 39bf ba3c 1e43 8439 d954 063d 30db 98bc
000000d0: 54dc ccbc 8981 1e3d 14de b13c 8814 0dbd
000000e0: 59df c7bc 5d13 7c3d 9f33 4d3a a04e d7bb
000000f0: 78ff 1e3d dedc e9bc 4e3c 203b a226 aa3c
00000100: abf6 e0bc d604 f6bb 918b 863b dfce 8d3c
00000110: c0c6 943c 33e5 fb3a 9060 9ebb 1aaa 8b3c
00000120: 6276 433a 119b 573b d254 0b3c 2cb0 1d3c
00000130: d0b1 483c ffb5 873d f991 aabc 837c a13c
00000140: 2cad 1e3d d70d df3b 50f9 753c 5b26 79ba
00000150: 938c 5bba bf3f ea3c 151b 223b bbaa 1dbd
00000160: c78f d6bc ac8f 263d ea45 053d 756d 04bc
00000170: 0e4a a53c 214d 373d 894f cb3a e0a5 d13c
00000180: 00b0 afba d817 c7bc 6364 88bd 8995 fbba
00000190: 77c8 65bc bd7c 3d3d 910f 14b9 a30d 193d
000001a0: 085e 3a3d eaa6 733c ce87 2dbd 5a6c af3b
000001b0: d726 8a3c e845 66bd fa18 0b3d eec7 5ebd
000001c0: 3017 2dbc 3863 b93c b385 423d 36a9 223d
000001d0: 0465 163c 2037 8bbb 516b 2b3c 96de 2f3c
000001e0: 725c 5e39 1d2b 33bd fcc4 353d 76b9 97bc
000001f0: 3734 743d 2d19 4ebc b996 233d 15ba 2e3b
00000200: 6ff4 8cbb e0f0 86bc 848b f0bc 14f1 aebc
00000210: 7a60 af3b dea0 94bc 3c2b 9abb 6db0 8cbb
00000220: 89c6 70bc bfbb eabb eb2d 82bc 66fe 3e3c
00000230: 5c38 823c dd6a bc3b a11b cabc 42b6 c0bc
00000240: e5db 133d e0b9 b2bb 07ab 003c 1f0c 833c
00000250: 1c37 a33c 3d49 c43b 4edd 0b3b ccce d33c
00000260: d26e 67ba ffa2 8f3c a80a 73bb 87a9 4c3c
00000270: 022a 8fbc c09c 633c 15da 25bd ae06 d7bc
00000280: 8cd0 acbc 72a7 0a3d 30aa 263c 3652 59ba
00000290: 5f0a ecbc 8ece 263d e02c 29bd 6d99 173d
000002a0: 9071 ad3c 0d81 013c 9875 253b e81a e4bb
000002b0: 22d7 313c e5ca 08bb 3f4e 433b a065 d53b
000002c0: b095 cfbc 0f59 a73b 2721 e7bc a3b8 e23b
000002d0: 787e c9bb 8ff1 0ebd 648b 593b cfd8 743c
000002e0: 6e1c 6c3c bd13 aebc 2f26 f2bb ced5 a7bc
000002f0: a737 90bc f26a 083d eafc c83a 6d73 f4b9
00000300: 9023 5fba 4537 5f3c 3a0e 983c 99b4 e93b
00000310: 76da 19bc c16a 09bc c100 f6b7 e923 c3ba
00000320: dff6 0dbc 0078 623c 3681 b53b e6bc 97bc
00000330: b6fe b7bc 7922 3bbd 3f64 973c 8886 9c3c
00000340: d996 79bc c4d0 0dbd b437 edbb fe9b b83c
00000350: 1ef5 ee3b a0e4 85bc 51e6 e4bb 98fe 043d
00000360: 2634 a83a c2ce 163c 9d0a 67bb f51a 2d3c
00000370: e907 143b af55 1d3a 4e41 13bd ca51 023c
00000380: 90fc a9bc 690a 0bbc 07ca 2f3d dfac f2bb
00000390: 69a6 d03c bf58 cdbc 0be5 623c 4899 9cbc
000003a0: 5c11 bebc 5a00 51bc 64d3 5f3c 40c4 84bc
000003b0: 3531 6dbb af19 c33c 9b20 96bc 5e96 693b
000003c0: 5440 73ba 7f1b 14bc 118d 0ebd 30b9 57bb
000003d0: 8e62 d93c 9cd2 1e3c 64ce babb 1d5f 973c
000003e0: bde2 c73c da07 94bc 3d00 c8bc 47fa e33c
000003f0: ba60 c4bb 73cf d0bb 6311 063a c865 763c
0.006974112 0.018568074 0.045328192 -0.0012294246 -0.04002057 0.043112326 -0.020055743 0.037041966
0.040406283 -0.012382839 0.026309764 0.0040215217 -0.017709548 -0.004533163 0.03166044 -0.04828594
-0.055284504 0.0028510357 -0.011276336 0.017251253 -0.014370216 -0.013668713 -0.012670657 -0.04338849
-0.006078934 -0.022578938 -0.04611708 -0.01232416 0.020363484 0.02218313 0.0437387 0.025775593
0.034565 -0.08800652 -0.028848266 0.00325692 -0.013986041 -0.0704599 0.03133155 0.04975761
-0.024982471 -0.053491995 -0.042006534 0.034579236 0.014435691 -0.0010706709 -0.04038149 0.032204486
0.02279626 0.00025227008 0.03279576 -0.018659204 -0.025007404 0.038697753 0.02171234 -0.03444341
-0.024398493 0.061541904 0.00078278215 -0.006570652 0.038817853 -0.0285477 0.0024450007 0.020770375
-0.02746137 -0.0075079007 0.004105993 0.017310558 0.018161178 0.0019218087 -0.0048332885 0.017048884
0.00074563 0.0032898823 0.008504109 0.009624522 0.012249425 0.0662651 -0.020821558 0.019712692
0.03873937 0.0068070698 0.015013054 -0.00095043116 -0.0008375134 0.02859485 0.002473538 -0.0384929
-0.026191605 0.04066436 0.03253738 -0.008082737 0.020176914 0.04475129 0.0015511374 0.02559179
-0.0013403893 -0.024303362 -0.06659772 -0.0019194345 -0.014024845 0.046261538 -0.00014120179 0.03736652
0.04549983 0.014871338 -0.04236584 0.0053534927 0.016864223 -0.05621901 0.033959366 -0.054389887
-0.01056461 0.022630319 0.047490787 0.039712153 0.009179357 -0.004248515 0.010462598 0.010734221
0.00021206008 -0.043742288 0.044377312 -0.018521052 0.05962011 -0.012579245 0.039938662 0.0026661207
-0.0043015997 -0.01647228 -0.029363401 -0.02135519 0.005352077 -0.018143114 -0.004704861 -0.0042934925
-0.014695772 -0.0071634944 -0.015891036 0.011657333 0.015896015 0.005750044 -0.024671378 -0.023524407
0.03609838 -0.005454287 0.007853276 0.01599699 0.01992374 0.005990176 0.0021341625 0.025855444
-0.0008828464 0.017533777 -0.003708521 0.01249159 -0.017476086 0.013892353 -0.040491182 -0.026248302
-0.021095537 0.033851095 0.010172412 -0.00082901435 -0.02881354 0.04072433 -0.04130256 0.037011553
0.021172315 0.007904303 0.0025247093 -0.0069612153 0.010854514 -0.0020872888 0.0029801277 0.006512359
-0.025339931 0.005107052 -0.02821405 0.006918983 -0.0061491095 -0.034898337 0.0033194656 0.014944269
0.014411075 -0.021249646 -0.0073898057 -0.020487692 -0.017604662 0.033305116 0.0015334163 -0.00046625306
-0.0008512074 0.013624017 0.018561471 0.0071321246 -0.009390464 -0.0083872685 -2.9325836e-05 -0.0014888021
-0.008664816 0.013822556 0.005539085 -0.018522691 -0.022460323 -0.045687173 0.018480418 0.019107118
-0.015233719 -0.034622923 -0.0072393063 0.02253532 0.007292404 -0.016344368 -0.0069854637 0.032469362
0.0012832924 0.009204568 -0.0035254129 0.010565509 0.0022587723 0.00060018426 -0.03595095 0.00795407
-0.020750314 -0.008486369 0.042917278 -0.0074058617 0.025469976 -0.025066731 0.013848553 -0.019116059
-0.023201637 -0.0127564315 0.013661239 -0.01620686 -0.003619266 0.023815958 -0.018326094 0.0035642604
-0.00092793 -0.009039759 -0.0348025 -0.0032916777 0.026536252 0.009693768 -0.005700873 0.01847797
0.02440011 -0.01807015 -0.024414176 0.027829302 -0.005992976 -0.006372386 0.0005114285 0.015038915

action_model._discrete_distribution.branches.7.bias f4 [3]
00000000: bea4 b1bc f9ae 283c ea4f 143c
-0.021685 0.010295623 0.009052256
