ArmRobot/Assets/Config/results/TFM-Brazo-Mesa-Tercero-2/AgenteRobot/AgenteRobot-10499982.onnx (onnx, 147394 bytes, 25 tensors)

discrete_act_size_vector f4 [1, 8]
3.0 3.0 3.0 3.0 3.0 3.0 3.0 3.0
00000000: 0000 4040 0000 4040 0000 4040 0000 4040
00000010: 0000 4040 0000 4040 0000 4040 0000 4040

network_body.observation_encoder.processors.0.normalizer.running_mean f4 [86]
0.0 0.0 0.0 0.0 0.0 0.0 0.9999669 6.4317993e-07
0.086051345 -5.5535764e-08 5.9026288e-08 -0.57578844 1.8757783e-08 0.779248 0.05462999 0.1518935
-0.016366495 0.15000011 -0.5395081 -0.21210514 0.73006856 0.093536794 0.33713055 0.082818165
0.23546825 -0.49097013 -0.27332497 0.6713621 0.07135662 0.4257278 0.18856494 -0.08134471
-0.8250053 -0.33810276 -0.06307086 0.06598156 0.4268694 0.23509187 0.15874264 -0.7758126
-0.302668 -0.1671019 0.045478296 0.42439026 0.26963603 0.12349641 -0.73341215 -0.32634425
-0.2776918 0.015349804 0.42095274 0.30575177 0.029723749 -0.24314187 -0.7924249 -0.18392949
-0.023510683 0.36587873 0.35084128 0.029723741 -0.24314187 -0.7924249 -0.18392949 -0.018189173
0.3593124 0.34403422 0.029723741 -0.24314187 -0.7924249 -0.18392949 0.25435024 0.8489954
0.4430037 0.7792732 -0.15546998 0.8205726 -0.35227308 0.75734216 -0.48609763 0.68014604
-0.25697723 0.84741443 -0.51498747 0.6893763 0.40660554 -0.38481313
00000000: 0000 0000 0000 0000 0000 0000 0000 0000
00000010: 0000 0000 0000 0000 d5fd 7f3f fda6 2c35
00000020: b03b b03d 3886 6eb3 1784 7d33 df66 13bf
00000030: cd20 a132 cc7c 473f b2c3 5f3d f889 1b3e
00000040: 0713 86bc a199 193e 341d 0abf 1732 59be
00000050: c6e5 3a3f 3890 bf3d 609c ac3e 929c a93d
00000060: 971e 713e 7060 fbbe 40f1 8bbe 63de 2b3f
00000070: 6b23 923d fff8 d93e 2b17 413e 0e98 a6bd
00000080: 8c33 53bf ce1b adbe 4c2b 81bd 5721 873d
00000090: a08e da3e ecbb 703e 6e8d 223e a89b 46bf
000000a0: 4df7 9abe c31c 2bbe 7347 3a3d ae49 d93e
000000b0: bc0d 8a3e b0eb fc3d e6c0 3bbf 9816 a7be
000000c0: 9f2d 8ebe bf7d 7b3c 1e87 d73e 7f8b 9c3e
000000d0: 387f f33c 2ffa 78be 5cdc 4abf 0358 3cbe
000000e0: 7a99 c0bc 7554 bb3e 78a1 b33e 347f f33c
000000f0: 2ffa 78be 5cdc 4abf 0358 3cbe 7601 95bc
00000100: cbf7 b73e 4125 b03e 347f f33c 2ffa 78be
00000110: 5cdc 4abf 0358 3cbe 323a 823e c357 593f
00000120: 62d1 e23e 737e 473f 8633 1fbe 0c11 523f
00000130: 235d b4be 2de1 413f cae1 f8be 0d1e 2e3f
00000140: 8592 83be 27f0 583f 38d6 03bf f77a 303f
00000150: 9a2e d03e 3a06 c5be

network_body.observation_encoder.processors.1.normalizer.running_mean f4 [29]
0.2294316 0.30700162 28.003368 68.32495 0.1410667 0.1676276 0.38404348 0.6016609
0.37634718 0.37166253 0.49803975 0.41106322 0.37634853 -0.114128135 0.20941773 0.09605001
-0.011344324 0.20941773 0.11248221 -0.10280268 0.0 -0.016442977 0.2397628 0.2249162
0.65180445 0.7424589 0.75999075 0.6784221 0.7933284
00000000: 1ef0 6a3e 512f 9d3e e606 e041 60a6 8842
00000010: ca73 103e 92a6 2b3e 59a1 c43e 7306 1a3f
00000020: 94b0 c03e 8d4a be3e 11ff fe3e e176 d23e
00000030: c1b0 c03e 03bc e9bd 9a71 563e deb5 c43d
00000040: 8bdd 39bc 9a71 563e 135d e63d 368a d2bd
00000050: 0000 0000 6cb3 86bc 6184 753e 6f50 663e
00000060: a8dc 263f c911 3e3f c18e 423f 12ad 2d3f
00000070: 9217 4b3f

network_body._body_endoder.seq_layers.0.weight f4 [128, 115]
0.056309648 -0.18278149 0.059213504 0.02489006 0.042171653 -0.020509884 0.17222562 0.12474181
0.24481212 0.14446345 0.05500903 -0.087223195 0.053802732 0.10138691 0.096557796 0.24022937
-0.032151863 0.06554632 0.09669277 -0.022940984 0.030066771 -0.007454083 0.014204822 -0.037924204
-0.1667776 -0.02452378 0.20835808 0.02239758 -0.17480056 0.18338732 0.016508078 -0.069791876
0.011863161 -0.11398661 -0.05533545 -0.084626384 0.12951034 -0.06453938 0.055379327 -0.10785552
0.026386414 0.054156408 0.010368845 0.0054304334 -0.031637087 -0.05250551 -0.07135192 0.021956615
-0.053002622 -0.052193727 0.009157067 0.06022411 -0.037950087 0.07995929 -0.06520523 -0.04646616
-0.043159984 0.0811275 -0.043126803 0.023498962 -0.023771273 0.04250154 -0.07321157 -0.030428141
0.10181188 0.060772747 0.16100702 0.060823105 -0.10007615 -0.12942547 -0.040332347 -0.04090679
0.06048007 0.011686563 0.10083113 0.046664737 0.018861115 -0.19318686 0.25078145 0.17034575
-0.12822786 0.021799915 -0.1400267 0.18349257 -0.10158025 0.14444597 -0.060875274 -0.043860424
-0.14706056 0.008767123 0.11653868 -0.14207952 -0.15940818 -0.0064417445 -0.013397486 0.026336128
0.13763428 -0.09619849 -0.0981062 -0.029064877 -0.13364817 -0.12403062 0.14684978 -0.050263725
0.07259131 -0.054652058 -0.1154005 0.020779904 0.37923455 0.11918958 -0.20162043 0.1827781
0.023152426 0.08155416 0.26473314 0.020129874 -0.07736179 -0.038813725 0.19274314 -0.038891274
0.13415706 -0.22436625 -0.33580652 -0.08398543 -0.00059713307 -0.22312307 0.013759715 0.02748408
-0.20342928 -0.05349228 0.07510077 0.005910298 0.12989548 0.036775593 -0.05746473 -0.09067992
0.055947345 -0.16435093 0.08418345 0.28949183 -0.093144655 0.00035631907 0.05875556 -0.12677883
0.16328347 0.08641495 -0.048966907 -0.096118994 0.08430176 -0.078149766 -0.016670797 0.059244886
0.057715848 -0.026192723 -0.13064212 -0.17262913 0.17202026 -0.06670973 -0.05553829 0.069289595
-0.025294617 -0.210358 -0.15585154 0.027082711 -0.016265709 -0.22631334 0.068618745 -0.17922753
-0.10631302 0.0037600782 0.20535536 0.012646103 -0.0025609785 -0.020267569 -0.11489064 -0.041291982
-0.09970405 0.025605703 0.16705215 -0.12111325 0.048862945 -0.1273082 -0.10163445 0.20221022
0.2241726 0.0040536243 -0.22329368 0.041784573 0.06552218 0.23642568 0.20073457 -0.1650575
-0.07113304 0.033627626 0.25091687 0.30570266 0.28140676 -0.18036704 0.006105964 0.14010844
-0.064209856 0.054216314 -0.17362908 0.11733884 -0.09788567 -0.3017777 0.13835281 0.12555444
0.17588606 0.03792921 -0.330811 -0.20613725 0.046239648 0.2961602 -0.034683444 0.07593578
-0.13824485 -0.14855239 0.03208568 -0.0032483311 0.22886471 0.079026975 -0.06708736 0.06952119
0.110273205 -0.09417744 0.23020762 0.2571747 0.05162222 0.14009857 -0.07128248 0.08655811
0.15668835 0.00045853094 0.1426215 -0.047708403 0.20886707 -0.023088899 0.13546644 0.04463104
-0.010765679 0.23295283 -0.048413046 0.09794285 0.094632514 0.15871976 0.004192211 -0.047577437
0.067715555 0.22084334 -0.055929843 0.032565754 -0.025522463 0.02373659 -0.108218096 -0.077412605
00000000: f2a4 663d 122b 3bbe dc89 723d 3de6 cb3c
00000010: 2fbc 2c3d 5804 a8bc ea5b 303e a278 ff3d
00000020: 07b0 7a3e 3aee 133e 2651 613d 13a2 b2bd
00000030: 4160 5c3d f1a3 cf3d 18c0 c53d b0fe 753e
00000040: acb1 03bd 263d 863d dc06 c63d bbee bbbc
00000050: 974e f63c 6141 f4bb 57bb 683c 6956 1bbd
00000060: bfc7 2abe 18e6 c8bc d25b 553e 217b b73c
00000070: ebfe 32be e3c9 3b3e f33b 873c 0bef 8ebd
00000080: b45d 423c d071 e9bd 6da7 62bd 9950 adbd
00000090: 5c9e 043e 392d 84bd 6fd5 623d 5be3 dcbd
000000a0: 5228 d83c 1cd3 5d3d 17e2 293c c7f1 b13b
000000b0: e495 01bd 0510 57bd f520 92bd 5cde b33c
000000c0: 4719 59bd 17c9 55bd 8607 163c 8ead 763d
000000d0: 8d71 1bbd b2c1 a33d 528a 85bd 4d53 3ebd
000000e0: 86c8 30bd 2d26 a63d bba5 30bd e580 c03c
000000f0: f9bb c2bc 1816 2e3d f3ef 95bd 7044 f9bc
00000100: bf82 d03d d8ec 783d 06df 243e a621 793d
00000110: b9f4 ccbd 1c88 04be 8833 25bd e18d 27bd
00000120: f3b9 773d ff78 3f3c 8d80 ce3d 8623 3f3d
00000130: a082 9a3c c7d2 45be 6d66 803e 1e6f 2e3e
00000140: 2a4e 03be bc95 b23c 2963 0fbe 7ae5 3b3e
00000150: 4e09 d0bd a5e9 133e 5a58 79bd fda6 33bd
00000160: 0b97 16be fba3 0f3c d5ab ee3d 4b7d 11be
00000170: e63b 23be 4515 d3bb 2181 5bbc ddbe d73c
00000180: 00f0 0c3e b703 c5bd e7eb c8bd 7719 eebc
00000190: 11db 08be c403 febd ca5f 163e 56e1 4dbd
000001a0: c1aa 943d d6da 5fbd 1957 ecbd 9e3a aa3c
000001b0: 082b c23e ab19 f43d 9675 4ebe 2f2a 3b3e
000001c0: 28aa bd3c de05 a73d 1a8b 873e 68e7 a43c
000001d0: dc6f 9ebd 24fb 1ebd 755e 453e 754c 1fbd
000001e0: 7860 093e 44c0 65be d5ee abbe 8e00 acbd
000001f0: ec88 1cba 607a 64be 6d70 613c 4b26 e13c
00000200: c44f 50be b91a 5bbd 6fce 993d 2cab c13b
00000210: 5203 053e 01a2 163d 2360 6bbd 65b6 b9bd
00000220: 0b29 653d 9c4b 28be 5f68 ac3d 4638 943e
00000230: a0c2 bebd 56d0 ba39 aca9 703d 4fd2 01be
00000240: c833 273e 52fa b03d 8691 48bd 09da c4bd
00000250: 67a6 ac3d fc0c a0bd 3291 88bc c4aa 723d
00000260: 7467 6c3d 1f92 d6bc 0cc7 05be b1c5 30be
00000270: 1426 303e 1c9f 88bd 1e7c 63bd b4e7 8d3d
00000280: a836 cfbc 1668 57be 8c97 1fbe 90dc dd3c
00000290: aa3f 85bc afbe 67be fc87 8c3d 6c87 37be
000002a0: a4ba d9bd a56b 763b ad48 523e 9a31 4f3c
000002b0: 17d6 27bb 2c08 a6bc c94b ebbd c821 29bd
000002c0: a331 ccbd 0dc3 d13c b80f 2b3e 390a f8bd
000002d0: 8324 483d 155d 02be b925 d0bd 3210 4f3e
000002e0: 818d 653e 44d4 843b 19a7 64be 4d26 2b3d
000002f0: 7e30 863d 9319 723e 5d8d 4d3e d504 29be
00000300: 33ae 91bd 1fbd 093d 2d78 803e 0f85 9c3e
00000310: 8c14 903e 23b2 38be 8a14 c83b 9678 0f3e
00000320: 7580 83bd ed11 5e3d d2cb 31be 594f f03d
00000330: 4878 c8bd 9b82 9abe 5cac 0d3e 5891 003e
00000340: 7a1b 343e a95b 1b3d 0f60 a9be a515 53be
00000350: c965 3d3d 4fa2 973e 3a10 0ebd 3884 9b3d
00000360: 0f90 0dbe 1e1e 18be 466c 033d f4e1 54bb
00000370: 835b 6a3e e5d8 a13d 1965 89bd 2061 8e3d
00000380: ebd6 e13d 1ae0 c0bd 8cbb 6b3e 67ac 833e
00000390: d271 533d 0076 0f3e 8dfc 91bd 6145 b13d
000003a0: e972 203e fb66 f039 5f0b 123e e369 43bd
000003b0: 40e1 553e ee24 bdbc b7b7 0a3e 0acf 363d
000003c0: 8862 30bc 308b 6e3e c24c 46bd 4396 c83d
000003d0: b1ce c13d 6f87 223e d15e 893b 8fe0 42bd
000003e0: 74ae 8a3d c224 623e b116 65bd ab63 053d
000003f0: 7c14 d1bc 3d73 c23c 73a1 ddbd 808a 9ebd

network_body._body_endoder.seq_layers.0.bias f4 [128]
0.10002664 -0.06515399 0.1589233 0.021768259 -0.08158007 -0.02394779 0.12969361 0.03292543
0.020718338 -0.056789838 -0.0191995 0.14548293 0.0020023386 0.06167498 0.035984658 0.13632289
0.06380831 -0.069298394 0.0020909111 0.25059885 0.028047012 0.056398086 -0.014883046 -0.06689045
0.1267337 0.21869846 0.07414976 -0.004800471 0.14397424 0.039977424 -0.053108796 -0.05877557
-0.014573418 -0.004755798 -0.048036706 0.27095672 0.03983391 -0.06400293 -0.001388351 -0.106148124
-0.0034135669 0.23731071 -0.04583399 0.15542984 -0.08015299 -0.009279489 0.31350607 -0.060288895
0.23867606 0.09266571 -0.06353763 0.23526257 0.10557583 0.0016001221 0.046854332 -0.01411254
0.3928218 0.053761657 0.00675961 -0.024760652 -0.019846758 -0.06607235 0.2702449 0.04711967
-0.021674879 -0.11883532 0.14004926 -0.007377511 0.010255166 0.1362131 0.24140628 -0.023948815
0.046913736 -0.08591233 -0.08522397 -0.005105523 -0.021903092 -0.020756247 -0.033875726 0.18839681
0.17346083 -0.03650052 0.028263567 -0.08770214 0.5317052 0.1259768 0.0634102 0.20523831
0.0024637727 -0.07489061 0.04524865 0.08196029 -0.051801406 0.25575235 -0.09128675 -0.023002494
-0.034389906 -0.0030917982 -0.047988318 0.039089557 0.01955602 -0.0046855235 -0.04345612 -0.0436099
-0.037290413 -0.0059709796 -0.14666352 0.12214492 0.04476839 0.05330418 0.07936612 0.2188443
-0.026455363 -0.04034428 0.15281856 0.21694356 -0.09382586 0.052288882 0.090774395 -0.022221267
-0.08868522 0.08370738 0.039880853 0.20485805 -0.0062992936 -0.008602089 0.04389885 0.011415562
00000000: c4da cc3d 756f 85bd cabc 223e 5953 b23c
00000010: 7413 a7bd 282e c4bc 67ce 043e d1dc 063d
00000020: 81b9 a93c 769c 68bd 4548 9dbc 7af9 143e
00000030: ab39 033b e79e 7c3d a664 133d 3a98 0b3e
00000040: eead 823d 51ec 8dbd ab07 093b 7e4e 803e
00000050: d9c2 e53c ae01 673d 05d8 73bc dcfd 88bd
00000060: 7bc6 013e 7df2 5f3e d4db 973d 454d 9dbb
00000070: fc6d 133e 5ebf 233d 9c88 59bd a7be 70bd
00000080: 58c5 6ebc 86d6 9bbb 23c2 44bd d7ba 8a3e
00000090: e228 233d f813 83bd 54f9 b5ba 3064 d9bd
000000a0: 26b6 5fbb 9401 733e 6cbc 3bbd 0029 1f3e
000000b0: 4027 a4bd ff08 18bc de83 a03e 7df1 76bd
000000c0: 7f67 743e 85c7 bd3d 0420 82bd ace8 703e
000000d0: 2438 d83d 30bb d13a 54ea 3f3d 4838 67bc
000000e0: f01f c93e 2f35 5c3d b87f dd3b dad6 cabc
000000f0: ab95 a2bc f150 87bd 8a5d 8a3e 8e00 413d
00000100: 848f b1bc ef5f f3bd 1369 0f3e 0cbf f1bb
00000110: 4905 283c 727b 0b3e 3533 773e 4e30 c4bc
00000120: 9e28 403d cef2 afbd e889 aebd 3b4c a7bb
00000130: 1d6e b3bc 0109 aabc 46c1 0abd 18eb 403e
00000140: b79f 313e 9281 15bd ff88 e73c 2e9d b3bd
00000150: d51d 083f 1000 013e 35dd 813d fe29 523e
00000160: 3f77 213b 4060 99bd a656 393d ccda a73d
00000170: b62d 54bd f9f1 823e 8cf4 babd ba6f bcbc
00000180: 6edc 0cbd c49f 4abb 668f 44bd 5f1c 203d
00000190: f233 a03c 0589 99bb 0bff 31bd 4ba0 32bd
000001a0: d5bd 18bd 35a8 c3bb f62e 16be 1e27 fa3d
000001b0: 0f5f 373d 7c55 5a3d b48a a23d b818 603e
000001c0: ebb8 d8bc 0b40 25bd 787c 1c3e 7426 5e3e
000001d0: c627 c0bd de2c 563d ede7 b93d 6009 b6bc
000001e0: 99a0 b5bd c66e ab3d 1b5a 233d 4fc6 513e
000001f0: 4e6a cebb c7ef 0cbc 48cf 333d 5608 3b3c

network_body._body_endoder.seq_layers.2.weight f4 [128, 128]
0.109655425 -0.06079494 -0.057201512 -0.09393495 0.12996766 0.09423294 -0.008804677 -0.104106784
-0.105852105 0.2431984 -0.08675835 0.09378893 -0.16744088 0.060745884 -0.17321125 -0.043754235
-0.14613418 0.054139823 -0.030628951 -0.33165362 0.15579295 0.057487704 -0.35372338 0.06085134
-0.0624165 -0.058281027 -0.23161276 0.12005226 0.01699355 0.14786802 -0.21646103 -0.14874104
0.120997466 -0.22880206 0.046683423 0.04284175 0.14280227 -0.22919518 -0.15617462 0.021329623
-0.1794598 0.04592783 0.26749903 0.03501904 0.26141703 -0.06636559 -0.031609062 0.11639146
0.019815056 -0.0053236694 0.060776006 0.011904337 -0.17345133 0.049617026 0.26438284 -0.17763491
-0.21442935 -0.31397516 0.05415113 -0.025812058 0.038834676 0.050934944 -0.13552117 -0.11304127
0.098859034 -0.012877722 -0.039396748 0.14668334 0.103406526 -0.050862096 -0.02155016 0.10959385
0.18751699 -0.098723404 -0.010145756 0.093760714 -0.013825148 -0.12850186 0.2017086 0.020369934
-0.08359333 -0.16826037 -0.03024157 0.16231433 -0.18320803 0.004790159 0.052283294 -0.13958053
-0.14631149 -0.11321171 -0.025886474 -0.10058612 -0.12891808 -0.06749233 0.12797552 0.021807611
0.025912855 0.06079622 -0.16758415 -0.32260188 0.019333614 0.09725447 0.06333433 -0.18238854
0.10747752 0.10978032 0.12646098 0.12426691 -0.016586006 -0.03750736 0.021264242 -0.17392457
-0.10380292 0.10111746 -0.18524171 0.011676007 -0.10470932 0.038039472 -0.14156395 0.010210287
0.091382585 -0.26411527 0.11739848 -0.35535127 0.050471794 -0.25384367 -0.09249731 -0.07359641
-0.0458034 0.21364662 -0.20793058 -0.2850056 0.110740565 -0.0077334545 0.014911366 -0.2033341
-0.014771283 -0.2316572 0.072418414 -0.14285724 -0.19321285 0.060242843 -0.1376269 -0.09172799
0.02988347 -0.22717494 0.06255053 0.090575464 0.12834047 -0.20760691 0.28270364 0.0040126904
-0.003895628 0.08517288 -0.1636037 -0.0066277245 -0.04147647 0.16907798 0.052326426 0.21377635
0.07255592 0.4060018 -0.19208084 -0.16470729 0.06798483 -0.00036295218 0.10819686 -0.20737165
-0.24967346 0.052148253 0.045628026 0.009151469 -0.026778115 -0.28639752 -0.09998146 -0.044893585
0.1402357 -0.1592336 0.08399726 -0.09526319 0.010251431 0.024624825 -0.33074594 0.21166117
0.09253432 -0.27771828 0.025439762 0.13589536 -0.004290203 -0.114660725 -0.20506929 -0.08333656
-0.07034431 0.023684831 -0.018386947 0.0037456197 0.12787698 0.037595224 0.035739705 -0.16821693
-0.097439356 0.08074782 0.23592481 0.014924786 -0.092999384 -0.16496728 -0.052213304 0.00048321165
0.06552035 0.0341993 -0.08035706 0.2301339 -0.15416892 0.050590284 -0.14595996 0.07481385
0.091639936 -0.089797296 0.06217324 0.013114312 -0.0977759 -0.21889101 0.10157421 0.0545922
0.028854135 -0.52724224 -0.08810911 -0.062090192 0.111962974 0.05918848 -0.09886114 -0.21336699
-0.20583685 -0.018578485 -0.1208831 -0.17725939 -0.3461793 0.15963615 0.1831973 -0.005570408
0.2134747 -0.17763406 -0.1299752 0.13604806 -0.13290335 -0.19236541 0.0067859944 0.05109796
0.054120738 -0.070946604 0.15557945 -0.030251771 0.012115963 0.15267232 -0.012057946 0.0020614492
00000000: 0693 e03d 1d04 79bd 224c 6abd f860 c0bd
00000010: 3e16 053e 33fd c03d 7e41 10bc f035 d5bd
00000020: fdc8 d8bd 0009 793e 5dae b1bd 6914 c03d
00000030: 9f75 2bbe add0 783d 4a5e 31be a437 33bd
00000040: 33a4 15be b8c1 5d3d 91e9 fabc 81ce a9be
00000050: 3088 1f3e 3a78 6b3d 3b1b b5be 413f 793d
00000060: 72a8 7fbd 16b8 6ebd e52b 6dbe f6dd f53d
00000070: 0f36 8b3c b76a 173e f6a7 5dbe 924f 18be
00000080: 85cd f73d 164b 6abe 1e37 3f3d d57a 2f3d
00000090: c23a 123e 24b2 6abe 3dec 1fbe 76bb ae3c
000000a0: 4fc4 37be d21e 3c3d a2f5 883e 2070 0f3d
000000b0: 74d8 853e afea 87bd 8178 01bd a55e ee3d
000000c0: 2f53 a23c 2d72 aebb 43f0 783d 690a 433c
000000d0: 3a9d 31be 393b 4b3d 305d 873e ede5 35be
000000e0: 5e93 5bbe 5ac1 a0be 93cd 5d3d cf73 d3bc
000000f0: 1c11 1f3d 29a1 503d 10c6 0abe 2e82 e7bd
00000100: 9b76 ca3d 15fd 52bc 7c5e 21bd 2834 163e
00000110: cdc6 d33d c654 50bd f689 b0bc be72 e03d
00000120: 7404 403e 7f2f cabd 633a 26bc 9e05 c03d
00000130: e082 62bc fe95 03be b38c 4e3e d9de a63c
00000140: fb32 abbd 724c 2cbe 2bbd f7bc ba35 263e
00000150: e39a 3bbe c4f6 9c3b 0227 563d 33ee 0ebe
00000160: aed2 15be 8adb e7bd df0f d4bc 1800 cebd
00000170: 1a03 04be 6b39 8abd 040c 033e e0a5 b23c
00000180: 3247 d43c 7505 793d 2e9b 2bbe 132c a5be
00000190: 8761 9e3c 5a2d c73d 6eb5 813d 10c4 3abe
000001a0: 2d1d dc3d 81d4 e03d fd7e 013e a67f fe3d
000001b0: 60df 87bc 51a1 19bd 5932 ae3c 4819 32be
000001c0: a096 d4bd ac16 cf3d 01b0 3dbe b94c 3f3c
000001d0: d771 d6bd 47cf 1b3d 24f6 10be 0c49 273c
000001e0: cb26 bb3d 1e3a 87be 9d6e f03d 9af0 b5be
000001f0: 83bb 4e3d ccf7 81be 3b6f bdbd b7b9 96bd
00000200: 599c 3bbd 2ec6 5a3e c1eb 54be 41ec 91be
00000210: f3cb e23d eb68 fdbb cd4e 743c d036 50be
00000220: 4003 72bc 8c37 6dbe 1b50 943d 2b49 12be
00000230: 97d9 45be 33c1 763d 11ee 0cbe e2db bbbd
00000240: 2ece f43c 8ca0 68be 7e1a 803d a17f b93d
00000250: af6b 033e e896 54be 88be 903e e37c 833b
00000260: cb4d 7fbb 1e6f ae3d ba87 27be 622d d9bb
00000270: 3be3 29bd c722 2d3e 3c54 563d 30e8 5a3e
00000280: 3398 943d 78df cf3e d7b0 44be 07a9 28be
00000290: a13b 8b3d 9e4a beb9 5196 dd3d 3c59 54be
000002a0: 66aa 7fbe 6899 553d 74e4 3a3d 0bf0 153c
000002b0: c75d dbbc b2a2 92be 14c3 ccbd 56e2 37bd
000002c0: f399 0f3e 220e 23be c106 ac3d 5919 c3bd
000002d0: 9ef5 273c 00ba c93c 8857 a9be b5bd 583e
000002e0: a282 bd3d 1731 8ebe 0c67 d03c 2728 0b3e
000002f0: d594 8cbb 3ed3 eabd affd 51be 5cac aabd
00000300: ad10 90bd b106 c23c 39a0 96bc 1279 753b
00000310: 2ff2 023e 73fd 193d cc63 123d 0f41 2cbe
00000320: 498e c7bd 1d5f a53d 4696 713e 1787 743c
00000330: 7676 bebd 2fed 28be 9edd 55bd 9257 fd39
00000340: 892f 863d 9114 0c3d 3e92 a4bd 39a8 6b3e
00000350: 75de 1dbe c237 4f3d 8776 15be 0138 993d
00000360: b8ad bb3d a5e7 b7bd 5ea9 7e3d 69dd 563c
00000370: bb3e c8bd f724 60be 2406 d03d 129c 5f3d
00000380: 825f ec3c 59f9 06bf 8d72 b4bd 4952 7ebd
00000390: d84c e53d 9f6f 723d b677 cabd e07c 5abe
000003a0: e5c6 52be e831 98bc 8f91 f7bd 7c83 35be
000003b0: 6a3e b1be a977 233e 1398 3b3e f887 b6bb
000003c0: 1d99 5a3e b4e5 35be 3818 05be 2f50 0b3e
000003d0: d117 08be 70fb 44be 0c5d de3b 184c 513d
000003e0: b5ad 5d3d 744c 91bd 3850 1f3e 90d2 f7bc
000003f0: 0882 463c 2256 1c3e b18e 45bc 6119 073b

network_body._body_endoder.seq_layers.2.bias f4 [128]
-0.020465199 -0.05042205 -0.07798711 0.037262812 0.04679947 0.000730945 0.020819526 -0.04471045
0.023763929 -0.07803109 -0.036971845 -0.0047892053 -0.023802172 -0.04666511 -0.015302923 0.009172236
-0.00682515 0.0051959627 -0.052718002 -0.03590792 -0.046647817 -0.039300118 -0.0644024 -0.09229702
-0.054893825 0.0024392628 -0.117217824 0.0068789194 -0.0534203 -0.05521894 0.029166982 -0.049019318
-0.07863139 -0.04314101 -0.03249405 -0.028588954 -0.025341146 -0.061387636 -0.06177156 -0.054625306
-0.09436155 -0.10701321 -0.033958558 -0.056479167 -0.010902503 -0.035232805 -0.0166307 0.007275351
0.05097799 0.0024698472 -0.0015943691 -0.06629711 0.020114914 -0.031100187 -0.052820742 0.017671762
-0.046507202 -0.018048452 -0.1015153 -0.011290067 -0.052004553 -0.017801113 -0.03959082 -0.050811768
-0.03178119 0.0752425 -0.053153276 -0.013021429 -0.052110713 -0.041399557 -0.09951128 -0.10666149
-0.024763864 0.020471182 -0.0021928768 -0.013617484 0.0373794 0.018373156 -0.038891234 -0.14035319
-0.011477775 -0.058890466 -0.020753292 -0.049249712 -0.08049545 -0.117086545 -0.072136916 -0.04868155
-0.008544828 0.017684227 0.014103506 0.036963843 -0.080507375 -0.06895149 -0.03508265 -0.09603142
0.024901494 0.008845211 -0.040542826 -0.098537475 0.012797714 -0.032584254 0.053227086 -0.014345492
-0.026773212 0.03361732 -0.018092996 -0.01706041 0.011383474 -0.038252935 -0.07313525 0.065873474
-0.0047578122 0.020082384 0.014822823 -0.0062518814 0.014600786 -0.03252093 -0.008176207 -0.050236408
-0.12238456 -0.014727069 -0.02234494 0.009808827 -0.036071584 -0.010509593 0.0210741 0.00356637
00000000: a2a6 a7bc 5a87 4ebd b5b7 9fbd e4a0 183d
00000010: cdb0 3f3d e39c 3f3a b68d aa3c 4e22 37bd
00000020: 92ac c23c c4ce 9fbd ca6f 17bd c4ee 9cbb
00000030: c6fc c2bc ea23 3fbd 1cb9 7abc 2547 163c
00000040: 82a5 dfbb e542 aa3b d5ee 57bd 2f14 13bd
00000050: c811 3fbd 29f9 20bd 68e5 83bd 3806 bdbd
00000060: 59d8 60bd 0adc 1f3b e60f f0bd 8f68 e13b
00000070: 3fcf 5abd 412d 62bd 98ef ee3c 7bc8 48bd
00000080: 7f09 a1bd a1b4 30bd 7b18 05bd 6233 eabc
00000090: 3c98 cfbc 9a71 7bbd 2d04 7dbd c9be 5fbd
000000a0: a140 c1bd be29 dbbd 2118 0bbd b356 67bd
000000b0: 69a0 32bc 4650 10bd 1b3d 88bc 1166 ee3b
000000c0: 4cce 503d 29dd 213b 26fa d0ba c7c6 87bd
000000d0: 08c8 a43c d2c5 febc 905a 58bd 5fc4 903c
000000e0: 567e 3ebd 59da 93bc 41e7 cfbd f9f9 38bc
000000f0: ba02 55bd a4d3 91bc fc29 22bd 0020 50bd
00000100: fe2c 02bd bd18 9a3d 40b7 59bd d557 55bc
00000110: 0b72 55bd 9592 29bd 92cc cbbd 5771 dabd
00000120: 96dd cabc 2eb3 a73c 5eb6 0fbb de1b 5fbc
00000130: 241b 193d 4d83 963c 6a4c 1fbd bfb8 0fbe
00000140: 470d 3cbc 2137 71bd cf02 aabc 11ba 49bd
00000150: ccda a4bd 12cb efbd 85bc 93bd 4e66 47bd
00000160: 9bff 0bbc 83de 903c 6412 673c 6667 173d
00000170: 0de1 a4bd 7036 8dbd d3b2 0fbd 1fac c4bd
00000180: 38fe cb3c 81eb 103c 3c10 26bd 04ce c9bd
00000190: 81ad 513c 1177 05bd a504 5a3d 5b09 6bbc
000001a0: 7f53 dbbc 51b2 093d c337 94bc 46c2 8bbc
000001b0: c081 3a3c 1caf 1cbd efc7 95bd ace8 863d
000001c0: 6ce7 9bbb d083 a43c 6ddb 723c 95dc ccbb
000001d0: 2338 6f3c ab34 05bd 7ff5 05bc b1c4 4dbd
000001e0: c2a4 fabd ce49 71bc bc0c b7bc 34b5 203c
000001f0: ccbf 13bd 6e30 2cbc 97a3 ac3c c3b9 693b

action_model._discrete_distribution.branches.0.weight f4 [3, 128]
-0.064655036 0.14843987 -0.07197685 0.049583204 -0.038897254 0.031106068 -0.060081024 0.1371108
-0.1301137 0.027169764 0.017689051 0.1729921 0.072368786 -0.09330255 -0.2074694 -0.1513866
0.044679254 0.07157889 -0.23610248 0.07633857 -0.14425346 -0.18524225 -0.025276676 0.03672286
0.21047986 -0.042323403 0.032663044 -0.01453697 -0.09643863 -0.060602184 -0.09556255 -0.06501945
-0.0065291594 0.15039268 0.08013563 -0.18073767 -0.038631372 -0.009110277 0.03822146 0.07446938
-0.08935968 0.0054370984 -0.09985398 0.15955731 -0.10996521 -0.053847343 0.018123293 -0.09202463
-0.02901739 -0.13526472 -0.045596797 0.014095662 -0.029006513 -0.08625282 -0.1158769 -0.18256366
0.08551217 -0.027531987 0.09117456 0.011715443 0.041063122 -0.021750491 0.059387296 0.22678943
-0.14071986 -0.016062563 -0.19943428 -0.067695856 -0.13371627 -0.08500901 0.02349403 -0.07749466
-0.048695616 -0.014271431 -0.07894099 0.037905294 0.021241898 0.024509246 0.056144793 -0.03344378
-0.24424528 -0.07041995 -0.02241073 0.057680767 0.14585228 0.0537744 -0.059221406 0.08912237
0.044928953 -0.027791006 0.009367033 -0.2742382 0.06416103 -0.25805137 -0.33123678 0.027398512
-0.114253834 0.050803985 0.080951475 0.039158665 -0.0722913 -0.07287527 -0.24692649 -0.03609843
-0.12792225 0.009927532 0.035988137 0.17504947 -0.108882554 -0.010201806 0.1419508 -0.1957822
0.026502172 0.06761946 0.030564498 -0.04537652 -0.038863607 -0.022363935 0.0257353 -0.048646916
0.044414163 0.11514202 -0.15106776 -0.23008159 0.08117407 -0.04922002 -0.061221667 -0.086466685
0.036131345 -0.045357138 -0.09008681 0.09171808 0.018749373 0.027438333 0.04817477 -0.08725835
0.15404595 -0.017638125 -0.013580847 -0.04455517 0.0053723296 0.01733396 0.18154867 0.09592653
0.108825035 -0.0054578697 -0.0050108125 -0.021768162 0.022737937 -0.117949754 0.03374709 0.040829353
-0.01333865 0.20428778 -0.027985089 0.046428844 0.09713697 0.08047299 0.03443562 0.17182206
0.035359856 -0.036839593 0.053820483 0.12756725 -0.07221873 0.040304136 0.061755285 -0.007046112
0.003809438 0.060283545 -0.0043269843 -0.039257213 0.08748781 0.05217027 0.09919085 0.1573843
-0.0008214904 0.0110356 0.0004318452 -0.059160452 0.06337113 0.13744383 0.16213042 0.16512433
0.04869803 -0.01254967 -0.08315585 0.02965342 -0.07299751 0.05019727 0.026395723 -0.0057710623
0.15866317 0.009695301 0.023080535 0.20631756 -0.047334727 0.012042535 -0.05929894 -0.030363172
0.07346697 0.05087617 0.11345162 -0.025128733 0.051417615 0.087429225 -0.050131757 -0.008168557
0.12723678 -0.021943094 0.033268005 0.024898957 -0.15961874 -0.081607014 0.07535437 0.034474142
-0.04802523 0.04189072 0.010810927 0.12944044 -0.11710333 0.22396319 0.25364748 0.027956214
0.10036054 0.021062722 0.023707762 0.026198795 0.061314564 0.13998304 0.2424206 0.16319524
0.05164314 0.14439842 0.065486334 0.0795481 0.11733642 -0.0362732 -0.019692505 0.13408606
0.040097304 -0.03892953 0.05482635 0.09934847 0.0059405584 0.121156834 0.0955256 -0.1714623
-0.04713881 -0.13641515 0.059243225 0.24921662 -0.005596116 0.041699395 0.070374765 0.04967172
00000000: dc69 84bd 9f00 183e 9968 93bd c217 4b3d
00000010: ba52 1fbd 27d2 fe3c 8517 76bd c666 0c3e
00000020: 873c 05be 2093 de3c a1e8 903c d724 313e
00000030: 1636 943d 6815 bfbd dc72 54be 1705 1bbe
00000040: 9801 373d f497 923d d9c4 71be 6557 9c3d
00000050: 2eb7 13be 25b0 3dbe 0811 cfbc b66a 163d
00000060: 0888 573e 4e5b 2dbd afc9 053d 792c 6ebc
00000070: 9e81 c5bd ff39 78bd 4cb6 c3bd eb28 85bd
00000080: 8ff2 d5bb 8a00 1a3e 261e a43d 4c13 39be
00000090: ee3b 1ebd 4543 15bc 1b8e 1c3d 6783 983d
000000a0: 3502 b7bd b029 b23b 3e80 ccbd fe62 233e
000000b0: 7135 e1bd 088f 5cbd 4d77 943c 6977 bcbd
000000c0: e1b5 edbc d682 0abe b5c3 3abd 7ef1 663c
000000d0: 119f edbc 52a5 b0bd de50 edbd f8f1 3abe
000000e0: 0121 af3d c38a e1bc bab9 ba3d 21f2 3f3c
000000f0: ce31 283d 162e b2bc 1840 733d 7d3b 683e
00000100: de18 10be a395 83bc 8038 4cbe 20a4 8abd
00000110: ebec 08be 3419 aebd 8d76 c03c 85b5 9ebd
00000120: 0e75 47bd b8d2 69bc d0ab a1bd 9542 1b3d
00000130: 7d03 ae3c 9dc7 c83c 15f8 653d 58fc 08bd
00000140: 6f1b 7abe 5638 90bd b596 b7bc ab42 6c3d
00000150: 4d5a 153e 8c42 5c3d 2592 72bd ca85 b63d
00000160: 6c07 383d f7a9 e3bc 2f78 193c f368 8cbe
00000170: dc66 833d 4f1f 84be de97 a9be d872 e03c
00000180: eafd e9bd d717 503d e3c9 a53d d664 203d
00000190: 760d 94bd a13f 95bd 4cda 7cbe f3db 13bd
000001a0: 0dfe 02be 16a7 223c 4c68 133d 2b40 333e
000001b0: d1fd debd 7a25 27bc 8d5b 113e 217b 48be
000001c0: 151b d93c 127c 8a3d 6662 fa3c bbdc 39bd
000001d0: 722f 1fbd 9234 b7bc d6d2 d23c fd41 47bd
000001e0: a0eb 353d 94cf eb3d 82b1 1abe 829a 6bbe
000001f0: 973e a63d ef9a 49bd 92c3 7abd 7215 b1bd
00000200: 76fe 133d 68c8 39bd 6f7f b8bd b0d6 bb3d
00000210: 4998 993c 5bc6 e03c e852 453d 81b4 b2bd
00000220: 39be 1d3e d47d 90bc 3382 5ebc 7b7f 36bd
00000230: 5e0a b03b f3ff 8d3c e5e7 393e 2175 c43d
00000240: a9df de3d eed7 b2bb be31 a4bb 2553 b2bc
00000250: e944 ba3c a48f f1bd 633a 0a3d ae3c 273d
00000260: 5a8a 5abc d130 513e fc40 e5bc 2c2c 3e3d
00000270: bfef c63d 06cf a43d 5d0c 0d3d 1ff2 2f3e
00000280: 7fd5 103d 1de5 16bd de72 5c3d fda0 023e
00000290: 6ae7 93bd f315 253d 1cf3 7c3d 12e3 e6bb
000002a0: c4a7 793b e1eb 763d 60c9 8dbb 2ccc 20bd
000002b0: cf2c b33d 7eb0 553d 9324 cb3d 5a29 213e
000002c0: 4a59 57ba a9ce 343c 4869 e239 3b52 72bd
000002d0: b9c8 813d 13be 0c3e 8405 263e 5a16 293e
000002e0: 9677 473d 229d 4dbc 9d4d aabd bbeb f23c
000002f0: b87f 95bd a79b 4d3d d83b d83c 2e1b bdbb
00000300: 9978 223e 0ad9 1e3c 6413 bd3c e944 533e
00000310: 0fe2 41bd 0d4e 453c 72e3 72bd 30bc f8bc
00000320: da75 963d 8863 503d 5359 e83d c6da cdbc
00000330: 479b 523d 180e b33d f556 4dbd 69d5 05bc
00000340: 5c4a 023e 01c2 b3bc 0844 083d e6f8 cb3c
00000350: 1873 23be 9421 a7bd 6453 9a3d c234 0d3d
00000360: 1bb6 44bd 9b95 2b3d 5020 313c 098c 043e
00000370: dfd3 efbd 9b56 653e 15de 813e 6e04 e53c
00000380: d489 cd3d bb8b ac3c c836 c23c db9e d63c
00000390: fb24 7b3d b757 0f3e 1b3d 783e a71c 273e
000003a0: c287 533d 2edd 133e b31d 863d 1dea a23d
000003b0: 144e f03d 3593 14bd 2d52 a1bc db4d 093e
000003c0: 123d 243d 9274 1fbd 9891 603d 3677 cb3d
000003d0: 04a9 c23b 1321 f83d eda2 c33d d093 2fbe
000003e0: a014 41bd 6ab0 0bbe 06a9 723d a432 7f3e
000003f0: a05f b7bb fccc 2a3d a520 903d 9374 4b3d

action_model._discrete_distribution.branches.0.bias f4 [3]
-0.06492408 0.07892243 -0.028369855
00000000: ebf6 84bd 15a2 a13d e667 e8bc

action_model._discrete_distribution.branches.1.weight f4 [3, 128]
0.06037301 -0.05439133 0.0070768944 -0.18567273 -0.14987321 0.066553146 0.04436885 0.023971692
-0.059698213 0.10571285 0.1638992 0.012037935 0.05621156 0.03970083 -0.40251383 0.16771457
0.030466793 0.05679688 0.046578936 -0.2779297 -0.0041485503 0.112205565 0.10548703 0.6525412
-0.08299111 -0.008804245 0.14531462 -0.029176379 0.30145222 0.2634271 -0.06159774 0.110803925
-0.22127753 0.081190504 0.17272276 0.09150591 -0.094962336 0.09080056 0.15930022 0.13993904
0.050395582 0.0713125 -0.10765092 0.16112716 0.025134586 0.19166979 -0.048998617 -0.14521056
0.07228205 -0.013633781 0.15633205 0.21620685 0.19928743 0.075670235 -0.067949906 -0.149917
0.22520421 0.11624163 0.13226748 0.18769622 -0.074203454 0.11402997 -0.073628746 -0.10935424
0.13957883 -0.0084216725 -0.041910417 -0.16792275 -0.057778586 0.20738283 0.23968703 -0.14499253
-0.0881457 -0.068754494 -0.20818977 0.20169535 -0.12726969 -0.27017847 0.021382453 0.045913577
-0.2104879 -0.14806165 0.15853101 0.04295241 0.061259966 0.094664514 -0.033366106 -0.035559934
0.016112525 -0.08973226 0.092624426 -0.15484719 0.08269435 -0.005913003 -0.114094555 0.1317965
-0.43050432 -0.05266273 0.10159276 0.1834319 -0.058874067 0.0980264 0.10776913 -0.18351693
-0.07438009 -0.29206192 -0.026282422 0.09459514 -0.020382307 0.16339475 0.3743051 -0.11602314
0.2092981 0.16991866 -0.04363586 0.045718458 -0.098750405 -0.3445001 0.14296675 -0.06213339
0.021984134 0.12949282 -0.016041717 0.045360904 0.029868053 0.071935534 0.14365348 -0.14815645
0.026888033 -0.015499148 0.09219377 0.05044574 -0.0133559555 -0.049003482 0.04856379 0.03396684
-0.05560917 0.07505333 -0.04613481 -0.030161085 0.011507168 0.17078109 0.08400646 -0.04776006
0.06480821 0.08339261 -0.0002842598 -0.042629305 -0.020433439 -0.04184962 0.036783785 -0.4833304
0.0067897425 0.002448518 0.06541303 0.068471566 -0.18616694 -0.1877139 -0.029600205 0.018250832
0.05668769 -0.08145271 0.040287036 -0.037347265 0.043639995 0.036583923 -0.127828 0.10564101
0.020557508 -0.13798508 -0.022166306 0.021555983 0.021639802 -0.08026881 0.08775068 -0.01611153
0.023228126 0.029222379 0.12728149 -0.11664514 0.003910959 0.040950105 -0.042129334 0.022317717
0.10220501 0.08271948 0.06889243 -0.14305754 0.023781197 0.13491173 -0.013625122 0.02506369
-0.12876137 0.057737414 0.087330304 0.019263761 0.026977954 -0.16131675 0.12973115 -0.06200645
0.02630947 -0.026965475 -0.09584631 -0.008419457 0.025735186 0.00878758 0.10694986 0.11969993
0.073255554 0.076074556 0.016994357 0.0008573059 -0.04727733 -0.0031208782 0.022064615 0.048812676
0.074033506 0.04071302 0.15615876 -0.121904664 0.008953688 0.056296244 -0.027554562 0.07516658
-0.018477606 0.058675103 0.087542355 -0.0015291678 0.10834053 0.05298843 -0.049114507 -0.08906934
-0.041903336 -0.09067024 0.040999994 0.012077758 -0.14185087 0.024645519 -0.16817118 0.030543048
-0.062658675 0.118226506 0.019074112 0.031894527 0.0018475517 0.007627767 -0.071142316 -0.035220012
0.12256165 0.0762785 -0.038204473 -0.19629551 -0.014937155 0.022889828 0.045492683 0.062257905
00000000: b049 773d 71c9 5ebd 4be5 e73b fe20 3ebe
00000010: 5d78 19be 044d 883d 1cbc 353d 4860 c43c
00000020: 1d86 74bd fb7f d83d 31d5 273e c23a 453c
00000030: 183e 663d 569d 223d 4b16 cebe 5ebd 2b3e
00000040: 7f95 f93c d8a3 683d 8ec9 3e3d cd4c 8ebe
00000050: 90f0 87bb 08cc e53d 9609 d83d f10c 273f
00000060: 3ef7 a9bd ae3f 10bc 5bcd 143e 4d03 efbc
00000070: f257 9a3e ebdf 863e e94d 7cbd 2bed e23d
00000080: 9496 62be 3547 a63d 3cde 303e 7367 bb3d
00000090: 9d7b c2bd a5f5 b93d 991f 233e 2e4c 0f3e
000000a0: 996b 4e3d 4a0c 923d 1678 dcbd 85fe 243e
000000b0: 0ce7 cd3c 1645 443e c6b2 48bd 14b2 14be
000000c0: 9d08 943d 3960 5fbc 8215 203e 5465 5d3e
000000d0: 0112 4c3e fff8 9a3d 5229 8bbd d883 19be
000000e0: ef9b 663e 1710 ee3d 2071 073e 7033 403e
000000f0: fbf7 97bd 8b88 e93d abca 96bd 1ef5 dfbd
00000100: c1ed 0e3e 0efb 09bc 42aa 2bbd f1f3 2bbe
00000110: 3da9 6cbd 2a5c 543e 8470 753e ec78 14be
00000120: bc85 b4bd 28cf 8cbd b32f 55be 3a89 4e3e
00000130: fc52 02be d554 8abe 412a af3c e00f 3c3d
00000140: 248a 57be 799d 17be f455 223e deee 2f3d
00000150: bbeb 7a3d 78df c13d e6aa 08bd 4ba7 11bd
00000160: 6afe 833c 8cc5 b7bd e0b1 bd3d 4390 1ebe
00000170: a85b a93d ddc1 c1bb 68aa e9bd a9f5 063e
00000180: 106b dcbe e0b4 57bd dd0f d03d 92d5 3b3e
00000190: ef25 71bd 11c2 c83d 10b6 dc3d ddeb 3bbe
000001a0: 9754 98bd 2489 95be 3c4e d7bc 19bb c13d
000001b0: ccf8 a6bc f450 273e eba4 bf3e 8a9d edbd
000001c0: 3e52 563e 28ff 2d3e 84bb 32bd 4743 3b3d
000001d0: a73d cabd 5162 b0be e065 123e 957f 7ebd
000001e0: 1218 b43c c499 043e eb69 83bc 5bcc 393d
000001f0: d9ad f43c f052 933d e619 133e 53b6 17be
00000200: 4b44 dc3c 23f0 7dbc 16d0 bc3d 31a0 4e3d
00000210: f0d2 5abc e0b7 48bd d3ea 463d d020 0b3d
00000220: 71c6 63bd 8fb5 993d dbf7 3cbd 6114 f7bc
00000230: 9088 3c3c 3de1 2e3e 940b ac3d 0da0 43bd
00000240: 2bba 843d bfc9 aa3d b408 95b9 119c 2ebd
00000250: 0764 a7bc 826a 2bbd 98aa 163d 1577 f7be
00000260: 7d7c de3b 5177 203b 44f7 853d d23a 8c3d
00000270: 8ca2 3ebe 1338 40be 217c f2bc c582 953c
00000280: 5a31 683d aed0 a6bd 0504 253d 72f9 18bd
00000290: dabf 323d 06d9 153d 58e5 02be 505a d83d
000002a0: 3868 a83c f64b 0dbe 1d96 b5bc 2c96 b03c
000002b0: f445 b13c f963 a4bd a1b6 b33d 54fc 83bc
000002c0: e948 be3c c563 ef3c 1456 023e a6e3 eebd
000002d0: 8127 803b 4cbb 273d cf8f 2cbd a5d3 b63c
000002e0: dc50 d13d d568 a93d 7917 8d3d ad7d 12be
000002f0: c9d0 c23c 4d26 0a3e e73b 5fbc 5e52 cd3c
00000300: 05da 03be 117e 6c3d 3bda b23d 09cf 9d3c
00000310: df00 dd3c 3830 25be 3ed8 043e 7afa 7dbd
00000320: f586 d73c b3e6 dcbc 124b c4bd c3f1 09bc
00000330: 99d2 d23c c8f9 0f3c 8708 db3d 3d25 f53d
00000340: 0207 963d facc 9b3d c037 8b3c d3bc 603a
00000350: e0a5 41bd a687 4cbb dac0 b43c cdef 473d
00000360: e19e 973d b2c2 263d 15e8 1f3e 27a9 f9bd
00000370: 7db2 123c e496 663d 1bba e1bc f0f0 993d
00000380: 595e 97bc 4e55 703d 6849 b33d 5b6e c8ba
00000390: a4e1 dd3d 650a 593d 4b2c 49bd fc69 b6bd
000003a0: d5a2 2bbd 52b1 b9bd 9cef 273d cae1 453c
000003b0: 5b41 11be 66e5 c93c 1135 2cbe 6a35 fa3c
000003c0: 3153 80bd bd20 f23d 5041 9c3c d6a3 023d
000003d0: 8c29 f23a 59f2 f93b 10b3 91bd dc42 10bd
000003e0: 9a01 fb3d e737 9c3d 4b7c 1cbd b101 49be
000003f0: f8ba 74bc 7383 bb3c 8956 3a3d 2502 7f3d

action_model._discrete_distribution.branches.1.bias f4 [3]
-0.032869924 -0.0024845914 0.03359102
00000000: 9da2 06bd 87d4 22bb bd96 093d

action_model._discrete_distribution.branches.2.weight f4 [3, 128]
-0.14841151 0.0353642 -0.085566305 -0.121277034 -0.011473097 -0.053390775 0.118841134 -0.2607964
0.032934938 0.06489453 -0.032585442 -0.031580526 -0.13989756 0.10414551 0.15819667 -0.23097117
-0.13686788 -0.16793332 -0.06400433 0.0060666604 -0.21534452 0.11129617 0.041529782 -0.1638923
0.14800224 0.12501016 0.028372703 0.042021208 -0.14557669 -0.12506185 -0.30607578 -0.054990765
0.111009456 0.106003694 -0.34318691 -0.22324494 -0.18813002 -0.16926864 0.05133138 -0.030403178
0.08008142 0.10509685 -0.018437669 -0.04842252 -0.012004845 0.17819817 -0.31478986 0.10543649
-0.053192858 0.05277075 -0.10484957 -0.011461721 0.03432705 -0.108228065 0.17923854 -0.06586491
-0.20774585 0.03371391 0.05650523 -0.0938057 -0.16767755 0.105119914 -0.2226822 0.016258152
0.25238356 0.17887744 0.048711337 -0.0059867795 0.010855811 -0.2754413 0.25488582 -0.025308318
0.12578863 0.08310979 0.10288375 -0.020443212 -0.01435105 0.013584515 0.05548516 0.07293341
-0.034846075 -0.021062775 0.04851715 -0.10077761 0.10186841 -0.12561299 -0.11256294 -0.16224709
0.020525698 -0.0048845173 -0.09774298 -0.057802785 -0.03893249 0.18464385 0.07495103 -0.061867084
0.07631839 -0.043068938 0.007807772 0.017052075 -0.09720521 -0.26257312 0.012418408 0.104001224
-0.3174563 0.15917802 -0.47366363 -0.12516513 -0.07293472 -0.109393686 -0.007610585 -0.050137434
0.084660254 -0.023693612 -0.020651428 0.057004545 0.03289842 0.10245713 -0.0052501056 -0.058454245
0.007542157 0.028044948 -0.038166154 0.051798835 -0.22992791 -0.20655708 -0.19567476 -0.012187043
-0.0066895797 0.048093922 -0.026992531 0.053598333 0.03382743 0.04521767 0.001754276 0.26436883
-0.016784959 -0.01291687 -0.010844981 0.14880678 0.053270034 -0.058878563 0.0017021201 0.10223017
0.026733698 0.07108627 0.007751379 -0.03274087 0.06379308 -0.03955041 0.06606291 0.039681066
-0.01443578 -0.111951366 0.02543011 0.049643338 0.070742264 0.058384024 0.045118272 0.06880607
-0.030425059 -0.100150526 0.046518385 0.1450767 0.029932827 0.091065094 0.025925323 -0.029227722
0.008657667 -0.05193755 -0.006466092 0.031098537 0.0029748825 0.016256144 0.05854694 0.011018296
-0.008810069 0.06405005 0.05064961 -0.08146347 0.015382022 -0.0016480861 -0.05326821 0.07191327
0.11350004 0.07019064 -0.21686237 0.06593108 -0.020034552 -0.014526534 0.06481631 -0.04228985
-0.01701696 -0.019369084 -0.045012042 0.011697536 -0.008114257 0.11358407 -0.2636749 -0.03137729
0.015923657 -0.008722473 -0.013927692 -0.00076336804 0.041287173 0.043647304 -0.00824616 0.008698919
0.039920595 0.012514912 -0.028229145 -0.025242679 -0.0509133 0.079306826 0.014717123 0.04237403
-0.044462718 0.04434491 0.010978818 0.1231502 0.06136017 -0.041507885 0.060454432 0.030514749
0.040588263 -0.008076099 -0.020019703 -0.08276693 0.089662574 0.114898875 0.037562493 -0.021696234
0.11247984 0.0055679237 0.1265576 0.08143952 -0.006669372 -0.006091995 -0.056890786 0.07668688
0.013966632 0.020667562 0.063332096 -0.029996453 0.047443256 0.0035649785 0.030580712 -0.044820096
-0.16978587 -0.04346424 0.04661606 0.041635707 0.050677054 0.005658932 0.056289624 0.048105516
00000000: 30f9 17be 0dda 103d 633d afbd 1860 f8bd
00000010: a8f9 3bbc 49b0 5abd fb62 f33d 1b87 85be
00000020: c9e6 063d 6ce7 843d 5078 05bd 955a 01bd
00000030: 4e41 0fbe 3e4a d53d 4ffe 213e b583 6cbe
00000040: 1827 0cbe b6f6 2bbe b414 83bd d6ca c63b
00000050: 4683 5cbe 3fef e33d 221b 2a3d 62d3 27be
00000060: e68d 173e aa02 003e df6d e83c 6e1e 2c3d
00000070: 0e12 15be 3710 00be f7b5 9cbe ff3d 61bd
00000080: ed58 e33d 7718 d93d 32b6 afbe 529a 64be
00000090: 28a5 40be c254 2dbe da40 523d 1610 f9bc
000000a0: ba01 a43d 043d d73d 980a 97bc b156 46bd
000000b0: f8af 44bc 9579 363e 232c a1be 16ef d73d
000000c0: c1e0 59bd 2426 583d 5fbb d6bd f1c9 3bbc
000000d0: 859a 0c3d ada6 ddbd 4f8a 373e 2fe4 86bd
000000e0: 54bb 54be 9917 0a3d 0772 673d 341d c0bd
000000f0: aab3 2bbe 1c49 d73d cd06 64be d12f 853c
00000100: 6b38 813e a62b 373e 8a85 473d bf2c c4bb
00000110: 92dc 313c a406 8dbe 6580 823e 6453 cfbc
00000120: bcce 003e 7735 aa3d b7b4 d23d 8678 a7bc
00000130: ab20 6bbc 9691 5e3c 6844 633d 1d5e 953d
00000140: c2ba 0ebd d78b acbc ebb9 463d 7e64 cebd
00000150: 63a0 d03d b1a0 00be 6687 e6bd 1a24 26be
00000160: 8225 a83c 4d0e a0bb 792d c8bd 9dc2 6cbd
00000170: ad77 1fbd 4713 3d3e ed7f 993d 5768 7dbd
00000180: d14c 9c3d 0e69 30bd 57d8 ff3b cbb0 8b3c
00000190: 8613 c7bd fc6f 86be 9476 4b3c 98fe d43d
000001a0: a289 a2be 90ff 223e 0a84 f2be 4a2b 00be
000001b0: cc5e 95bd cc09 e0bd 3762 f9bb e95c 4dbd
000001c0: 5b62 ad3d 1b19 c2bc 2f2d a9bc 997d 693d
000001d0: 7ec0 063d 0bd5 d13d 1409 acbb b86d 6fbd
000001e0: 3324 f73b 85be e53c 1d54 1cbd 042b 543d
000001f0: 3972 6bbe b383 53be f75e 48be 2aac 47bc
00000200: 4334 dbbb 22fe 443d 711f ddbc ed89 5b3d
00000210: a28e 0a3d 2a36 393d bcef e53a 5a5b 873e
00000220: 9c80 89bc 48a1 53bc 26af 31bc ce60 183e
00000230: ae31 5a3d a62a 71bd ac19 df3a 0d5e d13d
00000240: a100 db3c ae95 913d 48ff fd3b 4a1b 06bd
00000250: f2a5 823d 9cff 21bd fe4b 873d 9d88 223d
00000260: 0d84 6cbc c246 e5bd ce52 d03c d056 4b3d
00000270: 52e1 903d 1624 6f3d f0cd 383d 32ea 8c3d
00000280: f93d f9bc b81b cdbd 108a 3e3d fd8e 143e
00000290: b035 f53c 5680 ba3d 5861 d43c fa6e efbc
000002a0: e3d8 0d3c 78bc 54bd 83e1 d3bb 5cc2 fe3c
000002b0: 3ff6 423b 9b2b 853c ebce 6f3d 1586 343c
000002c0: 1c58 10bc ac2c 833d f775 4f3d 52d6 a6bd
000002d0: e004 7c3c 9804 d8ba c42f 5abd 4447 933d
000002e0: b572 e83d 1cc0 8f3d 2b11 5ebe e006 873d
000002f0: 801f a4bc b300 6ebc 6abe 843d 1f38 2dbd
00000300: 2767 8bbc eaab 9ebc 8c5e 38bd 06a7 3f3c
00000310: a9f1 04bc c49e e83d 6600 87be 7985 00bd
00000320: 5472 823c b4e8 0ebc f930 64bc c31c 48ba
00000330: bd1c 293d 84c7 323d e71a 07bc e985 0e3c
00000340: c783 233d 580b 4d3c cf40 e7bc bcc9 cebc
00000350: 778a 50bd 9e6b a23d 1620 713c 6490 2d3d
00000360: 8a1e 36bd 02a3 353d 80e0 333c 2c36 fc3d
00000370: cd54 7b3d 2c04 2abd 119f 773d 11fa f93c
00000380: e13f 263d 9d51 04bc 5c00 a4bc b581 a9bd
00000390: 03a1 b73d 1a50 eb3d 21db 193d 4dbc b1bc
000003a0: d55b e63d 2173 b63b 5198 013e c3c9 a63d
000003b0: bf8a dabb 5c9f c7bb 5006 69bd 030e 9d3d
000003c0: 4dd4 643c 054f a93c 42b4 813d 1fbb f5bc
000003d0: dc53 423d 6aa2 693b 6784 fa3c 4795 37bd
000003e0: 59dc 2dbe 8f07 32bd 7bf0 3e3d 348a 2a3d
000003f0: be92 4f3d 906e b93b f38f 663d 4a0a 453d

action_model._discrete_distribution.branches.2.bias f4 [3]
-0.09382809 0.09007035 -0.011550219
00000000: f128 c0bd ce76 b83d 213d 3dbc

action_model._discrete_distribution.branches.3.weight f4 [3, 128]
0.044272095 0.15115666 0.15183087 -0.05585239 -0.08720866 -0.017450657 0.19827914 -0.09302228
-0.16225995 -0.006257137 -0.03405765 0.275926 -0.09242355 -0.04160383 -0.06379594 0.02198877
0.113655806 -0.015959304 0.12470214 -0.0036810006 -0.019093718 -0.06667324 0.06875781 0.008729052
-0.047616847 0.04499828 0.2611304 -0.28737766 -0.067004845 0.05255047 -0.10465579 0.042985436
-0.10247884 0.1659266 -0.044920567 -0.07419038 0.06481316 -0.018740077 0.039923012 0.15669928
0.05012233 -0.020376153 -0.085973196 0.071011886 0.03190345 -0.6998357 0.18176481 -0.099686064
0.0725336 0.03562452 0.077899076 0.017768912 0.033369083 0.048741423 0.257976 -0.09023582
-0.042997405 -0.31574136 0.12644418 -0.13838267 0.112624355 -0.32726246 0.13490939 -0.0122941
-0.36024085 0.029490333 -0.180234 -0.060679905 -0.0103292465 -0.049584225 -0.039289556 -0.011424289
0.0034247 -0.10940462 -0.094271235 -0.16307165 0.016683852 -0.10452817 0.03048076 0.023030333
-0.04328706 0.027521558 0.03171357 0.0054529216 -0.16111243 -0.03961701 0.07305119 0.030947385
0.060324326 0.02472534 0.07787235 0.10546045 0.06391863 -0.08341144 -0.00817018 0.15049228
-0.071027465 -0.059026353 -0.005202294 0.022702096 -0.13098012 -0.01586289 -0.020465532 -0.114790015
-0.14666963 -0.08145029 -0.079537384 0.01591155 -0.0017819896 0.0026468805 -0.06318216 -0.1036863
-0.051375736 0.25072291 -0.019211054 0.1720263 0.12416429 -0.03821529 -0.3488545 -0.25414348
0.11209492 -0.09243775 0.004410369 -0.08392018 0.086946465 -0.06719572 0.03259096 0.08758574
0.0098625 0.0053339293 0.07820376 -0.0105345175 0.008541064 0.074264005 -0.08656641 -0.014257775
0.0044293576 -0.024249237 0.08862514 0.09780363 0.048301503 0.07692085 -0.057517562 0.07202492
-0.010000934 0.032401253 -0.028602153 0.021342242 0.034593694 0.020437261 0.0888843 -0.019896632
0.0140129505 -0.030030675 -0.02796923 -0.039026186 0.12636477 0.074714325 -0.031669457 0.0786401
-0.06723493 -0.12060701 -0.07232816 0.13163741 4.453292e-05 0.08580395 -0.09186127 -0.080078974
-0.017413866 0.019829499 -0.016338298 0.02145251 0.05557335 -0.15637423 0.076423615 0.04037345
-0.009986679 0.033415616 -0.04242543 0.020174595 -0.029184733 -0.019919463 -0.041211255 0.0136284055
-0.0023298531 -0.15458915 -0.021931715 0.13694036 -0.017465545 -0.0071676783 0.0914709 -0.02117865
0.0010727901 0.038117435 -0.06279011 -0.002725184 -0.015388657 0.11745422 0.10828611 -0.019319274
0.05549483 -0.005392249 -0.019508023 0.016261436 0.045277238 0.030388461 -0.053232003 0.08690521
0.00772369 0.012000106 0.04186718 -0.016007071 0.023054583 0.024365371 0.0342682 0.031031288
-0.05146866 0.012808981 -0.0071293884 0.0525138 -0.018394519 0.081208006 0.11292858 0.012095661
-0.015405533 -0.018533958 -0.01753684 0.09700917 0.035406165 0.115976885 -0.0002861869 -0.03256467
-0.0002980663 -0.0043977923 0.02745423 0.041018233 0.061697572 -0.008232536 0.010480554 0.06870174
0.055958476 0.03455591 0.046749387 -0.040667135 0.060397364 -0.083483495 0.017901367 0.10375754
-0.015866606 -0.015121501 0.0028177896 -0.037138797 0.07758812 0.08382293 0.025022903 0.053004764
00000000: a856 353d d0c8 1a3e 8d79 1b3e 7ac5 64bd
00000010: 749a b2bd aef4 8ebc b009 4b3e 7782 bebd
00000020: 7927 26be ab08 cdbb 0980 0bbd 2c46 8d3e
00000030: 8f48 bdbd c768 2abd 72a7 82bd cb21 b43c
00000040: 60c4 e83d 16bd 82bc d663 ff3d f13c 71bb
00000050: 6e6a 9cbc fb8b 88bd e5d0 8c3d 4c04 0f3c
00000060: e209 43bd 1e50 383d e2b2 853e 2a23 93be
00000070: d639 89bd 293f 573d c655 d6bd 7f11 303d
00000080: 6de0 d1bd aae8 293e a1fe 37bd 20f1 97bd
00000090: c3bc 843d ca84 99bc 5086 233d c775 203e
000000a0: 134d 4d3d e4eb a6bc b712 b0bd ae6e 913d
000000b0: 31ad 023d 6f28 33bf 8e20 3a3e 3528 ccbd
000000c0: 7f8c 943d 04eb 113d 8d89 9f3d 1c90 913c
000000d0: 05ae 083d 16a5 473d 6e15 843e 8fcd b8bd
000000e0: 0c1e 30bd daa8 a1be 957a 013e 30b4 0dbe
000000f0: 99a7 e63d f28e a7be b025 0a3e 316d 49bc
00000100: 7d71 b8be b695 f13c 438f 38be 7e8b 78bd
00000110: 003c 29bc d418 4bbd 16ee 20bd f12c 3bbc
00000120: ee70 603b 880f e0bd 4711 c1bd 41fc 26be
00000130: 93ac 883c dd12 d6bd c9b2 f93c 1caa bc3c
00000140: c64d 31bd e474 e13c 17e6 013d 6cae b23b
00000150: a8fa 24be 7245 22bd dd9b 953d 5f85 fd3c
00000160: a416 773d cc8c ca3c 8a7b 9f3d a6fb d73d
00000170: c5e7 823d 9ed3 aabd 38dc 05bc a61a 1a3e
00000180: d976 91bd 9ec5 71bd 0178 aabb bff9 b93c
00000190: a71f 06be e4f2 81bc 55a7 a7bc 0717 ebbd
000001a0: 9030 16be 69cf a6bd 7fe4 a2bd f058 823c
000001b0: a691 e9ba 4977 2d3b a665 81bd 7c59 d4bd
000001c0: 5d6f 52bd c15e 803e 8060 9dbc aa27 303e
000001d0: d949 fe3d a387 1cbd 0f9d b2be 181f 82be
000001e0: 0592 e53d 0150 bdbd db84 903b 58de abbd
000001f0: fd10 b23d e99d 89bd 197e 053d 2760 b33d
00000200: 5396 213c 3ec8 ae3b 4b29 a03d f898 2cbc
00000210: d2ef 0b3c ba17 983d bb49 b1bd 7199 69bc
00000220: 2524 913b 56a6 c6bc 1981 b53d 454d c83d
00000230: ccd7 453d ae88 9d3d 8997 6bbd cd81 933d
00000240: f5da 23bc 2db7 043d 104f eabc edd5 ae3c
00000250: 1eb2 0d3d 0b6c a73c f908 b63d 43fe a2bc
00000260: 9396 653c e402 f6bc ba1f e5bc ecd9 1fbd
00000270: c465 013e d303 993d d5b7 01bd 100e a13d
00000280: 78b2 89bd cf00 f7bd c920 94bd f5cb 063e
00000290: dcc8 3a38 fbb9 af3d c321 bcbd 7200 a4bd
000002a0: 86a7 8ebc 7971 a23c e5d7 85bc 2dbd af3c
000002b0: e2a0 633d 9120 20be fc83 9c3d a15e 253d
000002c0: 2b9f 23bc d0de 083d 4ac6 2dbd 3145 a53c
000002d0: d214 efbc 242e a3bc 22cd 28bd ad49 5f3c
000002e0: 73b0 18bb 9e4c 1ebe 24aa b3bc 183a 0c3e
000002f0: e713 8fbc d8de eabb 1855 bb3d d97e adbc
00000300: dd9c 8c3a 0721 1c3d 1a98 80bd 0099 32bb
00000310: b520 7cbc d78b f03d 1cc5 dd3d 7443 9ebc
00000320: 8c4e 633d 77b1 b0bb 4acf 9fbc b436 853c
00000330: a074 393d 39f1 f83c cd09 5abd 5cfb b13d
00000340: 0217 fd3b 189c 443c ec7c 2b3d 4321 83bc
00000350: f7dc bc3c e399 c73c d05c 0c3d 5435 fe3c
00000360: cdd0 52bd c3dc 513c a59d e9bb b618 573d
00000370: 1ab0 96bc 6250 a63d 1947 e73d e12c 463c
00000380: 7d67 7cbc 87d4 97bc 6ba9 8fbc beac c63d
00000390: 0e06 113d 4a85 ed3d 5b0b 96b9 8862 05bd
000003a0: c845 9cb9 5b1b 90bb b1e7 e03c bc02 283d
000003b0: 98b6 7c3d c2e1 06bc a1b6 2b3c 7fb3 8c3d
000003c0: b734 653d 7f8a 0d3d 497c 3f3d 9592 26bd
000003d0: 3a63 773d 65f9 aabd e3a5 923c d57e d43d
000003e0: affa 81bc 2cc0 77bc aaaa 383b da1e 18bd
000003f0: 85e6 9e3d 5bab ab3d d5fc cc3c 861b 593d

action_model._discrete_distribution.branches.3.bias f4 [3]
-0.0064614937 0.05577021 -0.041196816
00000000: f0ba d3bb 4e6f 643d febd 28bd
