ArmRobot/Assets/Config/results/TFM-Brazo-Mesa-Tercero-2/AgenteRobot/AgenteRobot-10799972.pt (torch, 827522 bytes, 92 tensors)

discrete_act_size_vector f4 [1, 8]
3.0 3.0 3.0 3.0 3.0 3.0 3.0 3.0
00000000: 0000 4040 0000 4040 0000 4040 0000 4040
00000010: 0000 4040 0000 4040 0000 4040 0000 4040

network_body.observation_encoder.processors.0.normalizer.running_mean f4 [86]
0.0 0.0 0.0 0.0 0.0 0.0 0.9999669 6.428374e-07
0.086051345 -5.5067805e-08 5.906978e-08 -0.57449985 1.8907254e-08 0.7801703 0.054566674 0.1518935
-0.016536132 0.15021423 -0.5382214 -0.21323718 0.73076856 0.093933485 0.33695236 0.08284357
0.23416772 -0.49017486 -0.27176318 0.67265236 0.07171913 0.42587075 0.1882743 -0.08104887
-0.8256825 -0.33619085 -0.062623985 0.066348225 0.42722234 0.23478532 0.1603613 -0.7761388
-0.30095807 -0.16635142 0.045793295 0.42487332 0.26934993 0.124946594 -0.73347384 -0.32538843
-0.27835315 0.015560467 0.42147732 0.30543312 0.030669715 -0.24381754 -0.79221225 -0.18384625
-0.02334262 0.36651057 0.35064307 0.030669708 -0.24381754 -0.79221225 -0.18384625 -0.018023193
0.35993865 0.34382617 0.030669708 -0.24381754 -0.79221225 -0.18384625 0.25698724 0.84801257
0.44599575 0.7781277 -0.15179715 0.81982887 -0.35393915 0.75647354 -0.48839867 0.6793953
-0.26014358 0.84617 -0.51666915 0.6894161 0.40745986 -0.3858753
00000000: 0000 0000 0000 0000 0000 0000 0000 0000
00000010: 0000 0000 0000 0000 d5fd 7f3f 738f 2c35
00000020: b03b b03d b183 6cb3 e9b3 7d33 6c12 13bf
00000030: 7e69 a232 3eb9 473f 4e81 5f3d f889 1b3e
00000040: c876 87bc c2d1 193e e1c8 09bf d95a 5abe
00000050: a613 3b3f 3360 c03d 0585 ac3e e4a9 a93d
00000060: aac9 6f3e 33f8 fabe 8b24 8bbe f232 2c3f
00000070: 7be1 923d bb0b da3e faca 403e f3fc a5bd
00000080: ee5f 53bf 3521 acbe 0141 80bd 94e1 873d
00000090: e3bc da3e 906b 703e c135 243e 08b1 46bf
000000a0: 2d17 9abe 0758 2abe c091 3b3d ff88 d93e
000000b0: 3ce8 893e 00e4 ff3d f1c4 3bbf 5099 a6be
000000c0: 4e84 8ebe 54f1 7e3c e0cb d73e bb61 9c3e
000000d0: 0e3f fb3c 4eab 79be 6cce 4abf 3142 3cbe
000000e0: 0639 bfbc 46a7 bb3e 7d87 b33e 0a3f fb3c
000000f0: 4eab 79be 6cce 4abf 3142 3cbe 60a5 93bc
00000100: e149 b83e fc09 b03e 0a3f fb3c 4eab 79be
00000110: 6cce 4abf 3142 3cbe d593 833e 5a17 593f
00000120: 8e59 e43e 6033 473f b670 1bbe 4ee0 513f
00000130: 8337 b5be 40a8 413f 640f fabe daec 2d3f
00000140: 8a31 85be 999e 583f 6e44 04bf 937d 303f
00000150: 949e d03e 7391 c5be

network_body.observation_encoder.processors.0.normalizer.running_variance f4 [86]
1.0 1.0 1.0 1.0 1.0 1.0 2.0 1.0
1.0074012 1.0 1.0 446914.75 1.0 214579.4 3027.802 1.0230666
6574.595 221911.52 416932.03 317842.94 211278.12 24611.77 29252.994 92612.66
431895.66 393275.94 809778.94 293346.53 73063.95 126003.26 246221.34 417903.94
203558.28 921938.94 558859.94 90603.12 204913.8 272048.44 992416.5 279693.88
832397.0 634432.4 102957.91 268182.12 280504.1 1.0510188e+06 324273.53 717672.94
748096.75 122501.58 491280.94 323475.8 909370.8 755139.44 440395.22 900679.5
164089.72 643613.5 294729.4 909370.8 755139.44 440395.22 900679.56 158883.5
628318.3 274023.56 909370.8 755139.44 440395.22 900679.56 1.5876379e+06 731053.94
1.6295305e+06 482262.16 2.581799e+06 709270.1 1.8379176e+06 1.4287556e+06 1.9819548e+06 1.2577851e+06
1.7293282e+06 605359.25 1.6558921e+06 1.1289169e+06 2.5457578e+06 2.829134e+06
00000000: 0000 803f 0000 803f 0000 803f 0000 803f
00000010: 0000 803f 0000 803f 0000 0040 0000 803f
00000020: 86f2 803f 0000 803f 0000 803f 5838 da48
00000030: 0000 803f da8c 5148 d53c 3d45 d9f3 823f
00000040: c374 cd45 e1b5 5848 8194 cb48 5e32 9b48
00000050: 8853 4e48 8a47 c046 fd89 e446 54e2 b447
00000060: f5e2 d248 7e07 c048 2fb3 4549 513c 8f48
00000070: fab3 8e47 a119 f647 5673 7048 fe0d cc48
00000080: 92c9 4648 2f15 6149 bf70 0849 8ff5 b047
00000090: 731c 4848 0ed6 8448 084a 7249 bc91 8848
000000a0: d038 4b49 06e4 1a49 f416 c947 c4f2 8248
000000b0: 03f7 8848 564c 8049 3156 9e48 8f36 2f49
000000c0: 0ca4 3649 ca42 ef47 1ee2 ef48 7af2 9d48
000000d0: ad03 5e49 375c 3849 6709 d748 78e4 5b49
000000e0: 6e3e 2048 d821 1d49 2de9 8f48 ad03 5e49
000000f0: 375c 3849 6709 d748 79e4 5b49 e028 1b48
00000100: e565 1949 f2cc 8548 ad03 5e49 375c 3849
00000110: 6709 d748 79e4 5b49 afcd c149 df7a 3249
00000120: d4ea c649 c57a eb48 9c94 1d4a 6229 2d49
00000130: ed5a e049 9d68 ae49 16f0 f149 c989 9949
00000140: 8219 d349 f4ca 1349 a122 ca49 a7ce 8949
00000150: 7761 1b4a 38ad 2c4a

network_body.observation_encoder.processors.1.normalizer.running_mean f4 [29]
0.2330324 0.30662963 28.327238 69.422134 0.14068834 0.16684234 0.38220719 0.59911156
0.37478992 0.36971927 0.49582246 0.40894473 0.3745793 -0.11609702 0.21270145 0.097613625
-0.011673901 0.21270145 0.11430216 -0.10444063 0.0 -0.016698545 0.23889422 0.22383527
0.65114367 0.7425041 0.7608789 0.6808337 0.7940026
00000000: 0ca0 6e3e 8ffe 9c3e 2f9e e241 22d8 8a42
00000010: 9b10 103e b8d8 2a3e a9b0 c33e 605f 193f
00000020: 77e4 bf3e d84b bd3e 71dc fd3e 3461 d13e
00000030: dcc8 bf3e 46c4 edbd 69ce 593e a7e9 c73d
00000040: e443 3fbc 69ce 593e 4017 ea3d f8e4 d5bd
00000050: 0000 0000 63cb 88bc b0a0 743e 1335 653e
00000060: 5ab1 263f c014 3e3f f6c8 423f 1e4b 2e3f
00000070: c143 4b3f

network_body.observation_encoder.processors.1.normalizer.running_variance f4 [29]
1.9301944e+06 707472.2 4.174473e+10 1.8110965e+11 166779.69 91799.21 487628.53 1.315766e+06
900559.6 527634.75 1.1643275e+06 990803.6 467829.6 904506.9 1.607609e+06 370044.9
955245.2 1.607609e+06 561570.25 971273.1 1.0 81195.68 1.3289545e+06 989163.4
1.7085949e+06 1.2515129e+06 930682.5 1.6840679e+06 732727.56
00000000: 939e eb49 03b9 2c49 e082 1b51 e8ab 2852
00000010: ecde 2248 9b4b b347 9119 ee48 b09d a049
00000020: fadc 5b49 2cd1 0049 3c21 8e49 3ae5 7149
00000030: b36e e448 aed3 5c49 c83d c449 9daf b448
00000040: d336 6949 c83d c449 241a 0949 9220 6d49
00000050: 0000 803f d795 9e47 d439 a249 b67e 7149
00000060: 9791 d049 c7c5 9849 a837 6349 1f93 cd49
00000070: 79e3 3249

network_body.processors.0.normalizer.running_mean f4 [86]
0.0 0.0 0.0 0.0 0.0 0.0 0.9999669 6.428374e-07
0.086051345 -5.5067805e-08 5.906978e-08 -0.57449985 1.8907254e-08 0.7801703 0.054566674 0.1518935
-0.016536132 0.15021423 -0.5382214 -0.21323718 0.73076856 0.093933485 0.33695236 0.08284357
0.23416772 -0.49017486 -0.27176318 0.67265236 0.07171913 0.42587075 0.1882743 -0.08104887
-0.8256825 -0.33619085 -0.062623985 0.066348225 0.42722234 0.23478532 0.1603613 -0.7761388
-0.30095807 -0.16635142 0.045793295 0.42487332 0.26934993 0.124946594 -0.73347384 -0.32538843
-0.27835315 0.015560467 0.42147732 0.30543312 0.030669715 -0.24381754 -0.79221225 -0.18384625
-0.02334262 0.36651057 0.35064307 0.030669708 -0.24381754 -0.79221225 -0.18384625 -0.018023193
0.35993865 0.34382617 0.030669708 -0.24381754 -0.79221225 -0.18384625 0.25698724 0.84801257
0.44599575 0.7781277 -0.15179715 0.81982887 -0.35393915 0.75647354 -0.48839867 0.6793953
-0.26014358 0.84617 -0.51666915 0.6894161 0.40745986 -0.3858753
00000000: 0000 0000 0000 0000 0000 0000 0000 0000
00000010: 0000 0000 0000 0000 d5fd 7f3f 738f 2c35
00000020: b03b b03d b183 6cb3 e9b3 7d33 6c12 13bf
00000030: 7e69 a232 3eb9 473f 4e81 5f3d f889 1b3e
00000040: c876 87bc c2d1 193e e1c8 09bf d95a 5abe
00000050: a613 3b3f 3360 c03d 0585 ac3e e4a9 a93d
00000060: aac9 6f3e 33f8 fabe 8b24 8bbe f232 2c3f
00000070: 7be1 923d bb0b da3e faca 403e f3fc a5bd
00000080: ee5f 53bf 3521 acbe 0141 80bd 94e1 873d
00000090: e3bc da3e 906b 703e c135 243e 08b1 46bf
000000a0: 2d17 9abe 0758 2abe c091 3b3d ff88 d93e
000000b0: 3ce8 893e 00e4 ff3d f1c4 3bbf 5099 a6be
000000c0: 4e84 8ebe 54f1 7e3c e0cb d73e bb61 9c3e
000000d0: 0e3f fb3c 4eab 79be 6cce 4abf 3142 3cbe
000000e0: 0639 bfbc 46a7 bb3e 7d87 b33e 0a3f fb3c
000000f0: 4eab 79be 6cce 4abf 3142 3cbe 60a5 93bc
00000100: e149 b83e fc09 b03e 0a3f fb3c 4eab 79be
00000110: 6cce 4abf 3142 3cbe d593 833e 5a17 593f
00000120: 8e59 e43e 6033 473f b670 1bbe 4ee0 513f
00000130: 8337 b5be 40a8 413f 640f fabe daec 2d3f
00000140: 8a31 85be 999e 583f 6e44 04bf 937d 303f
00000150: 949e d03e 7391 c5be

network_body.processors.0.normalizer.running_variance f4 [86]
1.0 1.0 1.0 1.0 1.0 1.0 2.0 1.0
1.0074012 1.0 1.0 446914.75 1.0 214579.4 3027.802 1.0230666
6574.595 221911.52 416932.03 317842.94 211278.12 24611.77 29252.994 92612.66
431895.66 393275.94 809778.94 293346.53 73063.95 126003.26 246221.34 417903.94
203558.28 921938.94 558859.94 90603.12 204913.8 272048.44 992416.5 279693.88
832397.0 634432.4 102957.91 268182.12 280504.1 1.0510188e+06 324273.53 717672.94
748096.75 122501.58 491280.94 323475.8 909370.8 755139.44 440395.22 900679.5
164089.72 643613.5 294729.4 909370.8 755139.44 440395.22 900679.56 158883.5
628318.3 274023.56 909370.8 755139.44 440395.22 900679.56 1.5876379e+06 731053.94
1.6295305e+06 482262.16 2.581799e+06 709270.1 1.8379176e+06 1.4287556e+06 1.9819548e+06 1.2577851e+06
1.7293282e+06 605359.25 1.6558921e+06 1.1289169e+06 2.5457578e+06 2.829134e+06
00000000: 0000 803f 0000 803f 0000 803f 0000 803f
00000010: 0000 803f 0000 803f 0000 0040 0000 803f
00000020: 86f2 803f 0000 803f 0000 803f 5838 da48
00000030: 0000 803f da8c 5148 d53c 3d45 d9f3 823f
00000040: c374 cd45 e1b5 5848 8194 cb48 5e32 9b48
00000050: 8853 4e48 8a47 c046 fd89 e446 54e2 b447
00000060: f5e2 d248 7e07 c048 2fb3 4549 513c 8f48
00000070: fab3 8e47 a119 f647 5673 7048 fe0d cc48
00000080: 92c9 4648 2f15 6149 bf70 0849 8ff5 b047
00000090: 731c 4848 0ed6 8448 084a 7249 bc91 8848
000000a0: d038 4b49 06e4 1a49 f416 c947 c4f2 8248
000000b0: 03f7 8848 564c 8049 3156 9e48 8f36 2f49
000000c0: 0ca4 3649 ca42 ef47 1ee2 ef48 7af2 9d48
000000d0: ad03 5e49 375c 3849 6709 d748 78e4 5b49
000000e0: 6e3e 2048 d821 1d49 2de9 8f48 ad03 5e49
000000f0: 375c 3849 6709 d748 79e4 5b49 e028 1b48
00000100: e565 1949 f2cc 8548 ad03 5e49 375c 3849
00000110: 6709 d748 79e4 5b49 afcd c149 df7a 3249
00000120: d4ea c649 c57a eb48 9c94 1d4a 6229 2d49
00000130: ed5a e049 9d68 ae49 16f0 f149 c989 9949
00000140: 8219 d349 f4ca 1349 a122 ca49 a7ce 8949
00000150: 7761 1b4a 38ad 2c4a

network_body.processors.1.normalizer.running_mean f4 [29]
0.2330324 0.30662963 28.327238 69.422134 0.14068834 0.16684234 0.38220719 0.59911156
0.37478992 0.36971927 0.49582246 0.40894473 0.3745793 -0.11609702 0.21270145 0.097613625
-0.011673901 0.21270145 0.11430216 -0.10444063 0.0 -0.016698545 0.23889422 0.22383527
0.65114367 0.7425041 0.7608789 0.6808337 0.7940026
00000000: 0ca0 6e3e 8ffe 9c3e 2f9e e241 22d8 8a42
00000010: 9b10 103e b8d8 2a3e a9b0 c33e 605f 193f
00000020: 77e4 bf3e d84b bd3e 71dc fd3e 3461 d13e
00000030: dcc8 bf3e 46c4 edbd 69ce 593e a7e9 c73d
00000040: e443 3fbc 69ce 593e 4017 ea3d f8e4 d5bd
00000050: 0000 0000 63cb 88bc b0a0 743e 1335 653e
00000060: 5ab1 263f c014 3e3f f6c8 423f 1e4b 2e3f
00000070: c143 4b3f

network_body.processors.1.normalizer.running_variance f4 [29]
1.9301944e+06 707472.2 4.174473e+10 1.8110965e+11 166779.69 91799.21 487628.53 1.315766e+06
900559.6 527634.75 1.1643275e+06 990803.6 467829.6 904506.9 1.607609e+06 370044.9
955245.2 1.607609e+06 561570.25 971273.1 1.0 81195.68 1.3289545e+06 989163.4
1.7085949e+06 1.2515129e+06 930682.5 1.6840679e+06 732727.56
00000000: 939e eb49 03b9 2c49 e082 1b51 e8ab 2852
00000010: ecde 2248 9b4b b347 9119 ee48 b09d a049
00000020: fadc 5b49 2cd1 0049 3c21 8e49 3ae5 7149
00000030: b36e e448 aed3 5c49 c83d c449 9daf b448
00000040: d336 6949 c83d c449 241a 0949 9220 6d49
00000050: 0000 803f d795 9e47 d439 a249 b67e 7149
00000060: 9791 d049 c7c5 9849 a837 6349 1f93 cd49
00000070: 79e3 3249

network_body._body_endoder.seq_layers.0.weight f4 [128, 115]
0.056309648 -0.18278149 0.059213504 0.02489006 0.042171653 -0.020509884 0.16529922 0.11238793
0.23790172 0.106936865 0.054128002 -0.09216406 0.051306672 0.09874389 0.10420473 0.2333018
-0.029369963 0.08049964 0.09343735 -0.026926938 0.025848756 -0.01730491 0.007958177 -0.023660114
-0.14504868 -0.022166675 0.18968938 0.009667421 -0.17841497 0.1656454 0.03566193 -0.07677246
0.027989607 -0.1353528 -0.039199155 -0.08402869 0.10947188 -0.046441846 0.05106004 -0.09253072
-0.0015475536 0.06419134 0.012997016 -0.016024046 -0.012927052 -0.062154744 -0.055615243 -0.004148043
-0.044650838 -0.047548153 -0.011935355 0.07955484 -0.04951633 0.10844428 -0.07092313 -0.04292631
-0.033849005 0.06245656 -0.027686829 0.011932722 0.0047138324 0.03678379 -0.069671564 -0.019961651
0.083665125 0.075959414 0.14944068 0.08930828 -0.105794005 -0.12588558 -0.04311504 -0.033259872
0.066937 0.00601864 0.08499809 0.058083143 0.033680294 -0.17753567 0.24950352 0.1722928
-0.12661992 0.010472438 -0.14039208 0.18702985 -0.10477502 0.1505529 -0.070582524 -0.04088518
-0.14560539 4.342315e-06 0.12351903 -0.13165182 -0.15064043 0.0073718834 -0.014483307 0.03229909
0.14499024 -0.07634955 -0.088807136 -0.025193956 -0.14335616 -0.135582 0.1463704 -0.059971504
0.06032533 -0.05182637 -0.1154005 0.0287627 0.36281002 0.11330431 -0.18996741 0.15995148
0.029056353 0.06968379 0.2730304 0.020129874 -0.07736179 -0.038813725 0.19274314 -0.038891274
0.13415706 -0.22413872 -0.34282207 -0.08377481 0.027927108 -0.22174789 0.019134179 0.03166978
-0.19607168 -0.054706708 0.07531478 -0.00078871055 0.13280556 0.044976998 -0.06310097 -0.09011585
0.065185286 -0.1692691 0.08710664 0.29106504 -0.08466733 -0.0030401305 0.05751262 -0.11887902
0.15787861 0.08923373 -0.053154014 -0.09310315 0.080668196 -0.07613349 -0.009190377 0.053846017
0.06034128 -0.025644997 -0.12549119 -0.1753071 0.16950083 -0.060155556 -0.061123643 0.071578614
-0.021950811 -0.2108942 -0.15798026 0.030487048 -0.010075062 -0.23215108 0.071033224 -0.17349452
-0.10878462 0.0019482207 0.21223627 0.018594088 -0.008352422 -0.017305816 -0.1091581 -0.04376377
-0.10151621 0.03248651 0.17437388 -0.12684985 0.052703194 -0.12157551 -0.1041062 0.2003979
0.23105356 0.010759389 -0.22450434 0.04601941 0.060785357 0.2382654 0.19889799 -0.16871727
-0.06463642 0.030982288 0.2414238 0.3146448 0.28475556 -0.17224048 0.010740648 0.13616996
-0.062243547 0.057709392 -0.17056903 0.123477675 -0.09375237 -0.30567724 0.13669299 0.12365818
0.17338459 0.029378608 -0.3435171 -0.21169123 0.048288915 0.29550666 -0.03881265 0.07942933
-0.13562289 -0.1542126 0.03557923 -0.0007178219 0.22844386 0.079026975 -0.06937075 0.06721532
0.10945983 -0.08858561 0.23698558 0.25061387 0.05548019 0.1455235 -0.07128248 0.08655811
0.15668835 0.00045853094 0.1426215 -0.047708403 0.20513047 -0.031755976 0.13177447 0.03805434
-0.009883108 0.22561228 -0.050783053 0.09662128 0.10415643 0.15504287 0.0058911573 -0.053686336
0.057423957 0.23430522 -0.047252126 0.021645002 -0.008954827 0.01859018 -0.12059071 -0.092793345
00000000: f2a4 663d 122b 3bbe dc89 723d 3de6 cb3c
00000010: 2fbc 2c3d 5804 a8bc 3344 293e a52b e63d
00000020: 829c 733e b701 db3d 53b5 5d3d 83c0 bcbd
00000030: f226 523d 3d3a ca3d 4a69 d53d abe6 6e3e
00000040: 4799 f0bc ffdc a43d 155c bf3d e295 dcbc
00000050: c5c0 d33c 07c3 8dbc 0363 023c dbd2 c1bc
00000060: a487 14be e396 b5bc ef3d 423e 1a64 1e3c
00000070: 6ab2 36be f39e 293e 3e12 123d e13a 9dbd
00000080: 764a e53c ed99 0abe 4b8f 20bd 3c17 acbd
00000090: cb32 e03d ce39 3ebd 5524 513d bf80 bdbd
000000a0: 48d7 caba c076 833d 70f1 543c dc44 83bc
000000b0: fccb 53bc f995 7ebd cfcc 63bd 4fec 87bb
000000c0: cce3 36bd dac1 42bd 828c 43bc a6ed a23d
000000d0: a3d1 4abd 0918 de3d 2540 91bd 80d3 2fbd
000000e0: 41a5 0abd 73d2 7f3d 7dcf e2bc 7781 433c
000000f0: 7e76 9a3b 99aa 163d f7af 8ebd 9e86 a3bc
00000100: 9f58 ab3d 9c90 9b3d fa06 193e 42e7 b63d
00000110: 87aa d8bd 26e8 00be 6599 30bd 813b 08bd
00000120: 4416 893d 0338 c53b 7b13 ae3d 97e8 6d3d
00000130: 59f4 093d e9cb 35be da7d 7f3e 866d 303e
00000140: a7a8 01be 9794 2b3c f1c2 0fbe c184 3f3e
00000150: 4994 d6bd 8a2a 1a3e 928d 90bd 3877 27bd
00000160: 9419 15be 34b4 9136 8cf7 fc3d bccf 06be
00000170: 7c41 1abe d78f f13b 644b 6dbc 0d4c 043d
00000180: 5278 143e 275d 9cbd 84e0 b5bd 8e63 cebc
00000190: f5cb 12be 02d6 0abe 1fe2 153e aea4 75bd
000001a0: b117 773d e347 54bd 1957 ecbd c19f eb3c
000001b0: 3cc2 b93e 170c e83d d186 42be 52ca 233e
000001c0: 9707 ee3c 60b6 8e3d a4ca 8b3e 68e7 a43c
000001d0: dc6f 9ebd 24fb 1ebd 755e 453e 754c 1fbd
000001e0: 7860 093e 9f84 65be 6086 afbe 2192 abbd
000001f0: 64c7 e43c e111 63be 48bf 9c3c 2cb8 013d
00000200: 04c7 48be 2414 60bd a33e 9a3d 78c1 4eba
00000210: 2efe 073e cd39 383d 153b 81bd a98e b8bd
00000220: dd7f 853d e154 2dbe f764 b23d 7a06 953e
00000230: 1166 adbd ed3c 47bb 5a92 6b3d d876 f3bd
00000240: eeaa 213e 2dc0 b63d 06b8 59bd ddac bebd
00000250: 5e35 a53d e0eb 9bbd 3c93 16bc a48d 5c3d
00000260: 6b28 773d 7515 d2bc c380 00be b483 33be
00000270: a091 2d3e ac65 76bd c95c 7abd cf97 923d
00000280: 30d2 b3bc a6f4 57be 94c5 21be f9bf f93c
00000290: df11 25bc 03b9 6dbe de79 913d 8ca8 31be
000002a0: 79ca debd 705b ff3a 7754 593e a152 983c
000002b0: 99d8 08bc edc4 8dbc 488e dfbd a441 33bd
000002c0: bbe7 cfbd 9310 053d 118f 323e ede4 01be
000002d0: 4edf 573d 95fc f8bd a235 d5bd 1b35 4d3e
000002e0: 4e99 6c3e 2648 303c 77e4 65be d97e 3c3d
000002f0: 11fa 783d d8fb 733e eaab 4b3e 38c4 2cbe
00000300: 1960 84bd 91ce fd3c cd37 773e 2019 a13e
00000310: 7bcb 913e cf5f 30be 8bf9 2f3c 2370 0b3e
00000320: 17f3 7ebd af60 6c3d a6a9 2ebe dde1 fc3d
00000330: 3e01 c0bd ba81 9cbe 3ff9 0b3e 8040 fd3d
00000340: bb8b 313e 68ab f03c 79e1 afbe 96c5 58be
00000350: 99ca 453d a64c 973e 03fa 1ebd d8ab a23d
00000360: bae0 0abe e8e9 1dbe 87bb 113d 362c 3cba
00000370: 30ed 693e e5d8 a13d 4012 8ebd 30a8 893d
00000380: 7a2c e03d 5f6c b5bd 59ac 723e 7650 803e
00000390: 323f 633d 1d04 153e 8dfc 91bd 6145 b13d
000003a0: e972 203e fb66 f039 5f0b 123e e369 43bd
000003b0: b90d 523e 8e12 02bd e3ef 063e dede 1b3d
000003c0: c2ec 21bc e806 673e e401 50bd 61e1 c53d
000003d0: f74f d53d 8fc3 1e3e 9c0a c13b 34e6 5bbd
000003e0: 6235 6b3d b5ed 6f3e 728b 41bd dc50 b13c
000003f0: 44b7 12bc 6f4a 983c 43f8 f6bd 700a bebd

network_body._body_endoder.seq_layers.0.bias f4 [128]
0.09322035 -0.064933866 0.15528397 0.023727538 -0.087094694 -0.025385061 0.12523016 0.035993
0.026678648 -0.055003326 -0.020311126 0.15241557 0.005293529 0.063900635 0.031756967 0.14472328
0.06284714 -0.06759685 0.003808643 0.2532474 0.031215789 0.056161687 -0.00539031 -0.06636292
0.118811056 0.22622755 0.07222437 -0.008128058 0.14381652 0.04272719 -0.055559464 -0.060474772
-0.013945206 -0.001671916 -0.045145582 0.27299798 0.037669238 -0.069471955 0.0007779472 -0.09784016
-0.005411914 0.23493482 -0.046595283 0.16133182 -0.08069963 -0.0116828885 0.32364944 -0.061528184
0.25088876 0.091496326 -0.06563037 0.25307545 0.094696835 -0.0047978256 0.043401916 -0.015991231
0.3979269 0.058858145 0.008117854 -0.026727827 -0.011770239 -0.06507515 0.26638317 0.045214046
-0.023068227 -0.12283894 0.13972825 -0.011247232 0.0074872514 0.14089859 0.24739479 -0.024382936
0.0513095 -0.087675765 -0.08064686 -0.0018915087 -0.021340854 -0.021788528 -0.03633415 0.18572512
0.18231685 -0.040222682 0.024824908 -0.087636545 0.53749895 0.12927733 0.06398314 0.2067229
-0.0016218295 -0.07240901 0.04738704 0.0822353 -0.054511912 0.2657524 -0.09258058 -0.024351675
-0.03809544 -0.0033996897 -0.047878183 0.03584782 0.026312891 -0.006978055 -0.0469272 -0.04009983
-0.039262503 4.401282e-05 -0.15149905 0.12576862 0.043723244 0.055491693 0.07621391 0.22287208
-0.033216037 -0.03927661 0.16344692 0.22589456 -0.09099287 0.047268424 0.08631504 -0.017433267
-0.085898526 0.08388582 0.041695077 0.19839512 -0.007509262 -0.009611467 0.045622423 0.01510109
00000000: 50ea be3d 0cfc 84bd c302 1f3e 4160 c23c
00000010: b45e b2bd 55f4 cfbc 563c 003e 656d 133d
00000020: 2e8d da3c 2b4b 61bd 8563 a6bc d412 1c3e
00000030: 5775 ad3b 56de 823d 9813 023d 5732 143e
00000040: 00b6 803d 3870 8abd 6d9a 793b a5a9 813e
00000050: 41b8 ff3c cc09 663d 33a1 b0bb 48e9 87bd
00000060: 3653 f33d 32a8 673e 5fea 933d 8c2b 05bc
00000070: a344 133e b502 2f3d 5292 63bd 65b4 77bd
00000080: 6f7a 64bc 3124 dbba 93ea 38bd 64c6 8b3e
00000090: 0f4b 1a3d 5047 8ebd 27ef 4b3a 6c60 c8bd
000000a0: 6d56 b1bb c192 703e b2da 3ebd 2b34 253e
000000b0: d945 a5bd 9669 3fbc 61b5 a53e fa04 7cbd
000000c0: 7e74 803e 6d62 bb3d 3769 86bd 1b93 813e
000000d0: 6af0 c13d 1437 9dbb 35c6 313d 0b00 83bc
000000e0: 13bd cb3e 3d15 713d bf00 053c 51f4 dabc
000000f0: f6d7 40bc 1f46 85bd 6063 883e 5d32 393d
00000100: 94f9 bcbc fb92 fbbd ec14 0f3e 4f46 38bc
00000110: 9e57 f53b b847 103e 0f55 7d3e b9be c7bc
00000120: e929 523d 5a8f b3bd 2e2a a5bd 80ec f7ba
00000130: 04d3 aebc db7d b2bc 1ed3 14bd ba2e 3e3e
00000140: 45b1 3a3e 8ac0 24bd 9b5d cb3c ca7a b3bd
00000150: 8899 093f 4761 043e 9809 833d 2baf 533e
00000160: 9193 d4ba 2d4b 94bd ea18 423d fb6a a83d
00000170: e247 5fbd b310 883e e39a bdbd 2a7d c7bc
00000180: f709 1cbd 54cd 5ebb ea1b 44bd 2ad5 123d
00000190: 228e d73c 2ba8 e4bb bc36 40bd b83f 24bd
000001a0: b8d1 20bd 689a 3838 9122 1bbe 7dc9 003e
000001b0: 2517 333d 424b 633d 0a16 9c3d 9438 643e
000001c0: 8a0d 08bd 83e0 20bd a15e 273e e750 673e
000001d0: 785a babd 899c 413d f1c5 b03d 36d0 8ebc
000001e0: 91eb afbd 54cc ab3d 75c8 2a3d 1728 4b3e
000001f0: 4110 f6bb 6a79 1dbc 94de 3a3d 906a 773c

network_body._body_endoder.seq_layers.2.weight f4 [128, 128]
0.10700775 -0.05829294 -0.051234607 -0.10258462 0.143067 0.09253199 -0.004149941 -0.10609548
-0.10326429 0.24071653 -0.089791924 0.10176369 -0.16847761 0.06600711 -0.16935927 -0.047061555
-0.15464126 0.052536763 -0.018993562 -0.32126287 0.16470234 0.059335332 -0.33754918 0.059374917
-0.059396572 -0.06795564 -0.22972882 0.11731242 0.01793663 0.15182778 -0.21289039 -0.15100287
0.13065858 -0.2290191 0.051195405 0.037430897 0.15893106 -0.22384062 -0.14963175 0.025464213
-0.18098842 0.051653165 0.2763977 0.040584177 0.2643644 -0.05292136 -0.041828677 0.1285052
0.01973582 -0.00018327005 0.061903123 0.005293998 -0.18455873 0.053253695 0.2774207 -0.17584579
-0.21710497 -0.30028996 0.0638128 -0.018162534 0.040093444 0.053969566 -0.13827701 -0.117745005
0.09937207 -0.014278517 -0.03586235 0.15304752 0.11444605 -0.043653164 -0.005522149 0.115781195
0.19227347 -0.09894578 -0.015655247 0.09706899 -0.017236203 -0.12181696 0.19892755 0.022232356
-0.09126094 -0.16099489 -0.014213288 0.17080893 -0.18001965 0.008285415 0.06586181 -0.14579251
-0.14142412 -0.10713963 -0.014897103 -0.10002934 -0.13286826 -0.07228478 0.128365 0.03745818
0.037157204 0.06022881 -0.15101004 -0.32617176 0.032414604 0.10345139 0.062409967 -0.1691554
0.10176057 0.11690289 0.12663668 0.1259889 -0.006003613 -0.031671274 0.022746611 -0.16958286
-0.10453845 0.10993096 -0.18711439 0.019096777 -0.10229682 0.034629073 -0.14520411 0.02680524
0.10459664 -0.2570678 0.12581281 -0.34228644 0.05556353 -0.2497375 -0.078740485 -0.07146458
-0.043352123 0.20355989 -0.21183325 -0.28794962 0.110566214 -0.017300682 0.009552756 -0.21850573
-0.014193068 -0.23189369 0.06492601 -0.14084299 -0.20237891 0.062109426 -0.12945314 -0.10128921
0.030269826 -0.22992744 0.06362306 0.09021686 0.13633534 -0.21687466 0.28515008 0.00086783164
-0.00928069 0.07777851 -0.16916266 -0.017334098 -0.04371947 0.17707452 0.05130234 0.21518756
0.08014849 0.39871395 -0.19563949 -0.17046186 0.06894235 0.0059637805 0.11280781 -0.20487052
-0.24936235 0.048531383 0.041337043 0.024414156 -0.039032243 -0.2940708 -0.0970232 -0.04682614
0.13969895 -0.16391799 0.08277133 -0.100635454 0.004765345 0.027446495 -0.33332112 0.21653786
0.08345514 -0.2856521 0.026546406 0.13837966 -0.01101694 -0.12187011 -0.21229833 -0.08463409
-0.07585724 0.019511484 -0.02013523 0.0058499887 0.1304984 0.034957934 0.037402283 -0.1754292
-0.101460695 0.0769487 0.22477521 0.003332064 -0.08914638 -0.15648535 -0.06245901 -0.00052884367
0.0778081 0.04226387 -0.08428646 0.23302613 -0.1543014 0.050633285 -0.15233491 0.06830162
0.097738475 -0.076949365 0.06606094 0.00911394 -0.089330986 -0.20520315 0.10103806 0.053501744
0.030794729 -0.5320153 -0.08225772 -0.067286745 0.11151876 0.06556471 -0.09888559 -0.22019337
-0.20731153 -0.014078259 -0.11725424 -0.17652625 -0.3479445 0.15469348 0.18274064 -0.0029667907
0.2120056 -0.18422596 -0.14417772 0.13373251 -0.13263185 -0.18391138 -0.0042367727 0.042957738
0.057904024 -0.08977753 0.14859793 -0.038139485 0.0068919268 0.15870908 -0.016065672 0.001234032
00000000: e126 db3d 94c4 6ebd 61db 51bd e317 d2bd
00000010: 2880 123e 6981 bd3d 3afc 87bb 9648 d9bd
00000020: 3a7c d3bd 657e 763e d4e4 b7bd 7b69 d03d
00000030: 6585 2cbe bc2e 873d 846c 2dbe 9ec3 40bd
00000040: 475a 1ebe ca30 573d 6398 9bbc 917c a4be
00000050: bba7 283e 9b09 733d 3fd3 acbe 1d33 733d
00000060: d249 73bd 542c 8bbd 083e 6bbe 7e41 f03d
00000070: d7ef 923c be78 1b3e f0ff 59be 7fa0 1abe
00000080: 5dcb 053e fc83 6abe 46b2 513d 2451 193d
00000090: d3be 223e 7a36 65be 1139 19be 539a d03c
000000a0: 0755 39be 4592 533d 0084 8d3e 983b 263d
000000b0: c55a 873e 11c4 58bd 8c54 2bbd de96 033e
000000c0: 04ad a13c 2e2c 40b9 218e 7d3d 4679 ad3b
000000d0: f7fc 3cbe 8c20 5a3d 160a 8e3e eb10 34be
000000e0: c450 5ebe 9bbf 99be 49b0 823d 98c9 94bc
000000f0: 0639 243d 310f 5d3d 7d98 0dbe 4b24 f1bd
00000100: 9583 cb3d 71f0 69bc 66e4 12bd 7db8 1c3e
00000110: b162 ea3d a9cd 32bd 25f3 b4bb b11e ed3d
00000120: 56e3 443e 16a4 cabd 6f3f 80bc 1bcc c63d
00000130: f032 8dbc 2c7b f9bd aab3 4b3e a120 b63c
00000140: 04e7 babd d8db 24be dade 68bc 89e8 2e3e
00000150: 1257 38be 8dbf 073c 8fe2 863d a24a 15be
00000160: 7cd1 10be 066c dbbd fb12 74bc 2fdc ccbd
00000170: 9e0e 08be 0b0a 94bd 1d72 033e c06d 193d
00000180: 2732 183d 7cb2 763d 60a2 1abe fcff a6be
00000190: 2dc5 043d 53de d33d 98a1 7f3d 1337 2dbe
000001a0: d967 d03d c86a ef3d 0cad 013e 3c03 013e
000001b0: f5b9 c4bb bdb9 01bd 1a57 ba3c 21a7 2dbe
000001c0: 4118 d6bd 7c23 e13d ea9a 3fbe d870 9c3c
000001d0: ff80 d1bd 37d7 0d3d 63b0 14be aa96 db3c
000001e0: c336 d63d 649e 83be 13d5 003e 2b40 afbe
000001f0: 9696 633d 30bb 7fbe b142 a1bd 065c 92bd
00000200: ff91 31bd 0172 503e d1ea 58be 226e 93be
00000210: 8a70 e23d 29ba 8dbc 2a83 1c3c f7bf 5fbe
00000220: 0b8a 68bc 8a75 6dbe eef7 843d 2539 10be
00000230: 6b3c 4fbe 7466 7e3d 5d8f 04be b870 cfbd
00000240: 6df8 f73c 1972 6bbe cf4c 823d 9ec3 b83d
00000250: 7e9b 0b3e 6414 5ebe 31ff 913e 327f 633a
00000260: 090e 18bc 574a 9f3d fa38 2dbe 3d00 8ebc
00000270: 3013 33bd 0653 353e 6722 523d 215a 5c3e
00000280: e424 a43d 3c24 cc3e b855 48be 8e8d 2ebe
00000290: a631 8d3d d16b c33b c807 e73d 94c9 51be
000002a0: d858 7fbe d8c8 463d 0851 293d 3200 c83c
000002b0: 46e0 1fbd 7390 96be 19b4 c6bd c4cc 3fbd
000002c0: 3e0d 0f3e 1eda 27be 0484 a93d f619 cebd
000002d0: 9c26 9c3b 79d7 e03c 11a9 aabe 1abc 5d3e
000002e0: 87ea aa3d fe40 92be d977 d93c 66b3 0d3e
000002f0: 6580 34bc 0997 f9bd bc64 59be a354 adbd
00000300: 0a5b 9bbd 8cd6 9f3c a3f2 a4bc 43b1 bf3b
00000310: 5fa1 053e 0d30 0f3d 2333 193d b6a3 33be
00000320: a0ca cfbd 4897 9d3d 792b 663e c25e 5a3b
00000330: 6192 b6bd b23d 20be 05d5 7fbd 19a2 0aba
00000340: da59 9f3d e11c 2d3d 619e acbd 679e 6e3e
00000350: 3001 1ebe d964 4f3d affd 1bbe b8e1 8b3d
00000360: 1c2b c83d a197 9dbd f54a 873d a352 153c
00000370: 2af3 b6bd c620 52be 0bed ce3d a524 5b3d
00000380: 3a45 fc3c 2832 08bf bc76 a8bd a2cd 89bd
00000390: f363 e43d ca46 863d 8784 cabd 5f7a 61be
000003a0: 7949 54be 7fa8 66bc fe22 f0bd 4cc3 34be
000003b0: c825 b2be f867 1e3e 5d20 3b3e 7d6e 42bb
000003c0: ff17 593e bba5 3cbe 53a3 13be 2df1 083e
000003d0: a5d0 07be 4453 3cbe a0d4 8abb 74f4 2f3d
000003e0: c52c 6d3d 48dd b7bd 0e2a 183e 2638 1cbd
000003f0: acd5 e13b a284 223e 289c 83bc 3ebf a13a

network_body._body_endoder.seq_layers.2.bias f4 [128]
-0.0140018985 -0.051385768 -0.08072345 0.04260063 0.043969702 0.0030467834 0.016608713 -0.049712542
0.027593553 -0.07854683 -0.035245504 -0.009020486 -0.01747528 -0.049837172 -0.013479455 0.008964738
-0.005322848 0.01451777 -0.055751 -0.03713878 -0.04062373 -0.033302803 -0.06515605 -0.09500877
-0.055280507 0.004239349 -0.11409478 -0.0053895833 -0.05286107 -0.05855318 0.03490259 -0.048917342
-0.08510651 -0.045061022 -0.034316435 -0.032026995 -0.024217749 -0.060871247 -0.058131475 -0.05444595
-0.096473515 -0.11125952 -0.031807452 -0.062722854 -0.00293156 -0.027797202 -0.024092222 0.00022256233
0.038931817 -0.003926332 0.0006613781 -0.07172889 0.01826558 -0.031621613 -0.047335964 0.018305851
-0.050516497 -0.016783612 -0.10510992 -0.010328024 -0.060936596 -0.014998969 -0.030935798 -0.047235135
-0.02997155 0.07657813 -0.068069406 -0.012436223 -0.052032087 -0.03204182 -0.09882398 -0.10499641
-0.021358887 0.024887696 -0.00087945216 -0.010323818 0.04604808 0.018299319 -0.0385073 -0.1305255
-0.012215683 -0.057551697 -0.023372414 -0.04683399 -0.08542729 -0.113051996 -0.08130759 -0.038289156
-0.023875752 0.020583298 0.011640666 0.03523088 -0.07391905 -0.06361849 -0.021237532 -0.09380798
0.02598293 0.0024105934 -0.048608687 -0.0941096 0.0187925 -0.02780321 0.05427378 -0.012432001
-0.023455478 0.036942255 -0.0285421 -0.024934096 0.008966711 -0.043647625 -0.076800145 0.05922162
-0.009467029 0.017811058 0.016444972 -0.021122593 0.0174765 -0.03299956 -0.0066347723 -0.061686546
-0.12678091 -0.022571592 -0.020400306 0.007910048 -0.025900077 -0.00071346614 0.020951273 0.0030420516
00000000: 3868 65bc e279 52bd 5652 a5bd 007e 2e3d
00000010: 9319 343d 8bac 473b ff0e 883c 619f 4bbd
00000020: e00b e23c 29dd a0bd 975d 10bd a9ca 13bc
00000030: 5228 8fbc 1022 4cbd efd8 5cbc d6e0 123c
00000040: 496b aebb f1db 6d3c 295b 64bd d51e 18bd
00000050: 1165 26bd 8568 08bd 8970 85bd f593 c2bd
00000060: d06d 62bd 3dea 8a3b 86aa e9bd 1a9b b0bb
00000070: d984 58bd 76d5 6fbd 05f6 0e3d 8d5d 48bd
00000080: 524c aebd e891 38bd 648f 0cbd bd2e 03bd
00000090: 4d64 c6bc 2154 79bd 451b 6ebd b702 5fbd
000000a0: e893 c5bd 08dc e3bd 8848 02bd d774 80bd
000000b0: 6a1f 40bb f5b6 e3bc 0d5d c5bc 9f5f 6939
000000c0: f876 1f3d 76a8 80bb 5560 2d3a 99e6 92bd
000000d0: b3a1 953c aa85 01bd 5be3 41bd 27f6 953c
000000e0: 63ea 4ebd c97d 89bc df43 d7bd df36 29bc
000000f0: a798 79bd 3cbe 75bc 126d fdbc a179 41bd
00000100: e586 f5bc ffd4 9c3d f967 8bbd 4dc1 4bbc
00000110: 991f 55bd 493e 03bd 3a64 cabd 5c08 d7bd
00000120: d5f8 aebc 48e1 cb3c 098b 66ba 3b25 29bc
00000130: e99c 3c3d 74e8 953c d5b9 1dbd 7aa8 05be
00000140: 4a24 48bc 54bb 6bbd 8177 bfbc ffd4 3fbd
00000150: 81f4 aebd ce87 e7bd 9884 a6bd 17d5 1cbd
00000160: 1597 c3bc 4e9e a83c 7eb8 3e3c 414e 103d
00000170: df62 97bd 694a 82bd 55fa adbc 661e c0bd
00000180: 27da d43c 0cfb 1d3b e719 47bd 89bc c0bd
00000190: bbf2 993c 8fc3 e3bc 2f4e 5e3d 97af 4bbc
000001a0: b425 c0bc c350 173d 1fd1 e9bc 9742 ccbc
000001b0: 1de9 123c dac7 32bd 6549 9dbd 5f92 723d
000001c0: 991b 1bbc 7fe8 913c 9bb7 863c 4a09 adbc
000001d0: e02a 8f3c 8c2a 07bd 8168 d9bb 08ab 7cbd
000001e0: dbd2 01be 0fe8 b8bc 8b1e a7bc 2599 013c
000001f0: 662c d4bc e707 3bba 01a2 ab3c 285d 473b

action_model._discrete_distribution.branches.0.weight f4 [3, 128]
-0.06619601 0.14849782 -0.06173443 0.05376837 -0.02533669 0.023248803 -0.05093553 0.13450073
-0.13142823 0.016769847 0.015659852 0.18333972 0.07834716 -0.09682794 -0.19199428 -0.14888695
0.04671052 0.06973634 -0.24079753 0.072690465 -0.14925668 -0.18979202 -0.025358707 0.030686274
0.21595836 -0.03780978 0.034815863 -0.010661637 -0.10415056 -0.064654455 -0.10194837 -0.069128186
0.005105243 0.15875 0.075812705 -0.17150432 -0.04076745 -0.010929377 0.016561255 0.07210348
-0.095849946 0.0029578458 -0.097986735 0.15206599 -0.11211228 -0.052184366 0.024986705 -0.08411405
-0.016616624 -0.13525002 -0.0461908 0.009982885 -0.035258774 -0.10037664 -0.11249967 -0.19211586
0.08014523 -0.037185766 0.08216996 0.0045012203 0.038951807 -0.023313949 0.06331938 0.22279161
-0.14161088 -0.019154454 -0.2065334 -0.09196406 -0.11239026 -0.079127096 0.026030686 -0.069919795
-0.037462533 -0.022905517 -0.08199471 0.0343364 0.035142083 0.026246808 0.046013214 -0.05020938
-0.253632 -0.08251215 -0.004289518 0.06426496 0.1451147 0.052848257 -0.059615426 0.10234444
0.041189663 -0.037077803 0.013253752 -0.27346548 0.06792569 -0.26792988 -0.34549358 0.02066184
-0.13091308 0.034818325 0.09776788 0.028328905 -0.06710259 -0.06798353 -0.25754866 -0.032389876
-0.13836958 0.011733068 0.031458717 0.1699781 -0.10558587 -0.008982029 0.15206206 -0.18606083
0.021173425 0.0713332 0.035388943 -0.03375661 -0.03225713 -0.026669472 0.011968613 -0.051597457
0.04395529 0.12081999 -0.14959665 -0.25642642 0.0898031 -0.054825027 -0.07330138 -0.086416624
0.03183962 -0.062400393 -0.106063806 0.084025085 -0.0028720635 0.033644047 0.04284056 -0.08253929
0.15283936 -0.007587333 -0.017192572 -0.055360787 0.0071469788 0.011067144 0.18650329 0.09756245
0.098332465 -0.0036410033 -0.0058896206 -0.0273279 0.022820573 -0.1109044 0.03770715 0.045751154
-0.015231388 0.20566769 -0.027971044 0.056076214 0.105068654 0.08503913 0.05088448 0.1765477
0.022412468 -0.041778293 0.056430463 0.12711921 -0.07549868 0.039288737 0.0672793 -0.027668355
0.004545852 0.059890192 -0.0039848676 -0.038203344 0.09117055 0.046968054 0.09570321 0.16594672
-0.016123036 0.017405672 -0.0073666917 -0.04884296 0.06860496 0.15322214 0.15157844 0.18444274
0.056591447 -0.002462471 -0.0707901 0.03775702 -0.07823289 0.047581904 0.022610629 -0.0024372167
0.16467915 0.015421791 0.023683157 0.21860296 -0.051784493 0.009174998 -0.045041792 -0.037990443
0.055423673 0.05928675 0.116774544 -0.019445244 0.04389648 0.08109536 -0.038073745 0.004901272
0.1312683 -0.021781644 0.025211627 0.01962181 -0.15143621 -0.0772376 0.07099742 0.020969072
-0.050916657 0.050701495 -0.0020979869 0.1310213 -0.12716874 0.22718266 0.25710076 0.029575733
0.113619015 0.015065023 0.0114501845 0.006863115 0.0668348 0.14603408 0.23120126 0.1622177
0.06787157 0.13754284 0.07333253 0.0978735 0.11533876 -0.04130568 -0.01879165 0.12953039
0.044652395 -0.04578124 0.04324967 0.084834255 0.000919315 0.13016656 0.11458148 -0.1714486
-0.06143582 -0.143521 0.060737304 0.25393382 -0.0058564087 0.047276642 0.067335606 0.062096756
00000000: c691 87bd d00f 183e 3edd 7cbd 393c 5c3d
00000010: e48e cfbc 4674 be3c c6a1 50bd 8fba 093e
00000020: 1f95 06be eb60 893c 1749 803c 68bd 3b3e
00000030: 7a74 a03d ba4d c6bd 269a 44be d275 18be
00000040: 8853 3f3d edd1 8e3d a193 76be bdde 943d
00000050: bed6 18be d758 42be 10bd cfbc c861 fb3c
00000060: 3024 5d3e 6ede 1abd 149b 0e3d 26ae 2ebc
00000070: e44c d5bd 8e69 84bd 4fca d0bd 1493 8dbd
00000080: e249 a73b 5c8f 223e b143 9b3d d49e 2fbe
00000090: c5fb 26bd 2111 33bc 78ab 873c fdaa 933d
000000a0: fa4c c4bd 6bd8 413b 45ad c8bd 30b7 1b3e
000000b0: 209b e5bd 46bf 55bd ebb0 cc3c fd43 acbd
000000c0: 961f 88bc fb7e 0abe 9032 3dbd 418f 233c
000000d0: 816b 10bd 4592 cdbd 3a66 e6bd 05ba 44be
000000e0: 2f23 a43d 1a50 18bd b948 a83d f97e 933b
000000f0: ee8b 1f3d e5fc bebc 97ad 813d 7c23 643e
00000100: 7102 11be cde9 9cbc 7e7d 53be a757 bcbd
00000110: dd2c e6bd 630d a2bd 4e3e d53c 1c32 8fbd
00000120: 5072 19bd 5aa4 bbbc d8ec a7bd 53a4 0c3d
00000130: 25f1 0f3d 8c03 d73c 5a78 3c3d 5aa8 4dbd
00000140: 0edc 81be 21fc a8bd 168f 8cbb 599d 833d
00000150: f398 143e 6a77 583d 4e2f 74bd f699 d13d
00000160: 7eb6 283d e5de 17bd 4426 593c ab03 8cbe
00000170: a01c 8b3d 1b2e 89be 89e4 b0be 0543 a93c
00000180: 140e 06be a99d 0e3d 873a c83d 0512 e83c
00000190: 156d 89bd f33a 8bbd 6bdd 83be 3fab 04bd
000001a0: c1b0 0dbe 0e3c 403c dbda 003d bd0e 2e3e
000001b0: 683d d8bd 5c29 13bc 28b6 1b3e bb86 3ebe
000001c0: e473 ad3c 2417 923d fff3 103d 5f44 0abd
000001d0: 0d20 04bd f079 dabc 0018 443c db57 53bd
000001e0: 760a 343d 7970 f73d dd2f 19be 534a 83be
000001f0: b0ea b73d 3590 60bd 091f 96bd 33fb b0bd
00000200: 436a 023d 8e97 7fbd fb37 d9bd 5815 ac3d
00000210: 3b39 3cbb 57ce 093d 9579 2f3d 5c0a a9bd
00000220: ec81 1c3e 2a9f f8bb 70d7 8cbc fec1 62bd
00000230: 3431 ea3b f752 353c b8fa 3e3e d2ce c73d
00000240: 8862 c93d e69d 6ebb b8fd c0bb c3de dfbc
00000250: 36f2 ba3c d921 e3bd d072 1a3d 9065 3b3d
00000260: 128d 79bc 8d9a 523e 8823 e5bc 2cb0 653d
00000270: 3c2e d73d ff28 ae3d 3f6c 503d ecc8 343e
00000280: 5a9a b73c b71f 2bbd a123 673d 8a2b 023e
00000290: 0d9f 9abd 3aed 203d bbc9 893d bfa8 e2bc
000002a0: 5ff5 943b 6b4f 753d 7e93 82bb 1c7b 1cbd
000002b0: a0b7 ba3d 9361 403d 0b00 c43d f0ed 293e
000002c0: 7514 84bc 5796 8e3c 4a64 f1bb 8e0f 48bd
000002d0: c280 8c3d 44e6 1c3e 6137 1b3e 8fde 3c3e
000002e0: 6fcc 673d 6861 21bb 66fa 90bd 1ba7 1a3d
000002f0: 9138 a0bd 3ee5 423d ed39 b93c b6b9 1fbb
00000300: a7a1 283e aeab 7c3c 2e03 c23c 74d9 5f3e
00000310: fa1b 54bd bb52 163c be7d 38bd de9b 1bbd
00000320: ef03 633d aad6 723d 7e27 ef3d a24b 9fbc
00000330: cccc 333d 5315 a63d 37f3 1bbd d99a a03b
00000340: 326b 063e 6b6f b2bc 9d88 ce3c ebbd a03c
00000350: 1812 1bbe bf2e 9ebd 1867 913d 55c7 ab3c
00000360: fc8d 50bd 5fac 4f3d 617e 09bb 732a 063e
00000370: 8638 02be 92a2 683e b6a2 833e cf48 f23c
00000380: 16b1 e83d 49d3 763c 8e99 3b3c fbe3 e03b
00000390: afe0 883d f589 153e 06c0 6c3e 661c 263e
000003a0: 4000 8b3d 08d8 0c3e 5e2f 963d e771 c83d
000003b0: ba36 ec3d 2530 29bd f2f0 99bc 9da3 043e
000003c0: 6ee5 363d 1c85 3bbd 9126 313d 95bd ad3d
000003d0: 2ffe 703a 624a 053e b2a9 ea3d 3990 2fbe
000003e0: 20a4 7bbd 2bf7 12be aec7 783d 9d03 823e
000003f0: 1ee7 bfbb 27a5 413d 40e7 893d 2b59 7e3d

action_model._discrete_distribution.branches.0.bias f4 [3]
-0.056424618 0.07285305 -0.030389456
00000000: 801d 67bd fb33 953d 4ff3 f8bc

action_model._discrete_distribution.branches.1.weight f4 [3, 128]
0.061594892 -0.063602515 0.010291341 -0.18808612 -0.15228815 0.059251312 0.04278756 0.02891168
-0.053884182 0.10684958 0.17155676 -0.0035975077 0.052989718 0.04418436 -0.40885127 0.16946092
0.030702308 0.055580642 0.045928378 -0.2767426 -0.004845169 0.11884515 0.102740735 0.6540407
-0.08267203 -0.018282885 0.13678905 -0.02464971 0.2967948 0.2536845 -0.057378422 0.1092021
-0.22091164 0.08949335 0.1750933 0.08636627 -0.09374571 0.07339269 0.17023921 0.12723494
0.051814806 0.07605623 -0.09623072 0.16267808 0.020314805 0.18731183 -0.05289588 -0.15315486
0.063349284 -0.012802498 0.16266422 0.20954996 0.1983805 0.086491734 -0.07602613 -0.15810876
0.22088178 0.12175525 0.14453082 0.1818729 -0.06418844 0.110273845 -0.09114571 -0.10609307
0.1327889 -0.007819585 -0.03188611 -0.16972065 -0.06205158 0.20937991 0.24186823 -0.13299952
-0.087243706 -0.06092355 -0.2035605 0.19741349 -0.13574113 -0.2719531 0.020733776 0.035516314
-0.21388131 -0.15589283 0.16145134 0.04644061 0.07063595 0.101762384 -0.050486855 -0.039113734
0.018064812 -0.09287096 0.09341194 -0.16245086 0.091934584 -0.017602531 -0.14159833 0.13161437
-0.4321558 -0.05664892 0.10435726 0.17673127 -0.060431417 0.095926516 0.11008928 -0.16926311
-0.07866205 -0.29077652 -0.029233966 0.09599673 -0.024624698 0.1653294 0.3871793 -0.118342884
0.20360266 0.167684 -0.056624826 0.043734573 -0.109156415 -0.3461104 0.14029667 -0.050783485
0.016062347 0.13034576 -0.021522628 0.04923248 0.026996747 0.07689078 0.14155339 -0.1487999
0.017763384 -0.01349926 0.08764151 0.043334853 -0.01927305 -0.040331177 0.0501341 0.03182754
-0.06759428 0.08198653 -0.052086327 -0.027578615 -0.0051433775 0.16779095 0.08199318 -0.048665248
0.06170125 0.0843338 -0.0043133795 -0.04568194 -0.012187654 -0.040316727 0.02392962 -0.48645127
-0.0015377916 0.017567446 0.06835465 0.055746794 -0.18696699 -0.18136054 -0.041086104 0.021036029
0.06004616 -0.081785396 0.04417962 -0.03851077 0.04282955 0.051121496 -0.13332196 0.11849482
0.02283957 -0.13240275 -0.037956625 0.026501896 0.026215121 -0.079526804 0.08939119 -0.010238615
0.029644154 0.028292332 0.1273028 -0.10317134 0.0072993035 0.02793535 -0.041972198 0.025261408
0.1071744 0.085544005 0.07100531 -0.14539073 0.019961279 0.13888611 -0.009917778 0.024158204
-0.12798436 0.053561058 0.07926619 0.015049658 0.026778623 -0.16403662 0.13929531 -0.07162621
0.027149644 -0.031921722 -0.09547821 -0.010490988 0.014316737 0.0075461767 0.110597454 0.13152531
0.06991254 0.0747734 0.009942318 -0.006967991 -0.03942139 8.695689e-05 0.03011512 0.04809385
0.07907638 0.035214182 0.15831825 -0.12721072 0.018365202 0.055152483 -0.034570154 0.082112655
-0.017399041 0.065877065 0.08991029 0.004819753 0.09896078 0.051426027 -0.05327038 -0.10228544
-0.04668163 -0.094855756 0.03885688 0.0071010515 -0.14487639 0.024372753 -0.17410176 0.025468884
-0.055049602 0.12217115 0.02676014 0.035562307 0.0024194259 0.0045796945 -0.065112844 -0.040231682
0.13456757 0.07436886 -0.033600062 -0.20215528 -0.015516442 0.033244636 0.049281485 0.068818286
00000000: ed4a 7c3d 0942 82bd 039d 283c a699 40be
00000010: 6df1 1bbe 81b1 723d 0242 2f3d 30d8 ec3c
00000020: a9b5 5cbd f4d3 da3d 93ac 2f3e 2ac4 6bbb
00000030: bf0b 593d a9fa 343d f454 d1be 2a87 2d3e
00000040: 6883 fb3c 87a8 633d 651f 3c3d 35b1 8dbe
00000050: 39c4 9ebb 1665 f33d bc69 d23d 366f 273f
00000060: f44f a9bd fdc5 95bc 6e12 0c3e 30ee c9bc
00000070: 7df5 973e efe2 813e a305 6bbd 5aa5 df3d
00000080: a936 62be 4a48 b73d a84b 333e cde0 b03d
00000090: c0fd bfbd e84e 963d 3053 2e3e e049 023e
000000a0: c33b 543d 5ec3 9b3d 9d14 c5bd 1595 263e
000000b0: 3c6b a63c acce 3f3e 5aa9 58bd a1d4 1cbe
000000c0: 45bd 813d 92c1 51bc 7391 263e 4494 563e
000000d0: 4224 4b3e 9422 b13d 96b3 9bbd 43e7 21be
000000e0: d52e 623e d15a f93d e3ff 133e e43c 3a3e
000000f0: 3b75 83bd 41d7 e13d 9aaa babd 5347 d9bd
00000100: d0f9 073e b71d 00bc 029b 02bd 40cb 2dbe
00000110: cc29 7ebd b067 563e 4eac 773e 0731 08be
00000120: d4ac b2bd f98a 79bd 2a72 50be c326 4a3e
00000130: b9ff 0abe 703d 8bbe e1d9 a93c 8e79 113d
00000140: b403 5bbe 5fa2 1fbe 8053 253e 8238 3e3d
00000150: 95a9 903d cc68 d03d 4ecb 4ebd b935 20bd
00000160: a8fc 933c 2133 bebd c24e bf3d 8559 26be
00000170: 3348 bc3d 2f33 90bc 27ff 10be ebc5 063e
00000180: 8643 ddbe b308 68bd 42b9 d53d 0bf9 343e
00000190: ef86 77bd 1f75 c43d 7d76 e13d 4f53 2dbe
000001a0: 9219 a1bd a9e0 94be 127c efbc ef99 c43d
000001b0: bcb9 c9bc 1c4c 293e 5d3c c63e c15d f2bd
000001c0: 377d 503e 5bb5 2b3e 6fef 67bd 0623 333d
000001d0: 668d dfbd 6235 b1be eea9 0f3e 5802 50bd
000001e0: 2f95 833c 5c79 053e 3950 b0bc ffa7 493d
000001f0: 4828 dd3c ea78 9d3d 5ff3 103e 005f 18be
00000200: 8484 913c 002c 5dbc 647d b33d e37f 313d
00000210: 84e2 9dbc 4e32 25bd 6a59 4d3d 985d 023d
00000220: df6e 8abd 8ee8 a73d 7958 55bd 8cec e1bc
00000230: c789 a8bb 64d1 2b3e 0aec a73d 3655 47bd
00000240: 73ba 7c3d 33b7 ac3d 4057 8dbb fc1c 3bbd
00000250: baae 47bc 2723 25bd 0d08 c43c 2410 f9be
00000260: b98f c9ba 9be9 8f3c 86fd 8b3d c056 643d
00000270: 4674 3fbe 94b6 39be e749 28bd c053 ac3c
00000280: f6f2 753d 1a7f a7bd b0f5 343d 78bd 1dbd
00000290: 0a6e 2f3d c664 513d 8d85 08be 6aad f23d
000002a0: 0d1a bb3c 9694 07be 6878 1bbd 811a d93c
000002b0: 18c1 d63c f3de a2bd ba12 b73d ddbf 27bc
000002c0: 4cd8 f23c 52c5 e73c aa5b 023e 7f4b d3bd
000002d0: ff2e ef3b add8 e43c 0aeb 2bbd 03f1 ce3c
000002e0: 407e db3d b231 af3d 3b6b 913d 4fe1 14be
000002f0: d685 a33c 2938 0e3e 2d7e 22bc 6de7 c53c
00000300: 550e 03be d762 5b3d 5056 a23d d792 763c
00000310: d85e db3c 37f9 27be 6ea3 0e3e c3b0 92bd
00000320: ee68 de3c 5ac0 02bd 148a c3bd 65e2 2bbc
00000330: bf90 6a3c eb45 f73b eb80 e23d 92ae 063e
00000340: 4e2e 8f3d cc22 993d 1be5 223c bf53 e4bb
00000350: 5378 21bd a05c b638 fcb3 f63c 0ffe 443d
00000360: ccf2 a13d bf3c 103d 2e1e 223e 8743 02be
00000370: 9f72 963c 92e7 613d 6f99 0dbd ae2a a83d
00000380: 6f88 8ebc 8eea 863d e322 b83d 05ef 9d3b
00000390: f3ab ca3d 19a4 523d 0b32 5abd 077b d1bd
000003a0: 3d35 3fbd bc43 c2bd 6428 1f3d f0af e83b
000003b0: 7a5a 14be 5ea9 c73c bb47 32be 1fa4 d03c
000003c0: b17b 61bd de34 fa3d 1538 db3c c8a9 113d
000003d0: 3b8f 1e3b 4311 963b e259 85bd fac9 24bd
000003e0: 15cc 093e b34e 983d 38a0 09bd cb01 4fbe
000003f0: ad38 7ebc 872b 083d 62db 493d 9af0 8c3d

action_model._discrete_distribution.branches.1.bias f4 [3]
-0.03432049 -0.010716244 0.044546943
00000000: a493 0cbd 2f93 2fbc db76 363d

action_model._discrete_distribution.branches.2.weight f4 [3, 128]
-0.14202707 0.04382732 -0.083177 -0.1237547 -0.016228124 -0.06626714 0.117199324 -0.257303
0.03501676 0.06949961 -0.04083067 -0.03641614 -0.13552113 0.104877904 0.15796115 -0.22917913
-0.15307556 -0.16325074 -0.06660594 0.0089209275 -0.23286463 0.11698579 0.03150349 -0.17346318
0.1498836 0.12400827 0.028110528 0.043953154 -0.15412174 -0.11712449 -0.30797827 -0.056320824
0.11391126 0.11261923 -0.33645642 -0.22368145 -0.20102337 -0.16384524 0.049025416 -0.02688112
0.073112175 0.11584385 -0.0367825 -0.045038756 -0.019368641 0.17527564 -0.31381825 0.11077093
-0.047095418 0.046241857 -0.10229183 -0.014590635 0.042594872 -0.105821475 0.18706818 -0.0669403
-0.21337105 0.034314524 0.055008512 -0.10063286 -0.16359319 0.099782236 -0.22697268 0.016125727
0.25324786 0.17987418 0.053067528 -0.004471844 0.014188604 -0.26538786 0.24823135 -0.018761015
0.12156371 0.074396625 0.10356507 -0.027121114 -0.014498578 0.010346251 0.060996924 0.06845628
-0.036734004 -0.03917168 0.04915177 -0.109495975 0.095951244 -0.1402445 -0.11138415 -0.16489382
0.01578064 -0.0075268024 -0.08828141 -0.060833637 -0.046021875 0.18640941 0.071245894 -0.073479354
0.07627774 -0.038571667 0.0031404572 0.005662756 -0.10183174 -0.26137775 0.010051474 0.108671255
-0.32655278 0.16361558 -0.47096118 -0.12301739 -0.073460154 -0.100391835 0.0048973192 -0.050155118
0.09127884 -0.03781359 -0.028262526 0.043801866 0.025733419 0.10262567 -0.0005127916 -0.058456767
0.008329528 0.021462109 -0.03790112 0.054135256 -0.22556254 -0.21197456 -0.20233618 -0.010163072
-0.010376188 0.04644696 -0.021596488 0.051087685 0.04254669 0.060697313 0.0048332014 0.2626063
-0.018955313 -0.022062419 -0.000372359 0.15290898 0.03299717 -0.03922669 0.0035969045 0.10901765
0.03871372 0.064573735 0.00840699 -0.02586337 0.08656116 -0.04537183 0.06101685 0.04339826
-0.014010313 -0.120803334 0.027139453 0.044887986 0.0791226 0.06181873 0.038723655 0.065549016
-0.03354957 -0.10881695 0.031908322 0.1582109 0.03606606 0.09493113 0.03234438 -0.027891682
0.010663579 -0.05704862 0.025212867 0.02719086 0.021613492 0.019593671 0.049775288 0.0072194436
-0.0023294648 0.066238284 0.06374562 -0.071689844 0.02139054 -0.0055323793 -0.05032137 0.07549844
0.11227171 0.073778555 -0.21244115 0.075220905 -0.0179009 -0.0059194663 0.054107882 -0.03350467
-0.01576469 -0.02066534 -0.042159587 0.013956317 0.0065506934 0.12244836 -0.2628125 -0.0119972965
0.017371595 0.003964652 -0.012334364 0.0035750691 0.0322431 0.047626562 -0.011215482 0.01241421
0.043937724 0.012065912 -0.023680868 -0.0045414036 -0.050466932 0.092830025 0.014196682 0.034630645
-0.0326419 0.048312634 0.012719764 0.12513433 0.061632816 -0.032977186 0.07329725 0.037391163
0.041334968 -0.00909686 -0.022987928 -0.07565758 0.09202954 0.123409785 0.045695934 -0.024496984
0.11136863 0.0022910668 0.11523472 0.07597363 -0.005223684 -0.01611909 -0.060580615 0.081964426
0.020599445 0.030503564 0.07001336 -0.0186229 0.05908756 0.0052655684 0.029226389 -0.043008596
-0.16688079 -0.053246457 0.05263841 0.042681992 0.046830352 0.018134108 0.055436075 0.040064793
00000000: 8b6f 11be 4784 333d b458 aabd 1b73 fdbd
00000010: d8f0 84bc 11b7 87bd 3306 f03d 38bd 83be
00000020: bc6d 0f3d d055 8e3d 103e 27bd 1729 15bd
00000030: 0dc6 0abe 3aca d63d 91c0 213e efad 6abe
00000040: d7bf 1cbe 342b 27be b268 88bd 1529 123c
00000050: 1174 6ebe 3f96 ef3d ce09 013d 55a0 31be
00000060: 167b 193e 0cf8 fd3d 0d48 e63c 3908 343d
00000070: 17d2 1dbe f7de efbd 54af 9dbe aab0 66bd
00000080: 4f4a e93d e9a4 e63d 0444 acbe c00c 65be
00000090: 12d9 4dbe 0cc7 27be e0ce 483d cb35 dcbc
000000a0: d6bb 953d 8a3f ed3d 3fa9 16bd 8f7a 38bd
000000b0: fcaa 9ebc 757b 333e c9ac a0be dfdb e23d
000000c0: 20e7 40bd 1a68 3d3d 617e d1bd 8f0d 6fbc
000000d0: f677 2e3d eeb8 d8bd cd8e 3f3e ff17 89bd
000000e0: f17d 5abe 638d 0c3d 9b50 613d 9a18 cebd
000000f0: f984 27be a15a cc3d 876b 68be 1a1a 843c
00000100: b4a9 813e f030 383e 565d 593d 8c88 92bb
00000110: 5277 683c ebe0 87be 5c30 7e3e b3b0 99bc
00000120: 65f6 f83d 425d 983d ec19 d43d 192d debc
00000130: 728b 6dbc 5283 293c e9d7 793d ce32 8c3d
00000140: 6576 16bd 7c72 20bd 5e53 493d 6d3f e0bd
00000150: 1682 c43d 419c 0fbe 601d e4bd edd9 28be
00000160: 6746 813c 65a3 f6bb e2cc b4bd b12c 79bd
00000170: 6f81 3cbd 1ce2 3e3e 5ee9 913d 587c 96bd
00000180: 8137 9c3d 53fd 1dbd 21d0 4d3b a48e b93b
00000190: 298d d0bd 4ed3 85be f0ae 243c 098f de3d
000001a0: ed31 a7be d88a 273e d321 f1be 8bf0 fbbd
000001b0: 4772 96bd 3c9a cdbd b179 a03b 746f 4dbd
000001c0: 67f0 ba3d 6ce2 1abd d086 e7bc 9669 333d
000001d0: e4ce d23c 682d d23d dd6c 06ba 5d70 6fbd
000001e0: 9378 083c 4ed1 af3c 343e 1bbd eebc 5d3d
000001f0: def9 66be dc0f 59be 3731 4fbe 0383 26bc
00000200: e300 2abc 2b3f 3e3d 1eeb b0bc 5241 513d
00000210: 7045 2e3d bf9d 783d d55f 9e3b 5574 863e
00000220: 2c48 9bbc 3fbc b4bc 2e39 c3b9 2c94 1c3e
00000230: 0a28 073d 2aac 20bd 0bba 6b3b a544 df3d
00000240: 4792 1e3d 3c3f 843d 79bd 093c 6bdf d3bc
00000250: fa46 b13d d0d7 39bd ceec 793d 60c2 313d
00000260: 838b 65bc bd67 f7bd 8f53 de3c 77dc 373d
00000270: 080b a23d a335 7d3d b29c 1e3d 903e 863d
00000280: 466b 09bd 6cdb debd 4db2 023d 0a02 223e
00000290: 01ba 133d 416b c23d 8a7b 043d 197d e4bc
000002a0: 4bb6 2e3c d0ab 69bd 378b ce3c 5ebf de3c
000002b0: c70e b13c e882 a03c 2ce1 4b3d 1591 ec3b
000002c0: efa9 18bb f0a7 873d 108d 823d 20d2 92bd
000002d0: 373b af3c f648 b5bb c81d 4ebd ed9e 9a3d
000002e0: b6ee e53d 3619 973d 2c8a 59be 6b0d 9a3d
000002f0: e9a4 92bc 15f8 c1bb 3aa0 5d3d 313c 09bd
00000300: f324 81bc 5c4a a9bc 88af 2cbd 09a9 643c
00000310: 33a7 d63b 35c6 fa3d 5c8f 86be 4f90 44bc
00000320: e04e 8e3c e9e9 813b 1216 4abc b54b 6a3b
00000330: 5711 043d 1214 433d 24c1 37bc f864 4b3c
00000340: 0bf8 333d 1ab0 453c 61fe c1bc 0ed0 94bb
00000350: 6ab6 4ebd ab1d be3d 3399 683c ddd8 0d3d
00000360: 83b3 05bd 78e3 453d 8f66 503c 3723 003e
00000370: b172 7c3d 1613 07bd de1c 963d 7a27 193d
00000380: db4e 293d ff0a 15bc 2e51 bcbc 5cf2 9abd
00000390: fc79 bc3d 45be fc3d a92b 3b3d e6ad c8bc
000003a0: 3c15 e43d b925 163b 2e00 ec3d 1098 9b3d
000003b0: 702b abbb 2f0c 84bc 6123 78bd f7dc a73d
000003c0: 2bc0 a83c 9ce2 f93c 2a63 8f3d 0d8f 98bc
000003d0: cc05 723d ca8a ac3b 2e6c ef3c c829 30bd
000003e0: cce2 2abe f518 5abd 609b 573d 50d3 2e3d
000003f0: 2fd1 3f3d fb8d 943c f010 633d fb1a 243d

action_model._discrete_distribution.branches.2.bias f4 [3]
-0.10492089 0.09926224 -0.011121971
00000000: c3e0 d6bd 004a cb3d ed38 36bc
