ArmRobot/Assets/Config/results/TFM-Brazo-Mesa-Tercero-2/AgenteRobot/AgenteRobot-499999.onnx (onnx, 147394 bytes, 25 tensors)

discrete_act_size_vector f4 [1, 8]
3.0 3.0 3.0 3.0 3.0 3.0 3.0 3.0
00000000: 0000 4040 0000 4040 0000 4040 0000 4040
00000010: 0000 4040 0000 4040 0000 4040 0000 4040

network_body.observation_encoder.processors.0.normalizer.running_mean f4 [86]
0.0 0.0 0.0 0.0 0.0 0.0 0.999967 6.554086e-07
0.086051345 -1.2393556e-07 5.1345435e-08 -0.5702126 1.0823336e-08 0.6638947 0.041836314 0.1518935
-0.0030192079 0.21192946 -0.51185364 -0.21322337 0.5989399 0.04250503 0.30977654 0.11733631
0.35320374 -0.42082047 -0.3696357 0.5008585 0.011989656 0.3384651 0.22452205 -0.027619133
-0.58180684 -0.49262917 0.016492443 0.0076316777 0.31797856 0.25278035 -0.048488762 -0.53059834
-0.4445178 0.0015156941 0.0025410468 0.2958843 0.274121 -0.026262702 -0.48284593 -0.4512651
0.02064423 -0.0020528098 0.268699 0.3003942 0.019990234 0.0018254007 -0.67108995 -0.010900952
-0.01079545 0.19799176 0.30039158 0.019990234 0.0018253928 -0.67108995 -0.01090096 -0.004680419
0.19756052 0.29671857 0.019990236 0.0018253924 -0.67108995 -0.01090096 0.046919804 0.65016955
-0.091756806 0.8297736 0.1069847 0.75104934 -0.039935216 0.6764391 0.094691135 0.6546688
0.13630906 0.6787075 0.10447619 0.51193625 0.07627401 -0.19241807
00000000: 0000 0000 0000 0000 0000 0000 0000 0000
00000010: 0000 0000 0000 0000 d6fd 7f3f 56ef 2f35
00000020: b03b b03d 2613 05b4 e786 5c33 74f9 11bf
00000030: 89f1 3932 01f5 293f 8e5c 2b3d f889 1b3e
00000040: e7dd 45bb 0904 593e d708 03bf 3a57 5abe
00000050: 2054 193f c119 2e3d 089b 9e3e 054e f03d
00000060: 1fd7 b43e c875 d7be e440 bdbe 4338 003f
00000070: 4370 443c 4c4b ad3e 1ce9 653e 8541 e2bc
00000080: 4bf1 14bf e439 fcbe 291b 873c 2713 fa3b
00000090: 16ce a23e 6d6c 813e 279c 46bd 4bd5 07bf
000000a0: d697 e3be 41aa c63a b187 263b 267e 973e
000000b0: 9659 8c3e e124 d7bc 9537 f7be 380c e7be
000000c0: 171e a93c 6f88 06bb ea92 893e 45cd 993e
000000d0: 8fc2 a33c 4942 ef3a 8dcc 2bbf e899 32bc
000000e0: 66df 30bc 5abe 4a3e edcc 993e 8fc2 a33c
000000f0: 0542 ef3a 8dcc 2bbf f199 32bc 335e 99bb
00000100: 4e4d 4a3e 7feb 973e 90c2 a33c 0142 ef3a
00000110: 8dcc 2bbf f199 32bc fb2e 403d 8371 263f
00000120: feea bbbd 0b6c 543f cb1a db3d c544 403f
00000130: 1c93 23bd 1d2b 2d3f 6ded c13d 6098 273f
00000140: 9a94 0b3e c6bf 2d3f 9df7 d53d 410e 033f
00000150: 8c35 9c3d 3e09 45be

network_body.observation_encoder.processors.1.normalizer.running_mean f4 [29]
0.0 0.42695925 0.17637601 0.6691764 0.13557969 0.20757975 0.49873734 0.74843186
0.33616602 0.501706 0.6282102 0.6731862 0.48592597 0.0 0.0 0.0
0.0 0.0 0.0 0.0 0.0 0.0 0.6460699 0.4941482
0.4426335 0.61705166 0.49427798 0.4828269 0.49145
00000000: 0000 0000 679a da3e ea9b 343e 254f 2b3f
00000010: 67d5 0a3e c98f 543e 805a ff3e 3b99 3f3f
00000020: f41d ac3e ce6f 003f 62d2 203f ee55 2c3f
00000030: 4acb f83e 0000 0000 0000 0000 0000 0000
00000040: 0000 0000 0000 0000 0000 0000 0000 0000
00000050: 0000 0000 0000 0000 d664 253f fe00 fd3e
00000060: dca0 e23e 19f7 1d3f 0112 fd3e 1635 f73e
00000070: 569f fb3e

network_body._body_endoder.seq_layers.0.weight f4 [128, 115]
-0.079869285 0.16099872 0.15751359 0.017573182 -0.098778956 0.06000317 0.068669476 0.026642632
0.08348491 -0.004821194 -0.07441578 0.045240868 -0.04967786 0.16742706 0.12531683 -0.09694375
0.10107651 0.052053377 0.07903635 -0.20831253 0.13641693 0.06812514 -0.034341656 0.10319692
0.10938893 -0.07864323 -0.056369003 0.19744256 0.14728278 -0.029316902 0.19513173 0.10090183
0.06341186 0.07810108 0.15190053 0.15823038 -0.026413986 0.13954777 -0.057336234 -0.1790422
-0.15371735 0.023438118 0.11470165 0.17744447 -0.08899079 0.0037835846 -0.12479846 0.046509963
0.1237041 0.29161766 -0.18780863 0.047574684 -0.17260368 0.06704681 -0.16196099 -0.09371909
0.2522666 -0.11562198 0.119878784 -0.17067252 0.054128766 -0.06701924 -0.14397298 0.08655518
-0.043295305 0.006877074 -0.11563737 0.067301266 -0.0672314 -0.042682536 0.032854926 0.04285708
-0.19248 0.21961306 -0.10227546 0.10775626 0.00683262 -0.16347234 0.092478685 0.06913389
-0.14391331 -0.06544731 -0.24176635 0.07442155 0.14289606 -0.013311212 -0.07371013 -0.20221423
0.21330923 -0.15036713 -0.16054699 0.12913837 -0.015223411 0.013848524 -0.17517194 -0.33765972
-0.06457666 0.049865507 0.3110235 0.054128487 0.07562956 -0.037506964 0.033752993 0.20759661
-0.11951047 0.070963465 -0.035169728 -0.055224575 0.085375614 0.021160873 0.20655455 -0.23107468
0.15286703 0.20041683 0.1027984 0.09693907 0.022762613 0.060118563 0.15938967 -0.0755674
-0.12412062 0.050231494 0.03728964 0.10265306 0.17337573 -0.08584697 -0.18440746 -0.09124847
-0.011709801 -0.062459145 0.059510566 0.090108775 0.014600414 -0.1362037 0.016551927 -0.08445893
-0.09623666 0.22331452 -0.006248885 -0.05563933 -0.118576124 0.1122437 -0.051703654 0.065010235
0.04877749 0.053500168 0.072288856 -0.08140678 -0.1015504 0.095039554 -0.19466384 -0.027689695
-0.011089025 0.002594135 0.061980322 -0.039066292 -0.108748674 -0.11016904 0.093319565 0.07139312
-0.0049482626 -0.07122654 -0.10006582 -0.12584691 -0.123056896 -0.15702228 0.032390177 -0.037082992
-0.056526072 -0.08549125 -0.04393686 -0.23184249 -0.04985268 -0.100655764 0.031719644 -0.02159071
-0.020702578 -0.101130374 -0.07804354 0.20162317 -0.13029279 0.10391882 0.15295063 0.032686993
-0.015466975 -0.11456284 0.06178225 0.0053638318 -0.0013211707 -0.12289394 0.15839846 0.22067566
-0.017388558 -0.042803463 0.14400446 -0.16399725 0.05585479 -0.052590016 0.12058773 -0.09991549
0.33853653 -0.037338182 0.26112086 0.055281363 -0.09448876 0.003898796 0.03033374 0.04049874
-0.012440266 -0.0045964266 0.022900393 0.037810374 -0.0058666253 -0.06953389 -0.026803697 0.009313832
0.078581996 -0.093147464 0.04447576 -0.07763398 0.10950993 0.0035307358 -0.18578085 0.072146714
0.1240248 -0.013239697 0.18939573 0.23959479 0.19516486 0.11841228 0.09858011 -0.06478428
0.0074771484 -0.15046537 -0.114561185 -0.14160416 0.073946305 0.17122763 0.008106768 0.07273385
-0.04708444 0.0025713162 0.09398347 0.06572141 -0.022475546 0.31549573 -0.0059313714 -0.18860573
-0.037806522 0.07286195 -0.02143056 -0.06300267 -0.13427407 -0.042360105 0.079686284 -0.06909113
00000000: 8292 a3bd d9dc 243e 3e4b 213e a2f5 8f3c
00000010: 9f4c cabd e2c5 753d 95a2 8c3d a641 da3c
00000020: 23fa aa3d 1bfb 9dbb 4d67 98bd 7d4e 393d
00000030: 037b 4bbd 0072 2b3e 0e53 003e 728a c6bd
00000040: 3401 cf3d ec35 553d cfdd a13d e14f 55be
00000050: e1b0 0b3e 3285 8b3d d6a9 0cbd e858 d33d
00000060: 4e07 e03d b40f a1bd 2fe3 66bd 622e 4a3e
00000070: 4cd1 163e 002a f0bc 9dd0 473e 9ea5 ce3d
00000080: 14de 813d 76f3 9f3d d08b 1b3e 2507 223e
00000090: 2562 d8bc 9ce5 0e3e 66d9 6abd d756 37be
000000a0: 1568 1dbe 4c01 c03c b3e8 ea3d 01b4 353e
000000b0: ce40 b6bd 04f6 773b 5696 ffbd 3b81 3e3d
000000c0: 9358 fd3d e94e 953e e850 40be acdd 423d
000000d0: 05bf 30be d74f 893d 1ad9 25be cbef bfbd
000000e0: 1629 813e 37cb ecbd 0283 f53d c7c4 2ebe
000000f0: 20b6 5d3d 6241 89bd a76d 13be d843 b13d
00000100: 6b56 31bd 1459 e13b 49d3 ecbd 3fd5 893d
00000110: 9eb0 89bd e2d3 2ebd e392 063d e88a 2f3d
00000120: 7a19 45be 3fe2 603e cc75 d1bd 50af dc3d
00000130: 2ce4 df3b 4b65 27be 7765 bd3d 1296 8d3d
00000140: 035e 13be 3d09 86bd 9991 77be 536a 983d
00000150: 5853 123e 4517 5abc 56f5 96bd 3f11 4fbe
00000160: bc6d 5a3e d7f9 19be 6e66 24be d93c 043e
00000170: 9d6b 79bc ebe4 623c 4660 33be bce1 acbe
00000180: c540 84bd c63f 4c3d 793e 9f3e d5b5 5d3d
00000190: ace3 9a3d e7a0 19bd 9440 0a3d 3594 543e
000001a0: e8c1 f4bd 4b55 913d 220e 10bd 2a33 62bd
000001b0: 69d9 ae3d 9159 ad3c 0983 533e d79e 6cbe
000001c0: 2d89 1c3e 123a 4d3e f887 d23d fe87 c63d
000001d0: a978 ba3c e23e 763d 0c37 233e 15c3 9abd
000001e0: f432 febd 8abf 4d3d 06bd 183d c43b d23d
000001f0: 6889 313e 89d0 afbd 4fd5 3cbe 7ae0 babd
00000200: 77da 3fbc 29d5 7fbd 5ac1 733d f38a b83d
00000210: 9336 6f3c fc78 0bbe e897 873c cef8 acbd
00000220: ba17 c5bd 90ac 643e 72c3 ccbb 11e6 63bd
00000230: 0ad8 f2bd 06e0 e53d 36c7 53bd 1624 853d
00000240: e8ca 473d fe22 5b3d 2e0c 943d 99b8 a6bd
00000250: a8f9 cfbd 19a4 c23d f555 47be 80d5 e2bc
00000260: beae 35bc 5d02 2a3b 14df 7d3d fa03 20bd
00000270: a0b7 debd 4ea0 e1bd 541e bf3d 8e36 923d
00000280: 0925 a2bb 38df 91bd 4fef ccbd 03de 00be
00000290: 4105 fcbd 73ca 20be 90ab 043d 56e4 17bd
000002a0: e287 67bd 0916 afbd 23f7 33bd 1e68 6dbe
000002b0: 5332 4cbd 9c24 cebd 75ec 013d 00df b0bc
000002c0: 7498 a9bc 711d cfbd 4bd5 9fbd 4e76 4e3e
000002d0: 796b 05be 64d3 d43d 179f 1c3e cce2 053d
000002e0: 3269 7dbc ec9f eabd 620f 7d3d 15c3 af3b
000002f0: 222b adba d1af fbbd 3533 223e cdf8 613e
00000300: 7372 8ebc af52 2fbd e875 133e e5ee 27be
00000310: fec7 643d a168 57bd b3f6 f63d 7ea0 ccbd
00000320: a954 ad3e ecef 18bd a2b1 853e b66e 623d
00000330: 5383 c1bd f182 7f3b 777e f83c 02e2 253d
00000340: 42d2 4bbc 9f9d 96bb 9b99 bb3c 0ddf 1a3d
00000350: d23c c0bb c967 8ebd 6d93 dbbc 0b99 183c
00000360: 99ef a03d 19c4 bebd 372c 363d 90fe 9ebd
00000370: be46 e03d eb63 673b 563d 3ebe a8c1 933d
00000380: b700 fe3d 50eb 58bc f4f0 413e 5658 753e
00000390: 4cd9 473e 2382 f23d 5ee4 c93d 9fad 84bd
000003a0: de02 f53b 9813 1abe 0e9f eabd ae00 11be
000003b0: 2971 973d 4c56 2f3e 40d2 043c 7cf5 943d
000003c0: 9ddb 40bd 8783 283b 687a c03d f298 863d
000003d0: a31e b8bc a888 a13e f35b c2bb dc21 41be
000003e0: 03db 1abd a538 953d 248f afbc 8b07 81bd
000003f0: 247f 09be ca81 2dbd 9032 a33d a67f 8dbd

network_body._body_endoder.seq_layers.0.bias f4 [128]
0.06723638 0.023937605 0.006534452 -0.010335891 0.07163058 0.072663344 0.00849579 0.0062529943
0.070937775 0.025892984 0.029394096 0.06900962 0.052438688 0.091527015 0.035751734 0.010784007
0.059745774 0.069691755 0.07619356 0.12096741 -0.0006365107 0.04370017 0.023209237 0.025658956
0.04363899 0.0043147183 0.008492221 0.01050408 0.040088605 0.081797205 -0.0113812005 0.07608409
0.019857079 0.03462871 0.06374545 0.021927003 -0.02170722 0.038612258 0.057094797 0.045969576
-0.0013254767 0.043332797 0.04986424 0.065532185 0.12804577 0.018917158 -0.0010632471 0.017318375
0.038673665 0.017542383 -0.010165935 0.031098187 0.005558384 -0.008835178 0.056422755 0.010516365
-0.02199808 0.09978807 0.0525084 0.0013264285 0.01750787 0.007841842 0.024669515 0.012139041
0.017943462 0.04452041 0.01637283 0.01166304 -0.008534192 -0.0020027638 0.11247089 0.028810274
0.023894694 0.08851669 0.093450025 0.0067037605 0.03743285 0.056593727 0.06267615 0.06779239
0.043933373 0.025484828 0.078014486 -0.019809451 0.02721718 0.10607769 0.048104394 0.008600418
0.056264088 0.029730057 0.044682212 0.0355763 0.050068166 -0.026656542 0.045696445 0.0625135
0.105121225 0.00014638358 0.08984118 0.066677585 -0.00793062 -0.009423054 0.09299371 0.018265096
-0.0016817702 0.03411733 0.043631878 0.03562285 0.038807232 0.058401976 0.020527093 0.01799249
0.013397128 -0.005774885 0.027875323 0.061088428 0.06057516 0.029121473 0.06291375 -0.0027766149
0.019943457 0.04066534 -0.009222427 0.07757474 0.030919945 -0.024624595 -0.03388966 0.041452497
00000000: 3ab3 893d cc18 c43c f51e d63b de57 29bc
00000010: 0eb3 923d 85d0 943d ed31 0b3c ebe5 cc3b
00000020: d347 913d 861d d43c e3cb f03c ea54 8d3d
00000030: f3c9 563d 8472 bb3d 6970 123d 67af 303c
00000040: fcb7 743d 8dba 8e3d 5f0b 9c3d c3bd f73d
00000050: 83db 26ba f3fe 323d 4c21 be3c bb32 d23c
00000060: ccbe 323d 7b62 8d3b f522 0b3c 4e19 2c3c
00000070: f333 243d 4b85 a73d 3778 3abc fad1 9b3d
00000080: 50ab a23c d6d6 0d3d f98c 823d 42a0 b33c
00000090: 57d3 b1bc e327 1e3d 3cdc 693d 984a 3c3d
000000a0: 9ebb adba bb7d 313d 723e 4c3d bd35 863d
000000b0: 6e1e 033e 28f8 9a3c a75c 8bba 44df 8d3c
000000c0: 4768 1e3d 0bb5 8f3c 068f 26bc a0c1 fe3c
000000d0: 1b23 b63b 6cc1 10bc 8c1b 673d d54c 2c3c
000000e0: 5135 b4bc b05d cc3d 0c13 573d 8edb ad3a
000000f0: aa6c 8f3c 127b 003c b917 ca3c d4e2 463c
00000100: 2bfe 923c 095b 363d 5020 863c 5616 3f3c
00000110: ffd2 0bbc cd40 03bb 2357 e63d 8603 ec3c
00000120: cebe c33c 3d48 b53d ba62 bf3d 38ab db3b
00000130: 3053 193d d3ce 673d 5a5c 803d bdd6 8a3d
00000140: 7bf3 333d 8fc5 d03c 0fc6 9f3d 6e47 a2bc
00000150: 90f6 de3c 433f d93d 1d09 453d c5e8 0c3c
00000160: 2c75 663d 738c f33c b204 373d 74b8 113d
00000170: 4714 4d3d d25e dabc 322c 3b3d 1407 803d
00000180: cc49 d73d 8b7e 1939 a7fe b73d 428e 883d
00000190: 6eef 01bc 2763 1abc 7c73 be3d afa0 953c
000001a0: d86e dcba 9dbe 0b3d 57b7 323d 44e9 113d
000001b0: 55f4 1e3d e936 6f3d 6f28 a83c fd64 933c
000001c0: a17f 5b3c 3f3b bdbb ca5a e43c dc37 7a3d
000001d0: a91d 783d 2890 ee3c edd8 803d def7 35bb
000001e0: 7660 a33c b390 263d aa19 17bc 81df 9e3d
000001f0: d34b fd3c 85b9 c9bc e2cf 0abd 18ca 293d

network_body._body_endoder.seq_layers.2.weight f4 [128, 128]
-0.09487236 0.056556996 0.18103191 0.09636332 -0.18531197 0.048109274 -0.057296842 0.24661914
0.09691352 -0.14971188 0.028830199 0.13515444 0.042834226 -0.21461003 -0.18604168 -0.012251775
0.1740746 0.09920484 -0.049772363 -0.06806382 -0.09822427 0.06819726 0.08960726 -0.053807408
-0.06563329 0.0031742437 0.054129053 0.07443712 0.074871026 -0.008252954 0.22551621 -0.20984112
0.1245302 0.07602308 -0.050707508 0.024105448 0.030875437 -0.06427447 0.07982853 -0.07196586
0.018659184 0.27148852 -0.021838365 0.05012342 -0.20715967 -0.121587284 0.018662805 -0.009111942
-0.059466466 -0.0064840275 0.060269605 0.019542815 0.017530186 0.16844487 0.04620616 -0.21463871
0.08510832 -0.058239583 0.08944334 0.029755173 0.0024493493 0.025229044 0.09351162 -0.009166558
0.030663779 -0.0037564836 0.06761661 0.08366965 0.049412187 0.015041312 -0.16357253 0.03616311
0.056168895 0.1143278 0.10119704 0.03652845 0.0011393598 -0.06958864 -0.08195802 0.09930488
-0.07360873 0.1440006 0.06532946 -0.0106967185 0.1639255 -0.12912068 0.028076617 0.1455535
-0.014195872 0.12686077 0.072503395 -0.26537055 0.102162644 0.10626745 0.06754166 -0.18467304
-0.095159225 -0.014849608 -0.1958622 -0.0020935612 0.08879048 -0.016814506 -0.078440115 -0.107304454
-0.077032946 -0.11070806 0.35148263 -0.11338245 -0.021766778 -0.043418072 -0.022727182 0.11635238
-0.10683148 0.19075339 0.07039269 -0.002126807 -0.13253437 -0.058429755 0.00032759787 -0.11877766
-0.02601666 -0.09672406 0.09697649 -0.087354735 -0.2537666 0.111440934 -0.00839229 0.11599698
-0.0037810847 0.059232194 -0.28659543 0.09590174 -0.014096895 0.12543756 -0.04535206 -0.19596022
0.08940916 0.076916404 0.019909402 0.02758491 0.24963456 0.04271838 -0.09619307 -0.12491604
0.16163713 0.2386335 0.17188343 0.10185939 -0.13996567 -0.13981593 -0.19517264 -0.10299551
0.037781145 -0.03127468 -0.047609046 -0.038981803 0.2188229 0.19600403 -0.039342877 0.057833675
-0.11584671 -0.03035002 -0.10192476 0.06898691 0.047927015 -0.00074778794 0.19493607 0.055162307
-0.1294443 -0.007859205 0.10053944 0.09702558 0.087224625 -0.05906757 -0.05780939 0.08852872
0.14081953 -0.0232491 -0.1378473 -0.12598825 0.042199966 -0.05319375 0.009141858 0.16844447
0.08202686 0.10253288 0.1860163 -0.013541886 -0.1843334 -0.18005398 -0.0102940155 -0.038085148
-0.035515204 0.0047040256 0.04614843 0.2748752 -0.11727817 0.0720936 -0.028755605 -0.14708015
0.10460952 0.1046303 0.33855507 0.022475898 0.011781156 0.2615222 0.1299334 0.25922266
0.03141063 -0.05942613 0.20028749 -0.047909938 -0.17335959 0.13079663 -0.010734611 -0.046430565
-0.015235354 0.07704923 -0.12277139 -0.005538132 -0.05634204 0.0133446595 -0.019282237 -0.07738625
-0.07511397 0.0081737945 -0.16174515 0.18959996 -0.036480438 -0.010153274 -0.082795635 -0.026738157
-0.12377395 -0.032145552 0.17101616 -0.1605759 0.15982471 0.057459775 0.1568646 -0.16476513
-0.19537733 -0.016375573 0.087974966 -0.18460557 0.085160345 -0.038965367 -0.07451358 0.13848928
-0.15096572 0.21518727 0.06389072 0.01789541 0.19597451 0.13614197 -0.08963019 -0.20100406
00000000: 714c c2bd 4fa8 673d 6e60 393e 225a c53d
00000010: 6cc2 3dbe 3b0e 453d 18b0 6abd ba89 7c3e
00000020: 987a c63d 124e 19be 4f2d ec3c ed65 0a3e
00000030: f172 2f3d bbc2 5bbe b681 3ebe abbb 48bc
00000040: 9d40 323e e82b cb3d 1bde 4bbd 0b65 8bbd
00000050: ce29 c9bd 01ab 8b3d 0384 b73d 2865 5cbd
00000060: bf6a 86bd f906 503b 6db6 5d3d 7d72 983d
00000070: fb55 993d 6637 07bc b9ed 663e 97e0 56be
00000080: b109 ff3d fdb1 9b3d adb2 4fbd ca78 c53c
00000090: 7cee fc3c 55a2 83bd 247d a33d d662 93bd
000000a0: 25db 983c 8b00 8b3e 5fe6 b2bc 374e 4d3d
000000b0: aa21 54be c102 f9bd bde2 983c 414a 15bc
000000c0: 1c93 73bd f777 d4bb 43dd 763d 4118 a03c
000000d0: 779b 8f3c d07c 2c3e ac42 3d3d 40ca 5bbe
000000e0: 454d ae3d a18c 6ebd 122e b73d 1fc1 f33c
000000f0: 4385 203b 24ad ce3c 0583 bf3d 552f 16bc
00000100: 9b32 fb3c 562f 76bb 947a 8a3d fe5a ab3d
00000110: 6f64 4a3d d66f 763c 8f7f 27be c51f 143d
00000120: 5b11 663d b224 ea3d 6540 cf3d db9e 153d
00000130: 9256 953a 7d84 8ebd 9bd9 a7bd 5b60 cb3d
00000140: 2dc0 96bd e574 133e 74cb 853d 4a41 2fbc
00000150: 16dc 273e 3638 04be ef00 e63c fa0b 153e
00000160: cd95 68bc cae7 013e a97c 943d a6de 87be
00000170: a63a d13d c0a2 d93d 4853 8a3d ee1a 3dbe
00000180: d7e2 c2bd c54b 73bc 1a90 48be 2134 09bb
00000190: c8d7 b53d 93be 89bc 36a5 a0bd 70c2 dbbd
000001a0: 73c3 9dbd e8ba e2bd 88f5 b33e 0f35 e8bd
000001b0: 3e50 b2bc 26d7 31bd 5b2e babc 284a ee3d
000001c0: 77ca dabd db54 433e 0b2a 903d e761 0bbb
000001d0: 17b7 07be 0a54 6fbd 71c1 ab39 b441 f3bd
000001e0: e420 d5bc 4417 c6bd 9c9b c63d 0ae7 b2bd
000001f0: b2ed 81be 253b e43d d17f 09bc d38f ed3d
00000200: 13cc 77bb 759d 723d a3bc 92be 2268 c43d
00000210: aaf6 66bc b472 003e 15c3 39bd cca9 48be
00000220: 261c b73d 5986 9d3d 0b19 a33c c0f9 e13c
00000230: 34a0 7f3e 78f9 2e3d df00 c5bd fbd3 ffbd
00000240: 3484 253e 575c 743e 3602 303e a89b d03d
00000250: 2953 0fbe e82b 0fbe 56db 47be 4fef d2bd
00000260: 67c0 1a3d e119 00bd b401 43bd 62ab 1fbd
00000270: 1c13 603e 48b5 483e ff25 21bd 01e3 6c3d
00000280: 0a41 edbd 9ba0 f8bc eebd d0bd 0249 8d3d
00000290: 1e4f 443d 3307 44ba 529d 473e dff1 613d
000002a0: 0c8d 04be e5c3 00bc 9fe7 cd3d 59b5 c63d
000002b0: d3a2 b23d d6f0 71bd 8ac9 6cbd 8c4e b53d
000002c0: ff32 103e e674 bebc d827 0dbe 1003 01be
000002d0: dfd9 2c3d b1e1 59bd bbc7 153c b57c 2c3e
000002e0: b3fd a73d c2fc d13d 0f7b 3e3e c9de 5dbc
000002f0: e5c1 3cbe 1260 38be 3ba8 28bc 2cff 1bbd
00000300: 6478 11bd 3a24 9a3b 2306 3d3d 71bc 8c3e
00000310: 8a2f f0bd cfa5 933d e090 ebbc 2e9c 16be
00000320: 843d d63d 6948 d63d 1757 ad3e 601f b83c
00000330: c005 413c 3de6 853e 430d 053e d5b8 843e
00000340: 6fa8 003d d068 73bd 2a18 4d3e 363d 44bd
00000350: 2d85 31be 8def 053e 39e0 2fbc fa2d 3ebd
00000360: b59d 79bc fdcb 9d3d 916f fbbd 3879 b5bb
00000370: e9c6 66bd 8fa3 5a3c c8f5 9dbc af7c 9ebd
00000380: 5ad5 99bd 61eb 053c 85a0 25be 7e26 423e
00000390: 836c 15bd eb59 26bc c290 a9bd fb09 dbbc
000003a0: 327d fdbd 0eab 03bd dc1e 2f3e 026e 24be
000003b0: 17a9 233e f15a 6b3d 1da1 203e 31b8 28be
000003c0: ff10 48be 1126 86bc 382c b43d 3e09 3dbe
000003d0: 8c68 ae3d 269a 1fbd 939a 98bd 22d0 0d3e
000003e0: c296 1abe 0d5a 5c3e 23d9 823d 6599 923c
000003f0: 8bad 483e cd68 0b3e 0890 b7bd 02d4 4dbe

network_body._body_endoder.seq_layers.2.bias f4 [128]
0.006485839 0.08748079 0.0010081986 0.00042005628 0.0032846143 0.023077333 0.004280481 -0.018953484
-0.04439312 0.052255765 0.017690761 0.061931644 0.005188099 0.019219285 -0.0177836 -0.009754802
-0.008171688 0.0146704735 0.007817918 0.00023910798 -0.0012312857 0.007808644 -0.015224976 -0.0029858206
-0.014252548 0.00078353315 -0.014960617 0.038629513 0.0039629485 0.050566472 -0.008494906 0.008326611
0.09255574 -0.01734272 -0.020659301 -0.01380347 0.025366638 0.06448758 -0.017309157 -0.006664737
0.035360716 0.014881439 0.0542805 0.058267727 -0.009896538 -0.006518558 -0.0024465725 -0.013878544
-0.016567105 0.06226239 -0.0059874724 0.08481281 0.052724347 0.010480819 0.01673671 0.019645752
-0.021591606 0.033105478 0.016531251 0.012426828 0.041640963 -0.0059340624 -0.005889579 0.0321916
-0.035191644 -0.0005732016 0.015896823 -0.021760803 0.037370116 -0.00329246 0.03332763 0.11489328
-0.008088571 0.04361034 0.046283238 0.04557481 0.023849193 0.024553165 0.016309151 -0.008138939
-0.020282317 0.020121375 0.012961233 0.08519946 0.020896826 0.0002636443 0.054007046 0.038689576
0.054070733 -0.01788797 -0.0040140706 0.0072191055 0.06067251 -0.03442321 0.012948678 0.004005237
-0.025596764 0.03148869 -0.018738193 0.019138606 0.05301302 -0.0018889975 -0.028081862 -0.00026361414
0.03083925 -0.004830356 0.05360538 0.00963729 0.032256134 0.010140932 0.023160247 0.06792076
-0.021830274 0.0533095 0.011252217 0.014312725 -0.0039092596 0.02191463 -0.011269162 0.00044252945
0.020067276 0.012986772 -0.012162849 -0.0031078223 -0.0383728 0.022044752 -0.012664554 0.005374814
00000000: 2987 d43b 2129 b33d 8825 843a 003b dc39
00000010: af42 573b ad0c bd3c 4743 8c3b 5644 9bbc
00000020: 8fd5 35bd 240a 563d 37ec 903c 09ac 7d3d
00000030: ee00 aa3b c371 9d3c eaae 91bc 9bd2 1fbc
00000040: 8be2 05bc 6d5c 703c ba16 003c 0fb9 7a39
00000050: 1863 a1ba a7df ff3b 2e72 79bc c2ad 43bb
00000060: 8583 69bc 0566 4d3a 601d 75bc fb39 1e3d
00000070: 9fdb 813b ca1e 4f3d 382e 0bbc 566c 083c
00000080: dd8d bd3d 5212 8ebc b23d a9bc f327 62bc
00000090: b2cd cf3c 1012 843d efcb 8dbc de63 dabb
000000a0: 66d6 103d 47d1 733c 3b55 5e3d 24aa 6e3d
000000b0: 1725 22bc a199 d5bb ad56 20bb d562 63bc
000000c0: bdb7 87bc d906 7f3d 8f32 c4bb 57b2 ad3d
000000d0: 7cf5 573d beb7 2b3c 6d1b 893c 21f0 a03c
000000e0: e1e0 b0bc 9c99 073d 8c6c 873c e599 4b3c
000000f0: b78f 2a3d 8672 c2bb 5ffd c0bb 57db 033d
00000100: 1d25 10bd e942 16ba 0e3a 823c b643 b2bc
00000110: 6811 193d 50c6 57bb 8e82 083d 2b4d eb3d
00000120: ed85 04bc c2a0 323d 7e93 3d3d a7ac 3a3d
00000130: 625f c33c b823 c93c c59a 853c 2f59 05bc
00000140: 1a27 a6bc 95d5 a43c 5a5b 543c 0e7d ae3d
00000150: d22f ab3c bd39 8a39 7e36 5d3d f678 1e3d
00000160: 4679 5d3d cb89 92bc 7788 83bb 3f8e ec3b
00000170: bd83 783d 5aff 0cbd b126 543c 5d3e 833b
00000180: 4eb0 d1bc 49fa 003d d780 99bc 91c8 9c3c
00000190: 2e24 593d 3d98 f7ba ef0b e6bc b135 8ab9
000001a0: 98a2 fc3c f747 9ebb 5191 5b3d b9e5 1d3c
000001b0: 021f 043d 2726 263c 8fba bd3c 0a1a 8b3d
000001c0: 67d5 b2bc 105b 5a3d 385b 383c eb7f 6a3c
000001d0: 3f19 80bb 4f86 b33c 4ba2 38bc 4c03 e839
000001e0: 2164 a43c 78c6 543c b046 47bc 9bac 4bbb
000001f0: cc2c 1dbd 3297 b43c fd7e 4fbc 351f b03b

action_model._discrete_distribution.branches.0.weight f4 [3, 128]
-0.003061243 -0.025963997 0.044461306 -0.003682161 -0.00041970034 -0.0027661514 -0.03004617 -0.068052456
-0.03390566 0.036249578 -0.008688496 0.051353704 -0.020306483 -0.048985284 -0.056750495 -0.04896469
-0.03418504 -0.012266393 0.010159412 -0.02579587 -0.0013119917 -0.077955484 -0.09028574 -0.059001587
-0.053107888 -0.009155182 -0.042009886 -0.03144621 -0.010319629 0.021284431 -0.0779863 0.013992254
0.016240267 0.0012020767 0.008905673 -0.011770363 -0.021349916 -0.008076842 -0.003250133 -0.05439172
-0.027356759 -0.013839626 -0.05218825 0.022539053 0.013965912 -0.03567362 -0.038148932 -0.10656009
0.014189015 -0.08341326 -0.07599302 0.07008058 -0.016658671 -0.015496944 0.026529389 0.030103443
-0.029721955 0.034673765 -0.03308934 -0.009991519 -0.025526116 -0.04389486 -0.006113789 0.022119163
-0.029702077 -0.03188028 -0.032789443 -0.016718948 -0.013454047 -0.055844598 -0.049088623 0.030022832
-0.048204537 0.044399913 0.014112052 -0.0038852796 0.0783063 -0.0199307 -0.09226321 -0.023593074
0.0116350865 -0.040499743 -0.043848515 0.04208928 -0.03522823 -0.057395544 0.05441402 -0.10590858
-0.03764597 -0.028817413 -0.06383725 -0.08807761 -0.041352563 -0.0031072062 0.020311562 -0.009163017
-0.096530356 -0.025280688 -0.007145673 0.049239576 0.0029960752 -0.03721527 0.00073633 -0.01649252
-0.0067306897 -0.01881757 -0.025326125 -0.008486555 -0.035843577 -0.057362463 -0.079166606 0.051770505
-0.0193425 0.035892185 -0.015455323 -0.020063603 -0.123324916 -0.004706228 0.0013455484 0.017300056
-0.012747185 0.006273801 -0.022939848 -0.022930194 -0.0057652025 0.023263896 0.02586518 0.004018602
-0.032987677 0.10220458 -0.04439474 -0.037928354 -0.01148602 0.04917248 0.061232477 -0.00091972837
0.012221022 0.038950566 -0.044384338 0.0031316343 0.022661574 -0.00848567 0.021453435 0.031474717
-0.038172778 0.0658384 0.023484347 -0.00789514 0.0014389977 0.0732638 -0.059594903 -0.011865528
0.015318498 -0.009620209 0.027600635 0.01459662 -0.030730607 -0.013369016 0.045274734 0.010869914
0.02842375 -0.044025682 -0.00059678504 -0.021948885 -0.012176977 0.026760131 -0.022946807 -0.040191323
-0.0049037975 -0.011224843 0.06262627 0.07040625 -0.035620615 0.008184865 0.013829219 0.013491363
-0.015789056 0.11731199 -0.016166171 0.012006765 0.058848307 -0.03097281 -0.06164612 -0.016944798
0.022069149 0.007738223 -0.0002717042 0.044592716 0.009649136 -0.07086012 -0.016336806 -0.023511361
-0.024675874 0.009077256 0.036267903 -0.04053353 0.03832519 0.03863445 -0.015404941 0.090891436
-0.13996385 -0.032582857 -0.008433703 0.0076426556 -0.017116936 0.016166016 0.010472624 0.0155839445
-0.051485162 0.07706997 -0.033312716 0.047589008 -0.05028274 -0.059977595 0.026359277 0.13393055
0.04380231 0.028879855 0.0010428437 0.016720658 0.10144 0.02800427 -0.0031520668 -0.061598256
0.012877887 -0.02177492 -0.053774178 -0.009139465 -0.058995776 -0.029147238 0.010326444 0.023956517
0.005617322 0.021326829 0.10393916 0.015987964 0.037722863 0.07583532 0.012691755 0.0015076117
-0.07416659 -0.00717454 0.017471453 -0.0054349843 0.074073255 -0.0034053996 -0.008708176 -0.02762071
-0.010400719 0.011380177 0.025811594 -0.018195314 -0.0111463 -0.026236992 -0.06865045 -0.046236508
00000000: 239f 48bb 73b2 d4bc 0f1d 363d 6950 71bb
00000010: 3a0b dcb9 5248 35bb 6323 f6bc 165f 8bbd
00000020: a9e0 0abd 707a 143d 325a 0ebc 4358 523d
00000030: c859 a6bc cba4 48bd 3573 68bd 338f 48bd
00000040: 9d05 0cbd fbf8 48bc aa73 263c dc51 d3bc
00000050: 23f7 abba 20a7 9fbd bbe7 b8bd a6ab 71bd
00000060: a887 59bd 9eff 15bc 8f12 2cbd becd 00bd
00000070: a913 29bc b05c ae3c 48b7 9fbd c43f 653c
00000080: 4f0a 853c 008f 9d3a 1ae9 113c 7bd8 40bc
00000090: 05e6 aebc bb54 04bc 2f00 55bb dac9 5ebd
000000a0: 481b e0bc 99bf 62bc 59c3 55bd d2a3 b83c
000000b0: 48d1 643c 801e 12bd 0e42 1cbd 2d3c dabd
000000c0: 0b79 683c 92d4 aabd 3aa2 9bbd 6886 8f3d
000000d0: c477 88bc e5e6 7dbc 2954 d93c 7f9b f63c
000000e0: 757b f3bc 1406 0e3d b088 07bd 78b3 23bc
000000f0: 251c d1bc 19cb 33bd 2e56 c8bb 3f33 b53c
00000100: c551 f3bc e594 02bd 394e 06bd 2df6 88bc
00000110: 5d6e 5cbc 4ebd 64bd 2711 49bd 71f2 f53c
00000120: 1f72 45bd afdc 353d 3c36 673c 2da0 7ebb
00000130: 0e5f a03d b545 a3bc 7ef4 bcbd 4346 c1bc
00000140: 17a1 3e3c 0fe3 25bd 809a 33bd cf65 2c3d
00000150: 7a4b 10bd 9717 6bbd 3ce1 5e3d 99e6 d8bd
00000160: a932 1abd 7f12 ecbc 1bbd 82bd 0962 b4bd
00000170: 4e61 29bd 45a2 4bbb 6f64 a63c 7b20 16bc
00000180: b5b1 c5bd 7219 cfbc 4026 eabb 70af 493d
00000190: cd59 443b 0a6f 18bd 4506 413a 521b 87bc
000001a0: 1e8d dcbb 4e27 9abc bc78 cfbc 310b 0bbc
000001b0: b7d0 12bd e7f4 6abd 1a22 a2bd 4f0d 543d
000001c0: 2a74 9ebc af03 133d 5338 7dbc 6d5c a4bc
000001d0: c691 fcbd b436 9abb 1d5d b03a d9b8 8d3c
000001e0: 92d9 50bc 7594 cd3b 59ec bbbc 1ad8 bbbc
000001f0: 06ea bcbb ed93 be3c 37e3 d33c 7aae 833b
00000200: 161e 07bd a350 d13d 42d7 35bd c35a 1bbd
00000210: dc2f 3cbc 1569 493d e8ce 7a3d ed19 71ba
00000220: ae3a 483c a18a 1f3d 5acc 35bd 1b3c 4d3b
00000230: c4a4 b93c 7b07 0bbc 1dbf af3c a2eb 003d
00000240: 0f5b 1cbd 48d6 863d 3f62 c03c 9e5a 01bc
00000250: c09c bc3a 550b 963d c919 74bd a267 42bc
00000260: 70fa 7a3c 159e 1dbc ba1a e23c a926 6f3c
00000270: c1be fbbc b809 5bbc 0072 393d b917 323c
00000280: edd8 e83c 4654 34bd 9171 1cba 26ce b3bc
00000290: f181 47bc 1038 db3c f1fa bbbc a89f 24bd
000002a0: 09b0 a0bb 67e8 37bc 3442 803d 2731 903d
000002b0: ece6 11bd d019 063c f393 623c e10a 5d3c
000002c0: 0d58 81bc 4541 f03d eb6e 84bc 06b8 443c
000002d0: ec0a 713d b1ba fdbc a480 7cbd d1cf 8abc
000002e0: 5cca b43c eb90 fd3b 8573 8eb9 daa6 363d
000002f0: 6917 1e3c 1c1f 91bd c4d4 85bc e69a c0bc
00000300: 0f25 cabc c5b8 143c a78d 143d 7d06 26bd
00000310: e0fa 1c3d 283f 1e3d 0165 7cbc 4a25 ba3d
00000320: af52 0fbe 9a75 05bd 842d 0abc 3e6f fa3b
00000330: d138 8cbc 986e 843c 5e95 2b3c cd53 7f3c
00000340: 1be2 52bd dcd6 9d3d ea72 08bd b1ec 423d
00000350: 46f5 4dbd 11ab 75bd 69ef d73c 1725 093e
00000360: 0d6a 333d 7295 ec3c 07b0 883a c3f9 883c
00000370: c6bf cf3d 3669 e53c e892 4ebb 744e 7cbd
00000380: c6fd 523c 5161 b2bc 5042 5cbd b2bd 15bc
00000390: 8ea5 71bd 30c6 eebc 3f30 293c 7540 c43c
000003a0: 8311 b83b 9ab5 ae3c 0ede d43d 31f9 823c
000003b0: 4a83 1a3d 8c4f 9b3d 14f1 4f3c 0e9b c53a
000003c0: a7e4 97bd 6718 ebbb 4b20 8f3c f417 b2bb
000003d0: b8b3 973d 202d 5fbb bdac 0ebc d444 e2bc
000003e0: c767 2abc ec73 3a3c d672 d33c 570e 95bc
000003f0: f89e 36bc f6ee d6bc 9b98 8cbd 7e62 3dbd

action_model._discrete_distribution.branches.0.bias f4 [3]
-0.002349681 0.035640903 -0.020913513
00000000: 1bfd 19bb 32fc 113d d152 abbc

action_model._discrete_distribution.branches.1.weight f4 [3, 128]
0.055899538 -0.14339274 0.009741485 0.04055041 -0.030944817 0.026608722 0.092707865 0.0234774
-0.005779884 0.039917666 -0.08946118 -0.030641017 0.016738223 0.009667882 -0.013889542 -0.044810116
0.0297664 -0.026982088 -0.0022896435 0.025094405 -0.0068101618 -0.056803714 0.06913826 -0.08320008
-0.010170202 0.035637684 0.032512855 -0.0019609104 0.050318573 -0.0012516805 0.051157128 -0.044177677
-0.10561027 0.039680004 0.01223775 0.04876412 -0.029319867 -0.06153856 0.043940876 0.037368737
0.0031265374 -0.0357766 -0.08906946 -0.06504364 -0.032483596 -0.016168162 -0.034285553 0.022995384
0.00058725075 -0.07189028 0.053409353 -0.08651234 0.036751244 -0.028426254 -0.06935408 0.026427694
0.01574296 -0.014114791 0.0065117865 -0.027227659 -0.037208002 -0.04665082 0.11593562 -0.02043705
0.00485858 0.037464786 -0.07380642 0.026839612 -0.10162874 0.031804338 0.04422659 -0.061615083
0.095049955 0.021484017 0.01838457 -0.018929146 0.050411932 0.033234354 -0.039451268 0.07230443
0.060935836 -0.002310521 -0.05897131 -0.06984201 -0.048407502 -0.0043423283 -0.04475725 -0.11657407
-0.1457499 0.023706425 0.053113867 -0.08381147 -0.04045211 0.046171192 0.03819343 0.022057675
0.050571393 -0.104835086 -0.0022395176 -0.015323433 -0.030555768 0.08441418 -0.0628243 0.014027369
-0.040981278 0.022453189 -0.018669296 0.014262688 -0.020056987 0.082281046 -0.086701415 -0.039614238
0.034179993 -0.057056945 -0.03399188 -0.090347886 -0.04966885 -0.07414788 0.061025076 0.07090848
-0.007866527 0.022189146 0.016942292 0.015621512 0.04900758 0.09494617 0.027834708 -0.0145209795
-0.023611104 -0.06665996 -0.006162756 -0.0065898355 -0.0042912313 -0.028356506 -0.04347648 -0.06687262
0.017090684 -0.0034215797 0.01238995 -0.009889178 -0.028112832 -0.031344388 -0.03381837 0.00041397102
-0.012645003 -0.043301735 0.0048061386 -0.003031453 -0.01625667 -0.00402645 -0.001430344 -0.017229889
-0.038297527 -0.037995458 -0.06356443 -0.023943828 0.03135375 0.014266574 -0.024113184 0.006523115
0.029041855 0.006877832 0.0142496005 -0.01268393 0.0047910386 0.012661976 0.0073401495 0.007854532
-0.014961098 -0.0017143001 0.015327694 -0.00317376 0.021502832 -0.029682312 -0.05783493 -0.04851556
0.0044928645 -0.12318415 -0.011139597 0.017682279 -0.043501332 -0.012583571 -0.005031671 0.023087012
-0.025490843 -0.0074082655 0.0072759525 0.035573985 0.0017647949 -0.02184852 0.0017752162 0.039964523
0.02549708 0.0031986227 -0.014154241 0.03951632 -0.05409308 -0.06267916 -0.07039997 -0.078891724
-0.012015734 -0.010486303 0.013096337 -0.035075847 0.0041585797 -0.01034895 -0.03944105 0.003599142
-0.02818679 -0.009836402 0.021211362 -0.03799222 -0.045034643 -0.027523505 -0.042455748 -0.13936464
0.0019310855 -0.03634101 -0.011247212 -0.034339827 -0.023824196 0.00072137424 0.019625666 -0.018558182
-0.034931097 0.033177897 -0.0028103977 0.022333754 -0.027590737 0.033229057 0.008595547 0.028092636
0.015665488 -0.0009034584 -0.010698561 -0.043969564 0.0003199534 -0.037366696 -0.024002677 0.0033425938
0.035368282 0.016702766 -0.021290252 0.035904545 -0.04006789 -0.00036027783 -0.01717582 0.0011075055
0.030434458 0.03181677 -0.002489437 -0.028352026 0.020632342 -0.022653993 -0.009930008 -0.011024509
00000000: eaf6 643d 8cd5 12be c09a 1f3c 3018 263d
00000010: fc7f fdbc 89fa d93c 9fdd bd3d ad53 c03c
00000020: 2e65 bdbb b580 233d 6c37 b7bd df02 fbbc
00000030: 991e 893c 0966 1e3c f690 63bc d08a 37bd
00000040: aad8 f33c 8a09 ddbc d80d 16bb c892 cd3c
00000050: c727 dfbb 03ab 68bd 5c98 8d3d ce64 aabd
00000060: eba0 26bc d2f8 113d 332c 053d 9e82 00bb
00000070: d91a 4e3d 6e0f a4ba 238a 513d a7f3 34bd
00000080: 324a d8bd 8087 223d d880 483c e3bc 473d
00000090: 3830 f0bc db0f 7cbd 59fb 333d f60f 193d
000000a0: 98e6 4c3b 7c8a 12bd 0d6a b6bd 9a35 85bd
000000b0: 850d 05bd 1873 84bc 026f 0cbd d160 bc3c
000000c0: bbf1 193a 363b 93bd c4c3 5a3d 622d b1bd
000000d0: 7988 163d 2dde e8bc 8309 8ebd e47e d83c
000000e0: 61f7 803c b941 67bc d360 d53b 8a0c dfbc
000000f0: 6b67 18bd ee14 3fbd a86f ed3d 9a6b a7bc
00000100: b934 9f3b ad74 193d d227 97bd bfde db3c
00000110: bb22 d0bd 4445 023d f126 353d 1960 7cbd
00000120: 8da9 c23d 40ff af3c 3d9b 963c 4c11 9bbc
00000130: be7c 4e3d bf20 083d a797 21bd 5814 943d
00000140: db97 793d 1c6c 17bb e68b 71bd 5409 8fbd
00000150: f246 46bd 174a 8ebb 6153 37bd 63be eebd
00000160: 763f 15be fa33 c23c ed8d 593d 59a5 abbd
00000170: 1db1 25bd 011e 3d3d b770 1c3d 4cb2 b43c
00000180: f323 4f3d c7b3 d6bd dfc4 12bb 230f 7bbc
00000190: 1750 fabc 57e1 ac3d 07aa 80bd 0dd3 653c
000001a0: fcdb 27bd c0ef b73c 5af0 98bc 0dae 693c
000001b0: 8d4e a4bc f782 a83d 8390 b1bd 8a42 22bd
000001c0: 5200 0c3d 8bb4 69bd 123b 0bbd 5008 b9bd
000001d0: 9071 4bbd d8da 97bd 6ef5 793d 7738 913d
000001e0: 9be2 00bc 03c6 b53c 90ca 8a3c 5ff1 7f3c
000001f0: 2cbc 483d 2373 c23d 9d05 e43c 67e9 6dbc
00000200: 136c c1bc 0485 88bd f2f0 c9bb 8cef d7bb
00000210: 759d 8cbb e74b e8bc 6514 32bd 83f4 88bd
00000220: c301 8c3c 953c 60bb 38ff 4a3c 3806 22bc
00000230: e24c e6bc f962 00bd 2285 0abd 400a d939
00000240: fd2c 4fbc 295d 31bd d07c 9d3b 57ab 46bb
00000250: b52c 85bc 50f0 83bb 617a bbba b225 8dbc
00000260: dedd 1cbd 20a1 1bbd 112e 82bd d925 c4bc
00000270: ca6c 003d 59be 693c 0389 c5bc dbbf d53b
00000280: 2fe9 ed3c 705f e13b 2877 693c 42d0 4fbc
00000290: 25fe 9c3b 2d74 4f3c a385 f03b 4cb0 003c
000002a0: 651f 75bc 5eb2 e0ba 0221 7b3c dbfe 4fbb
000002b0: b526 b03c 5228 f3bc 52e4 6cbd 40b8 46bd
000002c0: e138 933b f947 fcbd db82 36bc 6dda 903c
000002d0: 742e 32bd 522b 4ebc b7e0 a4bb f920 bd3c
000002e0: 2cd2 d0bc 09c1 f2bb 1d6b ee3b 07b6 113d
000002f0: b150 e73a abfb b2bc 5fae e83a d7b1 233d
00000300: 41df d03c fc9f 513b 31e7 67bc dddb 213d
00000310: b590 5dbd ee5d 80bd dc2d 90bd fc91 a1bd
00000320: a4dd 44bc bece 2bbc 0592 563c b1ab 0fbd
00000330: b244 883b a48e 29bc f08c 21bd 95df 6b3b
00000340: fce7 e6bc dc28 21bc 73c3 ad3c bb9d 1bbd
00000350: 3f76 38bd f978 e1bc 14e6 2dbd 9bb5 0ebe
00000360: 7a1c fd3a 50da 14bd 3a46 38bc eba7 0cbd
00000370: f62a c3bc 9b1a 3d3a 01c6 a03c 5407 98bc
00000380: e913 0fbd 8ce5 073d a62e 38bb 47f5 b63c
00000390: f805 e2bc 311b 083d 56d4 0c3c 8722 e63c
000003a0: e954 803c 11d6 6cba 0449 2fbc 6e19 34bd
000003b0: 6bbf a739 d20d 19bd 43a1 c4bc 6b0f 5b3b
000003c0: 55de 103d 3dd4 883c e568 aebc a510 133d
000003d0: 3a1e 24bd ace3 bcb9 4eb4 8cbc b829 913a
000003e0: af51 f93c 4d52 023d d325 23bb 8242 e8bc
000003f0: 2805 a93c de94 b9bc 79b1 22bc 24a0 34bc

action_model._discrete_distribution.branches.1.bias f4 [3]
-0.0031664232 -0.019405978 0.021132799
00000000: c483 4fbb 49f9 9ebc b11e ad3c

action_model._discrete_distribution.branches.2.weight f4 [3, 128]
-0.013718815 -0.056816667 0.04667922 0.046119012 -0.024198309 -0.02737585 -0.04673817 -0.05545003
0.026466629 -0.09923192 -0.012865514 0.10743613 -0.020442612 -0.044972707 -0.047183912 -0.06433938
0.018721404 -0.07474113 0.011658851 0.025018508 0.009655111 -0.016396105 -0.044572294 -0.0051856157
-0.047809802 0.014782574 -0.062205143 -0.054947287 0.004760763 0.07291544 -0.025721777 0.03508364
0.04406187 0.010372188 0.01258565 -0.008644818 0.04048458 0.021346677 0.016420258 -0.030166743
0.071394525 0.0057198424 -0.03331687 0.034479186 -0.00032947498 0.007023535 -0.036568526 -0.035095908
0.03565603 -0.099750265 0.012546377 0.07764818 -0.07823558 0.043665968 0.07370136 0.0016933832
-0.013429226 -0.014415906 0.022148486 0.01316213 0.028704919 0.0056374725 -0.041526023 0.0038751455
0.020562159 0.022150159 -0.007817022 -0.02624273 -0.022295803 -0.06323865 -0.044289388 -0.0050359042
0.0060010664 -0.031150829 -0.004326001 -0.030738253 0.01794098 0.0069716214 -0.016754273 0.005416785
-0.014715794 0.023175992 0.05157099 0.040160283 0.03671591 -0.017329397 0.0025553673 -0.13115287
-0.034861535 -0.04328616 -0.01928713 -0.028983116 -0.017852167 -0.0271466 0.017171653 0.06402989
-0.06154515 0.05542703 0.014605465 -0.016801843 0.06791274 -0.0017284007 0.022118092 0.000966752
0.075081944 0.0050261472 0.009130948 -0.05579201 0.075912245 0.028014112 -0.033000328 0.05407484
-0.008135422 0.04466904 0.024349801 0.05437302 -0.037142627 -0.018243834 0.017988889 -0.010561613
0.029043248 0.0014670595 -0.0130872615 -0.03456052 0.008906701 0.09291279 0.018235525 0.012702241
-0.043905184 0.09173882 -0.011917304 -0.0251043 0.0015282657 0.08519696 0.016339118 -0.045460723
0.0076663224 0.09897496 -0.006558506 -0.011592167 -0.018218918 -0.064852566 -0.05572022 0.013579296
0.0004396352 0.03401997 0.016110437 0.048673227 0.02869408 -0.027369123 -0.058888435 -0.0476231
-0.026584784 -0.03253778 -0.005857193 -0.0023203164 0.011738865 -0.060573444 0.0024861917 -0.0031493986
0.026774887 -0.010641559 0.029893003 -0.037440825 -0.013390811 0.04491189 -0.012066051 -0.06527721
0.048134513 0.0037246603 0.0664071 0.044373106 0.002168614 0.00032731952 -0.040015582 -0.10043592
-0.022766493 0.039175816 -0.049846943 0.07486475 0.03322991 -0.05747757 -0.05979796 -0.007919459
0.0029592193 -0.012297247 -0.00085112883 -0.012606815 0.0052318703 -0.021254981 -0.03863685 0.009865868
0.010929109 0.014938798 -0.020599626 0.0037214379 -0.00076331216 -0.014566061 -0.083836354 0.054857716
-0.024555562 0.07109484 0.04006508 0.019437999 -0.014220241 0.039240118 -0.07242718 -0.028586753
-0.016793413 -0.009097698 0.007825663 -0.0049899453 -0.085342325 -0.038910083 0.0515721 0.027451882
-0.005607082 -0.054146968 -0.07159173 -0.0075352145 0.08860929 -0.01727492 -0.008741329 -0.04138885
-0.15876397 0.010640019 0.0044913916 -0.010999634 -0.03717222 -0.07867065 -0.0059112823 -0.022170514
-0.048874903 -0.0076900134 0.079247236 0.03102175 0.044670578 -0.046664067 0.038609087 -0.024490139
-0.042772137 -0.022113334 -0.026489949 0.007504551 -0.03301841 -0.011538635 -0.04426016 0.0043301685
0.01984182 -0.010417462 -0.043175027 -0.019471012 -0.012455091 -0.056485508 -0.028228547 -0.037423506
00000000: e1c4 60bc 98b8 68bd b632 3f3d 4ae7 3c3d
00000010: 883b c6bc 5243 e0bc 8670 3fbd 921f 63bd
00000020: 8bd0 d83c 1b3a cbbd e0c9 52bc 7907 dc3d
00000030: 4477 a7bc 4d35 38bd eb43 41bd 5dc4 83bd
00000040: a15d 993c e111 99bd c404 3f3c 9df3 cc3c
00000050: 7830 1e3c 2051 86bc 7091 36bd 19ec a9bb
00000060: 36d4 43bd 9c32 723c d2ca 7ebd 6810 61bd
00000070: 2d00 9c3b b154 953d 7ab6 d2bc ddb3 0f3d
00000080: 387a 343d 1cf0 293c 0b34 4e3c ffa2 0dbc
00000090: 29d3 253d 3adf ae3c c783 863c 3f20 f7bc
000000a0: 4b37 923d 846d bb3b 4577 08bd 0c3a 0d3d
000000b0: 62bd acb9 af25 e63b e1c8 15bd bac0 0fbd
000000c0: 0f0c 123d de49 ccbd 528f 4d3c 0206 9f3d
000000d0: fa39 a0bd 16db 323d bdf0 963d 83f4 dd3a
000000e0: 4206 5cbc b130 6cbc be70 b53c f9a5 573c
000000f0: 9426 eb3c 8cba b83b 3117 2abd 27f6 7d3b
00000100: f971 a83c 4074 b53c f712 00bc fefa d6bc
00000110: b0a5 b6bc 4483 81bd ca68 35bd 3a04 a5bb
00000120: 98a4 c43b 0630 ffbc 20c1 8dbb cace fbbc
00000130: f6f8 923c 3372 e43b 4240 89bc 497f b13b
00000140: 831a 71bc 94db bd3c 1a3c 533d 1c7f 243d
00000150: 6c63 163d 61f6 8dbc f377 273b f04c 06be
00000160: f8ca 0ebd d44c 31bd 0b00 9ebc 006e edbc
00000170: b53e 92bc 8c62 debc 91ab 8c3c 1a22 833d
00000180: c416 7cbd 7407 633d c34b 6f3c 05a4 89bc
00000190: d615 8b3d 818b e2ba 0031 b53c a16d 7d3a
000001a0: 90c4 993d 61b2 a43b f999 153c 2a86 64bd
000001b0: e177 9b3d da7d e53c 5a2b 07bd 947d 5d3d
000001c0: 6f4a 05bc e2f6 363d 3c79 c73c 3eb6 5e3d
000001d0: de22 18bd 1874 95bc 6f5d 933c 9e0a 2dbc
000001e0: 1bec ed3c 594a c03a f46b 56bc 558f 0dbd
000001f0: 69ed 113c 1049 be3d ab62 953c 0f1d 503c
00000200: ecd5 33bd 90e1 bb3d cc40 43bc 88a7 cdbc
00000210: 1650 c83a be7b ae3d 9dd9 853c 0635 3abd
00000220: c635 fb3b 62b3 ca3d bce8 d6bb 13ed 3dbc
00000230: d73f 95bc 6cd1 84bd e33a 64bd b27b 5e3c
00000240: d67e e639 8658 0b3d 09fa 833c 945d 473d
00000250: d90f eb3c 3635 e0bc 0035 71bd 7110 43bd
00000260: 55c8 d9bc 5646 05bd b2ed bfbb 7310 18bb
00000270: 5e54 403c dc1b 78bd 60ef 223b 2466 4ebb
00000280: 0257 db3c ef59 2ebc 2ce2 f43c 8d5b 19bd
00000290: 2265 5bbc 88f5 373d b0b0 45bc 0fb0 85bd
000002a0: b228 453d 6e19 743b 7200 883d 93c0 353d
000002b0: 4e1f 0e3b 159c ab39 61e7 23bd 59b1 cdbd
000002c0: cc80 babc d276 203d 4f2c 4cbd b152 993d
000002d0: 161c 083d 9a6d 6bbd b5ee 74bd 9ec0 01bc
000002e0: 76ef 413b 647a 49bc 4a1e 5fba d18c 4ebc
000002f0: 1c70 ab3b ed1e aebc ac41 1ebd 73a4 213c
00000300: 0110 333c dcc1 743c 8cc0 a8bc 5ee3 733b
00000310: 0319 48ba 7da6 6ebc 65b2 abbd 7cb2 603d
00000320: bf28 c9bc 2c9a 913d 481b 243d 703c 9f3c
00000330: 04fc 68bc 3fba 203d b454 94bd c42e eabc
00000340: 5792 89bc 830e 15bc 3637 003c b282 a3bb
00000350: f5c7 aebd 2e60 1fbd 443d 533d c5e2 e03c
00000360: 9dbb b7bb 36c9 5dbd af9e 92bd f6e9 f6bb
00000370: ca78 b53d 2284 8dbc cb37 0fbc 5b87 29bd
00000380: 0693 22be 7953 2e3c 862c 933b cf37 34bc
00000390: e641 18bd 141e a1bd 6eb3 c1bb f09e b5bc
000003a0: 0d31 48bd 82fc fbbb 604c a23d 5321 fe3c
000003b0: 7ff8 363d d222 3fbd 9024 1e3d 8b9f c8bc
000003c0: d631 2fbd 0627 b5bc 7301 d9bc bde8 f53b
000003d0: 503e 07bd 8b0c 3dbc 244a 35bd 16e4 8d3b
000003e0: 508b a23c 01ae 2abc 4cd8 30bd ac81 9fbc
000003f0: 7010 4cbc 595d 67bd 8e3f e7bc 6449 19bd

action_model._discrete_distribution.branches.2.bias f4 [3]
-0.008179918 0.0077284616 0.003522704
00000000: 1005 06bc 093f fd3b 2add 663b

action_model._discrete_distribution.branches.3.weight f4 [3, 128]
-0.059827477 -0.007710113 -0.004014909 0.035914093 -0.027881607 -0.05216748 0.046159077 -0.014038463
0.0021107972 0.058038298 -0.086076535 0.027004553 -0.027185218 0.019192565 -0.040579114 0.009452542
0.020655595 -0.051055375 0.010783154 -0.004594208 -0.006343417 -0.13973987 -0.031937268 -0.06009865
-0.0494861 0.0013969165 -0.038639717 0.025132142 -0.027312608 0.019648857 -0.047420286 0.012847156
0.021641025 -0.017030962 -0.022719845 -0.0018835531 -0.028608682 0.022718357 -0.00692244 0.029289903
-0.029298171 0.044362593 -0.0072863027 0.05369252 -0.0014383113 0.0228439 -0.022841325 -0.043112528
0.016739337 -0.01765504 -0.03860909 0.011265315 -0.00378721 -0.031371083 -0.056617454 -0.04343343
-0.005038386 -0.033930905 -0.06445659 0.036415562 -0.06877183 -0.06822995 -0.020423017 -0.045312133
0.02529958 0.004805412 -0.05013891 -0.028766515 0.019975187 -0.030582802 0.038587343 0.046361078
-0.008348708 0.028129695 0.012494959 -0.047727816 0.04989217 -0.08594044 -0.078550056 0.021822155
-0.018574217 -0.12234502 -0.042213153 0.0661743 0.0069650062 -0.02038362 0.025934719 -0.023725701
-0.06480088 -0.03314038 -0.034396857 -0.0946798 -0.023435075 0.018660339 -0.004128804 0.006905332
-0.08038173 -0.031777386 -0.016874714 0.02011704 -0.006213926 0.017662693 -0.04071802 -0.005183798
0.0036228453 0.00018834788 -0.047763094 0.018826663 -0.051985085 -0.0840269 -0.12798257 -0.062411286
0.0077227405 0.019861268 -0.031742226 -0.031746008 -0.027204169 0.020821264 -0.014005369 -0.04647767
-0.052128397 0.01728196 -0.048435707 -0.039275806 -0.018898707 0.006889175 0.007960144 -0.008373737
0.023884645 0.03156376 -0.027748687 -0.036837906 0.016811855 0.06286274 -0.025703248 0.04562331
-0.006894398 -0.021056533 0.056770604 0.006479813 0.04042538 0.019531602 0.03912564 0.022805717
-0.004943669 0.060405064 -0.025664095 0.011741417 0.010251875 0.10976166 0.033645745 0.0066593722
0.0474768 0.003202932 0.05700605 -0.01047343 -0.0077967746 0.008050959 0.042491797 0.018588876
-0.010557505 0.026184687 -0.006680492 -0.0029958005 0.0052720485 -0.0013251631 -0.0034559306 -0.024008945
0.05016393 -0.0036538634 0.0034586766 -0.034027323 0.010372758 0.026911061 0.065355845 0.06209244
0.011117223 0.048331093 0.0007554885 -0.0035658302 0.01495677 0.016072663 0.008082008 0.020138854
0.0026006117 -0.0032300684 0.030518154 -0.005228201 0.05125818 0.040684685 0.023868375 0.0066027646
0.006629712 -0.0012185946 0.04883086 0.010861525 0.028271122 0.040228594 0.04048223 -0.01260937
0.0027570738 -0.040324025 -0.0633894 0.06562095 -0.033353295 0.07190043 0.06868569 -0.0022671213
0.03381256 0.07333489 0.040964294 -0.043927733 0.038586255 0.036783487 0.0025738804 0.06950894
0.07214939 0.031024646 0.04531661 0.07774804 0.030486038 -0.0037184553 -0.027496362 0.007927523
0.061615467 0.04133586 -0.017548714 -0.0513668 0.026378665 0.014573633 0.03470793 -0.026630966
0.0067260936 0.031097101 0.03780914 0.031275053 0.021887567 0.056036968 0.06089541 0.061608214
0.008676894 -0.026990155 -0.00023346374 0.016064655 0.08017294 0.01550844 -0.019587709 -0.00059607375
0.020548753 -0.04334572 0.017109249 0.043631826 -0.022058215 -0.009280725 0.004944108 -0.019096585
00000000: a80d 75bd 1ea5 fcbb 7f8f 83bb a81a 133d
00000010: f867 e4bc 91ad 55bd 4d11 3d3d 9501 66bc
00000020: 4d55 0a3b 91b9 6d3d e548 b0bd a738 dd3c
00000030: 89b3 debc ba39 9d3c 4936 26bd d6de 1a3c
00000040: ec35 a93c 711f 51bd d3ab 303c 038b 96bb
00000050: 70dc cfbb f817 0fbe a7d0 02bd 012a 76bd
00000060: f0b1 4abd bd18 b73a ae44 1ebd ece1 cd3c
00000070: b1be dfbc a4f6 a03c c63b 42bd e17c 523c
00000080: 8548 b13c 8484 8bbc f81e babc 8ee1 f6ba
00000090: c15c eabc d91b ba3c a3d5 e2bb 61f1 ef3c
000000a0: b802 f0bc 8db5 353d f0c1 eebb b0ec 5b3d
000000b0: b885 bcba 2123 bb3c bb1d bbbc c396 30bd
000000c0: ef20 893c 4da1 90bc 9124 1ebd 2892 383c
000000d0: d732 78bb f77e 00bd b4e7 67bd 41e7 31bd
000000e0: 0c19 a5bb 22fb 0abd d101 84bd 7c28 153d
000000f0: 3fd8 8cbd 25bc 8bbd 2c4e a7bc 3799 39bd
00000100: 1141 cf3c b876 9d3b 755e 4dbd c1a7 ebbc
00000110: 01a3 a33c c988 fabc c30d 1e3d 1de5 3d3d
00000120: 05c9 08bc 3f70 e63c a8b7 4c3c 3e7e 43bd
00000130: bb5b 4c3d 8b01 b0bd dade a0bd 60c4 b23c
00000140: f528 98bc 0790 fabd b3e7 2cbd 6486 873d
00000150: b53a e43b 8dfb a6bc 0c75 d43c 675c c2bc
00000160: 53b6 84bd 35be 07bd b8e3 0cbd 7ce7 c1bd
00000170: eafa bfbc 91dd 983c eb4a 87bb 2046 e23b
00000180: 2d9f a4bd 0129 02bd d73c 8abc 7ecc a43c
00000190: 309e cbbb 5ab1 903c f0c7 26bd d9dc a9bb
000001a0: 426d 6d3b 407f 4539 3ca3 43bd 603a 9a3c
000001b0: 50ee 54bd 4c16 acbd dd0d 03be faa2 7fbd
000001c0: 0b0f fd3b 19b4 a23c 2304 02bd 1a08 02bd
000001d0: 47db debc 5b91 aa3c c676 65bc 5f5f 3ebd
000001e0: 9684 55bd e692 8d3c 8564 46bd abdf 20bd
000001f0: 76d1 9abc 97be e13b 446b 023c 0032 09bc
00000200: bba9 c33c 0049 013d 3751 e3bc 58e3 16bd
00000210: 04b9 893c 2ebe 803d 9e8f d2bc 82df 3a3d
00000220: 67ea e1bb c07e acbc 4b88 683d 9c54 d43b
00000230: 1595 253d bd00 a03c 3542 203d 0ed3 ba3c
00000240: 80fe a1bb 4d6b 773d 823d d2bc 135f 403c
00000250: 7bf7 273c b9ca e03d 1fd0 093d dd36 da3b
00000260: 0877 423d 48e8 513b 2d7f 693d c098 2bbc
00000270: 167c ffbb 2be8 033c e10b 2e3d b347 983c
00000280: 63f9 2cbc 4581 d63c 07e8 dabb 3155 44bb
00000290: 26c1 ac3b 18b1 adba e57c 62bb 68ae c4bc
000002a0: b178 4d3d a875 6fbb f7aa 623b 3c60 0bbd
000002b0: 80f2 293c 9674 dc3c 49d9 853d a454 7e3d
000002c0: 0325 363c d3f6 453d fa0b 463a b4b0 69bb
000002d0: 3e0d 753c d1aa 833c 666a 043c 3dfa a43c
000002e0: 066f 2a3b 8eaf 53bb 3501 fa3c 5451 abbb
000002f0: 19f4 513d fca4 263d 9c87 c33c 015c d83b
00000300: 0e3e d93b 40b9 9fba de02 483d 8af4 313c
00000310: d798 e73c bdc6 243d b2d0 253d 8897 4ebc
00000320: 06b0 343b ce2a 25bd 4dd2 81bd 4764 863d
00000330: 779d 08bd 8840 933d 15ab 8c3d fc93 14bb
00000340: 0a7f 0a3d 9a30 963d 2dca 273d 91ed 33bd
00000350: 9f0c 1e3d 48aa 163d 8cae 283b b45a 8e3d
00000360: 0fc3 933d 6627 fe3c e99d 393d 5d3a 9f3d
00000370: dbbd f93c 54b1 73bb 0d40 e1bc 71e2 013c
00000380: 8060 7c3d ca4f 293d 52c2 8fbc fe65 52bd
00000390: 1218 d83c 3fc6 6e3c e729 0e3d 2f29 dabc
000003a0: 9066 dc3b 59bf fe3c c2dd 1a3d 451a 003d
000003b0: 8e4d b33c 0587 653d 776d 793d e558 7c3d
000003c0: 8829 0e3c 751a ddbc f2cd 74b9 069a 833c
000003d0: b631 a43d 1d17 7e3c 6776 a0bc d541 1cba
000003e0: dc55 a83c 488b 31bd b228 8c3c 49b7 323d
000003f0: 6eb3 b4bc 2f0e 18bc 2f02 a23b 7170 9cbc

action_model._discrete_distribution.branches.3.bias f4 [3]
-0.006633384 0.011604174 -0.0057937703
00000000: dc5c d9bb 6f1f 3e3c abd9 bdbb
