ArmRobot/Assets/results/curriculumPocoAPoco/TouchCubeMoveGail/TouchCubeMoveGail-1999964.onnx (onnx, 140863 bytes, 20 tensors)

action_model._discrete_distribution.branches.0.bias f4 [3]
0.0014492308 0.011702543 -0.014804994
00000000: 1ef4 bd3a 06bc 3f3c a590 72bc

action_model._discrete_distribution.branches.0.weight f4 [3, 128]
0.015592627 0.00041656816 0.00826955 0.0145015875 -0.022379981 -0.017913809 0.019120326 -0.046261232
0.056471072 -0.010132888 -0.06332749 -0.075847894 0.008080189 0.0077112815 -0.011574121 -0.032664236
0.037207104 -0.02891334 -0.017339876 -0.012702872 -0.013340703 0.036843073 -0.046663582 0.032601364
0.035455827 0.008238126 -0.016093055 -0.010130211 0.03477624 0.00018068896 0.012402853 -0.0058090645
-0.09951937 0.023137974 0.023115404 0.01704822 -0.031652544 -0.07073241 0.020113057 -0.0487076
-0.0717302 -0.037506152 0.03108143 -0.023841627 -0.018755075 0.0346872 -0.013996642 -0.0027019163
-0.022535546 0.02297449 -0.047439624 -0.035047356 -0.023572242 -0.07188689 0.058374118 0.036692478
-0.019347647 0.021196011 -0.020701433 0.044872012 -0.012520744 0.011676773 -0.020190261 0.00022376381
0.03800441 0.017561859 -0.061206315 0.04575984 -0.013769826 0.022909535 -0.018616952 -0.0011880371
-0.0024387802 0.04406915 -0.0073461463 0.0470377 -0.057187885 0.024471465 0.017489804 -0.046582356
-0.039487228 -0.0069711413 0.0058581275 -0.006490249 0.028350025 -0.028889926 -0.02195895 -0.0012305911
-0.005722124 -0.030082678 -0.032098107 0.0019510059 -0.018932046 0.023882806 -0.019856563 0.016418124
0.011335666 -0.052801564 -0.016358662 -0.032875706 -0.054601092 0.014371823 0.0022389248 0.019156119
-0.032777432 0.0038468165 -0.070318475 -0.06940631 -0.07998332 0.02493177 -0.01255727 -0.006818428
-0.040006932 -0.044854846 0.00964334 -0.0136197945 0.0478159 -0.036660343 -0.029859535 0.0425297
0.009554899 0.01089618 -0.017981017 -0.0002450599 0.0110193435 0.027107084 -0.077627376 0.00094472535
-0.023064213 -0.021452991 0.060380276 -0.02938518 -0.03889905 0.0021645296 0.06529788 0.028415503
0.052302334 -0.033985607 0.035766408 0.014625633 0.0502396 0.05407819 -0.052578423 -0.015391099
0.043321576 0.008318965 0.0045357337 0.0044200593 0.00084787345 -0.01584682 -0.060023073 -0.014187557
-0.01721832 0.047590252 0.047682412 -0.030961292 0.06366988 -0.032687496 -0.021390105 0.033728387
-0.03665695 -0.11137677 -0.004547815 -0.005419897 -0.025283465 -0.0893577 -0.005153427 -0.037344
-0.029064717 0.024648903 0.011119992 0.026893605 -0.0938844 0.07744428 -0.07296499 -0.051708456
-0.0013622674 -0.09842429 -0.019489355 0.028532874 -0.11836889 -0.013204491 0.067392565 -0.02276043
-0.00021521673 0.034589354 0.023784855 0.032135427 0.004624125 -0.0011249412 0.048469137 -0.014680997
0.035683934 -0.017300533 -0.06662978 -0.048027907 -0.046268646 -0.01799073 0.0014400817 -0.10171322
0.002685812 0.089822344 0.053866215 -0.037895713 -0.03873206 0.052716486 0.07730627 -0.047976553
0.03686675 0.012588913 0.026268128 0.035967316 -0.021246195 0.032786112 0.029314753 0.025981545
-0.03701946 -0.0031349505 -0.046759352 -0.012582429 0.0768565 0.05370439 -0.10493914 0.0108678
-0.028131982 -0.0026728176 -0.06099487 -0.03972779 0.017555175 0.051167984 0.025391223 0.023095697
-0.1346646 0.03180326 -0.019368045 -0.022208555 -0.021214234 -0.01812444 -0.0059566223 0.09268929
0.027459553 0.03720469 -0.06006834 0.016000133 0.059231427 0.022385284 -0.04270991 0.04803859
0.039650485 0.06519349 0.017591892 -0.13082291 0.009448541 0.07422576 0.0045038806 0.019935003
00000000: 3878 7f3c d566 da39 027d 073c 1198 6d3c
00000010: 3956 b7bc fbbf 92bc 3ba2 9c3c 6b7c 3dbd
00000020: 364e 673d 6a04 26bc d8b1 81bd 2456 9bbd
00000030: c562 043c ebae fc3b 62a1 3dbc efca 05bd
00000040: 7a66 183d abdb ecbc 5b0c 8ebc b51f 50bc
00000050: f792 5abc c3e8 163d 5022 3fbd 0289 053d
00000060: 213a 113d 34f9 063c 95d5 83bc 2ff9 25bc
00000070: 8871 0e3d 5377 3d39 5635 4b3c f759 bebb
00000080: d0d0 cbbd d98b bd3c 845c bd3c b5a8 8b3c
00000090: 19a6 01bd 27dc 90bd 23c4 a43c 9f81 47bd
000000a0: 48e7 92bd 0da0 19bd 7c9e fe3c 844f c3bc
000000b0: 3ea4 99bc 2a14 0e3d 2c52 65bc a212 31bb
000000c0: 779c b8bc ff34 bc3c 0d50 42bd d18d 0fbd
000000d0: 931a c1bc 6f39 93bd b319 6f3d da4a 163d
000000e0: f57e 9ebc 42a3 ad3c 0d96 a9bc b7cb 373d
000000f0: cf23 4dbc f04f 3f3c 0c66 a5bc 24a2 6a39
00000100: 83aa 1b3d e3dd 8f3c 79b3 7abd ac6e 3b3d
00000110: d69a 61bc c7ac bb3c 9482 98bc e9b7 9bba
00000120: f1d3 1fbb da81 343d f1b7 f0bb 9aaa 403d
00000130: d83d 6abd 6278 c83c c746 8f3c 24cd 3ebd
00000140: 5cbd 21bd 2c6e e4bb 89f5 bf3b 28ac d4bb
00000150: 503e e83c 91aa ecbc 42e3 b3bc c94b a1ba
00000160: a880 bbbb f36f f6bc 4e79 03bd e5b8 ff3a
00000170: 6117 9bbc e0a5 c33c 3baa a2bc 4d7f 863c
00000180: 3bb9 393c 7446 58bd 9a02 86bc ada8 06bd
00000190: 65a5 5fbd cb77 6b3c edba 123b 4bed 9c3c
000001a0: a141 06bd df1a 7c3b 2203 90bd e524 8ebd
000001b0: 4bce a3bd b63d cc3c 02bd 4dbc 1f6d dfbb
000001c0: 4fde 23bd b7b9 37bd 19ff 1d3c 8f25 5fbc
000001d0: 9bda 433d 2829 16bd fc9b f4bc 9f33 2e3d
000001e0: 278c 1c3c e485 323c ed4c 93bc 627b 80b9
000001f0: 7a8a 343c ad0f de3c 1afb 9ebd 72a7 773a
00000200: 29f1 bcbc 2fbe afbc 4f51 773d 30b9 f0bc
00000210: 9c54 1fbd c8da 0d3b e5ba 853d a1c7 e83c
00000220: f93a 563d 7e34 0bbd cc7f 123d 5aa0 6f3c
00000230: 0ac8 4d3d 1881 5d3d 795c 57bd f32a 7cbc
00000240: f771 313d 454c 083c 7ea0 943b 25d6 903b
00000250: d343 5e3a 31d1 81bc c1da 75bd ed72 68bc
00000260: 6f0d 8dbc ffed 423d a24e 433d 89a2 fdbc
00000270: 5b65 823d 53e3 05bd 4d3a afbc c726 0a3d
00000280: 9925 16bd 8119 e4bd d605 95bb 6499 b1bb
00000290: 451f cfbc 2b01 b7bd 14de a8bb 06f6 18bd
000002a0: 2119 eebc 7fec c93c a030 363c fa4f dc3c
000002b0: 7746 c0bd 1b9b 9e3d ab6e 95bd 3fcc 53bd
000002c0: 1c8e b2ba ad92 c9bd 24a8 9fbc c6bd e93c
000002d0: 636b f2bd a657 58bc 1d05 8a3d 1574 babc
000002e0: cdab 61b9 91ad 0d3d 75d8 c23c 70a0 033d
000002f0: f985 973b c372 93ba 9387 463d 9088 70bc
00000300: 5129 123d d9b9 8dbc 3275 88bd e9b8 44bd
00000310: 3184 3dbd 4c61 93bc 20c1 bc3a 054f d0bd
00000320: 7304 303b c7f4 b73d d2a2 5c3d 8938 1bbd
00000330: 82a5 1ebd 3eed 573d c052 9e3d 1083 44bd
00000340: 9701 173d ba41 4e3c 4230 d73c 7752 133d
00000350: 800c aebc bb4a 063d 7e25 f03c 40d7 d43c
00000360: b8a1 17bd be73 4dbb bc86 3fbd 8826 4ebc
00000370: f166 9d3d 22f9 5b3d 55ea d6bd db0e 323c
00000380: 0b75 e6bc 702a 2fbb c2d5 79bd 9bb9 22bd
00000390: dfcf 8f3c 8595 513d 4101 d03c 3033 bd3c
000003a0: 84e5 09be 2344 023d bca9 9ebc b7ee b5bc
000003b0: 79c9 adbc b579 94bc c52f c3bb e2d3 bd3d
000003c0: dbf2 e03c f263 183d 380a 76bd b612 833c
000003d0: a79c 723d 5861 b73c 96f0 2ebd 1dc4 443d
000003e0: 8c68 223d 2a84 853d df1c 903c 71f6 05be
000003f0: 0ece 1a3c ad03 983d 4a95 933b bb4e a33c

action_model._discrete_distribution.branches.1.bias f4 [3]
0.020640437 -0.034140952 0.011013343
00000000: 2216 a93c 62d7 0bbd 4f71 343c

action_model._discrete_distribution.branches.1.weight f4 [3, 128]
0.07604813 -0.008807564 -0.06708949 -0.005273115 -0.052345872 0.034589354 0.046916716 -0.1264273
0.061525233 -0.033220362 -0.005938538 -0.002806555 0.024634724 0.043361876 0.009855376 -0.07847035
-0.013906401 0.016641276 -0.032268703 -0.16827868 0.0018501937 0.04289098 -0.10829719 0.027695168
-0.105176136 0.07689892 0.110748746 0.05126355 -0.027286772 0.037094858 0.045029078 0.020283043
-0.11522393 -0.015087848 0.01183837 0.049412105 -0.008664063 -0.103464924 0.057669684 -0.045265783
-0.041414835 -0.008574305 0.026751414 0.042225122 0.007832116 -0.040852305 -0.03563352 -0.045815177
-0.022919677 0.020306565 0.0071219993 -0.050867688 -0.07608664 -0.11699543 0.02994894 -0.06107337
0.09230094 0.119633384 -0.06923601 -0.011746503 -0.15331535 0.083969094 0.03722753 -0.0056967004
0.119281396 -0.102639966 -0.07728768 0.00913229 0.032650873 0.10422873 -0.033004824 -0.01157848
-0.014525165 -0.07499672 0.012677833 0.01256027 -0.022215877 0.08561356 -0.001717354 -0.12551099
-0.04889114 -0.025811147 -0.077108264 0.13530721 0.099693015 0.07826424 0.030153822 -0.031422365
0.029272513 -0.13205248 0.04190403 0.07146596 -0.07675557 0.11741692 0.029801723 0.04921077
-0.04466966 -0.06167386 -0.08587964 -0.04509361 0.014591349 -0.042252004 0.05313715 -0.050381985
-0.058745645 0.010015359 -0.12773538 -0.1373946 -0.16439974 -0.03473037 -0.0030153603 -0.009526412
-0.08240418 0.014752839 -0.039034773 0.1638956 0.03278888 0.12304198 -0.045100145 0.059937686
0.029909676 -0.068855606 -0.032073323 -0.026011383 0.03728904 0.019549211 -0.09103384 0.047425453
-0.03327538 -0.0019784535 -0.065767646 -0.0027880217 0.008832173 -0.004119695 -0.053408414 -0.025945598
-0.042051665 -0.042595144 -0.027096001 -0.020814959 -0.063655175 -0.004107427 0.022662845 -0.04755238
-0.033006947 -0.028261585 0.031847924 -0.015008354 0.039114185 0.02921036 -0.022460232 -0.0053939195
0.022566494 -0.0677252 -0.043169886 0.045030575 -0.034379445 0.014231981 -0.018894957 -0.021540435
-0.027982462 0.027974144 -0.03734154 -0.0022239767 -0.01785184 0.010592916 -0.023905475 -0.010722467
-0.0374764 -0.004250212 0.015669424 -0.025300452 -0.013339244 -0.02524249 -0.017320855 0.023539465
0.046316396 0.0031723934 -0.023300301 -0.024898374 0.018129947 -0.046114687 -0.06725756 0.0069787255
-0.042263363 -0.03712285 -0.040781952 0.02063626 -0.017855974 -0.014962151 -0.028678581 -0.022387488
-0.030450555 0.03755366 0.013108453 0.025679149 -0.0062325136 -0.011202426 0.04612702 0.013585248
-0.0056231976 -0.046685588 0.0032676698 0.03308434 -0.054228246 -0.061411288 -0.042535152 0.00044628672
-0.034889933 -0.00040134968 0.053027466 -0.023291307 0.023428116 -0.032202847 -0.035929497 -0.030252159
-0.011778324 0.01855409 -0.0413843 -0.026253842 -0.015082466 -0.036008693 0.003945212 -0.01776594
0.013070835 -0.033867393 0.015924364 -0.03330955 -0.03384996 -0.012606343 -0.060083907 0.04720899
0.012073308 -0.035794765 0.012688721 -0.0410159 -0.039501946 0.04364068 0.03338408 -0.038562097
-0.011288046 -0.044653714 0.019935025 -0.0632173 -0.07990419 -0.043453176 0.003927135 -0.02305356
-0.04637351 0.015485562 0.012546677 0.023502083 -0.021605223 -0.05100135 -0.008394175 0.0040795035
00000000: 1fbf 9b3d 9a4d 10bc 3766 89bd 18ca acbb
00000010: a068 56bd 91ad 0d3d be2b 403d 2876 01be
00000020: e201 7c3d 1312 08bd 1198 c2bb 2eee 37bb
00000030: c3ce c93c 399c 313d 7178 213c 10b5 a0bd
00000040: acd7 63bc 4953 883c 302c 04bd 3f51 2cbe
00000050: 3382 f23a 74ae 2f3d ebca ddbd fae0 e23c
00000060: 9666 d7bd 2e7d 9d3d 3dd0 e23d baf9 513d
00000070: 8288 dfbc c7f0 173d 6970 383d a028 a63c
00000080: 86fa ebbd 0533 77bc b9f5 413c 5964 4a3d
00000090: b7f3 0dbc 6be5 d3bd 0c37 6c3d 9d68 39bd
000000a0: 9aa2 29bd 3e7b 0cbc c825 db3c 40f4 2c3d
000000b0: 4752 003c bf54 27bd 74f4 11bd b2a8 3bbd
000000c0: 0cc2 bbbc f459 a63c a95f e93b a35a 50bd
000000d0: 50d3 9bbd 4d9b efbd 7b57 f53c 1228 7abd
000000e0: 4608 bd3d 5902 f53d 9ccb 8dbd 6874 40bc
000000f0: b3fe 1cbe fdf7 ab3d e57b 183d 63ab babb
00000100: ce49 f43d e734 d2bd 0149 9ebd 9a9f 153c
00000110: ecbc 053d df75 d53d 1130 07bd aab3 3dbc
00000120: f5fa 6dbc e197 99bd b0b6 4f3c 97c9 4d3c
00000130: 12fe b5bc 2a56 af3d d718 e1ba f485 00be
00000140: 1342 48bd e671 d3bc f0ea 9dbd f98d 0a3e
00000150: da2b cc3d 0049 a03d 2605 f73c bdb4 00bd
00000160: e9cc ef3c c438 07be 8fa3 2b3d bf5c 923d
00000170: 0632 9dbd 4878 f03d be22 f43c 3b91 493d
00000180: 89f7 36bd bb9d 7cbd aae1 afbd 14b4 38bd
00000190: 8e10 6f3c 7010 2dbd 57a6 593d 575d 4ebd
000001a0: 469f 70bd 7617 243c 10cd 02be 2cb1 0cbe
000001b0: 6858 28be 6f41 0ebd 5a9d 45bb ab14 1cbc
000001c0: 86c3 a8bd e4b5 713c ede2 1fbd 40d4 273e
000001d0: a24d 063d 6ffd fb3d eeba 38bd 3881 753d
000001e0: 2305 f53c 2b04 8dbd 515f 03bd d315 d5bc
000001f0: 64bc 183d ab25 a03c f36f babd 3141 423d
00000200: c44b 08bd f1a8 01bb 30b1 86bd 3eb7 36bb
00000210: d2b4 103c 82fe 86bb c8c2 5abd dd8b d4bc
00000220: 5e3e 2cbd 3f78 2ebd 6ff8 ddbc 2284 aabc
00000230: a55d 82bd 9897 86bb 6ea7 b93c 49c6 42bd
00000240: 4b32 07bd d784 e7bc f872 023d 99e5 75bc
00000250: 3236 203d 914a ef3c 85fe b7bc 7abf b0bb
00000260: 5edd b83c 82b3 8abd e8d2 30bd fb71 383d
00000270: 76d1 0cbd 412d 693c 99c9 9abc 9175 b0bc
00000280: 7a3b e5bc 082a e53c 71f3 18bd 23c0 11bb
00000290: 063e 92bc e98d 2d3c 6ad5 c3bc 49ad 2fbc
000002a0: db80 19bd 5d45 8bbb 2a5d 803c e542 cfbc
000002b0: d88c 5abc 57c9 cebc 77e4 8dbc d6d5 c03c
000002c0: 43b6 3d3d eee7 4f3b 46e0 bebc adf7 cbbc
000002d0: 4185 943c c1e2 3cbd 55be 89bd cbad e43b
000002e0: 591c 2dbd 210e 18bd fa0a 27bd 600d a93c
000002f0: b146 92bc cf23 75bc 58ef eabc f765 b7bc
00000300: 7173 f9bc ded1 193d d6c4 563c 145d d23c
00000310: 1d3a ccbb 618a 37bc b0ef 3c3d a994 5e3c
00000320: cd42 b8bb 6339 3fbd 6726 563b 7283 073d
00000330: 701e 5ebd 678a 7bbd 5739 2ebd 97fb e939
00000340: bfe8 0ebd 3e6c d2b9 5433 593d 69cd bebc
00000350: 52ec bf3c 22e7 03bd cf2a 13bd 60d3 f7bc
00000360: dff9 40bc bffe 973c 9582 29bd 4c12 d7bc
00000370: 731c 77bc da7d 13bd d646 813b e089 91bc
00000380: 0e27 563c 89b8 0abd d073 823c 986f 08bd
00000390: 41a6 0abd d68a 4ebc 8b1a 76bd 375e 413d
000003a0: 20cf 453c 889d 12bd 5ae4 4f3c 4a00 28bd
000003b0: cbcc 21bd 92c0 323d bfbd 083d 4af3 1dbd
000003c0: 7ff1 38bc d0e6 36bd c74e a33c 1278 81bd
000003d0: cfa4 a3bd f5fb 31bd 32af 803b d2da bcbc
000003e0: 26f2 3dbd 28b7 7d3c 9490 4d3c 7187 c03c
000003f0: 70fd b0bc cbe6 50bd b987 09bc 5bad 853b

action_model._discrete_distribution.branches.2.bias f4 [3]
-0.006330028 -0.0038357037 0.014276113
00000000: 206c cfbb 6e60 7bbb 5ce6 693c

action_model._discrete_distribution.branches.2.weight f4 [3, 128]
-0.018540107 -0.035273816 0.00019630566 -0.024556069 -0.029447082 -0.016670229 -0.0043215165 0.012307379
-0.0034121217 -0.052691516 -0.039755203 -0.09262405 -0.046694882 0.06341199 -0.058019638 -0.07951319
-0.020885156 -0.039921105 0.053407528 0.0013162361 -0.0036892276 -0.007827641 -0.010693754 -0.012342379
0.0076106666 -0.021024225 0.009388824 -0.024004498 0.0057783937 -0.01375086 0.011073993 -0.010459909
-0.03947983 0.014546866 -0.06300246 -0.009474446 0.00892886 -0.034860414 -0.011834404 -0.05146422
-0.02269926 -0.008426833 0.018977609 0.026305834 -0.051071823 0.030544318 -0.045949772 0.053569555
-0.0049546394 0.045000892 -0.03857228 -0.017588513 0.006448804 -0.073754005 -0.00941391 -0.042545833
-0.07323085 -0.017175663 -0.03609386 0.046750493 -0.03168014 0.047495924 0.016458308 -0.07395832
0.008197432 0.005783257 -0.0035385832 0.02745669 -0.06257995 -0.0026395048 -0.015234768 -0.016513666
-0.058014 0.027526243 0.033474732 0.02199248 -0.020726483 0.005655473 0.012767079 -0.08034507
0.03906505 0.0057926644 0.06718196 0.004999611 0.0031222005 0.007973998 -0.047909148 -0.032606535
-0.02580213 -0.02331406 -0.098711 -0.0045339647 0.041735314 -0.031152902 -0.0063420255 -0.04207048
0.03757341 -0.039329264 -0.037528463 -0.042711426 -0.0068246736 0.019203847 -0.058571316 0.032582533
-0.028892243 0.006292211 -0.048384894 -0.06057579 -0.03223078 0.02276837 -0.0034793138 0.048372943
0.05131484 -0.05153171 -0.04727275 0.011658897 -0.025678666 -0.00055876037 -0.035673987 0.02503593
0.020072373 0.0500831 0.05955544 0.021320496 -0.011268201 -0.003743566 -0.034107935 0.091175124
-0.00067595317 0.008248704 -0.044121005 0.017760236 -0.02620514 0.0016942275 0.0076311897 -0.041045144
0.044086464 -0.034567878 -0.012774628 0.0043899645 -0.032324247 -0.00088077865 0.036436506 -0.021733372
0.0016905693 0.0051842644 0.029809084 -0.0688147 0.020157568 0.0021156878 -0.042672627 0.010313443
-0.033086415 -0.005303951 0.016994856 0.0070677265 0.0060439897 -0.0116066765 0.038356792 -0.0008923267
-0.04795286 -0.015635708 -0.005436679 -0.0003710538 0.0104399305 -0.039949775 0.008119712 -0.009093214
-0.008573416 -0.0023594706 0.016019993 -0.005297927 0.0030925667 0.011002927 0.0069544367 -0.027956149
0.010093759 0.02825919 -0.021755174 -0.030295076 -0.049360014 -0.06445814 0.029062593 -0.016545065
0.0064858617 0.033369206 -0.051552422 0.022864308 -0.06496363 0.016379138 -0.010882293 -0.015817042
0.035501186 -0.01837752 -0.0015589255 0.012156997 0.020619182 0.022632582 0.011186864 -0.004970573
0.010013468 -0.00244874 0.010013908 0.024355179 -0.03159832 0.007358814 -0.022706259 -0.09244183
-0.043857086 0.011308199 -0.016480574 0.040637217 0.028042262 -0.0029129859 0.0010993513 -0.024275545
-0.020309245 -0.061367534 0.035947055 0.034513902 -0.04217574 0.031563263 -0.0064717215 -0.014498624
-0.011329159 -0.041226186 -0.026609963 -0.023776405 0.0099932235 -0.00871681 -0.005329384 -0.031576525
-0.004939868 -0.00192923 -0.06378123 -0.067486286 -0.07452424 0.0016368158 0.009050173 -0.0006425643
-0.03614617 -0.03654626 0.045226995 0.015973233 0.01888007 0.011791223 0.0060766726 0.0124801975
0.0018827164 -0.00036941716 -0.06130525 -0.03546719 -0.006321395 0.0008707908 -0.044694 -0.017950354
00000000: 6ce1 97bc 477b 10bd 66d7 4d39 cf29 c9bc
00000010: 023b f1bc 0190 88bc 829b 8dbb e4a4 493c
00000020: e79d 5fbb 0fd3 57bd 5ad6 22bd aeb1 bdbd
00000030: 2243 3fbd 25de 813d 00a6 6dbd d0d7 a2bd
00000040: 5917 abbc 5084 23bd dac1 5a3d 8e85 ac3a
00000050: f8c6 71bb 823f 00bc db34 2fbc b137 4abc
00000060: e662 f93b ff3a acbc 95d3 193c 15a5 c4bc
00000070: ae58 bd3b 494b 61bc b16f 353c 0a60 2bbc
00000080: 9ab5 21bd fa55 6e3c 6f07 81bd b53a 1bbc
00000090: 5a4a 123c cbc9 0ebd 17e5 41bc 25cc 52bd
000000a0: ccf3 b9bc b310 0abc ee76 9b3c 557f d73c
000000b0: b030 51bd 1438 fa3c d435 3cbd c06b 5b3d
000000c0: 875a a2bb db52 383d f8fd 1dbd c915 90bc
000000d0: 7d50 d33b 570c 97bd cd3c 1abc 8a44 2ebd
000000e0: 0efa 95bd fab3 8cbc 28d7 13bd 727d 3f3d
000000f0: 09c3 01bd 168b 423d 93d3 863c 7677 97bd
00000100: 864e 063c 7a81 bd3b 93e7 67bb daec e03c
00000110: eb29 80bd 8bfb 2cbb 409b 79bc ab47 87bc
00000120: 17a0 6dbd b77e e13c cd1c 093d 9329 b43c
00000130: 96ca a9bc 8c51 b93b 032d 513c f58b a4bd
00000140: ad02 203d 64d0 bd3b b296 893d c7d3 a33b
00000150: d59d 4c3b 5fa5 023c 623c 44bd 6e8e 05bd
00000160: fd5e d3bc 21fd bebc fe28 cabd a791 94bb
00000170: a6f2 2a3d 5f34 ffbc c4d0 cfbb 1852 2cbd
00000180: 93e6 193d b917 21bd 72b7 19bd 2df2 2ebd
00000190: 83a1 dfbb 6351 9d3c 7ae8 6fbd 4375 053d
000001a0: 6daf ecbc e42e ce3b 3d2f 46bd 521e 78bd
000001b0: 6c04 04bd bc84 ba3c 3305 64bb b522 463d
000001c0: 822f 523d ea12 53bd 12a1 41bd f504 3f3c
000001d0: 115c d2bc c679 12ba e31e 12bd 2718 cd3c
000001e0: d16e a43c f023 4d3d 68f0 733d 52a8 ae3c
000001f0: 439e 38bc 9e56 75bb c3b4 0bbd 06ba ba3d
00000200: 7332 31ba 9225 073c 3ab8 34bd ea7d 913c
00000210: 29ac d6bc d710 de3a 0f0f fa3b f41e 28bd
00000220: 0294 343d 0c97 0dbd ac4c 51bc b1d9 8f3b
00000230: 6e66 04bd 0ee4 66ba 723e 153d 2f0a b2bc
00000240: 1896 dd3a c3e0 a93b 2e32 f43c b9ee 8cbd
00000250: 7c21 a53c 5aa7 0a3b 7ec9 2ebd b7f9 283c
00000260: 9f85 07bd c4cc adbb cc38 8b3c 6398 e73b
00000270: a90c c63b ee29 3ebc 031c 1d3d 08eb 69ba
00000280: 386a 44bd 7516 80bc 2b26 b2bb ff89 c2b9
00000290: 3e0c 2b3c 60a2 23bd 8a08 053c b4fb 14bc
000002a0: 8377 0cbc 59a1 1abb 5c3c 833c 3c9a adbb
000002b0: a9ac 4a3b 9f45 343c 0be2 e33b 4b04 e5bc
000002c0: 4b60 253c d17f e73c e837 b2bc 612d f8bc
000002d0: ba2d 4abd a102 84bd ad14 ee3c 8489 87bc
000002e0: 5a87 d43b 26ae 083d a228 53bd ee4d bb3c
000002f0: a70b 85bd 8b2d 863c a54b 32bc be92 81bc
00000300: b169 113d 748c 96bc dc54 ccba 242e 473c
00000310: 8fe9 a83c f767 b93c 1c49 373c 30e0 a2bb
00000320: 870f 243c 0a7b 20bb 6011 243c 8384 c73c
00000330: 3d6d 01bd 3522 f13b 7a02 babc 2452 bdbd
00000340: 7da3 33bd 0646 393c 4502 87bc 3673 263d
00000350: e3b8 e53c cbe7 3ebb 1c18 903a 82dd c6bc
00000360: 935f a6bc 865c 7bbd 383d 133d 735e 0d3d
00000370: 78c0 2cbd 7b48 013d bc10 d4bb a38b 6dbc
00000380: f09d 39bc cadc 28bd 23fd d9bc bcc6 c2bc
00000390: 9eba 233c f3d0 0ebc 1da2 aebb 6356 01bd
000003a0: 9ede a1bb 38de fcba bc9f 82bd 4036 8abd
000003b0: 2aa0 98bd 6d8a d63a 2d47 143c c371 28ba
000003c0: 020e 14bd 88b1 15bd f13f 393d 4cda 823c
000003d0: 60aa 9a3c f92f 413c d31e c73b be79 4c3c
000003e0: 7bc5 f63a 55ae c1b9 371b 7bbd 0b46 11bd
000003f0: b423 cfbb c845 643a 0e11 37bd 9f0c 93bc

action_model._discrete_distribution.branches.3.bias f4 [3]
0.0076115276 -0.024828576 0.017060472
00000000: 1f6a f93b 4c65 cbbc 67c2 8b3c

action_model._discrete_distribution.branches.3.weight f4 [3, 128]
0.007344853 0.0023704048 0.084193625 0.035343952 0.040798247 -0.00028674843 0.06905692 -0.02274998
0.0010156675 0.06306131 0.07262977 0.056114327 0.12930316 0.009561115 -0.03330541 0.017993152
0.10824758 0.032896295 -0.020065887 0.03118142 -0.009631522 0.0005825557 -0.052927345 -0.02065221
0.03141452 0.081550464 0.030005286 0.048086833 0.086014956 0.039173182 -0.14106147 0.030990155
-0.029993674 -0.1239132 0.019005166 -0.008007218 -0.014375973 -0.083499625 -0.021541325 -0.0029460147
0.008283572 -0.0028385087 -0.000884394 0.059333596 -0.03221219 0.033204827 -0.104836695 -0.11743991
-0.01741068 -0.104902424 0.053337663 0.05752845 -0.06184512 0.016984748 0.020395348 -0.031774662
0.0653486 -0.0150277335 0.09210086 0.013989564 0.038430218 -0.041641798 -0.023381438 0.032893386
0.041371763 0.038115676 0.028682498 -0.15352082 0.03673264 -0.018136406 -0.023686917 -0.05151321
-0.019550765 0.05847335 -0.06041266 -0.020155791 -0.034285404 0.1280353 0.05530597 0.034775514
0.02545322 -0.0931636 -0.030209059 -0.030946454 0.008734025 0.005510655 0.060509644 0.06869702
0.052544296 -0.0026536908 0.029270418 0.014903018 0.019223226 0.02155264 -0.09563836 0.05062538
-0.017936714 0.061967015 -0.07259233 -0.055250295 0.07135725 -0.010571413 0.103444904 -0.12736207
-0.12661272 -0.0033843452 0.055610918 0.006018103 0.016884424 -0.013526289 -0.025831047 -0.042988196
0.03415762 0.091045834 -0.036935404 -0.039359353 0.09535892 0.030951157 0.008958971 0.02199869
-0.0024064835 -0.032679256 -0.046416473 -0.1169502 0.081168324 0.07709036 0.021327974 -0.05147602
0.015229782 0.038033966 -0.08188918 0.0010404604 -0.0049119503 0.011787473 -0.13598742 0.0027293384
-0.030578991 -0.017182503 -0.0538351 -0.014841841 -0.13099144 -0.06744135 0.053048953 -0.0069895727
-0.14577824 -0.025079394 0.041041844 -0.00766196 0.04101462 0.0015384684 0.06953796 0.0595397
-0.042585112 -0.11415083 -0.060898945 -0.040955957 -0.112228766 -0.024656482 0.13240317 -0.10126766
0.07692961 0.15546475 -0.0024718258 -0.0041062944 0.038001675 0.11360372 -0.01955958 0.045751236
-0.0011019558 0.015822845 0.0050230664 -0.065928474 0.08038522 -0.081408225 0.084282994 0.11598046
0.015279104 0.12808947 -0.029579591 -0.037463006 0.10239595 0.026690835 -0.14835559 0.0075470237
-0.110763766 0.035536755 -0.03828815 -0.036306817 0.005157442 0.023909675 -0.0021534406 -0.029680854
-0.11676365 -0.006974636 0.045207355 0.11326864 -0.010319826 -0.01571672 0.02505516 0.10126627
0.03909978 -0.14485933 0.030013481 0.029313916 0.054559473 -0.21465628 -0.09458192 0.017648157
-0.0055006747 0.080001734 -0.00046593059 -0.030932168 -0.03367422 -0.031530555 -0.05979692 -0.064978726
-0.020389814 0.02665098 -0.002083457 -0.014870949 -0.052026447 -0.099407 0.110044345 -0.07651112
0.041712098 -0.036344554 0.08775337 0.049965568 -0.056018025 -0.016837368 -0.111143865 0.08382836
0.14007854 -0.019072311 0.007831991 0.046974372 0.023773538 0.034588512 0.008782558 -0.022664985
-0.019839698 -0.050812673 0.059694413 0.020840038 -0.15012722 -0.07115921 0.037361506 -0.12041019
-0.062427703 -0.04278743 0.036427647 0.1422889 -0.08162312 -0.15621921 -0.0019598238 0.011284671
00000000: 18ad f03b cb58 1b3b b56d ac3d d2c4 103d
00000010: 101c 273d b956 96b9 b76d 8d3d 2b5e babc
00000020: 2520 853a 4a26 813d ebbe 943d 23d8 653d
00000030: 0c68 043e 39a6 1c3c 416b 08bd 6066 933c
00000040: e8b0 dd3d 44be 063d 3761 a4bc 2d70 ff3c
00000050: 88cd 1dbc a7b6 183a 58ca 58bd d32e a9bc
00000060: 83ac 003d ee03 a73d a5cd f53c b3f6 443d
00000070: 9c28 b03d 0f74 203d 6b72 10be 11df fd3c
00000080: 4bb5 f5bc 34c6 fdbd b9b0 9b3c b530 03bc
00000090: 3389 6bbc da01 abbd 6f77 b0bc ed11 41bb
000000a0: d2b7 073c 4606 3abb add6 67ba c907 733d
000000b0: eef0 03bd c901 083d 9fb4 d6bd 5684 f0bd
000000c0: d8a0 8ebc 15d7 d6bd 9878 5a3d f4a2 6b3d
000000d0: 4f51 7dbd 9923 8b3c 2514 a73c 2626 02bd
000000e0: 7dd5 853d e236 76bc 609f bc3d 7c34 653c
000000f0: 0169 1d3d 9790 2abd 6e8a bfbc 37bb 063d
00000100: 7075 293d 2f1f 1c3d 8ff7 ea3c 9034 1dbe
00000110: f774 163d cd92 94bc 110b c2bc 84ff 52bd
00000120: ed28 a0bc c081 6f3d 4473 77bd c21d a5bc
00000130: da6e 0cbd b01b 033e 8388 623d c570 0e3d
00000140: 4583 d03c 8fcc bebd fd78 f7bc 6b83 fdbc
00000150: 2819 0f3c ba92 b43b f6d8 773d 06b1 8c3d
00000160: b038 573d 8be9 2dbb 84c8 ef3c ca2b 743c
00000170: 077a 9d3c 298f b03c 0bde c3bd 8f5c 4f3d
00000180: 04f0 92bc 20d1 7d3d 4aab 94bd 224e 62bd
00000190: c023 923d b833 2dbc ecda d33d 346b 02be
000001a0: c4a6 01be e4cb 5dbb 46c8 633d 8233 c53b
000001b0: 3451 8a3c 5e9d 5dbc a29b d3bc 6414 30bd
000001c0: dce8 0b3d 3d76 ba3d 9449 17bd 4637 21bd
000001d0: 8a4b c33d 488d fd3c a6c8 123c 9936 b43c
000001e0: 18b6 1dbb afda 05bd 331f 3ebd 9683 efbd
000001f0: 943b a63d 8de1 9d3d 01b8 ae3c 85d8 52bd
00000200: 5686 793c 81c9 1b3d 84b5 a7bd 0f60 883a
00000210: 6df4 a0bb 3f20 413c 4940 0bbe b3de 323b
00000220: cb80 fabc 52c2 8cbc 3282 5cbd 312b 73bc
00000230: 9f22 06be b11e 8abd dc49 593d c908 e5bb
00000240: e446 15be 4d73 cdbc 7e1b 283d 2e11 fbbb
00000250: f2fe 273d 6fa6 c93a eb69 8e3d e7df 733d
00000260: ba6d 2ebd e9c7 e9bd 2c71 79bd 6fc1 27bd
00000270: 32d8 e5bd 64fc c9bc b294 073e 6b65 cfbd
00000280: 458d 9d3d 2732 1f3e 5bfe 21bb 188e 86bb
00000290: a5a7 1b3d 11a9 e83d 6a3b a0bc a665 3b3d
000002a0: 806f 90ba e99e 813c 8998 a43b 8205 87bd
000002b0: 02a1 a43d 5bb9 a6bd 909c ac3d 2a87 ed3d
000002c0: 3555 7a3c e329 033e e650 f2bc cf72 19bd
000002d0: f8b4 d13d bda6 da3c 87ea 17be 064d f73b
000002e0: 1dd8 e2bd fd8e 113d 09d4 1cbd 75b6 14bd
000002f0: c2ff a83b 39de c33c bd20 0dbb 4325 f3bc
00000300: c821 efbd 7d8b e4bb 592b 393d 64f9 e73d
00000310: 7d14 29bc 5ac0 80bc 7b40 cd3c b164 cf3d
00000320: 1727 203d 0156 14be d5de f53c bd23 f03c
00000330: c179 5f3d dbce 5bbe 2ab4 c1bd de92 903c
00000340: 013f b4bb f3d7 a33d 2548 f4b9 7565 fdbc
00000350: fbed 09bd 2f26 01bd 9ded 74bd 9113 85bd
00000360: 8a08 a7bc 2853 da3c 9c8a 08bb 48a5 73bc
00000370: af19 55bd e695 cbbd ee5e e13d ddb1 9cbd
00000380: 4eda 2a3d 07de 14bd 0ab8 b33d b2a8 4c3d
00000390: 2873 65bd 85ee 89bc 659f e3bd 34ae ab3d
000003a0: c070 0f3e 893d 9cbc c051 003c 3368 403d
000003b0: b9c0 c23c afac 0d3d b8e4 0f3c ebab b9bc
000003c0: dd86 a2bc f320 50bd 2182 743d bab8 aa3c
000003d0: f3ba 19be ebbb 91bd 6108 193d 9e99 f6bd
000003e0: 31b4 7fbd df41 2fbd 2835 153d 2eb4 113e
000003f0: 062a a7bd eef7 1fbe 6370 00bb 57e3 383c

action_model._discrete_distribution.branches.4.bias f4 [3]
-0.013930936 -0.012785002 0.026350182
00000000: 953e 64bc 2f78 51bc 56dc d73c

action_model._discrete_distribution.branches.4.weight f4 [3, 128]
0.041627333 0.023936309 -0.029456511 -0.0010592588 -0.057937168 0.0052635763 -0.011288744 -5.9895574e-05
0.02694454 -0.05426267 -0.021011878 -0.033647485 -0.038755246 0.017441632 0.0073275515 0.0047576586
-0.000192822 -0.013333126 0.026417939 -0.053281765 0.024001373 0.01977488 0.0036337774 -0.007203704
-0.00819019 -0.01611419 0.015855793 0.04801869 -0.003135368 0.05229415 0.009930653 0.002029558
-0.060671985 -0.015369918 -0.026018761 0.028458932 0.023964036 -0.034318224 -0.0074091996 -0.0018764944
-0.030161776 -0.0072758244 0.008945955 -0.0018660235 -0.00038112592 -0.0064774216 0.0019190564 -0.0022109954
0.0026244062 -0.0025433276 -0.03460472 -0.014963879 -0.031052396 -0.047814794 0.011046342 0.016386561
-0.0013247064 0.016678063 -0.046077773 0.02721208 -0.048464406 0.030269755 0.034629676 -0.048898242
-0.01145802 -0.017433587 -0.039924838 0.017775072 -0.039753653 0.04183735 0.0061612204 -0.016200934
0.015855247 -0.007783194 0.02106804 0.059591245 -0.048876423 0.009681461 -0.016201153 -0.084097095
-0.0137227485 -0.0010173515 0.02422944 0.020896226 0.03693677 0.027351964 -0.028698599 -0.046380345
-0.0138282785 -0.04214152 0.0006620924 0.016781505 -0.023050819 0.03444699 -0.011816883 0.0136740515
-0.010735882 -0.07873359 -0.024589049 -0.01919342 -0.021488454 0.022158744 -0.016479447 0.023858454
-0.03927736 0.01575664 -0.07801876 -0.04383732 -0.048020493 0.028455388 0.02955091 -0.00017383059
-0.025225526 -0.033169515 -0.041699406 0.01006273 0.013264644 0.025585117 -0.049452774 0.026244972
0.022847036 0.018770035 0.0050793085 -0.015097643 -0.013180165 -0.01147002 -0.04716867 0.021503804
0.020003362 -0.0085851615 -0.010752222 -0.01855649 -0.031495653 -0.026704941 -0.016735101 -0.0028148561
0.008795426 -0.007214098 -0.034163132 -0.023496239 -0.014049072 0.011276648 0.027211195 -0.011720114
-0.014477846 -0.049457222 0.01325676 -0.062292684 -0.004733469 0.025401097 -0.076391414 0.01830527
-0.015843038 -0.0068149474 0.027906258 0.010966297 -0.016034191 -0.004834235 0.024826827 -0.033388555
-0.041761924 -0.004893934 -0.010779889 0.0077739353 0.024540259 -0.06637762 -0.0049457974 0.01482946
-0.0065084985 -0.004831816 -0.014807985 -0.004129878 -0.011711461 -0.0069898413 0.02743723 -0.015786853
0.00730054 0.020697253 -0.022730792 -0.005662029 -0.03983976 -0.043761685 0.025159962 -0.02717835
0.021838794 0.014261165 -0.012448727 0.011834007 -0.05329892 0.043173075 0.026956612 -0.028966194
-0.00560162 -0.0384024 -0.049885154 0.0017555894 -0.015605731 0.038260344 0.015242114 0.018545108
-0.00234402 -0.024511589 0.020367425 0.025071979 0.036402013 -0.04081521 -0.024945186 -0.13231039
0.032227226 0.013455863 -0.001725752 0.018959358 0.02587493 0.009491015 -0.034555838 -0.031993233
-0.008716506 -0.027011568 -0.01181579 0.04014473 0.016250018 -0.01284754 -0.022152957 -0.006061321
-0.018729873 -0.072568804 -0.06787181 -0.05218978 -0.020092664 -0.011378378 -0.010467457 -0.01201588
-0.05030324 -0.011257476 -0.03230784 -0.011843833 -0.0058877016 0.02184884 0.037327167 0.0031830838
-0.018236184 -0.009522305 -0.005227982 0.028873738 -0.0027245644 0.020936396 0.0061710994 -0.0019408917
-0.0003197547 0.014061527 0.024773195 -0.0073755807 -0.009022974 -0.011640066 -0.016117277 0.037441418
00000000: 6c81 2a3d 1416 c43c c84e f1bc d4d6 8aba
00000010: 864f 6dbd 147a ac3b 6df4 38bc 6238 7bb8
00000020: ccba dc3c 8942 5ebd 1a21 acbc f2d1 09bd
00000030: d2bd 1ebd c1e1 8e3c f51b f03b 22e6 9b3b
00000040: 4330 4ab9 2f73 5abc 6f6a d83c fb3d 5abd
00000050: 879e c43c eefe a13c ab24 6e3b 0d0d ecbb
00000060: 2630 06bc e801 84bc 02e4 813c 3faf 443d
00000070: bf7a 4dbb 6432 563d 2db4 223c 5502 053b
00000080: 3083 78bd 1cd2 7bbc 4c25 d5bc b522 e93c
00000090: 3a50 c43c 4491 0cbd dfc8 f2bb b4f4 f5ba
000000a0: d415 f7bc 0a6a eebb 0e92 123c 5c95 f4ba
000000b0: dbd1 c7b9 8d40 d4bb d988 fb3a 59e6 10bb
000000c0: 3bfe 2b3b f5ad 26bb aebd 0dbd 0f2b 75bc
000000d0: 9861 febc 72d9 43bd b7fb 343c 1c3d 863c
000000e0: c5a1 adba 6fa0 883c 0cbc 3cbd deeb de3c
000000f0: 9d82 46bd 47f8 f73c d9d7 0d3d 8649 48bd
00000100: 6bba 3bbc e2d0 8ebc 3a88 23bd 079d 913c
00000110: bad4 22bd a45d 2b3d 10e4 c93b d2b7 84bc
00000120: dde2 813c 2a0a ffbb e296 ac3c f315 743d
00000130: a532 48bd fe9e 1e3c 48b8 84bc 193b acbd
00000140: 61d5 60bc a758 85ba d27c c63c 902e ab3c
00000150: 034b 173d 3a11 e03c 5319 ebbc 51f9 3dbd
00000160: 0190 62bc 969c 2cbd 4590 2d3a 5e79 893c
00000170: 12d5 bcbc 4918 0d3d 9a9b 41bc 2109 603c
00000180: 8ee5 2fbc 143f a1bd f96e c9bc 853b 9dbc
00000190: 8e08 b0bc 4186 b53c e8ff 86bc ce72 c33c
000001a0: 4ce1 20bd 1214 813c 4dc8 9fbd c38e 33bd
000001b0: 23b1 44bd 461b e93c c014 f23c 4b46 36b9
000001c0: c3a5 cebc c2dc 07bd ffcc 2abd 26de 243c
000001d0: f353 593c e197 d13c fe8e 4abd b2ff d63c
000001e0: b529 bb3c 9ec3 993c 5470 a63b 1b5c 77bc
000001f0: 9ef1 57bc c0ec 3bbc ef33 41bd bf28 b03c
00000200: 17de a33c c7a8 0cbc 162a 30bc c803 98bc
00000210: 9601 01bd 52c4 dabc 0d18 89bc 7379 38bb
00000220: b11a 103c 3d64 ecbb a4ee 0bbd 2f7b c0bc
00000230: 142e 66bc b1c1 383c 03ea de3c b905 40bc
00000240: 7d34 6dbc a893 4abd e232 593c 9d26 7fbd
00000250: 371b 9bbb f615 d03c 1a73 9cbd eff4 953c
00000260: 42c9 81bc ec4f dfbb aa9b e43c fcab 333c
00000270: 235a 83bc 8168 9ebb a161 cb3c 70c2 08bd
00000280: 8d0e 2bbd 4b5d a0bb 229e 30bc 7fbc fe3b
00000290: a708 c93c fdf0 87bd 5b10 a2bb 43f7 723c
000002a0: 3e45 d5bb 3654 9ebb 319d 72bc ed53 87bb
000002b0: 6de1 3fbc 0a0b e5bb 0bc4 e03c 6e53 81bc
000002c0: 5e39 ef3b 498d a93c ed35 babc 8b88 b9bb
000002d0: 042f 23bd 743f 33bd 441c ce3c 22a5 debc
000002e0: 45e7 b23c a9a7 693c bff5 4bbc 6ce3 413c
000002f0: f84f 5abd 40d6 303d 1dd4 dc3c 834a edbc
00000300: cb8d b7bb d64b 1dbd 6054 4cbd ce1b e63a
00000310: 2eaf 7fbc e1b6 1c3d 0fba 793c e9eb 973c
00000320: 219e 19bb 87cc c8bc 96d9 a63c c063 cd3c
00000330: 471a 153d da2d 27bd d959 ccbc 607c 07be
00000340: b200 043d fb75 5c3c a132 e2ba a850 9b3c
00000350: a9f7 d33c 3480 1b3c 6c8a 0dbd 560b 03bd
00000360: adcf 0ebc 5d47 ddbc 0497 41bc cd6e 243d
00000370: c21e 853c 7d7e 52bc 1e7a b5bc 0c9e c6bb
00000380: 646f 99bc f49e 94bd 6000 8bbd f3c4 55bd
00000390: 5f99 a4bc 606c 3abc b27f 2bbc 41de 44bc
000003a0: c50a 4ebd 4771 38bc 3a55 04bd a30c 42bc
000003b0: 9fed c0bb 57fc b23c 5fe4 183d 499b 503b
000003c0: 0d64 95bc 7103 1cbc 7e4f abbb 9e88 ec3c
000003d0: 9b8e 32bb ce82 ab3c ef36 ca3b 8565 feba
000003e0: c0a4 a7b9 5262 663c 28f1 ca3c dbae f1bb
000003f0: 19d5 13bc fab5 3ebc 6108 84bc 2c5c 193d

action_model._discrete_distribution.branches.5.bias f4 [3]
-0.02466506 -0.018044168 0.039538637
00000000: 610e cabc 5dd1 93bc 44f3 213d

action_model._discrete_distribution.branches.5.weight f4 [3, 128]
0.024171235 0.014809148 -0.059869237 0.017743906 -0.010247348 -0.013133501 -0.031523857 -0.018785907
-0.005593809 -0.016981607 -0.011944401 -0.016517991 -0.044818413 -0.008887125 0.013288001 -0.019347243
-0.026647303 -0.017080177 0.011481224 -0.080618404 0.044388514 0.0013185773 -0.004613806 -0.0065120775
0.023053026 -0.039181612 -0.027282331 0.017482838 -0.026134228 0.013324406 -0.021116808 -0.032902364
-0.049889613 -0.011672481 -0.016982432 0.012456668 0.016776603 -0.08104082 0.017075548 -0.036065407
0.0032770666 0.0039433884 0.019654015 -0.0069412543 -0.006960142 -0.0018410245 -0.0055965646 -0.0032695532
0.03681806 0.013522024 -0.017900309 -0.018454399 -0.012954732 -0.091445245 -0.035927057 -0.02213902
0.009000815 0.0024593002 -0.047972362 0.002987654 -0.053371705 0.0050707776 -0.04146711 -0.021608299
0.012626486 -0.0161355 -0.00610872 0.0003042996 -0.011356883 0.008302864 -0.0017826691 -0.01705224
0.010724148 -0.035433576 0.00031882507 0.019299714 -0.049369473 -0.030640729 -0.045775387 -0.06784403
-0.036245294 -0.0066345176 0.020522295 0.038668938 0.028113909 -0.029296266 0.007779365 -0.02662455
-0.019671971 -0.050414555 0.0018683324 0.016925037 0.0012563627 0.005902346 -0.013577037 -0.03818299
-0.034706 -0.04298425 -0.034438174 -0.004974449 -0.0004792394 -0.028556503 -0.0168449 -0.014844446
-0.025479663 0.004337363 -0.023441795 -0.07019234 -0.08048498 0.0084186345 0.037814204 -0.023142174
-0.02945381 -0.037276667 0.00047573756 0.012595612 -0.007106993 0.012737712 -0.0061205584 -0.01431685
0.0006589684 0.0018619596 -0.037260074 -0.0435349 -0.0038999692 -0.009698411 -0.054509576 -0.002191513
-0.022865344 -0.0015896779 -0.009027079 -0.011939951 -0.0434086 0.02080006 -0.012955079 0.011349762
0.011140871 -0.05656571 -0.013720372 -0.03727497 -0.001327975 0.045808516 0.027035287 -0.010155218
0.0057268753 -0.011347101 0.00967076 -0.02522579 -0.010352544 0.013116017 -0.025485134 0.014640723
-0.040959034 -0.0012763181 0.022936104 -0.0019004303 -0.00608661 -0.01742253 0.054077823 -0.0030112434
-0.059053272 0.024207126 -0.020089705 0.031940885 0.018410308 -0.02838077 0.009561273 -0.025851479
-0.05149394 0.0024207744 0.015923843 0.0009310513 -0.008227854 0.0047524786 -0.013679602 0.023539808
0.024373874 0.039751574 -0.04371935 -0.025525862 -0.0034777967 -0.06333054 0.002956658 -0.031336524
-0.029718298 0.013813286 -0.016298601 0.030926596 -0.04359778 0.054399483 0.025635606 -0.04895073
0.017811654 -0.046322525 -0.0052354904 0.05049527 -0.06807561 0.040030956 0.0026416683 0.0023591716
0.019326124 0.036983762 0.060810227 0.0113567365 -0.0245342 -0.004745713 0.012975674 -0.074479714
-0.014770367 0.028592624 0.020331923 0.0037762714 0.0030156644 0.030436749 -0.024494253 -0.02801809
-0.04086967 -0.03205191 -0.0434597 -0.013761605 0.0336393 0.059904136 0.022053618 -0.037329152
-0.0033180327 -0.05549288 -0.018762993 -0.034880478 -0.011796528 0.010358902 -0.028576344 0.026460903
0.009329733 0.009871133 -0.09797119 -0.053821545 -0.05151374 0.010980387 0.008736781 0.030481683
-0.020464985 -0.04831731 0.016801981 0.058179934 0.019586407 -0.00012339122 0.0019579297 0.021928437
0.031824622 0.04732092 0.027004987 0.020626994 -0.023647884 -0.0012908255 -0.033717778 0.02822672
00000000: c102 c63c 12a2 723c 7239 75bd ab5b 913c
00000010: 7ee4 27bc e52d 57bc 291f 01bd e7e4 99bc
00000020: 454c b7bb 031d 8bbc 73b2 43bc bd50 87bc
00000030: 8393 37bd 4e9b 11bc eab5 593c 1c7e 9ebc
00000040: 724b dabc baeb 8bbc be1b 3c3c 431b a5bd
00000050: bbd0 353d 1dd4 ac3a 692f 97bb 4463 d5bb
00000060: b3d9 bc3c e67c 20bd 327f dfbc 2b38 8f3c
00000070: 7317 d6bc 9c4e 5a3c 28fd acbc a1c4 06bd
00000080: 0d59 4cbd ef3d 3fbc be1e 8bbc 0d17 4c3c
00000090: 166f 893c bbf8 a5bd 05e2 8b3c 52b9 13bd
000000a0: 0ec4 563b 8a37 813b 7501 a13c 7673 e3bb
000000b0: e711 e4bb 884e f1ba 6363 b7bb 0046 56bb
000000c0: 89ce 163d 7b8b 5d3c aba3 92bc ae2d 97bc
000000d0: 1640 54bc a547 bbbd 4028 13bd e45c b5bc
000000e0: 2878 133c 362c 213b ab7e 44bd 84cc 433b
000000f0: 4a9c 5abd c428 a63b 6bd9 29bd e303 b1bc
00000100: 52df 4e3c 992e 84bc a82b c8bb 678a 9f39
00000110: 3812 3abc bc08 083c 73a8 e9ba 24b1 8bbc
00000120: 56b4 2f3c cc22 11bd fa27 a739 6f1a 9e3c
00000130: a537 4abd 4402 fbbc f97e 3bbd d0f1 8abd
00000140: f275 14bd 5e66 d9bb 5f1e a83c 5263 1e3d
00000150: 244f e63c b9fe efbc 0bea fe3b ba1b dabc
00000160: 1d27 a1bc 7e7f 4ebd d5e2 f43a 60a6 8a3c
00000170: 89ac a43a 7868 c13b 3872 5ebc c465 1cbd
00000180: e127 0ebd 4110 30bd 0b0f 0dbd b400 a3bb
00000190: 6c42 fbb9 54ef e9bc 51fe 89bc 1f36 73bc
000001a0: baba d0bc 7020 8e3b 0209 c0bc 00c1 8fbd
000001b0: 4fd5 a4bd 50ee 093c 11e3 1a3d a894 bdbc
000001c0: 1e49 f1bc 6baf 18bd 6a6c f939 d35d 4e3c
000001d0: c7e1 e8bb d6b1 503c f78e c8bb 3991 6abc
000001e0: 9fbe 2c3a ff0c f43a 059e 18bd a751 32bd
000001f0: a096 7fbb 16e6 1ebc 6f45 5fbd 7d9f 0fbb
00000200: 1a50 bbbc bd5c d0ba 50e6 13bc c99f 43bc
00000210: 37cd 31bd e364 aa3c 8a41 54bc 5af4 393c
00000220: 3388 363c 72b1 67bd 69cb 60bc a4ad 18bd
00000230: 720f aeba b6a1 3b3d 1b79 dd3c 1262 26bc
00000240: 83a8 bb3b 31e9 39bc 1b72 1e3c 51a6 cebc
00000250: b79d 29bc 90e4 563c 33c6 d0bc a5df 6f3c
00000260: a9c4 27bd 214a a7ba 7fe4 bb3c dc17 f9ba
00000270: 2f72 c7bb b2b9 8ebc b580 5d3d 4858 45bb
00000280: d8e1 71bd 064e c63c 2a93 a4bc 72d4 023d
00000290: 37d1 963c ca7e e8bc e3a6 1c3c 7bc6 d3bc
000002a0: 4feb 52bd dba5 1e3b b872 823c cc11 743a
000002b0: 1fce 06bc aeba 9b3b 6920 60bc 8ed6 c03c
000002c0: b8ab c73c 8cd2 223d 1013 33bd 9d1b d1bc
000002d0: bfeb 63bb 71b3 81bd 7dc4 413b ba5a 00bd
000002e0: ca73 f3bc 1f51 623c a584 85bc c659 fd3c
000002f0: 9693 32bd fed1 5e3d c301 d23c 9080 48bd
00000300: bfe9 913c b0bc 3dbd 7a8e abbb 21d4 4e3d
00000310: 3a6b 8bbd 80f7 233d d71f 2d3b 559c 1a3b
00000320: d251 9e3c 497c 173d 2514 793d 9b11 3a3c
00000330: f2fb c8bc ed81 9bbb ec97 543c d288 98bd
00000340: 69ff 71bc 143b ea3c 228f a63c 527b 773b
00000350: 74a2 453b 7d56 f93c 2ca8 c8bc 3286 e5bc
00000360: f566 27bd dd48 03bd cc02 32bd 5b78 61bc
00000370: 5dc9 093d 0a5e 753d caa9 b43c 74e6 18bd
00000380: 5a73 59bb 814c 63bd d9b4 99bc d5de 0ebd
00000390: 3946 41bc 62b8 293c f018 eabc 89c4 d83c
000003a0: bddb 183c 88ba 213c 1fa5 c8bd fb73 5cbd
000003b0: 1200 53bd 15e7 333c b724 0f3c b9b4 f93c
000003c0: 2fa6 a7bc 5fe8 45bd 4fa4 893c 154e 6e3d
000003d0: ac73 a03c 9462 01b9 9c50 003b 44a3 b33c
000003e0: 895a 023d 95d3 413d 9039 dd3c f1f9 a83c
000003f0: 35b9 c1bc eb30 a9ba a71b 0abd b93b e73c

action_model._discrete_distribution.branches.6.bias f4 [3]
-0.012969433 -0.0055375164 0.020052016
00000000: bf7d 54bc 0e74 b5bb 2044 a43c

action_model._discrete_distribution.branches.6.weight f4 [3, 128]
-0.014660214 -0.034293287 -0.018719519 -0.020498956 -0.04032306 -0.015777104 0.011909086 0.012741671
0.026891315 -0.043726202 -0.0024323687 -0.017549857 -0.0029688748 0.053311955 -0.022880077 -0.0050063655
0.003961034 -0.041565247 0.033416793 0.002325984 0.0035392717 -0.02637399 -0.013313986 -0.02221532
-0.00024286736 -0.008579975 -0.004848591 0.025891328 0.024194675 0.052867573 -0.005780078 -0.0030964806
-0.08820736 -0.02029554 -0.009315423 0.020736288 0.00807412 -0.06905375 -0.007563703 -0.02573566
-0.0566412 -0.014675406 -0.0008912491 0.012882795 -0.033135686 0.051383704 -0.07433897 -0.018632544
0.020783491 -0.012546516 -0.038382746 -0.008249105 -0.07082178 -0.07669849 0.030579008 -0.014415825
-0.019300973 0.007277857 -0.01333934 0.021229375 -0.030027911 0.0035907407 0.03309669 -0.044472788
-0.004417903 -0.015325491 -0.014253311 -0.0034716092 -0.041824616 0.042404626 0.009319416 -0.046945356
-0.022636402 0.038459 0.013922143 0.01090773 -0.06817705 0.015805803 0.04180437 -0.03506504
-0.013754636 -0.021092096 0.056309678 0.038309168 0.019489259 0.031556338 -0.007939778 -0.020264491
-0.035959978 -0.010152876 0.0067142784 0.027703675 0.028877081 0.011235949 -0.019220317 0.011598227
0.0053605195 -0.034284055 -0.06841179 0.022088068 0.024034427 0.023117565 0.00238935 0.010547647
-0.042998742 0.016024396 -0.04695365 -0.05212861 -0.073974356 0.012210139 0.018228915 0.029257542
0.0096403565 -0.0106952675 -0.026524812 0.025566766 0.00070290285 0.024093892 -0.020028463 0.019717852
0.012621024 0.05302743 0.013045569 -0.033731803 -0.023327468 0.0055619543 -0.018911174 0.017307628
-0.023443675 0.004951006 0.00088257925 -0.015513253 -0.017101897 -0.029454198 -0.014430478 0.005483896
0.0009993231 -0.04006939 -0.029192436 -0.017187908 -0.014129382 0.00045076624 -0.031740054 -0.024867963
-0.009387165 -0.007864961 -0.020457221 -0.006443222 0.03401405 0.023163581 -0.027379468 0.028409602
-0.017927283 -0.021314384 -0.013487214 -0.041997425 -0.020100962 -0.06665675 0.0014421662 -0.009775292
-0.017674737 -0.021995535 -0.020073596 -0.009038162 -0.0353583 -0.016548058 0.021737367 -0.028214408
-0.015488167 -0.012731242 0.028116258 -0.017774949 -0.028002558 0.018443013 0.017098423 0.014910268
0.019624196 -0.021174135 -0.011171358 -0.025076607 -0.013452336 -0.0010429935 0.01619212 -0.01787346
-0.028600028 0.0036282244 -0.002340234 -0.0013408836 -0.021589706 0.02844929 -0.023607394 -0.01565503
0.025008384 -0.022400329 -0.061732996 0.0015709002 -0.039437093 -0.037224907 0.012619816 -0.021212267
0.030893456 0.016585343 0.04092565 0.012355186 -0.025696443 0.010058217 0.0030962513 -0.031313274
0.015017658 0.022318315 -0.013305438 -2.8617418e-05 -0.033368934 0.0008527726 0.0026457254 0.01729665
-0.025228253 -0.011626041 -0.02517456 -0.052075133 0.035021104 0.016874174 -0.053060926 -0.012780065
-0.036429483 -0.020132242 -0.019000933 -0.027259756 -0.031204956 -0.027111588 -0.020017093 0.034518767
-0.009109042 0.010288832 -0.024612814 0.004099127 -0.001119332 0.009335781 0.024880998 0.023499025
-0.005768777 -0.021968707 -0.0058207 0.004516425 -0.0041016075 -0.015773656 -0.05051663 0.019416431
0.027718104 0.028398624 0.014475711 -0.016165802 -0.021513188 -0.008323464 -0.01336407 0.027877355
00000000: 6531 70bc 1e77 0cbd ad59 99bc 6ded a7bc
00000010: cb29 25bd fc3e 81bc 541e 433c 71c2 503c
00000020: 2d4b dc3c 3f1a 33bd 6068 1fbb b8c4 8fbc
00000030: 7491 42bb a35d 5a3d 006f bbbc 700c a4bb
00000040: 90cb 813b 5240 2abd 0ce0 083d 896f 183b
00000050: 20f3 673b 440e d8bc e822 5abc e7fc b5bc
00000060: 36aa 7eb9 0693 0cbc eee0 9ebb 0d1a d43c
00000070: e933 c63c ab8b 583d cf66 bdbb 53ee 4abb
00000080: 0fa6 b4bd d542 a6bc b79f 18bc 26df a93c
00000090: 5049 043c 0d6c 8dbd f1d8 f7bb 97d3 d2bc
000000a0: 9a00 68bd 1d71 70bc b7a2 69ba 5c12 533c
000000b0: 49b9 07bd b877 523d 083f 98bd 47a3 98bc
000000c0: 2442 aa3c e78f 4dbc 3a37 1dbd 4127 07bc
000000d0: 020b 91bd 1914 9dbd d480 fa3c 5a30 6cbc
000000e0: 131d 9ebc 177b ee3b 3f8d 5abc 3ae9 ad3c
000000f0: 18fd f5bc a252 6b3b 6590 073d 1929 36bd
00000100: 0ec4 90bb c517 7bbc b886 69bc f083 63bb
00000110: 4a50 2bbd 79b0 2d3d 77b0 183c c649 40bd
00000120: fa6f b9bc 2f87 1d3d b319 643c 56b6 323c
00000130: 69a0 8bbd 2c7b 813c 0f3b 2b3d 5ca0 0fbd
00000140: 205b 61bc 55c9 acbc faa4 663d 13ea 1c3d
00000150: f0a7 9f3c 3841 013d d815 02bc b801 a6bc
00000160: c54a 13bd 4058 26bc 7303 dc3b d1f2 e23c
00000170: a18f ec3c fc16 383c ed73 9dbc 7d06 3e3c
00000180: 4ca7 af3b 706d 0cbd 7b1b 8cbd 09f2 b43c
00000190: d9e3 c43c 0c61 bd3c a496 1c3b 0ad0 2c3c
000001a0: 731f 30bd 9845 833c 7852 40bd cf84 55bd
000001b0: de7f 97bd 090d 483c ce54 953c 83ad ef3c
000001c0: 96f2 1d3c 343b 2fbc 904a d9bc 6571 d13c
000001d0: 0343 383a 8e60 c53c bb12 a4bc 5587 a13c
000001e0: 69c8 4e3c 4a33 593d 15bd 553c 5c2a 0abd
000001f0: 3f19 bfbc 0e41 b63b 9beb 9abc bac8 8d3c
00000200: f30c c0bc 0c3c a23b e45c 673a 4d2b 7ebc
00000210: 4719 8cbc ee49 f1bc d06d 6cbc 41b2 b33b
00000220: b8fb 823a cd1f 24bd fa24 efbc a8cd 8cbc
00000230: ec7e 67bc d254 ec39 dc01 02bd e6b7 cbbc
00000240: a0cc 19bc 0adc 00bc e795 a7bc aa21 d3bb
00000250: 5152 0b3d 8dc1 bd3c e84a e0bc 41bb e83c
00000260: 3ddc 92bc 819b aebc 7af9 5cbc 7e05 2cbd
00000270: c6aa a4bc 5683 88bd 1107 bd3a 8c28 20bc
00000280: 9cca 90bc fb2f b4bc 6271 a4bc cd14 14bc
00000290: ddd3 10bd cb8f 87bc 9012 b23c e721 e7bc
000002a0: 15c2 7dbc b396 50bc 1154 e63c c59c 91bc
000002b0: 9f65 e5bc cd15 973c fe11 8c3c 324a 743c
000002c0: ecc2 a03c 6175 adbc 1208 37bc 756d cdbc
000002d0: 3067 5cbc 0eb5 88ba 56a5 843c 5d6b 92bc
000002e0: 9b4a eabc 81c7 6d3b 9c5e 19bb 96c0 afba
000002f0: e5dc b0bc 7c0e e93c 4b64 c1bc fa3e 80bc
00000300: 62de cc3c e580 b7bc bddb 7cbd aae6 cd3a
00000310: ca88 21bd 2579 18bd 58c3 4e3c 59c5 adbc
00000320: 4614 fd3c fcdd 873c a8a1 273d 686d 4a3c
00000330: 5981 d2bc 38cb 243c 7aea 4a3b 5942 00bd
00000340: 9f0c 763c e6d4 b63c 0dff 59bc 700f f0b7
00000350: ddad 08bd 9a8c 5f3a e863 2d3b b4b1 8d3c
00000360: 7bab cebc 267b 3ebc e13a cebc bc4c 55bd
00000370: 4a72 0f3d b53b 8a3c 6a56 59bd 7a63 51bc
00000380: 1537 15bd 5fec a4bc d8a7 9bbc da4f dfbc
00000390: 89a1 ffbc 1f19 debc e3fa a3bc 8d63 0d3d
000003a0: 173e 15bc 7d92 283c d0a0 c9bc f851 863b
000003b0: 8db6 92ba 1bf5 183c 3cd3 cb3c 0781 c03c
000003c0: 0208 bdbb b8f7 b3bc 92bb bebb 85fe 933b
000003d0: c766 86bb c137 81bc 87ea 4ebd 350f 9f3c
000003e0: 1411 e33c 3ba4 e83c 882b 6d3c 256e 84bc
000003f0: 6d3c b0bc 235f 08bc f9f4 5abc 0d5f e43c

action_model._discrete_distribution.branches.7.bias f4 [3]
-0.044537406 0.0030686057 0.03727422
00000000: db6c 36bd a91a 493b daac 183d
