ArmRobot/Assets/Config/results/TFM-Brazo-1/AgenteRobot/AgenteRobot-1799968.pt (torch, 827522 bytes, 92 tensors)

discrete_act_size_vector f4 [1, 8]
0	0x40400000	3.0
1	0x40400000	3.0
2	0x40400000	3.0
3	0x40400000	3.0
4	0x40400000	3.0
5	0x40400000	3.0
6	0x40400000	3.0
7	0x40400000	3.0

network_body.observation_encoder.processors.0.normalizer.running_mean f4 [86]
0	0x00000000	0.0
1	0x00000000	0.0
2	0x00000000	0.0
3	0x00000000	0.0
4	0x00000000	0.0
5	0x00000000	0.0
6	0x3f7ffe77	0.9999766
7	0xb4dc37dc	-4.1018836e-07
8	0x3db03c38	0.08605236
9	0xb23c02b8	-1.0943658e-08
10	0x33558657	4.971511e-08
11	0xbf4780e5	-0.7793105
12	0xb201eeee	-7.563115e-09
13	0x3f186eab	0.59543866
14	0x3d6d51ab	0.057939213
15	0x3e1b8a7a	0.15189543
16	0x3c81d995	0.015850822
17	0x3e8d2133	0.27564391
18	0xbf35e4b2	-0.71052086
19	0xbe549d93	-0.20763235
20	0x3f0b2c10	0.5436411
21	0x3cc07b5c	0.023496322
22	0x3ea15753	0.31511936
23	0x3e1ddeff	0.15417098
24	0x3ec4d6ce	0.38445133
25	0xbf220e4c	-0.63303065
26	0xbe957b3d	-0.29195586
27	0x3ef883af	0.48537967
28	0xbd44dae1	-0.0480603
29	0x3ec178ee	0.37787575
30	0x3e86b654	0.2631098
31	0x3da74e8e	0.0816928
32	0xbf433958	-0.76259375
33	0xbeeafbbb	-0.4589518
34	0xbda93f99	-0.082640834
35	0xbd6bdcf6	-0.05758377
36	0x3eba6b8d	0.3641018
37	0x3e9d8df9	0.3077238
38	0x3e201368	0.15632403
39	0xbf366a1c	-0.7125566
40	0xbedbc289	-0.42921856
41	0xbdf86d7b	-0.12130257
42	0xbd8f210c	-0.06988725
43	0x3eb27357	0.34853622
44	0x3eae232e	0.34011215
45	0x3e126f29	0.14300217
46	0xbf3195dd	-0.693693
47	0xbedb2295	-0.42799821
48	0xbe04eb34	-0.12980348
49	0xbdaf634e	-0.08563863
50	0x3eab46a0	0.3345232
51	0x3ec1a311	0.37819722
52	0x3d960672	0.07325448
53	0xbe3a31ec	-0.18183106
54	0xbf47789f	-0.7791843
55	0xbc825412	-0.015909228
56	0xbdc03702	-0.09385492
57	0x3e849e3c	0.25901973
58	0x3ecf9455	0.40542856
59	0x3d960672	0.07325448
60	0xbe3a31ec	-0.18183106
61	0xbf47789f	-0.7791843
62	0xbc825403	-0.0159092
63	0xbdb448f7	-0.088029794
64	0x3e864ccf	0.26230475
65	0x3ed28123	0.41114148
66	0x3d960672	0.07325448
67	0xbe3a31ec	-0.18183106
68	0xbf47789f	-0.7791843
69	0xbc825403	-0.0159092
70	0xbe7c4220	-0.246346
71	0x3f6682b7	0.90043205
72	0x3ece80dc	0.40332687
73	0x3f4545ea	0.77059805
74	0x3c9debb1	0.019277425
75	0x3f586329	0.84526306
76	0x3d38dc01	0.045131687
77	0x3f59aa57	0.8502554
78	0xbe2f777b	-0.17135422
79	0x3f47d7f9	0.78063923
80	0xbd0716a7	-0.032980587
81	0x3f5ad5a6	0.8548225
82	0xbe6458d6	-0.22299513
83	0x3f3ac0fe	0.7295073
84	0xbef5ebf8	-0.48031592
85	0x3ee24589	0.44193676

network_body.observation_encoder.processors.0.normalizer.running_variance f4 [86]
0	0x3f800000	1.0
1	0x3f800000	1.0
2	0x3f800000	1.0
3	0x3f800000	1.0
4	0x3f800000	1.0
5	0x3f800000	1.0
6	0x3ffffef2	1.9999678
7	0x3f800000	1.0
8	0x3f80f286	1.0074012
9	0x3f800000	1.0
10	0x3f800000	1.0
11	0x46de8643	28483.13
12	0x3f800000	1.0
13	0x471cb4bf	40116.746
14	0x43a354a8	326.66138
15	0x3f82f3da	1.0230668
16	0x441e4763	633.1154
17	0x473c86b5	48262.707
18	0x46da3b0c	27933.523
19	0x46f26224	31025.07
20	0x47135b43	37723.26
21	0x45ad4e01	5545.7505
22	0x45b25d09	5707.6294
23	0x4630d8cd	11318.2
24	0x47bb7744	95982.53
25	0x471604e1	38404.88
26	0x47653e5a	58686.35
27	0x47247379	42099.473
28	0x464f8880	13282.125
29	0x469bbbdd	19933.932
30	0x46e29e79	29007.236
31	0x475daa57	56746.34
32	0x476da8cb	60840.793
33	0x47f69b74	126262.91
34	0x47cef52b	105962.336
35	0x4681381c	16540.055
36	0x46f2b66f	31067.217
37	0x47013885	33080.52
38	0x4801bc7d	132849.95
39	0x47a71f6c	85566.84
40	0x4812ef8d	150462.2
41	0x47e0bd60	115066.75
42	0x46957f0c	19135.523
43	0x4721d330	41427.188
44	0x470e9a00	36506.0
45	0x4800fd44	132085.06
46	0x47c72868	101968.81
47	0x481c881b	160288.42
48	0x480b38d0	142563.25
49	0x46bb4320	23969.562
50	0x480f80c2	146947.03
51	0x47523eb8	53822.72
52	0x484a2722	207004.53
53	0x4804a736	135836.84
54	0x48252bb2	169134.78
55	0x47f5208e	125505.11
56	0x4704b790	33975.562
57	0x4826b7d7	170719.36
58	0x4756555c	54869.36
59	0x484a2721	207004.52
60	0x4804a736	135836.84
61	0x48252bb3	169134.8
62	0x47f5208d	125505.1
63	0x4706bc72	34492.445
64	0x4827d16f	171845.73
65	0x475a5395	55891.582
66	0x484a2721	207004.52
67	0x4804a736	135836.84
68	0x48252bb3	169134.8
69	0x47f5208d	125505.1
70	0x48151ffa	152703.9
71	0x479999d3	78643.65
72	0x48a755d1	342702.53
73	0x47baad29	95578.32
74	0x48b0d4bd	362149.9
75	0x48139c4d	151153.2
76	0x4896fe7c	309235.88
77	0x48355f65	185725.58
78	0x48af3d0f	358888.47
79	0x488e3ae4	291287.12
80	0x4894be85	304628.16
81	0x482defc5	178111.08
82	0x48d3bed3	433654.6
83	0x489bb3c8	318878.25
84	0x4902b014	535297.25
85	0x492258a9	664970.56

network_body.observation_encoder.processors.1.normalizer.running_mean f4 [29]
0	0x3d7ac5d5	0.061223824
1	0x3f3bbeb9	0.73337895
2	0x414a72dd	12.653043
3	0x418ab2e6	17.337353
4	0x3e246700	0.16054916
5	0x3e4790b2	0.1948879
6	0x3eee6677	0.4656255
7	0x3f45e8e2	0.77308476
8	0x3ec54aa9	0.38533524
9	0x3eef0874	0.46686137
10	0x3f0f0f31	0.55882555
11	0x3f0fe963	0.56215495
12	0x3ee87509	0.4540179
13	0xbcba098c	-0.02270963
14	0x3d625a6d	0.055262018
15	0x3cbbbe9c	0.022918038
16	0x3b8fe52f	0.0043913345
17	0x3d625a6d	0.055262018
18	0x3cc7b5d5	0.024378696
19	0xbcde02c0	-0.02710092
20	0x00000000	0.0
21	0xbabf7105	-0.0014605826
22	0x3f56c5a9	0.83895355
23	0x3e92441b	0.28567585
24	0x3f0500df	0.51954454
25	0x3ef7d549	0.4840491
26	0x3f2a3860	0.6649227
27	0x3f141e77	0.57858986
28	0x3f2f21b7	0.6841082

network_body.observation_encoder.processors.1.normalizer.running_variance f4 [29]
0	0x47ca0f5d	103454.73
1	0x480c6733	143772.8
2	0x4fcdf3fd	6.9106386e+09
3	0x4ffe20f2	8.527144e+09
4	0x46944bec	18981.96
5	0x458c9f8c	4499.9434
6	0x46c78225	25537.072
7	0x47c53bda	100983.7
8	0x47c7453d	102026.48
9	0x471ccd6e	40141.43
10	0x47ce8ebf	105757.49
11	0x47ee81a1	122115.26
12	0x46c03795	24603.791
13	0x4711113d	37137.24
14	0x47a49f7d	84286.98
15	0x46643264	14604.598
16	0x472f485b	44872.355
17	0x47a49f7d	84286.98
18	0x46a7b182	21464.754
19	0x4734adc6	46253.773
20	0x3f800000	1.0
21	0x459c95aa	5010.708
22	0x4815c95a	153381.4
23	0x4856c3fa	219919.9
24	0x48a560ac	338693.38
25	0x48abc544	351786.12
26	0x48884b65	279131.16
27	0x48a68130	341001.5
28	0x48719724	247388.56

network_body.processors.0.normalizer.running_mean f4 [86]
0	0x00000000	0.0
1	0x00000000	0.0
2	0x00000000	0.0
3	0x00000000	0.0
4	0x00000000	0.0
5	0x00000000	0.0
6	0x3f7ffe77	0.9999766
7	0xb4dc37dc	-4.1018836e-07
8	0x3db03c38	0.08605236
9	0xb23c02b8	-1.0943658e-08
10	0x33558657	4.971511e-08
11	0xbf4780e5	-0.7793105
12	0xb201eeee	-7.563115e-09
13	0x3f186eab	0.59543866
14	0x3d6d51ab	0.057939213
15	0x3e1b8a7a	0.15189543
16	0x3c81d995	0.015850822
17	0x3e8d2133	0.27564391
18	0xbf35e4b2	-0.71052086
19	0xbe549d93	-0.20763235
20	0x3f0b2c10	0.5436411
21	0x3cc07b5c	0.023496322
22	0x3ea15753	0.31511936
23	0x3e1ddeff	0.15417098
24	0x3ec4d6ce	0.38445133
25	0xbf220e4c	-0.63303065
26	0xbe957b3d	-0.29195586
27	0x3ef883af	0.48537967
28	0xbd44dae1	-0.0480603
29	0x3ec178ee	0.37787575
30	0x3e86b654	0.2631098
31	0x3da74e8e	0.0816928
32	0xbf433958	-0.76259375
33	0xbeeafbbb	-0.4589518
34	0xbda93f99	-0.082640834
35	0xbd6bdcf6	-0.05758377
36	0x3eba6b8d	0.3641018
37	0x3e9d8df9	0.3077238
38	0x3e201368	0.15632403
39	0xbf366a1c	-0.7125566
40	0xbedbc289	-0.42921856
41	0xbdf86d7b	-0.12130257
42	0xbd8f210c	-0.06988725
43	0x3eb27357	0.34853622
44	0x3eae232e	0.34011215
45	0x3e126f29	0.14300217
46	0xbf3195dd	-0.693693
47	0xbedb2295	-0.42799821
48	0xbe04eb34	-0.12980348
49	0xbdaf634e	-0.08563863
50	0x3eab46a0	0.3345232
51	0x3ec1a311	0.37819722
52	0x3d960672	0.07325448
53	0xbe3a31ec	-0.18183106
54	0xbf47789f	-0.7791843
55	0xbc825412	-0.015909228
56	0xbdc03702	-0.09385492
57	0x3e849e3c	0.25901973
58	0x3ecf9455	0.40542856
59	0x3d960672	0.07325448
60	0xbe3a31ec	-0.18183106
61	0xbf47789f	-0.7791843
62	0xbc825403	-0.0159092
63	0xbdb448f7	-0.088029794
64	0x3e864ccf	0.26230475
65	0x3ed28123	0.41114148
66	0x3d960672	0.07325448
67	0xbe3a31ec	-0.18183106
68	0xbf47789f	-0.7791843
69	0xbc825403	-0.0159092
70	0xbe7c4220	-0.246346
71	0x3f6682b7	0.90043205
72	0x3ece80dc	0.40332687
73	0x3f4545ea	0.77059805
74	0x3c9debb1	0.019277425
75	0x3f586329	0.84526306
76	0x3d38dc01	0.045131687
77	0x3f59aa57	0.8502554
78	0xbe2f777b	-0.17135422
79	0x3f47d7f9	0.78063923
80	0xbd0716a7	-0.032980587
81	0x3f5ad5a6	0.8548225
82	0xbe6458d6	-0.22299513
83	0x3f3ac0fe	0.7295073
84	0xbef5ebf8	-0.48031592
85	0x3ee24589	0.44193676

network_body.processors.0.normalizer.running_variance f4 [86]
0	0x3f800000	1.0
1	0x3f800000	1.0
2	0x3f800000	1.0
3	0x3f800000	1.0
4	0x3f800000	1.0
5	0x3f800000	1.0
6	0x3ffffef2	1.9999678
7	0x3f800000	1.0
8	0x3f80f286	1.0074012
9	0x3f800000	1.0
10	0x3f800000	1.0
11	0x46de8643	28483.13
12	0x3f800000	1.0
13	0x471cb4bf	40116.746
14	0x43a354a8	326.66138
15	0x3f82f3da	1.0230668
16	0x441e4763	633.1154
17	0x473c86b5	48262.707
18	0x46da3b0c	27933.523
19	0x46f26224	31025.07
20	0x47135b43	37723.26
21	0x45ad4e01	5545.7505
22	0x45b25d09	5707.6294
23	0x4630d8cd	11318.2
24	0x47bb7744	95982.53
25	0x471604e1	38404.88
26	0x47653e5a	58686.35
27	0x47247379	42099.473
28	0x464f8880	13282.125
29	0x469bbbdd	19933.932
30	0x46e29e79	29007.236
31	0x475daa57	56746.34
32	0x476da8cb	60840.793
33	0x47f69b74	126262.91
34	0x47cef52b	105962.336
35	0x4681381c	16540.055
36	0x46f2b66f	31067.217
37	0x47013885	33080.52
38	0x4801bc7d	132849.95
39	0x47a71f6c	85566.84
40	0x4812ef8d	150462.2
41	0x47e0bd60	115066.75
42	0x46957f0c	19135.523
43	0x4721d330	41427.188
44	0x470e9a00	36506.0
45	0x4800fd44	132085.06
46	0x47c72868	101968.81
47	0x481c881b	160288.42
48	0x480b38d0	142563.25
49	0x46bb4320	23969.562
50	0x480f80c2	146947.03
51	0x47523eb8	53822.72
52	0x484a2722	207004.53
53	0x4804a736	135836.84
54	0x48252bb2	169134.78
55	0x47f5208e	125505.11
56	0x4704b790	33975.562
57	0x4826b7d7	170719.36
58	0x4756555c	54869.36
59	0x484a2721	207004.52
60	0x4804a736	135836.84
61	0x48252bb3	169134.8
62	0x47f5208d	125505.1
63	0x4706bc72	34492.445
64	0x4827d16f	171845.73
65	0x475a5395	55891.582
66	0x484a2721	207004.52
67	0x4804a736	135836.84
68	0x48252bb3	169134.8
69	0x47f5208d	125505.1
70	0x48151ffa	152703.9
71	0x479999d3	78643.65
72	0x48a755d1	342702.53
73	0x47baad29	95578.32
74	0x48b0d4bd	362149.9
75	0x48139c4d	151153.2
76	0x4896fe7c	309235.88
77	0x48355f65	185725.58
78	0x48af3d0f	358888.47
79	0x488e3ae4	291287.12
80	0x4894be85	304628.16
81	0x482defc5	178111.08
82	0x48d3bed3	433654.6
83	0x489bb3c8	318878.25
84	0x4902b014	535297.25
85	0x492258a9	664970.56

network_body.processors.1.normalizer.running_mean f4 [29]
0	0x3d7ac5d5	0.061223824
1	0x3f3bbeb9	0.73337895
2	0x414a72dd	12.653043
3	0x418ab2e6	17.337353
4	0x3e246700	0.16054916
5	0x3e4790b2	0.1948879
6	0x3eee6677	0.4656255
7	0x3f45e8e2	0.77308476
8	0x3ec54aa9	0.38533524
9	0x3eef0874	0.46686137
10	0x3f0f0f31	0.55882555
11	0x3f0fe963	0.56215495
12	0x3ee87509	0.4540179
13	0xbcba098c	-0.02270963
14	0x3d625a6d	0.055262018
15	0x3cbbbe9c	0.022918038
16	0x3b8fe52f	0.0043913345
17	0x3d625a6d	0.055262018
18	0x3cc7b5d5	0.024378696
19	0xbcde02c0	-0.02710092
20	0x00000000	0.0
21	0xbabf7105	-0.0014605826
22	0x3f56c5a9	0.83895355
23	0x3e92441b	0.28567585
24	0x3f0500df	0.51954454
25	0x3ef7d549	0.4840491
26	0x3f2a3860	0.6649227
27	0x3f141e77	0.57858986
28	0x3f2f21b7	0.6841082

network_body.processors.1.normalizer.running_variance f4 [29]
0	0x47ca0f5d	103454.73
1	0x480c6733	143772.8
2	0x4fcdf3fd	6.9106386e+09
3	0x4ffe20f2	8.527144e+09
4	0x46944bec	18981.96
5	0x458c9f8c	4499.9434
6	0x46c78225	25537.072
7	0x47c53bda	100983.7
8	0x47c7453d	102026.48
9	0x471ccd6e	40141.43
10	0x47ce8ebf	105757.49
11	0x47ee81a1	122115.26
12	0x46c03795	24603.791
13	0x4711113d	37137.24
14	0x47a49f7d	84286.98
15	0x46643264	14604.598
16	0x472f485b	44872.355
17	0x47a49f7d	84286.98
18	0x46a7b182	21464.754
19	0x4734adc6	46253.773
20	0x3f800000	1.0
21	0x459c95aa	5010.708
22	0x4815c95a	153381.4
23	0x4856c3fa	219919.9
24	0x48a560ac	338693.38
25	0x48abc544	351786.12
26	0x48884b65	279131.16
27	0x48a68130	341001.5
28	0x48719724	247388.56

network_body._body_endoder.seq_layers.0.weight f4 [128, 115]
0	0x3d2a7e91	0.04162461
1	0x3d1eae67	0.03874054
2	0x3d4b0f58	0.04957518
3	0xbdbd529e	-0.092442736
4	0x3cb78320	0.022401392
5	0x3d9d9731	0.07694853
6	0x3a87441a	0.0010319978
7	0x3d0c0bdf	0.03419101
8	0x3c904c9e	0.017614659
9	0x3e7a496b	0.24442069
10	0x3e000cce	0.12504885
11	0xbe30bc57	-0.17259346
12	0x3dbfb395	0.093604244
13	0xbe4269cf	-0.18985675
14	0xbe4b4e59	-0.19854106
15	0xbdce2641	-0.1006589
16	0xbd87dc65	-0.06633834
17	0xbe0b1135	-0.13580783
18	0xbe3528b4	-0.17691308
19	0x3dff6f10	0.12472355
20	0x3d9cc13b	0.07654043
21	0x3d3c0926	0.045907162
22	0x3e820562	0.25394732
23	0x3e1cacc8	0.15300286
24	0x3df8c7b5	0.12147466
25	0x3d8cdd89	0.06878192
26	0xbe1aff37	-0.15136419
27	0x3d2512f1	0.040301267
28	0x3dc16c45	0.09444479
29	0xbd85190a	-0.064989164
30	0x3dd6fff9	0.10498042
31	0x3e2e45c0	0.17018795
32	0x3d651d0c	0.055935904
33	0xbd82e8e0	-0.06392074
34	0xbd2e6860	-0.04258001
35	0xbd60bc31	-0.054866973
36	0xbd83b226	-0.064304635
37	0x3d788a0c	0.060678527
38	0x3d102db3	0.035199832
39	0xbcc70f36	-0.024299245
40	0xbdac7d8b	-0.08422383
41	0xbda25760	-0.07926822
42	0xbd1e7862	-0.038689025
43	0x3d1248fd	0.03571414
44	0x3ce8ee1b	0.02843385
45	0xbc78d77e	-0.015188096
46	0xbdbdcc80	-0.09267521
47	0xbced932b	-0.02900084
48	0x3d75403a	0.059875704
49	0xbd4d1caf	-0.050076183
50	0xbd710834	-0.058845714
51	0xbd9c6094	-0.07635608
52	0xbe082239	-0.13294305
53	0x3e05d00c	0.13067645
54	0xbe1e3b4a	-0.15452304
55	0x3d4c3566	0.049855612
56	0x3c1ba2ba	0.009499246
57	0xbdc79003	-0.09744265
58	0xbdf7c5c7	-0.1209827
59	0x3e0e9258	0.13923013
60	0x3de04282	0.10950185
61	0xbcf6581e	-0.030071314
62	0x3b432117	0.0029774362
63	0x3d315466	0.04329338
64	0xbe5e1119	-0.2168621
65	0x3d237e1f	0.0399152
66	0xbdb59a68	-0.08867341
67	0x3ce5309e	0.027977284
68	0xbdc794e1	-0.09745193
69	0x3d3b77e1	0.045768622
70	0xbe0fcf73	-0.1404398
71	0xbc8c97ba	-0.017162193
72	0x3c6f67f4	0.014612187
73	0x3e1b1a5a	0.15146771
74	0xbead2c3c	-0.3382281
75	0x3e9ab17a	0.3021353
76	0x3dc427b2	0.09577884
77	0x3c11c898	0.008897923
78	0xbce9ffc2	-0.028564338
79	0x3d81483b	0.06312605
80	0xbe154c62	-0.14579919
81	0x3e4460d4	0.19177562
82	0x3d17ab5d	0.03702866
83	0x3d9c5142	0.07632686
84	0xbcb36ccd	-0.021902466
85	0x3c7d1436	0.015446713
86	0xbe20d3a5	-0.15705736
87	0xbd62d906	-0.05538275
88	0xbdcd0a04	-0.10011676
89	0x3e0fcc0b	0.1404268
90	0xbdb47f70	-0.08813369
91	0x3e2acd07	0.16679774
92	0xbd11eac0	-0.035624266
93	0x3c8c9d50	0.017164856
94	0x3dba0fdd	0.09085057
95	0x3d38515d	0.04499947
96	0x3d1199d1	0.03554708
97	0x3b44ab2f	0.003000926
98	0xbe4c4491	-0.19948031
99	0xbbcee8fa	-0.006314394
100	0x3d5c2638	0.053747386
101	0xbcbda46b	-0.02314969
102	0xbd459480	-0.048237324
103	0xbdf43a90	-0.119252324
104	0xbe39bb74	-0.18137914
105	0xbde4a958	-0.11165112
106	0xbc0026e7	-0.007821775
107	0x3d568c82	0.052380092
108	0xbdf2e815	-0.118606724
109	0x3daf01b6	0.08545248
110	0xbafd1ae5	-0.0019310383
111	0x3e0eb7ef	0.13937353
112	0x3b7a247a	0.0038168714
113	0x3d7065a5	0.058690686
114	0x3dc0afd7	0.09408539
115	0xbdf77386	-0.12082581
116	0x3c009671	0.007848368
117	0xbaa66f32	-0.0012697934
118	0xbdb9ccd2	-0.090722695
119	0xbcdd20db	-0.026993206
120	0xbd39b0b6	-0.04533454
121	0xbdd161b4	-0.102237135
122	0xbdd082f6	-0.10181229
123	0xbd3fac29	-0.046795044
124	0xbe53d8e5	-0.20688207
125	0xbdb3f2c4	-0.08786538
126	0x3e416b48	0.18888581
127	0xbd2de5ea	-0.04245559
128	0xbe004b0b	-0.12528627
129	0x3e24fa13	0.1611102
130	0x3d55e2bd	0.052218188
131	0x3dcbb54a	0.099466875
132	0xbd5a6996	-0.05332335
133	0xbe57ec7d	-0.21086307
134	0xbd1ef8e7	-0.03881159
135	0xbd988645	-0.07447485
136	0xbc9f6f07	-0.019462122
137	0xbd584aa6	-0.052805565
138	0x3e11388f	0.14181732
139	0x3e3ca4d5	0.18422253
140	0x3dc6649e	0.0968716
141	0xbdbd9e5b	-0.092587195
142	0x3d94f371	0.07272995
143	0xbe5019c4	-0.20322329
144	0xbdab7904	-0.08372691
145	0xbddb0e9e	-0.106961474
146	0x3e09ccfd	0.13457103
147	0x3df794f7	0.1208896
148	0xbcc86902	-0.024464134
149	0xbdff0403	-0.12451937
150	0xbdb0fd4c	-0.086420625
151	0xbd9801a6	-0.074221894
152	0xbdcda022	-0.100403085
153	0xbe1e3fe6	-0.15454063
154	0xbe2fb4c5	-0.17158802
155	0xbcac4e3f	-0.021033404
156	0xbd6dfb9a	-0.058101274
157	0x3c8f2fda	0.017478872
158	0x3c122ea3	0.008922252
159	0x3bbee388	0.0058254637
160	0xbc8b840c	-0.017030738
161	0x3db158a7	0.08659487
162	0xbdb992e9	-0.09061224
163	0xbd784e15	-0.06062134
164	0xbd86bfb7	-0.065795355
165	0x3d6451b0	0.055741966
166	0x3dedc8a8	0.11610538
167	0x3d2b0a2e	0.041757755
168	0x3d2be13a	0.04196284
169	0xbde86191	-0.11346734
170	0xbe00af78	-0.12566936
171	0xbdb0a3cf	-0.08624994
172	0x3d012e9a	0.031538583
173	0xbd8d9764	-0.06913641
174	0x3d08b106	0.033371948
175	0x3e36f591	0.17867114
176	0xbe1a4a63	-0.15067439
177	0xbe4f4f54	-0.20245105
178	0xbc654d39	-0.013995462
179	0xbdcad007	-0.09902959
180	0xbd998316	-0.07495706
181	0xbc1d09fc	-0.0095849
182	0x3d79374b	0.060843747
183	0x3bdc4110	0.0067216232
184	0xbe2809af	-0.16409944
185	0x3d1f28c8	0.03885725
186	0xbdb6c189	-0.08923633
187	0xbdcc6c69	-0.09981615
188	0x3df491df	0.11941885
189	0xbe7035a2	-0.2345796
190	0x3b5b6023	0.003347405
191	0x3cca97d7	0.024730606
192	0x3e252b68	0.1612984
193	0x3d0ac33e	0.033877604
194	0x3e32e9d6	0.17472014
195	0xbe51a64d	-0.20473595
196	0x3d7222eb	0.05911533
197	0xbe97a6a5	-0.29619327
198	0x3c7c2186	0.015388852
199	0x3dc83a78	0.09776777
200	0xbe006a3e	-0.12540528
201	0x3caca070	0.021072596
202	0x3dcae502	0.09906961
203	0xbc85663c	-0.0162841
204	0xba9b24e2	-0.0011836553
205	0xbd36a12d	-0.044587303
206	0xbd21d9a3	-0.039514195
207	0x3de3b8e6	0.11119251
208	0x3cd1ce6c	0.025611125
209	0xbd9faa56	-0.07796161
210	0x3e9a561b	0.30143818
211	0x3dbf26af	0.0933355
212	0x3d820d64	0.0635021
213	0xbe8918cb	-0.26776728
214	0x3def55ce	0.11686288
215	0xbe012313	-0.12611036
216	0x3d9a4bd0	0.07533991
217	0xbd5c2068	-0.053741843
218	0xbc8882b9	-0.016663896
219	0x3c11b009	0.008892068
220	0x3cd39cca	0.025831599
221	0xbdadc9d4	-0.08485761
222	0x3e04767d	0.12935825
223	0x3e6c8676	0.23098168
224	0xbe219f50	-0.15783429
225	0x3de7b423	0.11313655
226	0x3b625e9a	0.003454125
227	0x3db52817	0.08845537
228	0x3d8bdc77	0.0682916
229	0x3d5cf41a	0.05394373
230	0xbe0ca11d	-0.13733335
231	0xbc8bfb0e	-0.017087486
232	0xbd2601bc	-0.040528998
233	0x3de61844	0.11235097
234	0x3b0af785	0.0021204662
235	0x3ba78baf	0.005113087
236	0x3e3e3159	0.18573512
237	0x3df0c743	0.11756756
238	0x3d95c31e	0.07312606
239	0xbe4904b6	-0.19630703
240	0x3e28b4e0	0.16475248
241	0xbc2bfd3e	-0.010497389
242	0x3d8a26c4	0.06745675
243	0xbd2c3f7f	-0.042052742
244	0xbc94246e	-0.018083777
245	0x3e57b299	0.21064223
246	0xbd4ceba7	-0.050029423
247	0xbe3503e9	-0.17677273
248	0xbe205751	-0.15658309
249	0x3e2b4bb4	0.16728097
250	0x3d9666b9	0.073438115
251	0xbba3557e	-0.0049845567
252	0x3e395264	0.18097836
253	0xbe874944	-0.26423085
254	0x3e066e77	0.13128076
255	0x3df180bc	0.11792132

network_body._body_endoder.seq_layers.0.bias f4 [128]
0	0x3a9c5bb1	0.0011929182
1	0xbb207aad	-0.0024487183
2	0x3db87e70	0.09008491
3	0x3cade11d	0.021225506
4	0xbc11715d	-0.008877126
5	0xbc246a8c	-0.010035168
6	0x3e267392	0.16255024
7	0x3ca1e9ed	0.019764865
8	0x3ce57e30	0.028014272
9	0x3d7b4923	0.061349045
10	0xbd2155e7	-0.039388563
11	0x3d996fe0	0.074920416
12	0x3d9ac36d	0.07556806
13	0x3dc76526	0.097360894
14	0x3da3d27d	0.07999132
15	0x3ba3fee1	0.005004749
16	0x3d9782e8	0.07398015
17	0x3de6bbf7	0.1126632
18	0xbbad62e1	-0.0052913283
19	0x3dd9614b	0.1061426
20	0x3dba28fa	0.09089847
21	0x3df66f0c	0.12032899
22	0x3d8623d3	0.06549802
23	0x3d91b369	0.07114298
24	0x3dd767c8	0.105178416
25	0x3d669730	0.056296527
26	0x3dc22df6	0.094814226
27	0x3d6b6daa	0.05747763
28	0x3d66cc48	0.05634716
29	0x3b86e0bd	0.0041161464
30	0x3dda64b9	0.106637426
31	0x3da26e3e	0.07931183
32	0x3ddec4f1	0.10877407
33	0x3d0fb101	0.035080913
34	0x3c7f8021	0.015594513
35	0x3dd30ff8	0.1030578
36	0x3bd8581c	0.0066023003
37	0x3be2da00	0.0069229603
38	0xbbf99797	-0.007616948
39	0x3c5e41ab	0.013565461
40	0x3d86c1c3	0.06579926
41	0x3d614657	0.054998722
42	0x3ce7160a	0.028208751
43	0xbcc5f9a0	-0.024166882
44	0x3c323c77	0.010878674
45	0x3c1e58ae	0.009664698
46	0x3d1b389f	0.037895795
47	0x3dca9ca8	0.09893161
48	0x3bd3af95	0.00646014
49	0x3da7181a	0.08158894
50	0xbcae2a84	-0.021260507
51	0x3d825df8	0.06365579
52	0x3d0356cf	0.03206521
53	0x3ce6d6ab	0.028178534
54	0x3d8811db	0.06644031
55	0x3d3d9034	0.0462801
56	0x3d81df2c	0.06341395
57	0x3ce93ad8	0.028470442
58	0x3cb4cb9e	0.022069748
59	0x3d143e0a	0.036191978
60	0xbcb9f434	-0.022699453
61	0x3dbccb3b	0.09218451
62	0x3c5be2cc	0.013420772
63	0x3cba1e8b	0.022719642
64	0x3da39d93	0.07989039
65	0xbd9d239d	-0.07672808
66	0xbd64b258	-0.055834144
67	0x3e37608f	0.17907928
68	0x3d859aed	0.065236904
69	0x3d52288b	0.051308196
70	0xbbb8f305	-0.0056442046
71	0xbcb77a7d	-0.022397274
72	0x3daa5041	0.083160885
73	0x3d0d6b3a	0.034526087
74	0x3b1f1247	0.0024272369
75	0x3c710ad6	0.014712056
76	0x3d4193b5	0.047260005
77	0x3d92c8e7	0.07167225
78	0x3b3bef79	0.0028676672
79	0x3da6ddac	0.08147749
80	0x3be4159e	0.006960585
81	0x3bc172a8	0.0059035607
82	0x3de07748	0.10960251
83	0x3ca4be31	0.020110222
84	0x3dc5add0	0.09652293
85	0xbcbf5cf9	-0.023359763
86	0xbd41962a	-0.04726235
87	0x3cc6724a	0.02422442
88	0x3df880c8	0.12133938
89	0x3d44a9cf	0.048013505
90	0x3bb037f6	0.005377765
91	0x3d3f4683	0.046698105
92	0x3d4389c0	0.04773879
93	0x3bfe055f	0.007752105
94	0x3be76b25	0.007062333
95	0x3bce504b	0.0062961928
96	0xbbc4e37f	-0.006008565
97	0x3d822c39	0.06356091
98	0x3d267bec	0.040645525
99	0x3e057f2e	0.13036796
100	0x3daa4400	0.08313751
101	0x3d28a5b7	0.041173663
102	0x3da1d10e	0.07901202
103	0x3c87a1d2	0.016556654
104	0x3dd7882d	0.1052402
105	0x3c0a1a8d	0.008429182
106	0xbd030508	-0.03198722
107	0x3de23bf0	0.110465884
108	0x3c49593d	0.0122893425
109	0xbc786318	-0.015160345
110	0x3d41b448	0.04729107
111	0xbc82f1db	-0.015984466
112	0x3ccee354	0.025254883
113	0x3d933fea	0.07189925
114	0x3cadbd03	0.021208292
115	0x3dd966c2	0.106153026
116	0xbb398b6e	-0.0028311866
117	0x3d8a317a	0.06747718
118	0x3d85c75a	0.06532164
119	0x3da63953	0.081164025
120	0x3d6b71cd	0.057481576
121	0xbce5bc57	-0.028043909
122	0x3dbe5b3c	0.09294745
123	0x3d48b86f	0.049004015
124	0x3c8d03b9	0.01721369
125	0x3d0431dc	0.032274112
126	0x3d66699e	0.05625307
127	0xbd1b5b1a	-0.037928678

network_body._body_endoder.seq_layers.2.weight f4 [128, 128]
0	0x3e722333	0.2364624
1	0x3bd51ce5	0.0065036886
2	0xbe05fe6f	-0.1308534
3	0x3b4fe0fa	0.003171979
4	0x3df06e25	0.117397584
5	0xbd822688	-0.063550055
6	0x3c200dfb	0.009768958
7	0xbd54292c	-0.051797077
8	0x3da0f064	0.07858351
9	0xbe3a272f	-0.1817901
10	0xbba23989	-0.0049507064
11	0x3ddd3894	0.10801807
12	0x3dabcfaa	0.08389218
13	0xbc028abf	-0.00796765
14	0xbd82487f	-0.06361484
15	0xbd947e97	-0.072507076
16	0x3dc8cf3e	0.09805153
17	0x3e1d4aad	0.15360518
18	0xbe0a5bf6	-0.13511643
19	0x3c905ecf	0.017623333
20	0xbd82277c	-0.06355187
21	0xbe058dba	-0.13042346
22	0xbd224fae	-0.03962677
23	0xbdca85d0	-0.09888804
24	0x3cbf2835	0.023334602
25	0xbd6eedc1	-0.05833221
26	0x3bf34e81	0.00742513
27	0xbe05dece	-0.13073274
28	0x3db5cd5d	0.088770606
29	0xbda075d5	-0.07834975
30	0xbe48e723	-0.19619422
31	0x3df1d061	0.11807323
32	0xbcb5ec37	-0.022207363
33	0x3e7c97aa	0.2466723
34	0xbe1acdb6	-0.15117535
35	0xbd543b27	-0.051814225
36	0xbd849c27	-0.06475096
37	0xbc122ec4	-0.008922283
38	0xbd524678	-0.051336735
39	0x3c0695f9	0.008214467
40	0xbddf665e	-0.10908197
41	0x3cb619ec	0.022229157
42	0x3df42298	0.11920661
43	0xbd742678	-0.059607
44	0xbda845b8	-0.08216423
45	0xbb3e827b	-0.0029069472
46	0x3e04bd32	0.12962797
47	0xbe9224fe	-0.28543848
48	0xbe2a6143	-0.16638665
49	0xbe22094f	-0.15823863
50	0x3caf3d82	0.021391634
51	0x3d5b0e4e	0.05348044
52	0xbcf3658a	-0.029711504
53	0x3de9672f	0.11396634
54	0xbda6e1ca	-0.081485346
55	0xbe3ef5a1	-0.18648387
56	0x3cd7911e	0.026314314
57	0xbd7e28f3	-0.06205077
58	0x3e8d83b7	0.27639553
59	0xbe3ab07f	-0.1823139
60	0x3e0e4a6c	0.13895577
61	0x3d65909c	0.056046113
62	0x3c029792	0.0079707075
63	0xbd32c5fe	-0.04364585
64	0x3dd1e545	0.10248808
65	0xbd223329	-0.03959957
66	0x3daa4f65	0.083159246
67	0x3d6e61a6	0.058198594
68	0x3da71bec	0.081596226
69	0x3dcc9707	0.09989744
70	0xbd3b515c	-0.045731887
71	0x3db27836	0.08714335
72	0xbe2bacb4	-0.167651
73	0xbe982289	-0.29713848
74	0x3d5d5dd6	0.054044567
75	0x3df72155	0.120669045
76	0x3e145b76	0.14488015
77	0xbcd3303d	-0.025779838
78	0xbcb96655	-0.022631804
79	0x3da47b1a	0.08031292
80	0x3bcc1bd9	0.0062289056
81	0xbd87503e	-0.06607102
82	0x3dfadcf3	0.12249174
83	0x3d70a38c	0.05874972
84	0x3d12d9c0	0.035852194
85	0xbc9b5844	-0.018962987
86	0xbdbf43be	-0.09339093
87	0x3dcc8524	0.09986332
88	0xbdeb23d9	-0.11481447
89	0x3dc7e84a	0.097611025
90	0xbcf4cf29	-0.029883938
91	0xbdefc2c1	-0.11707068
92	0xbdd3f55c	-0.10349533
93	0xbd8b04ad	-0.06788001
94	0xbc8c443b	-0.017122379
95	0x3d9482b8	0.07251495
96	0xbe29302a	-0.1652228
97	0x3e2e62f6	0.17029938
98	0x3e025734	0.12728578
99	0x3d99cacb	0.07509383
100	0xbd84a538	-0.064768255
101	0xbd4ba664	-0.04971923
102	0x3c947515	0.018122235
103	0xbe8b9438	-0.2726152
104	0xbda52754	-0.08064142
105	0xbe114b81	-0.14188959
106	0xbdf60a99	-0.1201374
107	0xbdc51cb5	-0.09624616
108	0xbde85e15	-0.1134607
109	0x3d3aece4	0.045636073
110	0xbd003e4f	-0.031309422
111	0x3ca16920	0.019703448
112	0x3cbfb674	0.02340243
113	0x3c944740	0.01810038
114	0xbd5b780e	-0.05358129
115	0x3beb9aa4	0.0071900655
116	0x3dd73797	0.1050865
117	0xbe13337f	-0.14375113
118	0x3e2c5f8a	0.1683332
119	0x3c037e24	0.00802568
120	0x3e69243f	0.22767733
121	0xbdfb80f1	-0.12280453
122	0xbe0aacd8	-0.13542497
123	0x3e2be1fe	0.16785428
124	0xbe27304f	-0.16327022
125	0x3e0c85c4	0.13722903
126	0x3c065142	0.008198084
127	0xbdb19e9f	-0.08672833
128	0xbe011282	-0.12604716
129	0x3df2730f	0.11838352
130	0x3d268aa1	0.04065955
131	0xbda758e5	-0.08171252
132	0xbda7f502	-0.082010284
133	0xbe084d8f	-0.13310836
134	0x3d05e859	0.032692287
135	0xbc194bfe	-0.009356497
136	0xbe339598	-0.17537534
137	0xbe266e97	-0.16253124
138	0xbe15a995	-0.14615472
139	0x3e01a9d7	0.12662445
140	0x3dff05f4	0.12452307
141	0xbda5432a	-0.08069451
142	0x3e3547df	0.17703198
143	0xbc84cc86	-0.016210806
144	0xbe5ab0f1	-0.2135656
145	0x3d42bbf9	0.047542546
146	0x3e117909	0.14206327
147	0x3e0cc70a	0.13747802
148	0xbd6883b0	-0.056766212
149	0xbd83c764	-0.06434515
150	0x3ccf4d08	0.025305286
151	0xbe455823	-0.19271903
152	0x3ca834e8	0.02053304
153	0x3d30e2df	0.04318511
154	0x3c8bed3d	0.017080897
155	0xbe042f54	-0.12908679
156	0x3dbdbdd5	0.09264723
157	0x3d3cd6d0	0.0461033
158	0xba105786	-0.0005506206
159	0x3dbf2c85	0.09334663
160	0x3cec187f	0.028820274
161	0x3df7ec2c	0.12105593
162	0xbd882272	-0.06647195
163	0x3dd894b7	0.1057524
164	0x3d440088	0.04785207
165	0x3bb37a30	0.0054772124
166	0x3d55dd34	0.05221291
167	0x3db5b20d	0.08871851
168	0x3d34d1fb	0.044145565
169	0x3d9baacd	0.07600937
170	0x3dbffe20	0.09374642
171	0xbdb53a11	-0.08848966
172	0xbc2dd062	-0.010608764
173	0x3e2bad71	0.16765381
174	0x3e3a793d	0.18210311
175	0xbe5fd46a	-0.21858373
176	0xbdfd0c72	-0.123558894
177	0x3c4e7bdf	0.012602775
178	0xbe25b0c5	-0.16180713
179	0x3cceb84b	0.025234362
180	0x3d8037b0	0.062606215
181	0x3e351eb1	0.17687489
182	0x3d11df0c	0.035613105
183	0xbe0b564a	-0.13607135
184	0xbdca905a	-0.09890814
185	0x3d6799a1	0.056542996
186	0x3e75e682	0.24013713
187	0x3cc5ace0	0.024130285
188	0xbcb32ddb	-0.021872452
189	0xbd23fc18	-0.040035337
190	0x3dab9cbb	0.08379503
191	0x3c88c19f	0.016693888
192	0x3d939405	0.07205967
193	0x3dc80592	0.097666875
194	0xbe60c644	-0.21950632
195	0x3e940b63	0.28914937
196	0x3cd3a234	0.02583418
197	0xbd8052e6	-0.062658116
198	0xbdc73b88	-0.097281516
199	0xbdabb81e	-0.08384727
200	0xbcf663ac	-0.030076824
201	0xbd9193eb	-0.07108291
202	0xbd8e0972	-0.06935395
203	0x3e3626ce	0.1778824
204	0x3e8b5286	0.27211398
205	0x3d3a63fc	0.04550551
206	0xbd0e1f9a	-0.034698106
207	0xbcacabcd	-0.021078015
208	0xbe16eb8d	-0.14738293
209	0xbd7de524	-0.061986104
210	0x3e37db38	0.17954719
211	0xbd973863	-0.07383802
212	0x3d9e49c3	0.07728913
213	0xbd5689fe	-0.052377693
214	0xbe2d1767	-0.16903459
215	0x3e313321	0.1730466
216	0xbc6d89a2	-0.014498146
217	0x3e05826c	0.13038033
218	0xbdc58b9b	-0.09645768
219	0x3d8fd4c9	0.070230074
220	0x3e06f683	0.13179974
221	0x3d184732	0.037177272
222	0xbd59dc05	-0.053188343
223	0x3dc4eb41	0.096151836
224	0xbe4ab64c	-0.19796103
225	0x3e5b6558	0.21425378
226	0x3dd811a6	0.10550241
227	0x3e213617	0.1574329
228	0xbd275f2d	-0.04086225
229	0x3dc8dc5d	0.09807656
230	0x3c092a2a	0.008371869
231	0xbe4c8a7b	-0.19974701
232	0x3cbd97ef	0.023143737
233	0xbe325386	-0.17414674
234	0x3d3debff	0.04636764
235	0xbd4d6740	-0.050147295
236	0x3d919839	0.07109112
237	0xbd5d8ffb	-0.05409239
238	0xbe323434	-0.17402726
239	0x3e374b67	0.17899857
240	0x3d9d7022	0.07687403
241	0x3ea3fd36	0.32029122
242	0x3e2b66f7	0.16738497
243	0x3c74a761	0.014932484
244	0x3d9a3fc0	0.075316906
245	0xbd631dc4	-0.05544831
246	0x3d3b3749	0.04570702
247	0x3dc71345	0.09720472
248	0x3e0dcb28	0.13847029
249	0xbd559d5b	-0.05215202
250	0xbe4d37d0	-0.20040822
251	0x3de7bb0c	0.11314973
252	0xbd15de7f	-0.036589142
253	0x3e270fc4	0.16314608
254	0xbdc06f3d	-0.09396217
255	0x3c2a5549	0.01039631

network_body._body_endoder.seq_layers.2.bias f4 [128]
0	0x3c3d8ee1	0.0115697095
1	0x3d9648f0	0.073381305
2	0x3c084457	0.008317075
3	0xbd5c3728	-0.05376354
4	0xba27f953	-0.00064076966
5	0xbd2648bd	-0.040596712
6	0xbcd190b3	-0.025581693
7	0x3b63f06a	0.003478075
8	0x3a9b682e	0.001185661
9	0xbd48b4aa	-0.04900042
10	0xbbed37c6	-0.0072393147
11	0x3d3c5ee7	0.045988943
12	0xbd850fb9	-0.064971395
13	0xbb4feee2	-0.0031728079
14	0x3c81f2e9	0.015862899
15	0x3d903b0c	0.07042512
16	0xbc814699	-0.015780734
17	0x3c6379d3	0.013884026
18	0xbb8c8896	-0.0042887433
19	0xbbacf329	-0.0052780104
20	0x3d0e0836	0.0346758
21	0x3d508cd1	0.050915543
22	0x3c94decc	0.018172644
23	0x3cb05578	0.02152513
24	0xbd58e823	-0.052955758
25	0xbcbddb85	-0.023175964
26	0x3da88638	0.08228725
27	0x3c7890cb	0.01517124
28	0x3d20da6a	0.039270796
29	0xbca7f3ac	-0.020501934
30	0xbb605e01	-0.0034235718
31	0x3d5f1eef	0.05447286
32	0x3cae4650	0.021273762
33	0xbc36fd6c	-0.011168819
34	0xbcedf5ff	-0.029047964
35	0x3d83950e	0.06424914
36	0x3d956ff7	0.07296746
37	0xbd01c831	-0.031685058
38	0x3c1dc342	0.009629073
39	0x3c8013f7	0.01563452
40	0xbd362e92	-0.044478007
41	0x3d289018	0.041153044
42	0x3d480bc2	0.048839338
43	0xbd1f7a48	-0.038934976
44	0xbca3f083	-0.020012146
45	0xbd7426c1	-0.05960727
46	0xbc48f72c	-0.012265962
47	0x3d345a9e	0.04403173
48	0x3d9e4371	0.07727707
49	0xbbb209e0	-0.005433306
50	0xbcff6cba	-0.031179775
51	0x3d0fdd99	0.03512344
52	0x3af91eaa	0.0019006331
53	0x3d9817f8	0.07426447
54	0x3ce2bbb4	0.027677394
55	0xbb43a984	-0.0029855678
56	0x3d988dfe	0.07448958
57	0xbcd066e1	-0.025439681
58	0x3d935503	0.07193949
59	0x3d6b5528	0.05745426
60	0x3d34fb50	0.044184983
61	0xbd3248d5	-0.04352649
62	0x3d1ea80d	0.038734484
63	0xbd32b0a2	-0.04362548
64	0x3d755922	0.059899457
65	0x3d8d33e4	0.06894663
66	0x3d09cd75	0.033643205
67	0x39c91e31	0.00038360202
68	0x3d9f0100	0.077638626
69	0x3d7e1c6d	0.062038828
70	0x3dae5261	0.08511806
71	0xbba287f2	-0.0049600536
72	0x3cb00b2d	0.021489704
73	0xbd2346d7	-0.03986248
74	0x3c6a8f87	0.014316446
75	0x3cc73ece	0.02432194
76	0x3d2daa06	0.042398475
77	0x3db93588	0.090434134
78	0xba8c3bcb	-0.0010698972
79	0x3d45921f	0.048235055
80	0xbc542741	-0.012948812
81	0x3c89462e	0.016757097
82	0xbd384a49	-0.04499272
83	0x3d0f12f5	0.03493019
84	0x3d40971f	0.04701912
85	0x3d6c7d35	0.057736594
86	0xbc22daf1	-0.009939895
87	0x3c81af12	0.01583055
88	0x3d01b2c3	0.03166462
89	0x3dc0fade	0.09422849
90	0x3d0dbfb6	0.034606658
91	0x3b76b8f4	0.0037646862
92	0xbaf76dcf	-0.001887733
93	0xbba23f06	-0.0049513606
94	0xbb0aa7e5	-0.0021157202
95	0xbcd189d5	-0.025578419
96	0xb8d8c42f	-0.00010336225
97	0x3d06c205	0.032899875
98	0x3cc6ecb1	0.024282785
99	0x3d4d59ef	0.050134595
100	0xbbf636f8	-0.007513877
101	0xbcb97d0f	-0.02264264
102	0x3c7f0d6b	0.015567164
103	0xbd94a7ca	-0.07258566
104	0xbc7b9c9a	-0.015357161
105	0x3dac8012	0.08422865
106	0x3c215dac	0.009848993
107	0x3d1de53a	0.038548686
108	0xbc8a08d0	-0.016849905
109	0xbd287fcc	-0.0411375
110	0x3c87c8d9	0.016575264
111	0x3a02bf4b	0.00049876113
112	0x3bcb52c9	0.006204937
113	0xbd224902	-0.039620407
114	0x3d490ee9	0.049086485
115	0x3c94e3c2	0.01817501
116	0xbbd2f65d	-0.00643806
117	0xbcc4e3c6	-0.024034392
118	0xbcea8384	-0.028627165
119	0x3cfb4d9b	0.030676654
120	0xbd72e4d8	-0.059300274
121	0xbcf35243	-0.029702311
122	0x3ca5724a	0.020196099
123	0x3c88b7e8	0.016689256
124	0x3b321fc8	0.0027179588
125	0x3d86fff3	0.06591787
126	0x3c15b99c	0.009138491
127	0x3cfeb80e	0.031093623

action_model._discrete_distribution.branches.0.weight f4 [3, 128]
0	0xbd98968e	-0.07450591
1	0xbc243152	-0.0100215245
2	0xbd8e74e9	-0.069558926
3	0x3d42875c	0.04749237
4	0x3d19d2ae	0.037554435
5	0xbd3783ef	-0.044803556
6	0xbe4d4f37	-0.2004975
7	0xbc81a44f	-0.015825419
8	0xbdfc8817	-0.123306446
9	0xbd37d7a7	-0.044883396
10	0xbe48b58e	-0.19600508
11	0xbdcc1737	-0.099653654
12	0xbde76bf8	-0.1129989
13	0x3d1f9504	0.03896047
14	0xbd026801	-0.031837467
15	0xbdfe2c9d	-0.12410853
16	0x3d0fb96f	0.035088953
17	0xbd19831c	-0.03747855
18	0xbd7e956f	-0.06215423
19	0xbbae4fa9	-0.005319555
20	0xbcdd7f97	-0.027038379
21	0xbcc981a6	-0.024597954
22	0x3d8361f3	0.06415167
23	0x3da7bb23	0.0818999
24	0xbc560ff3	-0.013065326
25	0x3dcdc741	0.1004777
26	0xbdcdf5b4	-0.1005663
27	0x3d2c72bb	0.042101603
28	0x3c96bb8a	0.018399972
29	0xbac45f34	-0.0014981986
30	0x3c92b6e8	0.017909482
31	0xbe03c0eb	-0.12866561
32	0x3c8c5310	0.017129451
33	0x3d43e3a9	0.047824536
34	0x3d9a2f93	0.07528605
35	0xbe37e71f	-0.1795926
36	0xbd4fc8e0	-0.05072868
37	0xbd551d7a	-0.052030064
38	0x3c9e0af3	0.01929233
39	0x3d9a4e77	0.07534497
40	0x3b76c515	0.003765409
41	0xbc0652e4	-0.008198474
42	0xbca4051c	-0.020021968
43	0x3dd7a96e	0.10530363
44	0x3ca9bc45	0.020719657
45	0x3d70bb85	0.058772583
46	0xbd916fae	-0.07101379
47	0x3d5a8089	0.053345237
48	0xbc805dc5	-0.015669713
49	0x3d181822	0.03713239
50	0x3d915026	0.07095365
51	0xbbbd9c1f	-0.0057864334
52	0xbdb5312a	-0.08847268
53	0x3d2cb77c	0.04216717
54	0xbbb1fbcd	-0.0054316283
55	0xbd0dc4b9	-0.034611437
56	0xbde37771	-0.11106766
57	0xbd4dada7	-0.050214436
58	0x3d1f305b	0.038864475
59	0xbc1ddca1	-0.009635122
60	0xbd627ff6	-0.055297814
61	0x3cf2a36a	0.029618938
62	0x3d9b9919	0.075975604
63	0x3d887bc6	0.06664233
64	0x3d0442b7	0.032290187
65	0xbe2871d0	-0.16449666
66	0xbd62083a	-0.055183627
67	0x3cbe0e1e	0.023200091
68	0xbdd6d157	-0.10489147
69	0x3c2df717	0.010617993
70	0xbc6f13ca	-0.01459212
71	0x3d1e87a4	0.038703576
72	0xbc4dffbf	-0.012573182
73	0x3d7200ce	0.0590828
74	0xbe0bbed1	-0.1364701
75	0x3d7cc2aa	0.061709084
76	0xbdc26783	-0.094923995
77	0xbd151718	-0.036398977
78	0xbb02ebaf	-0.0019976904
79	0xbd00834d	-0.03137522
80	0xbca87898	-0.020565316
81	0xbdc8041b	-0.09766408
82	0x3e2228cf	0.1583588
83	0xbd525f5e	-0.05136048
84	0xbd8af61a	-0.067852214
85	0xbc89dd4e	-0.01682916
86	0xbd8f289d	-0.06990168
87	0x3d17c2bf	0.03705096
88	0xbdedcae3	-0.11610963
89	0xbd4df115	-0.050278742
90	0xbdde9690	-0.10868561
91	0x3db14bcd	0.08657036
92	0x3dbcf3f8	0.09226221
93	0x3da06ba3	0.0783303
94	0xbbcc5e25	-0.006236809
95	0x3d70013f	0.05859494
96	0xbb5fff89	-0.003417941
97	0x3b6f18e1	0.0036483335
98	0xbd77ab9a	-0.060466386
99	0xbdbe5dfa	-0.09295268
100	0xbab85935	-0.0014064672
101	0xbcf6e243	-0.030137187
102	0xbda51276	-0.08060162
103	0x3d9ec769	0.07752878
104	0xbddf2a50	-0.10896742
105	0x3d6e71c5	0.058213968
106	0xbd8c36bf	-0.068463795
107	0xbdbfa35c	-0.0935733
108	0xbe155d52	-0.1458638
109	0x3ca0b34c	0.019616745
110	0xbd45eefb	-0.048323613
111	0xbbd28890	-0.006424971
112	0xba2c3e19	-0.00065705326
113	0x3da87d4f	0.08227026
114	0x3c0ca699	0.008584642
115	0x3c9368b9	0.017994272
116	0xbe151eae	-0.14562485
117	0x3ca7d7bd	0.020488614
118	0xbdcbfe52	-0.09960617
119	0x3c37bc91	0.011214391
120	0xbcfffd4c	-0.031248711
121	0xbd23fd92	-0.040036745
122	0x3d15154e	0.03639727
123	0x3d160d1f	0.036633607
124	0x3d35ec7b	0.04441498
125	0xbe29181a	-0.165131
126	0xbe0584a4	-0.1303888
127	0xbb04e92b	-0.002028058
128	0x3c9697d5	0.018382946
129	0x3d0afb47	0.033931043
130	0x3da26981	0.079302795
131	0xbd800b33	-0.06252136
132	0xbc9366d4	-0.017993368
133	0xbd88752d	-0.066629745
134	0x3d2d01e2	0.042238124
135	0xbd4e2b6e	-0.050334387
136	0x3b0e92a0	0.0021754876
137	0xbdc81efa	-0.09771533
138	0x3dbf601a	0.09344502
139	0x3ce5dc75	0.028059224
140	0xbc6fcfd2	-0.014636951
141	0xbcd52f6d	-0.026023591
142	0x3c873148	0.016502991
143	0x3d8f0e4e	0.0698515
144	0xbd87dc9d	-0.066338755
145	0xbd78c2f3	-0.060732793
146	0xbda78134	-0.081789404
147	0xbc84aec0	-0.016196609
148	0x3be84a5e	0.0070889434
149	0x3db45666	0.08805542
150	0xbd0585f6	-0.03259846
151	0xbd42b1fd	-0.047533024
152	0xbdedd87e	-0.11613558
153	0xbd826b16	-0.06368081
154	0x3c61e472	0.013787376
155	0xbc1ac2f4	-0.0094458945
156	0x3d280e7c	0.04102944
157	0x3bbdab5a	0.005788249
158	0x3c80318d	0.015648628
159	0x3d7358fa	0.059411027
160	0x3cac9253	0.021065867
161	0x3c65cb2f	0.0140254935
162	0xbd3e33b5	-0.04643603
163	0x3d75d0b1	0.060013477
164	0x3d9d90d8	0.076936424
165	0xbdaa4492	-0.0831386
166	0xbd9d2f0e	-0.076749906
167	0xbd78aa0e	-0.06070905
168	0xbdb4d43d	-0.08829544
169	0x3dba28fb	0.09089848
170	0xbd83f17e	-0.06442545
171	0xbda2010e	-0.079103574
172	0xbc776b49	-0.015101262
173	0xbcb27b02	-0.02178717
174	0xbc1664aa	-0.009179274
175	0x3cce02a2	0.02514774
176	0x3d8aa9c9	0.06770665
177	0x3acf4913	0.0015814624
178	0xbd3c9217	-0.04603776
179	0x3c6797f5	0.0141353505
180	0x3d7582ed	0.059939314
181	0x3d4e6242	0.050386675
182	0x3cf7bd4d	0.030241633
183	0x3ceaaaf1	0.028645964
184	0x3e109e2d	0.1412284
185	0x3ca39ff8	0.01997374
186	0xbe066151	-0.13123061
187	0x3d5fba18	0.054620832
188	0x3d26730d	0.040637065
189	0x3d35b44e	0.044361405
190	0x3b5c9b9a	0.0033662082
191	0xbd550c47	-0.05201366
192	0xb8683f51	-5.537208e-05
193	0x3de552e2	0.11197449
194	0xbd286d3c	-0.0411198
195	0xbccf4ecc	-0.025306128
196	0x3da44213	0.08020415
197	0x3d8b9dbc	0.06817195
198	0x3da66068	0.08123857
199	0xbc5dcef3	-0.01353811
200	0x3d224551	0.039616887
201	0xbd95462b	-0.07288774
202	0x3e03f485	0.12886246
203	0x3d401854	0.0468982
204	0x3d5e8b84	0.05433227
205	0x3d8d7287	0.0690661
206	0x3d0bc3bb	0.03412221
207	0x3dd1d053	0.10244813
208	0xbcaeb955	-0.021328608
209	0x3d6bd15d	0.05757271
210	0xbd955b40	-0.07292795
211	0x3d4ed2fd	0.050494183
212	0x3d690114	0.056885794
213	0x3ce3128f	0.02771881
214	0xb9d14dc3	-0.00039921523
215	0x3c6fb97b	0.014631624
216	0x3d210903	0.039315235
217	0x3da32bc1	0.0796733
218	0x3d917510	0.07102406
219	0x3cef4205	0.029206285
220	0xbc74f058	-0.014949881
221	0xbb23ae5c	-0.0024975752
222	0x3bdf14a2	0.0068078795
223	0xbc908e5f	-0.017646013
224	0x3dad0bca	0.08449514
225	0x3d992e1f	0.074795
226	0x3ce07d9c	0.027403645
227	0x3dcb3c39	0.09923596
228	0x3d3621d2	0.044465847
229	0x3d139ede	0.03604018
230	0x3c937996	0.018002313
231	0xbcd80e65	-0.026374051
232	0x3ddd6200	0.10809708
233	0xba6bf92d	-0.00090016687
234	0x3cf2d769	0.029643731
235	0xb954290f	-0.00020233191
236	0x3d06b943	0.032891523
237	0xbd2e0748	-0.042487413
238	0x3d139f66	0.036040686
239	0x3cede4cc	0.029039763
240	0xbd1a277a	-0.037635304
241	0xbda89635	-0.08231775
242	0x3ce9fb0f	0.028562097
243	0x3cc4886f	0.023990838
244	0x3d938005	0.07202152
245	0xbdd0ed4a	-0.10201509
246	0x3d49b660	0.049246192
247	0xbd2af1cb	-0.041734498
248	0xbdfc82d8	-0.12329644
249	0xbce2c78a	-0.027683038
250	0xbad961b3	-0.0016584903
251	0x3d24b9ae	0.04021614
252	0xbd1f0c6b	-0.038830202
253	0x3e018bf5	0.12651046
254	0x3ccb9a7d	0.02485394
255	0xbd5900bc	-0.052979216

action_model._discrete_distribution.branches.0.bias f4 [3]
0	0xbd15522e	-0.036455326
1	0x3d92e048	0.071716845
2	0xbd451438	-0.048114985

action_model._discrete_distribution.branches.1.weight f4 [3, 128]
0	0x3d02b650	0.031912148
1	0xbe0e556d	-0.13899775
2	0xbcdd7c62	-0.02703685
3	0x3b5c0d3b	0.0033577222
4	0x3db8c0bf	0.090211384
5	0x3d2e08cf	0.04248887
6	0x3cadbb47	0.021207465
7	0xbd2458e7	-0.040123846
8	0x3df662a6	0.120305344
9	0x3d43dc56	0.04781755
10	0x3e0ba3fb	0.13636772
11	0xbba7dda4	-0.005122857
12	0xbb2864f8	-0.0025694948
13	0x3c8f0c83	0.01746202
14	0x3d93c28c	0.07214841
15	0xbded8dfc	-0.11599347
16	0x3c25a809	0.0101108635
17	0x3d8ac030	0.06774938
18	0xbb35f96f	-0.0027767082
19	0x3e1a8556	0.15089926
20	0x3c9de917	0.019276185
21	0xbcd3850c	-0.025820278
22	0x3b3e323f	0.0029021648
23	0x3d4e37b2	0.050346084
24	0x3d933db9	0.07189507
25	0xbccf9251	-0.025338324
26	0xb9db470c	-0.0004182387
27	0xbb9dde42	-0.004817755
28	0x3d170fab	0.036880177
29	0x3e0097a8	0.12557852
30	0xbd45cd7b	-0.048291665
31	0xbd19fd23	-0.037594926
32	0xbd940a36	-0.0722851
33	0x3d948cb4	0.072533995
34	0x3c89e9b6	0.016835075
35	0x3e1510c8	0.14557183
36	0xbe07c5ce	-0.1325905
37	0x3dd26749	0.10273606
38	0xbd5f3cf7	-0.0545015
39	0xbd3257c3	-0.043540727
40	0xbbcd9ded	-0.0062749297
41	0x3d8d2dd1	0.068935044
42	0xbce768c2	-0.028248195
43	0x3da2f02e	0.07955967
44	0x3d5247cc	0.051338002
45	0xbc27b0f2	-0.010235058
46	0x3dae24cc	0.08503112
47	0x3bbc17f1	0.0057401587
48	0xbd39ccc5	-0.0453613
49	0x3d456329	0.04819027
50	0x3bd61880	0.0065336823
51	0xbdadc545	-0.08484892
52	0xbd001159	-0.031266544
53	0x3cea6987	0.028614772
54	0x3d097810	0.033561766
55	0x3d3c530d	0.04597764
56	0xbe3241a2	-0.1740785
57	0x3c8b103f	0.01697552
58	0x3e23ebbf	0.16007899
59	0x3c2750bb	0.010212119
60	0x3b9be425	0.0047574216
61	0x3dd13901	0.10215951
62	0x3d4bc499	0.049748037
63	0x3db67629	0.08909256
64	0xbdcbe95f	-0.099566214
65	0xbcf82bc3	-0.030294305
66	0xbd8097b6	-0.062789366
67	0x3d5217cd	0.05129223
68	0xbd7c059c	-0.061528787
69	0xbd742f32	-0.05961532
70	0xbc5dc46d	-0.013535601
71	0xbddad186	-0.10684495
72	0xbd048410	-0.032352507
73	0x3c7efb92	0.015562909
74	0xbd2dc757	-0.042426433
75	0x3d078952	0.033089943
76	0x3d8e247a	0.06940551
77	0xbe4529de	-0.19254252
78	0x3d7a5dac	0.06112449
79	0xbd4bb490	-0.049732745
80	0xbbc1c655	-0.0059135356
81	0xbcd6d445	-0.026224265
82	0xbcce5144	-0.025185235
83	0xbd02a7ee	-0.03189843
84	0xbd884ac5	-0.06654886
85	0xbe247561	-0.16060401
86	0x3d602879	0.054726098
87	0xbd98b408	-0.07456213
88	0xbd5e5c18	-0.054287046
89	0xbd52c30d	-0.051455546
90	0xbc9c331d	-0.019067341
91	0x3d9464da	0.072457984
92	0x3d7c2cb5	0.061566073
93	0x3c982964	0.018574424
94	0xbd09ffa6	-0.03369107
95	0x3cb49586	0.022043955
96	0x3d39b8c6	0.04534223
97	0x3def4ec6	0.11684947
98	0xbd09c381	-0.033633713
99	0x3c1b4841	0.009477676
100	0xbd39e315	-0.045382578
101	0xbd4ba03a	-0.04971335
102	0x3bbe6fb3	0.0058116554
103	0x3ba0101a	0.004884732
104	0x3dc46b72	0.09590806
105	0xbdabeffb	-0.08395382
106	0xbcbc3af5	-0.022977332
107	0x3ca4d5de	0.020121511
108	0x3dc5906a	0.096466854
109	0x3d69044a	0.056888856
110	0x3e1fb131	0.15594937
111	0xbd9479d8	-0.07249802
112	0x3dd7be22	0.10534312
113	0x3acb032e	0.0015488619
114	0xbdd39b4b	-0.10332354
115	0x3bd46f73	0.0064830123
116	0x3c7ffefb	0.015624757
117	0xbd780972	-0.060555883
118	0x3cdba712	0.026813064
119	0xbca80318	-0.020509288
120	0x3cd6436e	0.0261552
121	0x3d0624ff	0.032750126
122	0x3c908ec9	0.01764621
123	0x3c12fdef	0.008971675
124	0x3c2cf029	0.0105553055
125	0x3bceb3f7	0.0063080746
126	0x3d99132c	0.0747436
127	0xbc6cecc8	-0.01446075
128	0xbb8aad36	-0.004232074
129	0x3c9345b7	0.017977579
130	0x3d9fb1b5	0.07797567
131	0xbc457f36	-0.012054255
132	0x3da38e4a	0.07986124
133	0x3c246fcd	0.010036421
134	0x3c630691	0.013856546
135	0xbcf65d3e	-0.030073758
136	0x3d5d8fc3	0.05409218
137	0xbcd17c8b	-0.025572082
138	0x3c1f7ee3	0.009734842
139	0xbc916b59	-0.017751383
140	0xbc41f97f	-0.01183927
141	0x3d1d503b	0.03840659
142	0x3cc36de8	0.023856118
143	0xbd104c53	-0.03522904
144	0x3dfae429	0.12250549
145	0x3d3b83e5	0.04578008
146	0x3d0470d6	0.03233417
147	0x3d3bfea7	0.045897152
148	0x3c5f6bb6	0.01363652
149	0x3d878930	0.06617963
150	0x3d82c0b8	0.063844144
151	0x3d91b7f0	0.071151614
152	0xbd0af337	-0.033923354
153	0xbb93d857	-0.0045118737
154	0x3c8cf106	0.017204773
155	0x3c330320	0.010926038
156	0xbd192456	-0.03738817
157	0x3aef34fe	0.0018250046
158	0x3b796155	0.00380524
159	0x3ba409eb	0.005006065
160	0xbdc99d06	-0.09844403
161	0x3cfb9637	0.030711276
162	0x3bc9d7e4	0.0061597694
163	0x3d933e62	0.07189633
164	0xbd9558a4	-0.072922975
165	0x3c6ecee2	0.014575692
166	0x3d26406e	0.04058879
167	0x3d33b638	0.04387495
168	0x3c04124c	0.008061003
169	0xbc7f5fe7	-0.01558683
170	0x3d6ce020	0.05783093
171	0x3da1b798	0.07896346
172	0x3d520d69	0.05128232
173	0xbd78fe27	-0.060789254
174	0x3d2c0635	0.041998107
175	0xb8454aa8	-4.703799e-05
176	0x3c2acd33	0.0104249
177	0xbda44320	-0.080206156
178	0xbc4be114	-0.0124437995
179	0xbc826942	-0.015919331
180	0x3cd58b1b	0.026067307
181	0xbc816db6	-0.015799385
182	0xbdaea085	-0.085267104
183	0x3cee5e69	0.029097753
184	0xbd8afb82	-0.067862526
185	0x3cb4f307	0.02208854
186	0x3befca59	0.007317823
187	0xbce04246	-0.027375352
188	0x3cefa10b	0.029251596
189	0xbafe3cbf	-0.0019396766
190	0xbd468a5c	-0.048471794
191	0x3cbb922d	0.02289685
192	0x3d00acf2	0.031414934
193	0xbd0c315f	-0.03422677
194	0x3c5e661e	0.013574151
195	0x3ba30324	0.0049747396
196	0xbcaa8e27	-0.020819737
197	0x3ca583b5	0.020204404
198	0x3a8608cb	0.0010226009
199	0x3d6c37f2	0.05767054
200	0x3d82ad95	0.063807644
201	0x3d970fd6	0.07376067
202	0xbd0297f4	-0.031883195
203	0x3cd9ac80	0.026571512
204	0xbc2f9bbf	-0.010718285
205	0xbd30fac8	-0.043207914
206	0x3ba9165b	0.0051601357
207	0xbcbe266d	-0.023211682
208	0xbbb71ac1	-0.005587906
209	0x3b1cefdf	0.0023946685
210	0xbc4205b6	-0.011842182
211	0xbd698e22	-0.057020314
212	0xbd2fcaa2	-0.042917855
213	0xbd73638c	-0.059421107
214	0x3c1ea50d	0.009682906
215	0xbd2e0d8c	-0.042493388
216	0xbd65da5e	-0.056116454
217	0x3be354be	0.0069375923
218	0xbd6013a8	-0.054706246
219	0xbc933114	-0.017967738
220	0x3db94a26	0.09047346
221	0xbcdd3cd0	-0.027006537
222	0xbd5118a5	-0.051048893
223	0x3cecef21	0.02892262
224	0x3d4e8e37	0.050428595
225	0xbb9ba517	-0.004749905
226	0xbcff505c	-0.031166248
227	0xbc1495e8	-0.009068944
228	0x3d3caccf	0.04606324
229	0x3c4b06dd	0.012391773
230	0x3c1085d6	0.0088209715
231	0xbc91a3e0	-0.017778337
232	0x3de852c3	0.113439105
233	0x3c261f6d	0.010139328
234	0xbcfaba7d	-0.030606503
235	0x3d619f14	0.05508335
236	0x3d991c28	0.074760735
237	0x3cd8401c	0.026397757
238	0xbc8fc621	-0.01755053
239	0xbb922643	-0.0044601276
240	0xbd26c2b6	-0.040713035
241	0x3d5d1775	0.05397745
242	0xbc1f597a	-0.009725923
243	0x3c7d4d5a	0.015460337
244	0x3ae811c4	0.001770549
245	0x3d9ded2d	0.07711253
246	0x3ceab8a4	0.028652497
247	0xbd3d52e3	-0.046221625
248	0xbc099534	-0.008397389
249	0x3d945446	0.072426364
250	0x3c07db62	0.008292051
251	0xbc1e5521	-0.009663851
252	0x3c53b60d	0.012921822
253	0x3c9f568a	0.019450445
254	0x3d1fe6ff	0.039038654
255	0x3bdd468e	0.0067527955

action_model._discrete_distribution.branches.1.bias f4 [3]
0	0xbd59bd34	-0.053158954
1	0x3cb000c1	0.021484734
2	0x3cfab4de	0.030603822
