ArmRobot/Assets/Config/results/TFM-Brazo-1/AgenteRobot/AgenteRobot-112860.onnx (onnx, 147394 bytes, 25 tensors)

discrete_act_size_vector f4 [1, 8]
000000 00 00 40 40 00 00 40 40 00 00 40 40 00 00 40 40
       3.0 3.0 3.0 3.0
000010 00 00 40 40 00 00 40 40 00 00 40 40 00 00 40 40
       3.0 3.0 3.0 3.0

network_body.observation_encoder.processors.0.normalizer.running_mean f4 [86]
000000 00 00 00 00 00 00 00 00 00 00 00 00 00 00 00 00
       0.0 0.0 0.0 0.0
000010 00 00 00 00 00 00 00 00 78 fe 7f 3f 23 62 54 b1
       0.0 0.0 0.99997663 -3.0905845e-09
000020 37 3c b0 3d e7 7d f0 b3 16 88 3d 33 78 17 1d bf
       0.08605235 -1.11987724e-07 4.412876e-08 -0.61363935
000030 e7 a4 03 b0 31 c6 0b 3f 46 4c f1 3c 7a 8a 1b 3e
       -4.789186e-10 0.5459929 0.029455315 0.15189543
000040 0f 05 8c 3b 19 4f ab 3d 26 d2 13 bf d5 4e 99 bd
       0.004273064 0.08364696 -0.57742536 -0.07485739
000050 61 45 03 3f 00 41 df 3c 8d cc ad 3e 18 1d 0e 3d
       0.5127774 0.027252674 0.33945122 0.034695715
000060 40 e3 bd 3d cb 51 de be 6a 3d b5 bd 56 60 b8 3e
       0.0927186 -0.43421778 -0.088496044 0.36010998
000070 41 7e 44 3b 4d 34 ca 3e 62 bd 49 3d 8a 0d f4 38
       0.002998248 0.39493027 0.049252875 0.000116373485
000080 de d7 e2 be 76 79 02 be 48 08 9c bd 15 f3 78 ba
       -0.4430532 -0.12741646 -0.07618767 -0.0009496671
000090 1d 49 ce 3e ff a7 73 3d be 88 17 3d 8e a8 aa be
       0.40290156 0.059486385 0.036995642 -0.33331722
0000a0 19 56 f3 bd 59 b3 86 bd d4 ca 9e bb df ae cc 3e
       -0.11881656 -0.065771766 -0.0048459563 0.39977166
0000b0 38 b8 8d 3d f6 9d e6 3c cc f3 96 be 04 5d ea bd
       0.069199026 0.028151494 -0.29482877 -0.114435226
0000c0 54 71 4f bd 06 80 07 bc 91 28 c9 3e ea 8d ab 3d
       -0.050645187 -0.008270269 0.39288762 0.08376677
0000d0 0a 58 88 3c 2c 6f c6 bd 69 29 81 be 51 7e d9 bc
       0.016643543 -0.09689173 -0.25226906 -0.02654949
0000e0 1f bb 58 bc 5a c8 bd 3e 03 43 bf 3d 0b 58 88 3c
       -0.013228207 0.3706692 0.09338953 0.016643545
0000f0 2c 6f c6 bd 69 29 81 be 51 7e d9 bc 14 ba 44 bc
       -0.09689173 -0.25226906 -0.02654949 -0.012007255
000100 ba e3 bd 3e ca 29 bd 3d 0d 58 88 3c 2c 6f c6 bd
       0.37087804 0.09236486 0.016643548 -0.09689173
000110 69 29 81 be 51 7e d9 bc 0f 02 88 bd c5 60 ea 3e
       -0.25226906 -0.02654949 -0.06641018 0.45776954
000120 e1 fc c2 be 02 cb 36 3f 21 49 2e 3e ed 9f 1a 3d
       -0.38083556 0.71403515 0.17020084 0.037750173
000130 57 a6 df bd d6 2a 86 3e db 9e c2 bd ad 90 60 3e
       -0.10920399 0.26204556 -0.095029555 0.2193019
000140 9a 8a cf 3d 81 64 a6 3e 31 0c 02 be fc b6 87 3e
       0.10133858 0.32498553 -0.12699963 0.26506793
000150 9e 33 77 3e 26 3e 6e be
       0.24140784 -0.23265895

network_body.observation_encoder.processors.1.normalizer.running_mean f4 [29]
000000 00 00 00 00 e4 ad c3 3e 5b 28 24 3d eb cd 1a 3f
       0.0 0.38218606 0.04007755 0.60470456
000010 a5 e5 07 3e 04 02 54 3e c6 fb ff 3e 50 cc 10 3f
       0.13271196 0.20703894 0.49996775 0.56561756
000020 48 c6 fb 3e 56 c3 01 3f 03 c0 5a 3f 7a 5c 04 3f
       0.49174714 0.50688684 0.85449237 0.5170361
000030 60 e0 f8 3e 00 00 00 00 00 00 00 00 00 00 00 00
       0.48608685 0.0 0.0 0.0
000040 00 00 00 00 00 00 00 00 00 00 00 00 00 00 00 00
       0.0 0.0 0.0 0.0
000050 00 00 00 00 00 00 00 00 80 a4 0a 3f ce 81 34 3f
       0.0 0.0 0.5415726 0.70510566
000060 ae d4 ed 3e 0f 55 0a 3f 41 8c 0a 3f c2 e8 f3 3e
       0.46451324 0.5403604 0.5412026 0.47638518
000070 2e 2a 0e 3f
       0.5553311

network_body._body_endoder.seq_layers.0.weight f4 [128, 115]
000000 1b 59 e9 bd 31 c0 a7 bc a4 c2 7a 3c 8f 4a 63 3c
       -0.11393949 -0.020477386 0.015305195 0.013872757
000010 5d 13 a5 bc 74 a4 50 bd c2 ed 60 bd c2 76 3a 3d
       -0.020150835 -0.050938085 -0.054914244 0.045523413
000020 f9 fb 99 bc a1 b5 ca bd d6 a9 d8 bb ea ee e4 ba
       -0.018796908 -0.09897924 -0.006612043 -0.0017466221
000030 58 85 bd 3d 17 09 b6 bd be 51 03 3d f3 7c ac bd
       0.09253949 -0.088884525 0.032060377 -0.0842227
000040 1e 51 ce bd b0 72 8e 3d 33 c3 dc bd 60 d6 72 bd
       -0.100740656 0.06955469 -0.10779419 -0.059286475
000050 ea c1 21 3d 32 1f 1f bd f0 e0 e2 3c 07 ab 27 be
       0.03949157 -0.03884811 0.02769515 -0.16373836
000060 96 46 b3 3d 3a 35 6c 3b 8d 9c 84 3d 12 53 8f bd
       0.087536976 0.0036042468 0.06475172 -0.06998266
000070 6b ad 61 be d9 a2 87 3c 9d 9e 58 bd 53 fd 51 bc
       -0.2203881 0.016557144 -0.05288564 -0.012816745
000080 e5 51 ac 3c 20 f4 8a 3b 5c 50 35 3e 41 69 1d be
       0.021035144 0.0042405277 0.17706436 -0.15372182
000090 3c 48 f8 3d 61 98 93 bd c1 1c 02 be 72 8a 16 be
       0.121231526 -0.07206798 -0.12706281 -0.1470125
0000a0 a5 8d f9 3d d5 fd 37 bd 02 1d 21 bd 72 e5 8a be
       0.1218522 -0.044919807 -0.039334305 -0.27128178
0000b0 15 56 f7 bb 83 26 90 bd 7b 43 db 3d e1 de b6 3c
       -0.0075481036 -0.070385955 0.1070623 0.022323074
0000c0 64 dc cb bd 48 d6 04 be 24 8b bb bd 38 a0 83 3d
       -0.099541456 -0.12972367 -0.09157398 0.06427044
0000d0 a9 59 99 3d f5 12 b2 3d e0 d7 06 3e 8d 4e e1 bd
       0.074878044 0.08695022 0.13168287 -0.110013105
0000e0 4c ba d2 bd e8 4e a1 bd ff 3b 73 bc 69 08 1a bb
       -0.102894396 -0.07876378 -0.014845847 -0.0023503548
0000f0 65 bd 30 3d 22 70 67 bd a3 09 1a bd 5e a8 f2 bd
       0.04314937 -0.056503423 -0.037606847 -0.1184852
000100 d9 1f 83 bd 75 98 b7 bd ce da 1b 3d d6 5b 48 3e
       -0.06402559 -0.08964626 0.038050465 0.19566283
000110 2e 64 24 be 36 08 f5 bd 18 0c ad 3d 74 9b 3f 3d
       -0.1605384 -0.11964457 0.08449572 0.04677911
000120 63 6d a0 bd 15 44 89 bd 85 cf bf bc 91 19 5c bc
       -0.07833364 -0.06702439 -0.023414383 -0.01343383
000130 a6 66 b7 bc 19 9c 66 3e 1a 21 ff bd 41 5a 40 39
       -0.022387814 0.22520484 -0.124574855 0.00018344169
000140 a7 85 4f bc 51 79 1e 3e 19 97 2e 3e 5d d5 f8 3d
       -0.012666143 0.15475966 0.17049827 0.12150071
000150 b7 e3 bc 3d c9 2b 70 3d 2b bb 05 bc c4 71 21 3e
       0.09223121 0.058635507 -0.0081623 0.15766054
000160 8b 7b db 3d 8d 7e 8d bd 50 d0 8d bd a3 06 64 bd
       0.10716923 -0.06908903 -0.06924498 -0.05567039
000170 04 96 56 3d 14 88 2d bd 0a 07 48 3d 75 35 a6 3d
       0.05238916 -0.042366102 0.048834838 0.08115665
000180 25 2f 67 3c e3 81 23 3d 8a 75 35 be 64 ca c3 3c
       0.014110361 0.03991879 -0.17720619 0.023900218
000190 4a 4b 10 3d 68 fd 27 3d 8e 72 e8 bc 25 08 f2 3d
       0.03522805 0.04101315 -0.028374936 0.1181796
0001a0 3f 7b e3 bd e3 1e 93 bc 56 d1 7e 3d ea 96 b2 3d
       -0.11107492 -0.017959064 0.062211357 0.08720191
0001b0 a8 af 19 3e 17 5b 76 3d 7b 04 ec 3d bb ac b4 bc
       0.15008414 0.060145464 0.11524292 -0.02205502
0001c0 0e 1b 05 be 5b c2 8c 3c 41 f8 ed 3c 23 26 a6 3d
       -0.12998602 0.01718252 0.02904904 0.08112743
0001d0 44 7d 1c 3d dc 50 0d be 8a 93 41 be 62 f9 23 bc
       0.0382054 -0.13800377 -0.18903938 -0.010008188
0001e0 02 23 5e 3d 43 cd 04 3e 12 77 f7 bd 37 ee 5e bd
       0.054232605 0.12968926 -0.12083258 -0.054426398
0001f0 5f 2a 8f 3d 5f 86 cb 3c 69 57 01 3e 43 a3 f6 bd
       0.069905035 0.024844347 0.12631 -0.120428585
000200 25 bf ef bd 22 52 0e bb df 5a 8b be b8 d7 04 be
       -0.1170638 -0.0021716435 -0.27217767 -0.12972915
000210 e4 23 73 3c 12 78 cd 3d 99 e4 e3 3c e3 ca 1c 3c
       0.0148401 0.10032667 0.027818965 0.009569856
000220 9f b4 09 be 5a 41 89 3e e0 93 fe bd 8d 50 4d bc
       -0.13447808 0.26807672 -0.12430549 -0.012531412
000230 e8 16 0d 3e c0 3e 78 bd a9 88 49 3e 0b df 5b be
       0.1377827 -0.060606718 0.19681038 -0.21471803
000240 51 d7 82 3e 62 51 62 be ec 65 60 3d f5 00 31 be
       0.25554898 -0.22101358 0.0547847 -0.17285521
000250 11 ac f6 bc 30 62 b9 3d dd 68 bf 3b cf 05 fe 3d
       -0.030111345 0.09051931 0.005841358 0.12403452
000260 ff 3f ec 3c ec 10 1f bd 2a 00 ed 3d 40 a3 06 bd
       0.02883911 -0.038834497 0.11572297 -0.03287053
000270 49 ea ec bd 6e 89 f6 3c ac c5 84 bd 8e c2 52 3d
       -0.11568124 0.030094828 -0.064830154 0.051455073
000280 7f 6a d8 3c 73 ea 4b be 09 94 12 be a7 3a 73 bd
       0.026417969 -0.19913654 -0.14314283 -0.059382107
000290 47 50 df bc e0 87 27 bd af ff 40 be da de e2 bc
       -0.027259959 -0.040901065 -0.18847536 -0.027694155
0002a0 14 61 d2 3d 94 06 6b bd 69 29 55 be 61 74 e2 bd
       0.102724224 -0.05737932 -0.20816578 -0.11057354
0002b0 7d df 9c bc 07 dc 5f bc 3e 96 b8 bc e4 5a 8f bd
       -0.019149536 -0.013663298 -0.022532579 -0.06999758
0002c0 15 e0 dd bd d8 9e 89 3d 6c 70 77 3d 0c fc 98 bc
       -0.10833756 0.0671975 0.06040995 -0.018674873
0002d0 e6 eb 72 3d 42 74 ea bc 6d 24 f0 3c 24 12 83 bd
       0.059307 -0.02861989 0.029314244 -0.063999444
0002e0 a7 5e ca bc c8 52 21 3c a6 38 80 3d 83 8f c1 3c
       -0.024703337 0.009846397 0.06260805 0.023628002
0002f0 e2 37 83 bd 7b d3 d1 3d 53 c9 d6 bd 0d 60 b2 3d
       -0.06407143 0.10245415 -0.10487618 0.087097265
000300 27 9c 16 be be e3 f6 bd 5e a3 80 bd 0e 3a 7d bd
       -0.14708005 -0.12055157 -0.0628116 -0.061822943
000310 f9 05 97 bd 12 cd e0 bd bb 5d 22 bd e4 8c 84 3d
       -0.07374186 -0.10976614 -0.03964017 0.06472185
000320 29 3d f4 bd d5 fc 87 3d 76 5c 13 bd 4f ad fc bd
       -0.11925728 0.06640021 -0.03597685 -0.123377435
000330 55 35 f8 3c e1 27 55 bd be 71 21 bc 0e 1e 60 bb
       0.030298868 -0.052039985 -0.009853778 -0.0034197601
000340 db e2 cb 3d 99 98 ee ba 1f f9 3f 3d 8b 8d 4e bd
       0.099553786 -0.0018203437 0.04686844 -0.050427955
000350 ce bd 2b bd 77 1a 24 3e 4d a1 6e be 01 4d 76 bc
       -0.04192906 0.1602572 -0.23303719 -0.015033008
000360 89 bc 14 3d 1c 5c 8b 3d c1 01 e7 bc 60 00 9e 3d
       0.036312614 0.06804678 -0.028199079 0.07714915
000370 66 b7 d9 39 f0 cd 94 3d 54 3c b3 3d 80 bd 45 be
       0.00041526108 0.07265842 0.08751741 -0.1931057
000380 6d 32 0a be b4 0a c1 3d fe 15 42 3c 5b 81 75 3c
       -0.13495798 0.094258696 0.011846064 0.014984454
000390 c2 b4 63 3d 71 b7 19 bc 51 b8 0a be 0c b4 9c 3b
       0.055592306 -0.009382115 -0.13546874 0.0047822054
0003a0 e4 ef 95 bd 11 bc 9b 3d 62 19 b6 3d e1 2c 3e 3e
       -0.07321146 0.0760423 0.0889156 0.18571807
0003b0 d1 1d 03 3e c8 77 d5 bc a2 2d c9 bd 8a d1 a0 3d
       0.12804343 -0.026058093 -0.09823157 0.078524664
0003c0 c8 3d de bd d5 fa 15 bd 7e 5a e7 bd e6 d5 0c be
       -0.108516276 -0.036616165 -0.11296557 -0.13753471
0003d0 78 14 19 3d d0 0a d9 bd 06 82 18 be 44 7c 30 3c
       0.037373036 -0.105977654 -0.1489335 0.010771815
0003e0 fe 55 90 3d 81 a1 0d 3e 89 db 55 bd 27 61 00 be
       0.07047652 0.1383114 -0.05221132 -0.1253706
0003f0 53 89 10 3d be 2c 1a 3e 1a 7e d1 b7 d0 da 83 bd
       0.035287213 0.1505613 -2.4973462e-05 -0.064382195

network_body._body_endoder.seq_layers.0.bias f4 [128]
000000 e1 e2 00 3d 56 bc 0c 3d 01 0f 97 3c 31 92 e5 ba
       0.03146637 0.0343593 0.018439772 -0.0017514882
000010 2d 01 74 3c 96 bc f3 3b 66 b0 39 3a 74 72 a9 3c
       0.014892858 0.0074382527 0.00070834754 0.020684458
000020 80 71 46 3d 5f 45 b4 3c 42 1a 32 3d 9d b1 98 bc
       0.048448086 0.022005735 0.043482073 -0.01863938
000030 13 2d 4b bb 85 f3 54 3c c1 bd ae 3c 60 74 84 bb
       -0.0031002208 0.012997513 0.021330716 -0.0040421933
000040 7e 91 b8 3c 15 35 c0 3b 29 f5 39 3c 7c 2a 9e 3c
       0.022530314 0.005865703 0.011349955 0.019307368
000050 76 3d 71 3c 6e 45 98 3c 92 7e a6 3c 0a 33 0e 3d
       0.014724126 0.018587794 0.020324025 0.034716643
000060 19 29 c5 3b a4 cf 04 3c 46 36 1b 3d 91 67 d3 b9
       0.006016862 0.008106146 0.037893556 -0.0004032222
000070 68 54 dd 3c 23 32 b7 bc 6f 8d 25 3d f3 18 a5 3c
       0.027017787 -0.022362774 0.040418085 0.020153498
000080 3c 43 b3 3c 6b ed 06 3c bb d5 e0 3b ce 26 f4 3c
       0.021882646 0.008235316 0.006861416 0.02980366
000090 42 33 cb 3b 43 87 93 ba 91 ee 70 3c 79 4b 79 3c
       0.0062011788 -0.0011255521 0.014705316 0.015215748
0000a0 c4 16 04 3d 60 f1 d5 3c 42 4f 6c bb 74 32 ca 3c
       0.032248273 0.026116073 -0.0036057984 0.024682261
0000b0 a3 3a 77 3a 08 57 a2 3c 5d d1 51 3c be 5c ac 3c
       0.000943104 0.01981689 0.012806264 0.021040317
0000c0 83 b7 9f 3c fa d9 8a 3c 6c dd 2d 3b 6a 05 be 3a
       0.019496685 0.016949642 0.0026529683 0.0014497463
0000d0 40 94 57 bc 77 49 01 3d 88 9d d4 3c 78 69 06 3c
       -0.013157904 0.031564202 0.025954023 0.008203857
0000e0 c6 ec 4a 3c 93 89 0d 3d 74 d3 bd 3c ad 65 59 bc
       0.012385553 0.03455503 0.023172118 -0.01326887
0000f0 6b 8f 65 bc e5 2a e6 3b 7a 7f 86 3c 8d aa bf 3c
       -0.014011244 0.0070241564 0.016418207 0.023396755
000100 67 d2 64 3d b6 07 d3 3c 45 52 93 bb e1 6b 61 3c
       0.055864718 0.025760513 -0.0044958913 0.0137586305
000110 e6 35 a4 3c ff 2d 10 3c 62 ad b1 3c 10 be 6f bb
       0.020045232 0.008800029 0.02168912 -0.0036581792
000120 3c 33 24 bc de e7 aa 3c fb dd 24 3d de 99 d8 3c
       -0.010021981 0.020862516 0.04025076 0.026440557
000130 e1 4a 95 3b 6e 17 ae 3c 03 60 ef 3c ba a7 9f 3c
       0.0045560454 0.021251407 0.029220587 0.019489158
000140 b4 ab c6 3c 59 68 d3 3c 83 6a b2 3c 32 9a 02 3d
       0.024251796 0.025806593 0.021779304 0.031885333
000150 49 68 08 bc 71 0a 7a bb 52 5a a4 3c d4 76 6a 3c
       -0.008325645 -0.0038153196 0.0200626 0.014310557
000160 00 b1 4e 3c ad d3 e4 3c b7 7c 00 3d 85 cd 79 3b
       0.012615442 0.027932966 0.031368937 0.0038116884
000170 35 76 50 3c bc 96 bb 3c 7b d6 83 3b ba 98 68 3c
       0.012723495 0.022899024 0.004023371 0.014196569
000180 25 5c 08 3c 4f e4 b7 3c 16 2b d3 bc a0 98 f8 3c
       0.00832275 0.022447733 -0.02577738 0.030346215
000190 0f e0 b0 ba d9 37 d8 3c 96 f5 8c 3c 59 83 99 3c
       -0.0013494509 0.026393818 0.017206948 0.01873939
0001a0 3b 22 a3 3c 48 d5 99 3c ba 5e 0b 3c 4b f6 ef 3c
       0.019913783 0.018778458 0.008506471 0.029292246
0001b0 f4 2e 60 bc 4e 53 92 3c 35 ee d0 bc 8c 77 9a 3c
       -0.0136830695 0.017861988 -0.025504211 0.018855833
0001c0 b9 bd 85 3c 4d 57 44 bc 80 7f e4 3a d9 2f 8e b9
       0.016325818 -0.011983705 0.0017433017 -0.0002712
0001d0 56 05 ce 3c e1 f5 b5 bb 68 b7 33 3c f3 d0 16 3b
       0.025149029 -0.0055529927 0.01096902 0.0023012727
0001e0 21 9b c4 3c 6f 0e 0b 3c 34 ec e4 3c 80 10 bd ba
       0.023999752 0.008487328 0.027944662 -0.0014424473
0001f0 63 db 59 3c 69 06 60 3c 97 ba 56 3c db 06 df bb
       0.013296935 0.013673403 0.01310601 -0.006806237

network_body._body_endoder.seq_layers.2.weight f4 [128, 128]
000000 36 d5 22 be 9d 89 a4 bd 9a 11 07 bd 82 20 1a 3e
       -0.15901646 -0.0803406 -0.03297577 0.15051463
000010 d8 ea 79 bd 40 26 b6 3c ba c2 36 be 63 3b 22 be
       -0.06101498 0.022235036 -0.1784772 -0.15842967
000020 58 94 05 be 6b a4 ea 3c be 63 39 3e 13 9a be 3d
       -0.1304487 0.028642854 0.18104455 0.09306731
000030 fd 5e 3a bd 26 30 20 3e 3d ce 6c 3c 73 d0 12 be
       -0.045500744 0.15643367 0.014453468 -0.1433733
000040 0b 41 f5 3c 80 cc 6b bd 8d 3e 68 bd 2d 46 92 3e
       0.029938241 -0.057568073 -0.056700278 0.28569165
000050 c6 d9 44 3e 25 e4 b6 3b 64 d0 a4 3d 9e 37 4b bd
       0.19223699 0.005581396 0.0804756 -0.049613588
000060 ce 4b ab bd be fd b3 bd 3c b9 c8 3d 2e 9b c3 bd
       -0.08364068 -0.08788632 0.09800956 -0.095510826
000070 9f 2a 2e 3d 2e e5 90 bc c6 a7 99 3d ff 44 02 bd
       0.042521115 -0.017687406 0.07502703 -0.03180408
000080 54 44 10 3e 58 c3 1c 3d 67 8f 64 3c 30 44 39 ba
       0.14088565 0.03827223 0.013950205 -0.00070673507
000090 fd 11 d7 3d 07 c6 03 bd 12 ec 76 3d 99 27 92 bc
       0.10501478 -0.032171275 0.060283728 -0.017841147
0000a0 d3 a5 14 3e 8c 60 84 bc be 7b 9e bd 1a 53 f0 3d
       0.14516382 -0.016159318 -0.07738446 0.117346
0000b0 0b ce cc 3b 07 fd fb 3d 10 8c 80 3c 94 a9 60 3e
       0.006250148 0.123041205 0.015691787 0.21939689
0000c0 ba fe 14 3e e9 7b 54 3c 9a 51 97 bd d2 ca 4e 3d
       0.14550295 0.012968996 -0.07388611 0.050486393
0000d0 26 f4 0c be 67 d1 ce 3c 91 00 f0 3d ab fc f0 3d
       -0.1376501 0.025246335 0.11718858 0.117669426
0000e0 f8 0e 0a 3e 0e eb 00 bc fb 05 ea 3c 88 04 07 be
       0.13482273 -0.007868541 0.028567305 -0.13185322
0000f0 02 08 bd bd 07 22 d6 3c 5c a0 0a 3e c1 48 31 bc
       -0.09230043 0.026139272 0.13537735 -0.010820569
000100 07 ec 82 bd 6a 53 18 3e 88 8b 42 bd 61 99 b1 3c
       -0.06392675 0.1487557 -0.04749635 0.021679582
000110 2b 58 5e bd 48 33 b6 ba d4 f0 61 3d 93 3f df 3d
       -0.054283302 -0.0013900781 0.055161312 0.10900798
000120 c6 70 ca bc 55 6c b2 3c 2a 5e 88 3d 0f 8a 33 bd
       -0.024711978 0.021780172 0.06658585 -0.043832835
000130 12 ed 5c bd 4d 47 49 be 5c cc ac 3c fa 27 ae 3d
       -0.053937025 -0.19656105 0.02109354 0.08503719
000140 bc 3c 23 be 0c d9 a0 bd fb 07 83 3d b8 df b4 3c
       -0.15941137 -0.078538984 0.063980065 0.022079334
000150 0e f5 c7 3d 43 69 f4 bc 42 19 15 bd ed f4 09 3e
       0.09763537 -0.029835349 -0.03640104 0.13472338
000160 ad 43 3b bd e3 7d 33 3d c7 a1 86 bd 19 7d 73 bd
       -0.045718838 0.043821227 -0.06573825 -0.059445474
000170 c4 c5 a6 3d e7 56 04 be 7d 20 b3 3c d8 30 01 be
       0.081431895 -0.12923776 0.021866078 -0.12616289
000180 99 d8 b7 bd 1f 02 d3 bd 92 d1 8c bd 97 51 27 3d
       -0.089768596 -0.10303139 -0.0687591 0.040849295
000190 b5 90 dd bd 4b 11 86 3d a9 bf ef 3d 33 2c c9 bc
       -0.10818616 0.06546267 0.11706478 -0.024557209
0001a0 fb 10 07 3d f2 16 23 bd 3a 8d 36 bd d6 d6 63 3d
       0.03297518 -0.039816804 -0.044568278 0.055624805
0001b0 37 f0 de bd 76 c8 20 bd 76 68 5f 3e 0f d5 99 3d
       -0.10885661 -0.039253674 0.21817192 0.07511341
0001c0 8d 67 c7 bd 6d d0 8a be 5b 81 b9 3d d8 68 02 3e
       -0.097365476 -0.2711214 0.09057876 0.12735307
0001d0 3c a4 4a 3d a0 3c 84 bc 81 26 99 bd 32 a2 cb bc
       0.049473032 -0.01614219 -0.07478047 -0.024857614
0001e0 95 0a c5 3c 41 06 9b bd bb 08 3b bd 30 29 a6 3d
       0.024052897 -0.07569552 -0.045662623 0.08113325
0001f0 ac 4a 01 be 14 03 6b 3d 5d a0 88 bd 69 cb 34 3e
       -0.12626141 0.057375982 -0.06671212 0.1765572
000200 c7 38 8e 3d 8b 15 44 3d 29 ca 63 bb dc 78 1a bd
       0.06944423 0.047872107 -0.0034757948 -0.037712917
000210 11 7a 29 3e 63 5a 79 3d e4 4e bf bd fc 41 4e 3d
       0.16550471 0.060877215 -0.09341219 0.050355896
000220 38 28 a9 bc 99 3c b7 3d 6d 1d d9 3d dc 54 47 3d
       -0.02064906 0.08947105 0.10601316 0.048664913
000230 3b d2 74 bd 93 bc a2 3d 97 2a 7d bc 0b ca 14 3d
       -0.059770804 0.07946124 -0.015452049 0.036325496
000240 c4 11 4b bd 04 c1 17 3e 25 7f b8 3d 17 dc fb bd
       -0.04957749 0.14819723 0.09008626 -0.12297838
000250 e6 1a 9c bb 54 8e 16 bd f5 5a 5d 3d 17 d6 ae bd
       -0.0047639487 -0.03675683 0.05404182 -0.08536928
000260 17 69 83 3d a7 82 9a bd 02 ed 2e 3e a5 76 4a 3c
       0.06416529 -0.07544451 0.17082599 0.012357389
000270 96 94 13 be 51 2c 93 bd 93 f8 26 3e cb b6 1f 3c
       -0.1441215 -0.07186187 0.16305761 0.009748171
000280 b4 17 fd bc 68 b4 0a 3e fa 38 07 bc f9 a2 de 3d
       -0.030895092 0.13545382 -0.00825333 0.10870928
000290 42 cb 88 bc 84 b8 a3 bd a5 5b 12 bd c9 98 ef bd
       -0.016698483 -0.07994178 -0.03573193 -0.11699063
0002a0 76 18 ad 3d ab 96 4c 3e 33 93 38 be 6d 90 9f bc
       0.08451931 0.1997935 -0.18024902 -0.019478047
0002b0 67 13 af 3c 53 d9 17 bd ad 28 2b 3e 3a 24 8e 3b
       0.021371556 -0.03707249 0.16714735 0.0043378146
0002c0 59 9d 85 3d de 18 21 3e a1 a2 d8 bd e9 47 03 3d
       0.06524152 0.15732142 -0.10577894 0.032051
0002d0 49 c9 cf bd 7b bc 81 bd 83 b1 6b 3d b1 5d 18 3e
       -0.10145814 -0.06334778 0.057542335 0.1487949
0002e0 f9 0b 02 3d f0 46 8c 3e a4 42 f7 3d 1a 55 da 3a
       0.0317497 0.2739787 0.120732576 0.0016657442
0002f0 16 9b 41 bd ab ea 6e 3b f3 d4 b3 3d 78 05 84 3c
       -0.047267042 0.003645579 0.08780851 0.016115889
000300 41 f4 5a 3e 1b da dc 3c 4d 07 b8 bc 6e 48 f2 bd
       0.21382238 0.02695947 -0.022464419 -0.11830221
000310 45 d7 48 3d da 02 6c 3d 28 38 17 3e 41 e2 0c 3e
       0.049033422 0.057619907 0.14767516 0.13758184
000320 20 78 a5 3b b0 1e 17 be 0c fc 97 3d 3e c0 2d be
       0.0050497204 -0.147578 0.07421121 -0.16967866
000330 ce aa e3 3c 9f 08 6a bd aa 54 8e 3c fb 6a 83 3d
       0.027791407 -0.057137128 0.017374355 0.06416889
000340 d5 53 0d bd e1 ab 5f bc f3 2d a3 3d 2f 2a d3 3d
       -0.034503777 -0.013651819 0.079677485 0.1031078
000350 17 41 88 be 48 4a 0d be ed 92 be 3c 84 fc 04 be
       -0.2661216 -0.13797867 0.023263419 -0.12986952
000360 e2 41 66 3d 00 39 f7 3d a3 15 80 3d fb a8 d7 3d
       0.056215174 0.12071419 0.06254127 0.10530277
000370 21 5f 09 3e 3e ac 9d 3c 0d 28 b5 3c 9a 5b e6 3d
       0.13415195 0.01924717 0.022113824 0.1124794
000380 6a fa 1b 3e 12 93 78 bd 40 f8 d9 3b 1b af bd bc
       0.15232244 -0.060687132 0.006651908 -0.023154786
000390 b2 4c a5 3c eb 5b 28 3d 45 cb 28 bd 6d 62 38 be
       0.020178173 0.041103285 -0.041209478 -0.18006296
0003a0 49 d2 ce 3d 5c 39 73 bd a6 85 d9 3d f3 61 ee 3d
       0.100987025 -0.059380874 0.106211945 0.11639776
0003b0 c4 c6 f6 3d 9a 1b 20 3c 3f fb 32 3c ae 51 2a 3d
       0.1204963 0.009772206 0.01092416 0.041581802
0003c0 c2 3c bb 3c bb 3a 5d bd cb 55 25 be 68 87 b8 3d
       0.02285612 -0.054011088 -0.16146009 0.09010202
0003d0 52 02 95 bd d1 a0 24 3e 1f 21 29 3e 50 89 ed 3d
       -0.07275833 0.16076972 0.16516541 0.11598456
0003e0 5d 98 37 bd 1c ff a1 3d 62 d3 c3 3d b8 22 b3 3c
       -0.04482304 0.079099864 0.095618024 0.021867141
0003f0 5a 59 c1 bb 77 62 f6 bd b1 9d 04 3d eb 6c bc 3d
       -0.005900544 -0.120304994 0.03237695 0.09200462

network_body._body_endoder.seq_layers.2.bias f4 [128]
000000 cc 3b 6d 3c 37 b5 2f 3d 64 4d ba 3b 12 d1 bc 3c
       0.014479589 0.04289743 0.005685495 0.023048911
000010 fb b9 b4 3c 54 de 93 3c f9 86 ba ba 96 3f 32 bc
       0.022061339 0.01805035 -0.0014230899 -0.010879418
000020 96 3d 1a 3a f4 28 eb 3b bc cb b5 3c d2 14 28 b9
       0.0005883811 0.007176513 0.022191875 -0.00016029485
000030 31 60 bb 3b b8 9d 09 3d 9b 97 ec 3c 28 5b 7e 3c
       0.005718254 0.033597678 0.028880885 0.015524663
000040 ce 80 90 3c c8 88 b6 3b 98 fb bf 3c f1 89 f8 bb
       0.017639544 0.005570505 0.023435399 -0.0075848033
000050 1c e8 00 3c 43 38 b7 bc e9 aa bb 3b 85 ae 61 bc
       0.007867839 -0.022365695 0.005727161 -0.013774519
000060 b5 07 42 bc af 30 57 bc ee 42 92 3c bb 75 d5 39
       -0.011842658 -0.013134166 0.01785418 0.00040714242
000070 cc de e8 3c 3c 9e e8 ba b1 16 43 bc e8 40 b6 bb
       0.02842655 -0.0017747353 -0.0119072655 -0.0055619366
000080 a8 bf b1 bb a5 9c 2f 3b eb cf b6 3b 63 65 38 3d
       -0.0054244585 0.0026796248 0.005578985 0.045018565
000090 ba ee ee 3c 40 19 80 bb a1 8c ad 3c 2e 72 52 3c
       0.029166568 -0.00390926 0.021185221 0.012844605
0000a0 1b d3 9a 3c 40 d6 c6 3c d7 7e 91 bb 27 3e bb 3c
       0.018899491 0.024272084 -0.0044401693 0.022856785
0000b0 44 6f 4d 3c 1b 8e c1 bb f9 2d cf bb 3c fa a4 3c
       0.012538735 -0.005906833 -0.006322619 0.020138852
0000c0 56 9e a1 3c 3d 82 95 3b 88 12 8c 3c 1c 7e c6 3b
       0.01972882 0.0045626448 0.01709868 0.006057514
0000d0 82 98 75 3c d8 ad 4c 3c fd 49 89 3c b7 09 c9 3b
       0.014989974 0.012492619 0.016758913 0.0061351913
0000e0 10 21 52 bc 40 13 ae 3c 2e 70 ce 3c 5d d8 be 3c
       -0.0128252655 0.021249413 0.025199976 0.02329653
0000f0 85 03 3e ba 79 d6 12 3d de 7c 30 3d 4f 76 6a 3b
       -0.0007248449 0.03584907 0.043087833 0.0035776084
000100 17 74 39 3c a3 18 97 3c df cc d2 3c d9 1c 5b 3c
       0.011319182 0.018444365 0.025732456 0.013373577
000110 fa 01 a0 3b 9a 57 2a 3c 11 b6 97 3c 09 34 06 bc
       0.004883048 0.010396862 0.018519433 -0.008191117
000120 d2 c4 75 3b d5 15 e3 bb 9b 66 40 3c 90 be b7 3b
       0.0037501347 -0.006930093 0.011743213 0.0056074336
000130 cf fd 8f bc fd df 45 3b 91 5d b7 3b c8 5b 24 3d
       -0.01757708 0.0030193322 0.005595871 0.040126592
000140 c7 aa 44 3c a4 fb e2 3c 28 90 cf 3c 38 50 33 3b
       0.012003607 0.027707882 0.025337294 0.0027361047
000150 88 03 7f 3b 5c 28 08 3d c5 47 b2 3b 96 2b 84 3b
       0.0038912017 0.033241615 0.0054406845 0.004033516
000160 46 7f 86 3a 42 1a 84 3c e6 cc 04 3d 1d 0a a8 3c
       0.0010261319 0.016125802 0.03242197 0.020512635
000170 47 ff 68 bc 93 99 84 bb 03 4f c2 3c 19 bf 06 bb
       -0.014221019 -0.004046628 0.023719316 -0.002056068
000180 34 ce 6a 3c 04 6c 26 3c 81 c5 14 3c 6b 6d c4 3c
       0.014331389 0.010157589 0.009080292 0.023977956
000190 16 07 8c 3b 2d 0a 1c 3c 1b 6b c9 ba f5 c7 82 3d
       0.0042733056 0.0095239105 -0.0015367003 0.06385795
0001a0 e4 b6 7e ba cc 67 7d ba 8b 77 5c bc 0c 86 2c 3d
       -0.0009716584 -0.0009666651 -0.013456236 0.042120025
0001b0 99 97 78 3c 9f c1 60 bc f0 d5 5a 3b d9 d2 93 3b
       0.015172862 -0.013718038 0.0033391677 0.004511219
0001c0 ae 5e c4 3b 6b cf fc 3c 4d 69 eb bb 07 29 a9 bc
       0.005992732 0.030860623 -0.0071841837 -0.020649446
0001d0 aa 80 ba 3b 04 58 80 3c 6c e7 34 3d 5a 2c 16 bd
       0.0056916075 0.01566697 0.044166014 -0.03666339
0001e0 5d bc 30 3c 91 e6 4c 3b ca 48 8a 3c 0a 4e 15 3c
       0.010787097 0.0031265358 0.016880412 0.009112844
0001f0 a0 43 10 bc 2e 95 87 3b ba 71 f0 38 85 c9 67 3c
       -0.008805186 0.0041376567 0.00011465275 0.014147167

action_model._discrete_distribution.branches.0.weight f4 [3, 128]
000000 0d 26 3d 3c dc 93 ab ba 5b dd dd 3b e2 71 ff 3c
       0.011544717 -0.001309033 0.0067707724 0.031182233
000010 52 6a d0 ba fe 93 08 bd e3 57 b8 3b c6 a1 3d 3b
       -0.0015900827 -0.03334426 0.0056257113 0.0028935536
000020 9b ef 8a 3b 43 82 bf 3b 0f 3a 20 bd 07 73 a3 3c
       0.004239989 0.005844386 -0.03911787 0.01995231
000030 09 ac b1 3b 48 04 d5 bc 54 63 08 bd cb db c0 bc
       0.0054221195 -0.026003018 -0.03329785 -0.023542305
000040 58 95 01 bd c9 23 b0 bc 7d 0f 1f bc 20 94 74 ba
       -0.031636566 -0.021501439 -0.009708283 -0.00093299337
000050 e9 e3 7d bc a7 5f dc 3c df 20 1a bc 0c 38 5e 3b
       -0.015496233 0.02690108 -0.009407251 0.0033907918
000060 29 a8 79 bc a8 62 66 3b d7 9e 9b bc 25 99 c3 3b
       -0.015237846 0.0035154019 -0.01899664 0.005969184
000070 d2 a4 28 bd c6 a7 88 bb 37 86 77 3b 28 33 a0 3b
       -0.04117281 -0.004170391 0.0037769207 0.004888911
000080 2f c6 8b 3c 76 e2 83 3c ae 98 d4 bc 53 d4 07 3d
       0.017062275 0.016099196 -0.02595171 0.033161473
000090 87 26 c6 bc 99 a7 15 bc 31 3f d7 bc 8e 32 f4 bb
       -0.024188293 -0.009134197 -0.02627525 -0.0074523157
0000a0 60 43 12 bd 64 a9 02 3d e5 15 e5 3a 8a 46 a7 3c
       -0.035708785 0.031899825 0.0017477839 0.020419378
0000b0 d1 70 38 bc f4 94 24 bc 54 c9 00 3c 76 0d bb bb
       -0.011257366 -0.010045279 0.0078605 -0.005708392
0000c0 06 7d 92 bc 52 16 23 bc 5d a0 27 3d 94 57 f4 ba
       -0.017881881 -0.009954052 0.04092442 -0.0018641823
0000d0 7d 09 21 bc a0 e4 2e 3b ba 7e 1d bc 48 11 95 bb
       -0.009828922 0.0026686564 -0.0096127335 -0.004549179
0000e0 48 09 80 3b 65 1f b3 3b 70 6f 84 bc f9 db 5f 3b
       0.0039073564 0.005466389 -0.016166419 0.0034158214
0000f0 01 dd 4e ba dc 5e 07 bc 29 59 8b ba e1 63 b2 bc
       -0.00078912085 -0.008262362 -0.001063143 -0.021776142
000100 e2 14 82 3c 59 1b ab 3a d9 9d b2 bc a5 25 c3 bc
       0.015879098 0.0013054415 -0.021803783 -0.023821661
000110 b4 62 1b 3c ab cb b5 ba d3 7c c1 bc f3 c4 40 3c
       0.009483982 -0.0013869902 -0.023619091 0.011765706
000120 2d d4 23 bc f4 d3 77 3c 3b e4 16 3d 33 0a 4e 3c
       -0.009999317 0.015126217 0.03683875 0.012575674
000130 71 23 89 3c e9 74 dd b9 29 04 aa 3c 65 5c 1c bd
       0.016740533 -0.0004223951 0.020753937 -0.03817405
000140 58 98 da 3b a8 10 2d 3c bd ee d4 3b 46 c0 b5 3c
       0.006670993 0.010563053 0.0064981864 0.02218641
000150 60 c3 45 bc 3e 4c 08 bc 77 36 5a 3b 84 13 02 3d
       -0.012070507 -0.008318959 0.0033296624 0.031756893
000160 cd dd 39 3c 4e 6a 7e 3a 15 4a a4 bc d0 9e ce 3c
       0.011344385 0.00097051717 -0.020054856 0.025222212
000170 49 72 a3 3c 78 fb 1d bc e5 b5 86 3b c7 f2 89 bc
       0.019951956 -0.009642474 0.004111039 -0.016839398
000180 8f 31 33 3c 38 77 ec bc 40 ca b2 bc f1 f2 8a bc
       0.010937109 -0.028865442 -0.021824956 -0.016961547
000190 f7 e2 25 3c ac 2d 01 3b 77 e1 97 3c 62 bf 4d 3b
       0.010124913 0.001971106 0.018540127 0.003139459
0001a0 86 d6 9d bb 1b 17 08 3c 4b ee a5 3b 97 8a 87 bc
       -0.004816833 0.00830629 0.005063807 -0.016545577
0001b0 b9 ce e5 bc d9 e1 51 3b 1c e9 b6 ba 7b 4a 09 bc
       -0.028052675 0.0032025485 -0.001395497 -0.008379574
0001c0 67 02 fc 3b 8d 53 8d 3b 4a 00 05 3c 07 01 9a 3c
       0.007690716 0.0043129385 0.008117745 0.018799318
0001d0 da 3b b4 bb e9 c0 43 bd d1 0a 1c bc 48 b5 d6 3b
       -0.005500299 -0.047791395 -0.009524063 0.006552372
0001e0 a0 4b 8c 3c 09 1e 95 39 cf 9f 26 3c 23 b1 34 3b
       0.017125905 0.00028441873 0.010169937 0.0027571402
0001f0 c9 3f df 3c b9 6e b6 3c be 5f 87 bc 95 46 cd bb
       0.027252095 0.022269594 -0.016525146 -0.0062645175
000200 39 13 0f 3c 74 41 aa 3b b2 a2 ad 3a 4e 05 44 bc
       0.00873261 0.005195791 0.001324734 -0.011964155
000210 3c e6 ab 3c a2 63 13 3b 7a 3d 71 3c e5 c6 cf 3c
       0.020983808 0.0022489806 0.01472413 0.025363395
000220 f4 2a 17 bc b0 92 01 3c 23 2a 32 3c 29 05 b6 bb
       -0.009226549 0.007908508 0.010874304 -0.0055548144
000230 a6 5e 9f 3b 0c 82 81 3a 10 02 50 3b 11 a3 eb 3b
       0.004863578 0.0009880676 0.003173951 0.00719107
000240 a4 45 4d 3c 5e a2 5e 3b fb d0 a1 3b fc 47 76 bc
       0.012528811 0.003397129 0.0049382425 -0.015031811
000250 74 0e f2 3a 6f 2f be bc fe 6a 8e 3c 36 4f 23 3c
       0.0018467442 -0.023215977 0.017385002 0.009967616
000260 ad 02 4e 3c ea 4b 44 3c a8 63 5e 3c b8 77 e9 3b
       0.01257388 0.01198099 0.013573565 0.0071248673
000270 14 79 b7 3b bc cc c1 3a a8 45 ab 3b e6 17 0b 3c
       0.0055991504 0.0014785747 0.0052268095 0.008489585
000280 12 fb d6 3b 14 7e cd 3a 07 90 c7 bb 9f 32 a1 bc
       0.0065606916 0.0015677833 -0.0060901674 -0.019677458
000290 1c 7d 47 3c d7 86 0b 3d e4 41 93 bb 84 ca 46 3c
       0.0121758245 0.03406414 -0.0044939388 0.012133244
0002a0 66 2a 69 3a 14 35 94 bb c8 1e 17 bc c7 ff ad bc
       0.00088945625 -0.004522929 -0.009223647 -0.021240128
0002b0 34 7b 2f 3b a9 d4 dc 3c da 72 5a 3c 3a a7 87 3c
       0.0026776316 0.026956873 0.013333047 0.016559232
0002c0 e9 ea 46 3c f8 cc eb bb 07 ad 33 ba 38 09 10 bc
       0.012140968 -0.007196065 -0.0006854091 -0.00879126
0002d0 d8 b6 16 bb 5f 50 70 bc 42 90 4e 3c 8e 8e e9 3b
       -0.0022997167 -0.014667599 0.012607636 0.0071275895
0002e0 43 3b 96 bc f8 70 99 3b 33 cc be 3c 49 e0 33 3c
       -0.018338805 0.0046826564 0.02329073 0.010978767
0002f0 d8 39 1a ba fc b7 8d 3b 29 f4 aa bc a1 60 2b 3c
       -0.0005883253 0.004324911 -0.020868378 0.01046005
000300 cf 11 24 bc 40 6f 64 3b f5 4d 0b 3c 06 ee 9c 3c
       -0.0100140115 0.003485635 0.008502473 0.019156467
000310 b2 d7 70 3c 9d 9a b6 bc 22 19 ac 3c dd 3b 1e bc
       0.014699863 -0.022290522 0.021008078 -0.009657827
000320 25 e9 a9 3b 40 7b d9 3b f5 bc 41 bb 4d a7 0d bc
       0.0051852637 0.006637007 -0.002956209 -0.008645845
000330 69 ca bc bb 12 d9 1a bb dc f4 c9 bc a1 c4 64 3b
       -0.005761434 -0.002362792 -0.02465289 0.003490724
000340 c3 9a 78 bb 0b f0 52 3c 1e cd ca bb ca 15 b6 bc
       -0.0037934042 0.0128746135 -0.0061890027 -0.022227187
000350 2b 11 9e 3b 1c 12 a1 bc 4a ad 83 bc e6 f1 95 3b
       0.004823824 -0.019661956 -0.016073842 0.0045759557
000360 83 e6 c2 bb f2 ea a9 bc 0d 19 29 ba ae 80 44 3b
       -0.0059478893 -0.020741913 -0.0006450571 0.0029983926
000370 ac d4 83 3c 66 cc 43 3c 06 c2 08 3d 1c 21 d8 bb
       0.01609262 0.011950588 0.03338816 -0.006595744
000380 63 0e 91 3c 76 c6 f1 bb 50 80 f8 3b ce aa b2 3b
       0.017707055 -0.0073783947 0.0075836554 0.0054524904
000390 45 6a 65 3c a2 f8 63 3c 60 03 7b ba 62 46 a5 ba
       0.014002387 0.013914259 -0.0009575393 -0.0012609477
0003a0 42 99 18 bc a8 ab fc ba 69 d7 0d bc 7e 77 0e 3c
       -0.009313883 -0.0019277232 -0.008657315 0.008695481
0003b0 a2 a0 93 bc c4 c3 22 bc 82 b7 e8 bb c8 88 86 bc
       -0.018020932 -0.0099343695 -0.007101954 -0.016422644
0003c0 fe 08 00 3c 72 46 d6 ba 81 02 45 bb 9e 78 dc bb
       0.007814644 -0.0016347899 -0.0030061307 -0.006728246
0003d0 2c 3e 82 bb 2e 66 1e 3c 49 fc 71 bc 0d b2 3b bc
       -0.0039746966 0.009667916 -0.014769622 -0.011456025
0003e0 58 89 1a 3a 44 19 88 bc 73 0e b9 3c 32 5b 84 3a
       0.00058950996 -0.01661361 0.022589898 0.0010097979
0003f0 63 40 aa bb 8e 81 67 bc 43 fc b4 bc 25 de 59 3b
       -0.005195664 -0.014130009 -0.022092944 0.003324398

action_model._discrete_distribution.branches.0.bias f4 [3]
000000 e5 b8 6d bc 73 09 96 3b 7f 8c 19 3c
       -0.014509414 0.004578763 0.009371876

action_model._discrete_distribution.branches.1.weight f4 [3, 128]
000000 28 c5 e8 bc e8 87 82 bc c6 6e 4b bb 02 cb aa bc
       -0.028414324 -0.015933946 -0.0031041368 -0.020848755
000010 f5 7f 78 3d 22 ad 3e bd 2a 0b f2 bc d3 74 b6 bb
       0.060668904 -0.04655183 -0.029546339 -0.0055681258
000020 d8 5f 77 3c 05 f5 11 3d 85 0e 4e bb c4 64 d8 bc
       0.0150985345 0.03563406 -0.003144176 -0.026415236
000030 9c bc 11 bd 45 15 19 bd b3 25 8a 3b 2b fb c6 3b
       -0.035580263 -0.0373738 0.00421592 0.006072422
000040 9b 61 42 3c b3 1d 27 bd b6 cc 8b 3c 98 39 d6 3c
       0.011864091 -0.040799808 0.017065387 0.02615051
000050 70 14 ae 3c bd d1 b2 b9 6d 3c cd 3c c7 88 a9 3c
       0.02124998 -0.00034107073 0.025053227 0.020695103
000060 b1 66 a5 b9 0e ad e2 3c dc 66 84 bb 30 fc cd bc
       -0.00031547764 0.02767041 -0.004040582 -0.025144666
000070 04 50 c7 3c 9a a0 fc bb 51 cc 82 3c 61 7e 32 bc
       0.024330147 -0.007709575 0.015966566 -0.010894389
000080 a9 f8 33 bd 48 3d f2 bc 86 d3 1b bd 2a af c5 ba
       -0.043938313 -0.029570237 -0.03804352 -0.001508211
000090 b3 77 2e bc 33 61 41 bd 2b ae d9 3b e3 af f8 3c
       -0.010648656 -0.047211837 0.006643077 0.030357307
0000a0 82 e7 ad 3c ef bb bd bc 2f c0 06 bd 63 b1 98 bc
       0.021228556 -0.023160903 -0.032898124 -0.018639272
0000b0 ac 71 fa 3c 1a 20 b7 3b 13 78 a0 3c c2 f1 5e 3b
       0.030571781 0.0055885436 0.019588506 0.003401861
0000c0 4f db 21 3d f8 10 64 bc d6 43 0d bd d3 33 aa bc
       0.03951579 -0.013920061 -0.03448852 -0.020776665
0000d0 19 28 a7 3b 8e 90 9c 3b d9 58 3e bd f3 9a 2e bd
       0.0051012156 0.0047779744 -0.04647145 -0.04262824
0000e0 64 c6 28 3d ef 03 41 3d 10 ea 29 38 31 c0 c6 3c
       0.041204825 0.047122892 4.0510728e-05 0.024261566
0000f0 cf 04 2e bc ac 34 90 bc 64 54 07 bd 9e 54 12 3c
       -0.010621264 -0.01760324 -0.033039466 0.008931307
000100 14 87 3c bd ba 50 0e bd d2 f2 fb 3b 54 dd 8e bc
       -0.046027258 -0.034744956 0.0076888585 -0.017439522
000110 fa b5 c9 bc 96 69 ad bc 4f cd 17 3c 69 66 bf 3c
       -0.024622906 -0.021168511 0.009265258 0.023364263
000120 fe fe 18 3d 6b f7 93 3c 19 47 cf 3c bd 0e 07 bd
       0.037352555 0.018062314 0.025302457 -0.03297304
000130 33 c1 fe bc ab 30 af bc 32 83 8c 3c ed 03 07 3d
       -0.031097984 -0.021385511 0.017152403 0.03296273
000140 1d 76 30 bd c8 94 0d bd 4a e9 53 3a 74 29 10 bd
       -0.04308139 -0.034565717 0.0008083774 -0.035195783
000150 c5 aa 74 bc 80 d9 1d bd c4 2b 50 bc 89 8d 48 bc
       -0.014933293 -0.038537502 -0.012705747 -0.012240776
000160 15 46 d9 bc 2e 35 12 bd f5 f8 8b bc 84 3c 0b bd
       -0.026522676 -0.035695247 -0.017086485 -0.03399326
000170 61 99 d6 3a 8e ab 08 bd b7 22 20 bc 4c b9 fd bc
       0.0016372615 -0.033366732 -0.009773902 -0.030972145
000180 da 24 2e bc d8 e1 6c 3c dd 42 c6 bc b9 c8 85 bc
       -0.010628903 0.014458142 -0.024201805 -0.016331064
000190 26 cd 2f bd 22 c4 12 bd de 4f c9 3c 24 fa d5 bc
       -0.042920254 -0.035831578 0.024574216 -0.026120253
0001a0 d9 03 0f bb 66 32 f3 bc c8 9d c4 bc c1 ed 6b 3c
       -0.0021822362 -0.029687118 -0.024001017 0.014399947
0001b0 e9 a5 bd 3b 3a 68 b9 bc ae 71 4e 3d c3 bc e6 3c
       0.0057876003 -0.022632707 0.050401382 0.02816618
0001c0 91 ee d6 3c 01 d2 17 3d cf 4f 91 3c be 68 a7 bb
       0.026236804 0.03706551 0.017738251 -0.005108922
0001d0 c6 f6 f7 3c e9 b9 f4 bb 48 0d c6 bc fd ec f4 3c
       0.030269038 -0.0074684513 -0.024176255 0.029898161
0001e0 e1 2c 96 3a d7 95 ec 3b a8 16 08 3d 9b f7 07 3d
       0.0011457467 0.0072200107 0.03322473 0.03319512
0001f0 0e 67 6b bc 06 66 f8 bc f2 4f a1 3b 46 0b ec 3c
       -0.014367832 -0.030322086 0.0049228603 0.02881397
000200 34 fb 07 3d 40 03 d0 3b bf 0e 39 3c cb 4a 46 bb
       0.03319855 0.0063480437 0.01129502 -0.0030256982
000210 a1 51 3d 3c 78 07 18 3c 86 12 11 3c 8a 5f f7 bc
       0.011555106 0.009279124 0.008854514 -0.030196924
000220 93 37 94 3b 8b e4 92 bb ed d2 9c 3b ef 50 47 3b
       0.0045232265 -0.004482811 0.0047858865 0.003041323
000230 6a ad 29 bc 6c ec e0 b9 bd d1 31 3c f2 b8 24 3c
       -0.010356287 -0.00042900757 0.010853228 0.01005386
000240 a5 55 bd ba 72 55 97 bc 24 07 2c 3c 1d 60 d0 bb
       -0.001444508 -0.01847336 0.010499749 -0.006359114
000250 95 ae 66 3c 72 cf b9 bb cb 47 46 3c f3 36 c1 3b
       0.01407971 -0.0056704814 0.012102078 0.005896443
000260 79 b3 be 3b a1 d5 07 bc 35 13 fe 3a 51 c9 5a 3c
       0.0058197347 -0.008290679 0.0019384386 0.013353662
000270 5c 9f 42 3c 37 05 37 3c 6c c4 d5 3b e2 98 82 bb
       0.011878815 0.011170677 0.0065236595 -0.00398551
000280 09 ef 1e 3a 90 25 fd bb f1 17 ef 3c e6 4e 40 bc
       0.00060628407 -0.007725425 0.02918622 -0.011737561
000290 66 fe 78 bb b4 73 22 bc a9 33 ed bb 43 63 c4 3c
       -0.003799343 -0.009915281 -0.0072388244 0.023973113
0002a0 2f 52 27 bc b5 d9 97 b9 4b f1 d6 3c de f2 62 bc
       -0.010212465 -0.0002896317 0.026238104 -0.013851849
0002b0 54 ab f3 3c df d9 06 3c 6a b8 83 bc 50 f4 c5 b5
       0.029744782 0.008230655 -0.016079146 -1.4748748e-06
0002c0 9e d0 16 3c 22 18 85 bb 1f 2f 95 3c a5 d6 e6 bc
       0.009205012 -0.0040617147 0.018210946 -0.028178522
0002d0 d3 65 a9 3c cb f5 dd 3c 7d d8 c3 3c 9b f8 c2 bc
       0.020678436 0.027094742 0.02390694 -0.023800185
0002e0 94 b6 cd 3b 72 9c 79 3b 7e 4b 9e bc d7 26 bb 3c
       0.0062778685 0.0038087633 -0.019323107 0.022845669
0002f0 d9 f1 ba 3c 82 9d 8e 3c 73 f7 66 3c 94 db 43 3b
       0.0228204 0.01740909 0.014097082 0.0029885517
000300 06 7e ed bb c2 56 aa b9 48 f4 6e bc 90 8e b7 3c
       -0.007247689 -0.00032489566 -0.014584608 0.022406846
000310 3b 25 05 3d d9 69 3c 3b fd fc f6 3b 41 67 1a 3c
       0.03250621 0.0028749614 0.007537483 0.009424032
000320 ca a9 21 3c 61 4e 3a 3c d4 cd f6 bb 4c ac 65 3c
       0.009867141 0.011371226 -0.007531861 0.01401813
000330 b1 76 de 3c f7 cd 5f 3c 50 b3 73 bc da ee 50 3c
       0.027156206 0.013659946 -0.014874294 0.012752259
000340 55 70 e2 3b 72 8a e4 3a c8 13 a6 3c 7b e8 43 3a
       0.0069103637 0.001743628 0.020273104 0.0007473302
000350 e2 90 4c 3a 2a 88 be bb 1a 86 cb 3c 82 03 46 bc
       0.00078035716 -0.005814572 0.024844218 -0.012085797
000360 6b 6e df 3c 99 c6 55 ba b8 42 a2 3c 4a ba 0d bc
       0.027274331 -0.00081548985 0.019807205 -0.008650372
000370 13 33 64 3c 72 33 75 3c 1f 48 46 3c e1 0e c2 3c
       0.013928193 0.014965879 0.012102156 0.023688735
000380 43 ea 80 3c 66 24 9d bc a8 75 c0 3c e1 5c f9 3b
       0.015736705 -0.019182395 0.023493603 0.007609949
000390 fe 20 86 3b 6b 57 a3 3c 20 00 03 bb 44 eb b0 bc
       0.0040932884 0.019939145 -0.0019989088 -0.021596558
0003a0 7d 73 1d bc 82 9c 47 bc 78 22 ab bc 5f 30 0a 3b
       -0.009610054 -0.01218331 -0.02089046 0.002108596
0003b0 1b bb 9c 3c 39 13 81 bb 33 55 83 3c c8 af 4e 3c
       0.019132188 -0.003939059 0.016031837 0.012615152
0003c0 bb 2f 2b bc a0 c3 99 3c a1 2b 81 3c 9f 7a 78 3c
       -0.010448392 0.01877004 0.015767874 0.015165954
0003d0 be dc 5a bb 2e 13 f3 3c 52 f9 3d 3c b3 34 ad bc
       -0.0033395733 0.029672232 0.011595087 -0.021143293
0003e0 ab c2 42 bb 70 6c fa 3c 2e 57 49 3c 23 be ee 3c
       -0.0029718082 0.030569285 0.012288852 0.029143399
0003f0 2e 0d 80 bc 9f 72 15 3c ab 2e 64 3c 2e fd 67 3c
       -0.015631285 0.009121566 0.013927142 0.014159484

action_model._discrete_distribution.branches.1.bias f4 [3]
000000 61 1d ce bb 50 bf cf 3c 4b 64 00 bc
       -0.0062901233 0.02535978 -0.007836412

action_model._discrete_distribution.branches.2.weight f4 [3, 128]
000000 3c 05 85 bc 98 de 5e bd e8 7e 09 3c a4 0a da 3b
       -0.016237848 -0.0544115 0.008392073 0.0066541005
000010 4a 75 0d bc 2c 7c 81 bb e3 81 f8 3c 95 28 39 ba
       -0.008633921 -0.00395157 0.030335372 -0.0007063237
000020 5f d9 23 3c b9 77 e2 3c 80 f0 cb bc aa 7c c1 b9
       0.010000556 0.027644979 -0.024894953 -0.0003690471
000030 eb f4 37 bc 92 b6 3e bd 5f 5d 4a bd 32 71 e4 bc
       -0.011227827 -0.04656083 -0.049405452 -0.027886007
000040 13 fa 36 bd a9 75 04 3d 99 4c 19 bd c3 59 51 bc
       -0.044672083 0.032338772 -0.037426565 -0.0127777485
000050 3a ee 95 bc b5 99 0e 3d 9f 11 0e 3c 93 4e 81 3c
       -0.018302072 0.034814555 0.008671193 0.015784537
000060 5a c1 c9 bb 75 8a c5 bc e7 ef 07 bd 6e d5 93 3c
       -0.0061570825 -0.024113873 -0.033187773 0.018046107
000070 35 93 d5 bc 3c 92 32 3a ca 24 10 3c c7 e4 a4 3b
       -0.02607117 0.0006811952 0.008797834 0.005032155
000080 bc f5 90 3c 28 34 31 bb 05 8d 11 3d 96 eb 01 bd
       0.0176953 -0.0027039144 0.035534877 -0.031718813
000090 c8 e6 19 bd 4b 26 fe 3c 65 58 9c bc 76 a9 8b bc
       -0.037573606 0.031024119 -0.019085119 -0.017048579
0000a0 0c be e8 bc 30 50 6a bc a7 b2 41 3d 22 90 d4 38
       -0.028410934 -0.014301345 0.047289517 0.000101357946
0000b0 a8 63 05 bb 81 e3 45 bc cd bb cf bb cc 1d 97 bc
       -0.002035359 -0.012078167 -0.0063395263 -0.018446825
0000c0 11 76 20 bc c2 7a 85 ba 1b 03 1d bc 45 fd b4 bc
       -0.009793774 -0.0010183679 -0.00958326 -0.022093425
0000d0 23 09 9d 3c 7a 25 c6 bc ae f7 58 3c 79 3f 24 3d
       0.019169396 -0.024187792 0.013242645 0.040099595
0000e0 04 bb e4 3b d8 6f aa bc 96 6c 29 bd aa 80 c9 bb
       0.006980302 -0.020805284 -0.04136332 -0.006149371
0000f0 31 ab 88 3c 73 07 10 bd 73 88 40 bd e3 40 8c bc
       0.016683193 -0.035163354 -0.047005128 -0.017120784
000100 a7 19 12 3a ab 49 1d 3a 0d 34 bd bc 01 13 aa bc
       0.00055732805 0.0006000052 -0.023096109 -0.020761015
000110 f8 49 30 bb 0f 5f d7 bc 02 e9 8b bc eb 72 35 3c
       -0.0026899558 -0.026290445 -0.01707888 0.011074762
000120 d6 b8 fa bb e6 87 8b bc 73 dd 4c bc ef 2d 87 3c
       -0.0076514287 -0.017032575 -0.0125039695 0.016501395
000130 3f 97 e5 3c ef e7 20 bc ae bb ea 3a 5f 4f a1 bc
       0.028026221 -0.009820922 0.0017908716 -0.019691167
000140 e9 fd ce 3b 38 d7 c8 bc 6b 8d 4a bd 7e 5f 5b 3b
       0.0063168895 -0.024516687 -0.049451273 0.0033473666
000150 e8 79 a1 b9 a5 54 97 bc b7 74 d6 3b 71 70 bd 3b
       -0.0003079914 -0.018472979 0.006544675 0.0057812263
000160 ee fd 34 bb a8 b5 39 3c 2d bd 27 bd 7c 0a e7 bc
       -0.0027617174 0.011334814 -0.040951896 -0.028203242
000170 98 d7 a0 3c ac 12 60 3c 61 b8 f4 bc 8a 55 89 bb
       0.019634053 0.013676327 -0.029873075 -0.0041911053
000180 f0 2a eb 3a b3 d3 94 3c 06 58 ba 3b cf 25 44 3c
       0.0017941874 0.018167352 0.0056867627 0.011971905
000190 91 f5 bc 3c 4e 3f cc 3c f3 9f 0f 3b ab 0a 6f bd
       0.023066314 0.02493253 0.0021915406 -0.058359783
0001a0 9a 9b 30 3c de 79 20 3d 60 28 c4 3c 5a 3f 6a bd
       0.010779286 0.03917872 0.023945034 -0.057189323
0001b0 89 78 0e bc ca 73 cc 3c a9 a1 44 3b 62 a8 d8 bc
       -0.00869573 0.024957556 0.0030003584 -0.026447479
0001c0 cc c5 12 bc 4a 71 1f bd 49 cf 74 bb 69 6e 87 3c
       -0.008958291 -0.0389264 -0.0037354997 0.01653214
0001d0 e2 d4 68 3c 8b 35 e7 bb 85 93 0f bd 84 e1 ee 3c
       0.0142109115 -0.0070559434 -0.035052795 0.029160269
0001e0 39 6e 99 bb ba a3 bd bb 54 4b 84 bc 97 2c 6a bc
       -0.004682329 -0.00578734 -0.0161492 -0.014292858
0001f0 03 40 4b 3d c9 cc 21 bb 2e af 03 bd eb 00 8a bc
       0.049621593 -0.0024688712 -0.032149486 -0.01684614
000200 ee 41 bf 3b eb a9 86 bc a3 f3 16 3a f0 5a 62 ba
       0.005836717 -0.016438445 0.00057583506 -0.00086347666
000210 c0 1c 1b bd 0a 7e bc 3c db 4f 22 3a b4 d2 f2 3b
       -0.037869215 0.023009319 0.0006191709 0.0074103717
000220 43 4d 15 3c 9f b5 cc 3c 43 4f 8b 3b 82 0d e2 3c
       0.009112659 0.024988947 0.004251392 0.027594332
000230 a5 ac f1 3b 6e 28 09 3c a6 50 57 3a 0e 3b 20 bc
       0.007375317 0.008371456 0.00082136167 -0.009779705
000240 45 3e 95 3c a6 fe 4f bc 76 4a b3 3b 78 ce d2 ba
       0.018218169 -0.01269499 0.005471523 -0.0016083261
000250 56 b1 8b bc d1 1a 8d 3b 56 e6 ab bc 43 3a 78 3c
       -0.017052334 0.0043061753 -0.020983856 0.015150609
000260 78 54 4b 3c 9f 3b 33 3c ac 5c 88 bb 7b fd 16 bc
       0.012410276 0.010939508 -0.004161438 -0.009215708
000270 b1 58 35 bc 3c c5 8f bc ba 70 5f bb 41 3e 5d bc
       -0.011068509 -0.017550103 -0.003409429 -0.013503612
000280 94 ea 80 bc 5f df 9d bb 37 13 b5 3b 82 6a 3f bc
       -0.015736856 -0.0048178877 0.005525972 -0.011683108
000290 e4 24 c8 3b 15 a4 2d 3c 78 da a1 bc 4b 28 d6 bc
       0.0061079133 0.010598202 -0.019757494 -0.02614226
0002a0 3e df b5 3b cc 3e 8f 3c e8 e4 00 bc 48 19 d1 3c
       0.005550294 0.017485999 -0.0078670755 0.02552475
0002b0 3e a6 93 bb a6 5b be bb be 70 f4 ba ec 14 5d 3c
       -0.0045059016 -0.005809265 -0.0018649322 0.013493758
0002c0 08 25 7c bc c1 ca f3 3b 62 ed bb bc 7a c6 e5 3b
       -0.015389688 0.0074399416 -0.022940341 0.0070121856
0002d0 d2 14 d3 3c 15 93 da bb 5b 92 9f 3c 2b 02 6b bc
       0.025766764 -0.0066703656 0.019478967 -0.014343779
0002e0 59 45 c4 b7 ba 5f 81 3b 3f 93 73 bc f2 d4 3a bc
       -2.3397313e-05 0.003948179 -0.014866649 -0.011403309
0002f0 a8 9d d9 3b 8d 71 94 3b 19 11 26 bc ff c9 17 bb
       0.0066411085 0.004530138 -0.010135912 -0.002316117
000300 e7 ab 84 bb 9d 19 07 3d 97 75 02 3c 8b c1 33 bb
       -0.0040488127 0.03298341 0.007962606 -0.0027428593
000310 40 12 98 3c 45 bf 46 3c 59 40 9c bc 55 ac 10 3c
       0.01856339 0.012130563 -0.019073652 0.00883015
000320 42 b4 03 bc 33 eb 8c 3c 34 6a 5e bc 4b 7d 9f 3b
       -0.008038582 0.017201995 -0.0135751255 0.004867231
000330 73 39 9c 3c e0 94 bd 3c 86 fb 0d bc e4 02 db bb
       0.019070363 0.023142278 -0.008665925 -0.006683694
000340 93 b4 22 3b b6 85 0c bc ab e3 85 3b 39 ea d9 3c
       0.002482687 -0.008576801 0.004085978 0.026600944
000350 82 f8 b3 3c fa 39 c7 3c b5 55 46 b9 94 36 57 3c
       0.021969084 0.024319638 -0.0001891468 0.013135571
000360 b5 5f 89 3b 76 33 8a bb 89 a0 75 bc bd d7 8c 3c
       0.0041923174 -0.0042175604 -0.014991888 0.017192716
000370 ee 8b 58 3c 5c bd 91 bb 09 76 dc 39 8a 3e b4 3b
       0.013216956 -0.004447622 0.00042049613 0.0055006193
000380 88 dd ec 3b 85 a3 a3 3b b6 e2 4e bb 38 4a 56 bc
       0.007228557 0.0049938583 -0.0031568236 -0.013079219
000390 22 74 73 3c 93 6c 9a 3c ab be d1 bc 4a 25 01 3c
       0.014859231 0.0188506 -0.025603613 0.007882426
0003a0 dd 77 4f bc 01 22 ce bb 5c c4 43 39 ed aa d8 3a
       -0.012662855 -0.0062906747 0.00018669799 0.0016530432
0003b0 5a 60 89 bb 3a 70 55 3c 30 8d 61 bc b4 7f 0b bc
       -0.004192394 0.013027245 -0.013766572 -0.0085143335
0003c0 e5 1c ec bc 2e c5 4f 3c d7 a2 41 ba b8 a6 69 3c
       -0.028822372 0.012681289 -0.0007386631 0.01426094
0003d0 f4 95 44 bc f8 4b 68 bb 13 55 45 3c 2d 64 26 bc
       -0.011998642 -0.0035445672 0.012044209 -0.01015572
0003e0 ff 7a f6 ba 9a 0b 4b bb f1 0d a7 3b c0 31 e3 3b
       -0.0018804966 -0.0030982257 0.0050980975 0.006933421
0003f0 68 95 9d 3c 07 1f 36 3c d1 fa 85 3c b9 e3 6e bc
       0.019236282 0.011115796 0.01635495 -0.0145806605

action_model._discrete_distribution.branches.2.bias f4 [3]
000000 63 a6 1d bd dd b3 f5 ba 48 a7 25 3d
       -0.038488757 -0.001874562 0.040442735
